src/artifacts/checkpoints/round_006.pt (torch, 181669 bytes, 10 tensors)

conv1.weight f4 [6, 1, 5, 5]
00000000: 3a13 8cbd c348 7abe a817 d8be d044 0bbe
00000010: e7a1 a93d a3b8 4d3e 4806 4dbd 9e29 00bf
00000020: 23a5 12be 1864 adbd 3df4 b23e 1f9c 963e
00000030: 6995 afbe 1e59 5abe 51fb ccbe 47af 8e3d
00000040: f257 0b3f 1620 063e c839 bcbd 5f3f b4bd
00000050: cc30 27be c412 a13e 68ce f13e a733 823e
00000060: b23f 0b3e d55d 913c 9d9c eabd 38c5 98be
00000070: aaa1 a53d 47fa 9f3e 9caa ae3d 6707 56be
00000080: 51a1 62be bd3b 0fbe 6c04 573e 9ecd d0bd
00000090: 7216 8bbe d0cc 7ebe 9ef4 90be 5868 c63d
000000a0: cd25 11be 7faa 21be b85c 13be afac 8fbe
000000b0: c460 7bbe dd8b c2bd b8cb 5ebe 7dfb 02be
000000c0: d604 d9bd 7f2c 70be 7e1c a33d 2747 66be
000000d0: bbaf 21be 55b2 99be 5c6c 97be 8051 82bd
000000e0: 3869 07be bcef cdbe 5987 bebe 2368 90bd
000000f0: 287f 41be 2ab9 58bd 6339 82be 8ef7 093e
00000100: d063 053e 8ddc 583e d9a0 a2bd 5b27 393e
00000110: 199a 9a3e 6669 5e3e c4e9 a03e 5f42 b63e
00000120: 6f25 b63e cc1a 463e ebd7 813d a778 a83d
00000130: 5dd7 a43d 92d0 8a3e f527 f6bb 6b9c 153d
00000140: 2d98 d4bc 6108 bc3e e808 4a3e 4c3b 70be
00000150: b1b0 c4bd 01de 823e 18e9 f93e 5beb d2bd
00000160: 5c67 a1be dd61 cbbe 2cd8 263e 6626 ad3e
00000170: 4c11 83bb cd99 2abe 047f 1abc 4001 223d
00000180: 9ce8 8f3e cd9d 9fbd 2e0d 1dbe 7eea 81be
00000190: 6389 bc3d 6e47 393e 2d03 be3d 81f2 163e
000001a0: 7496 d6bc 9e23 183d 6424 ba3e 02aa ec3e
000001b0: 57bc f53e 7678 8b3e 0241 04bd 04af d2ba
000001c0: f268 fa3b 7f85 7d3d 1217 943e a311 cdbe
000001d0: 640d e0be d37d afbe c9b9 f0bd 5af6 d1bd
000001e0: aa4d acbe ad2f 87be 115c bbbe 812c d3be
000001f0: dadd 51bd 7a24 9bbd ad65 91be c3e0 563d
00000200: 1d89 db3d a719 853d 9063 f2bd ffbb 8abe
00000210: 90f4 423c 96c9 733e 0ee5 153e a8ed 22be
00000220: 6d1c 61be 09ad 81be 5fc1 2b3e c912 a33e
00000230: f8c5 b3be 2451 c63c d585 62be 4a81 7d3e
00000240: 9a6c 7a3e 0adb a2bd 0ff9 9bbe 6679 e0bd
00000250: 0a82 e83d 80a9 313e
-0.06839605 -0.24441819 -0.42205548 -0.13600469 0.082828335 0.20089965 -0.05005482 -0.500635
-0.14320807 -0.08466357 0.34951964 0.29415986 -0.34293678 -0.21323058 -0.4003549 0.06967025
0.5443107 0.13098177 -0.091907084 -0.088011496 -0.16327208 0.3145963 0.47227788 0.25430033
0.13598517 0.017744938 -0.11455653 -0.29837966 0.080874756 0.31245634 0.08528635 -0.20901261
-0.2213185 -0.13987632 0.2099778 -0.10195468 -0.27165562 -0.24882817 -0.28311628 0.09687871
-0.14174576 -0.15787695 -0.14390838 -0.28061435 -0.24548632 -0.09499333 -0.217574 -0.12791248
-0.105966255 -0.23454474 0.07964419 -0.2248808 -0.15789692 -0.3001887 -0.2957486 -0.06363201
-0.13223732 -0.40221965 -0.37212637 -0.070511125 -0.18896163 -0.05291096 -0.25434408 0.13473341
0.13026357 0.21177883 -0.079408355 0.18081419 0.30195692 0.21719894 0.3142835 0.35597512
0.35575435 0.1934616 0.06340011 0.082261376 0.0804889 0.27112252 -0.0075120875 0.036526125
-0.02595147 0.36725143 0.1972996 -0.2346012 -0.09604014 0.2556 0.4881065 -0.10298797
-0.3152417 -0.397231 0.162934 0.33818358 -0.0039998647 -0.16660233 -0.009429697 0.039551973
0.28107154 -0.0779377 -0.15337059 -0.25374216 0.09205892 0.18093655 0.092779495 0.14740945
-0.026194789 0.037143342 0.3635589 0.46223456 0.47995254 0.27240342 -0.03228856 -0.0016073887
0.007641905 0.06189489 0.2892385 -0.40052518 -0.43760216 -0.34275684 -0.11754186 -0.10252066
-0.33653003 -0.2640356 -0.3659368 -0.4124489 -0.051236965 -0.07575317 -0.28397885 0.052460443
0.10719512 0.064990334 -0.11835396 -0.27096555 0.011899129 0.23807368 0.14638159 -0.15910971
-0.219835 -0.25327328 0.16772984 0.3185027 -0.35111976 0.024208613 -0.22121365 0.24756351
0.2445549 -0.07951935 -0.30463454 -0.10960655 0.11352928 0.17349815

conv1.bias f4 [6]
00000000: c0a9 babd 97a7 913e d714 393c f90a 22be
00000010: 9769 c6bd 8201 45be
-0.091144085 0.28448173 0.0112964725 -0.15824498 -0.096881084 -0.19238856

conv2.weight f4 [16, 6, 5, 5]
00000000: bb1c 36be c562 20be f6bb 61bd 1872 27bc
00000010: daac ff3d 64d0 02be 674c f2bb 7a58 dcbd
00000020: ec6f c13b 6404 00bd fd45 81bd b7a0 3b3e
00000030: 991f a63d 8189 1c3d 5920 16bd 543a babd
00000040: 168d 633e bdb1 fd3d ae42 b5bd 88d6 8cbd
00000050: 7ddc 9fbd 0e18 6bbd 7635 1fbc f4b6 f4bc
00000060: 4e90 28bd dc52 20be 4bb7 03be c7bf eebd
00000070: 9b12 a1bd c676 09be da3f 0bbe 9b1f aebd
00000080: f01a d9bd 74f4 dbbd 3244 01bc 12a5 b7bd
00000090: c50a 29be 6f5b b1bd e049 72bd 9214 d6bd
000000a0: aeae 133d a3c8 3fbd 90f9 73be c712 02be
000000b0: 31d7 c8bd f1cd 05bc 9a21 9a3d 67e5 79bd
000000c0: 03a4 6fbc f7a1 4e3c f27c 09be 7be6 5abd
000000d0: 0eae 083e 573a 803d 2a05 e53c 96d0 90be
000000e0: 9460 f0bc 3921 31bd eb40 9839 5bd8 123e
000000f0: 32f8 53be e682 1bbe 3827 133e 6c4e 2f3e
00000100: 2a80 003e 062a a7be 5cfd 0abe 8408 e43d
00000110: e467 113e 76e4 86bd a2af 95be 88f5 00be
00000120: 5b3d dbbd 10af 0cbe f16a 71bd 11e9 aa3c
00000130: 4771 443e 9d07 843c da74 d7bc af80 7dbb
00000140: 0d7b 023e b2de 4e3e 499c b23d 78c0 97bc
00000150: 30c9 b5bc adec 12bc 67ae 0d3e 8a36 b83d
00000160: 9150 673b 3a77 d7bb d98d 3ebe 7682 d53b
00000170: ec90 93bd 60d6 dd3d 4fb5 8abc ad61 a3bd
00000180: 8d1c 813d 3c45 bb3c 274e a4bd 43dd 00be
00000190: cf10 6ebe e06d 85be d648 24be 7b49 42bd
000001a0: db93 f3bd 4dce 33be 2cbd a8be 85cf 14be
000001b0: 34ad c7bd d204 74bc 21af babc 10c3 0fbe
000001c0: 6ce4 85be a659 f1bd f26e c4bc 69f7 163e
000001d0: bc01 c23d 668a a5bc 1ad5 d23d df53 813d
000001e0: 6e16 d63d 1d80 d83d c21b 8b3e c4e4 e33d
000001f0: f6c9 fcbd e8e7 dd3d 4f8b 703d 53ba a73c
00000200: be17 b1bd 10e9 ecbc a38e 103e 6e6f d73d
00000210: 6227 b7bd b98c f5bd 121b 1ebe eb00 143e
00000220: c226 253e e193 fabd 3ae9 b9bd 6955 8cbd
00000230: 297f 503e 86cd 5b3d 905b b7bd 2cea 19bd
00000240: 0d08 69bc 1fd0 ee3d 33cd 53bd 7b33 75bc
00000250: a2b3 05be ea84 c0bd b0a6 873e 7a35 01be
00000260: 687f 01be 30a4 ef3a 7cfc c8bc f5c9 6e3e
00000270: 688a 973e dd3c 5fbd 9ef0 7dbd 869b 0fbd
00000280: 7e51 2a3b b8ca 9a3e 4981 1c3e 7af5 cbbd
00000290: 705c 7dbd b4c6 d7bd f022 8a3c add0 3a3d
000002a0: 13fc a33c 0970 3f3c 6081 0cbe a987 c3bd
000002b0: 1809 eb3c 7a1f f33c d9b7 a7bc 7f67 353b
000002c0: 4ee9 9f3d 16d8 bfbc 7c72 a7bd 4645 38bd
000002d0: 6131 00be 2a48 09bc 460c 113d ef35 d5bc
000002e0: d9bb b33a 7c2d 0b3b b4bc 0a3b b019 be3b
000002f0: 5ae6 413c f042 41bc 8c1d 5cbd db79 e53c
00000300: f5ef 08bd 5817 b4bd b897 c03c 3dda 68bd
00000310: 195c f53c 00a7 dcbc d3e8 8a3c 16e5 b6bd
00000320: be77 ff3d fe10 e8bc 500f 10be 01c4 a3bd
00000330: 17ee 0b3c 295f cb3c eb39 f93d d7ea b8bc
00000340: 95b0 10be 2fcb 8dbc 961d 48be b42e 333d
00000350: 8463 3f3d b41b 09be f4dc ae3c dd37 c8bd
00000360: 1dee 623c 71d6 a93c 4ec5 5cbd 240a 2ebd
00000370: 82ee 1ebe d0b4 c6bd 8540 fcbc 9e85 3c3d
00000380: 77da 253d 4789 1b3d 0735 5ebe 206a 24be
00000390: d70b 5ebb ff24 093c fe83 813d 01e0 243d
000003a0: d229 d5bd acce 7c3c 4284 c13b 530c 05bc
000003b0: 8347 1c3e dc04 e1bd 18fe fa3c 75b2 783d
000003c0: d5f5 c33b de61 0f3e 2099 8d3d 73d5 a8bc
000003d0: bbc5 c83b 70d7 153e 0f02 8c3d f294 cbbc
000003e0: cabd 27bd ccd4 663d 31d7 10be d0b3 5c3d
000003f0: d590 8aba b785 a7bd 1aca 863d 660a ecbc
-0.17784397 -0.15662678 -0.055110894 -0.010220073 0.12484141 -0.12774807 -0.007394362 -0.10759063
0.0059032347 -0.031254187 -0.06312177 0.18323027 0.081114955 0.03821707 -0.036651943 -0.090931565
0.22221789 0.123874165 -0.08850609 -0.06876856 -0.07805727 -0.057395987 -0.009717336 -0.029872395
-0.041153245 -0.15656608 -0.1286289 -0.116576724 -0.07864877 -0.13424215 -0.13598576 -0.08502122
-0.10600841 -0.10739985 -0.007889794 -0.089670315 -0.16508015 -0.08660018 -0.059152484 -0.10453142
0.03605526 -0.0468222 -0.2382567 -0.12702475 -0.098066695 -0.008166776 0.0752594 -0.06100979
-0.014626506 0.012611858 -0.13426569 -0.05344246 0.13347647 0.062611274 0.027956564 -0.28284138
-0.029342927 -0.043244574 0.00029040067 0.14340346 -0.20700148 -0.15186653 0.1437043 0.1711976
0.1254889 -0.3264925 -0.13573211 0.11134437 0.14199787 -0.06586544 -0.2923556 -0.12593663
-0.10705062 -0.13738656 -0.058939878 0.020863088 0.19183837 0.016116912 -0.026300836 -0.0038681438
0.12742253 0.20202139 0.08721215 -0.018524393 -0.02219066 -0.008967561 0.1383606 0.089947775
0.0035295824 -0.006575492 -0.18608798 0.0065157963 -0.07205376 0.108319044 -0.016932158 -0.079776146
0.06304274 0.022860162 -0.08022719 -0.12584405 -0.232486 -0.2606039 -0.1604341 -0.047433358
-0.118934356 -0.17559166 -0.32956827 -0.14532287 -0.09749833 -0.014893727 -0.022788586 -0.14039254
-0.26150835 -0.11784677 -0.023978684 0.14742817 0.09472987 -0.020207595 0.10294552 0.06314825
0.10453497 0.10571311 0.27169615 0.11127618 -0.123432085 0.10835248 0.058726605 0.020474588
-0.086471066 -0.028919727 0.14116912 0.105193004 -0.089430586 -0.11989731 -0.15440014 0.14453475
0.16128066 -0.12235237 -0.090776876 -0.06852228 0.20361008 0.0536628 -0.08953011 -0.03757684
-0.014223111 0.1166079 -0.051709365 -0.014965887 -0.13056806 -0.09400351 0.2649436 -0.12618056
-0.12646258 0.0018283185 -0.024534456 0.23319228 0.29597783 -0.054501403 -0.06199705 -0.035060428
0.0025988515 0.30232787 0.15283693 -0.0995893 -0.061855733 -0.105359465 0.016862363 0.045609165
0.02001766 0.011684426 -0.13721228 -0.095473595 0.02869086 0.029678095 -0.020473408 0.0027680097
0.07808171 -0.023418467 -0.08176133 -0.04498794 -0.12518837 -0.008379022 0.035412095 -0.026026694
0.0013712599 0.0021236828 0.0021169605 0.005801402 0.011834705 -0.011795744 -0.053739116 0.028012207
-0.033431966 -0.08793515 0.023509845 -0.056848753 0.029951142 -0.0269351 0.016956722 -0.089304134
0.12474011 -0.028328415 -0.14068341 -0.07996369 0.008540652 0.02482565 0.1216925 -0.022572918
-0.1412986 -0.0173088 -0.19542536 0.04374571 0.046725765 -0.13389474 0.021345593 -0.0977628
0.013850716 0.020732136 -0.053899102 -0.04249014 -0.15520671 -0.09702456 -0.030792484 0.046025865
0.040491547 0.037972715 -0.21699916 -0.16056108 -0.0033881569 0.008370637 0.06324004 0.04025269
-0.10408367 0.015430134 0.005905659 -0.008120614 0.15261655 -0.10987255 0.03063874 0.060717065
0.005980233 0.14002177 0.06913972 -0.020609593 0.006127087 0.14632964 0.0683633 -0.024851296
-0.04095248 0.056355283 -0.14144589 0.05388242 -0.0010571728 -0.08179801 0.065815166 -0.028813552

conv2.bias f4 [16]
00000000: 0be4 6dbd b158 253c 5500 afbd 33c1 5fbd
00000010: 5902 84bd 621a 5abd 246c 523d 177a b4bd
00000020: 74d2 88bd 3394 6bbc eb70 26bd 229a 6a3d
00000030: bad6 39bc 64c8 fe3c aa1d 96bd 6f55 a8bd
-0.058078807 0.010091946 -0.08544985 -0.05462761 -0.0644576 -0.053247817 0.051372662 -0.08812349
-0.06680766 -0.014378595 -0.04063503 0.0572759 -0.011342699 0.031101413 -0.07329877 -0.0821942

fc1.weight f4 [120, 256]
00000000: 5ce9 123d ba79 17bd 1738 6cbd 494e 223d
00000010: 47da 0b3b 4c80 6abd e80e d03b 5d6e 16bd
00000020: 2cb9 e1bc db59 da3c 46e7 53bc 60b7 8e3d
00000030: f98e 08bd 2e6b e63c 734e 1ebc b9e7 b53d
00000040: f83a cebc 85b7 593d a9cf 3ebb 870e 123d
00000050: fb13 a7bc b551 393d 08bb fe3c 2f6a 7c3c
00000060: 4588 a8bb a6ee 4ebd 0afd 453d 63ac 06bd
00000070: 946f fcb9 5ba0 173c c37f b33b 3f94 443d
00000080: 6555 9cbc 4ffe 2d3d 20fc 3ebc 29cf 6abd
00000090: a142 b2ba 13c7 e8bc fc39 0c3d 09de 963c
000000a0: d23a 583c 1d61 ae3c 1f13 833d f171 6439
000000b0: 3d3e 833d 7e05 4cb9 1741 2f3d cd70 163d
000000c0: 5998 643c 1b92 55bd 997f 3f3d 2401 90bc
000000d0: 1346 093c 877f 6fbd ecc2 c7bc 5379 75bc
000000e0: c974 10bd 363e 963c a4b5 30bb cb94 533c
000000f0: 3b61 f6bc ed68 4abd cefc ad3c c202 153b
00000100: d595 f8bc df92 d0bc d6a1 733d d7e7 8f3d
00000110: 152e d73c d3db b33b d0b8 e23c 8c65 33bc
00000120: d7d6 fa3c de42 f13c e15c c13b 571f 89bd
00000130: 0a1b 3c3d ecbf b5bc ebe7 48bd f0b1 2fbd
00000140: 848a 2cbc 2874 863c f97a a53c 8b44 283d
00000150: 5c20 79bc 2768 67bd a7d5 7fbd 6ae9 f7bb
00000160: d90f 53bd 4fa1 4fbc 514a 90bd 479e 203c
00000170: b711 563d d7d3 e2bb 5b97 cf3c 1e1e e13c
00000180: 0097 6fbc 0d6f 243d 71e8 1abd 7c9a 203b
00000190: 226a 513d 3738 333d 02d4 11bd 6ccc 713d
000001a0: 5a8f b5bc 543b 353c a8ed c8bc 7c75 593d
000001b0: 2e60 563b 7204 eebb f701 053d a0fb 54bd
000001c0: 8d12 1cbd eb9c 27bd f481 45bd a291 853d
000001d0: 0b03 c63c eb98 71bd c472 31bd dcd2 413d
000001e0: d64f 84bd c9ef 2fbd c855 ddbc 9c78 673d
000001f0: cf8e 093d 98fa 133c 70de 63bd 1733 673c
00000200: 8b03 36bc dacc 553c 3a68 73bd ed03 3f3d
00000210: 466b 603d 2f69 1cbc 2a96 69bd efe7 623c
00000220: 839b 1fbd dcec 223c c7d9 563c 8494 033c
00000230: 689e cb3c a864 543d 36ac 473d 3080 7ebd
00000240: 168d 09bd c4a5 ef3c 880f 1bbd fa61 b1b9
00000250: e9e7 113d f925 48bd 110c 44bd b9e4 5fbd
00000260: be3c d5bc 1304 0abd 76fc e13c 507d 0c3d
00000270: 9061 e7bc dd8c dbbc 6e74 ed3b 6fce f1bb
00000280: ded5 6f3d c731 26bc 4eed 013d d287 053d
00000290: 82bb a83b d618 4cbd 9509 4abd 993f 13bd
000002a0: 2a92 423d a7b3 0c3d 7d88 80bd 3306 febc
000002b0: 03b8 dfbc aca4 e43c 2e58 103c ee6d 443d
000002c0: 12d6 45bd 5b39 70bd a5af 893c a449 51bd
000002d0: 7054 df3a 45f1 08bd 9b31 073b 85e4 64b9
000002e0: 8db3 fbbc bfc7 9bbc 3421 5c3d bcc0 23bd
000002f0: 091a e8bc a5ec 38bc 1ae9 b13c 3d4c 353d
00000300: a04e 263d e0a6 82bd 265f cdbc 6e38 5db8
00000310: 71b2 25bd 909d 5dbd 7c71 a73c fb6b f43b
00000320: 6b9f 513d a408 b6bc 00e5 3dbd a38f 14bd
00000330: 75c3 2e3d 8538 ddbc 1359 77bd af0f 67bd
00000340: c482 24bd d3dd 7b3d dfce 0a3d bcb5 853b
00000350: 2207 1a3d 0672 2e3d 89db 2838 d04e b93b
00000360: 33a0 b23c dfc6 23bd 425f 393c bb33 423d
00000370: 2fd0 aa3c 729d 09bd 3e85 963b 749d f73c
00000380: 8dcb aabc 153f 393b d932 a4bd 8843 833c
00000390: 4ca4 cb3c ef60 a13c f429 ebbc eddd b83c
000003a0: 0817 e03b 2f35 b1bc 894f 0c3d 8c4f 503d
000003b0: e8eb 513d c63f 87bc 2e76 0fbd 6bad 5c3d
000003c0: 01e7 13bd a04c 093d 27d3 b73c 277d bfbc
000003d0: df74 be3a a698 4b3d a820 86ba 24d0 473d
000003e0: 979e 27bd 2ecd c0bb f139 8a3c cc39 2dbd
000003f0: 49fe 2d3d a2c9 3fbd 62ee 14ba a3f8 c4bb
0.03586708 -0.036981322 -0.05767068 0.03962544 0.002133982 -0.05725126 0.006349433 -0.036726344
-0.027554117 0.026654175 -0.012933558 0.0696857 -0.033339474 0.02812728 -0.009662258 0.08882088
-0.025174603 0.053153533 -0.0029115474 0.035658386 -0.02039527 0.045243938 0.031095043 0.0154061755
-0.0051431977 -0.05052056 0.04833702 -0.032879245 -0.00048148318 0.00925454 0.005477877 0.04799294
-0.019083688 0.042478856 -0.011656791 -0.05732647 -0.0013600179 -0.028415238 0.034234986 0.018416421
0.013197618 0.021286542 0.064001314 0.00021786221 0.064083554 -0.00019457002 0.042786684 0.03672867
0.013952338 -0.05214129 0.046752546 -0.017578669 0.008378523 -0.05847123 -0.024384938 -0.014982539
-0.035267625 0.018340211 -0.0026963735 0.012913893 -0.03007566 -0.04941647 0.02123871 0.002273724
-0.030344883 -0.025460659 0.05948051 0.07026642 0.02626709 0.0054888516 0.027676016 -0.010949504
0.030620022 0.02945083 0.0059009646 -0.06695431 0.045924224 -0.022186242 -0.0490493 -0.042894304
-0.010531072 0.01641281 0.02020024 0.041080993 -0.015205469 -0.05649581 -0.062459614 -0.007565667
-0.051528785 -0.012672736 -0.07045425 0.009803361 0.052262988 -0.006922226 0.025340727 0.027480181
-0.014623404 0.04014497 -0.03781933 0.0024506142 0.051126607 0.043754783 -0.035602577 0.059032843
-0.022163082 0.011061508 -0.024527386 0.053090557 0.0032711136 -0.0072637135 0.032472577 -0.05199778
-0.03810363 -0.040921133 -0.048219636 0.06521918 0.024171373 -0.058983725 -0.04332234 0.04732023
-0.0646054 -0.042953286 -0.027018443 0.056511506 0.03358346 0.009031914 -0.055632055 0.014111302
-0.011109243 0.013049329 -0.05942557 0.046634603 0.054789804 -0.009546562 -0.057027973 0.013849243
-0.038966667 0.009944167 0.013113446 0.008031014 0.024855807 0.051853806 0.048748218 -0.062133968
-0.033581816 0.029253848 -0.03785661 -0.0003383307 0.035621557 -0.04886434 -0.04786307 -0.054661486
-0.02602994 -0.03369529 0.027586203 0.034299195 -0.028244764 -0.026800567 0.0072465455 -0.007379345
0.05855357 -0.010143704 0.031720452 0.03260023 0.005149306 -0.049828373 -0.049325544 -0.035949323
0.047502674 0.034351017 -0.06276033 -0.031008815 -0.027309423 0.027910553 0.008810086 0.0479564
-0.048299856 -0.05864845 0.016807387 -0.05109562 0.0017038714 -0.033433218 0.0020628932 -0.00021828905
-0.030725265 -0.019016145 0.053742602 -0.039978728 -0.028332727 -0.011286889 0.021717597 0.04426216
0.040602326 -0.06379485 -0.025069784 -5.274306e-05 -0.040453378 -0.05410534 0.020439856 0.0074591613
0.051177423 -0.022220917 -0.04636097 -0.036269795 0.04266687 -0.02700449 -0.060387682 -0.05641144
-0.04016377 0.061490845 0.033888694 0.0040805023 0.03760446 0.04258921 4.025878e-05 0.005655147
0.021804905 -0.03998458 0.011314215 0.047412615 0.020851223 -0.033597417 0.0045935204 0.030226447
-0.020849014 0.002826636 -0.08017511 0.016023412 0.024858616 0.019699542 -0.028706528 0.02256676
0.006838683 -0.021631805 0.034255538 0.05085711 0.05125037 -0.016509902 -0.035024814 0.05387632
-0.036108974 0.03352034 0.022439552 -0.023375107 0.001453068 0.049706124 -0.0010233121 0.048782483
-0.040922727 -0.0058838343 0.016873332 -0.042291448 0.042478833 -0.04682315 -0.0005681274 -0.006011085

fc1.bias f4 [120]
00000000: 31c4 43bd de2b 79ba bd37 203d 319f a53c
00000010: a268 35bd 3b80 0bbd a5ad 063d 4755 993d
00000020: 1058 ad3c 9e00 0cbd df6e 723d 54a4 51bd
00000030: d386 89bd debc 4dbd 72d4 6ebd 8b52 53bd
00000040: b5a7 24bb ad40 293c 6d89 9a3c 3b28 03bd
00000050: b52c be3c c119 123c acca 933c f004 e6bc
00000060: b81b 52bc 1623 db3c d68d 243c 89e7 183d
00000070: 5638 27bd 61a2 dbbc e1a2 0a3d e025 1bbd
00000080: b522 5bbd 5eda 313c f3e7 6d3d a05e f0bb
00000090: b78d 333d 9c35 6f3c 8c5c d33c d565 97bc
000000a0: 178c bfbc 1ab3 233d b754 37ba ac67 12bd
000000b0: 0004 1b3d b57d 42bd d614 583d 1ee6 18bd
000000c0: 5e03 4a3d 0009 55b5 da40 4bbd 681b e6bc
000000d0: 633c 22bd 3c5f aa3b 3d69 0fbd 2ceb 6d3c
000000e0: 7469 313b 14bc 053b 586f 69bd ad51 893d
000000f0: aca1 a33d cc35 483d d5bc 3f3d 0452 1b3d
00000100: f114 e03c 1131 cf3b 79d6 483d 0f81 82bb
00000110: d9dc 77bd ae10 5ebc 493c 9abd 84ed 173c
00000120: 0817 773b eb67 023d 3bdf 753c d082 5bbd
00000130: ae4b 5dbd 74dd 703c 0a63 60bc 0e91 0c3d
00000140: bad2 813d 9cae 11bd 7710 adbb 7189 863c
00000150: bfe2 c2bc 225e ba3c 158a b23c 40d8 1b3d
00000160: 5681 5bbc 969b 9937 bfa8 f63c 0a58 54bd
00000170: 5e67 d0bb 118e 0e3d be72 64bd b6f5 f23c
00000180: f5e3 10bd 29ae 213d d1cc 603d ddac 6abd
00000190: c1e5 bc3a ee44 113d 6c35 cbbb bf81 0cbd
000001a0: af3e 633c 64fe 47bd 80ae 723d b0e1 30bd
000001b0: ced2 61bd e114 73bd 280c 083d 45a7 1f3b
000001c0: 5009 73bc f56a e13c 3ff0 f13c 9bf1 353d
000001d0: fd3b 913d d8e1 e93b ae23 553d 359a 19bd
-0.047794525 -0.0009505133 0.039115656 0.02021751 -0.04428924 -0.034057837 0.032880444 0.074869685
0.021160156 -0.034180276 0.059187766 -0.051182106 -0.06715169 -0.050228946 -0.058308072 -0.05159239
-0.0025124375 0.010330361 0.018864358 -0.03202079 0.023214677 0.008917273 0.018040977 -0.028078526
-0.0128239915 0.026750129 0.010043582 0.037330184 -0.04082521 -0.026810827 0.03384674 -0.037877917
-0.053499896 0.010855285 0.058082532 -0.007335499 0.04383632 0.014600184 0.025800966 -0.018481174
-0.02338223 0.039965726 -0.00069935195 -0.0357434 0.03784561 -0.047483165 0.052754246 -0.03732883
0.049319617 -7.936178e-07 -0.049622394 -0.02808924 -0.03960837 0.005199341 -0.035012472 0.014521401
0.0027070912 0.0020406293 -0.05699095 0.067050315 0.07989821 0.04887943 0.046810944 0.037920013
0.027353736 0.006322988 0.049032662 -0.00398267 -0.06051335 -0.013553781 -0.0753103 0.009272937
0.0037702937 0.031837385 0.015006836 -0.05359155 -0.054027252 0.014701236 -0.013695488 0.034318022
0.06339021 -0.03556691 -0.005281504 0.016422959 -0.023789762 0.022749964 0.021794358 0.03804803
-0.013397535 1.8311472e-05 0.030109761 -0.051841773 -0.0063599786 0.034803454 -0.05577349 0.02965818
-0.035373647 0.039472733 0.05488283 -0.05729376 0.0014411734 0.035466127 -0.0062014367 -0.034303423
0.013869925 -0.04882659 0.059248447 -0.043183982 -0.05513268 -0.059346084 0.033214718 0.0024361175
-0.014833763 0.027516821 0.029533504 0.044419866 0.0709152 0.0071375184 0.05203598 -0.03750058

fc2.weight f4 [84, 120]
00000000: 46a2 213d 0538 533d bd1f 68bd 3d6a a4bd
00000010: de67 4abd 0b68 98bd c7ff 2abd 7e4c 63bd
00000020: c106 f3bc 8b61 92bd 13db 543c 6fee 8c3d
00000030: 0ada 093d b4d5 a0bc fdd2 a13d 511e b9bd
00000040: 9750 09bc 2eb0 a1bd 4ea8 8abd b784 e3bc
00000050: f128 ab3d f4f3 9abd 7478 9a3d 4d7b 033d
00000060: 21da a13c 02f9 a5bd 5c4b 923d 50da 1e3d
00000070: 553c 45bd f503 85bd 4c63 01bd 948d 73bd
00000080: 71ce a33d 8ae3 373c 77f4 25bd 0785 343d
00000090: bc47 7fb9 fa62 f33c 3389 a8bc 4148 cdbc
000000a0: bd88 893d d97f 0dbd 7267 3b3c d7b8 25bb
000000b0: e49e 53bd 1875 06bc 60ab ecbc 1a9d d53b
000000c0: fa18 a13c 8326 5b3d 0b96 593b 24bf a83c
000000d0: b0f7 913d 13fb d7bc e98a 95bd c99a 873d
000000e0: a759 acbd 7abd 6f3d 46cc a73d 509b 50bd
000000f0: 180d 6ebb 755e a6bd 8244 8f3d 1d02 a2bd
00000100: 3d76 51bc 0681 e43c 17b8 be3b e196 ff3b
00000110: 42bd 19bd de7f 873d 40c7 8cbc 3635 d4bc
00000120: 00d0 7f3d df9f 12bd 7530 54bc 0415 a53d
00000130: 3a44 47bd 90e9 b33d 3d5a 49bd cd29 c2bc
00000140: 85de a5bd 314c bfbc 665b 13bd 3df8 9cbd
00000150: f2d7 88bd 0108 9c3d e4ff 3bbd 872b b5bd
00000160: f8c3 083d 08bf 533c d4e2 fcbb 773e 3c3b
00000170: b22c 3d3d 664f 693d 14b6 bb3d 4fa5 a23b
00000180: b9f9 053d 5d4f 9b3d 8fa3 e7bc 090b 92bd
00000190: 94c6 87bd 5d43 abbd 675f 89bd c813 8ebc
000001a0: 9972 8b3d 198e 74bd 20ae b1bd 4e9e ccbc
000001b0: 186c c1bb 29d1 7d3d a92c e7bc bd6b 58bd
000001c0: 2fc9 103b 6879 9abc 95df 97bd 4bc5 8fbd
000001d0: d64d 3dbd a91b 88bd 6f7e 1cbd fdd5 a2bc
000001e0: ea38 91bd 433b 8e3c a620 1d3e cd27 95bd
000001f0: dc61 003d e2d3 c5bd 72cb 853a 035c 443d
00000200: 4ff0 b43d f7af 423d b385 68bd edd7 1bbc
00000210: 3652 ecbd 2d81 d2bc 4659 7ebd 4788 da3c
00000220: 5319 823d a842 bf3c da8b b03c 1596 dd3c
00000230: f8cc 40bc a69c 563d 1cf2 fa3c 3208 393d
00000240: 96bd a43d 1bc7 d43d 1efb e9bc 9b4b d43b
00000250: 6d74 6d3d 09f3 543d 5711 96bd ad33 b5bb
00000260: 5da1 ad3d 090a a9bd 8eb7 09bc 0896 8fbd
00000270: 0ca0 453d 900c 473d 2df0 ae3d 41f1 69bd
00000280: 9614 953d 88f5 403d fa3b 37bd 2529 673d
00000290: 371c 2c3d 1e8f 9cbd 8cba 8cbc 8650 423c
000002a0: 2fe2 84bd 6c8c 03bd da89 08bd d773 a9bd
000002b0: 9675 fdbd 3ad7 8b3d 06d2 66bd b68d efbb
000002c0: 3f19 c43a 00c8 993d a25a f23d 9ead 5a3c
000002d0: b74b 01bd 4074 02bd b3da 673d cb0b c7bc
000002e0: 3414 c93d f76d a63d 3822 2a3c 907a 21bc
000002f0: 0e8a 32bd 2449 843d 919e 01bd dd27 993b
00000300: 98e5 5a3d 02f8 a6bd 2911 08bc 275b 8ebd
00000310: e760 8c3d a54f cebd 4e2b 92bd 6d0f 143d
00000320: 0f25 ddbd 8f56 063d b22b b93d 80db a5bd
00000330: d080 063e b916 d73c 832a 993d 3b26 97bc
00000340: 1470 403d 8b18 113d 6849 2a3d aea4 8ebb
00000350: 718c 9dbd 2dd7 62bc 53b5 73bd 4bb9 883d
00000360: 31d0 8a3d 6163 943d 294f 373d 9fd4 b23c
00000370: 79b6 b43d 9ea7 4b3b 50bf a63b 3fa3 fdbd
00000380: d0c5 c5bd 1407 91bc 5479 a1bb 6baf 143e
00000390: a566 f63d e0ac 343d 8600 733c 71d5 003d
000003a0: 0cbf 91bd 4afd 06bb 866f 58bd e709 313c
000003b0: 255c c4bb e3f0 fabc 29e8 02be e814 8abd
000003c0: ac10 91bc a384 3a3d 02b2 8cbc d623 f13a
000003d0: c9e0 a93d 69c2 1e3d 5e90 4c3c 13f3 a8bd
000003e0: cbfb c9bc 8a5d 4abd 331d 83bd d60a ec3c
000003f0: 71fb 6e3d 0952 2ebc 9d56 963d 762c 89bd
0.039461397 0.051567096 -0.056670893 -0.08028076 -0.04941546 -0.074417196 -0.041747835 -0.05549287
-0.029666306 -0.07147511 0.0129916845 0.06881415 0.033655204 -0.019633152 0.07901571 -0.090389855
-0.0083810305 -0.07894932 -0.06770383 -0.027773244 0.08357418 -0.075660616 0.07542506 0.03210001
0.019757332 -0.08104135 0.0714328 0.038782418 -0.04815324 -0.06494895 -0.031588838 -0.05946119
0.0799836 0.011223683 -0.040516343 0.044072177 -0.00024345418 0.029710282 -0.020573234 -0.025058867
0.06715534 -0.034545753 0.0114382375 -0.0025287175 -0.0516652 -0.008206628 -0.028890312 0.006518972
0.01966523 0.053503525 0.0033201005 0.020598955 0.07127321 -0.026364839 -0.07301886 0.0662132
-0.08415537 0.05853031 0.08193259 -0.050929368 -0.0036323722 -0.08123485 0.06995489 -0.07910559
-0.012784538 0.027893554 0.005820285 0.0077999686 -0.037534006 0.066161856 -0.017184854 -0.02590428
0.062454224 -0.035796996 -0.012951006 0.08060649 -0.04864905 0.08784783 -0.049158324 -0.023701573
-0.08099083 -0.02335176 -0.035975836 -0.07664535 -0.06681813 0.07618714 -0.045898333 -0.08846193
0.033390015 0.012923963 -0.0077174697 0.0028723755 0.046185203 0.056960486 0.09165588 0.004963554
0.032708857 0.07583497 -0.028276233 -0.07131011 -0.06629673 -0.08362458 -0.0670765 -0.017343417
0.06808967 -0.059705827 -0.0867579 -0.02497783 -0.0059027784 0.06196705 -0.028219538 -0.052837122
0.002209257 -0.01885672 -0.07415692 -0.070200525 -0.04621681 -0.06645901 -0.038206514 -0.019877428
-0.070909336 0.017362243 0.15344486 -0.07282982 0.031343326 -0.09659554 0.0010207726 0.04793931
0.08834898 0.047531094 -0.05676813 -0.00951193 -0.11539118 -0.025696361 -0.062096857 0.02667631
0.063524865 0.023347214 0.021551061 0.027049104 -0.011767618 0.052395485 0.030633025 0.04517383
0.08043973 0.10389539 -0.028562125 0.0064787394 0.05797236 0.05198959 -0.07327526 -0.005529842
0.08478043 -0.08253867 -0.008405579 -0.07011038 0.048248336 0.048595965 0.08541904 -0.057114843
0.07279317 0.047109157 -0.044734932 0.056435723 0.042019095 -0.07644485 -0.017178796 0.011860019
-0.064884536 -0.03211634 -0.03333459 -0.08274048 -0.12375943 0.068281606 -0.056352638 -0.0073105944
0.0014961137 0.0750885 0.11833693 0.013347058 -0.031566348 -0.031849146 0.056605052 -0.024297616
0.098183066 0.08126443 0.010384135 -0.009855881 -0.04358869 0.06459263 -0.03164536 0.0046739415
0.053441614 -0.081527725 -0.008304873 -0.0695098 0.0685442 -0.10073785 -0.07137166 0.036147524
-0.10798084 0.032797392 0.09041537 -0.08098507 0.13135076 0.026255952 0.074788116 -0.018450847
0.046981886 0.035423797 0.041573912 -0.0043531274 -0.07692803 -0.013845247 -0.059499096 0.06675967
0.067779906 0.072455175 0.044753227 0.021829901 0.088238664 0.003107525 0.005088724 -0.12384652
-0.0965687 -0.01770357 -0.0049277935 0.14520042 0.12031297 0.04411018 0.014831668 0.031453554
-0.071165174 -0.002059775 -0.052840732 0.010805584 -0.00599243 -0.030632442 -0.12783875 -0.06742269
-0.017708145 0.04553665 -0.017174724 0.0018397521 0.082948275 0.038759623 0.012485592 -0.08249488
-0.024656197 -0.049405612 -0.06402054 0.02881376 0.058345262 -0.010639676 0.07340739 -0.066979334

fc2.bias f4 [84]
00000000: fd16 aabd 7584 88bd f2fd 4fbd b367 a8bc
00000010: 8061 243e fbef a83d a1c0 b4bc 9394 323d
00000020: 63a5 64bd 60ca 8b3d 34cf 2fbb 0281 6dbd
00000030: 7172 22bd 0ccb de3d 240a 013c cc8e 40bd
00000040: 001b 673d 8050 253d 0c66 353d 5ab9 aabb
00000050: d430 403d cd0f a6bb 9448 093e 6423 633d
00000060: d127 03bd a173 1bbd 7f27 9ebd ac29 81bd
00000070: cac5 12bc 536d 963d 45d9 24bd ad1e cabc
00000080: 9aff c63d e2a0 e0bc 7823 983d 4e36 303d
00000090: 1816 ad3c 4569 54bc 8d92 193d d5bc 203d
000000a0: a814 833d bb9a b33d f136 9c3c 7184 c23d
000000b0: b933 c6bd 1c32 433d 3d6e 24bd ce8b 7cbd
000000c0: 4e2a 7b3d 2606 523d aeb8 723d a606 87bb
000000d0: d49c 4d3d 14c5 693d 64ae 913d 5aa7 2c3d
000000e0: 6a19 3cbd ba1e 973c 5d6a 5f3c c782 aeba
000000f0: d1d0 683d 8d08 413c 4c6e 82bc 0466 afbd
00000100: a222 093e bc5d 98bd c940 4abd b21a b2bd
00000110: cf1a 5ebd 69e6 b53d 444d 8dbd 5503 403d
00000120: f598 b4bd 8bd6 1ebd c418 15bc 78cb 98bd
00000130: 01fa d13d 18cc 8cbd 58a8 a03d 6ed2 a63b
00000140: ef26 eabc 7337 98bc e2c5 873d 2004 b43d
-0.08305166 -0.06665889 -0.05077929 -0.02055726 0.16052818 0.08248898 -0.022064509 0.043598723
-0.055821788 0.06825709 -0.0026826384 -0.05798436 -0.03965992 0.10878572 0.007875953 -0.04701118
0.056422234 0.040359974 0.044286773 -0.005210084 0.046921566 -0.0050678016 0.13406593 0.055453673
-0.032020394 -0.03795207 -0.07722377 -0.063067764 -0.008958289 0.07345071 -0.040246267 -0.02467283
0.09716721 -0.027420465 0.0742864 0.04302054 0.0211287 -0.012964551 0.037493277 0.039242584
0.06400424 0.08769747 0.019069167 0.094979174 -0.09677834 0.04765521 -0.040144194 -0.061656766
0.06131964 0.051275395 0.059258156 -0.0041206656 0.05019839 0.057072714 0.071133405 0.042151786
-0.045922674 0.018447269 0.013636199 -0.0013314121 0.056839768 0.011781824 -0.015921734 -0.0856438
0.13392118 -0.074397534 -0.04937819 -0.08696498 -0.054224785 0.08881838 -0.06899503 0.046878178
-0.08818237 -0.038778823 -0.009100143 -0.074606836 0.102527626 -0.06874865 0.07844609 0.005091003
-0.028583018 -0.018581128 0.0662954 0.08789849

fc3.weight f4 [10, 84]
00000000: a73c 79bd dee7 153e 9a3e c0bd 942e 7fbd
00000010: d20e 43be e226 ff3d b878 8dbd 1d55 a7bd
00000020: a046 4ebe c591 6ebd 8f13 e03d 38f4 32bd
00000030: 7e66 fc3d 2c0d 5fbe eceb 45be ce44 b83c
00000040: 8c02 183c 9df6 e8bc c1bd 02be 0d05 17be
00000050: f392 f43d fdc8 a8bd b7b1 a0bd 8f78 dabd
00000060: 9b67 853d 947f 34be e60a 623e f78c 643d
00000070: 4597 acbd f785 59bd c8eb b9bd c1cf 35be
00000080: 23a2 ef3d d6c9 813d f4d1 593e 8039 473e
00000090: 7bbd 263e d355 c13d 1007 0d3e 4ec4 4bbe
000000a0: 212e 993e ebbb 0b3e 582b 12be 8110 3bbe
000000b0: 45b9 603d 2620 8a3d 5cba b63b a98e 133d
000000c0: d6fb a9bd 2f88 08be bcf6 e43d fc20 b3bb
000000d0: 5a8b 0e3e a022 31be 1d87 a0bd 787a 9bbd
000000e0: e0eb aabc 39bd 8ebd 9c33 6abe 4f8b 913e
000000f0: be5d 133d ebc2 b8bd 75bc c7bd 349a 0dbd
00000100: 7fca 313e 4195 e93d e12e 983d 1f97 ed3d
00000110: f6fd 913a 7264 943e 5132 00be 1601 213e
00000120: ac1f d9bd 9ae2 c7bd 78b3 58be 19a5 cabd
00000130: 4704 c7bd 6df3 973d 6638 97bb 685a 1abe
00000140: 5e3c e33d b9e0 53be 24ae 03be 8d4a fdbd
00000150: 1e63 2abc 5690 55be ab62 ee3d b20f 913c
00000160: c298 9b3e 3a9b 53bd 5ccd 033e e834 b13e
00000170: cc10 043e a74f 823d c813 63be d05b 733d
00000180: 3971 9dbd 8ccf 66be 47cf 003e 7391 043e
00000190: 49d3 bdbd f8c5 67be ab8a 14bd 30ce 33bd
000001a0: 6f01 643d b3fd dbbd 25e5 423e b31f 9b3d
000001b0: b4b3 27be 3208 1f3d 2b5c f5bd 9492 043e
000001c0: 64be f0bd 359d b2bc 1616 17be 517c 1f3e
000001d0: 0673 bfbd c6e3 603d 6970 b13d ae06 0dbe
000001e0: e748 923c e3ca 963d e09c 323e d4e9 46be
000001f0: 9816 9dbe d922 803e 2d57 873e 634f 29bd
00000200: df09 b9bc 2a9a 31be 3317 35be 8803 003d
00000210: d2f0 71bd 2142 343e 0771 f8bc ccac c23c
00000220: 726b 583d ed16 6dbd 277a 633e 7983 973c
00000230: d4ca 7abc 52af 15be 9bf7 563e 6943 b5bd
00000240: b7a7 2fbe 8946 efbc da53 4d3d e008 533e
00000250: 1a37 543e 20e8 d1bd 6681 4a3b c548 85bc
00000260: 8f65 60be 4cfd f9bc f95c 83bd 72a2 83bd
00000270: 4df4 8b3d 363d 1cbe f676 59bd 8260 963d
00000280: a56f 7f3e 8808 5d3d f47e c73d 3109 2cbe
00000290: fba8 2bbc 9255 033d 7ec1 39bd 4d92 75be
000002a0: 82b8 97bd 8f8c 38be fb39 113d 4636 a63d
000002b0: 10b9 8fbe e5b3 1b3e 09f4 1f3e 5b18 943d
000002c0: 68f8 4cbe 7f11 1cbe e590 f1bd 46db 903d
000002d0: 647a 6ebe 09ab 0c3e f2a5 e2bc 759d b53d
000002e0: 59b3 02bc c56d 013d ee97 b73d 7f4c 2c3d
000002f0: 9939 1e3e 2f96 d5bd 6683 c6bd 8b29 963d
00000300: 5516 50be 51b9 80bd 38d4 55bd 36d6 1b3e
00000310: 2c77 403e c421 2e3d ca33 e8bd 8cd3 3f3e
00000320: 883c c13e 5afa d6bd 40e6 38be 1474 b33c
00000330: 820c 6b3d d0be 9a3c 0964 5f3d 8211 cdbc
00000340: 45ed f63d e734 35bd b622 83bd 2538 8f3d
00000350: 3a84 a83d 8092 48be c43d 863e bc8d 4f3c
00000360: f6df 2bbd ce18 763e 8a87 30be 1682 723d
00000370: 2011 c53d 8776 52be b6d0 e73b 16bb ef3d
00000380: 4cdb b6bd ef21 3bbe 4173 b93d 4237 323d
00000390: b883 5ebd cdfa 9b3d a09e acbd b80b 043e
000003a0: 9f53 86be d346 7b3d 729b fb3c 5704 0dbe
000003b0: 3eec 593e ec73 613e 21c5 cebd 69cb 58be
000003c0: 186b 15bc 6e85 2ebe ab4a 15be 8363 9c3d
000003d0: 1e2d 153c 3f51 143d 1420 853c 15b9 5bbd
000003e0: 8c85 043e 47d1 313d 541a 443c 83cf 9b3d
000003f0: 5be1 cd3d 799e 693d 9ddb 983b 8148 3fbd
-0.06084886 0.14639232 -0.0938694 -0.06230028 -0.19048622 0.12458588 -0.06907791 -0.08170531
-0.20144129 -0.058244485 0.109412305 -0.043689936 0.12324236 -0.21782368 -0.19328278 0.022493746
0.009277951 -0.028437907 -0.12767698 -0.1474802 0.11942091 -0.082414605 -0.078463964 -0.10667526
0.06513902 -0.17626792 0.2207447 0.055798497 -0.0842729 -0.053106274 -0.09078175 -0.17755033
0.11700847 0.06337325 0.21271497 0.19455528 0.16283219 0.09440198 0.13772225 -0.19899103
0.29918006 0.13645904 -0.14274347 -0.18268014 0.054864187 0.06744413 0.005576415 0.036024723
-0.08299987 -0.133332 0.11179873 -0.0054665785 0.13920346 -0.17298365 -0.07838271 -0.075917184
-0.020864427 -0.06969685 -0.2287125 0.28426597 0.03597807 -0.09021553 -0.09752742 -0.034570888
0.17362402 0.11405421 0.074308164 0.1160109 0.0011138308 0.28982884 -0.12519194 0.1572307
-0.10601744 -0.09760018 -0.21162212 -0.09894771 -0.09717613 0.07419477 -0.0046148775 -0.1507355
0.110954985 -0.20691194 -0.12859398 -0.12367735 -0.010399608 -0.20855841 0.11639913 0.01770768
0.30389982 -0.051661707 0.12871307 0.34610677 0.12897032 0.06362849 -0.22175515 0.05941373
-0.07687611 -0.2254011 0.1257907 0.1294611 -0.09268815 -0.22634113 -0.036265057 -0.043897808
0.05566543 -0.10741749 0.19032724 0.075744055 -0.16377145 0.038826175 -0.1198047 0.1294654
-0.11755064 -0.021803478 -0.14754519 0.15574767 -0.09348111 0.05490472 0.08664019 -0.1377208
0.017857028 0.07362916 0.17442656 -0.19425136 -0.306813 0.25026587 0.26433697 -0.041335475
-0.022587715 -0.17343965 -0.17684631 0.031253368 -0.059067555 0.17603351 -0.030327333 0.023764037
0.052836843 -0.05788319 0.22214566 0.018495308 -0.015307147 -0.1461766 0.20992891 -0.08850748
-0.17153822 -0.029208438 0.050128795 0.20608854 0.20724145 -0.102493525 0.0030899881 -0.01627005
-0.21913742 -0.03051629 -0.064142175 -0.06427468 0.06833706 -0.15257725 -0.053091966 0.07342626
0.24944933 0.053963214 0.09741011 -0.16800381 -0.0104773 0.032064028 -0.045350544 -0.2398159
-0.07408239 -0.18022369 0.035455685 0.081158206 -0.2807088 0.15205343 0.15620436 0.07231208
-0.20016634 -0.15241049 -0.117952146 0.07073073 -0.23288876 0.1373712 -0.02766702 0.08867923
-0.00797733 0.031598825 0.08964525 0.04206514 0.1545166 -0.10429036 -0.09693031 0.073321424
-0.20321019 -0.06285346 -0.05220434 0.15218434 0.1879546 0.04251267 -0.11338003 0.18733042
0.37741494 -0.104969695 -0.18056583 0.021905936 0.057384975 0.018889815 0.05453876 -0.025032762
0.12056974 -0.044239905 -0.06403105 0.069931306 0.08228345 -0.19587135 0.26218998 0.012668069
-0.041961633 0.240329 -0.17239204 0.05920609 0.09622407 -0.20553027 0.007074441 0.11705606
-0.08928546 -0.18274663 0.09055186 0.04350973 -0.054324836 0.07616196 -0.08428693 0.12895095
-0.26235673 0.06134684 0.03071377 -0.13771187 0.21281525 0.22016877 -0.10096193 -0.21171345
-0.009119771 -0.17043087 -0.14579265 0.07636168 0.009104995 0.036210295 0.016250648 -0.053643305
0.12941569 0.043412473 0.011969168 0.07607939 0.10052749 0.057035897 0.004664852 -0.046700004

fc3.bias f4 [10]
00000000: 0c44 443d 87f6 903d d25a 69bb b185 aabc
00000010: ad58 f3bc b596 ad3c a0ca bfbd e20f 003d
00000020: f3c7 e33d 8c50 f43c
0.047916457 0.07078271 -0.0035607112 -0.020815702 -0.02970537 0.021190027 -0.093648195 0.031265147
0.11122122 0.029823564
