src/artifacts/checkpoints/round_007.pt (torch, 181669 bytes, 10 tensors)

conv1.weight f4 [6, 1, 5, 5]
0.20904481 0.16463895 0.35817605 0.2975872 0.43088922 -0.11907841 -0.01771669 0.10309472
0.102982506 0.17198697 -0.19751199 -0.33792874 -0.30896443 -0.37894475 -0.36341947 -0.25396135
-0.23001304 -0.15293585 -0.17695224 -0.36002705 0.03162244 0.10855476 -0.19249935 -0.09340746
0.11701438 -0.029078482 0.11169665 0.37246114 0.30697328 0.009887573 0.32656536 0.20556192
0.3332612 0.61004394 0.4052377 -0.25822142 -0.060316782 -0.12981993 -0.051754214 0.29407385
-0.2958953 -0.40835258 -0.41187915 -0.37649262 0.091025256 -0.082659565 -0.29344687 -0.29708403
-0.29845968 -0.102214485 0.20703648 -0.24674088 -0.34319875 -0.15581362 -0.10003005 0.29819018
-0.10756427 -0.11725473 -0.2842673 -0.0973567 0.22208112 0.26024032 -0.1659276 -0.33059546
-0.14742759 0.0163582 0.08057465 -0.004850793 -0.11759257 -0.18619093 0.16900979 0.28975356
-0.015530864 -0.017390281 -0.018864473 -0.2508122 -0.19696344 0.12736793 0.17910282 0.20654598
-0.21019562 0.1930151 0.25989527 0.2556878 -0.2533669 -0.028095959 0.39295673 0.2518823
-0.12274913 -0.1864016 0.3388373 0.11771941 0.12061683 -0.26267102 -0.29688817 0.04133106
-0.1133353 -0.2327594 -0.23871306 -0.29177135 -0.036603916 -0.13588533 -0.44030258 -0.2746796
-0.48221946 0.16313767 -0.05825246 0.07525145 -0.09649992 -0.25313878 0.15107663 0.08526879
0.12826082 0.16261986 -0.052488375 -0.039973646 0.066320546 0.12820138 0.11252767 0.1578273
0.1772151 0.17826867 0.14250329 0.18509279 0.2544457 -0.03579546 0.2759678 0.2524315
0.1609179 0.046785552 -0.408364 -0.16244915 0.34706947 0.18261555 0.074280046 -0.27325326
-0.18723781 0.41106674 0.17577326 -0.099504806 -0.30677217 0.17556907 0.2273341 0.31416947
-0.14980994 -0.020663107 0.01723233 0.16438887 0.03574417 -0.10965289
00000000: d80f 563e 1d97 283e da62 b73e 595d 983e
00000010: 839d dc3e 62df f3bd 9822 91bc 5323 d33d
00000020: 7ee8 d23d 5a1d 303e 9540 4abe ff04 adbe
00000030: 9630 9ebe 0c05 c2be 1e12 babe 3907 82be
00000040: 8a88 6bbe 379b 1cbe f832 35be 7755 b8be
00000050: 8886 013d f551 de3d 8d1e 45be 694c bfbd
00000060: 3ca5 ef3d ff35 eebc 37c1 e43d 3ab3 be3e
00000070: 9a2b 9d3e 7dff 213c 9333 a73e d37e 523e
00000080: 36a1 aa3e d72b 1c3f 517b cf3e 9935 84be
00000090: bb0e 77bd 84ef 04be 3afc 53bd d990 963e
000000a0: 977f 97be 9713 d1be d3e1 d2be a4c3 c0be
000000b0: 736b ba3d 6b49 a9bd ab3e 96be 661b 98be
000000c0: b5cf 98be d455 d1bd 5f01 543e a4a9 7cbe
000000d0: bfb7 afbe 9b8d 1fbe 8edc ccbd 62ac 983e
000000e0: a84a dcbd 3f23 f0bd 7c8b 91be f362 c7bd
000000f0: 3c69 633e 383e 853e ede8 29be cf43 a9be
00000100: 42f7 16be a201 863c 5204 a53d 67f3 9ebb
00000110: 60d4 f0bd d6a8 3ebe e710 2d3e 945a 943e
00000120: 2a75 7ebc 1076 8ebc ab89 9abc 756a 80be
00000130: c9b0 49be bd6c 023e bb66 373e ca80 533e
00000140: 853d 57be c0a5 453e fe10 853e 83e9 823e
00000150: 4eb9 81be 7f29 e6bc a031 c93e b8f6 803e
00000160: e563 fbbd 10e0 3ebe 157c ad3e e016 f13d
00000170: f505 f73d d17c 86be ba01 98be c24a 293d
00000180: 561c e8bd 7b58 6ebe 3271 74be 0e63 95be
00000190: fded 15bd 8625 0bbe 576f e1be cea2 8cbe
000001a0: 78e5 f6be 900d 273e 229a 6ebd 6f1d 9a3d
000001b0: c0a1 c5bd 689b 81be d5b3 1a3e 67a1 ae3d
000001c0: ce56 033e d285 263e 0dfe 56bd 68bb 23bd
000001d0: 11d3 873d 3947 033e e874 e63d 7b9d 213e
000001e0: e077 353e 108c 363e 62ec 113e f788 3d3e
000001f0: b546 823e 439e 12bd a74b 8d3e b43e 813e
00000200: a9c7 243e 35a2 3f3d 1615 d1be 1259 26be
00000210: 17b3 b13e 92ff 3a3e 2320 983d dae7 8bbe
00000220: 45bb 3fbe 5777 d23e e8fd 333e 2dc9 cbbd
00000230: 3e11 9dbe 61c8 333e 45ca 683e d2da a03e
00000240: c767 19be ad45 a9bc d12a 8d3c 8e55 283e
00000250: 7b68 123d b291 e0bd

conv1.bias f4 [6]
0.02135315 0.0050992155 -0.09956272 -0.03884521 -0.15878421 -0.13991985
00000000: cdec ae3c 5217 a73b 8ae7 cbbd 281c 1fbd
00000010: 5498 22be 2647 0fbe

conv2.weight f4 [16, 6, 5, 5]
-0.07146592 -0.050983887 -0.013865685 -0.045296915 -0.063777864 0.006273951 -0.1516282 -0.113745265
-0.007944572 -0.038645502 -0.05845907 -0.06230317 -0.089859016 -0.10129313 -0.010143824 0.0093962755
-0.09336709 0.024991076 -0.03888548 0.08542498 0.07739305 0.15755753 0.16661589 0.1947557
0.05855444 -0.02680293 -0.022619026 -0.2169897 -0.19911917 -0.028368503 -0.15305996 -0.036615763
-0.1434362 -0.02826884 0.16664582 -0.13203622 -0.1663449 -0.054352913 0.00055298826 -0.11212952
-0.09406921 0.016299706 0.081713706 0.004283346 -0.032917093 0.15256193 0.22465357 0.20834751
0.23039946 0.22700673 0.08592006 -0.08345693 0.049077645 0.039182935 -0.07715143 0.01562543
0.03702273 0.026045498 -0.018820142 -0.018332414 0.070884146 -0.013459781 0.07548256 0.07201006
-0.0010512811 -0.05463099 0.03355003 0.06411434 -0.09608321 -0.037876472 -0.010146935 0.052940045
-0.04776193 -0.104903765 -0.11556464 0.154791 0.010675255 0.056743603 0.098071106 0.024586758
0.042929504 0.006857429 0.1915133 0.162008 0.06526347 -0.098443046 0.1003862 0.13231845
-0.018291533 0.049699545 -0.05624996 0.024503956 -0.06796334 -0.17382765 0.12707397 -0.044349857
-0.15541576 -0.005196135 0.026298746 0.008254686 0.09959935 0.07654596 0.02754908 0.047901813
-0.020669302 -0.012904266 -0.05530161 -0.094552174 -0.01719555 -0.11549629 0.0804977 0.028992323
-0.0029679877 0.06442573 0.024805825 0.040347096 0.054518145 0.10824191 0.13875988 -0.009219708
0.022917131 -0.0985983 -0.08318769 -0.09963571 -0.06926059 0.016803598 -0.1315291 -0.14568576
-0.032041922 -0.118664645 0.009215601 0.07109059 0.15181626 -0.06441069 -0.09059315 0.043134373
0.0013885307 -0.023354283 -0.14929183 -0.08248352 -0.08921232 -0.035674557 -0.088940226 -0.15240759
-0.09474106 -0.15949225 -0.26534465 -0.13573225 -0.16821665 -0.11542152 0.032891836 0.015888833
-0.010003913 -0.04498211 -0.014413627 -0.0399936 0.071275145 0.08146659 0.078457564 -0.060649052
0.1295875 0.10590322 0.062480655 0.064832084 -0.019570433 -0.04255371 0.051488906 0.037981007
0.03508863 0.05393004 -0.015307898 0.076982334 -0.06260121 -0.08264419 -0.088115506 -0.17800662
-0.08117777 0.08543621 -0.04987754 0.079238005 0.10198427 0.024011668 0.0060275053 0.0060519
-0.026197216 0.103501834 0.10807274 0.11278241 -0.0058484715 -0.079073645 0.0030040932 -0.11023953
-0.11211133 -0.12758 -0.080524966 -0.03659593 -0.044422835 -0.025076171 -0.14444076 -0.09477208
-0.09869568 -0.099200025 0.018598981 0.019646695 0.022356123 -0.026134837 -0.04448063 -0.027171299
-0.0065490934 0.050092753 0.022181774 0.07087251 0.035329007 0.029834846 0.049860306 0.0100692725
-0.01834545 0.0356834 -0.031624764 0.051282387 -0.03660244 -0.022024753 0.043553747 -0.0765304
-0.053835515 -0.024338959 -0.013966705 0.069800526 0.07167131 0.067489736 0.039485324 0.020882763
0.070032306 0.101423934 -0.023020618 -0.003074971 -0.048860107 0.037724715 0.010188556 -0.037424356
-0.10588212 -0.019981703 -0.011196169 -0.0094428025 0.008219011 0.013947324 -0.014307431 -0.015349884
-0.033344496 -0.108420886 0.013305943 0.088525236 -0.03243912 -0.038960945 -0.044387735 0.0017610118
00000000: b95c 92bd 7bd4 50bd e62c 63bc 4289 39bd
00000010: f89d 82bd b795 cd3b 6c44 1bbe 47f3 e8bd
00000020: f329 02bc bf4a 1ebd c772 6fbd 9c31 7fbd
00000030: 0108 b8bd c672 cfbd 4832 26bc d6f2 193c
00000040: 3f37 bfbd 16ba cc3c 6246 1fbd 4bf3 ae3d
00000050: 3f80 9e3d c356 213e 5b9d 2a3e 0a6e 473e
00000060: c8d6 6f3d d191 dbbc 894b b9bc 8c32 5ebe
00000070: e5e5 4bbe 1065 e8bc c0bb 1cbe 69fa 15bd
00000080: f0e0 12be 0e94 e7bc 34a5 2a3e 8134 07be
00000090: 5156 2abe 29a1 5ebd 6af6 103a 29a4 e5bd
000000a0: 5ca7 c0bd f686 853c 8459 a73d 4f5b 8c3b
000000b0: 13d4 06bd 3239 1c3e 960b 663e 0d59 553e
000000c0: d6ed 6b3e 7474 683e dbf6 af3d 78eb aabd
000000d0: a405 493d 497e 203d 9201 9ebd e700 803c
000000e0: 25a5 173d 5e5d d53c b32c 9abc dc2d 96bc
000000f0: b52b 913d 6a86 5cbc 9a96 9a3d 037a 933d
00000100: 24cb 89ba bfc4 5fbd c26b 093d 614e 833d
00000110: 46c7 c4bd 5c24 1bbd 543f 26bc a9d7 583d
00000120: 03a2 43bd c9d7 d6bd 27ad ecbd 8881 1e3e
00000130: 44e7 2e3c fb6b 683d 81d9 c83d 2b6a c93c
00000140: d9d6 2f3d 49b4 e03b 101c 443e 6de5 253e
00000150: dba8 853d 829c c9bd 4897 cd3d 7d7e 073e
00000160: 20d8 95bc c091 4b3d 5c66 66bd 85bc c83c
00000170: 5d30 8bbd e0ff 31be ae1f 023e 32a8 35bd
00000180: 4f25 1fbe 5744 aabb 7870 d73c aa3e 073c
00000190: befa cb3d 21c4 9c3d 9cae e13c b134 443d
000001a0: ab52 a9bc 6a6c 53bc f183 62bd 92a4 c1bd
000001b0: afdd 8cbc 5289 ecbd fadb a43d 4f81 ed3c
000001c0: 9282 42bb a3f1 833d 9635 cb3c ff42 253d
000001d0: 6b4e 5f3d efad dd3d 1217 0e3e 420e 17bc
000001e0: b5bc bb3c e8ed c9bd 4f5e aabd cf0d ccbd
000001f0: 7fd8 8dbd b3a7 893c 90af 06be a62e 15be
00000200: 643e 03bd 7306 f3bd 08fd 163c f197 913d
00000210: b975 1b3e c0e9 83bd e788 b9bd abad 303d
00000220: 5cff b53a 7b51 bfbc f5df 18be 1fed a8bd
00000230: f3b4 b6bd 7c1f 12bd 4b26 b6bd bc10 1cbe
00000240: 9a07 c2bd f051 23be 41db 87be 65fd 0abe
00000250: fc40 2cbe 1e62 ecbd 97b9 063d 4c29 823c
00000260: 74e7 23bc 293f 38bd 2227 6cbc 54d0 23bd
00000270: b4f8 913d f5d7 a63d 5cae a03d 246b 78bd
00000280: 96b2 043e cae3 d83d b7eb 7f3d afc6 843d
00000290: 2c52 a0bc cd4c 2ebd 08e6 523d f991 1b3d
000002a0: 18b9 0f3d bfe5 5c3d facd 7abc eaa8 9d3d
000002b0: 1035 80bd 5b41 a9bd e775 b4bd 5e47 36be
000002c0: 8840 a6bd 2ef9 ae3d 644c 4cbd 8947 a23d
000002d0: 21dd d03d 1eb4 c43c 6182 c53b 044f c63b
000002e0: 8b9b d6bc c5f8 d33d 3e55 dd3d 77fa e63d
000002f0: 89a4 bfbb 5df1 a1bd 52e0 443b 43c5 e1bd
00000300: a09a e5bd 55a4 02be 46ea a4bd 9de5 15bd
00000310: b8f4 35bd 8b6c cdbc 47e8 13be dd17 c2bd
00000320: f620 cabd 6229 cbbd e45c 983c 1bf2 a03c
00000330: 3024 b73c ba18 d6bc 5231 36bd 5896 debc
00000340: c799 d6bb 0f2e 4d3d 8db6 b53c 9b25 913d
00000350: 26b5 103d 3568 f43c 523a 4c3d 97f9 243c
00000360: 3249 96bc c228 123d f888 01bd 7b0d 523d
00000370: 71ec 15bd 416d b4bc 6a65 323d f8bb 9cbd
00000380: a182 5cbd 7f62 c7bc 9bd4 64bc 94f3 8e3d
00000390: 68c8 923d 0f38 8a3d 5dbb 213d 5412 ab3c
000003a0: 196d 8f3d 5ab7 cf3d bc95 bcbc 7485 49bb
000003b0: 8921 48bd 3b85 1a3d e7ed 263c 484a 19bd
000003c0: bad8 d8bd abb0 a3bc 2370 37bc fcb5 1abc
000003d0: 08a9 063c 5183 643c b769 6abc 147e 7bbc
000003e0: 3d94 08bd c50b debd 2c01 5a3c b84c b53d
000003f0: e2de 04bd 8395 1fbd eacf 35bd c0d1 e63a

conv2.bias f4 [16]
-0.09516978 0.013353804 -0.0752022 -0.0077410354 -0.033529576 -0.02441622 -0.035772245 0.030619128
0.044160932 -0.0101748705 -0.0032978407 -0.035229582 -0.056467462 -0.038147297 -0.096894726 -0.09547049
00000000: 60e8 c2bd eac9 5a3c 9c03 9abd 83a8 fdbb
00000010: 4f56 09bd 8604 c8bc eb85 12bd f7d4 fa3c
00000020: 18e2 343d 80b4 26bc 9620 58bb e54c 10bd
00000030: 6d4a 67bd 5740 1cbd be70 c6bd 0886 c3bd

fc1.weight f4 [120, 256]
-0.010216557 -0.021689259 0.030221373 -0.00095048046 0.008165572 -0.012571907 -0.009477027 0.050907858
0.037089933 0.013107643 0.04908565 0.036069266 -0.038174298 -0.024966823 -0.07502474 -0.088771746
-0.04613364 0.050015498 -0.051267914 0.0157403 0.022562288 -0.02523014 0.024242297 -0.017808773
-0.041580524 0.015784342 -0.04114006 -0.0062108403 -0.025092106 -0.07561628 -0.024889762 0.082686156
-8.294059e-06 -0.040759843 0.025121663 -0.048056934 0.057670817 -0.04246428 0.05772105 0.016524393
0.02575042 -0.06289283 -0.017812183 0.04735046 -0.018643057 -0.060952824 0.010406587 -0.020483647
-0.026792875 0.012383376 0.018956296 0.05647926 0.007930834 0.077720396 0.037659775 -0.02686346
0.024529465 -0.032685738 -0.06533674 0.036972124 0.04805474 0.017015865 -0.029491913 -0.02859336
0.006336046 -0.04778199 -0.0050152317 -0.0508236 0.052337896 0.021344079 -0.0348341 0.054826986
0.0610799 -0.045757838 -0.052548915 -0.05460503 0.009401923 -0.05595399 0.052897874 0.004678941
0.07858117 -0.009622121 -0.019929597 -0.03004541 0.059042387 0.0068264846 -0.0258195 -0.035385285
0.046351187 -0.05272842 -0.015018577 0.10412417 -0.044426896 -0.12596858 0.009005609 -0.0041903625
0.022500098 0.027343713 0.05932481 -0.028878657 -0.07618458 -0.0667554 -0.020781204 0.0023310848
0.0321792 -0.06612198 -0.012268236 -0.0319364 -0.065865 -0.05014693 -0.047401156 -0.049208477
0.03515642 0.008745432 -0.0037720557 0.003760189 -0.05781544 -0.045704514 -0.022371352 -0.06649852
-0.017450554 -0.02212549 0.00033416974 0.029403897 -0.012469203 -0.01801669 -0.04531539 -0.009770129
-0.032878015 0.044914722 0.051436618 0.012086398 -0.012854833 0.026753446 -0.013079173 0.06677727
-0.023901386 0.04920381 0.007855707 -0.06527422 0.05395618 0.010636131 -0.022094408 -0.012265235
0.04271618 -0.058500193 0.0037847501 0.03478144 0.034032296 0.06721726 0.07904054 0.03377257
0.011674737 -0.085056715 -0.04998478 0.019986143 0.00087998254 -0.04054117 -0.025023844 0.008746737
-0.059203975 0.017559247 -0.003133457 0.05899979 -0.002419967 0.024105083 -0.070044935 0.0038768086
-0.027596269 0.026383752 -0.026618468 0.0043462883 0.030371157 0.01009324 -0.0878588 -0.123790726
-0.015601028 0.04587459 -0.047221128 -0.031006075 0.064817026 0.050235033 0.024201205 0.07745375
0.034199327 -0.01253398 -0.024398103 -0.05917094 -0.01590498 -0.014584982 0.09847127 0.06859629
-0.0024036437 -0.010842728 -0.019898616 -0.008238971 -0.0153567465 0.03733302 -0.046292495 -0.06322027
-0.0032395278 0.035998613 0.0040272963 0.003087231 -0.007208858 0.03422879 -0.032458488 -0.076322466
-0.0066526644 -0.04231701 0.021882067 0.058524277 -0.020903636 0.01473255 0.015746558 0.0063554454
0.016633358 -0.06829717 0.021473344 0.03285791 0.012635944 0.07965429 -0.035347186 -0.089660525
0.054704063 0.023948394 -0.03579308 0.068543255 -0.00591523 0.035141386 0.02792474 0.05244129
0.054829642 -0.06974868 0.05185623 0.047903247 -0.056941833 -0.0480309 0.08098531 -0.055195995
0.051546995 0.06677769 -0.011794372 0.04293026 0.04420708 0.08863006 -0.053066302 0.036718577
0.047089558 0.0016203048 -0.049913887 -0.060236454 0.057412438 0.029386038 -0.11404295 -0.016918626
00000000: 5963 27bc acad b1bc d092 f73c aa29 79ba
00000010: e4c8 053c 66fa 4dbc 8845 1bbc c284 503d
00000020: 9deb 173d 71c1 563c 090e 493d 5ebd 133d
00000030: a75c 1cbd 3987 ccbc 92a6 99bd f6cd b5bd
00000040: a1f6 3cbd 0ddd 4c3d 4efe 51bd cdf1 803c
00000050: 8cd4 b83c 70af cebc c897 c63c b4e3 91bc
00000060: 5750 2abd 2a4e 813c 7b82 28bd 4e84 cbbb
00000070: f68d cdbc b5dc 9abd 9de5 cbbc 5c57 a93d
00000080: b626 0bb7 cbf3 26bd f2cb cd3c 59d7 44bd
00000090: 3c38 6c3d 06ef 2dbd e86c 6c3d 2a5e 873c
000000a0: 8bf2 d23c f5cd 80bd dbea 91bc 8ef2 413d
000000b0: 53b9 98bc aba9 79bd 6480 2a3c 52cd a7bc
000000c0: bb7c dbbc a5e3 4a3c 3c4a 9b3c cc56 673d
000000d0: 54f0 013c df2b 9f3d 2341 1a3d c210 dcbc
000000e0: 04f2 c83c 7be1 05bd 45cf 85bd 1570 173d
000000f0: 0cd5 443d db64 8b3c 0699 f1bc 9f3c eabc
00000100: 9b9e cf3b 0cb7 43bd d056 a4bb 682c 50bd
00000110: 4360 563d c7d9 ae3c 34ae 0ebd 4392 603d
00000120: eb2e 7a3d 926c 3bbd 883d 57bd 86a9 5fbd
00000130: 860a 1a3c 0330 65bd 71ab 583d cd51 993b
00000140: 2aef a03d 1aa6 1dbc 6543 a3bc cb21 f6bc
00000150: 6ed6 713d b4b0 df3b 6b83 d3bc 29f0 10bd
00000160: beda 3d3d c1f9 57bd 7a10 76bc 0e3f d53d
00000170: faf8 35bd e8fd 00be 438c 133c 4f4f 89bb
00000180: 2052 b83c ecff df3c 92fe 723d ef92 ecbc
00000190: a906 9cbd 0eb7 88bd 583d aabc 1dc5 183b
000001a0: 56ce 033d f66a 87bd b600 49bc becf 02bd
000001b0: 3be4 86bd de66 4dbd b727 42bd d48e 49bd
000001c0: 2e00 103d 0049 0f3c 9834 77bb 816d 763b
000001d0: e2cf 6cbd a834 3bbd 2044 b7bc 6030 88bd
000001e0: 77f4 8ebc 8440 b5bc 8133 af39 71e0 f03c
000001f0: a14b 4cbc bd97 93bc a19c 39bd e412 20bc
00000200: 19ab 06bd 80f8 373d 34af 523d 0706 463c
00000210: 149d 52bc 0b2a db3c 074a 56bc 85c2 883d
00000220: d7cc c3bc ef89 493d 39b5 003c 7eae 85bd
00000230: 2801 5d3d 2b43 2e3c 55ff b4bc 20f4 48bc
00000240: 29f7 2e3d e69d 6fbd 9209 783b fc76 0e3d
00000250: 7365 0b3d 34a9 893d 02e0 a13d 1b55 0a3d
00000260: 6547 3f3c 3732 aebd d7bc 4cbd fbb9 a33c
00000270: a1ae 663a 7f0e 26bd cefe ccbc 794e 0f3c
00000280: de7f 72bd 69d8 8f3c af5a 4dbb c4a9 713d
00000290: 4f98 1ebb 0678 c53c b873 8fbd 0e12 7e3b
000002a0: 9211 e2bc bd22 d83c f90e dabc 4f6b 8e3b
000002b0: efcc f83c 1e5e 253c 51ef b3bd fe85 fdbd
000002c0: 749b 7fbc fee6 3b3d f16a 41bd 7400 febc
000002d0: cabe 843d 40c3 4d3d 9b41 c63c 12a0 9e3d
000002e0: 9814 0c3d 535b 4dbc 88de c7bc 3a5d 72bd
000002f0: 294b 82bc d9f5 6ebc 4eab c93d 367c 8c3d
00000300: 7386 1dbb b3a5 31bc 6c02 a3bc c0fc 06bc
00000310: dd9a 7bbc 82ea 183d 339d 3dbd a179 81bd
00000320: 424e 54bb 4873 133d 69f7 833b 2453 4a3b
00000330: 4938 ecbb 7d33 0c3d 31f3 04bd f44e 9cbd
00000340: 98fe d9bb 9a54 2dbd 0542 b33c 27b7 6f3d
00000350: 1a3e abbc cb60 713c edfe 803c 5741 d03b
00000360: ae42 883c 63df 8bbd dee8 af3c 0496 063d
00000370: fe06 4f3c ca21 a33d 36c8 10bd f09f b7bd
00000380: 5e11 603d 6c2f c43c c49b 12bd 6860 8c3d
00000390: 8cd4 c1bb 6af0 0f3d 6dc2 e43c aecc 563d
000003a0: 0c95 603d 65d8 8ebd 3367 543d 3236 443d
000003b0: d73b 69bd 0dbc 44bd a0db a53d 3215 62bd
000003c0: f122 533d bec2 883d 2f3d 41bc a4d7 2f3d
000003d0: 7c12 353d ad83 b53d 0d5c 59bd 3866 163d
000003e0: fbe0 403d 6860 d43a 8172 4cbd 80ba 76bd
000003f0: 4e29 6b3d fdba f03c 5a8f e9bd ee98 8abc

fc1.bias f4 [120]
0.054272942 -0.0053035263 -0.020251239 0.024411805 0.02445365 -0.058110952 0.01125567 -0.019446287
0.009334134 -0.05303337 0.04728745 -0.04778645 0.03767516 -0.043352813 -0.045264557 0.029973764
0.008781281 -0.008662348 0.018132301 0.03411763 0.0026212775 0.060487192 -0.03158792 -0.038825862
0.022946883 -0.013247974 0.055887323 0.00938928 0.011752128 0.058800887 0.023686593 -0.022322768
-0.04189881 -0.026031986 0.001407556 0.059117295 0.008783992 -0.02667136 -0.01687144 0.04876308
0.04801999 0.053340986 -0.016641496 -0.015675854 -0.006321339 0.061295867 0.014699894 -0.03387773
0.062247153 -0.044864234 -0.03117357 -0.0415662 0.044936024 -0.05562836 0.02203052 -0.012251059
-0.05044133 -0.037348766 0.033088744 0.025874697 0.03606048 0.07107671 0.07707605 -0.01187571
-0.0016552499 -0.041301697 0.002355282 -0.051065847 -0.015278049 -0.016085964 0.044297185 -0.028547386
-0.0046151 0.06002142 -0.027806815 0.027545856 -0.0045345994 0.022722779 -0.005086844 0.012475843
0.0029662184 -0.0014732003 0.02121572 0.015755957 0.042261343 0.044247687 -0.054066453 0.042133123
-0.05470045 -0.06909561 0.010328745 0.030772528 -0.026964627 -0.04124847 0.058905166 0.007569882
-0.010328786 0.01586757 -0.02924288 -0.022182476 0.046061672 -0.03819699 0.05546877 -0.043828998
-0.06121992 -0.053649127 -0.059394967 0.060751557 0.042406097 0.024061974 -0.032298803 0.02273388
0.046152472 -0.02690076 0.021829752 -0.041340873 -0.039864413 0.0055118077 0.036570307 -0.026619146
00000000: 4e4d 5e3d 34c9 adbb ede5 a5bc 44fb c73c
00000010: 0553 c83c c005 6ebd b469 383c d24d 9fbc
00000020: 32ee 183c 8539 59bd 7cb0 413d b9bb 43bd
00000030: 4551 1a3d b892 31bd 5467 39bd 8a8b f53c
00000040: 5ddf 0f3c 85ec 0dbc 318a 943c eebe 0b3d
00000050: bdc9 2b3b 6bc1 773d 5662 01bd de07 1fbd
00000060: 1afb bb3c 080e 59bc 1bea 643d 7fd5 193c
00000070: ff8b 403c 33d9 703d 630a c23c 3dde b6bc
00000080: 169e 2bbd 0841 d5bc be7d b83a fa24 723d
00000090: bcea 0f3c e57d dabc f935 8abc ccbb 473d
000000a0: 9cb0 443d 147c 5a3d bf53 88bc a66a 80bc
000000b0: 3c23 cfbb 6011 7b3d d3d7 703c 60c3 0abd
000000c0: dff6 7e3d 8fc3 37bd b75f ffbc 5241 2abd
000000d0: d60e 383d 90da 63bd 5979 b43c aab8 48bc
000000e0: 919b 4ebd 05fb 18bd 1088 073d 2cf7 d33c
000000f0: 27b4 133d ab90 913d 0cda 9d3d 5792 42bc
00000100: f8f4 d8ba f82b 29bd 135b 1a3b 6c2a 51bd
00000110: c850 7abc b6c6 83bc f770 353d 35dc e9bc
00000120: 443a 97bb 05d9 753d 1ecb e3bc d9a7 e13c
00000130: fa96 94bb 1f25 ba3c 8aaf a6bb 7a67 4c3c
00000140: e364 423b 6618 c1ba 97cc ad3c a312 813c
00000150: 3b1a 2d3d 103d 353d c974 5dbd c893 2c3d
00000160: 940d 60bd 0082 8dbd e539 293c ab16 fc3c
00000170: ece4 dcbc 28f4 28bd 8b46 713d c60c f83b
00000180: 123a 29bc b5fc 813c c48e efbc 06b8 b5bc
00000190: 2aab 3c3d 7274 1cbd 3933 633d 0986 33bd
000001a0: bdc1 7abd 30bf 5bbd 2348 73bd a0d6 783d
000001b0: 04b2 2d3d 9e1d c53c c04b 04bd 673c ba3c
000001c0: 600a 3d3d fc5e dcbc 4fd4 b23c 0c55 29bd
000001d0: de48 23bd 659c b43b bfca 153d 6510 dabc

fc2.weight f4 [84, 120]
-0.027051477 -0.03188089 -0.08202534 0.05490889 -0.030212838 0.0015932937 0.089864455 0.04181589
-0.06544539 0.020867817 -0.04775189 -0.051533338 -0.00532747 -0.019352283 -0.007056211 0.059675857
-0.07794148 -0.057748165 -0.07307832 -0.05643121 -0.08516526 0.021474462 0.026433295 -0.05618406
-0.081941456 0.045409083 0.030635282 -0.06524442 -0.038004026 -0.042041797 0.03153114 -0.025009418
-0.05427183 0.0490935 -0.057543933 0.017253723 -0.013901925 0.082356066 -0.07143064 -0.097304426
0.065801494 -0.036967676 -0.03334613 -0.0037986108 0.056953695 -0.061695658 -0.008692282 -0.00035720452
0.052364923 -0.07800423 -0.020728862 0.041228227 -0.029495362 -0.06587351 0.028676916 0.046052612
0.078654625 0.001334746 -0.08645449 0.048782144 -0.0615822 -0.0032657178 0.013253638 0.08295103
-0.050191816 0.03602692 0.08252737 -0.02445248 0.12704587 0.011666508 -0.018077916 0.04846011
0.07383884 -0.06259318 -0.058605917 0.014507182 -0.04339674 0.07181781 0.08624689 -0.084034495
0.08670597 0.053188123 -0.0022181976 -0.085083604 -0.03161428 -0.057437696 0.067746334 0.037998177
0.035956416 0.081619516 -0.042890407 -0.05392039 -0.005136732 -0.08875821 -0.023924895 -0.0009535684
0.040599234 -0.08454437 0.03347223 -0.014597633 -0.0061544264 -0.035867922 0.07480259 -0.08121909
0.04417091 -0.093474284 0.08545868 0.053117707 -0.09144863 -0.03258224 0.009318504 0.022557845
0.014536416 -0.047511708 -0.027461728 -0.07618592 -0.026299572 -0.06858907 -0.050489206 -0.0006422348
0.053619638 0.027614811 0.04417477 0.07487925 0.020035384 0.055875923 0.096088484 -0.10009759
-0.115004614 0.015852138 0.0015895871 0.030855203 0.11837013 0.05025689 0.04019509 0.019278293
-0.024861025 0.052357648 -0.048423536 0.047803666 0.085172586 -0.110541336 -0.075428575 0.036919996
0.025210297 -0.08969157 0.08774745 -0.0034389393 -0.1002042 0.032185987 0.087880455 -0.034283996
0.05855583 -0.039217304 -0.0077135903 0.020563517 -0.03238519 -0.085013814 -0.082492486 0.09034704
-0.024855155 0.044635404 0.041183762 -0.047797192 0.09503705 -0.12018885 0.1005613 -0.09603835
0.05029177 -0.05101686 0.023276241 -0.020366529 -0.017493123 -0.007000928 0.030195404 0.17133157
0.013634967 -0.030914597 -0.083651744 0.04182011 -0.07823758 0.1011849 -0.13592815 -0.11081816
0.064328745 -0.05115027 0.010931411 -0.08374214 -0.0795321 -0.04706393 -0.043016795 0.07131058
0.016420253 0.016109977 -0.03489391 -0.14813396 -0.018107794 0.06964828 -0.07051476 0.009770361
0.03947569 0.050437376 0.13709888 -0.11896915 -0.038220942 -0.10287559 -0.08034944 0.1109554
0.0067019714 -0.030187547 0.019259738 0.013947197 0.014065064 0.06707941 0.07606796 0.05855311
0.07997893 0.032787085 0.007673331 -0.0050018877 -0.029732633 0.029239327 0.11145611 0.032295443
-0.12974901 -0.05522388 0.0816618 0.09531684 0.054869745 -0.0030161466 -0.0014093613 -0.03829686
-0.05286959 0.0033268395 -0.06180463 -0.07578956 0.029527323 -0.013155522 0.012160635 0.00054678234
0.0004247338 0.011368058 -0.07590079 -0.08893216 0.07361824 0.063050754 -0.050016742 -0.09784929
0.043602563 -0.058741484 -0.08253673 0.047440987 0.09736898 0.030080304 0.03906378 0.07172912
00000000: 0f9b ddbc 8995 02bd e7fc a7bd 25e8 603d
00000010: ea80 f7bc 11d6 d03a db0a b83d 2447 2b3d
00000020: 3c08 86bd fcf2 aa3c 7c97 43bd 9f14 53bd
00000030: 0f92 aebb ae88 9ebc ca37 e7bb ac6e 743d
00000040: c89f 9fbd 5789 6cbd 16aa 95bd 6a24 67bd
00000050: 206b aebd 36eb af3c a38a d83c 4221 66bd
00000060: ecd0 a7bd e0fe 393d d8f6 fa3c de9e 85bd
00000070: 1caa 1bbd 0534 2cbd cc26 013d 8de0 ccbc
00000080: 234c 5ebd 4416 493d 30b3 6bbd ae57 8d3c
00000090: e6c4 63bc 4caa a83d 3a4a 92bd 8b47 c7bd
000000a0: efc2 863d 6b6b 17bd f495 08bd 1df2 78bb
000000b0: 4748 693d 96b4 7cbd 136a 0ebc 2e47 bbb9
000000c0: 9a7c 563d afc0 9fbd 93cf a9bc eede 283d
000000d0: 42a0 f1bc b1e8 86bd daeb ea3c aaa1 3c3d
000000e0: ad15 a13d a5f2 ae3a 0d0f b1bd c9cf 473d
000000f0: 9e3d 7cbd a705 56bb c925 593c 3be2 a93d
00000100: ef95 4dbd f790 133d 1c04 a93d 9150 c8bc
00000110: 5018 023e e224 3f3c 2318 94bc 1c7e 463d
00000120: d138 973d da30 80bd c20c 70bd 88af 6d3c
00000130: c8c0 31bd 3715 933d 36a2 b03d 471a acbd
00000140: e692 b13d cadb 593d 2e5f 11bb 5040 aebd
00000150: fa7d 01bd ca43 6bbd 97be 8a3d faa3 1b3d
00000160: 0947 133d 2228 a73d daad 2fbd a0db 5cbd
00000170: 0852 a8bb ddc6 b5bd 24fe c3bc e4f8 79ba
00000180: 624b 263d 9925 adbd 2d1a 093d e92a 6fbc
00000190: 12ab c9bb 3eea 12bd 1a32 993d 3256 a6bd
000001a0: 8eec 343d 726f bfbd f604 af3d f491 593d
000001b0: 6b49 bbbd f474 05bd a3ac 183c 3bcb b83c
000001c0: 262a 6e3c a39b 42bd 6bf7 e0bc 5d07 9cbd
000001d0: 3372 d7bc 6d78 8cbd c5cd 4ebd a65b 28ba
000001e0: 44a0 5b3d 7538 e23c 9bf0 343d 4b5a 993d
000001f0: 3f21 a43c 27de 643d 0aca c43d f7ff ccbd
00000200: 8a87 ebbd 58dc 813c b159 d03a 0dc4 fc3c
00000210: 0a6c f23d 2bda 4d3d 9ba3 243d 83ed 9d3c
00000220: 59a9 cbbc f974 563d c257 46bd c7cd 433d
00000230: f76e ae3d 7f63 e2bd 4c7a 9abd 6c39 173d
00000240: d385 ce3c 37b0 b7bd efb4 b33d d45f 61bb
00000250: dc37 cdbd 74d5 033d abfa b33d 606d 0cbd
00000260: 3dd8 6f3d 53a2 20bd 49c2 fcbb d274 a83c
00000270: 55a6 04bd b91b aebd d2f1 a8bd de07 b93d
00000280: 0a9d cbbc 9dd3 363d 4eb0 283d fdc6 43bd
00000290: c9a2 c23d 9225 f6bd 15f3 cd3d c1af c4bd
000002a0: befe 4d3d 0ef7 50bd d1ad be3c b5d7 a6bc
000002b0: bd4d 8fbc 0a68 e5bb 5a5c f73c 8b71 2f3e
000002c0: 3265 5f3c 9c40 fdbc 9b51 abbd 904b 2b3d
000002d0: 063b a0bd 073a cf3d c030 0bbe a2f4 e2bd
000002e0: cabe 833d f282 51bd a919 333c 0081 abbd
000002f0: bae1 a2bd 1cc6 40bd 6132 30bd 480b 923d
00000300: c483 863c 12f9 833c ebec 0ebd 6eb0 17be
00000310: cc56 94bc c2a3 8e3d 0b6a 90bd dd13 203c
00000320: 43b1 213d 6c97 4e3d a663 0c3e 19a6 f3bd
00000330: 908d 1cbd 70b0 d2bd 3f8e a4bd 963c e33d
00000340: 369c db3b e04b f7bc 99c6 9d3c c982 643c
00000350: 2771 663c ee60 893d 85c9 9b3d 63d5 6f3d
00000360: fecb a33d c04b 063d 9170 fb3b e0e6 a3bb
00000370: da91 f3bc 5087 ef3c 1a43 e43d 3a48 043d
00000380: eddc 04be 6f32 62bd 4d3e a73d 7a35 c33d
00000390: 19bf 603d 8baa 45bb 51ba b8ba 2bdd 1cbd
000003a0: c98d 58bd 1b07 5a3b da26 7dbd 8f37 9bbd
000003b0: 49e3 f13c 428a 57bc 663d 473c f155 0f3a
000003c0: ceae de39 1741 3a3c e071 9bbd 1022 b6bd
000003d0: 29c5 963d c120 813d 5bde 4cbd 3565 c8bd
000003e0: 9a98 323d e99a 70bd 0409 a9bd 7b51 423d
000003f0: 6369 c73d f86a f63c 5801 203d b8e6 923d

fc2.bias f4 [84]
0.026562762 -0.07152727 -0.022303486 -0.07287211 0.0073389946 0.10399313 0.024269488 -0.03720977
-0.045433927 0.056841157 0.058393206 0.07416843 -0.057358846 -0.0728687 -0.0059642578 0.0896129
-0.012457723 -0.053368624 0.06231025 -0.00524771 0.025609683 -0.087107874 -0.081518576 0.021577325
-0.053074457 0.06433248 -0.0374267 0.057857215 -0.09130177 -0.06054614 -0.08254275 0.09130118
0.07548373 0.036556467 0.03911533 -0.05774321 -0.05578851 -0.0067044394 0.0146737425 0.03984131
0.02684303 -0.03215881 0.11548969 0.0943965 -0.075787544 0.0924136 0.11899283 -0.037782546
0.038710635 -0.03342589 0.12541902 0.015055828 -0.057067182 -0.09127369 -0.059436318 0.0328519
0.037245832 -0.09551599 -0.011225823 0.047134284 0.05672201 -0.03346849 -0.021903519 -0.008101362
-0.049810678 0.031333484 0.022605652 0.051322453 -0.0010252143 -0.0760493 -0.0712021 0.05343209
-0.020098576 -0.07131155 0.051855326 -0.06623867 -0.014950631 0.1100504 -0.048195105 0.08639866
-0.07192449 0.06869442 0.110943414 -0.010481096
00000000: 269a d93c e47c 92bd cdb5 b6bc f93d 95bd
00000010: f37b f03b 5afa d43d ced0 c63c 4669 18bd
00000020: ed18 3abd 46d2 683d b72d 6f3d 9ee5 973d
00000030: 1cf1 6abd 2f3c 95bd d26f c3bb f886 b73d
00000040: 7a1b 4cbc 0f99 5abd 0839 7f3d fbf4 abbb
00000050: 66cb d13c 9d65 b2bd 36f3 a6bd eec2 b03c
00000060: 9a64 59bd bfc0 833d bd4c 19bd b0fb 6c3d
00000070: 6cfc babd 3bff 77bd 2c0c a9bd 1dfc ba3d
00000080: 3797 9a3d 3cbc 153d 6537 203d 2584 6cbd
00000090: 7e82 64bd eab0 dbbb 236a 703c a430 233d
000000a0: eae5 db3c f5b8 03bd dc85 ec3d f452 c13d
000000b0: 8036 9bbd 5743 bd3d 83b2 f33d dfc1 1abd
000000c0: 0b8f 1e3d 96e9 08bd d86d 003e b8ac 763c
000000d0: 47bf 69bd b3ed babd 7f73 73bd b78f 063d
000000e0: 168f 183d e39d c3bd 84ec 37bc e10f 413d
000000f0: 5755 683d 4116 09bd 026f b3bc 93bb 04bc
00000100: 4806 4cbd 8a57 003d 7d2f b93c 7e37 523d
00000110: 7c60 86ba bcbf 9bbd 68d2 91bd 9bdb 5a3d
00000120: c5a5 a4bc ca0b 92bd 4066 543d 24a8 87bd
00000130: 7ef3 74bc 1b62 e13d 3b68 45bd c8f1 b03d
00000140: 264d 93bd a9af 8c3d 4d36 e33d e7b8 2bbc

fc3.weight f4 [10, 84]
0.04230527 -0.12621257 -0.11011204 0.05043011 0.014324176 -0.08945119 0.30423594 0.28302032
-0.07461249 0.00015688047 -0.036199965 -0.051917125 -0.08258464 -0.094029896 0.058087192 0.13555624
-0.06976496 0.05234483 -0.048867237 -0.28767648 0.22310452 -0.10494844 0.14603893 0.053510487
0.20512684 -0.093434975 0.06190785 -0.14668775 0.09595825 -0.13428137 -0.030658927 -0.22006425
0.08884366 -0.20641233 -0.23387182 0.113506384 -0.04700684 0.07190525 0.044578508 0.10830566
0.16867833 0.07180762 -0.20976266 -0.20405905 -0.05735275 0.16458692 -0.16465071 -0.039625548
0.15754808 -0.07510115 0.086205676 -0.091176726 0.06368414 0.054246426 0.25177008 -0.18318835
-0.045446564 -0.09744671 0.029666044 -0.045663714 -0.13262425 -0.03690347 0.20566386 -0.14597845
0.06367144 -0.080845624 0.20404354 -0.107639804 -0.18108876 -0.09136555 -0.006343741 -0.00075560866
0.17663214 -0.011635765 -0.17336369 -0.14842835 -0.036638904 -0.20316085 0.09524992 -0.20990121
-0.029209465 -0.20410022 -0.027642839 0.05665823 0.031127576 0.05106755 -0.041186914 -0.06448204
-0.09007484 -0.059757035 0.023548674 -0.27157348 -0.0040809815 0.05614814 0.21823576 0.1797434
-0.010075721 0.09395131 0.05991167 -0.12736225 -0.08964759 0.013383903 0.028271561 -0.35528347
0.024015505 -0.003260534 0.04437082 -0.07412909 -0.03751083 -0.040270574 0.080910146 0.3290699
-0.10149103 -0.0828218 -0.03483329 0.18671346 0.19565798 -0.1352071 0.25496483 0.0077111972
0.06145607 0.00076596026 -0.03962249 -0.047197267 -0.24577183 -0.09823847 0.31763428 -0.098737046
0.079503275 -0.12548201 0.2365482 0.063190095 0.16280533 0.34875658 -0.2692427 0.010818198
0.013802975 -0.011346317 -0.115362555 -0.18983456 -0.116666526 -0.019012356 -0.10455261 -0.08179632
0.17852789 -0.028691186 -0.20773177 -0.19014817 0.001736088 0.31425217 0.18190552 -0.13213775
0.10600965 0.07928274 -0.102322705 -0.26945627 -0.15931429 0.046546157 0.06476693 0.026679525
-0.023080995 0.05596719 -0.04728135 -0.12536079 0.030197032 -0.121087 -0.09235082 0.22113965
-0.05271598 -0.16806671 -0.053574234 -0.06108564 -0.16420421 -0.0819888 0.11582374 -0.06104159
0.13179144 0.07662054 -0.020569012 0.16138129 0.20164563 -0.042523436 0.02655331 -0.18832462
-0.009527704 0.05154619 -0.09256899 -0.12339279 0.034590892 0.256231 0.15001261 0.058757607
0.18563917 -0.014936462 0.082379185 0.076499134 0.082804255 0.18471123 0.040154852 0.07172303
0.09550167 -0.0024826084 0.14723438 -0.20525733 0.07573813 0.11041449 -0.10811587 0.26862758
-0.15902337 0.0028706444 -0.049512167 -0.21328922 -0.03756328 -0.14443511 -0.119506486 -0.02655506
-0.044241436 -0.013475275 0.2591481 -0.1683791 0.14194654 -0.07027951 -0.08231328 -0.19410513
-0.17406838 -0.058892526 0.25132123 -0.062042788 -0.18103974 0.06357977 0.16814744 0.054972257
-0.028086897 -0.1417644 -0.09464782 0.18904285 0.13228504 0.066332564 0.114231095 0.054813635
-0.20583779 0.009312808 0.002304532 0.089635395 -0.042642184 0.2014324 0.0046460563 -0.19705892
-0.07240311 0.11995617 -0.008970018 -0.18914233 0.02797249 -0.10764895 0.07532376 -0.046529327
00000000: 4a48 2d3d de3d 01be 6c82 e1bd ce8f 4e3d
00000010: f3af 6a3c 2f32 b7bd d0c4 9b3e 0ae8 903e
00000020: 6fce 98bd 4880 2439 6a46 14bd 0da7 54bd
00000030: 2322 a9bd bf92 c0bd d6ec 6d3d 41cf 0a3e
00000040: eee0 8ebd 8867 563d 0329 48bd 554a 93be
00000050: 8375 643e 35ef d6bd 3b8b 153e d02d 5b3d
00000060: c50c 523e d65a bfbd 1693 7d3d 5035 16be
00000070: c285 c43d 0e81 09be 6e28 fbbc 8658 61be
00000080: aaf3 b53d c15d 53be 187c 6fbe 0976 e83d
00000090: 3f8a 40bd 0f43 933d f497 363d 5ccf dd3d
000000a0: 03ba 2c3e e00f 933d 06cc 56be dbf4 50be
000000b0: b8ea 6abd 7989 283e 329a 28be 664e 22bd
000000c0: 4954 213e a2ce 99bd 9a8c b03d ddba babd
000000d0: d56c 823d 8031 5e3d 02e8 803e ba95 3bbe
000000e0: 2d26 3abd 2492 c7bd 3406 f33c e009 3bbd
000000f0: a7ce 07be 1828 17bd 8c99 523e 607b 15be
00000100: 2c66 823d 6492 a5bd caf0 503e 4272 dcbd
00000110: 556f 39be dd1d bbbd 28df cfbb 0a14 46ba
00000120: 0edf 343e f0a3 3ebc 4086 31be 9afd 17be
00000130: ad12 16bd 6609 50be 6412 c33d 58f0 56be
00000140: b048 efbc a6ff 50be 3c73 e2bc 7612 683d
00000150: 42ff fe3c 352c 513d 9cb3 28bd 290f 84bd
00000160: 2879 b8bd cbc3 74bd 26e9 c03c ae0b 8bbe
00000170: c1b9 85bb 98fb 653d 3279 5f3e a70e 383e
00000180: a314 25bc 8b69 c03d f065 753d 406b 02be
00000190: 2899 b7bd 2848 5b3c c399 e73c b7e7 b5be
000001a0: 2abc c43c afae 55bb 2dbe 353d fed0 97bd
000001b0: f5a4 19bd c2f2 24bd 38b4 a53d da7b a83e
000001c0: 87da cfbd 7a9e a9bd 5aad 0ebd d031 3f3e
000001d0: 915a 483e bb73 0abe c08a 823e 36ae fc3b
000001e0: 5cb9 7b3d b9ca 483a 314b 22bd ec51 41bd
000001f0: 9cab 7bbe 4031 c9bd f6a0 a23e a636 cabd
00000200: 9dd2 a23d 5b7e 00be b139 723e cf69 813d
00000210: 71b6 263e 3990 b23e 2eda 89be d03e 313c
00000220: e025 623c e7e5 39bc 3443 ecbd fe63 42be
00000230: dcee eebd cdbf 9bbc ae1f d6bd d484 a7bd
00000240: 04d0 363e c709 ebbc a3b7 54be 34b6 42be
00000250: 728d e33a a9e5 a03e 7145 3a3e 1e4f 07be
00000260: 961b d93d fd5e a23d 918e d1bd 2cf6 89be
00000270: 4923 23be 2fa7 3e3d 86a4 843d 058f da3c
00000280: 5b14 bdbc da3d 653d 17aa 41bd 945e 00be
00000290: c45f f73c 76fc f7bd 6d22 bdbd 6f72 623e
000002a0: b6ec 57bd ae19 2cbe a870 5bbd f034 7abd
000002b0: 2625 28be bee9 a7bd ff34 ed3d bf06 7abd
000002c0: 56f4 063e 3beb 9c3d 5880 a8bc 2341 253e
000002d0: 317c 4e3e 0e2d 2ebd 5486 d93c 2bd8 40be
000002e0: 161a 1cbc 1922 533d d094 bdbd 5cb5 fcbd
000002f0: 2eaf 0d3d b630 833e e89c 193e d1ab 703d
00000300: 3218 3e3e 10b8 74bc 6bb6 a83d 94ab 9c3d
00000310: 4795 a93d f124 3d3e 6a79 243d 86e3 923d
00000320: 6196 c33d 42b3 22bb 9cc4 163e fa2e 52be
00000330: 981c 9b3d fe20 e23d da6b ddbd 8e89 893e
00000340: 06d7 22be 6c21 3c3b 45cd 4abd 7d68 5abe
00000350: f4db 19bd cce6 13be d1bf f4bd ff89 d9bc
00000360: 8236 35bd 66c7 5cbc 0faf 843e 926b 2cbe
00000370: 6f5a 113e b4ee 8fbd dd93 a8bd 7fc3 46be
00000380: fb3e 32be 4a39 71bd 2dad 803e 9420 7ebd
00000390: 7b62 39be 1c36 823d d82e 2c3e 972a 613d
000003a0: 7e16 e6bc b02a 11be b7d6 c1bd 7394 413e
000003b0: bb75 073e 5ed9 873d fef1 e93d 4384 603d
000003c0: 24c7 52be bf94 183c a207 173b c392 b73d
000003d0: 92a9 2ebd 4c44 4e3e f23d 983b d0c9 49be
000003e0: 1548 94bd 95ab f53d fbf6 12bc 87ae 41be
000003f0: 9026 e53c 0d77 dcbd 5843 9a3d 8995 3ebd

fc3.bias f4 [10]
-0.022423975 0.19865653 -0.06732713 -0.02766673 -0.08572339 -0.011708062 -0.097247794 -0.031142194
0.024632964 -0.022070331
00000000: 7cb2 b7bc 9e6c 4b3e cee2 89bd 57a5 e2bc
00000010: bf8f afbd 2cd3 3fbc da29 c7bd ea1d ffbc
00000020: 12cb c93c d7cc b4bc
