src/artifacts/checkpoints/round_001.pt (torch, 181669 bytes, 10 tensors)

conv1.weight f4 [6, 1, 5, 5]
00000000: 7c75 b5bd abb7 30bc d2b5 0a3e 385f 323e
00000010: f49e 883d c207 f43d 85f1 123c 9416 9b3e
00000020: 1cd0 3cbd 382e 14be 9eca a43d ab43 babc
00000030: 98a9 08bd ef84 0b3e 0081 7abd 58d0 5c3e
00000040: 7cc5 153e 5a49 b5bc 8c8c a13d 0e5b 193e
00000050: 7d7b 613e c2f0 5f3e fb22 55be ef12 aebc
00000060: a668 0a3e 3818 a43d 3ff9 d43d 1580 523c
00000070: 2c13 f73d 05ba f73c 3fcc 89bd 6698 b43e
00000080: cf81 e83d 673a 853e 7643 523e 5862 8a3e
00000090: 76ca 153f 2e44 133f 3c16 d43c 092c cfbb
000000a0: d9c2 ee3d 3ea6 873e 50fb b13d 7389 763e
000000b0: c0ee 20be 12fa 193d 2296 873d 7160 073e
000000c0: 487d aebd 9c16 52be effa 0fbe 30da 473e
000000d0: 1e5b 5a3e 4818 923e c3b5 453e 73dd 8b3e
000000e0: 31eb 5f3e 0ed2 863d 0b13 bb3e 1243 b13d
000000f0: 4259 e4bd 5dd0 393e e1db 303e 1fc5 0abe
00000100: dbfa 2e3e 06eb 81be 42c5 e8bc c020 78be
00000110: ec51 1c3d 9875 46be 3201 193d 2d7e b3be
00000120: fa4c 65be 44c3 c5be 2c86 81be f2dc 9a3c
00000130: b308 dd3d 123a 46bc 9e5f e2bd cf5e 8c3b
00000140: aa49 4fbe b08e ac3c 0582 10be 80b6 20be
00000150: e6d1 253e 5229 2bbe cee8 3b3d b74f 0dbe
00000160: 4c78 11be 6875 44be 062d 3dbe 5d29 193e
00000170: e10a 8a3c dac5 f03d 2508 39be 3a44 f7bd
00000180: 886f 1cbe e47c 00be b9d4 193d 19be 3ebe
00000190: 4844 28be f2ff 0cbe a99c 0ebe 0152 0a3e
000001a0: 609a 1a3d 7ade 77be 50d4 00b7 d2b4 4bbe
000001b0: b6b9 7d3e e041 d73b 4cc6 90be 25d4 753d
000001c0: d460 c9bd 580f de3d 61c3 a23d 937d 89be
000001d0: f538 87bd 6e06 fcbc 2494 8c3e 239a 563e
000001e0: 6e4c 203c e892 b1bd d08c 973e 1686 b43e
000001f0: 2ce3 bd3e d2d9 aa3c 5e60 a13d a55b afbd
00000200: 4515 9ebd b207 01be 74a8 6c3e 548d b1bd
00000210: b952 a3bd 84b8 083d 08cd c8bd 978c 333e
00000220: acf4 27be f2ba 39be 14ac 8bbe 8ce1 5abe
00000230: 8eda a03e 84e6 783e d035 cbbc ca29 99bd
00000240: 5054 c53d b84c ecbc 9352 853e c9c6 c43e
00000250: bcbc ee3d 1b60 3e3e
-0.08860299 -0.010785977 0.13545921 0.17419136 0.06670943 0.11915542 0.008968716 0.30290663
-0.046096906 -0.14470756 0.08046459 -0.022737345 -0.033364862 0.13624929 -0.06115818 0.21563852
0.14626116 -0.022129703 0.07888135 0.14976141 0.22019763 0.21869186 -0.20814125 -0.021249263
0.13516483 0.08012432 0.103991024 0.01284792 0.120642036 0.030240068 -0.0672841 0.3527252
0.11352884 0.2602112 0.20533547 0.27028155 0.58512056 0.5752591 0.025889508 -0.006322388
0.11658258 0.2649402 0.08690512 0.2407587 -0.15716076 0.037592 0.066204324 0.13220383
-0.08519989 -0.20516437 -0.14060567 0.19516826 0.21323821 0.2853415 0.19307618 0.2731739
0.21867062 0.065830335 0.36537966 0.08655371 -0.11149837 0.1814589 0.17271377 -0.13551758
0.17087881 -0.2537462 -0.028414372 -0.24231243 0.038164064 -0.19380796 0.037354656 -0.35057202
-0.22392645 -0.38625538 -0.25297678 0.018904183 0.10792675 -0.012098806 -0.11053394 0.004283763
-0.20242944 0.021064132 -0.14112099 -0.15694618 0.16193351 -0.16714981 0.045876317 -0.1379994
-0.14206046 -0.19185412 -0.18474206 0.14957185 0.01685089 0.11756487 -0.18069513 -0.1207356
-0.15276921 -0.12547642 0.037556384 -0.18627204 -0.16432297 -0.1376951 -0.13926949 0.13507845
0.03774488 -0.24205962 -7.678827e-06 -0.19893196 0.24777874 0.006569132 -0.28276289 0.06001677
-0.098329216 0.1084277 0.07947422 -0.26853618 -0.066026606 -0.030764785 0.27456772 0.20957236
0.009783847 -0.08670598 0.2959962 0.3525855 0.3708738 0.020855818 0.07879709 -0.08562402
-0.077189006 -0.12600592 0.23111135 -0.08669534 -0.079747625 0.033379093 -0.098047316 0.175341
-0.16401929 -0.1813772 -0.27279723 -0.21375102 0.31416744 0.24306685 -0.024805933 -0.07478674
0.09635222 -0.028845176 0.26039562 0.3843291 0.11657092 0.18591349

conv1.bias f4 [6]
00000000: db1a 053e 1e90 603d 3433 293e 5d36 b3bd
00000010: f9a0 d9bc 527f 533e
0.12998526 0.05482494 0.16523439 -0.08750603 -0.026566016 0.20654038

conv2.weight f4 [16, 6, 5, 5]
00000000: b53c 65bd 1d0c 313c 05df 88bd d7e8 23bc
00000010: d0c9 a23c 5a68 81bb 5584 cdbd dc46 87bd
00000020: b23f 55bd 6822 873d dad7 073d 76b5 c2bc
00000030: 6e44 90bd 6c10 98ba d1b6 d63c 0cbf 6bbd
00000040: a4d0 7d3d b25e b63c fccc c73c 4a9a 00bd
00000050: da2d 033b 92b4 4b3c 2d30 a8bc f0cc 9abd
00000060: 492c 143d f302 22bd 9607 a4bc 1fe1 27be
00000070: 1212 34bc bf22 573d 2a72 8d3d 603b 1bbe
00000080: ce1c bfbd 5821 d93d 4c62 863d 1e50 d0bd
00000090: 41dd bfbd eee8 7dbc 36f5 d73d fe56 7bbd
000000a0: 3e8d 02be cc22 913c 500b 3d3d e17b 95bc
000000b0: 0681 06be 7edf d23c 4b5c 56bc 1337 393d
000000c0: 047a 4f3d bb56 09be 0742 c2bc 542c babd
000000d0: 3768 223b cb47 fa3c 2a72 493c e020 a2bd
000000e0: 71bb 88bd 4027 183d 3afd acbc c186 8f3d
000000f0: 18db 6e3d 3e94 8bbd 6b0a 4f3d ee7c 5d3d
00000100: 84ac 0c3d d15a ccbc 5c11 233d 9ed3 24bd
00000110: 54b5 93bd 4484 2abd 0e1f 86bd c604 6fbd
00000120: 3202 2f3c 1e82 7abd 596c eebd 18ec 893d
00000130: 8acb 94bd ffd1 6b3d e81f 913d 3cc3 153d
00000140: faaf 9bbd a40b 663d 7703 a3bd 18c1 93bd
00000150: 9e06 23bd 9e51 5a3d 1cd9 25bd e332 1b3d
00000160: 25a1 9a3c 26ad 03bd 2de3 27bc 3abf a33c
00000170: 12d8 3d3d 8706 2c3c 1823 863d e215 9bbd
00000180: b80b afbd 7e5c adbd 1237 8f3d 0d23 1dbd
00000190: 24b5 68bd 8c4c 67bd 11fd 933c 5f31 5d3d
000001a0: 6da6 893d 5607 77bd c3d2 423d c0fc cb3d
000001b0: f9bf be3d 2242 023c 0b89 b4bd 789a 153d
000001c0: d2e2 093d 4610 afbd cccf acbc 18f8 7d3d
000001d0: 612d 973d ca74 5ebd 5c42 cfbb 00e7 b7bd
000001e0: 5618 283d 0849 013e 327d 9fbc 2fd7 fc3b
000001f0: 7c4c 7bbd fdee 85bb bb12 2fbc 3486 f23c
00000200: 9c90 bb3c d66c 333d 8daf 453d 5072 3e3d
00000210: 8158 29bc 3590 32bd 6a4b b9bc e910 babc
00000220: 004a 2a3d a2ee c4bd aa52 88bd a277 103d
00000230: c0bc ac3c 3dcd 103d 6eaf c93c ba2e 8bbc
00000240: c900 91bd e4b7 4abb 8e03 fd3b b8e4 803d
00000250: 7a8f a43d 3774 fb3b fcaf 163d 6d42 93bd
00000260: 322a 313c be39 1dbc 18a0 953d 98aa fd3c
00000270: 8020 e5ba 5a5b 133c d03c c938 1a8f 5dbd
00000280: 14a9 95bd 331e 2a3d b1ba a53d 4628 71bc
00000290: 3d03 b23c 4d01 6b3d 589c 5fbc 620f 203d
000002a0: 720b 993d df60 0f3d dc51 3cbd dcb1 6dbd
000002b0: 4a15 39bd 34fd b03d 9ac7 963d 0ec6 e8bd
000002c0: dfa8 0fbe f21c 35bd 8732 98bd 76f3 f9bd
000002d0: ac72 7bbd aecb 453d cd42 f63d b24d 053d
000002e0: 3604 0d3d 192f e43c 510f 8c3d 76b7 9f3d
000002f0: 5f11 123e 2c50 82bd a66b 53bd a00f 29be
00000300: cc57 e5bd ab16 383d 24ef e43d c6db 16be
00000310: 6a85 39bd fa4a 403c e56b 4f3d 4335 313e
00000320: ee2d 89bd 507b 71bd c3c6 b2bd c608 05be
00000330: 774f 733d 70bf b4bd c465 a3bd f6da 28bd
00000340: 4453 97bb cd8b 09bd 825b bb3d 5f6d 1fbd
00000350: db79 e4bc d673 71bd eb82 dcbc f3e0 a0bd
00000360: 9469 e33c b408 3b3c b28b 56bb 2f22 e3bd
00000370: 17bc 53bd 1098 ddbb 69be 54bd 1083 7abd
00000380: aeb2 b53b b376 36bc f45d 1c3c bd2b 29bd
00000390: 49b5 fb3c b867 2c3d be4f a2bd 73e8 6abc
000003a0: a081 72bd 6c14 3fbd e65e 66bd e605 283d
000003b0: 437d 2abd 772d 9bbd 1225 283d c2cf 14bd
000003c0: 830f a0bd e9bd 353d e584 523d 3b22 f3bc
000003d0: a818 f73c 8fd3 523b 75f2 4f3c a49e eabc
000003e0: 523a b0bd 4745 35bd 1c9c ac3c 28cb 7dbd
000003f0: d762 003d 4622 033d 0195 c9bd 38b9 973c
-0.055966098 0.010806111 -0.066831626 -0.010004244 0.019871622 -0.0039492073 -0.10035006 -0.06605312
-0.052062698 0.06598359 0.033164836 -0.023768168 -0.07044302 -0.0011601574 0.02621022 -0.057555243
0.061966553 0.022261951 0.024389736 -0.03139714 0.0020016343 0.012433188 -0.020530785 -0.0755862
0.036175046 -0.039553594 -0.020023149 -0.1639447 -0.010990636 0.05252337 0.06906541 -0.15159369
-0.09331666 0.10602063 0.065617174 -0.10171531 -0.09368373 -0.015497429 0.10544817 -0.06136226
-0.12749192 0.017716788 0.046153367 -0.018247547 -0.13135156 0.025741335 -0.013083528 0.04521854
0.050653473 -0.13411991 -0.023713125 -0.09090486 0.0024781355 0.030551812 0.012295285 -0.07916427
-0.066763766 0.037146807 -0.021116842 0.07008124 0.058314413 -0.06815384 0.050547045 0.05407422
0.03434421 -0.024945648 0.039811477 -0.040240876 -0.0721232 -0.041630045 -0.06548892 -0.05835416
0.010681676 -0.061159246 -0.116417594 0.067344844 -0.072653845 0.057573315 0.07086164 0.036563143
-0.07601924 0.056163445 -0.07959645 -0.07214564 -0.039801233 0.053300492 -0.040490255 0.037890326
0.018875668 -0.03214755 -0.010247034 0.019988645 0.04634864 0.010499603 0.06549662 -0.07572533
-0.08547157 -0.08464907 0.06992926 -0.038363505 -0.056813374 -0.056469485 0.018065007 0.054002162
0.06721196 -0.06030973 0.04756428 0.099603176 0.0931396 0.007950338 -0.08815201 0.036524266
0.03366358 -0.08548026 -0.021095179 0.06200418 0.07381702 -0.054310597 -0.0063250493 -0.08979607
0.041038834 0.12625515 -0.019468877 0.0077160816 -0.061352238 -0.0040873275 -0.010685618 0.029605009
0.022896104 0.043804966 0.04826312 0.046495736 -0.010336042 -0.043594558 -0.022618968 -0.022713142
0.04157448 -0.09615828 -0.06656392 0.03527034 0.021086097 0.03535198 0.024619784 -0.016990054
-0.07080228 -0.0030932361 0.007721371 0.06293625 0.080351785 0.007673766 0.036788926 -0.07190404
0.010813283 -0.009596286 0.07305926 0.030965135 -0.0017480999 0.008993948 9.595754e-05 -0.05409155
-0.0730764 0.041532706 0.08092249 -0.014719075 0.02173006 0.057374287 -0.013648115 0.03907717
0.07472886 0.035004493 -0.045976505 -0.058030948 -0.04518632 0.08642045 0.0736229 -0.11365901
-0.14029263 -0.044217058 -0.07431512 -0.122046396 -0.061388656 0.048289947 0.1202446 0.0325448
0.034427844 0.02785449 0.06838859 0.07798664 0.14264439 -0.06362948 -0.051616333 -0.16509867
-0.111983865 0.044943493 0.11178425 -0.14732274 -0.04529325 0.011736626 0.050640006 0.17305474
-0.066982135 -0.05895549 -0.08729317 -0.12991628 0.059401955 -0.08825576 -0.07978395 -0.041224442
-0.0046180803 -0.03358059 0.09148313 -0.038922664 -0.027890136 -0.05894836 -0.026917895 -0.07855406
0.027760305 0.011415649 -0.0032737073 -0.110905044 -0.05169305 -0.006762512 -0.0519394 -0.061160147
0.005544982 -0.011136699 0.009543885 -0.041301478 0.030726092 0.0420911 -0.07925366 -0.014337647
-0.05920565 -0.046650335 -0.056242846 0.04102125 -0.041623365 -0.07577031 0.041050978 -0.036330946
-0.078154586 0.044370566 0.05139627 -0.029679408 0.030163124 0.0032169556 0.012692084 -0.028640099
-0.08604874 -0.04425552 0.021070533 -0.061961323 0.03134426 0.032015108 -0.09842873 0.018520936

conv2.bias f4 [16]
00000000: 6489 783d 751e 1a3d 18aa dcbd 655e 1e3d
00000010: 0757 c03c 00e9 67bd 7691 02bd 3515 883d
00000020: d2da 8ebd 1a7c a2bd baa7 5a3c 1238 51bd
00000030: 9ea9 adbd 00eb 3f3d cc36 3ebd 0a1c 3d3d
0.0606779 0.037626702 -0.1077463 0.03866424 0.023478998 -0.05661869 -0.031877004 0.0664467
-0.069753304 -0.07933827 0.013345653 -0.051078863 -0.084796175 0.046854973 -0.046438977 0.04616932

fc1.weight f4 [120, 256]
00000000: a31a f7bc 744b 013c f1c4 173d e083 7bbd
00000010: 40a0 ad37 56b5 8fbc 7b04 013d df87 26bb
00000020: 2828 443d 59e0 ab3c a6f8 273d d8e7 22bd
00000030: d41c 6139 aab9 023d 8325 273d e939 9dbc
00000040: 93fe eb3a 3070 85ba 45ef b03d 6f2d ddbb
00000050: fe47 c1bd 4ada ddbc c8e1 b43c 8346 1a3d
00000060: f401 46bd c706 ffbc ad3a e33c 5d5b 7bbc
00000070: a227 0d3d 060f 54bb 23ab 8eba a276 743c
00000080: 5694 25bd f6e3 debd 0b92 f33c ab6b 9ebd
00000090: 40a4 f4bc 8a0d 273d 8c20 e1bc ba11 40bd
000000a0: d0fc 05bd a722 d9bc 9ba4 063d 5ebc fcbc
000000b0: 495d 783d 1442 9f3d 026a 81bd 32fd ef3c
000000c0: 9400 56bb d47f 073d 36d8 32bd 4f05 ce3c
000000d0: b292 cc3c a7fc cbbc 25c4 4a3d 7a2b 6a3c
000000e0: 2522 073d 9565 093d 9846 34bc ff4f 0b3d
000000f0: aa41 1d3c 3440 313d ffa0 893c 9840 50bd
00000100: 907a 063d 4811 043c d7f6 75bc c7bd 6d3d
00000110: e01d 71bc 02e0 78bd 40be 0b3d dcf9 213d
00000120: a0a2 9638 ab17 4b3c 6444 4f3a e69c 9dbd
00000130: b76e afbd c27d cabc daf8 5fbd dce6 233d
00000140: d4b2 80bd 30c6 53bd 9656 88bd 589a 743d
00000150: 101c be3c f343 37bd 5739 be3c cd2a 1cbd
00000160: 96fa 10bd 3946 c8bd 19e1 21bd 0c4a 8cbb
00000170: 8040 18bc ffc4 b23c 1e41 813c 3245 bc3b
00000180: a6fb 4ebd 1e06 2f3d 8543 db3c c62a 1abc
00000190: 3989 ee3c 3a0f 433c 8455 56bd 243f 293d
000001a0: ceb3 6dbc 0e55 12bd 399f 063d e6b9 e53c
000001b0: 704d 6e3d f549 293d 68cf 84bd 8a91 d8bb
000001c0: 8ed0 bdbc 42d5 063d 5c74 bc3c f9f3 65bd
000001d0: 1333 963c e4dd 803d 64f0 153d f894 67bd
000001e0: 93d5 2fbd 7616 4abd a856 913c b093 463c
000001f0: d3ed 913c 2ab2 4ebc cc61 073a ae4a 083d
00000200: 7352 6bbd 1674 98b9 b083 3a3d 1618 893c
00000210: b9a2 cdbc 3034 483d 9c3c baba a420 94bd
00000220: 6580 4f3b 99cf 80bc 348a e3bb 1eb8 ee3c
00000230: 5528 803d 0050 d6bb fea6 9dbc faec eabc
00000240: d63e 0f3b 79a0 87bc 5b29 58bc a769 dcbc
00000250: 97af 3d3d 624a c73c 847a 523c fd56 dabc
00000260: 0be1 adbc 0e8d bcbc ba35 cabc 282b 79bd
00000270: dfd2 d63c 13c1 723d 8c5d 67bd 4e46 66bd
00000280: f759 87bd 3694 1ebc 087a 9d39 485c 3c3c
00000290: d65e 1bbd ac5c dabc 05c7 babc 5d8a 013d
000002a0: f218 05bb 4ac1 243d aab7 30bd 6248 cbbc
000002b0: 7ea2 2abd 4100 89bd e271 41bd 2aee 9d3b
000002c0: bce6 343d 2e18 7abd e619 11bb 5f10 38bd
000002d0: 82cb 463c baff 73bd caf2 e9bc 11a6 b23c
000002e0: 722e 6cbc 1981 12bc 92e1 533d d6d6 063d
000002f0: 01f7 5b3d 138a 823c 6aac a13c 89b3 f83c
00000300: 7257 d53b f8a1 d63b 4880 03bd d3a6 563d
00000310: 4a47 153d 7562 e43b a3e0 343c c1f8 a8bc
00000320: 8ee4 27bd 579a 8bbc 60a9 4b3c 6ee4 573c
00000330: 69cd e63c 36c5 133d 10f1 48bc 9231 eabc
00000340: 949e 023d be4a d8bc 407d d43c 030a 78bd
00000350: c0cc 263d c63b 59bd 3e1f a8bb 3df8 8e3c
00000360: b2fb 1abd 9a56 c63b 183d 1e3b bd9b 23bc
00000370: d889 b23c 78f1 933d 592a 213d 024f 3fbd
00000380: cc38 9e3d 3714 48bb a6b8 26bc 32dd d4bd
00000390: ae49 2abd 278f 463d 5341 0ebc eefd fcbb
000003a0: 1419 783d e0ad 1a3d 37d6 773c a022 6d3d
000003b0: 52e9 c63b 554a 143d acd7 203c 0601 6aba
000003c0: 621c 453c 92d9 2fbd 2151 143c ddc9 713d
000003d0: 1c17 493a ecd2 703c ce1d a33b 2b57 813d
000003e0: cc5e e03c 5e3d 043c 2bd3 81bd 7723 59bd
000003f0: 1d68 18bd fe7b 583d 5077 3d3c 4582 eb3c
-0.030164069 0.007891525 0.037053052 -0.061405063 2.069783e-05 -0.017542522 0.031498414 -0.0025410575
0.04788986 0.020981 0.041008614 -0.039771885 0.00021468411 0.031915344 0.04080726 -0.019192653
0.0018004946 -0.0010180529 0.08639387 -0.006749801 -0.094375595 -0.027081627 0.022080317 0.0376649
-0.048341706 -0.031131161 0.02773794 -0.015341607 0.034461625 -0.0032357587 -0.0010884743 0.014920862
-0.040424667 -0.10883324 0.029732725 -0.0773538 -0.029863477 0.040784396 -0.02748134 -0.046891905
-0.032711804 -0.026505781 0.032871824 -0.03085154 0.06063584 0.07776275 -0.063190475 0.029295538
-0.0032654153 0.03308089 -0.043663226 0.025149016 0.024972294 -0.024900747 0.049503464 0.014292592
0.032991547 0.03354414 -0.011003159 0.034011837 0.009598175 0.04327412 0.016800402 -0.05084285
0.03283173 0.008060761 -0.0150124645 0.058042314 -0.014716595 -0.060760505 0.034116983 0.039544925
7.182849e-05 0.01239578 0.00079066143 -0.076959416 -0.08566039 -0.02471817 -0.054680683 0.040015087
-0.06284109 -0.05170268 -0.0665714 0.059717506 0.02320674 -0.044742536 0.023220701 -0.038126756
-0.035395227 -0.09779019 -0.03952131 -0.004281288 -0.009292722 0.02182245 0.01577812 0.0057455534
-0.05053296 0.042730443 0.026765594 -0.009409612 0.029118167 0.011905486 -0.052327648 0.04131998
-0.014508201 -0.035725646 0.03286669 0.028042745 0.05817932 0.041330297 -0.06484872 -0.0066091465
-0.023170736 0.032918222 0.023004703 -0.056140874 0.018334901 0.06292322 0.036606207 -0.056538552
-0.04292829 -0.049337827 0.017741516 0.012120172 0.017813599 -0.01261572 0.0005164414 0.033274345
-0.057451677 -0.0002907819 0.045535743 0.016735118 -0.025102006 0.048877895 -0.0014208737 -0.07232788
0.0031662222 -0.01572399 -0.0069439653 0.029140528 0.06257693 -0.0065402985 -0.019244667 -0.028677452
0.0021857521 -0.016556012 -0.013193454 -0.026905848 0.046310034 0.02432746 0.012846593 -0.026652807
-0.021225473 -0.023016479 -0.024683822 -0.060832173 0.026223598 0.05926616 -0.056485698 -0.05621939
-0.06608956 -0.009678891 0.00030036294 0.011496611 -0.03793224 -0.026655518 -0.022799978 0.031626094
-0.0020309058 0.040223397 -0.043143906 -0.024814788 -0.04165887 -0.066895016 -0.047227748 0.004819651
0.044165358 -0.061058216 -0.002214068 -0.044937488 0.012133481 -0.05957005 -0.028558154 0.021807702
-0.01441537 -0.008941912 0.051728792 0.032919727 0.05370236 0.01593498 0.019735534 0.030359047
0.0065106684 0.00655007 -0.03210476 0.05240519 0.03644494 0.006969745 0.011039886 -0.020626428
-0.04098945 -0.017041368 0.012430519 0.0131770205 0.02817412 0.036076747 -0.012264505 -0.02858809
0.031889513 -0.026402827 0.02593863 -0.060556423 0.04072261 -0.05303552 -0.0051306775 0.017452354
-0.03783769 0.006052804 0.0024145301 -0.009985861 0.021794245 0.07223791 0.039347026 -0.046706207
0.07725677 -0.0030529627 -0.01017586 -0.10393752 -0.041574173 0.048476364 -0.008682567 -0.0077207005
0.06057079 0.037763476 0.015126756 0.05789435 0.0060702944 0.0362037 0.009817045 -0.0008926544
0.012030693 -0.0429321 0.009052546 0.059030402 0.0007670985 0.014698725 0.004977918 0.06315454
0.027388953 0.008071272 -0.06339105 -0.053012338 -0.037208665 0.052852623 0.011564091 0.02874864

fc1.bias f4 [120]
00000000: 11a3 19bd 6b64 8c3c 7cda 383d ca5b ec3c
00000010: 8295 25bd 9b82 42bd a23d 4b3d 763b 24bd
00000020: 4298 fe3c c434 123d 9978 91ba 867d 643d
00000030: 5261 45bd f2da 40bd 3e25 59bd d080 74bc
00000040: 7275 12bd cd7d 69bd 25d9 8abc 0ab0 8fbc
00000050: b719 87bc 67a4 8b3d e446 5e3d b0a3 093d
00000060: 81b4 b53c 066e 1bbd 00bd 25bd 9670 473c
00000070: 4612 0bbd 28bc d6bc d667 923c 384a 833d
00000080: 88e3 643d 5133 5cbc f652 6a3c 9b3d 5bbd
00000090: 6d2a 0e3d 32dd 07bd 88fe 45bd eecf 523d
000000a0: e679 06bd 71d4 5abd 0a91 35bd 4f48 c03b
000000b0: 7fad 3dbd 027d 8c3d 56ac 7c3c 62a1 6e3d
000000c0: 843b 1fbd b88e bbbc 42e6 0dbd 66dc dbbc
000000d0: 777c 5e3d 3602 47bd 6424 3d3d f7e8 b6bc
000000e0: df81 c63c 2626 4dbc 569b d7bb d4ff 123d
000000f0: d686 fabb 4c5e 82bc 42c5 67bc 584a 23bd
00000100: d505 be3c a8cc 723c 1ad1 213d bcab 33bd
00000110: c808 2ebd 772a 96bc 4e97 583c 3a8c 183c
00000120: f0a3 3e3d 7b73 c2bc 95a5 64bd 9e2f fa3c
00000130: 455b 8cbc f6d3 cebb a797 51bc 7e79 3c3b
00000140: aedb 14bd 06d5 95bc b59a ccbc 729e 303d
00000150: f6ff 643d 4d52 343d cd62 5a3c 5a8d e9bc
00000160: 37ff 9e3d 84f6 363c c86b 8e3b 77d5 423d
00000170: 72a9 f6bc 054b 11bd 9eca 623c 3af0 61bc
00000180: a442 7dbd 471b 643c 3265 103c e14d 01bd
00000190: 49de 163c 558a 85bc abb0 233c a9ad fcbc
000001a0: a0aa 60bd 4d87 42bd c264 643b 06e0 74ba
000001b0: 1a45 57bc a997 21bd 8565 22bd 91c4 f1bc
000001c0: e6a7 263d e249 5a3c 7839 393c 3386 bfbb
000001d0: fac6 f6bc 2dd5 56bc 7419 293d aa89 ad3c
-0.037509028 0.017137727 0.045130238 0.028852362 -0.040425785 -0.047487836 0.049619325 -0.04009577
0.031078462 0.035694852 -0.0011098563 0.05578377 -0.048188515 -0.047083803 -0.053014033 -0.014923289
-0.035756536 -0.05700474 -0.016949246 -0.017539997 -0.016491754 0.06818467 0.054266825 0.03360337
0.022180798 -0.037946723 -0.040463448 0.012172839 -0.033952974 -0.026212767 0.017871778 0.064106405
0.055881053 -0.013439969 0.014302006 -0.05352555 0.03470843 -0.033169933 -0.048338443 0.05146783
-0.032831095 -0.053425256 -0.044327773 0.005867995 -0.046308037 0.06859781 0.015421947 0.058259375
-0.038875118 -0.022895202 -0.03464342 -0.026838493 0.054317918 -0.048586093 0.046177283 -0.022327883
0.02423185 -0.012521302 -0.006579797 0.035888508 -0.007645468 -0.015914105 -0.014146151 -0.03986582
0.02319614 0.014819302 0.039506055 -0.04386495 -0.042488843 -0.018330796 0.013219668 0.009310776
0.04654306 -0.023736706 -0.055821974 0.030540284 -0.017133364 -0.006311889 -0.012792504 0.0028758938
-0.036342315 -0.018290054 -0.024976114 0.043119855 0.055908166 0.0440238 0.01332922 -0.028509784
0.07763522 0.011167172 0.0043463446 0.047566857 -0.030110095 -0.035471935 0.013842253 -0.013790185
-0.06183113 0.013922519 0.008813189 -0.03156841 0.00920827 -0.016301313 0.009990851 -0.030844526
-0.05485022 -0.047492314 0.0034850095 -0.00093412434 -0.013139034 -0.039451275 -0.039647598 -0.029512675
0.040687464 0.013323279 0.0113052055 -0.005844855 -0.030124176 -0.0131123485 0.04128404 0.021183807

fc2.weight f4 [84, 120]
00000000: cf37 5c3d 2f35 d9bd 18c2 223d 779d 9f3d
00000010: 797b ac3d e57f f13c 788e 923d b18c 03bd
00000020: 52b8 6dbc 701e 64bc fa22 63bd a8d6 973d
00000030: d89d 4dbc 7199 9dbd 13fe 053d a6cd db3c
00000040: 939f 4d3c 069e 88bc c6ca 683d 2f24 99bd
00000050: b2c0 973d 5637 81bd 61f4 5fbd 488a 8f3c
00000060: 43d9 763d 06ad 8a3c eb19 cdbc 412b 3cbd
00000070: 3c77 243c dcf1 f03c 7bfe 163d db7e 9f3c
00000080: f1e5 443d 85e8 323c 4bd6 8abc 56a7 453d
00000090: dba2 54bc c435 64bd 59b6 4cbd e38e b33d
000000a0: 7af5 273d def0 533d e52c 89bd c73b 2dbc
000000b0: 0b50 abbc 4a90 4abd 71c7 f23c ae54 1abd
000000c0: 5e56 8d3c feda 973d 181a 47bd 150c 85bd
000000d0: d4b2 c4bd d33e a03d 5a88 9f3d 6949 23bd
000000e0: da5c 5f3d 9832 aabd 7da5 58bd 060d 993c
000000f0: f4ad c43c 9795 d4bc 92a0 19bc 0c14 6cbd
00000100: f812 543c 9909 463d e6c5 62bd 4275 dfbc
00000110: 0290 b83d 49ce 363c ba3b 1dbd 224d 80bd
00000120: 320b 893d 7a2b db3c a6ce ca3c 55a7 2f3d
00000130: 147c 9d3c ea5d 8bba a471 c63c dbc3 48bd
00000140: a807 34bd 7723 5e3d 9f06 b63d 12b9 40ba
00000150: 9e5a 9bbd 2eed 67bd 08bf ed3b e5e5 d03b
00000160: aa6f 7fbd 695c 90bd 86f2 80bd 4069 83bc
00000170: 6c3d a53d f250 3ebd 0d9d 353d 24ed 39bd
00000180: 0009 67bd e7e9 c13c 69ab a43d 07d7 9bbd
00000190: caf2 953c 83fa fb3c 88dc 47ba 9520 8cbd
000001a0: 1194 91bc 3acc c6bd 49df 243c 7bc8 883d
000001b0: fda1 933d fe5d 0cbd 54b6 07bd fc9c 9b3c
000001c0: ee0d 48bd a911 3bbc b1a7 513d 4e1b 963d
000001d0: 0c5f 5dbd 50ab 41bd 26cf 72bd 2dac 713d
000001e0: d413 11bd 2c8c 2b3d 51d1 82bd c211 b33d
000001f0: 4529 393d 14ed b43d 4c49 503d 19f4 9a3d
00000200: 762a 6b3c b856 613c 1f63 853d 6e77 ddbc
00000210: e481 d93c 0538 1c3d f155 ad3d e815 8ebc
00000220: 8260 a0bd 56ff 823d 8f57 8fbc 201f 6a3d
00000230: 5c8a a43d 2349 bd3d 4b9b e8bc 85ee b33d
00000240: ceac 1d3d 4e68 c23c 42ab e6bc 2e04 49bc
00000250: eb48 b4bd 6b52 91bd 9454 d8bb e6a1 103d
00000260: cad1 fcbb 6e22 a33d e596 5dbc f45e 6c3d
00000270: de0a 4a3d 4898 84bd 2d03 9b3d d592 e43c
00000280: 18de b1bd c363 ad3d a932 203d 0650 9a3c
00000290: d51c c1bd 1aa8 133d 1f06 193d eba6 403d
000002a0: fcf9 fe3c fe28 113d 9adf 0f3b 71da 80bd
000002b0: 35e5 6dbd 463e f0bc f0db dd3c 6ae1 0ebd
000002c0: a8c0 06bc ff34 533c 6485 1cbd 9f09 3a3d
000002d0: f874 693d 8d94 2c3c 3b2f a03d 5c8f 22bc
000002e0: 0431 df3c 3de2 e83c f620 babd ae0c 93bc
000002f0: a357 29bd 20e0 a03d 5cce 303c a484 cf3b
00000300: 81a1 9abd 1697 0cbd 0c11 45bd c8a0 88bd
00000310: 145f 0ebd 1816 1abd d477 9b3d 88ac 543c
00000320: ad70 9a3d 944b 18bd 5c11 c33b 309c 373d
00000330: 1d1c 4abd 70cf 94ba 534d 693d 0c4c 4c3d
00000340: ee15 73bc 23b6 b53d 74fd 5d3d 73d8 41bd
00000350: eeb7 89bc 3243 8f3d 3731 3bbd 2d2b 3cbd
00000360: 6dfd 663d ee40 8bbd d1f7 9ebd 2d23 303d
00000370: 5b54 98bc 0626 03bc d014 6bbd 7bb1 e3bb
00000380: dbe5 9cbd 422a 8b3d f4f5 e0bc 4323 1abd
00000390: 5cbd bdbd 32e4 423c e9e5 b5bd 1326 253d
000003a0: 005c a5bd 9e91 293c 3e10 6f3d 921d 9abd
000003b0: 29ba 03bd a458 d83c e179 98bd a53d 86bd
000003c0: 7909 8a3d 1ba4 e73b 24e2 89bc d1cd 373d
000003d0: b9c2 9bbc 027c 883c be45 75bd 37bf 90bd
000003e0: a583 a73b f341 093c e051 21bd 294e f4bc
000003f0: cb83 2dbd e4ff 853c 9e2f b2bd e5cc 1dbd
0.05376416 -0.10605847 0.039735883 0.07793706 0.08421988 0.02947993 0.0715608 -0.032116596
-0.014509277 -0.0139232725 -0.055453278 0.07413989 -0.01254984 -0.07695282 0.032713007 0.02683146
0.0125502525 -0.016676914 0.056834005 -0.074776046 0.074098006 -0.063093826 -0.054676417 0.017521992
0.06026579 0.016928207 -0.025036773 -0.045939688 0.010038193 0.029412203 0.036863785 0.01946967
0.04807085 0.010919695 -0.016947886 0.048255287 -0.012978281 -0.055715337 -0.049978588 0.08767488
0.04100559 0.05174338 -0.06698016 -0.010573334 -0.02091219 -0.04945401 0.029636117 -0.037678413
0.017253097 0.07414816 -0.04860887 -0.06496445 -0.09604421 0.07824483 0.07789679 -0.03986493
0.05453191 -0.08310431 -0.052892197 0.018682968 0.024008729 -0.025950236 -0.009376662 -0.057636306
0.012943976 0.048348997 -0.055364512 -0.027277593 0.09011842 0.011157581 -0.038387038 -0.06264712
0.066915885 0.02675413 0.02475674 0.04288419 0.019224204 -0.0010632847 0.02422411 -0.049014907
-0.043952614 0.05423304 0.088879816 -0.00073517964 -0.07585643 -0.056622677 0.0072554387 0.006375062
-0.06236235 -0.07048876 -0.06296258 -0.016041398 0.08068356 -0.046463914 0.04433923 -0.04539217
-0.056405067 0.023671104 0.080405064 -0.076093726 0.018304247 0.030759102 -0.0007624109 -0.06842152
-0.017770799 -0.09706922 0.010063001 0.066788636 0.07208631 -0.034269325 -0.033132866 0.018995754
-0.04884141 -0.011417785 0.051185314 0.07329427 -0.054045722 -0.047282517 -0.059279583 0.05900209
-0.0354193 0.041881725 -0.0638758 0.087436214 0.045205373 0.088342816 0.05085115 0.07566089
0.014353385 0.0137535855 0.065130465 -0.027034488 0.026551194 0.038139362 0.08463658 -0.01734443
-0.078309074 0.06396358 -0.017497806 0.05715859 0.080342025 0.09242465 -0.028394362 0.08785728
0.038494878 0.023731377 -0.028157834 -0.012269063 -0.088029705 -0.07095798 -0.0066018794 0.03531065
-0.0077154385 0.07965551 -0.013524746 0.05770774 0.04932677 -0.06474358 0.07568965 0.027902046
-0.08684939 0.08466294 0.039110813 0.018836986 -0.094293274 0.036048986 0.037359353 0.047034185
0.031125061 0.035439484 0.0021953345 -0.062916644 -0.058079917 -0.02932657 0.027082413 -0.03488294
-0.008224644 0.012891053 -0.03821315 0.04541933 0.056996316 0.010533464 0.078215085 -0.009921875
0.027245052 0.028428191 -0.09088318 -0.017950382 -0.041343343 0.078552485 0.010791387 0.0063329507
-0.07550336 -0.034323774 -0.04811196 -0.066712916 -0.034758642 -0.037618726 0.07591215 0.012980588
0.075410224 -0.037181452 0.005952997 0.044826686 -0.049343217 -0.0011353325 0.056958508 0.04987721
-0.014836771 0.088726304 0.05419679 -0.047325563 -0.016811337 0.06995238 -0.04570123 -0.045939613
0.05639403 -0.06799494 -0.07762111 0.043002296 -0.018594911 -0.008004671 -0.057392895 -0.0069486476
-0.07661029 0.067951694 -0.02746103 -0.037631284 -0.09264633 0.011895226 -0.088817425 0.040319514
-0.08074188 0.010349659 0.0583651 -0.07525171 -0.032159958 0.026409455 -0.074451216 -0.065547265
0.06740088 0.0070691234 -0.016831465 0.044874016 -0.01901375 0.016660694 -0.059880964 -0.07067721
0.005112129 0.00837754 -0.039384723 -0.029822426 -0.042362016 0.01635737 -0.087004885 -0.03852548

fc2.bias f4 [84]
00000000: 524c de3b 81d0 a9bd 4d19 d2bb 6c6a bf3d
00000010: 0cb8 2c3d 1eb5 853d 68a5 3abd 1c3e 1bbc
00000020: 8216 7ebd 7001 9bbd 8235 833d 6fed 5d3d
00000030: e084 ac3d 6a6c ad3d 4460 1cbd f009 ecbc
00000040: 2bd9 80bd fe4a ecbc e643 a7bc ae45 f23b
00000050: 2f6d 1e3c 973e 8a3c 32cc e9bc ee3e c93c
00000060: dcba 6dbd 7483 c6bd 8765 c03d 690b b23c
00000070: fd2c c13d b684 e33b e603 903d 3819 303d
00000080: 4425 ed3c a050 4e3b df00 99bd bef7 093d
00000090: 4924 e23d 53f7 d53d 4890 cc3c c044 debc
000000a0: 8c80 b1bc e0d2 5e3c aa58 b63c 2c08 073c
000000b0: e76b 42bd 7f49 d93b e2d5 a7bc b28f efbc
000000c0: 1c73 acbd 0921 aebc 381b 2c3c faa4 22bc
000000d0: 7601 febc 8947 20bc 817c 973d e6c0 fd3c
000000e0: 16b7 6b3d 338f 97bd 32e1 293d a1fa abbc
000000f0: 278d 6a3c e6e0 303b f439 d13b 06e5 8dbd
00000100: df52 1fbd 586b 75bd a524 053d 6858 5f3c
00000110: 1a08 c43d 79e5 02bd 1342 a03d 7a05 87bc
00000120: 5cac 97bd 18b1 68bd 5460 97bd 50a7 c83b
00000130: f68f 1b3b ef8e 5abc 39ae 41bd 583e b33d
00000140: cb14 03bc 41b4 3bbd 4cdd 78bd 3afa bc3c
0.0067840004 -0.08291722 -0.0064117075 0.0934647 0.04216771 0.06528686 -0.0455679 -0.009475257
-0.062033184 -0.075686336 0.0640669 0.054181512 0.084237814 0.08467944 -0.038177744 -0.028813332
-0.062914215 -0.028844353 -0.020418119 0.0073935604 0.009669586 0.016875548 -0.02853975 0.02456614
-0.05803953 -0.096930414 0.09394365 0.021733956 0.09432409 0.0069433106 0.070319936 0.0429928
0.028948434 0.0031481162 -0.07470869 0.03368353 0.11042077 0.10447564 0.024971142 -0.027132392
-0.021667741 0.013600081 0.022259075 0.008241694 -0.047466185 0.006631076 -0.02048773 -0.029243324
-0.08420393 -0.021255987 0.010504536 -0.009927029 -0.031006556 -0.00978268 0.07396794 0.03097577
0.05754765 -0.0740036 0.04147453 -0.020993533 0.01431588 0.0026989519 0.0063850824 -0.069284484
-0.03889739 -0.059916824 0.03250565 0.013631918 0.09571858 -0.031957123 0.07825103 -0.016482104
-0.07405922 -0.056809515 -0.0739142 0.006123461 0.002373693 -0.013339742 -0.047285292 0.087521255
-0.008000563 -0.0458262 -0.06075792 0.023068536

fc3.weight f4 [10, 84]
00000000: d30b 32bd 1fde 77bd fc5f 563b 6e6f 2a3e
00000010: 226f 313e 5936 03be 4a53 a8bd dc4e 36be
00000020: 8086 13be dd0d ca3d 7664 09bd af2e 923e
00000030: 8ca4 f93b a8f2 edbd 420f 333d 36e4 113d
00000040: ec51 84bd 5ee7 913d 7cb0 0d3d 4e0f b2bd
00000050: d1e6 f5bb 7765 32be 4868 82bd f0e2 c03c
00000060: d2df 0c3d d6af 50bc 2492 5e3e d109 a0bd
00000070: 76c1 63bd 886b da3c d142 413d adad f73c
00000080: cec8 43bd 4eab dabd 4cf5 283d d027 20be
00000090: ba60 e5bd 8571 673c 9400 593e 3199 d7bd
000000a0: 04c7 59be 5f0d 233e f690 a4bd b008 a7bd
000000b0: 7608 d43e 1a69 72be 53d0 833d 97a8 d1bd
000000c0: 9963 473d e22c 71bd 82f2 87bd 4158 17bc
000000d0: 39b4 f1bc fc68 963d 57f6 36be 7ac4 503d
000000e0: de03 fbbb 5ef9 1dbd 793a b5bc 8292 c4ba
000000f0: 249d 7bbd 7f64 ee3c d2f6 81be 58c2 023e
00000100: 30d1 e13a de91 62bc a0a5 d8bb 80aa 14be
00000110: a945 0c3e 3ea5 05be 9de7 36be 0515 2bbd
00000120: d003 1abe ab8c 6cbd c8fd cbbd a761 dabc
00000130: c475 c83d 6d74 5a3e d1af 3bbe 537a dd3d
00000140: 0dc4 e5bd 8475 133e d62e a5bc bc9a 39bd
00000150: adcc c6bd b508 ee3b 263d 12be fc71 f83c
00000160: cfab 3dbe f812 d9bd 1f5b de3c 5c94 bb3b
00000170: e5a3 08bc 5a62 463b 0a47 ad3b 5d7b ec3c
00000180: c6fa b33e 5dbe 7ebc 4987 d1bd 3a27 30be
00000190: d44a 173d 3650 19bb 286b 443d 2db6 a8bd
000001a0: 4f5a aabb 59f6 263e 06db 743c f22c 86bd
000001b0: 5322 d93d 4bcc 65bd 235a 13bd 080e 693d
000001c0: e081 043d 0a91 d63d 8985 42be 41d1 22be
000001d0: 921b 7dbd 2efb a33d 92c2 bcbc 5a40 2c3e
000001e0: 2842 713d 0b38 4f3e 6204 7ebd c6e1 4cbd
000001f0: 9e0d 843e 76d6 293d 1deb 1fbe 7a79 8bbe
00000200: bb3b 49be 71aa 96bc 5e98 b83d 0b7a 473d
00000210: 6f7c 843d 123b ad3c 2e47 0d3e e8f3 b63d
00000220: b648 383e 7421 72bd 88a6 d9bd 2cb9 0d3e
00000230: a672 f93c 7180 843d 220c acbd 498b dbbd
00000240: ec57 9ebc 443e bfbd c585 7b3e c259 233c
00000250: c543 02bd 94af 18be 4a51 aa3d 1251 503e
00000260: 3e62 7bbd c2a0 97bd 4c6f 2ebe 0b02 153c
00000270: 6efe c4bd e422 5dbd 62fd 38bd 3a97 adbd
00000280: 0f13 3fbd 8acf 5b3d 8c79 85bd 5285 43bd
00000290: 56a0 05bd 8d7d b3bd 2d6d be3d 1c92 1b3d
000002a0: 0e47 943d 876b 03bd da9c c4bd 28d3 26be
000002b0: 409e 0e3e 1a4e 653e 9382 a0bc 991a 0b3e
000002c0: bf4e f33c f608 dcbc d7e6 c4bb fc21 46bd
000002d0: 8a57 09be 3af5 243c 601e 41ba c271 15be
000002e0: a271 c4bd 3eec 49be 49d3 2ebd 767f 0bbe
000002f0: 9ebe e93c 488f d7bc 1a2e 383d 3250 2cbd
00000300: cdb5 88bd dbc1 033e 407b 3e3e 34f7 853d
00000310: 4667 3fbd 88a2 00bd 22be d4bd f6a8 33bd
00000320: b37c 0a3e 80d3 07bd 4de5 0fbe f5ef 08bd
00000330: 0402 11be 067d e1bd 6bf3 3c3e 16cf 56bc
00000340: 6aa9 dd3d 1eea 6c3c eec3 54bb 6c87 28be
00000350: 2b22 2d3d 3033 e6bd f8e9 d7bc 6eee 56bc
00000360: 0b25 aa3d 0de5 37bd 9006 3b3e 0b79 903c
00000370: 7866 823d 18af d7bd 0ca6 1a3e b77f 5a3e
00000380: b321 b53d c10c aa3d d6b1 7a3c 9744 633d
00000390: 3462 5c3d a101 c23d 3213 5abc 7e6d f93d
000003a0: e46d e3bc 55f6 9e3c be22 2e3e 59b4 66bd
000003b0: 77f7 fabc bd1b 6b3d ab67 533d 4564 58bd
000003c0: 6dc3 1dbd 5a06 eebc 65ee 32bc c7cb 03be
000003d0: a800 fabc 8267 e93c c113 87bd 5c42 e8bd
000003e0: 8c54 7d3e 5800 6c3e b2e3 79bd 4063 583a
000003f0: b8e4 25bd 5215 9e3c 1469 99bb 192a eabd
-0.043468308 -0.060514566 0.003271102 0.1664407 0.1732755 -0.128137 -0.08219011 -0.1780352
-0.14406776 0.098659255 -0.033543073 0.28551242 0.0076184925 -0.11618549 0.043715723 0.03561803
-0.06460938 0.07124208 0.034592137 -0.086943254 -0.007504322 -0.17421518 -0.06367546 0.023545712
0.03439314 -0.012737235 0.21735436 -0.07814372 -0.05560442 0.026662603 0.04718286 0.030234182
-0.047798924 -0.10677205 0.04124956 -0.15640187 -0.1120009 0.014126186 0.21191627 -0.10527266
-0.21267325 0.1592307 -0.080354616 -0.08155954 0.41412705 -0.23672906 0.06436219 -0.10237234
0.048678968 -0.058880694 -0.066380516 -0.00923735 -0.029504882 0.07344243 -0.17867409 0.050968625
-0.007660373 -0.038567893 -0.022122608 -0.0014997276 -0.061429158 0.029100655 -0.2538362 0.12769449
0.001722848 -0.013828723 -0.006611541 -0.14518166 0.13698448 -0.13051316 -0.17861791 -0.041768093
-0.15040517 -0.05775134 -0.09960514 -0.026657892 0.09788087 0.21333475 -0.18328787 0.10814347
-0.11219034 0.14400297 -0.020163935 -0.04531358 -0.097070076 0.0072642216 -0.14281139 0.03032779
-0.18522571 -0.10599321 0.02714306 0.005724473 -0.008339857 0.0030271024 0.0052880095 0.028867418
0.35152262 -0.015548316 -0.10230882 -0.17202464 0.036936596 -0.0023393757 0.047953755 -0.08237872
-0.005198754 0.16304912 0.014944797 -0.065515414 0.1060225 -0.056103032 -0.035974633 0.056898147
0.03235042 0.10476883 -0.18996252 -0.15900137 -0.06179387 0.08006893 -0.023041997 0.16821423
0.058900982 0.20236222 -0.0620159 -0.05002 0.2579164 0.04146429 -0.15617032 -0.27241117
-0.19651692 -0.01839182 0.09013437 0.048700374 0.06469046 0.021146331 0.13796684 0.0893324
0.17996487 -0.059113935 -0.106274664 0.13840169 0.030450176 0.06469811 -0.08400752 -0.10719926
-0.019329034 -0.09338048 0.24562748 0.00997013 -0.03180291 -0.14910728 0.08316286 0.20343426
-0.061372988 -0.07403709 -0.17034644 0.009094725 -0.09618841 -0.053988352 -0.04516352 -0.0847611
-0.046649035 0.05366472 -0.06517324 -0.047734566 -0.03262361 -0.08764181 0.092981674 0.037981138
0.07240115 -0.032084968 -0.096002296 -0.16291487 0.13927555 0.22393075 -0.019593513 0.13584365
0.029700635 -0.026859742 -0.0060089636 -0.048372254 -0.134123 0.010068232 -0.0007366892 -0.14594176
-0.09591986 -0.19719025 -0.042681966 -0.13622841 0.028533276 -0.026313439 0.04496584 -0.042068668
-0.06675301 0.12866919 0.18601704 0.06541291 -0.04672935 -0.031405002 -0.103878275 -0.043862306
0.13524131 -0.033160686 -0.14052315 -0.033431966 -0.14160925 -0.110101745 0.18452232 -0.013110897
0.10823329 0.014460115 -0.0032465416 -0.1645791 0.042268913 -0.11240232 -0.026356682 -0.0131183695
0.08307847 -0.044896174 0.18264222 0.017635843 0.063672006 -0.10531443 0.15102404 0.21337782
0.08844318 0.08303214 0.015301188 0.055485334 0.05380459 0.09472967 -0.013310241 0.12179087
-0.02776236 0.01940457 0.1700544 -0.056324337 -0.030635579 0.0573995 0.051612537 -0.05283
-0.03851645 -0.029055763 -0.0109210955 -0.12870704 -0.030517891 0.02849174 -0.06595565 -0.11340782
0.24739283 0.23047006 -0.061008163 0.00082545355 -0.040501326 0.019297276 -0.0046817157 -0.11433811

fc3.bias f4 [10]
00000000: 66b1 7c3c e4ae 113c e687 80bd 4cdb 86bd
00000010: 122a a23c ec37 acbd 8061 2ebe 61e2 333d
00000020: 448b 0cbd 20bf 443d
0.015423154 0.008891795 -0.062759206 -0.06584796 0.019795451 -0.08409104 -0.17029381 0.043917064
-0.0343125 0.048033834
