src/artifacts/checkpoints/round_008.pt (torch, 181669 bytes, 10 tensors)

conv1.weight f4 [6, 1, 5, 5]
000000 97 22 5f 3e 24 9a 30 3e 7b 3d bb 3e ce d0 99 3e
       0.21790539 0.172463 0.36570343 0.30042118
000010 6a e0 e0 3e d8 a2 fc bd 14 6f d2 bc 29 8f bf 3d
       0.43921214 -0.123357475 -0.025687732 0.093534775
000020 c9 a4 cf 3d 5f 90 34 3e 3a 00 56 be 13 a2 b1 be
       0.10138852 0.17633198 -0.20898524 -0.34693965
000030 be 19 a5 be b4 b4 cb be 74 9e bb be 21 63 81 be
       -0.32246202 -0.39786303 -0.36644328 -0.25270942
000040 63 bc 71 be 3d 62 29 be 39 fe 40 be d2 9e b8 be
       -0.2360702 -0.16541381 -0.18846978 -0.3605867
000050 10 54 45 3d 5f 95 e7 3d 96 97 3e be fe 35 9c bd
       0.04817587 0.11307787 -0.18612513 -0.07627486
000060 fa 10 0e 3e 1b 7a 23 bd a0 51 c6 3d 4b 3b ba 3e
       0.13873664 -0.03991137 0.096835375 0.36373362
000070 fe 1b 97 3e 2a 98 c5 3b 7d 55 a9 3e 9a c3 53 3e
       0.29513544 0.0060301023 0.33073035 0.20680085
000080 bc 9c a8 3e 18 ad 1f 3f 5c 9b d8 3e e9 52 7a be
       0.3293208 0.62373495 0.4230603 -0.2444569
000090 0b 9d 86 bd f4 86 ed bd cc cd 01 bd 3f 43 a4 3e
       -0.06572922 -0.11598006 -0.031690404 0.32082555
0000a0 8b 08 9b be 3f 68 d4 be a9 24 d5 be 5b d2 ba be
       -0.30279955 -0.41485783 -0.41629532 -0.36488613
0000b0 29 1e e9 3d f9 70 95 bd 3f c4 96 be 98 75 95 be
       0.11382706 -0.072969384 -0.294466 -0.2919128
0000c0 c0 79 98 be 18 3a cc bd 90 a6 4c 3e c3 5b 84 be
       -0.29780388 -0.09972018 0.19985414 -0.2585126
0000d0 83 38 b0 be d5 d5 22 be e7 11 c2 bd 80 2a 9e 3e
       -0.34418115 -0.15901883 -0.09476071 0.308918
0000e0 9e e3 ce bd 9d a3 f9 bd 4f 7d 94 be c7 03 c5 bd
       -0.10102008 -0.1218941 -0.29001853 -0.09619861
0000f0 e2 14 71 3e 58 8c 8b 3e c7 dc 29 be a4 3a ab be
       0.23543122 0.2725551 -0.16588126 -0.33443177
000100 d1 a3 14 be c1 98 bc 3c 38 f9 c3 3d 42 a1 54 ba
       -0.14515616 0.023022057 0.09569019 -0.00081111875
000110 63 e7 f8 bd 6d 0b 3f be 17 4c 2a 3e a2 90 98 3e
       -0.121535085 -0.18656702 0.16630588 0.29797846
000120 1d e9 00 bc 30 3f 41 bc b4 f9 7e bc 98 7a 87 be
       -0.007868079 -0.01179485 -0.015562464 -0.2646072
000130 6c 78 5e be 5a b2 df 3d ea 61 3a 3e 9d 60 4a 3e
       -0.21725625 0.1092269 0.18201414 0.19763418
000140 66 cc 6f be ed 77 44 3e 98 c9 8f 3e d1 58 85 3e
       -0.23417816 0.19186373 0.2808349 0.26044324
000150 15 09 85 be 29 b5 17 bd 46 d0 ce 3e e4 ea 88 3e
       -0.25983492 -0.037038002 0.40393275 0.26741707
000160 70 43 01 be f3 a3 4e be d4 aa a8 3e db 67 f0 3d
       -0.12623382 -0.20179729 0.32942832 0.11738559
000170 e7 3f f0 3d f4 d3 88 be 08 a4 98 be 13 bb 23 3d
       0.117309384 -0.26724207 -0.29812646 0.03997333
000180 f3 65 f3 bd b7 e2 6f be 8c aa 71 be 71 4f 8c be
       -0.1188468 -0.23426329 -0.23600215 -0.2740436
000190 ee 1f 2a bd c9 00 13 be 5d 20 ea be 26 cf 96 be
       -0.041534357 -0.14355768 -0.45727816 -0.29454917
0001a0 00 4c fb be fb c1 25 3e b1 15 51 bd 34 46 80 3d
       -0.4908142 0.16187279 -0.051046077 0.0626339
0001b0 55 7c f8 bd 04 b2 8b be 34 79 08 3e 26 2e c6 3d
       -0.121330895 -0.27284253 0.13327485 0.09676771
0001c0 a5 05 07 3e 77 e3 25 3e 95 15 59 bd 96 64 51 bd
       0.13185747 0.16200052 -0.052999098 -0.051121317
0001d0 b2 ba 89 3d eb 00 0c 3e f0 bf 0a 3e 74 7e 30 3e
       0.067250624 0.13672225 0.13549781 0.17235738
0001e0 44 66 45 3e 2c 5a 3d 3e 6e 67 08 3e 6e 31 4c 3e
       0.19277292 0.18491429 0.13320705 0.19940731
0001f0 f8 64 87 3e 28 52 22 bd c3 22 85 3e 58 5f 72 3e
       0.2644422 -0.03962913 0.26003084 0.23669183
000200 78 05 28 3e 47 9e 1b 3d 9f 1a d5 be b4 e8 30 be
       0.16408336 0.037992742 -0.41621873 -0.17276269
000210 da 58 b0 3e 58 1c 47 3e 3c 8d a9 3d b6 fc 92 be
       0.34442788 0.19444406 0.082788914 -0.28708428
000220 ac d6 3e be 87 9d d8 3e e7 67 40 3e e3 e8 e3 bd
       -0.18636578 0.42307684 0.18789636 -0.11128404
000230 da 2f a5 be 9b 93 3a 3e a2 a7 6c 3e ec f1 a1 3e
       -0.3226307 0.1822037 0.23110822 0.31629884
000240 45 54 25 be b7 de 99 bc e4 8d 0c 3d 04 40 2e 3e
       -0.16145428 -0.018782957 0.034315005 0.17016608
000250 a4 ad 4d 3d c3 a8 cd bd
       0.050214425 -0.10041954

conv1.bias f4 [6]
000000 ac cf a3 3c 49 c8 d4 3b 95 b0 dc bd 8d 21 83 bd
       0.019996487 0.0064936024 -0.10775868 -0.06402884
000010 96 5b 28 be a4 87 18 be
       -0.16441187 -0.14895493

conv2.weight f4 [16, 6, 5, 5]
000000 60 12 97 bd ce 90 43 bd 7f de 70 bc 99 f0 3d bd
       -0.07376552 -0.04774552 -0.014701485 -0.04637203
000010 7a d5 87 bd 7e b1 1c 3b 74 4c 1c be fc f7 f3 bd
       -0.06632514 0.0023909505 -0.1526354 -0.11912534
000020 96 73 46 bc d8 5f 3f bd 8b 73 7e bd 4d 7e 83 bd
       -0.012112519 -0.046722263 -0.06212191 -0.06420574
000030 f1 51 c9 bd 43 a2 db bd 91 b6 40 bc 6d fd 16 3c
       -0.09830082 -0.10724308 -0.011762277 0.009215695
000040 8d 25 b8 bd fd 15 f9 3c 01 fe ee bc d8 3d c2 3d
       -0.08991537 0.030405993 -0.029173853 0.09484452
000050 c2 d0 a6 3d 52 5d 2f 3e 0d 9f 36 3e 49 57 4b 3e
       0.08145286 0.17125443 0.1783411 0.19857515
000060 1a 07 4d 3d 6c b5 cb bc cb 97 5c bc f7 4c 5b be
       0.0500556 -0.024866782 -0.013463925 -0.21416079
000070 4f 76 50 be b6 e0 11 bd 0d 8c 1c be e6 51 17 bd
       -0.20357631 -0.03561469 -0.152878 -0.03694334
000080 22 db 1c be 07 50 0d bd 4b c6 2b 3e 02 e8 0a be
       -0.15317968 -0.03450015 0.16774862 -0.13565066
000090 c8 93 2a be 94 90 6a bd c4 23 08 3b 20 ba c9 bd
       -0.16657937 -0.057266787 0.002077327 -0.09849954
0000a0 e4 d9 d0 bd 48 ca f2 3c 51 48 d1 3d 70 e1 b0 3c
       -0.10197809 0.02963747 0.102188714 0.021591872
0000b0 f5 06 f1 bc f1 e2 17 3e 41 b0 78 3e c2 8d 70 3e
       -0.029422263 0.14832665 0.24285986 0.23491576
0000c0 f5 82 77 3e 1b 8c 64 3e 20 23 b6 3d 06 c2 a7 bd
       0.2417105 0.22319071 0.08893418 -0.08191304
0000d0 90 62 49 3d 65 49 21 3d 88 4c a1 bd 8a b2 9d 3c
       0.049166262 0.039376635 -0.07875925 0.019250173
0000e0 d2 29 12 3d 9e 31 c1 3c 91 0f 94 bc af 7a b6 bc
       0.035684414 0.02358323 -0.018073829 -0.022275297
0000f0 d0 f6 98 3d e6 e7 97 bc ba 93 89 3d 52 d2 86 3d
       0.07468951 -0.018543195 0.0671763 0.06583084
000100 e1 6b f8 bb 90 4e 6b bd 9d 87 e1 3c aa b4 5f 3d
       -0.0075812195 -0.05744797 0.027530486 0.054615654
000110 06 9f cf bd ed 36 37 bd e3 ed 8c bc 07 18 3f 3d
       -0.10137753 -0.044730116 -0.017203277 0.046653774
000120 41 6d 72 bd a5 d8 e9 bd 65 03 f7 bd 73 22 2a 3e
       -0.059186224 -0.11418275 -0.12061194 0.16614704
000130 fb bd 1d 3c 71 37 35 3d 61 a7 ad 3d 7e 92 36 3c
       0.009627814 0.044242326 0.084791906 0.011143325
000140 fa 3e 43 3d 0f e9 3d bc fe 7a 3b 3e 23 9e 23 3e
       0.04766748 -0.01159121 0.18308637 0.15978293
000150 2e de 79 3d f3 e4 d6 bd 8f 96 bb 3d 94 76 07 3e
       0.061002903 -0.10492887 0.09159576 0.13228828
000160 56 49 64 bc fe 00 7d 3d ea 13 63 bd ac e9 ae 3c
       -0.0139335 0.061768524 -0.055438913 0.021351658
000170 a6 5b 93 bd 2f 05 2c be 3f 51 08 3e d7 45 2d bd
       -0.07195215 -0.16798852 0.13312243 -0.042302933
000180 e6 2d 21 be 12 af 52 bc be 6a a4 3c d6 16 ea 3b
       -0.15740165 -0.012859123 0.02007043 0.0071438355
000190 04 e6 c1 3d 46 0b 95 3d b0 b7 e8 3c 72 a7 6b 3d
       0.094677 0.07277541 0.028407902 0.057532735
0001a0 5d d6 ca bb 62 4a 8d bc 57 6d 4d bd 00 ce ae bd
       -0.006190105 -0.017247383 -0.050153103 -0.08535385
0001b0 c1 50 00 bc 25 62 e6 bd ba 35 b3 3d 96 d7 fa 3c
       -0.007831753 -0.11249188 0.08750482 0.030620378
0001c0 60 4b 91 bb 55 0f 87 3d d1 a7 98 3c 56 73 38 3d
       -0.004434034 0.06594721 0.018634709 0.045031868
0001d0 a7 41 48 3d 30 9b d1 3d 04 a8 0f 3e c1 53 8d bc
       0.048890736 0.10234678 0.14028937 -0.017251851
0001e0 6d f6 b3 3c ee 8d d7 bd 00 9c b2 bd 34 11 ce bd
       0.02196809 -0.10525118 -0.08721161 -0.10061875
0001f0 4e 06 a0 bd 40 69 a1 3c 65 1b 0f be 79 fa 13 be
       -0.078137025 0.019703507 -0.13975294 -0.14451016
000200 2f de 27 bd 6c 38 f0 bd bc bb 5f 3b 1d cc 82 3d
       -0.040983375 -0.117295116 0.0034138998 0.06386588
000210 12 da 26 3e cd 59 71 bd 1f c1 9f bd c8 fd 22 3d
       0.16294125 -0.05892353 -0.07800507 0.039792806
000220 04 59 2a b8 47 e8 17 bc 84 40 19 be 08 ef 8c bd
       -4.061406e-05 -0.009271688 -0.14966017 -0.06881529
000230 7c 53 bd bd c2 56 3d bd 07 d0 aa bd 82 db 1b be
       -0.09244439 -0.046225317 -0.08340459 -0.15220454
000240 f6 23 c1 bd 8e 25 28 be 0c f3 92 be f8 d0 0c be
       -0.09430687 -0.16420576 -0.28701055 -0.1375159
000250 54 0f 2a be 0a 7a f9 bd 2a b9 f4 3c 83 62 62 3c
       -0.1660741 -0.1218148 0.02987345 0.013817432
000260 68 b8 4a bc 9b 3c 4a bd f5 98 ab bc 7c a2 38 bd
       -0.012373067 -0.049374204 -0.020946959 -0.045076832
000270 00 be 95 3d 23 00 aa 3d e2 30 a2 3d 06 0f 85 bd
       0.0731163 0.08300807 0.0791948 -0.06497006
000280 1a 9d 05 3e 70 09 e0 3d 47 58 84 3d 2e 31 87 3d
       0.1304821 0.109393 0.0646215 0.06601177
000290 a5 0b a9 bc f5 e7 23 bd ac a7 4a 3d f4 8b 10 3d
       -0.020635435 -0.040016133 0.04947631 0.03528972
0002a0 e7 ec 00 3d 3e 4e 5b 3d 4b d3 96 bc 8f f1 9a 3d
       0.031475928 0.053541414 -0.0184113 0.07565605
0002b0 21 19 82 bd 55 93 ad bd 90 d9 bb bd 98 56 46 be
       -0.06352449 -0.08475367 -0.09172356 -0.1936897
0002c0 24 17 b0 bd 69 e2 ad 3d b7 3b 55 bd 66 8a 99 3d
       -0.08598164 0.0849045 -0.0520589 0.074971005
0002d0 09 d8 c2 3d c1 02 b0 3c f0 01 14 3c 5f dd ad 3b
       0.09513862 0.021485688 0.009033665 0.0053059305
0002e0 66 1e f6 bc f4 8e de 3d 27 ce da 3d 55 22 eb 3d
       -0.030043792 0.1086711 0.10683852 0.11481158
0002f0 c7 e5 14 bc 78 f9 a8 bd 72 cc a2 3b 27 5e ea bd
       -0.009087986 -0.082507074 0.0049682194 -0.114437394
000300 f8 bd ec bd 12 c0 07 be 54 fd ad bd 06 d4 2f bd
       -0.11559671 -0.13256863 -0.08495584 -0.04292681
000310 32 77 44 bd 93 39 d5 bc f8 41 16 be 37 5f d0 bd
       -0.047965236 -0.02602843 -0.14673603 -0.10174411
000320 19 7d d9 bd d8 e8 d8 bd 17 3c a5 3c 3f 9a 9d 3c
       -0.106195636 -0.105912864 0.020170255 0.01923859
000330 59 66 b7 3c ad 0e f7 bc 58 5b 3c bd f8 17 d7 bc
       0.02238767 -0.030158365 -0.04598555 -0.026256546
000340 9f bd ca bb a3 40 48 3d 97 6b 98 3c 72 20 9d 3d
       -0.0061871554 0.048889767 0.01860599 0.07672204
000350 43 91 13 3d 26 ab e2 3c 2c fa 48 3d c3 41 2c 3c
       0.036027204 0.0276695 0.049066707 0.010513726
000360 af cf 49 bc 2e 15 15 3d 4e 53 14 bd fa fe 51 3d
       -0.012317582 0.03639715 -0.036212258 0.051268555
000370 fa 3c 0d bd 0d 02 94 bc 78 24 32 3d 92 4d a5 bd
       -0.03448198 -0.018067384 0.04349181 -0.08071436
000380 ce 70 5a bd 5c be 95 bc a2 8b cb bb 89 6f 95 3d
       -0.053330235 -0.018279247 -0.006211714 0.07296664
000390 e9 5a 96 3d b6 6c 8b 3d ae ce 1d 3d 40 2f cc 3c
       0.073415585 0.06807844 0.038527183 0.024924874
0003a0 5e 21 94 3d fd 82 d1 3d e0 f0 f3 bc 92 b0 17 bc
       0.07232927 0.10230062 -0.029777944 -0.009258406
0003b0 d0 df 58 bd da 24 fe 3c 62 39 8e 3b b8 ee 24 bd
       -0.05294782 0.031023432 0.0043403367 -0.040266722
0003c0 19 62 e4 bd 89 5e dd bc 34 82 a3 bc 08 1c 41 bc
       -0.11151523 -0.027022617 -0.019959547 -0.011786468
0003d0 10 c6 f2 3b 11 a6 2d 3c b0 ce a6 bc cc ee c0 bc
       0.007408865 0.010598675 -0.020362228 -0.023551367
0003e0 85 51 1c bd a0 19 e6 bd 6c d0 bc 3b 8d b6 a7 3d
       -0.03816368 -0.11235356 0.0057621505 0.08189116
0003f0 c2 9f 15 bd ef 8b 34 bd 1a 77 47 bd c9 95 00 bb
       -0.03652931 -0.044078764 -0.04869757 -0.001962053

conv2.bias f4 [16]
000000 1d 83 c9 bd 8c 65 50 3c c2 4f 9a bd c5 57 e8 bb
       -0.09839461 0.012719523 -0.07534744 -0.007090541
000010 84 e9 fc bc a5 12 dc bc e1 1a 23 bd 0a e8 02 3d
       -0.030873068 -0.02686436 -0.039820556 0.03195957
000020 e2 e7 39 3d 80 11 50 bc e1 7e 79 bb 52 51 04 bd
       0.045387156 -0.012699485 -0.003807001 -0.032304116
000030 d2 50 73 bd 0a 1c 24 bd 13 84 ca bd d7 67 ca bd
       -0.059403248 -0.040065803 -0.098884724 -0.09883087

fc1.weight f4 [120, 256]
000000 d1 ea 2d bc 72 d0 d8 bc 05 2f cf 3c a0 8a 24 38
       -0.010615067 -0.026466582 0.025290975 3.922975e-05
000010 6b 0f cf 3b 8b 61 87 bc 76 41 0c bc ed c5 59 3d
       0.0063189766 -0.016526004 -0.008560529 0.053167272
000020 7f 21 2e 3d f2 db 87 3c 12 5e 61 3d 7a fb 15 3d
       0.042512413 0.01658437 0.055021353 0.03661678
000030 e7 e3 1d bd 0c 91 c8 bc 21 b9 98 bd 87 b6 b8 bd
       -0.038547423 -0.024483226 -0.074571855 -0.09019189
000040 24 97 39 bd 03 d0 52 3d 2a 0b 4e bd b7 8c 83 3c
       -0.045310155 0.051467907 -0.050303616 0.016058309
000050 ce fb c4 3c b0 1c c7 bc 73 7d c1 3c 68 24 7d bc
       0.024045851 -0.024305671 0.02361939 -0.015450574
000060 2c 8e 2a bd a6 99 6c 3c b5 30 29 bd 8d 48 c8 bb
       -0.041639492 0.0144409295 -0.041306216 -0.0061121644
000070 57 98 ee bc fa dc a2 bd 65 d6 ae bc 2e 5e b2 3d
       -0.029125376 -0.07952304 -0.021342466 0.087093696
000080 ef 4a 4c 39 d0 3b 28 bd 5b d3 ce 3c 12 f1 44 bd
       0.00019482871 -0.041072667 0.025247267 -0.048081465
000090 15 bd 6c 3d e3 07 2e bd 39 d4 6b 3d 97 ad 80 3c
       0.05779751 -0.04248799 0.05757544 0.015707774
0000a0 59 53 d3 3c 2b 77 80 bd 60 1f 90 bc f0 76 40 3d
       0.02579658 -0.062727295 -0.017593086 0.046988428
0000b0 94 60 97 bc 55 1b 7a bd 8c 40 2c 3c bf 13 a9 bc
       -0.01847867 -0.061061222 0.010513436 -0.020639298
0000c0 90 53 dc bc 5f be 61 3c 96 da a1 3c 44 87 82 3d
       -0.026895314 0.013778298 0.01975755 0.06373456
0000d0 5b 19 f3 3b 00 6b a8 3d 3f ee 1e 3d 61 29 cb bc
       0.007418794 0.08223534 0.038801428 -0.024800004
0000e0 84 50 c3 3c 2a df f0 bc 96 38 85 bd f5 99 22 3d
       0.023842104 -0.029403288 -0.065049335 0.039697606
0000f0 f9 c2 59 3d c8 8b 88 3c 0f 03 e7 bc 11 ea 0b bd
       0.053164456 0.016668215 -0.0281997 -0.03415877
000100 a5 5c bc 3b da cd 54 bd 69 44 89 bb 38 8c 4a bd
       0.005748349 -0.051954128 -0.0041890633 -0.04945013
000110 13 bc 74 3d 43 b2 af 3c 5c ec 07 bd be 59 5e 3d
       0.059749674 0.021447306 -0.033184394 0.054284804
000120 b8 68 85 3d ec 2b 39 bd 45 82 55 bd 0b 43 6a bd
       0.06514114 -0.045207903 -0.052126188 -0.057192843
000130 26 9d 05 3c a5 bb 6f bd 20 da 5c 3d fd 55 89 3b
       0.008155143 -0.05852856 0.053918958 0.004191159
000140 b8 e7 b0 3d 03 87 86 bb 49 32 94 bc 23 dc f4 bc
       0.08637947 -0.00410545 -0.018090384 -0.029890126
000150 b8 5d 82 3d 01 fb 66 3b df 60 cf bc 84 02 fd bc
       0.06365532 0.0035244825 -0.025314746 -0.030884989
000160 7e fc 40 3d de 80 63 bd 82 5a 75 bc e3 19 d9 3d
       0.047115795 -0.05554282 -0.014975192 0.106006406
000170 6f de 3b bd 21 60 f7 bd bc 43 66 3c 00 e3 8a 3a
       -0.045866426 -0.12078882 0.014054235 0.0010596216
000180 32 8b c5 3c ef 60 03 3d 30 97 74 3d 9e 4a e2 bc
       0.024114225 0.032074865 0.059714496 -0.02762347
000190 02 c0 9e bd c4 c3 8a bd 03 07 a1 bc 80 1a e6 39
       -0.07751466 -0.067756206 -0.019656664 0.00043888763
0001a0 1a ff 03 3d 79 ed 85 bd 03 1a 1b bc e7 76 fd bc
       0.032225706 -0.06539435 -0.009466651 -0.030940486
0001b0 b3 09 85 bd 07 f6 42 bd 74 1b 32 bd 70 40 4c bd
       -0.064959906 -0.04759791 -0.043483213 -0.04986614
0001c0 eb 42 19 3d bf a3 3d 3c 34 cc 3b ba 79 4e 95 ba
       0.037417334 0.011574685 -0.00071639125 -0.0011391185
0001d0 e5 bb 6f bd 16 7f 36 bd fd 03 b1 bc 66 5d 88 bd
       -0.0585288 -0.044554792 -0.021608347 -0.06658439
0001e0 f1 19 60 bc aa 67 83 bc 43 ab a7 3a 4f 03 11 3d
       -0.01367806 -0.016040642 0.0012792129 0.035403546
0001f0 a4 ca 58 bc 80 76 65 bc 8b 81 36 bd e6 85 03 bc
       -0.013231907 -0.014005303 -0.044557136 -0.008027529
000200 8b c6 f8 bc 6b 4b 48 3d db 8d 60 3d e6 c6 67 3c
       -0.03036811 0.04890005 0.054822784 0.014146542
000210 7e 31 47 bc 34 d7 00 3d 39 79 0b bc f3 95 8b 3d
       -0.012157796 0.031455234 -0.008512788 0.0681571
000220 51 eb a3 bc 5e 4a 56 3d a9 e6 78 3c 4e 13 85 bd
       -0.020009669 0.052317016 0.015191712 -0.06497823
000230 24 34 65 3d 1e 9c 61 3c 88 d2 a0 bc 44 7a 45 bc
       0.05595793 0.013770131 -0.01963164 -0.012053076
000240 34 93 4e 3d c7 a5 55 bd 7f b0 f9 3b 5a a6 0d 3d
       0.050433353 -0.05216005 0.007619917 0.034582473
000250 50 7a 1c 3d 19 c9 8b 3d 0e 93 9c 3d e9 e0 02 3d
       0.038202584 0.06825466 0.07645236 0.031952772
000260 ef a9 68 3c b9 d3 b3 bd d6 b4 4f bd 78 21 b5 3c
       0.014200672 -0.08780617 -0.050709568 0.022110686
000270 08 88 96 3b e0 b8 1c bd 5f ca b8 bc a4 01 f4 3b
       0.004593853 -0.038262248 -0.022557436 0.0074464846
000280 65 b3 70 bd ab 0c 71 3c 15 73 38 bb 7b 34 7a 3d
       -0.058764834 0.014712493 -0.0028144766 0.061085206
000290 16 9b 4f 3b a1 85 bd 3c 57 5d 9a bd 94 8f 36 b9
       0.0031678132 0.023135008 -0.075373344 -0.0001741036
0002a0 5e 4a e4 bc 1c 47 ea 3c 72 50 02 bd 31 e7 48 3b
       -0.027867492 0.02859836 -0.031815 0.003065538
0002b0 28 49 0b 3d 29 93 43 3c d8 a2 bd bd 20 2b fe bd
       0.034005314 0.011936941 -0.092595756 -0.12410569
0002c0 2b ca 72 bc 00 0c 43 3d fb c5 34 bd c9 f6 fb bc
       -0.014818708 0.047618866 -0.04413412 -0.030757325
0002d0 92 3a 8e 3d 08 eb 43 3d 03 e7 e4 3c da fd a5 3d
       0.06944765 0.047831565 0.027942186 0.08105059
0002e0 f1 ec 19 3d 9b 94 24 bc b3 8e cf bc cc bd 73 bd
       0.03757948 -0.010045196 -0.025336599 -0.059507176
0002f0 ca ca 9f bc 9d e7 78 bc 5c 8a d1 3d be 28 91 3d
       -0.019505877 -0.01519194 0.10231468 0.07087849
000300 7f a8 90 ba 05 37 2d bc 06 3d be bc 58 5f 1f bc
       -0.0011036544 -0.0105722 -0.023222458 -0.009727322
000310 9c 87 84 bc 01 2c 08 3d 18 e5 37 bd 2b 58 7b bd
       -0.016177945 0.03324509 -0.044896215 -0.06136338
000320 b0 7c 56 3a f0 6a 21 3d 81 0b ff 3b 39 45 dc 3b
       0.0008182032 0.039408624 0.007783354 0.006722119
000330 7d 94 f4 bb b5 e3 0b 3d 9b 25 05 bd ed b7 9d bd
       -0.0074639902 0.034152705 -0.032506566 -0.07701097
000340 81 d6 d4 bb 5b 98 24 bd 66 e6 c4 3c 74 96 78 3d
       -0.0064952974 -0.04018436 0.024035644 0.06069036
000350 76 aa a4 bc 04 bc 9c 3c d0 a0 a8 3c 1a ed 6b 3b
       -0.020100813 0.019132622 0.020584494 0.0035999478
000360 1a 40 98 3c 7d dd 85 bd 4a db c2 3c c8 72 f5 3c
       0.018585254 -0.06536386 0.023786206 0.029961959
000370 53 33 41 3c 81 d9 a3 3d 22 dc 05 bd e7 a8 ac bd
       0.011792022 0.0800047 -0.032680638 -0.08430653
000380 bb c5 63 3d a6 73 ca 3c 34 09 14 bd 25 56 8d 3d
       0.055608492 0.024713349 -0.03614159 0.069011964
000390 6d bd 9a bb 16 1f 15 3d 54 9e 0b 3d bd 33 5a 3d
       -0.0047222883 0.0364066 0.03408654 0.053271998
0003a0 ee d5 65 3d a8 6e 8e bd f7 88 68 3d 3b 31 3f 3d
       0.056112222 -0.069547 0.056771245 0.04667781
0003b0 bb eb 65 bd 6c 13 45 bd c7 bf ac 3d 29 37 59 bd
       -0.056133013 -0.048114225 0.08435016 -0.05303112
0003c0 f3 71 5d 3d 36 37 90 3d 19 32 31 bc ac 08 34 3d
       0.05406375 0.07041781 -0.010815167 0.043953583
0003d0 d1 89 51 3d 81 23 c3 3d 6d f7 58 bd 3c f7 0d 3d
       0.051156823 0.09528256 -0.05297034 0.03465961
0003e0 0d 56 4c 3d 7d 37 23 3b d3 de 59 bd 71 e7 7c bd
       0.049886752 0.00249049 -0.053191017 -0.061744157
0003f0 cd b1 72 3d a4 48 db 3c fd 1f e9 bd 40 04 92 bc
       0.059251595 0.026768036 -0.113830544 -0.017824292

fc1.bias f4 [120]
000000 55 2c 63 3d d7 ec 9c bb ae 51 a4 bc 92 b4 c6 3c
       0.0554622 -0.0047889757 -0.02005848 0.024256025
000010 f0 b6 cb 3c 32 d1 6d bd fe 89 34 3c a4 a4 a1 bc
       0.024867505 -0.058060832 0.011019228 -0.019731827
000020 43 29 17 3c a9 5e 5f bd 46 cf 42 3d 12 32 43 bd
       0.009226146 -0.054533634 0.047560953 -0.047655173
000030 c1 1f 1d 3d 99 b1 2f bd 73 04 39 bd e2 3d f0 3c
       0.03836036 -0.04289398 -0.04517026 0.029326383
000040 d5 48 0b 3c 20 f7 0f bc ea 7c 96 3c 58 8a 0d 3d
       0.008501251 -0.008786947 0.01837011 0.034555763
000050 bf 8c f6 3a 19 20 77 3d 4d c6 05 bd 2d 92 1b bd
       0.0018810256 0.060333345 -0.032659817 -0.0379812
000060 4d 8b bb 3c c4 72 56 bc 30 e9 69 3d 07 4e 0a 3c
       0.022893572 -0.013088886 0.05710715 0.008441455
000070 35 c3 3a 3c a9 a9 71 3d fa 0b c3 3c 9a 64 b6 bc
       0.01139908 0.05899969 0.023809422 -0.022264767
000080 80 1b 2a bd 34 ba d5 bc 48 4b 68 3b 91 3b 6c 3d
       -0.041530132 -0.026089765 0.0035445262 0.057673994
000090 50 cf 14 3c e8 75 dd bc cd 70 90 bc 61 c9 40 3d
       0.00908263 -0.027033761 -0.017631913 0.04706705
0000a0 6f be 43 3d 68 77 5e 3d 8a fb 91 bc 69 28 7d bc
       0.047789034 0.054313093 -0.017820138 -0.015451529
0000b0 56 10 cf bb 20 78 7a 3d 51 31 71 3c 6b 42 0a bd
       -0.006319086 0.061149716 0.014721231 -0.033754747
0000c0 1f 8f 82 3d 92 a8 38 bd 5f 39 00 bd da 9e 2a bd
       0.063749544 -0.045082636 -0.031304713 -0.0416554
0000d0 d0 9d 3c 3d 53 27 60 bd 99 1b b4 3c d3 e9 61 bc
       0.04604894 -0.054725002 0.021985816 -0.013788658
0000e0 e5 f1 4f bd 92 67 15 bd 1c cc 04 3d 08 6b d7 3c
       -0.050767798 -0.036475725 0.032421216 0.026296154
0000f0 96 a2 15 3d bc 5a 92 3d 5b 02 a3 3d 4c 94 45 bc
       0.036532007 0.071462125 0.07959434 -0.0120592825
000100 c6 6e d2 ba a0 48 28 bd 9f 32 0e 3b 3e b4 52 bd
       -0.0016054742 -0.041084886 0.0021697653 -0.051441424
000110 00 07 80 bc 7e 6b 81 bc 75 0f 2f 3d 6d f8 e2 bc
       -0.015628338 -0.015798327 0.04273935 -0.02770635
000120 36 44 af bb f8 7b 75 3d a8 7f e4 bc f1 5c ef 3c
       -0.0053487075 0.05993268 -0.027892902 0.029219123
000130 a9 54 95 bb 1d 86 b7 3c bc b0 b0 bb b5 cd 47 3c
       -0.0045572114 0.022402817 -0.005392162 0.0121950405
000140 9a 9d 2a 3b a7 4b 21 bb c2 4f 9f 3c ce cf 80 3c
       0.002603388 -0.0024611743 0.019447211 0.015724089
000150 3b 2c 2d 3d 87 ef 34 3d 3f 68 5c bd 98 3c 2e 3d
       0.04227851 0.044173744 -0.053810354 0.042538255
000160 5a 4b 60 bd d9 e4 8d bd bc 71 3d 3c 86 7c fa 3c
       -0.05475936 -0.06928415 0.011562761 0.030576956
000170 9e 24 db bc df 85 2a bd ce df 6d 3d 51 29 e2 3b
       -0.026750859 -0.041631576 0.058074765 0.006901898
000180 cd 43 30 bc a8 77 79 3c 98 28 e2 bc 1b bd b2 bc
       -0.0107583525 0.015226282 -0.027607247 -0.021818688
000190 87 ce 3c 3d 1f a7 19 bd 48 f7 63 3d a1 36 31 bd
       0.046095397 -0.037512895 0.055655748 -0.04326499
0001a0 0f c7 7c bd a9 dc 5b bd a3 66 76 bd 97 46 7a 3d
       -0.061713275 -0.053677235 -0.060156476 0.061102476
0001b0 85 d6 26 3d 85 c7 bc 3c 59 86 05 bd 70 16 bc 3c
       0.040731926 0.023044357 -0.032598827 0.022959918
0001c0 75 b6 3d 3d 9a 92 dc bc 0c 89 bc 3c f4 d1 2e bd
       0.046316583 -0.026925374 0.023014568 -0.042680696
0001d0 8c f9 23 bd c3 d6 c6 3b 0b 72 15 3d 08 73 d7 bc
       -0.04003291 0.006068082 0.036485713 -0.026299968

fc2.weight f4 [84, 120]
000000 7a c8 e1 bc c2 1e 02 bd 1e 13 a8 bd b7 92 60 3d
       -0.027561415 -0.031767614 -0.08206771 0.05482742
000010 1e 7b fa bc 89 a2 a1 3a 6d 02 b9 3d 0e a4 29 3d
       -0.030576285 0.0012331764 0.09033666 0.04141622
000020 04 bc 8b bd fc 00 a7 3c ea ae 42 bd 55 6b 50 bd
       -0.068229705 0.020386212 -0.047530092 -0.05088361
000030 48 33 ce bb 51 cc 9c bc c3 78 ab bb cf 0a 7b 3d
       -0.0062927343 -0.019140394 -0.005232902 0.061289605
000040 8b 8f 9e bd a6 9c 6c bd 86 17 95 bd 3b fd 65 bd
       -0.077422224 -0.05776658 -0.07279877 -0.056149703
000050 42 de ad bd 67 f6 ab 3c f6 55 d2 3c 63 03 6a bd
       -0.08489658 0.020991517 0.025675755 -0.057132136
000060 09 56 a8 bd b6 ab 38 3d d6 53 f2 3c 95 bc 85 bd
       -0.08219535 0.04508563 0.029580992 -0.0653011
000070 f6 82 1d bd 8d a4 2b bd a4 65 ef 3c b9 04 cd bc
       -0.038454972 -0.041904975 0.02922327 -0.025026666
000080 e0 c8 63 bd dc 16 49 3d cd 90 6b bd 53 26 8b 3c
       -0.05561149 0.049094066 -0.05751114 0.016986048
000090 d4 a7 69 bc 89 b7 ab 3d c4 f4 91 bd eb b6 c6 bd
       -0.014261205 0.08384616 -0.071267635 -0.097028576
0000a0 bd 4d 87 3d d6 04 15 bd a5 a8 0b bd ae 49 91 bb
       0.06606624 -0.036381565 -0.03409638 -0.004433832
0000b0 c3 ee 68 3d cc 51 80 bd 09 ca 11 bc 8f 3e 3d 39
       0.056868326 -0.062656015 -0.008898267 0.0001804775
0000c0 37 bf 57 3d d0 be 9f bd 58 ef ae bc 90 c7 25 3d
       0.05267259 -0.078000665 -0.021354362 0.04047352
0000d0 00 7e f9 bc f1 cc 85 bd 8d ce ef 3c 91 26 3c 3d
       -0.03045559 -0.0653323 0.029273296 0.045935217
0000e0 86 a1 a0 3d 50 a8 42 b9 16 1d b1 bd 31 3e 49 3d
       0.07843308 -0.00018563983 -0.08648126 0.049131576
0000f0 b9 b4 7e bd 1e 0e b3 bb ec 47 46 3c 52 df ab 3d
       -0.06218407 -0.0054643294 0.012102108 0.08392204
000100 09 91 4d bd 71 44 06 3d f6 20 aa 3d c8 e7 cb bc
       -0.050187144 0.032780115 0.08307068 -0.024890795
000110 64 f2 02 3e c9 8d 3d 3c 86 13 8f bc fb 29 42 3d
       0.12787777 0.011569449 -0.017465364 0.047403317
000120 fd 8d 98 3d 13 3c 84 bd a8 d7 72 bd 6a ee 4a 3c
       0.07448957 -0.06456771 -0.059287697 0.012385944
000130 70 da 31 bd 03 99 92 3d 71 2d af 3d 07 4e ae bd
       -0.04342121 0.07158091 0.08553589 -0.08510976
000140 77 8e ae 3d fd 05 5e 3d 2c e8 5c bb fc 41 ae bd
       0.08523267 0.05420493 -0.003370772 -0.08508679
000150 a5 4a 02 bd 4f 49 6b bd cf 3f 8d 3d 0f ca 11 3d
       -0.031809468 -0.05744296 0.06896936 0.03559309
000160 3a 59 13 3d 91 54 a7 3d 52 0e 2c bd d1 13 5d bd
       0.035973765 0.08170427 -0.042005844 -0.053973977
000170 93 03 a1 bb 30 99 b5 bd 04 ae e3 bc fa 64 16 bb
       -0.004913756 -0.08867109 -0.027792938 -0.002294837
000180 0b cf 25 3d ed a1 ad bd a2 cc 08 3d 22 d1 70 bc
       0.040480655 -0.084781505 0.033398278 -0.014698299
000190 a5 21 cc bb fe 1c 14 bd 85 99 97 3d 6b 0d a7 bd
       -0.0062295967 -0.03616046 0.074023284 -0.08156856
0001a0 1e 28 32 3d e9 17 c2 bd 61 6b ab 3d c5 06 5b 3d
       0.04349529 -0.09477217 0.0837009 0.053473253
0001b0 3f 56 bc bd 21 e8 08 bd 2b 50 1b 3c 7c 56 a3 3c
       -0.09196138 -0.0334245 0.009479563 0.0199387
0001c0 23 6a 55 3c 5c dc 45 bd 82 8e d7 bc 86 ab 9b bd
       0.013025793 -0.048305854 -0.02631307 -0.07601075
0001d0 5c 70 d9 bc 1b 68 8b bd a7 01 4d bd f9 95 ae ba
       -0.026542835 -0.06806966 -0.050050404 -0.0013319842
0001e0 4e 12 62 3d 2a a8 ca 3c 97 ab 3a 3d c0 39 95 3d
       0.055193238 0.02473839 0.045573797 0.072864056
0001f0 76 98 b2 3c c5 a6 6a 3d 3c 11 c7 3d 73 51 d5 bd
       0.021801215 0.05728795 0.09720084 -0.10415926
000200 d4 03 01 be d4 b2 8c 3c ce 9f 44 ba 5f c7 fb 3c
       -0.12599117 0.017175116 -0.00075006194 0.030734716
000210 17 3f f4 3d 82 e9 3f 3d f8 d3 27 3d 13 1e c2 3c
       0.11926096 0.04685355 0.040973634 0.023695981
000220 98 bf a1 bc f5 8f 4e 3d 9d 0a 3e bd 0e da 3e 3d
       -0.01974468 0.050430257 -0.04639684 0.046594672
000230 45 f7 a7 3d a3 d5 ed bd 42 f6 9e bd bd 71 11 3d
       0.0820146 -0.116130136 -0.07761814 0.03550886
000240 63 02 cb 3c 80 b4 b6 bd 46 59 bb 3d 79 d6 42 bb
       0.024781412 -0.089211464 0.09147887 -0.0029729886
000250 c2 b6 cb bd 52 05 05 3d 03 d3 b0 3d d1 2a 0d bd
       -0.09946968 0.032475777 0.08633997 -0.03446466
000260 4f 97 6c 3d d6 e1 20 bd ce 55 84 bc 35 08 af 3c
       0.057761487 -0.039277874 -0.016154196 0.021366218
000270 47 af ff bc 5e c5 ac bd 48 ff aa bd 51 c4 c6 3d
       -0.031211508 -0.08436082 -0.08349472 0.09705413
000280 b6 19 de bc 27 1a 33 3d bd 5f 2c 3d 46 2b 56 bd
       -0.02711187 0.043726113 0.04208349 -0.052287363
000290 58 c1 cc 3d a7 3b 01 be 37 8c d3 3d 2b cb c6 bd
       0.09997815 -0.12620412 0.10329478 -0.0970672
0002a0 89 6d 61 3d c7 08 51 bd e9 27 b3 3c 94 79 aa bc
       0.0550361 -0.05103376 0.021869617 -0.020809926
0002b0 e3 8d 8a bc c7 a5 10 bc 50 c5 fd 3c 10 3a 32 3e
       -0.01691336 -0.008828587 0.030977875 0.17404962
0002c0 e0 c2 76 3c b9 53 01 bd a7 86 aa bd f7 a8 34 3d
       0.01506111 -0.031573985 -0.08326464 0.04410645
0002d0 d6 f6 a1 bd bb ee df 3d 20 bc 09 be a3 f0 e5 bd
       -0.07908408 0.10934206 -0.1345067 -0.112275384
0002e0 4d 8b 84 3d e2 55 4a bd b5 e9 44 3c 15 71 ac bd
       0.06471882 -0.04939831 0.012018611 -0.08420006
0002f0 2e 7b a5 bd 65 67 47 bd 32 f2 27 bd 9a ba 8f 3d
       -0.08080135 -0.04868259 -0.04100246 0.07018013
000300 a9 3d a0 3c 50 ac 69 3c c0 61 1f bd 3e bb 1c be
       0.019560652 0.014262274 -0.03891158 -0.15305802
000310 ea 9f 89 bc 15 b3 8f 3d 4f 45 95 bd 2e 47 5c 3c
       -0.016799886 0.07016579 -0.0728861 0.013444705
000320 9a cc 11 3d a9 fa 55 3d 81 48 11 3e 7f bf f2 bd
       0.035595514 0.052241 0.14187814 -0.11852931
000330 2a ab 19 bd 01 eb d0 bd 32 63 ab bd 5c 35 f4 3d
       -0.03751675 -0.102010734 -0.083685294 0.1192424
000340 02 52 dc 3b 62 73 fa bc 8f 74 9d 3c 3a 67 61 3c
       0.0067236433 -0.030572597 0.019220619 0.013757521
000350 22 de 5e 3c dc ae 91 3d 2d a9 9e 3d 2d 84 60 3d
       0.013602765 0.0711343 0.077471115 0.054813553
000360 3b 50 a5 3d 51 f4 00 3d 66 2d 38 3c cb a9 c4 bb
       0.08071943 0.031483 0.011241293 -0.006001686
000370 1b 43 f2 bc 44 c4 ed 3c 32 3f da 3d fe d8 11 3d
       -0.029573014 0.02902425 0.10656585 0.03560733
000380 3e 5e f7 bd a1 96 6d bd 80 86 ad 3d 25 df c4 3d
       -0.12078522 -0.05800498 0.084729195 0.09612874
000390 c4 be 66 3d fe 19 5a bb fb c0 0d 3b 7e 82 15 bd
       0.056334272 -0.0033279653 0.0021629918 -0.0365014
0003a0 a2 8a 57 bd 07 2c 8f 3b 6c b4 84 bd 95 8a 86 bd
       -0.052622445 0.004369262 -0.06479725 -0.06569401
0003b0 e0 95 f0 3c f5 29 63 bc 53 c1 51 3c 84 aa 41 3a
       0.029368341 -0.013864984 0.01280244 0.00073877745
0003c0 b1 3b 1f b9 42 1b 4f 3c 7f ba 97 bd 85 a4 b6 bd
       -0.00015185658 0.012640776 -0.07408618 -0.08918098
0003d0 53 29 99 3d d5 3d 82 3d e6 6a 44 bd f6 fe c9 bd
       0.07478585 0.0635945 -0.04795351 -0.09863083
0003e0 93 44 1d 3d 97 bc 69 bd 07 58 a9 bd 74 f3 41 3d
       0.038395476 -0.05706462 -0.08268743 0.047351316
0003f0 d4 02 cb 3d 2e b3 e6 3c 8f ef 1a 3d fa 3e 92 3d
       0.09912649 0.028161611 0.037826117 0.07140918

fc2.bias f4 [84]
000000 f4 c0 d6 3c 55 33 95 bd 00 24 b7 bc 8d 1b 94 bd
       0.026215054 -0.072851814 -0.022356033 -0.072318174
000010 1c 2f c8 3b e9 21 da 3d 43 12 c5 3c 88 cc 0f bd
       0.0061091315 0.10650999 0.02405656 -0.035107166
000020 49 cf 3a bd fe 99 67 3d 6d 3f 6a 3d 5e 56 94 3d
       -0.04560784 0.056543343 0.057189394 0.07243036
000030 1f a6 67 bd 7e 84 95 bd c5 ec d3 bb 32 d5 bb 3d
       -0.05655491 -0.073006615 -0.006467434 0.09171523
000040 af 55 48 bc 1e 8b 59 bd 77 9a 7e 3d fe 48 75 bb
       -0.01222746 -0.053111188 0.062159028 -0.003742754
000050 1c 92 dd 3c 63 12 b2 bd 7a 40 a9 bd c0 5d a2 3c
       0.02704721 -0.08694913 -0.08264251 0.019820094
000060 a0 cf 5e bd 4e b2 85 3d 68 a8 14 bd 10 b1 66 3d
       -0.054397225 0.065281495 -0.036293417 0.056321204
000070 c9 02 bb bd 66 4a 78 bd c6 88 aa bd e5 d8 be 3d
       -0.091313906 -0.060617827 -0.08326869 0.09318713
000080 06 b9 9c 3d e9 a3 1e 3d ca e7 20 3d 75 1a 72 bd
       0.07652478 0.038730536 0.03928355 -0.059107263
000090 e1 62 68 bd 42 eb ce bb 97 68 62 3c 86 9e 1d 3d
       -0.056734923 -0.006314666 0.0138188815 0.038481258
0000a0 b4 6f cc 3c 79 47 05 bd 94 29 ef 3d 8c 59 c3 3d
       0.024955608 -0.032538865 0.11677852 0.09538564
0000b0 b4 c8 9a bd 27 07 c2 3d ad fb f8 3d b8 35 19 bd
       -0.07557812 0.094740205 0.12157378 -0.037404746
0000c0 5a b1 22 3d 73 35 0f bd 52 38 04 3e 82 04 77 3c
       0.039719917 -0.034963083 0.1291211 0.015076758
0000d0 9a 4e 6d bd 30 e7 b9 bd 5d 85 78 bd bf 07 0d 3d
       -0.05793629 -0.09077299 -0.06067406 0.034431215
0000e0 50 04 1b 3d 46 9b c2 bd de 5f 2d bc ee 51 40 3d
       0.03784591 -0.09502272 -0.010581939 0.046953134
0000f0 27 c1 6e 3d 0a 65 0c bd 5f b3 a9 bc bf 29 d2 bb
       0.058289673 -0.034276046 -0.020715414 -0.006413668
000100 3b e8 4d bd 92 bf 00 3d 98 b1 b9 3c 27 63 4e 3d
       -0.0502703 0.031432696 0.022667691 0.050387528
000110 fa f1 19 bb f4 b8 9a bd 01 b6 92 bd 56 ae 55 3d
       -0.0023490177 -0.07554808 -0.07163621 0.052168213
000120 35 04 9c bc 4e 65 93 bd 4e 1c 5b 3d f9 e0 85 bd
       -0.019044975 -0.07197057 0.05349379 -0.06537051
000130 ec 00 7d bc 98 34 e2 3d a2 1a 47 bd c4 1b b1 3d
       -0.015442114 0.11045188 -0.048609383 0.08647874
000140 9e 4e 92 bd 24 0c 8c 3d b6 9d e9 3d 82 bf 32 bc
       -0.07143901 0.06838253 0.11407034 -0.010909917

fc3.weight f4 [10, 84]
000000 b6 c8 2d 3d a7 ac 05 be aa a0 e3 bd 1e a5 5a 3d
       0.04242774 -0.13054143 -0.111146286 0.053380124
000010 37 0e a8 3c 80 65 ae bd 01 86 a4 3e 77 7c 92 3e
       0.02051459 -0.08515453 0.32133487 0.28610584
000020 41 57 9b bd 75 93 d1 b8 2d 0f 12 bd cd b5 43 bd
       -0.07585002 -9.9933626e-05 -0.035659004 -0.0477808
000030 d9 00 ad bd 9d 7d bd bd 29 41 67 3d 11 19 0d 3e
       -0.08447427 -0.092524745 0.056458626 0.13779093
000040 28 be 8f bd fb d7 41 3d 10 83 4b bd e8 5d 95 be
       -0.07018691 0.047325116 -0.049685538 -0.29173207
000050 7a 78 6a 3e be 37 db bd 05 7e 1f 3e c2 ec 54 3d
       0.2289752 -0.10703991 0.15575416 0.051983602
000060 84 88 5b 3e d6 d5 bd bd 8f 94 80 3d eb c4 13 be
       0.21438795 -0.092693016 0.06278335 -0.14430587
000070 6a 26 c4 3d fd 87 0a be 18 23 02 bd f4 9d 66 be
       0.095776394 -0.13528438 -0.03177175 -0.22521192
000080 a7 4c c4 3d f4 3d 58 be 98 a1 6b be 0c b9 ef 3d
       0.09584933 -0.21117383 -0.23010862 0.11705217
000090 af de 49 bd 03 04 91 3d 37 8b 37 3d 7b 09 e7 3d
       -0.049284633 0.07080843 0.0448105 0.11281105
0000a0 d5 cf 2c 3e 4f 05 96 3d 8c 21 5a be c8 89 59 be
       0.16876157 0.07325231 -0.2130186 -0.21243966
0000b0 20 6c 70 bd 45 58 2e 3e 60 5a 2c be b6 0c 21 bd
       -0.058696866 0.1702586 -0.1683135 -0.039318763
0000c0 3c 71 2d 3e d0 a8 94 bd 31 ae b2 3d 5e c9 ba bd
       0.16937727 -0.07258761 0.087246306 -0.09120439
0000d0 d8 72 7e 3d 71 54 5b 3d f7 f0 87 3e 12 29 3d be
       0.062121242 0.053547326 0.2655103 -0.18472698
0000e0 22 a5 3d bd 61 ea c8 bd 09 2e fc 3c 01 d6 42 bd
       -0.04630006 -0.09810329 0.03078367 -0.04756737
0000f0 d0 40 09 be 8a de 18 bd 83 d0 5c 3e 51 4f 19 be
       -0.1340363 -0.037321605 0.21563916 -0.14971663
000100 86 5e 86 3d 9b e1 a3 bd da 4c 5b 3e 2a 84 dd bd
       0.06560998 -0.08002015 0.21416035 -0.10816224
000110 66 23 38 be 27 7e be bd e3 70 a5 bb 41 d2 d6 bb
       -0.17982253 -0.093014054 -0.0050488575 -0.006555826
000120 4b d5 3c 3e 42 3a 50 bc 9f 1d 37 be a4 17 1b be
       0.1844074 -0.012709202 -0.17882393 -0.15145737
000130 cc b0 1c bd b2 3b 54 be 8d 34 c1 3d 36 f8 5c be
       -0.038254544 -0.20725897 0.094338514 -0.2157906
000140 ab e1 e3 bc 24 22 53 be f8 5d eb bc cb 1b 7b 3d
       -0.027817568 -0.20618492 -0.028731331 0.061305802
000150 26 c1 f2 3c ef f1 6e 3d 9f 34 37 bd aa 56 84 bd
       0.029633116 0.058336195 -0.044727918 -0.06461842
000160 be 58 c2 bd 68 64 84 bd 8d 84 b4 3c e1 b9 8c be
       -0.094895825 -0.064644635 0.022035861 -0.27485564
000170 12 49 c1 bb 2d 38 5b 3d c5 6d 5f 3e 64 e8 41 3e
       -0.0058986032 0.05352037 0.21819218 0.18936306
000180 bb af 55 bc 2d db c0 3d cd 0b 70 3d b3 b3 04 be
       -0.013042386 0.094168045 0.058605004 -0.12959175
000190 7e af b7 bd 19 58 5a 3c f1 1f f4 3c 1d f7 b8 be
       -0.08969019 0.013326668 0.029800387 -0.36126032
0001a0 55 1d c7 3c 68 9f da ba 93 04 3d 3d 1a f4 9a bd
       0.024305979 -0.0016679587 0.04614694 -0.0756609
0001b0 8c 03 1c bd 80 32 29 bd 0a 4f ae 3d b5 73 a9 3e
       -0.03808932 -0.041307926 0.08511169 0.3309609
0001c0 4a fb cf bd 49 65 b0 bd bb 84 10 bd 4e 96 42 3e
       -0.101553515 -0.086130686 -0.03528283 0.19002649
0001d0 62 79 48 3e 75 77 08 be ad 9e 82 3e 67 3e a8 3b
       0.19577554 -0.13326819 0.25511685 0.005134392
0001e0 4b a9 77 3d e7 41 b2 bb 0c e9 24 bd 2e 34 44 bd
       0.060464185 -0.005439985 -0.040261313 -0.047901325
0001f0 ee 91 7b be 6d 83 d0 bd 2f 24 a4 3e ca 7a cb bd
       -0.24567387 -0.101813175 0.32058856 -0.099355295
000200 7f ed a1 3d a2 14 05 be f3 34 75 3e 29 13 87 3d
       0.07906627 -0.12996152 0.2394598 0.065954514
000210 94 b6 24 3e 1d 21 b1 3e 23 35 8a be fb 9b e2 3b
       0.16085273 0.34595576 -0.26993665 0.006915567
000220 02 21 80 3c e0 20 32 bc f6 e5 f0 bd 9b 56 44 be
       0.01564074 -0.010872096 -0.117626116 -0.19173662
000230 31 e0 f3 bd e6 6e 9c bc a9 73 d4 bd 61 7e a8 bd
       -0.119079955 -0.01909585 -0.10373623 -0.0822723
000240 85 e0 3c 3e 4b 7d f2 bc 84 2f 5f be dd bc 42 be
       0.18445022 -0.02960076 -0.2179547 -0.19017358
000250 6c a9 52 b7 48 5f a2 3e 0b 16 3e 3e 3f 0a 0a be
       -1.2556422e-05 0.3171332 0.18563096 -0.13480471
000260 97 52 d7 3d 2f db a5 3d 31 45 d5 bd e5 69 89 be
       0.105138 0.080984466 -0.10413588 -0.26838604
000270 8b e3 24 be ae 71 42 3d a9 ca 75 3d f6 3b e3 3c
       -0.16102426 0.047471695 0.060007725 0.027738553
000280 84 5b c9 bc 2c 05 74 3d fc 7f 4f bd 15 a8 fe bd
       -0.02457977 0.059575245 -0.050659165 -0.12434403
000290 d8 da 01 3d 3f bd fd bd 45 fe bc bd 40 c8 6d 3e
       0.031702846 -0.123896115 -0.092281856 0.2322092
0002a0 4c c0 5a bd e5 53 30 be 5f 3a 57 bd f1 9e 78 bd
       -0.053406045 -0.17219503 -0.0525459 -0.060698453
0002b0 99 3b 21 be 47 23 a8 bd ed 8e f6 3d c2 20 82 bd
       -0.15745391 -0.082098536 0.1203898 -0.06353904
0002c0 ac c4 0d 3e 76 e4 9f 3d fb d1 b3 bc e5 0e 27 3e
       0.13844556 0.07807247 -0.021950712 0.16314276
0002d0 e5 c1 54 3e 10 f7 2a bd 51 85 c7 3c 82 c6 40 be
       0.2077709 -0.041739523 0.024355562 -0.18825725
0002e0 f8 8d 2d bc 12 ae 62 3d 6a d3 c6 bd e8 02 02 be
       -0.01059293 0.055341788 -0.09708293 -0.12696421
0002f0 9f 4f f7 3c 1d 1b 83 3e 84 5f 10 3e df 24 72 3d
       0.030189333 0.25606623 0.14098936 0.059117194
000300 85 b6 4f 3e 04 c0 8b bc b3 4b a1 3d 49 93 8e 3d
       0.2028447 -0.017059334 0.078757666 0.06961686
000310 c6 59 a9 3d ab 95 44 3e 96 b3 23 3d 8a 69 7e 3d
       0.08269076 0.19197719 0.03996619 0.06211237
000320 20 f5 c2 3d fb 74 9a bb 67 9a 1d 3e 60 41 56 be
       0.0951941 -0.004713652 0.15390931 -0.20923376
000330 8e 10 a1 3d 53 97 ef 3d e7 d4 dc bd 30 05 8b 3e
       0.07864486 0.11698785 -0.107827954 0.27152395
000340 47 f2 23 be 53 3f 3d 3b e1 ad 77 bd 1e b9 5f be
       -0.1601039 0.0028876856 -0.06046856 -0.2184796
000350 ef 92 15 bd 45 cb 18 be ce 82 02 be 93 18 fe bc
       -0.03651708 -0.14921291 -0.1274521 -0.031017577
000360 59 03 1e bd 48 1e fc bb 4d 0c 8a 3e 86 0c 2c be
       -0.03857741 -0.0076940395 0.2696251 -0.16801652
000370 2e 88 13 3e 54 37 8a bd 9b c8 a6 bd 09 ae 49 be
       0.14407417 -0.06748834 -0.08143731 -0.19695295
000380 61 dd 34 be 0e 3b 77 bd 11 e5 81 3e d4 eb 6d bd
       -0.17662574 -0.060359053 0.25370076 -0.05808623
000390 cf c7 42 be e1 3b 7b 3d e4 b9 2c 3e 88 6e 44 3d
       -0.19021533 0.0613364 0.16867787 0.047956973
0003a0 9e c6 f5 bc 02 ca 14 be b7 c9 c3 bd 9a 8e 42 3e
       -0.030001935 -0.14530185 -0.095599584 0.1899971
0003b0 cf a3 13 3e 30 8d 92 3d 83 df ef 3d 0c 96 5e 3d
       0.14417957 0.07155836 0.11712553 0.054342315
0003c0 14 cf 57 be 08 96 46 3c 39 8f b7 3b 26 7a c8 3d
       -0.21075088 0.012120731 0.0056017903 0.09788923
0003d0 22 8a 2b bd 78 df 44 3e a0 e2 95 3b d5 6a 4d be
       -0.04187978 0.19225872 0.004574135 -0.20060284
0003e0 d9 31 9d bd 5e 3b e6 3d 6f 71 16 bc 85 c6 45 be
       -0.07675523 0.11241792 -0.009182318 -0.1931401
0003f0 a5 7d e2 3c 08 1f cf bd af 4b 97 3d df ae 3f bd
       0.027647803 -0.101133406 0.073874824 -0.04679763

fc3.bias f4 [10]
000000 86 7e c5 bc 35 cc 49 3e 73 83 8c bd 40 34 ea bc
       -0.024108183 0.19706805 -0.068610094 -0.028589368
000010 92 e5 b2 bd f8 5f 69 bc 75 3b cd bd cd 00 02 bd
       -0.08735193 -0.014244072 -0.10021106 -0.031739045
000020 7e c3 11 3d 1c 61 a2 bc
       0.035586827 -0.019821696
