src/artifacts/checkpoints/round_003.pt (torch, 181669 bytes, 10 tensors)

conv1.weight f4 [6, 1, 5, 5]
0	0xbd678072	-0.05651898
1	0xbe47f12d	-0.19525595
2	0xbec21fe6	-0.37914962
3	0xbe399989	-0.18124975
4	0xbd55cd2e	-0.052197628
5	0x3e1e302e	0.15448067
6	0x3b9b9f12	0.0047491873
7	0xbecab083	-0.39587793
8	0xbde46ca4	-0.11153534
9	0xbe2d3a4b	-0.16916768
10	0x3ea033ed	0.31289616
11	0x3e869a9c	0.26289833
12	0xbe873201	-0.26405337
13	0xbe28a97d	-0.16470905
14	0xbec818a5	-0.39081302
15	0x3d8017a7	0.06254511
16	0x3ee1d731	0.4410949
17	0x3da71125	0.08157567
18	0xbd9f06ea	-0.07764991
19	0xbd19ed90	-0.037580073
20	0xbdfb7969	-0.122790165
21	0x3e94a839	0.29034594
22	0x3edb4f7f	0.42834088
23	0x3e72f427	0.23725949
24	0x3e32b595	0.1745208
25	0x3d375b7e	0.044764988
26	0xbd1ef693	-0.03880937
27	0xbe785d6c	-0.24254388
28	0x3dda19dd	0.10649464
29	0x3e9416a9	0.28923538
30	0x3de38024	0.11108425
31	0xbe216f81	-0.15765192
32	0xbe508dfe	-0.20366666
33	0xbe0dff2f	-0.13866876
34	0x3e3a04ab	0.18165843
35	0xbde8f2a0	-0.11374402
36	0xbe8c20b0	-0.2736869
37	0xbe803c97	-0.25046226
38	0xbe868cb6	-0.2627923
39	0x3ddfaf7b	0.10922142
40	0xbe1ff8dc	-0.15622276
41	0xbe288b84	-0.16459471
42	0xbe0e5ef2	-0.13903406
43	0xbe77b567	-0.24190293
44	0xbe4165fb	-0.18886559
45	0xbdfd5330	-0.123693824
46	0xbe6c16bd	-0.23055549
47	0xbe02b2aa	-0.12763467
48	0xbd73685d	-0.0594257
49	0xbe21cee9	-0.15801586
50	0x3d24c352	0.040225334
51	0xbea610cf	-0.324347
52	0xbe58287d	-0.21109195
53	0xbe9791bf	-0.29603383
54	0xbe8ec3bb	-0.27883705
55	0xbdc355f8	-0.095378816
56	0xbe26194f	-0.16220592
57	0xbebf4d97	-0.37363884
58	0xbeb26869	-0.34845284
59	0xbd832a1d	-0.06404517
60	0xbe4c5862	-0.1995559
61	0xbbe62412	-0.007023343
62	0xbe7621b8	-0.240363
63	0x3da5556a	0.08072932
64	0x3d521b85	0.051295776
65	0x3e86a1f2	0.2629543
66	0xbbf60ba8	-0.0075087138
67	0x3e366633	0.17812423
68	0x3e6fa649	0.23403277
69	0x3e1eb817	0.15499912
70	0x3ebfe5ef	0.37480113
71	0x3ec0e803	0.3767701
72	0x3eb6c4a0	0.35696888
73	0x3e6c0ed8	0.23052537
74	0x3df4c0e8	0.119508564
75	0x3e006583	0.12538724
76	0x3dd14741	0.10218669
77	0x3e95d8cc	0.29266965
78	0xbc6423e6	-0.0139245745
79	0x3d8d135d	0.06888459
80	0xbd1ce56d	-0.038304735
81	0x3ea0121e	0.31263822
82	0x3e432edb	0.19060843
83	0xbe563b21	-0.20920993
84	0xbd5305fe	-0.051519386
85	0x3e845393	0.25845012
86	0x3ed34846	0.41266078
87	0xbdefe7ec	-0.117141575
88	0xbea12854	-0.3147608
89	0xbec54edd	-0.3853673
90	0x3e433977	0.1906489
91	0x3eab05c7	0.33402845
92	0x3d017a82	0.031610973
93	0xbe23a53a	-0.15980998
94	0xbbc6f283	-0.00607139
95	0x3d3b5ab2	0.04574079
96	0x3e99d2d9	0.30043676
97	0xbce606c6	-0.028079402
98	0xbe0d2fef	-0.13787816
99	0xbe70bc87	-0.23509417
100	0x3de15fec	0.11004624
101	0x3e48b6e2	0.19601014
102	0x3e00c716	0.12575945
103	0x3e3fa579	0.18715467
104	0x3c017058	0.00790032
105	0x3d1b85a7	0.037969258
106	0x3eaacb2b	0.3335813
107	0x3ecfdcf1	0.40598252
108	0x3ec91582	0.39274222
109	0x3e97c8f4	0.29645503
110	0x3c9a7f5e	0.018859562
111	0x3d2a3339	0.041552756
112	0x3c2b2da9	0.010447898
113	0x3c8c8844	0.01715482
114	0x3e9210da	0.28528482
115	0xbebea0bc	-0.37232006
116	0xbec5ace5	-0.3860847
117	0xbe9f40e9	-0.3110421
118	0xbd7669d7	-0.06015953
119	0xbd9be1a9	-0.07611401
120	0xbec55ff0	-0.38549757
121	0xbe80127a	-0.25014096
122	0xbea9c0b4	-0.33154833
123	0xbeb6e237	-0.35719463
124	0xbce8a7d0	-0.028400332
125	0xbda513a0	-0.08060384
126	0xbe8d767a	-0.27629453
127	0x3d438073	0.04772992
128	0x3d63905f	0.055557605
129	0x3d164b2f	0.036692794
130	0xbdcd9459	-0.10038061
131	0xbe79a8a3	-0.24380736
132	0x3d2ec6e1	0.042670134
133	0x3e697596	0.22798762
134	0x3dfaf37b	0.122534715
135	0xbe094676	-0.13405785
136	0xbe5770c7	-0.21039115
137	0xbe6bf6e0	-0.23043394
138	0x3e1ee844	0.1551829
139	0x3e969af0	0.29415083
140	0xbe9a346b	-0.30118117
141	0x3d875bbf	0.06609296
142	0xbe55ce36	-0.20879444
143	0x3e5f2a8d	0.21793576
144	0x3e4b9f19	0.1988491
145	0xbc7a6448	-0.015282698
146	0xbe838ef7	-0.2569501
147	0xbdc7d128	-0.0975669
148	0x3dae67d6	0.08515899
149	0x3e044bd1	0.12919547

conv1.bias f4 [6]
0	0xbcd24ff7	-0.025672896
1	0x3e9eacf9	0.30991343
2	0x3dafde2a	0.08587296
3	0xbd803256	-0.06259601
4	0x3b577abc	0.0032879552
5	0xbdf75a78	-0.120778024

conv2.weight f4 [16, 6, 5, 5]
0	0xbe0a0f4e	-0.13482401
1	0xbe2afacb	-0.16697232
2	0xbd59bc16	-0.05315789
3	0xbc8fc6c6	-0.017550837
4	0x3dbd0ffb	0.09231564
5	0xbdd71f15	-0.10503975
6	0xbb848ee9	-0.0040453565
7	0xbdeba567	-0.11506157
8	0x3c6b9798	0.0143794045
9	0xbc92b08e	-0.017906453
10	0xbdbc34c4	-0.09189752
11	0x3e209d90	0.15685105
12	0x3d625ebb	0.055266123
13	0x3d538460	0.051639915
14	0xbc24f8a2	-0.010069044
15	0xbe01b100	-0.12665176
16	0x3e3dd559	0.18538417
17	0x3d8a6bb2	0.067588225
18	0xbdb062e0	-0.08612609
19	0xbd603aa5	-0.054743428
20	0xbdb0e74c	-0.086378664
21	0xbd88e3c5	-0.066840686
22	0xbc8fb852	-0.017543945
23	0xbc94e13d	-0.018173808
24	0xbd55c36d	-0.052188326
25	0xbe0c21ba	-0.1368474
26	0xbdc70afd	-0.09718893
27	0xbdc8f309	-0.0981198
28	0xbd6cc746	-0.05780723
29	0xbdd5ece5	-0.10445575
30	0xbdf75ea0	-0.12078595
31	0xbd682f28	-0.056685597
32	0xbda61426	-0.08109312
33	0xbdbccc66	-0.092186734
34	0x3ccd793a	0.02508222
35	0xbdb2bd0a	-0.087274626
36	0xbe1d7ae8	-0.15378916
37	0xbd9abff9	-0.07556147
38	0xbd3a792f	-0.045525726
39	0xbdba847e	-0.09107302
40	0x3c528275	0.012848486
41	0xbd2331bc	-0.039842352
42	0xbe4d32d3	-0.20038919
43	0xbdc941fb	-0.09827038
44	0xbdc6d352	-0.09708275
45	0xbbd07bc4	-0.0063624103
46	0x3d978c4d	0.07399807
47	0xbd29e4b3	-0.04147787
48	0x3b898ea6	0.004197913
49	0x3c6008e5	0.013673996
50	0xbd7428bc	-0.05960916
51	0xbd7b71e9	-0.06138793
52	0x3d60d425	0.054889817
53	0x3cb3a306	0.021928322
54	0x3a0908b1	0.00052274304
55	0xbe806df4	-0.25083888
56	0xbdb257c1	-0.08708144
57	0xbd8b464b	-0.06800517
58	0xbc82bd71	-0.015959473
59	0x3dd0f757	0.10203426
60	0xbe7319a0	-0.23740244
61	0xbdec5b40	-0.11540842
62	0x3e28abf0	0.16471839
63	0x3e26f506	0.16304407
64	0x3df15710	0.11784184
65	0xbe9d804f	-0.30761954
66	0xbdb06632	-0.08613242
67	0x3ddb1b61	0.106985815
68	0x3dda71cd	0.10666237
69	0xbd831a08	-0.064014494
70	0xbe92143e	-0.2853107
71	0xbdd0998b	-0.10185536
72	0xbdf59b49	-0.11992509
73	0xbe044abe	-0.12919137
74	0xbd7c6ec1	-0.06162906
75	0xbc5b8ce6	-0.013400292
76	0x3e212bc0	0.15739346
77	0x3d5f5d36	0.054532252
78	0x3926ee7c	0.00015919836
79	0xbb612464	-0.0034353966
80	0x3dd33b9d	0.10314105
81	0x3e66ca4d	0.22538109
82	0x3ddd4952	0.10805
83	0xbce54faa	-0.027992088
84	0xbd112d9e	-0.035443895
85	0xbb2e245b	-0.0026571963
86	0x3e44724d	0.19184227
87	0x3db396eb	0.0876902
88	0x3a0460e6	0.00050498394
89	0xbcef14c9	-0.029184716
90	0xbe18f40d	-0.14936848
91	0x3d31c337	0.043399062
92	0xbd6d11fc	-0.05787848
93	0x3dcf2984	0.1011534
94	0xbd6c1446	-0.05763652
95	0xbd63be4c	-0.055601403
96	0x3d166f74	0.036727384
97	0x3ce55025	0.027992317
98	0xbdb64746	-0.08900313
99	0xbe0fab75	-0.1403025
100	0xbe6a6562	-0.22890237
101	0xbe782e45	-0.242364
102	0xbe18da6f	-0.14927076
103	0xbcf6b5fa	-0.03011607
104	0xbdc2a4a3	-0.09504058
105	0xbe1c0277	-0.15235315
106	0xbe83ef15	-0.25768343
107	0xbdbb05a2	-0.09131934
108	0xbd99de87	-0.07513147
109	0x3c23c471	0.009995566
110	0x3bef6ad1	0.0073064347
111	0xbddbcd12	-0.107324734
112	0xbe7610a8	-0.24029791
113	0xbdbee77c	-0.09321496
114	0xbd3e0a82	-0.04639674
115	0x3e1fc636	0.15602955
116	0x3de44d9c	0.11147615
117	0xbc9842d1	-0.018586548
118	0x3dbe9c78	0.09307188
119	0x3d627f68	0.055297285
120	0x3dbac7f1	0.09120167
121	0x3dc83645	0.09775976
122	0x3e7bc356	0.24586233
123	0x3ddae7b3	0.10688724
124	0xbd90bd1e	-0.07067321
125	0x3dca0a5e	0.09865259
126	0x3dc4f640	0.09617281
127	0x3d2acf69	0.041701708
128	0xbda568d5	-0.08076636
129	0xbc287541	-0.010281862
130	0x3dc27fcd	0.09497032
131	0x3da6c511	0.08143056
132	0xbd50eb8f	-0.051005896
133	0xbdc7940f	-0.09745037
134	0xbe0df520	-0.13863039
135	0x3d95edae	0.073207244
136	0x3e01f79a	0.12692109
137	0xbdac12ab	-0.08401998
138	0xbd93f207	-0.072238974
139	0xbd6207cd	-0.05518322
140	0x3e2ba28d	0.16761227
141	0x3d83fa9b	0.064442836
142	0xbd322fa6	-0.043502472
143	0xbac24bbe	-0.0014823598
144	0x3c49208b	0.012275825
145	0x3dd6a643	0.10480931
146	0xbcabe73e	-0.020984288
147	0x3a0ffbe1	0.000549255
148	0xbd9ab365	-0.07553748
149	0xbd5240d0	-0.05133134
150	0x3e3de354	0.1854375
151	0xbda5a5a6	-0.080882356
152	0xbda17b66	-0.078848645
153	0x3a91e809	0.0011131774
154	0xbd0c561e	-0.034261815
155	0x3e1580bd	0.14599891
156	0x3e696028	0.22790587
157	0xbd1ea642	-0.038732775
158	0xbd38e358	-0.045138687
159	0xbd46809d	-0.0484625
160	0xbc35b978	-0.0110915825
161	0x3e60d3ca	0.21955791
162	0x3dd6119a	0.10452576
163	0xbdbe837f	-0.09302425
164	0xbd73735a	-0.05943618
165	0xbdc34fac	-0.095366806
166	0x3c5e4b42	0.013567748
167	0x3ca8d207	0.020607961
168	0x3c19485e	0.009355633
169	0x3b622c8c	0.0034511415
170	0xbdc4d1ed	-0.09610353
171	0xbda7d6d0	-0.08195269
172	0x3d225c7b	0.039638977
173	0x3d2d2841	0.042274717
174	0xbbe2f027	-0.006925601
175	0xbc02d36c	-0.007984977
176	0x3d894235	0.06702081
177	0xbc979b1a	-0.018506575
178	0xbd9ee3cd	-0.07758293
179	0xbd12b955	-0.035821278
180	0xbdee4be3	-0.11635568
181	0xbbd20d28	-0.0064102598
182	0x3d128521	0.035771493
183	0xbc913ad1	-0.017728241
184	0x3c3e4718	0.01161363
185	0x3aebfb38	0.0018003946
186	0x3c277be7	0.010222412
187	0x3bf8d2a4	0.0075934697
188	0x3ca2c2a9	0.019868212
189	0xbaa9169a	-0.0012900413
190	0xbd2d19a0	-0.042260766
191	0x3d02e4f3	0.031956624
192	0xbcf7fa5b	-0.030270746
193	0xbda18728	-0.07887107
194	0x3d08b59c	0.03337632
195	0xbcbc59a0	-0.022991955
196	0x3d286353	0.041110348
197	0xbb6f6f05	-0.0036534679
198	0x3ce06a9b	0.027394583
199	0xbda8ab33	-0.08235779
200	0x3dffd1fe	0.12491225
201	0x3a662f70	0.00087808724
202	0xbdd243cb	-0.10266837
203	0xbd8e9e7c	-0.06963822
204	0xbb8bc90b	-0.0042659095
205	0x3ce3fcd8	0.027830526
206	0x3de59731	0.11210478
207	0xbc8b5447	-0.01700796
208	0xbde91d89	-0.113825865
209	0xbca72333	-0.020402526
210	0xbe34bf7a	-0.17651168
211	0x3d4432dc	0.047900066
212	0x3d59c35e	0.053164832
213	0xbdfd7197	-0.12375181
214	0x3c98b963	0.018643087
215	0xbdad5199	-0.08462829
216	0x3cffaf24	0.031211443
217	0x3c104321	0.008805067
218	0xbd9b6fe2	-0.07589699
219	0xbd4f4007	-0.05059817
220	0xbdf98cf3	-0.12185087
221	0xbdd24445	-0.10266928
222	0xbd3c542e	-0.045978718
223	0x3d1fc4cf	0.03900605
224	0x3d2ae0be	0.041718237
225	0x3d838c2b	0.06423219
226	0xbe17a65f	-0.1480956
227	0xbe12f550	-0.14351392
228	0xbc2b55e8	-0.010457493
229	0x3c0f89fa	0.0087609235
230	0x3da765cf	0.08173715
231	0x3d81c49f	0.063363306
232	0xbd99933b	-0.07498785
233	0x3c91aa44	0.017781384
234	0xb9062320	-0.00012792321
235	0x3c0a3382	0.008435132
236	0x3e0a7f00	0.13525009
237	0xbdeb13af	-0.11478364
238	0x3cc8ed71	0.024527283
239	0x3d84f68d	0.06492338
240	0xbd1f71eb	-0.038927
241	0x3dccf1d1	0.1000706
242	0x3d832d1e	0.0640509
243	0xbd0e3243	-0.034715902
244	0x3b8583c0	0.0040745437
245	0x3dc86e25	0.097866334
246	0x3d2fd000	0.042922974
247	0xbcd89441	-0.02643788
248	0xbd8a6d98	-0.067591846
249	0x3d68f2a7	0.056872036
250	0xbe012d53	-0.12614946
251	0x3d14c64d	0.036321927
252	0xbccb050d	-0.024782682
253	0xbd9b5a20	-0.07585549
254	0x3d92ed38	0.07174152
255	0x3be3191e	0.0069304844

conv2.bias f4 [16]
0	0xbd5d7855	-0.054069836
1	0x3c6de8c8	0.014520831
2	0xbda405f1	-0.08008946
3	0xbd52dc24	-0.051479474
4	0xbd7da893	-0.061928343
5	0xbd6dac0e	-0.058025412
6	0x3d5657f6	0.05232998
7	0xbda3bd61	-0.079951055
8	0xbd8583b4	-0.06519261
9	0xbc010ef4	-0.0078771
10	0xbd1c9f0e	-0.038237624
11	0x3d7247d4	0.059150532
12	0xbb319a5c	-0.0027100062
13	0x3cf0a27c	0.029374354
14	0xbda3437a	-0.079718545
15	0xbd930d98	-0.07180327

fc1.weight f4 [120, 256]
0	0x3d102ac3	0.03519703
1	0xbd1c0621	-0.038091782
2	0xbd672c96	-0.056439005
3	0x3d288148	0.041138917
4	0xb9ad5e46	-0.0003306737
5	0xbd6d59c2	-0.057946928
6	0x3c12f0f4	0.0089685805
7	0xbd0abf55	-0.033873875
8	0xbd187c2a	-0.037227787
9	0x3cafb498	0.021448418
10	0xbc06b7da	-0.008222545
11	0x3d79dde4	0.061002627
12	0xbd211cd6	-0.03933414
13	0x3ce4efea	0.027946431
14	0xbbc8d5da	-0.0061290087
15	0x3d9c0ca1	0.07619596
16	0xbcd67659	-0.02617948
17	0x3d52fbf7	0.051509824
18	0xbac7b2a6	-0.0015235737
19	0x3d1e274b	0.03861169
20	0xbcab2c0c	-0.020895027
21	0x3d41e5c6	0.04733827
22	0x3d03cce0	0.032177806
23	0x3c979122	0.018501822
24	0xbba9f127	-0.0051862183
25	0xbd473010	-0.04862982
26	0x3d490d9f	0.049085256
27	0xbd179b01	-0.037013058
28	0x39c14cbb	0.00036868997
29	0x3c343666	0.010999298
30	0x3c1ccf3c	0.009570893
31	0x3d463c64	0.048397437
32	0xbca76d28	-0.020437792
33	0x3d2f99df	0.042871352
34	0xbc37f62e	-0.011228127
35	0xbd67a8eb	-0.056557577
36	0x3967ff5a	0.00022125003
37	0xbce3e303	-0.027818209
38	0x3d0ee475	0.034885842
39	0x3ca44016	0.02005009
40	0x3c571e09	0.0131297195
41	0x3c953bbf	0.018216966
42	0x3d82c4a2	0.06385161
43	0xbb362043	-0.0027790226
44	0x3d801c2c	0.06255373
45	0xbba5c559	-0.005058926
46	0x3d294e7e	0.04133462
47	0x3d152d30	0.036420047
48	0x3c8136bd	0.015773172
49	0xbd5a5bd6	-0.053310238
50	0x3d37e2e4	0.044894114
51	0xbc9379d4	-0.018002428
52	0x3c0c2198	0.008552931
53	0xbd6519da	-0.055932857
54	0xbcbc2981	-0.02296901
55	0xbc6c999b	-0.014440919
56	0xbd347a72	-0.044062085
57	0x3ca1d0d1	0.019752892
58	0xbac641fc	-0.0015125866
59	0x3c4f9b15	0.012671252
60	0xbce79421	-0.028268876
61	0xbd3d2bbc	-0.046184286
62	0x3cb3e968	0.021961883
63	0x3a985c04	0.0011624102
64	0xbd0983d9	-0.033573005
65	0xbcbbdab7	-0.02293144
66	0x3d72105c	0.059097633
67	0x3d871d19	0.06597347
68	0x3cc7102b	0.024299702
69	0x3c141103	0.009037259
70	0x3ccddf4d	0.025130892
71	0xbc59d8ce	-0.013296319
72	0x3d07415b	0.033021312
73	0x3d0353ae	0.032062225
74	0x3bb1d917	0.0054274905
75	0xbd84dbfe	-0.06487273
76	0x3d40ff03	0.047118198
77	0xbca5ad48	-0.020224229
78	0xbd4839cc	-0.048883244
79	0xbd2a7e4d	-0.041624356
80	0xbc2e398d	-0.010633838
81	0x3c8b9c38	0.017042264
82	0x3c4d13c8	0.012516923
83	0x3d1f9264	0.03895797
84	0xbc744a7f	-0.014910339
85	0xbd652d4f	-0.055951413
86	0xbd7b7a0d	-0.061395694
87	0xbbc5621d	-0.006023659
88	0xbd493460	-0.049122214
89	0xbc4fac7c	-0.012675401
90	0xbd91366d	-0.07090459
91	0x3c4b0531	0.012391374
92	0x3d2e6c8e	0.042583995
93	0xbc532208	-0.012886532
94	0x3c647854	0.013944704
95	0x3cc52f59	0.024070429
96	0xbc82f97c	-0.015988104
97	0x3d2526ce	0.04032021
98	0xbd1394ae	-0.036030464
99	0x3b11d116	0.002224987
100	0x3d4eee91	0.050520483
101	0x3d366f0a	0.04453949
102	0xbd07e1d7	-0.033174362
103	0x3d694e9b	0.05695973
104	0xbcb664e1	-0.0222649
105	0x3c321ed7	0.010871611
106	0xbccc197e	-0.0249145
107	0x3d56d628	0.05245033
108	0x3b737dce	0.0037153843
109	0xbbc7f34c	-0.0061020013
110	0x3d118f31	0.03553695
111	0xbd4f29b2	-0.050576873
112	0xbd24882f	-0.040168937
113	0xbd19b601	-0.037527088
114	0xbd5994f6	-0.053120576
115	0x3d8380b8	0.064210355
116	0x3cc6473b	0.024203887
117	0xbd62721b	-0.0552846
118	0xbd3c0eb1	-0.04591245
119	0x3d4261c8	0.047456533
120	0xbd6de7cc	-0.058082387
121	0xbd2b45a3	-0.041814458
122	0xbcd56b54	-0.026052155
123	0x3d6e7349	0.058215413
124	0x3d1d0cb9	0.03834221
125	0x3be35964	0.0069381464
126	0xbd66209b	-0.05618344
127	0x3c62be6f	0.013839348
128	0xbc495668	-0.012288667
129	0x3c543d90	0.012954131
130	0xbd75c36a	-0.060000814
131	0x3d3f5785	0.046714325
132	0x3d627dd8	0.055295795
133	0xbc23dcb4	-0.01000135
134	0xbd69382b	-0.05693833
135	0x3c63f9f2	0.013914572
136	0xbd1e1cb9	-0.03860161
137	0x3c1daf1f	0.009624272
138	0x3c5b8ecb	0.013400744
139	0x3c0936b4	0.008374859
140	0x3cc331db	0.023827484
141	0x3d51d2bf	0.051226374
142	0x3d49d7fb	0.04927824
143	0xbd7e16cb	-0.062033456
144	0xbd0fc026	-0.035095356
145	0x3cff98e8	0.031200841
146	0xbd0e73cb	-0.034778398
147	0x3ab84a7f	0.0014060288
148	0x3d10ab48	0.035319597
149	0xbd3c7227	-0.0460073
150	0xbd499401	-0.049213413
151	0xbd6112f3	-0.054949712
152	0xbcd58768	-0.026065543
153	0xbd01f920	-0.031731725
154	0x3cf4a901	0.029865744
155	0x3d056ce6	0.032574557
156	0xbcd66159	-0.026169466
157	0xbcd6e3e3	-0.026231712
158	0x3c217b32	0.009856032
159	0xbc1df9e5	-0.009642099
160	0x3d74e9a7	0.05979314
161	0xbc6e3cd3	-0.014540869
162	0x3cf8243d	0.030290717
163	0x3d10e9d9	0.035379265
164	0x3994036b	0.00028231306
165	0xbd605ec2	-0.054777868
166	0xbd4a00a6	-0.049317025
167	0xbd0fdd12	-0.03512294
168	0x3d47936d	0.04872458
169	0x3d1adcbb	0.03780816
170	0xbd80685f	-0.06269907
171	0xbcf5c91b	-0.030003121
172	0xbd055856	-0.032554947
173	0x3cdbd3c6	0.02683438
174	0x3c1cbf34	0.009567071
175	0x3d4834b6	0.048878394
176	0xbd501717	-0.05080327
177	0xbd6aa0c6	-0.05728223
178	0x3c8b35c4	0.01699341
179	0xbd48e59f	-0.04904711
180	0x39ce5f06	0.0003936218
181	0xbcffa698	-0.031207368
182	0x3a349e83	0.0006890075
183	0xbb18034f	-0.0023195331
184	0xbd039156	-0.032121025
185	0xbcb8c60d	-0.022555375
186	0x3d5f0955	0.05445226
187	0xbd2d7e72	-0.042356916
188	0xbcd9da1d	-0.026593262
189	0xbc412f8c	-0.011791121
190	0x3cbf059c	0.023318104
191	0x3d3e731f	0.046496507
192	0x3d382712	0.044959135
193	0xbd7863de	-0.060642116
194	0xbcc9475f	-0.024570165
195	0xbb6b7b15	-0.0035931517
196	0xbd226b33	-0.039653014
197	0xbd5a5cac	-0.053311035
198	0x3cbae760	0.022815406
199	0x3b94667b	0.004528818
200	0x3d4b4df5	0.049634892
201	0xbcabfa31	-0.020993324
202	0xbd267463	-0.04063834
203	0xbd18cd37	-0.037305083
204	0x3d136c6f	0.035992082
205	0xbcee2ae4	-0.029073186
206	0xbd77722c	-0.060411617
207	0xbd6dab94	-0.058024958
208	0xbd272f13	-0.040816378
209	0x3d6add10	0.057339728
210	0x3d0fe271	0.03512806
211	0x3c0bdef0	0.008537039
212	0x3d197d37	0.03747293
213	0x3d2ebfb6	0.0426633
214	0x392cad26	0.00016467701
215	0x3c0b27bd	0.008493361
216	0x3cbddacd	0.023175621
217	0xbd1f0b7e	-0.03882932
218	0x3c75ab56	0.014994463
219	0x3d4c5e24	0.049894467
220	0x3c4029a2	0.011728676
221	0xbd1d5ed0	-0.0384205
222	0x3b941fb2	0.00452038
223	0x3cfdb008	0.030967727
224	0xbca44972	-0.020054553
225	0x3bf0baca	0.0073464857
226	0xbd96a843	-0.07356312
227	0x3c8417f4	0.016124703
228	0x3cead970	0.028668135
229	0x3c9d5819	0.019207047
230	0xbcd91029	-0.026496964
231	0x3cdb22fe	0.026750084
232	0x3c12fd7d	0.008971569
233	0xbc9b17d3	-0.018932259
234	0x3d0f99b0	0.035058677
235	0x3d518f8c	0.051162288
236	0x3d327f6e	0.043578558
237	0xbcbe0f1e	-0.023200568
238	0xbce7b35a	-0.028283764
239	0x3d498100	0.04919529
240	0xbd10cd82	-0.035352238
241	0x3d0ddbc4	0.034633413
242	0x3cbd0413	0.023073232
243	0xbcb8a3e5	-0.022539089
244	0x3b650e4e	0.0034951153
245	0x3d55c173	0.05218644
246	0xbae26f3c	-0.0017275582
247	0x3d53ed13	0.051739763
248	0xbd219aec	-0.039454386
249	0xbb526aa3	-0.0032107017
250	0x3c85f9bf	0.01635444
251	0xbd19d83c	-0.037559733
252	0x3d2fe59f	0.042943593
253	0xbd3bc7b1	-0.045844737
254	0xbae19e7e	-0.0017213372
255	0xbb530856	-0.0032201014

fc1.bias f4 [120]
0	0xbd447023	-0.047958504
1	0xbacd0d5f	-0.0015644244
2	0x3d2b52f0	0.041827142
3	0x3c9cdc33	0.019147968
4	0xbd2a8cfd	-0.041638363
5	0xbd05aa72	-0.032633252
6	0x3d0700c7	0.032959726
7	0x3d9a3668	0.075299084
8	0x3cb27f6e	0.021789279
9	0xbd0e9d45	-0.034817953
10	0x3d69e0ac	0.05709903
11	0xbd527a9b	-0.051386457
12	0xbd836744	-0.06416181
13	0xbd47cad5	-0.04877742
14	0xbd6d9b13	-0.05800922
15	0xbd47a25d	-0.048738826
16	0xbae238eb	-0.0017259395
17	0x3c0cd411	0.008595482
18	0x3c83873a	0.016055692
19	0xbd05e3d4	-0.032687977
20	0x3cca00af	0.02465853
21	0x3c10b257	0.008831582
22	0x3ca1b79f	0.019740878
23	0xbce7fbfa	-0.028318394
24	0xbc49f8d5	-0.012327393
25	0x3cdadb11	0.026715787
26	0x3c2bbdff	0.01048231
27	0x3d1fbdab	0.03899924
28	0xbd2dbc32	-0.042415805
29	0xbcdb608f	-0.026779441
30	0x3d11c21c	0.035585508
31	0xbd10b570	-0.035329282
32	0xbd631fe5	-0.05545034
33	0x3c260e94	0.010135312
34	0x3d6b90e0	0.05751121
35	0xbbe01f6c	-0.0068396833
36	0x3d3206f0	0.043463647
37	0x3c88891d	0.016666943
38	0x3ce9dc39	0.028547393
39	0xbc8928c7	-0.016743077
40	0xbcc17163	-0.023613637
41	0x3d1bf989	0.038079772
42	0xba7b3ef0	-0.00095842686
43	0xbd113062	-0.035446532
44	0x3d1b95ab	0.03798453
45	0xbd4580ca	-0.048218526
46	0x3d5462f9	0.0518522
47	0xbd1a3b2b	-0.037654083
48	0x3d4b5366	0.04964008
49	0x3b5dc0b5	0.0033836786
50	0xbd4a250f	-0.049351748
51	0xbce9b2e3	-0.028527683
52	0xbd226057	-0.039642658
53	0x3b246a2f	0.0025087704
54	0xbd19d216	-0.03755387
55	0x3c5b06ec	0.0133683495
56	0x3a949dba	0.001133851
57	0xb9be60f3	-0.00036311857
58	0xbd60c7d8	-0.054878086
59	0x3d8720c1	0.06598044
60	0x3d9fdbb3	0.07805576
61	0x3d41ba4c	0.047296807
62	0x3d404c07	0.046947505
63	0x3d272ecc	0.040816113
64	0x3ceefe05	0.02917386
65	0x3c05c478	0.008164518
66	0x3d4d5610	0.050130904
67	0xbb7f00c8	-0.0038910378
68	0xbd726fdb	-0.059188705
69	0xbc531a9f	-0.012884765
70	0xbd967624	-0.07346752
71	0x3c2cb08c	0.010540139
72	0x3b61d509	0.0034459254
73	0x3cf7c662	0.030245963
74	0x3c7456a2	0.014913233
75	0xbd54af60	-0.051925063
76	0xbd5f0af3	-0.0544538
77	0x3c71f780	0.014768481
78	0xbc391df8	-0.011298649
79	0x3cfa7c2a	0.030576784
80	0x3d825fcb	0.06365927
81	0xbd160c43	-0.036632787
82	0xba13aae6	-0.0005633071
83	0x3c87b39b	0.016565135
84	0xbcb4fc0f	-0.022092847
85	0x3cafca1f	0.021458684
86	0x3cd18e43	0.025580531
87	0x3d19fae6	0.03759279
88	0xbc560b00	-0.013064146
89	0x3a3a215f	0.00071003096
90	0x3cffd025	0.03122718
91	0xbd557414	-0.052112654
92	0xbbfbde91	-0.007686444
93	0x3d11085d	0.035408366
94	0xbd66cd94	-0.0563484
95	0x3ceff670	0.029292315
96	0xbd0f633c	-0.035006747
97	0x3d248327	0.04016414
98	0x3d6195a6	0.055074356
99	0xbd6a371b	-0.05718146
100	0x3b2e9e77	0.0026644745
101	0x3d0d4452	0.034488983
102	0xbba06385	-0.004894676
103	0xbcf86b82	-0.030324701
104	0x3c4f666c	0.012658697
105	0xbd3f95e9	-0.046773825
106	0x3d6f48da	0.058419086
107	0xbd233488	-0.03984502
108	0xbd5ff9c9	-0.054681573
109	0xbd6dae2d	-0.058027435
110	0x3d0d7c77	0.034542527
111	0x3b2dcdef	0.002652045
112	0xbc890475	-0.016725758
113	0x3cdea42f	0.027177898
114	0x3ce9c89b	0.028538039
115	0x3d344e47	0.044019964
116	0x3d902822	0.07038905
117	0x3bdd56af	0.0067547183
118	0x3d4a229f	0.049349423
119	0xbd1bde6b	-0.03805391

fc2.weight f4 [84, 120]
0	0x3d1f46b1	0.038885776
1	0x3d4ccb5b	0.049998622
2	0xbd682008	-0.056671172
3	0xbda46ec7	-0.080289416
4	0xbd4c395b	-0.049859386
5	0xbd9aed51	-0.07564796
6	0xbd2b9a04	-0.041894928
7	0xbd6756bf	-0.056479212
8	0xbcf1ac17	-0.029501004
9	0xbd93877f	-0.07203578
10	0x3c3d34c7	0.011548228
11	0x3d8d5bbd	0.06902263
12	0x3ce250a8	0.02762635
13	0xbcaba7ab	-0.020953974
14	0x3d9e372f	0.07725369
15	0xbdb7f42e	-0.089821205
16	0xbc20f24f	-0.009823396
17	0xbda234db	-0.07920238
18	0xbd8b1826	-0.06791715
19	0xbce359d3	-0.027752792
20	0x3dabe5fe	0.08393477
21	0xbd9a8aac	-0.07545981
22	0x3d9b63ac	0.0758737
23	0x3d03865d	0.03211056
24	0x3c89a715	0.016803304
25	0xbda757e9	-0.081710644
26	0x3d925866	0.07145767
27	0x3d1a553c	0.037678942
28	0xbd4a0b96	-0.049327455
29	0xbd85105e	-0.064972624
30	0xbd016dac	-0.031598732
31	0xbd768ac5	-0.060190935
32	0x3da094bb	0.07840868
33	0x3c378e41	0.01120335
34	0xbd25d865	-0.040489573
35	0x3d33cf4f	0.043898877
36	0xba1b12f6	-0.0005915606
37	0x3ccde2f4	0.025132634
38	0xbcb66ebf	-0.022269605
39	0xbccb8c07	-0.024847044
40	0x3d85a57d	0.06525705
41	0xbd0e1a7c	-0.034693226
42	0x3c2e1f26	0.010627544
43	0xbb21c641	-0.002468482
44	0xbd5d5a55	-0.054041225
45	0xbc1a83fd	-0.0094308825
46	0xbcf36912	-0.029713187
47	0x3bdb8731	0.0066994657
48	0x3ca0e287	0.019639267
49	0x3d49fee6	0.049315356
50	0x3acbe7dc	0.001555677
51	0x3ca7f72e	0.020503607
52	0x3d921b7f	0.07134151
53	0xbcddba84	-0.027066477
54	0xbd953add	-0.07286618
55	0x3d87ead8	0.0663659
56	0xbdae1c08	-0.0850144
57	0x3d5a628c	0.053316638
58	0x3da1a2fe	0.078924164
59	0xbd510848	-0.05103329
60	0xbbb8cb35	-0.0056394585
61	0xbda649c2	-0.08119537
62	0x3d8f5969	0.069994755
63	0xbda2f60b	-0.07957085
64	0xbc566f2f	-0.013088032
65	0x3cd1a759	0.025592493
66	0x3bb21360	0.0054344386
67	0x3c06bade	0.008223264
68	0xbd1ab014	-0.037765577
69	0x3d878ee9	0.06619055
70	0xbcaab4c1	-0.020838143
71	0xbcd791b6	-0.026314598
72	0x3d7be34d	0.061496068
73	0xbd1113a2	-0.035419114
74	0xbc54f4f9	-0.012997859
75	0x3da2d180	0.07950115
76	0xbd5135d0	-0.05107671
77	0x3db39feb	0.08770736
78	0xbd45ae37	-0.048261847
79	0xbcc23cec	-0.02371069
80	0xbda6a7a5	-0.081374444
81	0xbcc829a7	-0.024433924
82	0xbd1e6e1c	-0.038679227
83	0xbd9ea3a8	-0.07746059
84	0xbd8c83f1	-0.06861103
85	0x3d99a571	0.075022586
86	0xbd3d93b6	-0.046283446
87	0xbdb57656	-0.088604614
88	0x3d00f444	0.03148295
89	0x3c53fbf8	0.012938492
90	0xbc10c3f4	-0.008835781
91	0x3b0977eb	0.0020976018
92	0x3d3de734	0.04636307
93	0x3d695208	0.056962997
94	0x3dbb8ade	0.09157346
95	0x3b9a4d79	0.0047089425
96	0x3d025b4e	0.031825356
97	0x3d9a0c0c	0.07521829
98	0xbcea9bd0	-0.02863875
99	0xbd923d27	-0.0714057
100	0xbd8853c2	-0.066566005
101	0xbdaad61f	-0.083416216
102	0xbd89afa7	-0.06722956
103	0xbca23136	-0.019798856
104	0x3d89f63a	0.06736417
105	0xbd8190b4	-0.06326428
106	0xbdb33766	-0.08750801
107	0xbce98f1c	-0.028510623
108	0xbc05ae6f	-0.008159264
109	0x3d6e78f7	0.05822083
110	0xbcea3736	-0.02859078
111	0xbd58c90e	-0.052926116
112	0x3af579c1	0.0018728302
113	0xbc9a73b2	-0.018853996
114	0xbd977fec	-0.07397446
115	0xbd8fd293	-0.07022586
116	0xbd3ccda0	-0.046094537
117	0xbd88fbd4	-0.066886574
118	0xbd1dac17	-0.038494196
119	0xbcc43f0d	-0.023955846
120	0xbd91f4b1	-0.07126749
121	0x3c1447fc	0.009050366
122	0x3e0ddf10	0.13854623
123	0xbd98be28	-0.074581444
124	0x3d19219f	0.03738558
125	0xbdc3176c	-0.09525952
126	0x3c20f0fb	0.009823079
127	0x3d76d39f	0.06026041
128	0x3db07328	0.08615714
129	0x3d301d10	0.042996466
130	0xbd4bfe35	-0.049802978
131	0xbc422677	-0.011849991
132	0xbdea93fc	-0.11454007
133	0xbca49eb5	-0.020095209
134	0xbd64e388	-0.055881053
135	0x3d0292d5	0.03187831
136	0x3d7eb41e	0.062183492
137	0x3cdb44cb	0.026766201
138	0x3ccc1d31	0.024916263
139	0x3cdd91b2	0.027047012
140	0xbbdeb1f5	-0.0067961165
141	0x3d79500f	0.060867365
142	0x3d2e7dde	0.042600505
143	0x3d38064b	0.044927876
144	0x3d86043b	0.06543776
145	0x3dca7ee0	0.09887481
146	0xbcafd01a	-0.021461535
147	0x3c256ffc	0.0100975
148	0x3d3a82ec	0.045535013
149	0x3d4a164a	0.049337663
150	0xbd8144a3	-0.063119195
151	0xbba8451f	-0.005135193
152	0x3d9af383	0.075659774
153	0xbd9ca665	-0.07648925
154	0xbb816add	-0.0039495067
155	0xbd8f486e	-0.06996237
156	0x3d378832	0.04480762
157	0x3d54a208	0.051912338
158	0x3dafc544	0.08582547
159	0xbd5d9c43	-0.0541041
160	0x3d8830a0	0.066498995
161	0x3d47a0b8	0.048737258
162	0xbd64756c	-0.055776045
163	0x3d60b93a	0.054864146
164	0x3d0249f7	0.03180882
165	0xbd98597c	-0.07438943
166	0xbc7ebf06	-0.015548473
167	0x3c83721f	0.016045628
168	0xbd893814	-0.06700149
169	0xbcf8214a	-0.030289311
170	0xbd18c120	-0.037293553
171	0xbda9d3f2	-0.082923785
172	0xbe003d9f	-0.12523507
173	0x3d83ff68	0.06445199
174	0xbd4d3844	-0.050102487
175	0xbb90554e	-0.0044047004
176	0x3bb8cfd3	0.005640009
177	0x3d9651d5	0.07339827
178	0x3deb2e15	0.11483399
179	0x3cff928a	0.031197805
180	0xbc8d9c2e	-0.017286386
181	0xbd0322a0	-0.032015443
182	0x3d6ba48a	0.057529964
183	0xbce18957	-0.027531309
184	0x3dc8ed86	0.09810929
185	0x3db42f91	0.08798135
186	0x3cac0723	0.020999497
187	0xbc6a899b	-0.014315034
188	0xbd3d7ff1	-0.046264593
189	0x3d88ff4b	0.06689318
190	0xbd10a71a	-0.03531561
191	0x3c0a4442	0.0084391255
192	0x3d52d2a0	0.0514704
193	0xbd9afc6e	-0.075676784
194	0xbc3027dd	-0.010751692
195	0xbd92dec3	-0.07171395
196	0x3d83ddf4	0.064388186
197	0xbdc406ce	-0.095716104
198	0xbd84a5dd	-0.064769484
199	0x3d3acca3	0.045605313
200	0xbdc629df	-0.09675955
201	0x3d1c4193	0.038148474
202	0x3db4d84c	0.08830318
203	0xbda134a7	-0.07871371
204	0x3e071d7d	0.13194843
205	0x3cc11118	0.023567721
206	0x3d9024a0	0.07038236
207	0xbc379000	-0.011203766
208	0x3d38e4ef	0.045140203
209	0x3d10d04b	0.035354894
210	0x3d1f0da1	0.038831357
211	0x3c17d14e	0.009266211
212	0xbda3e469	-0.0800255
213	0xbc47a13b	-0.012184436
214	0xbd846a7d	-0.064656235
215	0x3d89eee5	0.06735019
216	0x3d7fd670	0.062460363
217	0x3d99a976	0.07503025
218	0x3d332b7e	0.04374265
219	0x3cf65757	0.030070944
220	0x3dba9bbd	0.09111736
221	0x3ba5d074	0.00506025
222	0x3c1cf8e5	0.009580825
223	0xbdf9e2f2	-0.122014895
224	0xbdae407d	-0.08508394
225	0xbca1cc5f	-0.019750772
226	0x3c5c1f1a	0.01343515
227	0x3e06c579	0.13161267
228	0x3de06471	0.10956658
229	0x3d1d6066	0.03842201
230	0x3cd6efc0	0.026237369
231	0x3cec827b	0.028870812
232	0xbd92a9a8	-0.071612656
233	0xbaa02225	-0.0012217207
234	0xbd1a1390	-0.037616313
235	0x3c84c049	0.01620497
236	0xbc1876f1	-0.009305702
237	0xbcd30aa6	-0.025761914
238	0xbde8ac66	-0.113610074
239	0xbd989991	-0.074511655
240	0xbc859650	-0.016307026
241	0x3d3aa02a	0.0455629
242	0xbc8463a9	-0.016160803
243	0x3992518c	0.00027908047
244	0x3dad341f	0.08457207
245	0x3d3be937	0.045876708
246	0x3c1831a8	0.009289183
247	0xbd99a6b4	-0.07502499
248	0xbcd156ac	-0.025554024
249	0xbd4e4993	-0.050363135
250	0xbd79fb93	-0.061030935
251	0x3cf1651e	0.029467162
252	0x3d7888aa	0.060677208
253	0xbc2d13ca	-0.0105638
254	0x3d983991	0.07432855
255	0xbd86099e	-0.06544803

fc2.bias f4 [84]
0	0xbdabaa68	-0.08382112
1	0xbd85df41	-0.06536723
2	0xbd48756d	-0.04894011
3	0xbc873df0	-0.016509026
4	0x3e1e1508	0.1543771
5	0x3da4e5f4	0.080516726
6	0xbce9f1dc	-0.02855771
7	0x3d3fe6d8	0.04685101
8	0xbd74a1ab	-0.05972449
9	0x3d81c2fd	0.06336019
10	0xbab05700	-0.0013453662
11	0xbd66ddc2	-0.05636383
12	0xbd2334a4	-0.039845124
13	0x3dd07504	0.10178569
14	0x395274bb	0.00020070646
15	0xbd45c40e	-0.048282675
16	0x3d6f5472	0.058430143
17	0x3d2e70ae	0.04258793
18	0x3d1b2dc4	0.037885442
19	0xbc626672	-0.01381837
20	0x3d4069bf	0.046975847
21	0xbb71985f	-0.0036864502
22	0x3e04b974	0.1296137
23	0x3d7830f4	0.06059356
24	0xbceb96c4	-0.028758414
25	0xbd01f5d7	-0.03172859
26	0xbd9d8217	-0.07690828
27	0xbd6dea90	-0.058085024
28	0xbc272de5	-0.010203813
29	0x3d975e1e	0.07390998
30	0xbd4215c1	-0.047384027
31	0xbcac869d	-0.021060282
32	0x3db1bdab	0.086787544
33	0xbcb87cce	-0.022520449
34	0x3d9f0f49	0.07766587
35	0x3d210a84	0.03931667
36	0x3ccb2c05	0.024801264
37	0xbc65bd4f	-0.0140221855
38	0x3d20e9fb	0.03928564
39	0x3d19c7fb	0.03754423
40	0x3d7407a2	0.05957759
41	0x3db87967	0.09007531
42	0x3cbb1a76	0.022839766
43	0x3dbff46c	0.09372792
44	0xbdc5d270	-0.096592784
45	0x3d4a5488	0.04939702
46	0xbd1d8873	-0.038460206
47	0xbd79dfd4	-0.061004475
48	0x3d73ad88	0.059491664
49	0x3d5a9d62	0.05337275
50	0x3d62219a	0.055207826
51	0xbb852c1e	-0.004064097
52	0x3d51cae7	0.051218893
53	0x3d5d7ea2	0.054075845
54	0x3da006b3	0.07813778
55	0x3d3419a5	0.04396977
56	0xbd41bae5	-0.047297377
57	0x3c9979fd	0.018734926
58	0x3c4bbc03	0.012434962
59	0x3a7b04ed	0.0009575624
60	0x3d5c2a40	0.05375123
61	0x3c22a641	0.009927333
62	0xbc93954a	-0.018015523
63	0xbda04c3d	-0.07827041
64	0x3e06b8b2	0.13156393
65	0xbd9a220f	-0.075260274
66	0xbd4755d1	-0.048665825
67	0xbda63d55	-0.08117167
68	0xbd4f6bbf	-0.050639864
69	0x3dad1b7f	0.0845251
70	0xbd8df855	-0.06932131
71	0x3d2bb500	0.041920662
72	0xbdaedc44	-0.08538106
73	0xbd5928a3	-0.05301727
74	0xbc239eac	-0.009986561
75	0xbd998ded	-0.07497773
76	0x3dd87d11	0.105707295
77	0xbd8d1b24	-0.06889942
78	0x3da046ec	0.07826027
79	0xbb4be3ec	-0.0031111194
80	0xbcd8ad0b	-0.0264497
81	0xbcb88f14	-0.022529162
82	0x3d7670d9	0.060166214
83	0x3db419d2	0.08793987

fc3.weight f4 [10, 84]
0	0xbd759851	-0.059959713
1	0x3e0bed2f	0.13664697
2	0xbdb96302	-0.09052087
3	0xbd5e28df	-0.054238196
4	0xbe3066c7	-0.17226706
5	0x3e1d6919	0.15372123
6	0xbd705555	-0.05867513
7	0xbdad3249	-0.08456857
8	0xbe3dae94	-0.18523628
9	0xbd71f67b	-0.059072953
10	0x3de7e599	0.11323089
11	0xbd0bb0c5	-0.034104127
12	0x3dd5a923	0.10432651
13	0xbe588fc9	-0.211486
14	0xbe3a933f	-0.18220232
15	0x3cfada5b	0.030621698
16	0x3c80eb24	0.015737124
17	0xbcbc2779	-0.02296804
18	0xbdfea17b	-0.12433144
19	0xbe0a1fc1	-0.13488676
20	0x3de9c567	0.11414605
21	0xbda546bd	-0.08070133
22	0xbd92bc9b	-0.0716488
23	0xbdca58f4	-0.09880248
24	0x3d3bbaad	0.045832325
25	0xbe14ad33	-0.14519195
26	0x3e4a9e1e	0.1978688
27	0x3d715c93	0.058926176
28	0xbd95a73d	-0.07307289
29	0xbd5ae790	-0.05344349
30	0xbdad11d9	-0.0845067
31	0xbe291cff	-0.16514967
32	0x3e019650	0.12654996
33	0x3da19e37	0.07891505
34	0x3e409dce	0.18810198
35	0x3e403ad2	0.18772438
36	0x3e217479	0.15767087
37	0x3db19307	0.08670621
38	0x3e0182a9	0.12647499
39	0xbe32655b	-0.17421477
40	0x3e925902	0.28583533
41	0x3dfe85b6	0.12427847
42	0xbdfeaa29	-0.12434799
43	0xbe2a81d0	-0.16651082
44	0x3d851a17	0.06499117
45	0x3d86c05c	0.065796584
46	0x3c91599a	0.01774292
47	0x3d0a2248	0.0337241
48	0xbd9a7db2	-0.07543506
49	0xbdeb53b6	-0.11490576
50	0x3de4374c	0.111433595
51	0xbbe0d7c3	-0.0068616583
52	0x3e162c62	0.14665368
53	0xbe23172e	-0.15926811
54	0xbdae77e0	-0.08518958
55	0xbd8f3227	-0.06991988
56	0xbcdbf2ed	-0.026849234
57	0xbcf0974a	-0.029369015
58	0xbe545f51	-0.20739485
59	0x3e7e1cdb	0.24815695
60	0x3d559d15	0.05215176
61	0xbdbca7e1	-0.09211708
62	0xbdc48287	-0.095952086
63	0xbcb05852	-0.02152649
64	0x3e175b23	0.1478086
65	0x3df150ba	0.117829755
66	0x3da5f2d4	0.081029564
67	0x3de8799e	0.11351322
68	0x3c528a58	0.0128503665
69	0x3e8dc2e8	0.27687764
70	0xbde0bcca	-0.10973509
71	0x3e13d6a0	0.14437342
72	0xbdc9d8a6	-0.098557755
73	0xbdbdc45b	-0.092659675
74	0xbe4b9bc7	-0.19883643
75	0xbdc190a6	-0.094514176
76	0xbdbc53c8	-0.091956675
77	0x3d9d0597	0.07667082
78	0xbbd56cc3	-0.0065132095
79	0xbe10d952	-0.14145401
80	0x3de3ef0e	0.111295804
81	0xbe485683	-0.19564252
82	0xbdf45da4	-0.11931923
83	0xbdf48c60	-0.11940837
84	0xbc48dd05	-0.012259726
85	0xbe42e2f4	-0.19031888
86	0x3de6bb5e	0.11266206
87	0x3c8b4178	0.016998991
88	0x3e920f3f	0.28527257
89	0xbd48993d	-0.048974264
90	0x3df8a54c	0.12140903
91	0x3eaa51c2	0.332655
92	0x3debfd66	0.11522941
93	0x3d7a7252	0.06114418
94	0xbe58eaa1	-0.21183254
95	0x3d6d99b4	0.05800791
96	0xbda97711	-0.08274663
97	0xbe54fc15	-0.20799287
98	0x3e00d351	0.12580611
99	0x3e009f9d	0.12560888
100	0xbdafeb8e	-0.0858985
101	0xbe6823a7	-0.2266985
102	0xbc8b0b7b	-0.016973248
103	0xbcbe8ed6	-0.023261469
104	0x3d6e53a8	0.05818525
105	0xbddcdd94	-0.1078445
106	0x3e4342c7	0.19068442
107	0x3db8f47c	0.09031007
108	0xbe1c180f	-0.15243553
109	0x3cb8f9d0	0.022580057
110	0xbddc2b86	-0.10750489
111	0x3e0570ca	0.13031307
112	0xbdd86616	-0.10566346
113	0xbcab7c10	-0.020933181
114	0xbe04f86a	-0.12985387
115	0x3e177844	0.14791971
116	0xbda5c3ae	-0.080939636
117	0x3d7a762c	0.061147854
118	0x3db8d763	0.09025457
119	0xbe04f2cf	-0.12983249
120	0x3ca34889	0.019932048
121	0x3d91aff4	0.071136385
122	0x3e245427	0.16047727
123	0xbe477129	-0.19476761
124	0xbe941a1b	-0.28926167
125	0x3e810d3f	0.25205418
126	0x3e7a89e2	0.2446666
127	0xbd245d18	-0.040127844
128	0xbcb5e2c7	-0.022202862
129	0xbe33813f	-0.17529772
130	0xbe334201	-0.17505647
131	0x3d05ecec	0.03269665
132	0xbd8f93f8	-0.07010645
133	0x3e2eacf6	0.17058167
134	0xbceb2d0a	-0.028708
135	0x3ca80448	0.020509854
136	0x3d4b41c1	0.049623255
137	0xbd399194	-0.04530485
138	0x3e5c6009	0.2152101
139	0x3c918a9f	0.017766295
140	0xbb82a69d	-0.003987147
141	0xbdfc5361	-0.12320591
142	0x3e5733da	0.21015874
143	0xbda755aa	-0.08170636
144	0xbe27c828	-0.16384947
145	0xbcc7c463	-0.024385637
146	0x3d62a2a0	0.055330873
147	0x3e2d6a13	0.16934995
148	0x3e39633a	0.18104258
149	0xbdc1bfea	-0.09460433
150	0x3b8217cc	0.003970122
151	0xbbfe0a7e	-0.0077527156
152	0xbe4ff915	-0.20309861
153	0xbce9eb91	-0.02855471
154	0xbd7d1ca6	-0.0617949
155	0xbd576c5e	-0.05259358
156	0x3da1bd7d	0.0789747
157	0xbe177c8b	-0.14793603
158	0xbd660fd3	-0.056167435
159	0x3d953ce9	0.07287008
160	0x3e75f290	0.24018312
161	0x3d68d8f6	0.056847535
162	0x3dca9d6d	0.09893308
163	0xbe278f2a	-0.16363207
164	0xbb6f3684	-0.0036501
165	0x3cff615d	0.031174356
166	0xbcd92b6c	-0.026509963
167	0xbe5cd2b2	-0.21564749
168	0xbd93c9e8	-0.07216245
169	0xbe1c9d86	-0.15294465
170	0x3c56f8c0	0.01312083
171	0x3da1b486	0.0789576
172	0xbe849e28	-0.25901914
173	0x3dea9065	0.11453322
174	0x3e211879	0.15731992
175	0x3d8361a6	0.06415109
176	0xbe38ca35	-0.18045886
177	0xbe05b1c6	-0.13056096
178	0xbdfcf4ad	-0.12351356
179	0x3d77a157	0.0604566
180	0xbe56ac9e	-0.20964286
181	0x3e0c490c	0.1369974
182	0xbc7b2ad1	-0.015330032
183	0x3d9f9388	0.07791811
184	0xbb9f1b23	-0.00485553
185	0x3cc1f99c	0.023678593
186	0x3d9839f8	0.07432932
187	0x3d4f26b3	0.050574016
188	0x3e06b5ab	0.13155238
189	0xbdd83e36	-0.10558741
190	0xbdafcfdc	-0.08584568
191	0x3d9fcee3	0.078031324
192	0xbe3b6814	-0.18301421
193	0xbd47f03b	-0.048813086
194	0xbd5052d1	-0.05086023
195	0x3e04d9bc	0.12973684
196	0x3e2b6dd5	0.16741116
197	0x3d41e385	0.04733612
198	0xbde82ea5	-0.11337022
199	0x3e29ca7d	0.1658115
200	0x3eb2dd8a	0.34934646
201	0xbdd0dc29	-0.10198242
202	0xbe22754b	-0.15865056
203	0x3ca22e46	0.019797456
204	0x3d58bee1	0.05291641
205	0x3ca65e04	0.020308502
206	0x3d449861	0.047996882
207	0xbcc3e6cb	-0.023913762
208	0x3dc1b8a4	0.094590455
209	0xbd1ff549	-0.03905228
210	0xbd599dd1	-0.05312902
211	0x3d893469	0.066994496
212	0x3da04a1d	0.07826636
213	0xbe41fb90	-0.1894362
214	0x3e7a4255	0.24439366
215	0x3c364dd4	0.011126954
216	0xbd341959	-0.043969486
217	0x3e50fc15	0.20408662
218	0xbe1c56df	-0.15267514
219	0x3d74c57b	0.059758645
220	0x3dc2f625	0.095196046
221	0xbe4bcb4f	-0.19901775
222	0x3c816491	0.015795024
223	0x3ddcb2fc	0.10776326
224	0xbdb2afb8	-0.08724922
225	0xbe3f67ac	-0.18691891
226	0x3dddf027	0.10836821
227	0x3cd9dd13	0.026594674
228	0xbd79c644	-0.060980096
229	0x3d9e5361	0.07730747
230	0xbdaa5207	-0.08316427
231	0x3e0ddd7e	0.13854024
232	0xbe67ce10	-0.226372
233	0x3d659a4a	0.056055345
234	0x3d00d040	0.031448603
235	0xbe0507f6	-0.12991318
236	0x3e579d22	0.21056035
237	0x3e58e9ee	0.21182987
238	0xbdcec252	-0.100956574
239	0xbe434eae	-0.19072983
240	0xbb2edd02	-0.0026682024
241	0xbe11e548	-0.1424762
242	0xbe06002f	-0.13086008
243	0x3d89da00	0.06731033
244	0x3b190df2	0.002335426
245	0x3d18450e	0.03717523
246	0x3c9aeefc	0.018912785
247	0xbd3b3c43	-0.045711767
248	0x3e0868b4	0.13321191
249	0x3ce2dbad	0.02769264
250	0x3c1473f4	0.0090608485
251	0x3d9bba32	0.07603873
252	0x3dcac5c3	0.09901001
253	0x3d24c5c4	0.040227666
254	0x3bc3f307	0.005979899
255	0xbd09e3a2	-0.033664353

fc3.bias f4 [10]
0	0x3d59f3eb	0.053211134
1	0x3daab502	0.08335306
2	0xbb219932	-0.0024657962
3	0xbd096f80	-0.0335536
4	0xbcae5355	-0.02127997
5	0x3cab91e9	0.020943599
6	0xbd982935	-0.074297346
7	0x3d2157af	0.039390262
8	0x3d91318b	0.07089528
9	0x3ce79d6b	0.028273305
