src/artifacts/checkpoints/round_003.pt (torch, 181669 bytes, 10 tensors)

conv1.weight f4 [6, 1, 5, 5]
00000000: 2a44 7b3d 65d7 90bd 1c35 f1bd ca21 903d
00000010: a91a 26be b6b1 a5bd 34be 813e 05e7 383e
00000020: 84fd 913d 7a0e e73c 6547 1abe 9075 723d
00000030: 8920 2c3c afd5 0c3d 9eec 613e 1a3a d2bc
00000040: e60e adbd f0d4 9dbd d819 93bd c241 36be
00000050: a766 dcbd 9308 d5ba 28e0 04be e59f 16be
00000060: a570 003d 8013 99be d245 36be 46f3 673e
00000070: 64c9 9c3e 47ef 803e a4bc fdbc e0fc b23e
00000080: d2bf b43e 7b60 7bbc 3e15 683d 60a8 bb3e
00000090: 2566 e33e dcc7 99bd b2f6 853c ebe0 72be
000000a0: 55bd ab3d 2d3e 0b3c dc4e 2abe ce20 43bd
000000b0: 7bd9 84be aed7 193d 51b2 72bc 69fb 6abe
000000c0: 5a87 9cbe dd07 7e3d c781 dfbc 06e6 9f3d
000000d0: 9d2b 803e c41f b23e 5e20 9f3e 4e93 7f3d
000000e0: ca51 a83e bffd 053e 03f5 033e 30f8 43be
000000f0: b735 353c 2ad9 313e e806 72bd 6804 eabd
00000100: cd3e 9dbd e019 253e 1950 19be c555 42bd
00000110: 0813 58be 737c 0c3e b61c 93bd 2097 a3bd
00000120: e48a 36be 8683 1bbe 7be7 0e3e dd1b 903e
00000130: f02a 993e b2f0 a1bd ca43 a9be d90e acbe
00000140: 912a e43e 093c f83d 3ed9 18be c4d1 d9be
00000150: ff69 36be e8c9 033f ee38 b93e 0852 083d
00000160: e152 6cbe 41a4 bcbd 363c b73e c53d b53e
00000170: a5a0 173d eb3f 973c 4072 65b8 402e 863d
00000180: 91d4 743e 8220 753e 7c85 7c3c 0c5b f5bd
00000190: 7d5d 913e a23c 3f3e 954e c53e 01c0 c93e
000001a0: 0e1e b03e 71b2 07be 8b75 373d cbbf 173e
000001b0: b580 cc3e 9e20 d33e 8f54 9dbe e48e 94be
000001c0: 0795 0ebe 9c7d a9be 0b4c 0dbd b55e 66be
000001d0: 163f 6cbe beeb 4fbe 4be8 b6be 4070 34be
000001e0: e3ef 223e 0d24 91be be81 98be e7d6 f0bd
000001f0: 784d 6bbc 4bb2 403d 4cda 44be 1e0c f03d
00000200: 9c33 83be 1fc6 dbbd 0ead 5d3e a630 f83d
00000210: 64a0 82bd 4c6d 413c 6f4f 9bbd bdfb b13c
00000220: 919f 403e e0a3 a73e 7af3 6b3d f3ad 0f3c
00000230: 0b5a febd ba88 3dbe 58fc ce39 f43b 713e
00000240: 1a39 0dbd ae34 f83c 05e7 883d 488a f4bd
00000250: 747c 393a d36f 0d3e
0.061344303 -0.07072333 -0.11777708 0.07037695 -0.16221108 -0.08090536 0.25340426 0.18056877
0.071284324 0.028205145 -0.15066297 0.059194148 0.010505804 0.034383472 0.22062919 -0.02566247
-0.08450107 -0.0770663 -0.07182664 -0.17798522 -0.10761767 -0.0016253166 -0.12976134 -0.14709432
0.031357426 -0.2989769 -0.17800072 0.22651395 0.306224 0.25182554 -0.03097374 0.34958553
0.35302597 -0.015342827 0.056660883 0.36651897 0.44413868 -0.07508823 0.016352985 -0.23718612
0.083857216 0.008498711 -0.16631645 -0.047638707 -0.25947174 0.037559204 -0.014813022 -0.22947468
-0.30572015 0.062019218 -0.027283562 0.07807545 0.25033274 0.3478986 0.31079382 0.06239634
0.328749 0.13085078 0.12886433 -0.19137645 0.01106017 0.17367998 -0.059088618 -0.11426622
-0.07677994 0.16123152 -0.14971961 -0.047445077 -0.2110101 0.13719349 -0.071832106 -0.07987809
-0.1782642 -0.15186891 0.1395549 0.28146258 0.2991557 -0.07907237 -0.3305953 -0.33605078
0.44563726 0.12120826 -0.14926621 -0.4254285 -0.17813872 0.5147996 0.36176246 0.033281356
-0.23078491 -0.092110164 0.35788125 0.3539869 0.037018437 0.018463096 -5.470426e-05 0.0655179
0.23909213 0.23938182 0.0154126845 -0.119802564 0.28391638 0.18675473 0.38536516 0.394043
0.3439793 -0.13251664 0.044789832 0.14819257 0.39941946 0.41235822 -0.30728576 -0.29015267
-0.13924037 -0.33103645 -0.03449635 -0.22497065 -0.2307094 -0.20304772 -0.357241 -0.17620945
0.15911822 -0.28347817 -0.29786485 -0.11759739 -0.014361732 0.047045033 -0.19223899 0.11721061
-0.25625312 -0.10731148 0.21648046 0.12118654 -0.06378248 0.011805844 -0.0758351 0.021726483
0.1881087 0.32742214 0.057605244 0.0087695 -0.12419518 -0.18509188 0.00039479393 0.23558027
-0.034478284 0.030298557 0.066846885 -0.119404376 0.0007075735 0.13812189

conv1.bias f4 [6]
00000000: b6c9 37be da2a 2f3d eaf4 313e 6383 30be
00000010: 6ef2 243d 7332 21be
-0.1794804 0.042765476 0.17378584 -0.1723762 0.04027026 -0.15741901

conv2.weight f4 [16, 6, 5, 5]
00000000: 0c0a e0ba 9f75 10bc d6cc a73d 2988 8a3d
00000010: 1815 443d e54c 953d db67 9ebd 51a2 8bbd
00000020: 9bca 983d a2f4 3c3d 8a6b b83d d85e 943d
00000030: de77 6bbd 7239 4b3a e6b7 913d 1ef2 54bd
00000040: e24f 8c3d ce68 b23d cbf5 633d 7283 a23d
00000050: 5d46 9a3d ad96 a2bc d0f1 06bd e489 c63d
00000060: 450a 463d df8e 0bbd aa9e edbc 88c5 a83c
00000070: 5895 713d b142 cd3d fe06 fe3c 72da 333d
00000080: 58d7 ac3d ab19 173e 4e92 533e e5d9 ae3c
00000090: fc51 19bd c616 c9bc dbf1 753d f629 c83d
000000a0: 243c 92bd 495c 4ebe 4a3d a8bd 899f 153d
000000b0: e646 523d b450 80be f335 37be 6eb3 38be
000000c0: 22be 57bd af1a 843b fbdc 68bd cd2e 5a3b
000000d0: 3a56 7f3c 6eca 843c c0ff 83bd 378e 5dbd
000000e0: ce1e 7c3d 7cd8 f03d 6714 a13d a664 013e
000000f0: c4bd 91bd e37d a6bd da3c cb3c ac34 ac3d
00000100: bbf3 cb3d 469b 82bd 282c 0abe be69 93bd
00000110: f639 ca3d 2d96 283e f093 00be 59a7 6dbe
00000120: 1ad1 74be f25c 21bc a6f0 b5bd 188f e8bc
00000130: 7aa7 fd3c 035b 3bbd d094 1cbe c12b 45be
00000140: f86f f1bc 462b 11bd 9b81 a03d 08d1 22bd
00000150: f87c a03a e409 69bc 7dd3 3cbc 9e05 ab3d
00000160: c324 a73d 5abd 3d3d 3e8a 0abe 09b9 edbd
00000170: 20d8 30be 8acf f5bd a178 bbbc 9383 96bd
00000180: db62 083d 9899 1dbd a606 93be 264e 86be
00000190: 8645 9fbc 8117 51bd 7b33 fabd 5ef8 fcbd
000001a0: 080e 2abe d051 613b 9e10 8dbc 72d3 4fbd
000001b0: 31fd 3bbd c6d1 263d 6271 e63d 8274 6d3d
000001c0: 69c5 953c 3a0e febb 4ad6 a8bb bc99 953d
000001d0: f154 9d3d fc46 623e 2aac a13e 8484 2c3e
000001e0: db5f 57bd b8b9 3dbd e747 d03d 04b7 263e
000001f0: dbd3 0c3e 86ec ba3b 09a3 c9bd 5028 29bb
00000200: 32de 7cbd 33b3 c9bd be78 82bd 204e 4d3c
00000210: ea42 32bd 73e1 8fbd f0ae 303d cbc8 17bd
00000220: 70f8 d0bc 0e1b c13d d5bc 56bd 5231 943d
00000230: 8e5d d8bd b847 cbbd d44f 0f3c 58df d23d
00000240: 58e2 b43d a054 6abd edcd a2bd a1ab 54bc
00000250: 43ec 7c3c 2818 e0bc 1095 91bd 0476 323d
00000260: 526e 643d 9749 80bd b249 4f3c a91a 1ebd
00000270: 3c3b 8f3d 2902 a13d f4d6 80bc 163b 5fbd
00000280: 5731 e9bc 30de 663c ce56 c23b aa8a 81bc
00000290: 6658 6f3d 5431 6cbd 50ba 4fbd 3639 cbbc
000002a0: bab8 d73b fce4 a7b9 6e59 8cbd b01a a7bd
000002b0: 68e9 9abc c94b 6dbd 5912 d03c 905c d0bd
000002c0: 05c4 d2bc 50ac cbbd 7c55 cdbd 4fc4 d53c
000002d0: 41c9 bebd dd81 a1bd e3f1 c33b 5667 23bd
000002e0: 7848 b1bd 3276 bf3a b3cc 9b3d 73d4 063e
000002f0: 831b 19bd 5888 b8bb 54fc 28bd 8045 df3c
00000300: 7da1 863c b7b8 373c 1045 1d3d 5ca2 46bd
00000310: c016 3fbc f529 81bd 4667 883d 92d7 8ebd
00000320: 77b0 88bd 3486 1dbd e051 f0bc 3799 21bd
00000330: bb92 2a3d c792 83bc ac13 d6bd 2c9c 7ebd
00000340: a21a 86bd d663 463b fa87 25bd 2bab 5b3d
00000350: 94a0 133d 266b c93b 0f8e 4bbc 0efa ed3c
00000360: ca7e ff3d 961e 543c 68b7 e23d b451 be3d
00000370: fe76 8ebb 31be 89bd a6d3 fbbc 1ee0 adbd
00000380: e981 57bd b588 8fbd 10f3 5a3c f5b5 aabc
00000390: 8bc2 3ebe ff70 f8bd d975 f33d ecc5 cc3d
000003a0: 1c4b 1b3d 8f3f e03d 78eb 11ba 62b9 e83d
000003b0: 2606 b23d 3e1e 9cbc 7837 64bc 5fbd 273d
000003c0: 7e7a 02bd d8ea 1fbd cfd5 8cbd 3873 e939
000003d0: 5097 e9bb a49b 8fbd e63d acbd 3f27 b7bd
000003e0: 558a a3bb 6a92 dfbd b850 23bd 5cab 45bb
000003f0: 4ed3 1b3c 7ffb 70bd d0f3 4abd ac29 fe3c
-0.0017092838 -0.008817106 0.08193366 0.06764252 0.04787168 0.07290057 -0.077346526 -0.06818069
0.07460519 0.046131738 0.090048864 0.072446525 -0.05748736 0.00077523955 0.07115154 -0.051988713
0.06851174 0.08711396 0.05565433 0.079352275 0.07532952 -0.019847238 -0.032945454 0.09694269
0.048349638 -0.0340718 -0.029006321 0.020602003 0.058980316 0.10022486 0.031009194 0.043909498
0.08439511 0.14755885 0.2066128 0.021344135 -0.037431702 -0.024546992 0.060045104 0.097736284
-0.07140377 -0.20152391 -0.08214815 0.036529098 0.051337145 -0.25061572 -0.17891674 -0.18037197
-0.05267156 0.0040315012 -0.05685137 0.0033292056 0.015584523 0.016209807 -0.06445265 -0.054090705
0.061552815 0.11760041 0.078652196 0.1263605 -0.07116273 -0.0812948 0.02480929 0.08408484
0.09958597 -0.06377272 -0.13493407 -0.07197903 0.098743364 0.16463538 -0.12556434 -0.2320837
-0.23907891 -0.00984882 -0.08883791 -0.028388545 0.030963648 -0.045741092 -0.15291142 -0.19254972
-0.029472336 -0.03544166 0.0783722 -0.03975013 0.0012244275 -0.0142235495 -0.011525032 0.08350681
0.081613086 0.046323158 -0.13529298 -0.11607558 -0.17269945 -0.120024756 -0.022884669 -0.073493145
0.0332974 -0.038476557 -0.2871601 -0.26231498 -0.019442331 -0.051047806 -0.1221685 -0.1235206
-0.16606915 0.003438104 -0.017219838 -0.05073876 -0.04589576 0.0407274 0.11252095 0.05797244
0.018282609 -0.007753161 -0.0051524984 0.07304713 0.07682217 0.22097391 0.31576663 0.16847426
-0.05258165 -0.046319693 0.10169964 0.16280752 0.13752691 0.0057044653 -0.098455496 -0.0025811382
-0.06173534 -0.09848633 -0.06370686 0.0125308335 -0.043520845 -0.07025423 0.043135583 -0.037056725
-0.02550909 0.094289884 -0.052426178 0.072359696 -0.10564719 -0.09925789 0.00874706 0.10296506
0.08832234 -0.05720961 -0.079494335 -0.012980373 0.015437189 -0.027355269 -0.071085095 0.04356958
0.055769272 -0.06264036 0.012651848 -0.038599644 0.0699372 0.0786174 -0.015727498 -0.054499708
-0.02846591 0.01409106 0.005930758 -0.01581319 0.058433913 -0.05766423 -0.05071479 -0.024807554
0.0065833004 -0.0003202333 -0.06852995 -0.08159387 -0.018910125 -0.057933602 0.025399374 -0.10173905
-0.025728235 -0.099449754 -0.100260705 0.026094584 -0.0931573 -0.078860976 0.005979763 -0.03989347
-0.086564004 0.0014607369 0.07607403 0.1316698 -0.037379753 -0.005631488 -0.041256264 0.02725482
0.016434425 0.011213473 0.03839594 -0.04849468 -0.011663139 -0.06306831 0.06660323 -0.069747105
-0.06674283 -0.038458064 -0.029335916 -0.039452758 0.04164384 -0.0160612 -0.10452971 -0.062160656
-0.065480486 0.003027191 -0.04041288 0.053630035 0.03604181 0.0061468063 -0.012424006 0.0290499
0.12475355 0.012946745 0.11070138 0.092929274 -0.004347681 -0.06725729 -0.03074057 -0.084900126
-0.052614126 -0.07008497 0.013363615 -0.020838717 -0.186289 -0.12130927 0.11887712 0.09998688
0.037913427 0.10949623 -0.00055663986 0.11363484 0.08692579 -0.01905739 -0.01392924 0.040952083
-0.0318551 -0.039042324 -0.06876718 0.00044527068 -0.0071286336 -0.07012108 -0.08410244 -0.089430325
-0.0049908557 -0.10916598 -0.0398719 -0.0030161953 0.009510828 -0.058833595 -0.049548924 0.03102573

conv2.bias f4 [16]
00000000: d47b 873d 0f2b 1dbd 1a75 94bd ee5e f2bc
00000010: 2341 abbd be66 90bc eeca 023d 8472 ffbb
00000020: 5026 4f3d c81e a738 6de8 2ebb f625 753d
00000030: 6ec1 30bd dc08 d4bc 2404 6cbd 4320 0dbe
0.06615415 -0.038371142 -0.07248898 -0.029586282 -0.08362033 -0.017627116 0.03193181 -0.0077956337
0.050573647 7.968914e-05 -0.002668883 0.059850655 -0.04315322 -0.02588313 -0.057621136 -0.13781838

fc1.weight f4 [120, 256]
00000000: ff88 143d 8a4c 493d 9ae6 7bbb 6d48 c7bc
00000010: a80d 683c b8b4 39bd e956 1a3d 369b f539
00000020: 23a7 37bd 4f9c b7bc 300c 16bd 5fb0 e4bb
00000030: d236 7cbb 71de 9c3c 3e8e 2d3d 1c28 ec3c
00000040: 193d 2f3c 1af3 253d 14dd cc3c 6b00 713d
00000050: 042f 083b 1599 3c3d 23ff 3f3c 4aa3 9bbd
00000060: f006 e63c 0ee4 9f3c cd67 303d 56a7 48bb
00000070: d379 91bc 3740 afbd be92 453d 7fd4 17bd
00000080: 7835 c93d 93ba f3bc a616 6ebc 5926 8ebc
00000090: cb53 113d e249 0abe 79b7 e7bc de33 843c
000000a0: 3836 64bd d1bf eb3b f4da 303d 005f 4bbd
000000b0: eacd b9bc 7cdc 083d 5228 0a3d 3e8d 713c
000000c0: 3fc5 673d be4a d73d 94cf c13c 64f2 f63c
000000d0: 3e0c 803d 0f47 3bbc f3e2 93bd 38d1 43bd
000000e0: 095b 98bd 3893 b9bd 3027 58bd ce79 943d
000000f0: b225 e0bc ffb7 05be 32eb 9fbd d20b c23d
00000100: e2de e33c b80b 873b 5ee9 d5bb 69f9 4f3d
00000110: 729a 873c cb7a d73d a578 d53c 505e 19bc
00000120: 0dcf 003e 545f fc3c 1fc7 7a3c eb42 7dbd
00000130: ce51 c53c c2f2 7fbd 71e4 b0bd 3b17 a6ba
00000140: 2807 afbb f350 123c f85b f1bc da23 c7bc
00000150: 3e47 8d3c f8ec 123d 0298 453b cb1f 163c
00000160: 2aec 563d b22c 5dbd b6a9 f83c f3f1 02bd
00000170: 6e5e 4e3c 8226 6b3d 4a80 8ebd c785 b03c
00000180: a434 b53d bd45 003e 9c16 84bc 41bb 83bd
00000190: ce7d b43d 80a0 4ebd fa84 a3bb f488 353d
000001a0: 23ce c5bd f40b 8fbd 0608 d5bb 9870 a53d
000001b0: 1726 02bd fc2d f7bc 04b0 82ba 48ce 8d3b
000001c0: de10 0cbd 1fc4 d0bd ccc4 01bb ee80 353d
000001d0: 42dc 6abd 749d 8abc b901 7abc f938 49bd
000001e0: 80ea e139 c103 a6bc 6446 31bd 3a19 98bd
000001f0: 0aff 7c3d d4da ff3c 936e 19bd 288e 03ba
00000200: aa69 043c e244 30bc adff c2bd 382d 1e3d
00000210: 3c05 c3bc 4c3a b7bc c20c 15bc 9e48 7e3c
00000220: 16ec dd3d 1ff7 aa3c 2025 833d 8e13 6ebd
00000230: ecf0 b93d 187d 04bd 7103 b83c ed83 a73b
00000240: 57fe 323d 68ac b43b c129 f8bb 9864 4a3d
00000250: 13cc 9fbd 29c1 0c3d dfd5 903d 5205 b83b
00000260: 4c50 a8bd 04b5 5cbd 7bd4 9dbc 9bfa 373d
00000270: 47e7 833d 2017 73bd 2e0c 6bbd 1211 8e3d
00000280: d3e6 1b3d fe18 b7bd c4e1 263c 61d3 8e3d
00000290: fe28 4bbd a9eb 3dbd 0e52 d1bc b4ff 40bd
000002a0: 4eea bcbd 22b6 2dbd 6a97 34bd 0413 09bd
000002b0: 3487 053c e549 4bbd 6332 493d 20b4 c83d
000002c0: 080f 703c 5677 893c 1cd7 703d 3681 8c3c
000002d0: f3d1 533d 20dc b1b9 f82a 26bb e93c 33bd
000002e0: baff a83c caad 12bd 864f ad3c 5527 3fbd
000002f0: 44e5 7dbd 109e 08bc be3f c33a 277f 1d3d
00000300: f243 1cbd 9a00 a2bc 181f 9ebd f4df 8abd
00000310: ed48 39bd 7c06 0e3b 41a5 10bd 1914 a4ba
00000320: 58d6 c23c 4099 893c 4a19 13bd 5eaf f63c
00000330: 0076 263d 06db 6dbc 998f bbbc 9356 79bc
00000340: 3911 6d3c f836 813d 01df 23bd 7f56 11bd
00000350: bf26 353d b0e0 a7bb b28d 183d 0082 fb3c
00000360: 1ca8 b93d 7550 a73d 2e38 4b3d 5a8b e0bc
00000370: 558e af3c 084e 5fbc 4abe 77bd 9c4c 3abb
00000380: 566d 953c 207d a83c a126 8f3d 0681 dc3d
00000390: 9d6b eabc f8bf bb3a 2291 82bc 413a 23bd
000003a0: 1f58 8dbd 28d5 a4bc 23c8 aebc 3e9a 0cbe
000003b0: 371a 873d 3957 713d 64fa edbc 44b4 f6bc
000003c0: b663 573d 6822 ef3d f0ac c23c 27e4 a23d
000003d0: f776 9f3c d9ed 0b3d ff9b cebc 166e 783d
000003e0: c060 c9bc b850 583d 7684 5f3d 97c7 cd3c
000003f0: f71e 75bd 5e04 72bc 1832 073d 3c77 b0bc
0.036263462 0.04914526 -0.003843701 -0.024326527 0.014163412 -0.045338362 0.03768054 0.00046845683
-0.04483713 -0.022413401 -0.036632717 -0.006979033 -0.0038484824 0.019149037 0.04237198 0.02882772
0.010695719 0.040515043 0.025007762 0.05883829 0.0020779977 0.046044428 0.011718544 -0.07599504
0.02807948 0.019517925 0.043067742 -0.0030617318 -0.017758286 -0.0855717 0.048235647 -0.037067886
0.098246515 -0.029752051 -0.014531767 -0.01735227 0.0354803 -0.13504747 -0.028285729 0.016138013
-0.05571577 0.007194497 0.04317756 -0.049651146 -0.022681195 0.033413395 0.03372986 0.014743147
0.056584593 0.10512303 0.023658551 0.030144878 0.06252335 -0.011430516 -0.072210215 -0.04780695
-0.074392386 -0.09061283 -0.052771747 0.07249795 -0.027361725 -0.1305847 -0.07808532 0.09474911
0.02781624 0.00412127 -0.0065280637 0.050774965 0.016553137 0.10521468 0.026058504 -0.009360865
0.12578984 0.030807175 0.015306263 -0.061831396 0.02408686 -0.06248737 -0.08637322 -0.0012671718
-0.0053414293 0.008930433 -0.0294628 -0.024309088 0.017245885 0.035870522 0.0030150418 0.0091628535
0.052471317 -0.053997703 0.030354362 -0.031969022 0.012595756 0.05740977 -0.06958063 0.021548165
0.08847931 0.12526603 -0.016124062 -0.064322 0.08813058 -0.050446033 -0.0049902173 0.04432006
-0.09658458 -0.06984702 -0.0065012006 0.08078116 -0.031774607 -0.030173294 -0.000997067 0.004327569
-0.034195773 -0.10193657 -0.0019801138 0.04431241 -0.05733896 -0.016920783 -0.0152592 -0.0491266
0.0004309006 -0.020265462 -0.04328002 -0.074266866 0.06176666 0.031232275 -0.037458967 -0.00050184363
0.008081833 -0.01075861 -0.095214225 0.038617343 -0.023806207 -0.022366665 -0.00909728 0.015520243
0.108360454 0.02086979 0.064035654 -0.058124118 0.09079155 -0.03234586 0.022462578 0.0051121623
0.04369959 0.0055137165 -0.007573337 0.04941234 -0.07802596 0.0343639 0.07072043 0.0056158686
-0.082184404 -0.053883567 -0.019266358 0.04491673 0.06440597 -0.059348226 -0.057384662 0.0693685
0.038061928 -0.08940314 0.010185663 0.06973911 -0.04959964 -0.04636732 -0.025551822 -0.047118858
-0.092243776 -0.042410024 -0.044089712 -0.0334654 0.008149911 -0.04963102 0.04912032 0.09799981
0.014652021 0.016780537 0.058798894 0.017151456 0.051713895 -0.00033924077 -0.0025355201 -0.04375926
0.020629752 -0.03581027 0.021156084 -0.04666837 -0.061986223 -0.008338466 0.0014896316 0.03845134
-0.038150735 -0.019775677 -0.077207744 -0.06780997 -0.045235563 0.0021671345 -0.03531385 -0.0012518197
0.023783848 0.016796708 -0.03591279 0.030112918 0.040639877 -0.014517551 -0.022895621 -0.015218395
0.014469438 0.063093126 -0.040007595 -0.03548288 0.044226404 -0.0051232204 0.037244506 0.030701637
0.090652674 0.08169643 0.049614124 -0.027410198 0.021430174 -0.013629444 -0.06048421 -0.002842701
0.018240612 0.020567477 0.0698979 0.10766797 -0.028615767 0.0014324179 -0.015938345 -0.039850477
-0.069015734 -0.020121172 -0.021335667 -0.13730714 0.06596797 0.058921073 -0.02905006 -0.030115254
0.052585326 0.11676484 0.023764104 0.07953673 0.019465907 0.034162376 -0.02522087 0.06065186
-0.024582267 0.052811354 0.054569684 0.025119586 -0.059843984 -0.014771549 0.033006757 -0.02154123

fc1.bias f4 [120]
00000000: be8f bc3c c2e6 e0ba 5afc 533d c0c6 753d
00000010: 0e59 09bd 4e8a d33c b0d2 3a3d b57d 26bc
00000020: b178 6ebd 94ec 533d c4df 3a3b 543e 06bd
00000030: 712f b2bc 2b67 b8bc b6cc ecbc 4056 0d3d
00000040: f0e6 203d 4b86 45b9 1258 ebbb d36a 0dbd
00000050: 539a a03c 76a9 44bd 7afb 02bc 2e12 2bbd
00000060: 84fb d03c 19b2 b53c 0371 29bd 9ab4 7abc
00000070: bae1 8b3c bdf7 3abc 605a b83c 6a0e fdbc
00000080: 01c3 343d 606c b23c 6c5d 303b 0fe8 c1bc
00000090: c8f1 75bd de66 683c 05ac 73bd fc20 d7bb
000000a0: f84d 933c d963 063d 2635 903c f15b 6d3d
000000b0: 5da6 0e3d c852 d13c ac1f 853c c494 ff3c
000000c0: 8426 573d 8174 0cbd 1454 43bd 88f3 683d
000000d0: c941 d73b f1b2 27bd f16d c2bc e075 0e3d
000000e0: 9d29 583d 3a96 753d c257 43bc 1b29 403d
000000f0: b22b 32bd 0a06 56bc 4b21 3fbd 71fe 473d
00000100: e912 5ebc 7150 dabc 04ad 3bbd a834 e6bc
00000110: ce5a 033c 5e2b 123c a1a0 9bbc 92bf 9f3c
00000120: 5016 26bd 8095 08bd 74bc 2b3d 3980 e6bc
00000130: 6829 dcbc 44f1 babc 8cc0 36bd 8009 d43c
00000140: 94fd 3e3d 4cd9 fdbc 9a8b 693d 6c85 e4bc
00000150: 1075 cc3a 3ce8 143c 6844 813d f0ff 0ebd
00000160: de24 773d 4385 0fbd 2e4e 8e3d f8b8 573d
00000170: 7533 543c 74fd b33c 9f7a 2ebd d812 033c
00000180: e900 113d 4a96 3ebd e46d 28bc d01f 913c
00000190: a2d1 7f3d 4853 d13c 6ca5 30bd 18ac 32bd
000001a0: 3098 09bd 7f33 053c b207 273d 3a59 7dbb
000001b0: 4a09 12bd d281 aa3c e951 4fbd 5c83 853d
000001c0: 97dd f2ba d6dd ba3c c40d 48bd cd3f 653c
000001d0: 8af5 67bd a824 573d 68cb 083d 0c68 15bd
0.02301776 -0.0017158615 0.051754333 0.060003996 -0.033532195 0.025822785 0.045611084 -0.010161807
-0.05822057 0.05173929 0.0028514722 -0.032774284 -0.021751137 -0.022510132 -0.028906208 0.034506083
0.03928274 -0.00018837412 -0.0071821297 -0.034525704 0.019604838 -0.048013173 -0.007994527 -0.041765384
0.025510557 0.02217965 -0.041367542 -0.015301848 0.017075408 -0.0114116045 0.022504032 -0.030890662
0.044131283 0.021780193 0.0026911153 -0.023670224 -0.060045034 0.014184682 -0.059490222 -0.0065652113
0.017981514 0.032810066 0.017603468 0.05794901 0.034826625 0.025552168 0.016250454 0.031198867
0.052526966 -0.034290794 -0.047687605 0.056872874 0.0065691215 -0.040942136 -0.023734065 0.034780383
0.05277406 0.05995772 -0.011922779 0.0469142 -0.043498702 -0.013062963 -0.04666261 0.04882664
-0.013554313 -0.026649686 -0.045819297 -0.02810128 0.008017255 0.008921472 -0.018997492 0.019500528
-0.040548623 -0.0333457 0.04192777 -0.028137313 -0.026875213 -0.022820123 -0.04461722 0.025883436
0.04662855 -0.030987404 0.0570179 -0.027895652 0.0015598852 0.009088572 0.063118756 -0.03491205
0.060337894 -0.035039198 0.06948505 0.052666634 0.012951721 0.021971442 -0.04259741 0.008000098
0.03540126 -0.046530046 -0.010280106 0.017715365 0.06245578 0.025552407 -0.04312651 -0.043621153
-0.033592403 0.008129953 0.040778823 -0.003865792 -0.03565339 0.020813856 -0.050615225 0.065191954
-0.0018529174 0.022810858 -0.048841253 0.013992262 -0.05663065 0.052525192 0.03339711 -0.03647618

fc2.weight f4 [84, 120]
00000000: 04b8 6dbd 5aba 9fbd 3652 8fbc a47b 173e
00000010: 6967 9d3c 0633 d53d d870 7fbd f705 a3bd
00000020: 844c 1abd 6027 a73d bfb9 26bd cb9c 003d
00000030: d674 31bd 9fe4 5a3d 6252 bcbd 966f 77bc
00000040: 542d 86bc 3a08 a0bd f038 493b 4e80 b7bc
00000050: eec0 913d 5928 c8bc 1ab9 f1bd c4e9 abbd
00000060: 53f3 07bc c898 003e 0f7f 743d b623 c2bd
00000070: 6a4d ee38 2016 bdbd 5042 1dbc 9b9d b6b9
00000080: 08bc f3bd 42dc a2bc f7a8 833d 0b56 08be
00000090: f5b4 ce3c eac4 993d 0c48 bdba c9e8 80bc
000000a0: 8e6a 85bd 28e0 eb3c 5c4e bdbd 6cdc ab3c
000000b0: 3103 dfba 8679 afbd 70f5 4a3d f3ea e2bb
000000c0: 2c55 e93b bf74 743d b6d4 6a3d 7941 1a3d
000000d0: b2f0 b4bd b87c 103e 107e 3d3d 5778 803c
000000e0: 0578 a3bc 9829 973d 9062 723d 62ce 4bbd
000000f0: db3d 993b a20c cc3c 4abc a03d 88ee 95bd
00000100: 2039 16bb 3373 f7bc 4b54 d53d aa8f d6bd
00000110: 3777 afbc 10d7 48bd 4f07 33bd aa3c 963d
00000120: e458 c63d 8b05 d0bc d958 5dbd 28c7 acbd
00000130: 590d efbc 52c4 b93d ab1e 973d ebf4 3a3d
00000140: 8b65 fc3c 4195 bcbc 01cf 183d d0c7 a6bd
00000150: 0221 95bc 908d e33d 36cd b53c 27de aa3c
00000160: 59ba 5bbd 97e3 b9bd ac62 a03b 0640 283d
00000170: ca45 523d 37af c73c a8e4 993c e2e2 6fbd
00000180: b3c8 093d 82d7 3ebd c29b 803d d5da 09bd
00000190: 20b3 fbbc e822 d63d c71a 8a3c 3120 1d3d
000001a0: 52f3 afbd 6602 503d e788 bd3d 319a e7bd
000001b0: e461 4d3c 93ab b3bb 9d6b 1b3d b2ea 293d
000001c0: fff4 5dbd a242 8abd 6914 2b3d 1040 303d
000001d0: 115a 8fbd b748 3e3c 1248 adbd fa48 d13b
000001e0: ae6e 1d3c fc5e 27bd 6677 91bc d8f1 9e3d
000001f0: 2289 5b3d 9a6c a4bd 898b 953c 45d4 4cbd
00000200: 45f1 983d 5369 c93d 8003 983d 5cae ba3d
00000210: 7f67 62bd 9c48 b23b 3c09 413d 3f15 41bd
00000220: b3e7 923c b08e 4d3d c6c6 ab3c a340 123d
00000230: 1de1 223b 187f 4f3d 0cd2 09bd 9718 07bd
00000240: 6d4a 8bbd c866 1dbd 40b7 993c 544b 3a3d
00000250: a066 9cbd a97e a93c 0050 f538 8845 a83d
00000260: cae8 b23c 26af 11bd ee85 a4bd ccb0 7b3d
00000270: 611a 0dbd 09d7 aebd 76ed 80bb d04d b43c
00000280: 04d1 a9bd b616 4ebd 198d 953d e14e 72bd
00000290: 02ab 06bd 5c4a a13d 12c7 52bc 304a a73d
000002a0: a64d 29bb 402d ffbc 8cb5 48bd ae73 68bb
000002b0: 2050 933d 5c68 563d 0cf8 1d3d c167 a43d
000002c0: fa9f 99bd 95d4 f4bc 5f4d a23d 269f 8fbd
000002d0: b582 c5bc 84c5 933d 37f0 a2bc fd16 933d
000002e0: 3b74 bfbc bbcd d1bc 7713 06bd bb51 fbbc
000002f0: d818 783d 99d3 593d a81e aebd 0ae7 3fbd
00000300: a798 b6bc b8cc 9fbd a928 b6bd d2bb 1dba
00000310: 9844 433d 9e7c c0bc 08ea 353c b0a3 9b3d
00000320: 09b7 f1bc bc62 2cbd c207 64bc 9e6f a1bd
00000330: 0f3f a53d 474c 8d3d 3665 53ba 5e02 463d
00000340: 9cd4 b33d a604 733d a0a8 02bd 26f4 9fbd
00000350: bb42 04bd db1c 90bc 8ae2 473c 9ace 7c3d
00000360: ce11 443d 7019 95bd 0312 85bd 1595 80bd
00000370: 321c 283c e8de 77bd 438a a8bd 41cc b5bd
00000380: 1fcf 473d ac57 e23c 8a3f 923d c95f 47bb
00000390: cc4a 31bd a614 0abd 34a5 dbbd 4d67 9a3d
000003a0: 6c84 333d ca2b 1b3c 8024 99bd 177e b5bb
000003b0: 2586 573d f797 e63c b0bf 1abd c248 1fbd
000003c0: 7e6e afbd c233 a63d 925d a93d 8dc7 a63d
000003d0: 9083 b93c 6bb5 93bd dcb0 c43c 78f3 273c
000003e0: c9a5 a6bd de13 6e3d 4530 18bd ef44 bbbb
000003f0: f619 263d 49b8 0fbd 0b16 5abd 0d1c 9d3c
-0.05803682 -0.077992156 -0.017495256 0.14793259 0.019214349 0.104101226 -0.062363476 -0.07960122
-0.037670627 0.08161807 -0.040704485 0.03139953 -0.043324314 0.053440686 -0.09195401 -0.015102288
-0.016379036 -0.07814069 0.0030704103 -0.022400048 0.071168765 -0.024433302 -0.118028834 -0.08394197
-0.008297759 0.12558281 0.059691485 -0.094794676 0.00011363144 -0.09232736 -0.00959833 -0.0003483117
-0.119010985 -0.019880418 0.06428712 -0.13314073 0.025232771 0.075082615 -0.0014441027 -0.015736
-0.06514464 0.02879341 -0.092434615 0.020979129 -0.0017014501 -0.08568101 0.049550474 -0.006924981
0.007120749 0.05968165 0.057331763 0.037660096 -0.088349715 0.14110076 0.0462628 0.015682383
-0.01995469 0.0738098 0.059176028 -0.04975737 0.004676563 0.024908368 0.07848413 -0.07320887
-0.0022922233 -0.030206298 0.10416468 -0.104766205 -0.02141915 -0.049033225 -0.043708142 0.073357895
0.09684923 -0.025393268 -0.05403981 -0.084364235 -0.02918117 0.09070648 0.07378896 0.04564373
0.030810138 -0.023020389 0.03730679 -0.0814358 -0.018204216 0.11110985 0.022192579 0.020857884
-0.05364451 -0.090766124 0.004894575 0.041076683 0.051336087 0.024375541 0.01878579 -0.05856598
0.033638667 -0.046592243 0.062797084 -0.03365596 -0.030725062 0.104558766 0.016858472 0.03836078
-0.085913315 0.050783537 0.09254628 -0.113087066 0.012535546 -0.0054830997 0.037944425 0.04148359
-0.054188725 -0.067509905 0.04176751 0.043029845 -0.06999601 0.011614016 -0.08461012 0.0063868733
0.009608908 -0.04086207 -0.017757129 0.07760972 0.053597577 -0.080285266 0.018255012 -0.050007124
0.074678935 0.09834542 0.074225426 0.09115288 -0.055274483 0.0054407846 0.047127947 -0.047139402
0.017932748 0.050184906 0.020968806 0.035706174 0.0024853416 0.050658315 -0.033647582 -0.032982435
-0.06801305 -0.038428098 0.018764138 0.045481995 -0.07636762 0.02069028 0.000116974115 0.08216387
0.021839518 -0.035567425 -0.080333576 0.061447904 -0.034448985 -0.085371085 -0.0039345575 0.02200976
-0.0829182 -0.050314628 0.07302303 -0.059157256 -0.03287793 0.07875511 -0.012864845 0.08168447
-0.0025833636 -0.031149507 -0.04900126 -0.003546934 0.07193017 0.05234562 0.038566634 0.08027602
-0.07501216 -0.029886523 0.079249136 -0.07012777 -0.024110178 0.072154075 -0.019889934 0.07182119
-0.023370853 -0.025610795 -0.032733407 -0.03067862 0.060570568 0.05318031 -0.08501941 -0.046851195
-0.022289587 -0.07802719 -0.08894474 -0.0006017062 0.047672838 -0.023496922 0.011103161 0.0759958
-0.029506223 -0.042086348 -0.013917865 -0.078826174 0.08068668 0.068993144 -0.0008064093 0.0483421
0.087807864 0.059330605 -0.031899095 -0.078102395 -0.0322902 -0.017591884 0.012200007 0.061720468
0.047868542 -0.072802424 -0.06497576 -0.06278435 0.010260629 -0.060515314 -0.08229496 -0.08876849
0.04878151 0.027629696 0.07141025 -0.0030422083 -0.043284222 -0.033711098 -0.10724869 0.07539234
0.04382746 0.009470889 -0.07477665 -0.0055387127 0.052618165 0.028148634 -0.037780464 -0.038887747
-0.085659966 0.08115341 0.082698 0.0814353 0.022645742 -0.07212337 0.024010114 0.010250919
-0.0813709 0.058124416 -0.03715541 -0.0057150046 0.040552102 -0.035087857 -0.053243678 0.019178415

fc2.bias f4 [84]
00000000: df40 43bb a3f8 183d fd42 a9bd 3c12 b23c
00000010: b778 b7bd 7dcd a1bc ba8c bc3d 143f fcbc
00000020: c27d a3bc 98a1 ee3c 1b8f a1bd 4904 973c
00000030: b602 a73d dfa6 cebd 024b b33d 91a6 36bd
00000040: bcb8 73bd e02c 473b bf95 9fbd 0e60 f93c
00000050: 691b d53d 106d 80bd fc21 cd3d 36bd 57bd
00000060: 3aad 8a3d 6e44 063c 8c04 913c 0b8d 9ebd
00000070: 126c 5d3b 0319 85b9 ac55 223d 5c2e 6a3d
00000080: 12d4 8bbd 9db7 bebc 849f a03d f1f4 90bd
00000090: b3e5 e03c 6f83 ab3d 6895 0e3e b20d 48bd
000000a0: a3ee 9e3d 4a7e a83d b9d7 b2bc 09f1 773d
000000b0: 3efd 653d ffff 903d 1a4c b2bd f252 f13b
000000c0: 2448 a33d a612 80bd 0e4d 61bd dfa8 973c
000000d0: 72bd 113d ea94 2abd 0cb8 bebd eb93 c83c
000000e0: 40e5 9b3d 6314 083c d415 9fbd 16db 913d
000000f0: 031a 913d b93b 0abd a2d6 96bc 0653 9d3d
00000100: 22ba 503d 87a5 e43b b3f0 843d 941f 99bc
00000110: a738 babc 51ca 64bd b13f 20bd f7f1 4a3d
00000120: 59cb 38bc 0f8d e63d 12ea 99bd 641c bebc
00000130: 809e 363d 1ff1 b5bd bf0e c1bc 13b8 9e3c
00000140: 80e8 24bd 4b62 eebc c8bd 51bc 1287 a53d
-0.0029793305 0.037346493 -0.0826473 0.02173721 -0.089585714 -0.019751305 0.09206529 -0.030791797
-0.019957427 0.029129788 -0.07888623 0.01843466 0.08154814 -0.10090422 0.08754541 -0.044592444
-0.05950235 0.0030391738 -0.07792234 0.03044131 0.10405619 -0.06270802 0.10016248 -0.05267068
0.067713216 0.008195026 0.017702363 -0.077417456 0.0033786339 -0.00025386372 0.039632484 0.057173118
-0.068275586 -0.023280913 0.07842925 -0.07077969 0.02745328 0.08374678 0.13924181 -0.048841186
0.0776036 0.08227213 -0.02183138 0.060532603 0.056149714 0.070800774 -0.087059215 0.007364624
0.07972744 -0.06253557 -0.055005126 0.018513141 0.03558106 -0.04164592 -0.09312448 0.024484595
0.07612085 0.008305642 -0.07767835 0.071218655 0.070850395 -0.033748362 -0.018412892 0.07681851
0.05095876 0.00697774 0.06491222 -0.018691815 -0.022732092 -0.055857006 -0.03912324 0.049547162
-0.011278951 0.112573735 -0.075153485 -0.023206897 0.04458475 -0.08883881 -0.023566602 0.019374883
-0.04026079 -0.029099604 -0.012801595 0.08082403

fc3.weight f4 [10, 84]
00000000: 5232 033d 51d4 eb3d de7a c2bd 5a7e a63d
00000010: a0d5 e3bd 7623 17bd 311a df3b b1d4 813d
00000020: 72e9 53be fc18 74bd 5f1e debd d4a8 843c
00000030: fe4b 013d 9591 863e e2ad 09be 95a7 a9bd
00000040: 3375 fcbd a804 63bd b87e 29bd 8e4c 8a3e
00000050: e6e8 84be 35c7 583d b524 363e 88a3 a33e
00000060: 5ebf 38bd f499 63be ae9d 04be 24b5 60bd
00000070: e0e6 083d 120f 16be 224b a43e c19d 7dbd
00000080: 51e6 babd 3022 babd 7e47 243d 32b1 883c
00000090: f787 cabd e078 2d3e 6e36 8dbe ccc5 b6bd
000000a0: 8437 343d 36df bf3d 3a16 d1bc 1a48 debd
000000b0: 1e50 153e 55c3 0cbe 5eb1 1c3c d3f3 b6bd
000000c0: 4586 563e 84f3 c4bd 88aa fbbd 822d 7bbe
000000d0: 93bc 31bc 98fc 593c 4b9c b73d 935d 893d
000000e0: 46f0 b4bc 1020 21be ec43 7a3d 1006 a93c
000000f0: 269c 9bbd 5bc7 d4bd 2843 95bd bd33 08bc
00000100: 0655 0c3c ab05 1b3d c224 1d3d 476a be3d
00000110: 6f02 9b3d 378d 3c3d 20d9 283d 421e cabd
00000120: fe28 6abe 343c 8ebe 7b54 83bd 3ae1 c9bd
00000130: 10dc 063e 5fb6 10bd 87d8 243d 9efc a3bc
00000140: 5419 733d d0c2 c03c 6fa1 b43d a644 49bc
00000150: 65b6 983e a82e 743d cb9b 913d 2e33 b1bd
00000160: d63b 723d a655 83bc 166d 333e 55de 9f3d
00000170: b45f 2e3d eadf d5bd e8f1 4b3c 3fb9 c2bd
00000180: cedd 6ebd 909e cbbd 7e58 49bd d120 413e
00000190: e52e c5bb 84fd 9ebc 5548 873c 0833 79be
000001a0: 899f 85be 1c4b 52bd 121c 1e3e 018c 0cbe
000001b0: 1dd0 423d 794c 8e3e 4c2f 3a3c f61e c2bc
000001c0: dc77 5f3e b24b a53e 5b68 3ebe de5d 1f3e
000001d0: ee72 c43d bfd0 233d 3b2f 933d 796a 3dbe
000001e0: 17ba 95bd e67a 1fbe 50a0 c33e bc3d 51be
000001f0: a8b1 a03d 092d 84be ad75 dc3c fa58 e63d
00000200: 75ed cdbd 74f2 1bbe 9ad2 38bd 9eee 3b3c
00000210: f1b2 40bd 0433 c1bd cdc1 f43d 8ed2 0f3e
00000220: 4eb7 96bd 08ee 6fbd e1ef 1dbe 16ab a73d
00000230: 42b0 b03c a16c f3bd 5f67 babd bad0 51bd
00000240: cdc7 01be 6891 713d 5a34 d0bc 0e14 433d
00000250: 7c5e f8bd 324e 9d3d fa19 62be 18b8 aabd
00000260: 6e97 a43d f4bc dbbd 483d 05bd f00f c5bd
00000270: a02a 623e 2021 81bd 162e cf3d 0aa4 bf3d
00000280: 0d60 2cbe 00e3 5cbd b8ba 1d3d 8dcc 32bd
00000290: 9093 bd3c 138a bcbd 7caf 563d b19a 483e
000002a0: ca63 fcbd a1f6 5f3d 0288 853d c8c2 d4bd
000002b0: dd1f e73d 484a 863d f4aa 1c3e fea0 a13d
000002c0: 3e41 a43e c066 8a3c aef1 a43c 4e00 aa3d
000002d0: 5015 113b c029 a13d 985f 47be 6f24 a03c
000002e0: e1d5 2c3e 7aba 153d 9aba a7bd 8559 b13c
000002f0: ba4e 82bb 2c4d 06bd a7f2 b7bc 6c4c 6bbd
00000300: 4036 c9bd b04e 4b3e 9c71 dcbd f414 d63d
00000310: bc62 343e cdda ad3d b6f5 8cbd 7e65 01bd
00000320: d710 86bc 5184 33be c3c1 b53d 5d68 94bc
00000330: 2593 87bd 27f7 823e bd2e 44bd 485b 72bd
00000340: 2199 173e 76e7 853e f030 b63d 3fc2 92bd
00000350: 12d0 b93c 24dd d5bd ac6c 473e b494 103c
00000360: d7ca 60bd c0ec bf3d 60ed 0d3e a1b6 1dbe
00000370: dc3e 9bbd e4d3 c9bd dec9 84bc 0b5b d9bc
00000380: 2208 3b3e f141 e0bc 60d6 00bd 3569 e63d
00000390: fa52 13be 6466 c0bd 5add 443d ed29 99bd
000003a0: e3d6 603e 1f62 163d bc23 5dbe b9f4 f0bc
000003b0: f65a 843b 1caf eebb 6481 a1bc f394 2cbd
000003c0: d51d febc bd2a 16bd 09dd c73c e002 143e
000003d0: c57d e2bc 792c f6bc fc6c 21bd ceb6 04be
000003e0: f3b9 0b3d f29f 193c 2ef6 3fbe 0a7a ae3b
000003f0: 53be cbbd de0c d5bd b4a4 88bd 47f4 18be
0.03203041 0.115151055 -0.09496091 0.081295684 -0.1112473 -0.036899053 0.006808542 0.06339396
-0.20694521 -0.05959414 -0.108456366 0.016193785 0.031566612 0.26282945 -0.13445237 -0.08283917
-0.123270415 -0.055424362 -0.041380614 0.27011532 -0.25958937 0.052924354 0.1778744 0.31960702
-0.045104377 -0.22226697 -0.12950775 -0.05486025 0.033423305 -0.14654186 0.32088572 -0.061918024
-0.091259606 -0.09088552 0.040107243 0.016686056 -0.098892145 0.16940641 -0.2758059 -0.089244455
0.043998256 0.09368746 -0.025523294 -0.10853596 0.14581344 -0.13746388 0.009563772 -0.089332245
0.20949657 -0.096167594 -0.12288386 -0.24529079 -0.010848182 0.013304852 0.089653574 0.06707301
-0.022087228 -0.15734887 0.06109993 0.020632774 -0.07598142 -0.103895865 -0.072882 -0.008313117
0.008565193 0.037847202 0.038365133 0.092976145 0.075688235 0.04603311 0.04122269 -0.098690525
-0.228672 -0.27780306 -0.06412598 -0.09857412 0.13169885 -0.035330173 0.04024556 -0.020017918
0.059350327 0.023530394 0.088198535 -0.0122844335 0.29826656 0.059614807 0.07109793 -0.0865234
0.059139095 -0.016032051 0.17522082 0.07806078 0.04257174 -0.10443099 0.012447812 -0.09507989
-0.058317 -0.09942353 -0.04915666 0.18860175 -0.006017553 -0.019407995 0.016513983 -0.24335873
-0.26098278 -0.05134116 0.15440395 -0.13725282 0.047561754 0.2779272 0.0113638155 -0.023696404
0.21823066 0.32284313 -0.18594496 0.15563151 0.095922336 0.039993998 0.07186743 -0.18497647
-0.073108844 -0.15574226 0.38208246 -0.20433706 0.07846385 -0.2581561 0.026911581 0.1124744
-0.10055057 -0.15229207 -0.04512272 0.011470465 -0.04704565 -0.094335586 0.11951027 0.14045164
-0.07359181 -0.058576614 -0.15423538 0.08186929 0.021568421 -0.11885954 -0.09101748 -0.051224448
-0.12673874 0.05897656 -0.025415588 0.047626548 -0.121273965 0.0768093 -0.22080222 -0.08335894
0.080366954 -0.10729399 -0.032529145 -0.096221805 0.22086573 -0.06305146 0.10116212 0.0935746
-0.16833515 -0.05392742 0.038508147 -0.043652106 0.023141652 -0.09206023 0.05241345 0.1959026
-0.12323721 0.054678563 0.06520082 -0.10388714 0.11285374 0.06557137 0.15299588 0.07892035
0.32081026 0.016894698 0.020134773 0.08300839 0.0022137947 0.07869291 -0.1947006 0.019548623
0.16878463 0.03655479 -0.08189888 0.021649132 -0.00397667 -0.03278844 -0.022454573 -0.05744593
-0.098248005 0.19854236 -0.10763857 0.10453215 0.17615789 0.084889986 -0.06882803 -0.03159093
-0.016365452 -0.17530943 0.08874848 -0.01811617 -0.066198625 0.25579187 -0.047896136 -0.059169084
0.14804508 0.26153153 0.08896053 -0.07165956 0.022682223 -0.1044257 0.19475049 0.008824516
-0.054880943 0.09371328 0.13860083 -0.15401699 -0.07580349 -0.09854868 -0.016209539 -0.02653267
0.18264821 -0.027375193 -0.031454444 0.112505354 -0.14387122 -0.093945295 0.04806266 -0.074787
0.21956973 0.03671467 -0.21595663 -0.029413568 0.0040391637 -0.0072840583 -0.019715019 -0.042134237
-0.031020084 -0.036661852 0.02439739 0.14454222 -0.027647862 -0.030050503 -0.039410576 -0.1296036
0.034112882 0.009376513 -0.18746254 0.005324607 -0.09948411 -0.10402845 -0.0667204 -0.14936934

fc3.bias f4 [10]
00000000: dcd2 21bd c84d 303d 04fa ecbd f9cd db3a
00000010: bb40 d8bd 82bc 863d 2632 7abd bae9 5d3d
00000020: 355c acbb 929b 9e3d
-0.03950773 0.043042928 -0.11571124 0.0016769759 -0.10559221 0.06578924 -0.06108298 0.054177977
-0.0052600154 0.077445164
