src/artifacts/checkpoints/round_002.pt (torch, 181669 bytes, 10 tensors)

conv1.weight f4 [6, 1, 5, 5]
00000000: c83a 743d 2149 7fbd 1c84 d1bd 4f6a a83d
00000010: 4caa 1fbe 4f98 bdbd ed86 7f3e 48a5 2d3e
00000020: eef6 523d 4de3 5e3c 54f1 25be 0825 5b3d
00000030: 22e6 f2ba 8650 803c d99a 5b3e d442 e2bc
00000040: 223f a6bd b61a a1bd 3e51 8dbd b101 2abe
00000050: 5bc5 ddbd 8d98 a13b f55d febd 3bbb 10be
00000060: 400f 3d3d 8961 84be 14b1 02be dc3e 893e
00000070: 52be a63e 9cb5 863e 224d e7bb 4b03 a33e
00000080: 8ab6 a33e d8b3 6dbc ec81 bf3d 224e bd3e
00000090: a252 d93e bb38 90bd 66ad 633d 2d43 53be
000000a0: bc39 9d3d d38a fa3b dbea 10be c3b2 31bc
000000b0: 41d3 6bbe 91ac 563d 00d4 233b cfa9 63be
000000c0: b2f6 9cbe cb96 963d 2c46 5bbc 646d c63d
000000d0: e869 8e3e bbe5 b43e c796 a53e 2323 8e3d
000000e0: 3a38 a43e 0b8b fd3d 6f38 073e bc65 1fbe
000000f0: 846d ea39 6045 273e 824f 4fbd ead4 c1bd
00000100: eb1c 7abd 4122 123e 560c 1dbe 201a c4bc
00000110: 0cda 4cbe fa80 093e 9cb0 73bd 07a6 76bd
00000120: 62e4 31be 5e39 2ebe bc44 fe3d 66e4 9e3e
00000130: e113 ac3e 92b5 28bd 3a57 a7be 2a41 b3be
00000140: d4a0 dc3e ecaf fa3d 68d6 f5bd 9ebd dcbe
00000150: d274 38be d6e2 073f de7d b93e 7c63 9d3d
00000160: d2d9 58be e460 7abd 1f39 d23e 9e2c b63e
00000170: 8a9a 453d 80d4 103d ac1d 3f3d f098 0c3e
00000180: 8c73 7d3e a2f3 703e b000 4e3b 1822 ccbd
00000190: 56c8 893e 19df 1c3e 048d b33e 2053 c13e
000001a0: 82bb ae3e acb8 f0bd 1fe3 043d aace 033e
000001b0: 84b8 b83e 02ac bf3e 2410 8cbe c2f1 8abe
000001c0: 7c67 f3bd 38d9 a4be 011d 35bd e0eb 57be
000001d0: 326d 5cbe b9bc 28be 822e a1be 3842 20be
000001e0: 8a3b e33d b1ea 9cbe 23db 94be 3b05 d6bd
000001f0: e5b9 9fbb 25f2 833d b426 2fbe 5a94 153e
00000200: 320f 6ebe 2ddc abbd 4e90 5e3e 08b3 d13d
00000210: f8bd abbd 32a2 5f3c da4a 55bd 837c c13c
00000220: 121a 2a3e 4156 953e 090a 233d 98bd 7c3c
00000230: ce90 e8bd 3202 3abe ef34 46bc 08d5 613e
00000240: 7186 45bd b5fe 0b3d aee7 b33d 0bb6 bbbd
00000250: eaa4 a33b 95d0 f03d
0.05962637 -0.0623256 -0.10230276 0.08223402 -0.15592307 -0.09257566 0.24953814 0.16957581
0.05150502 0.013603997 -0.1620534 0.053502113 -0.001853172 0.015663397 0.21445788 -0.027619757
-0.081175104 -0.07866423 -0.06900261 -0.16602208 -0.10828658 0.0049315155 -0.12420265 -0.14133923
0.04615712 -0.25855663 -0.12762862 0.2680577 0.32567078 0.26310432 -0.0070587555 0.3183845
0.31975204 -0.01450821 0.093509525 0.36973673 0.42445856 -0.070420705 0.055585288 -0.20631094
0.076770276 0.0076459437 -0.1415209 -0.010845843 -0.23029806 0.052410666 0.0024998188 -0.22232746
-0.30656964 0.0735298 -0.0133834295 0.09688833 0.27815175 0.3533152 0.32341596 0.069402955
0.32074147 0.12380036 0.13205121 -0.15566152 0.00044713554 0.16335058 -0.050612934 -0.09464438
-0.061062735 0.1427088 -0.15336737 -0.023938239 -0.20005053 0.13428107 -0.0594946 -0.06021693
-0.17372277 -0.17014071 0.12415454 0.3103363 0.33608916 -0.041188784 -0.32683736 -0.35010654
0.43091452 0.12240586 -0.12003785 -0.43113416 -0.18013313 0.530805 0.36228842 0.07684991
-0.21176842 -0.06112756 0.41059205 0.35580915 0.048243083 0.035358906 0.046659157 0.13730216
0.24751109 0.23530439 0.0031433515 -0.0996744 0.26910657 0.1531948 0.35068524 0.37758732
0.34127432 -0.11753973 0.032443162 0.12871805 0.36078274 0.3743592 -0.27356064 -0.27137572
-0.118849725 -0.32196975 -0.044217113 -0.21086073 -0.2152603 -0.16478242 -0.31480795 -0.1565026
0.110953405 -0.30647805 -0.29073438 -0.104502164 -0.0048744553 0.0644267 -0.17104608 0.14607373
-0.23247984 -0.083916046 0.21734735 0.102392256 -0.08385843 0.01364951 -0.052073337 0.023618942
0.16611508 0.2916737 0.039804492 0.015426062 -0.11355744 -0.181649 -0.012097581 0.22053921
-0.048223916 0.034178454 0.08784424 -0.09165581 0.0049940245 0.11758534

conv1.bias f4 [6]
00000000: be6c 36be 3f61 a53d 4efe 3e3e 9e2b 02be
00000010: c4b0 723d e58a 02be
-0.1781492 0.08075189 0.18651697 -0.12711951 0.059250608 -0.12748297

conv2.weight f4 [16, 6, 5, 5]
00000000: 3c6a 45ba 8fcc 1fbc f869 a23d 1066 933d
00000010: 30c3 513d 1f81 983d 7b04 a0bd 1cac 89bd
00000020: a4f8 9b3d 24a0 223d 80b2 b43d 9977 943d
00000030: 70da 6abd cecb a939 36e2 8a3d aef3 54bd
00000040: 0d66 7f3d f00c 8e3d bca9 263d 039f 993d
00000050: 5492 9a3d 627e 9ebc 761e 21bd e407 aa3d
00000060: 082d 2a3d 698d 08bd 5c58 11bd 098c 423b
00000070: 2ea4 853d 25c3 dc3d f41d 7f3c 1b1a 0a3d
00000080: d606 943d c804 063e be22 2d3e 0650 ec3c
00000090: 7ac4 e6bb 3949 10bb d464 853d c751 963d
000000a0: 2b80 3dbd c422 2ebe 6e6e 36bd e41b 2f3d
000000b0: e7fe 423d bea6 6cbe 19a3 19be c51d 2dbe
000000c0: b5de 59bd a525 a73c 1923 4cbd 0098 5338
000000d0: 72a4 a93b a611 a03c 2aa8 2fbd a796 7ebd
000000e0: f182 5e3d 9673 e63d eb17 9c3d 6e01 fb3d
000000f0: 5eb3 8fbd a054 8abd 616c 1b3d c894 b93d
00000100: 400c c13d 0e6b 33bd d987 e2bd df14 55bd
00000110: 33f0 c63d ea43 203e ef39 dbbd abff 51be
00000120: 37a8 68be 043c 97bc 0c5d aabd c568 96bc
00000130: b312 4a3d 3c3d f7bc 8f0c 10be e702 25be
00000140: 06ff f7bc 867b dcbc b55d de3d 4afb 243c
00000150: 5220 c03c e9d7 8abc aae6 b3bb 7d83 b33d
00000160: 6bac af3d 4d86 ec3c cea1 0bbe 0539 c8bd
00000170: 7630 2abe 7372 fdbd 68a3 92bd 3ba5 cebd
00000180: 19be 2f3b aa6a 2abd 58b9 94be a5ff 8bbe
00000190: d5fc 84bc 64ce 7fbd 9cda fdbd 0971 bbbd
000001a0: fb84 03be cfbe d63b f8a0 65bc 24fd 0ebd
000001b0: 16a4 73bc 2fd7 903d e6f8 d13d 7dd8 963d
000001c0: 5e99 493d 9ed7 ae3c a7e0 1f3c faed 973d
000001d0: d17d 833d c136 3e3e b2fc 933e acae 2b3e
000001e0: 5f96 0ebd b0b7 48bd 486f 843d c94f ee3d
000001f0: acba 063e 1a27 5f3c 80e6 b3bd 54ad be3b
00000200: e801 77bd 09b2 bebd 23f5 86bd 1852 9e3c
00000210: cc99 d8bc 3435 72bd 0c1f 563d b4f5 15bd
00000220: a030 cbbc 5e5b ca3d 634b 37bd 18c5 af3d
00000230: fa98 d5bd 5ef1 c5bd b309 b23a 5dc9 ab3d
00000240: 7807 a53d feca 8dbd c7a1 bebd 1c4e a6bc
00000250: f4c9 553c 8c8e 0abd 484d 8cbd 944c 363d
00000260: 104e 663d 5573 80bd 4067 493c e1bd 28bd
00000270: 2586 873d 0f02 993d d05c 85bc f501 5abd
00000280: 84db 1dbd 3891 e638 6a63 a4bb c8ad 9fbc
00000290: ebea 683d 9395 68bd 0a96 57bd 0659 e1bc
000002a0: 82a2 a53b b08f b33a 56dd 8cbd 31a1 a7bd
000002b0: eca5 95bc b169 69bd df00 de3c 8698 cdbd
000002c0: e9b3 1cbd 8dda d8bd f1d9 c9bd 644c fc3c
000002d0: f4b8 c4bd 74d9 9abd 4c49 a03c 0a09 d6bc
000002e0: 2690 a8bd 891d 66bc d5d0 9b3d d243 013e
000002f0: 6914 47bd 8ff8 5bbc 612b 0ebd 3a46 143d
00000300: 1eb9 493c 1ed8 d43b 8650 0d3d d0e7 2ebd
00000310: 61ad 52bc 1a77 8cbd 667c 993d 6cb2 7fbd
00000320: 28d9 65bd 8ee9 35bd a445 f9bc 89fd 16bd
00000330: fccc 283d 2c89 77bc 6d7f cdbd 9914 40bd
00000340: d15f 40bd 2a6f 973c e2fd 60bd 91fe 4b3d
00000350: 27ea 053d 9f9c e33b bbb8 34bc 8e43 df3c
00000360: 60e7 f93d 281d c63a be65 cc3d 4664 af3d
00000370: c246 023b c9f8 7abd 9a0d f9bc cf75 a5bd
00000380: 1453 33bd 2af2 62bd 00a9 edb8 6847 99bc
00000390: 5846 2dbe aa7d b2bd 90bf c83d 2a57 733d
000003a0: 0add cb3c 5c41 c63d 5eb8 d53b e930 d23d
000003b0: 0304 9c3d dae3 53bc ee6b 5dbc ee80 1f3d
000003c0: 5c4c 71bd 3639 48bd 5bbc 55bd 0170 953c
000003d0: 4a5c d13a b668 b6bd 14e8 cbbd 479d c3bd
000003e0: 7152 233c 6e27 d2bd 7f51 d9bc b8c0 fb3a
000003f0: 2728 7c3c ee3c 7ebd f6d8 6dbd af47 3c3d
-0.0007530784 -0.00975336 0.07930368 0.07197201 0.051211536 0.07446503 -0.078133546 -0.067222804
0.07615784 0.039703503 0.08823109 0.07249374 -0.057337224 0.00032386038 0.067814276 -0.051990204
0.062353183 0.069360614 0.040689215 0.07501032 0.07547441 -0.019347373 -0.03933569 0.08302286
0.04154685 -0.033337984 -0.035484657 0.0029685518 0.065254554 0.10779408 0.015571106 0.033716302
0.07227866 0.13087761 0.16907784 0.028846752 -0.007042465 -0.00220163 0.06513372 0.073398165
-0.04626481 -0.1700545 -0.044538908 0.042751208 0.047606375 -0.23110482 -0.15003623 -0.16905887
-0.053190906 0.020403692 -0.04983816 5.044788e-05 0.005177074 0.019539665 -0.042884983 -0.062155392
0.054324094 0.11252515 0.076217495 0.12256132 -0.070166335 -0.06754422 0.037945155 0.09061581
0.094261646 -0.043803267 -0.11061067 -0.052021857 0.09713783 0.15650907 -0.10704409 -0.20507686
-0.22720419 -0.018461235 -0.083185285 -0.018360505 0.04933424 -0.030180566 -0.1406729 -0.16114388
-0.030272972 -0.02691437 0.10857717 0.010069678 0.023452912 -0.016948657 -0.005490144 0.08765314
0.08577808 0.028872633 -0.13635942 -0.097765006 -0.16620049 -0.12375345 -0.071600735 -0.10090109
0.0026816188 -0.04160563 -0.29047656 -0.2734348 -0.016233841 -0.06245269 -0.12395212 -0.09152419
-0.12843697 0.006553508 -0.014015429 -0.034909382 -0.014870664 0.07072293 0.10252552 0.073655106
0.049218528 0.021343049 0.009758151 0.07418437 0.06420482 0.18575574 0.2890373 0.16765851
-0.034811374 -0.049003303 0.06466538 0.116363116 0.13157147 0.013620162 -0.08784199 0.005819002
-0.060304552 -0.09311301 -0.06589725 0.019326255 -0.026440524 -0.05913277 0.052275702 -0.036611274
-0.02480346 0.09880708 -0.04474963 0.085825145 -0.104295686 -0.09665178 0.0013583213 0.083880164
0.08058065 -0.06923483 -0.093082 -0.020300917 0.013048638 -0.03382735 -0.06850678 0.044506624
0.05622679 -0.06271998 0.012292683 -0.041196708 0.06617383 0.07471096 -0.016279608 -0.053224523
-0.038539425 0.00010994304 -0.005016734 -0.019492045 0.05686466 -0.05678327 -0.052633323 -0.02750827
0.005054773 0.0013699438 -0.06878154 -0.08185042 -0.018267594 -0.05698556 0.027100025 -0.10038857
-0.038257513 -0.1058856 -0.09856022 0.030798145 -0.096055895 -0.07561007 0.0195662 -0.026127357
-0.08230619 -0.014045128 0.07608191 0.12623528 -0.04860345 -0.01342596 -0.034709338 0.036199786
0.012312202 0.0064954897 0.03450062 -0.042701542 -0.01285872 -0.06858654 0.0749443 -0.062426016
-0.0561153 -0.04441219 -0.030428715 -0.036862884 0.041211113 -0.015108388 -0.1003407 -0.046894643
-0.046966378 0.018485624 -0.05492962 0.04980332 0.03269401 0.006946161 -0.011030371 0.027253892
0.122023344 0.001511489 0.09980343 0.085640475 0.00198786 -0.061272416 -0.030401994 -0.08079111
-0.0437804 -0.055406727 -0.00011332519 -0.018710807 -0.16921365 -0.08715375 0.09802163 0.059409298
0.024885673 0.09680435 0.0065222224 0.10263235 0.07617953 -0.012932742 -0.013514502 0.038941316
-0.058910713 -0.048882686 -0.052181583 0.018241884 0.0015972939 -0.08906691 -0.09956375 -0.09551483
0.009968386 -0.10261427 -0.026528118 0.0019207215 0.015390432 -0.062069826 -0.05806824 0.0459668

conv2.bias f4 [16]
00000000: 73e2 883d 7074 13bd f474 92bd 1cb8 babc
00000010: b965 9cbd 58dd 9ebc 7299 353d c74a 24bc
00000020: 72dd 5f3d b355 493b 0c30 ddb9 0431 873d
00000030: c673 35bd 13ec e1bc ded3 59bd 3593 01be
0.06683817 -0.035999715 -0.07151213 -0.022792868 -0.076365896 -0.019392654 0.04433579 -0.010027594
0.054654546 0.0030721247 -0.00042188202 0.06601146 -0.044299863 -0.02757839 -0.053180568 -0.12653811

fc1.weight f4 [120, 256]
00000000: b235 1f3d 315f 323d a731 4fbb 6781 95bc
00000010: 2235 fe3a 058c 13bd 0f23 1d3d b07c 063c
00000020: 3673 4abd 1831 aabc 6e53 0cbd 0eb7 0abc
00000030: 34a5 29bc 837b 8f3c 56f6 3b3d b21a e13c
00000040: cf52 4a3c aed4 393d 3539 493c 2263 5f3d
00000050: 3e67 44bb f532 4f3d 3fc5 ab3c d0b3 90bd
00000060: 38da 133d ef11 d63c 1765 2b3d cf92 babb
00000070: 3a35 78bc 82b3 a7bd c186 423d e03d 19bd
00000080: 2a5b c83d 78c1 c7bc 8a77 86bb b492 5fbc
00000090: 9b19 113d d621 06be 9628 afbc 3f49 933c
000000a0: 4c75 57bd 170d 1e3c 7e13 f03c 04e2 4fbd
000000b0: cc72 afbc 872c 253d 5d5d 113d eed7 633c
000000c0: 56d3 4f3d e4c6 d13d 4af4 a33c 9849 fe3c
000000d0: 823f 843d c2a5 26bc 3d11 94bd 1821 dfbc
000000e0: 2286 93bd 88d6 babd 6c8f 4dbd 6541 823d
000000f0: d84b f0bc 405c febd 7cbf 8ebd 5751 bf3d
00000100: 3662 0c3d 92d2 af3c 150e f7ba 7dc3 433d
00000110: f68d 023d a8e6 cb3d b6c8 273c bd83 2bbc
00000120: 4c04 d83d a41b 143d 2330 983c 2899 78bd
00000130: 89e7 b43c 13e3 83bd 059d 9abd 6ca3 523c
00000140: ef89 b4bb c555 123c 0e66 ebbc b6be adbc
00000150: 9261 8d3c c6ed 033d e1fc 4f3b 6ae4 233c
00000160: cb20 573d 4b57 63bd b0e3 023d 1e60 0abd
00000170: 5826 543c bdf9 713d 543f 8bbd 8fb6 ae3c
00000180: 5fdc a73d ae1b e43d 6fb4 e1bc a846 81bd
00000190: 68f8 b83d 72dd 54bd 9ab6 cfbb db37 533d
000001a0: 77a7 bfbd 1db6 71bd d225 a8ba 21a5 9e3d
000001b0: ddc4 10bd b0e8 cbbc c40e 293b 7e03 00bc
000001c0: a226 09bd b558 c0bd 958c 933a 7ed8 4f3d
000001d0: 4e2d 53bd cc6b b2bc 00f1 b1bc 099e 34bd
000001e0: 72ce b03b 267c 42bc 2a34 15bd 1ea5 8abd
000001f0: 3503 873d 40b7 5a3d 14f1 fabc 5426 89bb
00000200: 5a0c 313c cc9d 1dbb fd1e 8fbd 9137 673d
00000210: 3aaf c6bc 1e36 e7bc f2da 52bc 815e a13c
00000220: 8301 c23d f403 a03b 942d 653d 5608 59bd
00000230: 3ec1 af3d 78a9 00bd facb de3c 4ce3 4e3c
00000240: 0bce 023d 1261 183b 6053 a3bc 8091 6d3d
00000250: 4fdf 8ebd 361d ad3c cb31 593d 6a79 393c
00000260: 5c66 9cbd 012a 60bd 4be3 cfbc a715 273d
00000270: f8bd 6d3d dc89 85bd 503f 73bd d269 853d
00000280: bb0a 143d fea4 acbd e81c 833c 3055 b33d
00000290: aaeb 45bd e828 58bd 12f4 e2bc 41b4 1bbd
000002a0: 401b b3bd ccda 2ebd 0e0b 31bd caea 56bd
000002b0: 8541 cc3b fe4b 59bd e1e6 2c3d 03eb b43d
000002c0: 3576 363c 96af 803b 1fd9 4c3d 27f6 9a3c
000002d0: e888 493d b82d b03b 3256 733b 9061 14bd
000002e0: 909b de3c 3e6a 7cbc c0ca e43c c3ca 27bd
000002f0: f2f9 80bd 46a6 b0bb dec3 963b c2b6 e23c
00000300: fc0c 24bd c492 7ebc 598a 96bd ca7f 87bd
00000310: 0af5 18bd 62be 0a3c 141f 33bd 4191 e137
00000320: 2ab1 e73c ca0c c43c 9386 03bd ed9d 1b3d
00000330: c0f6 313d 0b76 b03b 1401 d9bb d1f9 ccbb
00000340: 24a7 673c 6eaa 7b3d 9ac3 23bd 9cc2 05bd
00000350: 2b3b 333d f251 58bc 7ac7 0a3d c505 0a3d
00000360: c810 af3d 70de b13d ac42 773d 0cd0 0abd
00000370: 2c20 c83c 848e b33a beb7 35bd 63e4 273b
00000380: a6fe 063d b7f5 ea3c f50f 713d 80e4 dc3d
00000390: 65bf dbbc b5b2 253c a9c0 82bc 7773 ddbc
000003a0: d9eb 86bd 0f0e 22bc c317 5fbc 944a 01be
000003b0: 82ec 803d 0609 323d 5c77 04bd 0995 e0bc
000003c0: 4675 633d 7a91 e53d 8437 df3c c5e8 9d3d
000003d0: 7d83 f43c e6c2 203d 5aae 5cbc 6aa7 7b3d
000003e0: 4a7d dfbc 3ee9 293d dd24 5b3d a1b8 f53c
000003f0: f1fd 82bd c4af 9ebc 3b3e 323d 0297 f1bb
0.038869567 0.043547813 -0.0031615288 -0.01825018 0.0019394497 -0.036022205 0.038363513 0.008208439
-0.04942628 -0.020775363 -0.034259252 -0.008466495 -0.010354329 0.01751495 0.04588922 0.02747855
0.012348845 0.045368843 0.012281706 0.0545379 -0.0029968764 0.050585706 0.020968078 -0.070655465
0.03609678 0.026131598 0.041844454 -0.0056937705 -0.015149409 -0.08188535 0.047491793 -0.037412524
0.09783013 -0.024384245 -0.0041036056 -0.013645817 0.03542481 -0.13098845 -0.021381658 0.017979262
-0.052602097 0.009646676 0.02930617 -0.050752655 -0.021417044 0.040325668 0.03548943 0.013906462
0.050738655 0.102430135 0.020013947 0.031040952 0.06457426 -0.010171356 -0.072298504 -0.02723746
-0.07203318 -0.0912295 -0.050185606 0.06360129 -0.02933304 -0.12419939 -0.069701165 0.09341686
0.03427335 0.021462712 -0.0018848801 0.047793854 0.031873666 0.099561036 0.010240724 -0.010468421
0.105476946 0.036159173 0.01857764 -0.060692936 0.02208306 -0.06439795 -0.0754948 0.012856346
-0.005509607 0.008931582 -0.028735187 -0.021209102 0.01725844 0.03220918 0.003173642 0.010003189
0.05252151 -0.05550317 0.03195542 -0.03378307 0.012948595 0.05907606 -0.06799188 0.021327285
0.08196329 0.11138092 -0.027551858 -0.06312305 0.09031755 -0.051969 -0.0063389065 0.05156694
-0.09358113 -0.059011567 -0.0012828654 0.077463396 -0.035343993 -0.024891227 0.0025796155 -0.007813333
-0.03348411 -0.093919195 0.0011257107 0.050743572 -0.051556878 -0.021779917 -0.021721363 -0.044096027
0.005395704 -0.01187042 -0.0364267 -0.06769775 0.065924086 0.053397417 -0.030632533 -0.0041854773
0.0108061675 -0.0024050353 -0.069883324 0.056449477 -0.024253476 -0.028224047 -0.012869583 0.019698383
0.094729446 0.0048832837 0.05595167 -0.052986465 0.0858178 -0.031411618 0.027196873 0.012627434
0.03193478 0.0023251218 -0.019937217 0.058000088 -0.069761865 0.021132093 0.053026002 0.011320451
-0.07636711 -0.054727558 -0.025376936 0.040792134 0.058042496 -0.06520435 -0.05938655 0.06514324
0.036143046 -0.08429907 0.016004995 0.087564826 -0.04832045 -0.052773386 -0.027704272 -0.0380137
-0.08745432 -0.04268913 -0.043223433 -0.052470006 0.0062333965 -0.053050987 0.04221237 0.088338874
0.011136581 0.0039271815 0.05001175 0.018916203 0.04920283 0.005376544 0.0037130234 -0.036225855
0.027173787 -0.0154061895 0.02792871 -0.040964853 -0.06297673 -0.005390915 0.004600986 0.027675036
-0.040051445 -0.015537921 -0.073506065 -0.06616171 -0.037343062 0.008468242 -0.04373081 2.688973e-05
0.02828272 0.02393188 -0.03211076 0.037992407 0.04344821 0.0053851656 -0.006622443 -0.0062553664
0.0141389705 0.06144183 -0.039981462 -0.032656297 0.0437576 -0.013203131 0.033881642 0.03369691
0.08548123 0.08685005 0.060366318 -0.033889815 0.024429403 0.0013699089 -0.044364683 0.0025618307
0.032957695 0.02868162 0.05885311 0.107857704 -0.026824662 0.010113408 -0.015961008 -0.027032597
-0.06587953 -0.009891047 -0.013616505 -0.12626106 0.0629511 0.043465637 -0.032340392 -0.027414816
0.055531763 0.11209388 0.027248152 0.07710413 0.029847855 0.03924837 -0.013469303 0.061438955
-0.027281422 0.041482203 0.053501952 0.029995264 -0.06396092 -0.019370921 0.04351638 -0.007372738

fc1.bias f4 [120]
00000000: 484a bf3c 001e 6635 056b 5b3d 5478 7d3d
00000010: 7546 09bd b3bc ba3c 3c4d 423d ab23 09bc
00000020: 3c06 6ebd 387f 463d 326c 4d3b a88a 06bd
00000030: 3234 b1bc f697 a8bc 10ba f4bc 18a9 113d
00000040: 5456 213d 3787 15bb 5224 f1bb f7d3 0ebd
00000050: 5a33 a23c 2a09 40bd f3f8 fdbb 56b7 2ebd
00000060: 7090 d23c caba b13c 38d2 27bd ac67 79bc
00000070: 5b87 903c 0e17 3fbc ab3c b33c 2675 fbbc
00000080: 1647 393d 7806 a63c 7ba9 953b dce6 b6bc
00000090: f300 77bd 8696 803c 3cc2 76bd 78c2 d1bb
000000a0: 9f76 a83c 5c39 073d 1364 aa3c 0cf3 783d
000000b0: f749 103d 3cf9 d03c 05af 803c d22c 013d
000000c0: 653e 583d b00a 21bd c84f 45bd bc53 613d
000000d0: 18f6 b23b 0f4c 26bd f7db bebc 3152 0d3d
000000e0: 3fbc 533d 5477 793d ed1d 2cbc 323e 433d
000000f0: a0c4 30bd 315d 57bc a89a 38bd b08f 533d
00000100: 4c4e 80bc 5363 dabc d340 35bd 7eca edbc
00000110: a68b ca3b 7851 203c cde3 98bc 9cbd aa3c
00000120: 7fb1 22bd d09d 08bd 38b4 2b3d 57cf e6bc
00000130: 3a44 dbbc 466e b6bc 2671 3abd 984d c33c
00000140: 7450 413d ab37 ebbc 16da 6a3d 3188 e7bc
00000150: 8690 443a 3c3f 153c 47e7 833d 473e 10bd
00000160: 42c5 7d3d 5ab7 0fbd d543 883d e239 523d
00000170: ac48 3c3c 861a a63c 70c5 30bd 753f 0a3c
00000180: a3db 123d ffba 42bd 1e1a 21bc 3e02 963c
00000190: 192f 7f3d 00a0 cf3c c003 31bd 4aa4 31bd
000001a0: 6b28 08bd a177 1c3c 46e4 293d 661b 7cbb
000001b0: 751e 0dbd 87e5 ad3c 5787 52bd 045b 873d
000001c0: 5492 55bb 944e b93c d183 44bd 0828 5f3c
000001d0: 4f0e 6abd aeaa 553d ea2b 093d a2e1 16bd
0.02335085 8.572533e-07 0.05356886 0.061882332 -0.03351446 0.022795057 0.047436938 -0.00837032
-0.058111414 0.04846117 0.0031345007 -0.032847077 -0.021631334 -0.020580273 -0.029873878 0.03556165
0.03938897 -0.002281619 -0.007359066 -0.034870114 0.019799877 -0.04688374 -0.0077506243 -0.04265531
0.025703639 0.021695513 -0.040971965 -0.015222471 0.017642668 -0.0116632115 0.021879515 -0.03069551
0.04523381 0.020266756 0.004567323 -0.02232688 -0.06030364 0.015696775 -0.06024383 -0.0064013563
0.020564375 0.033013687 0.020799672 0.060778663 0.03522679 0.02550947 0.015708456 0.031536885
0.05279388 -0.039316833 -0.04817179 0.055011496 0.0054614656 -0.04059988 -0.023298247 0.034502212
0.051693197 0.060904816 -0.010505182 0.047666736 -0.043156266 -0.013144777 -0.045069367 0.051650703
-0.015662335 -0.02665869 -0.044251274 -0.02902722 0.006181198 0.009785049 -0.018663311 0.020842366
-0.039720055 -0.033353627 0.041919917 -0.02817504 -0.026765931 -0.02226938 -0.045518063 0.02384071
0.047195867 -0.028713068 0.05733689 -0.028263183 0.00074983423 0.0091093145 0.06440597 -0.035215642
0.061955698 -0.035086967 0.06653563 0.051324733 0.011491936 0.02027632 -0.04315704 0.008437981
0.035853993 -0.047541615 -0.009832887 0.018311616 0.062300775 0.025344849 -0.043216467 -0.04336957
-0.03324167 0.009550006 0.041477464 -0.003846848 -0.034452874 0.021227611 -0.0513986 0.06609157
-0.003258844 0.022620477 -0.047977272 0.013620384 -0.057142552 0.052164726 0.033489145 -0.036836274

fc2.weight f4 [84, 120]
00000000: 5a28 7bbd d6a0 a4bd 926c 79bc be98 183e
00000010: 8e8d 403c 4faa c13d d0b2 7dbd a7b1 a2bd
00000020: f482 17bd 86c0 9a3d e98a 24bd 28f3 013d
00000030: 731b 2fbd fa24 4e3d b229 b3bd da6f a6bc
00000040: e3a6 87bc a2d4 9ebd e351 aaba 530a 99bc
00000050: dec3 8c3d 1b6b adbc 7937 e9bd e6ac a8bd
00000060: e41f 6dbc 8d69 f63d da14 803d dc9d c0bd
00000070: f892 6aba e213 c3bd 2abc 1ebc ac53 30bc
00000080: 4592 f4bd ea52 aebc 7db2 8c3d 0f76 01be
00000090: d45d e93c 8a99 9e3d 9965 953a a063 92bc
000000a0: 91af 7ebd 7784 da3c dc37 bfbd e32e 883c
000000b0: b01b a839 035b afbd 9349 473d 9038 78bc
000000c0: fe0c 023c 6483 663d 0a0a 703d b075 f93c
000000d0: 7786 b8bd 690a 063e 1da0 493d ef8d 4b3c
000000e0: 8a24 8fbc 6d8d 9c3d e00c 6e3d 014a 4cbd
000000f0: 73c5 9e3b 1aef cb3c 8350 9a3d bc43 84bd
00000100: 37d5 723b 71e9 f6bc f264 d23d 7c4d d7bd
00000110: 3221 e3bc a687 3abd 6e88 38bd 22eb 943d
00000120: 2a2d ba3d d013 cabc 064e 4abd f658 aabd
00000130: 192d dcbc d2a5 b73d 5478 9a3d c13f 363d
00000140: f264 0e3d d07b bebc 18e7 173d ca74 a9bd
00000150: a2e6 97bc ac1c d73d 736a c13c 0681 243c
00000160: 569a 54bd 71c6 b9bd 658e 0d3c e53b 183d
00000170: 494a 503d c236 ab3c 7635 903c dc4f 6dbd
00000180: 9e9e 153d 767c 3fbd c497 763d 6d86 0bbd
00000190: 87e5 0ebd 4ec4 bb3d cdbd 2e3c 8191 1c3d
000001a0: c3c1 a8bd 8bad 323d 9c5f af3d da54 d9bd
000001b0: 29e0 253c d4f5 9bbb 32e9 1c3d 68d4 0a3d
000001c0: f07a 4dbd 796d 89bd 31a3 183d 08c7 3e3d
000001d0: 7a6b 93bd 8892 3e3c 403e adbd be54 e83b
000001e0: 3b06 af3b aaea 1fbd 45ae 8bbc 03b3 9e3d
000001f0: 01f6 5e3d b8e3 a5bd b420 7f3c 3270 40bd
00000200: 5901 943d 31e6 be3d d2e3 973d 0737 b53d
00000210: 48bf 66bd 5cc9 873b 3c9f 393d fb6c 38bd
00000220: 884a 923c faf4 4a3d 67fc a63c 1511 113d
00000230: ac95 3e3a 5a31 473d 79f3 13bd 6195 06bd
00000240: 1fb8 8cbd 2eab 12bd 70b1 8d3c 74cf 3d3d
00000250: 0c2e a0bd 493b 873c 7eca a8b9 b909 a93d
00000260: f425 b93c 5fbf 0ebd c2d9 a1bd da1d 833d
00000270: eecb 0ebd a5d8 a9bd 3ae2 33bb f611 ad3c
00000280: 8677 aabd 0c75 4ebd 0e34 983d 87cf 7fbd
00000290: f46d 04bd 486c a13d bc87 56bc 6572 a43d
000002a0: 4b62 d2bb 285e 12bd 2937 4bbd 7cbc c2bb
000002b0: 9452 913d 3c88 543d a235 233d 1a66 a83d
000002c0: d0b4 9fbd a4ed f0bc a9e2 9f3d 0078 8ebd
000002d0: 01eb d4bc 94bc 933d 8598 b4bc 9074 943d
000002e0: b466 bdbc 64dc d1bc 287b febc 70ae 03bd
000002f0: 34aa 7b3d 70e1 593d 4e12 adbd 06dc 46bd
00000300: 124d bdbc 7430 a0bd 8053 b4bd e7ae 6dba
00000310: 1b55 373d 463a bebc e640 043c 28b7 973d
00000320: 5862 00bd cd6d 2bbd 5678 5fbc f205 a6bd
00000330: 05c3 a23d a309 8f3d 0ef6 e0ba 62f3 473d
00000340: eb0f b33d ce12 723d 860f 08bd c2db a5bd
00000350: 8ecf 0dbd 19d3 90bc c245 433c 46e4 7c3d
00000360: 503d 453d ad54 94bd f6c1 82bd 4b85 80bd
00000370: 1568 1f3c 1ef7 75bd b4ca a6bd 4945 b6bd
00000380: e409 413d fb1f ee3c e640 913d 43f9 31bb
00000390: 5613 30bd ee08 03bd 5741 ddbd 884f 983d
000003a0: c547 313d ae96 f53b 1a2d 99bd 24ad f2bb
000003b0: 454e 433d 001f e73c 72ac 1abd b83f 0fbd
000003c0: a228 b4bd dd71 a83d 6c52 aa3d b1f2 a43d
000003d0: 8e54 b73c b3aa 96bd 401f b13c e60a f23b
000003e0: 27a2 a6bd 2f6c 693d 04d8 17bd 107b e7bb
000003f0: d4f5 243d 5e94 04bd c363 56bd 3cb6 933c
-0.06131778 -0.080384895 -0.015223639 0.14902017 0.011752499 0.09456312 -0.061938107 -0.07944041
-0.03699012 0.07556252 -0.040171538 0.031726032 -0.042750787 0.050328232 -0.08748187 -0.020317007
-0.01655907 -0.077554 -0.0012994375 -0.01868168 0.06873296 -0.021169236 -0.11387534 -0.08236103
-0.014472935 0.12031851 0.06253977 -0.09405109 -0.00089482917 -0.09525277 -0.0096884165 -0.010762136
-0.11941961 -0.02127977 0.068699814 -0.12642692 0.028487124 0.07744129 0.0011398076 -0.01786977
-0.062179152 0.026674492 -0.09336826 0.01662392 0.00032064086 -0.08562281 0.04865415 -0.015150204
0.007937668 0.056277648 0.058603324 0.030451626 -0.09010022 0.13089909 0.04922496 0.012423976
-0.017473478 0.07644162 0.058117747 -0.049875263 0.004845315 0.024894286 0.07534888 -0.06458232
0.0037053355 -0.03014061 0.1027316 -0.10512826 -0.02772579 -0.04553952 -0.045051984 0.072714105
0.090906456 -0.02466765 -0.049390815 -0.08317749 -0.026876973 0.089671746 0.07542482 0.044494394
0.034764238 -0.023252398 0.037085623 -0.08274229 -0.018542591 0.105035156 0.02361033 0.010040527
-0.051905 -0.09071053 0.0086399065 0.037166495 0.050852094 0.020900134 0.017603617 -0.057937488
0.036528222 -0.046749555 0.06020333 -0.034063745 -0.034886863 0.091683015 0.010665369 0.0382247
-0.08240082 0.043622535 0.08563158 -0.10611887 0.010124245 -0.0047595296 0.03830833 0.033893973
-0.05016607 -0.067103334 0.037265006 0.04657653 -0.07198234 0.011631615 -0.08459139 0.00709018
0.005341319 -0.039042152 -0.017050872 0.077489875 0.054433826 -0.081000745 0.015571762 -0.046981998
0.072268195 0.09321249 0.074165 0.08848386 -0.056334764 0.004143877 0.045317873 -0.045025807
0.017857805 0.049550034 0.020384027 0.03541668 0.00072702277 0.04863105 -0.036120865 -0.032857303
-0.06871056 -0.03580778 0.017296523 0.04634042 -0.07821283 0.016507762 -0.00032194325 0.082538076
0.022601105 -0.034850474 -0.07902862 0.06402178 -0.03486245 -0.08293275 -0.0027448074 0.021126729
-0.083235785 -0.050404593 0.07431804 -0.062453773 -0.032331422 0.07881981 -0.013093885 0.080296315
-0.006420409 -0.035734326 -0.04961315 -0.0059428792 0.07095829 0.051887736 0.03984607 0.08222599
-0.07798159 -0.02941019 0.07806904 -0.06956482 -0.025990965 0.07213703 -0.022045383 0.07248795
-0.023120262 -0.025617786 -0.031064585 -0.03214878 0.061441615 0.05319351 -0.08450757 -0.048549674
-0.023108039 -0.07821742 -0.08804989 -0.0009066895 0.044758897 -0.023221146 0.008072114 0.07407981
-0.031343788 -0.04185276 -0.01363953 -0.08106603 0.07947353 0.0698426 -0.0017163174 0.048816092
0.087432705 0.059099965 -0.03321793 -0.08098556 -0.034621768 -0.017678784 0.011918487 0.061741136
0.048154175 -0.07242713 -0.06384651 -0.062754236 0.009729405 -0.060050122 -0.08144131 -0.08899934
0.047128573 0.029067984 0.070924565 -0.0027156628 -0.04298719 -0.031990938 -0.10803478 0.074370444
0.043281335 0.007494769 -0.074793056 -0.007405894 0.047682066 0.028213024 -0.037762113 -0.034972876
-0.087968126 0.08224843 0.08316502 0.08054102 0.022379186 -0.07356777 0.021621346 0.007386553
-0.08136397 0.056987938 -0.037071243 -0.0070642307 0.040273502 -0.032368056 -0.052341234 0.018031232

fc2.bias f4 [84]
00000000: 58c8 69bb 3067 143d 1673 aabd 6940 a03c
00000010: 163a b7bd 9c82 90bc aea1 bf3d 6648 fbbc
00000020: d2ef 96bc 7e83 f23c e0d5 a1bd a2c7 9e3c
00000030: 365a a83d c265 cdbd 9a56 b83d 4def 3cbd
00000040: 6916 6ebd 0302 373b f02e a0bd ccf6 f43c
00000050: a165 d33d 5299 7dbd 6dcf cb3d a5be 65bd
00000060: 8eda 893d d4e4 313c 82e8 8c3c a0d4 9fbd
00000070: a76a 86bb 8a6e 753a 1bd3 153d 7de4 6b3d
00000080: 6810 8cbd e6d5 adbc 895c a13d 3698 8dbd
00000090: bb2d e43c 9ba4 ac3d adfe 0f3e bc1e 51bd
000000a0: 88b1 a43d a048 a03d de95 b3bc e8fd 6e3d
000000b0: 9faa 633d ef93 8e3d ff05 b0bd bd44 cb3b
000000c0: 6bc5 9f3d 4aac 7dbd 3ac3 57bd 0970 8b3c
000000d0: ca44 163d 8a6e 2abd 53ad bfbd ba90 be3c
000000e0: b09d 9d3d d2fb 2e3c 5835 9ebd 7cc0 903d
000000f0: 830a 923d 41dd 08bd 1b70 82bc fc8a aa3d
00000100: 6b70 593d 3128 e93b b925 5b3d 370f a1bc
00000110: 8567 babc 7904 6abd ee1c 24bd a7c7 4b3d
00000120: 4fe8 8dbc 9190 e03d deef 99bd 12e4 aebc
00000130: a194 3c3d 00e1 b7bd 707e e0bc 0c85 823c
00000140: 644e 2dbd beac dbbc 9228 e5bb d6e9 a63d
-0.0035672393 0.03623122 -0.08322732 0.019561963 -0.08946626 -0.017640404 0.0935701 -0.03067417
-0.018424902 0.029603716 -0.079021215 0.019382302 0.08220331 -0.100291744 0.09000893 -0.046126653
-0.05812684 0.0027924783 -0.078214526 0.029902838 0.103221186 -0.061913796 0.09951673 -0.056090016
0.06731139 0.0108577795 0.017200712 -0.07804227 -0.0041020694 0.000936248 0.03657828 0.05759095
-0.06839067 -0.021220159 0.07878978 -0.069137976 0.027853837 0.084298335 0.14061995 -0.0510547
0.08041674 0.07826352 -0.021922048 0.058347613 0.05558264 0.0696181 -0.08594894 0.0062032626
0.07801326 -0.061931886 -0.052676417 0.017021196 0.036686696 -0.041609325 -0.09359231 0.02326237
0.07696092 0.010680156 -0.07725018 0.070679635 0.07130911 -0.03341413 -0.015922597 0.083272904
0.053085726 0.007115387 0.053502772 -0.019660575 -0.02275444 -0.05713317 -0.040066652 0.04975095
-0.017322687 0.10965074 -0.07516454 -0.021348987 0.04604018 -0.08978462 -0.02740404 0.015932582
-0.042311087 -0.026815768 -0.0069933617 0.081500694

fc3.weight f4 [10, 84]
00000000: 785e ee3c 0575 d33d 84e7 bfbd c08d a43d
00000010: ae37 e9bd 2ee7 27bd 5bd9 db3b 752b 823d
00000020: ec03 54be 75ec 72bd 6f2d d7bd 4062 ee3b
00000030: 1b97 0d3d 353a 7b3e 72f6 07be e7b8 a7bd
00000040: 7cfc e1bd 6682 6bbd 1ed3 2ebd b8b3 833e
00000050: 3057 78be 689f 5a3d 1874 2a3e 224f 9c3e
00000060: 9483 e9bc 786d 63be 518a 03be 312c 5cbd
00000070: 5156 913c c4bd 16be f75b 9e3e 508c 61bd
00000080: 573c c7bd 465c c0bd cacf 133d 3e89 a13c
00000090: 84cd cabd 8cf4 253e 9042 8cbe 022e b9bd
000000a0: e29a fe3c 5283 db3d 48f0 b9bc dc74 d4bd
000000b0: 20a6 123e ea92 08be c7cb 723c f206 abbd
000000c0: dec0 493e 9e16 b7bd 667a 01be c0d9 6abe
000000d0: fd62 c4bb c538 5f3c 594e a53d 5eaf 703d
000000e0: 838e 4fbc 74ec 1fbe 48c4 723d d58e aa3c
000000f0: ac91 9bbd a35b d5bd 92b2 88bd 92ae 9cbc
00000100: b573 083c e013 243d 15d4 1e3d 912b ad3d
00000110: 8ae3 913d 2844 2c3d dae5 163d fa65 c3bd
00000120: fb38 5ebe f0c8 85be 0354 83bd 70b9 bbbd
00000130: 120b ff3d 6076 11bd 75ed 2d3d 0271 09bc
00000140: 2873 803d fab3 1a3d f839 a33d ec68 67bc
00000150: b8e3 8f3e 2811 7c3d 9e18 963d 8867 9dbd
00000160: b640 743d f4b2 6bbc ceeb 323e 7333 a13d
00000170: 467f 6a3d bfb8 d9bd 03fe a63c 06aa bcbd
00000180: 2857 65bd b71b d0bd 99a2 30bd 4a64 373e
00000190: 8bf2 65bc 6226 8fbc 0283 9e3c b836 77be
000001a0: cee8 80be e02b 51bd 2c6a 183e af85 0ebe
000001b0: 6979 2b3d 64ac 8b3e f998 453c 8499 a3bc
000001c0: 0eaa 733e 86d4 9b3e 3bb1 3bbe 1f61 163e
000001d0: dc98 b73d de06 1c3d dfa8 9c3d 6150 39be
000001e0: 52d7 8fbd 037d 21be 80f0 b53e 9e1a 4abe
000001f0: 7d95 b43d a33d 85be 2e0b df3c c919 ea3d
00000200: e22a d0bd 796c 1ebe cf00 1fbd e6a0 ad3c
00000210: d529 2fbd a0c7 adbd 0c8d e53d 80d3 ef3d
00000220: 0250 93bd ecb1 6bbd 4eb0 12be f2aa af3d
00000230: 2387 f63b 0d54 eebd baf0 bbbd e7af 48bd
00000240: c40e fdbd 0942 723d 341f b6bc dcdb 4f3d
00000250: ac18 dbbd 90b0 9d3d 087a 4fbe b6a0 a9bd
00000260: 8b39 a83d cd52 d9bd 2122 00bd 41b5 c1bd
00000270: ec26 623e e7a9 97bd 97a2 ce3d 462b bc3d
00000280: 5d32 2cbe 0686 56bd 4886 223d a974 29bd
00000290: 117d ab3c afe3 b0bd d210 633d 7f3c 383e
000002a0: d7bf f3bd b6c1 663d c7b8 833d 4abf d0bd
000002b0: 3a8f e03d 94ba 523d 8b99 0b3e 4ab0 a53d
000002c0: 7aca 9e3e 8c5a 9f3c e804 c23c acdb 973d
000002d0: 294a c93b 380a a53d cd52 47be cc88 823c
000002e0: 5bd4 263e 6f3f 033d 4acd abbd faff 153d
000002f0: 1a56 ecbb f4bd 06bd c5d4 8cbc f779 2cbd
00000300: e8bd 98bd 8f83 3b3e 8f6b d4bd b8b8 b73d
00000310: f84e 353e 052a 9c3d e680 93bd 5263 bfbc
00000320: 51e2 35bc 1ce1 2ebe f27b 9f3d 5ee2 3c3b
00000330: 532e 85bd 4337 833e 6438 15bd 53d9 56bd
00000340: 7ad7 163e 30ac 853e 989d b33d bc82 71bd
00000350: 2ed7 d13c 63fa dcbd e3e8 363e 7878 893c
00000360: b0bc 3fbd 0645 9b3d bb7a 093e 8061 0dbe
00000370: 8dc4 a5bd 149f c8bd 4eec 3cbc d9c5 4ebc
00000380: c967 313e 33ab 88bc 33d2 03bd 7a99 db3d
00000390: 04cc 15be fedc bebd 98e9 3a3d 4a56 8ebd
000003a0: 1ee0 573e 6f06 ef3c 92d5 42be 22a6 ccbc
000003b0: fbfb bf3b 9704 b7bb 0a7d 5abc c950 27bd
000003c0: 2f26 d1bc 38bd 16bd 7ef4 c73c 7f5d 023e
000003d0: 26c6 b5bc f03c ecbc 3ee8 14bd f524 f7bd
000003e0: 52cc 163d 821f 143c 9bbe 3dbe b8cb 88bb
000003f0: 60ed bfbd 56ea d3bd 2020 87bd 6477 03be
0.02909778 0.10325054 -0.0937033 0.08034849 -0.11387573 -0.040991955 0.0067092604 0.06355945
-0.20704621 -0.059307534 -0.10506713 0.007274896 0.034567934 0.24533923 -0.13277605 -0.08189564
-0.11034486 -0.057497405 -0.042681806 0.25723052 -0.2425201 0.053374678 0.16645849 0.30529124
-0.028505124 -0.22209728 -0.12845732 -0.05375308 0.017741354 -0.14720827 0.3092954 -0.055065453
-0.09728306 -0.093926 0.036086835 0.019718762 -0.0990248 0.16206568 -0.27394533 -0.090419784
0.031079713 0.10718407 -0.022697583 -0.10373852 0.14321184 -0.13337293 0.014819092 -0.08350934
0.19702479 -0.08939861 -0.12644348 -0.22934628 -0.0059932456 0.013624375 0.08071584 0.058760993
-0.012668255 -0.15617543 0.05926922 0.02082006 -0.07596144 -0.10417869 -0.066746846 -0.01912621
0.008328368 0.040058017 0.038776476 0.08455575 0.07123478 0.042057186 0.036840297 -0.09540935
-0.21701424 -0.26129866 -0.06412508 -0.09166229 0.12453283 -0.03551328 0.042462785 -0.00838876
0.06271964 0.037769295 0.07970041 -0.014124136 0.28103423 0.0615398 0.07328914 -0.07685763
0.059632026 -0.0143859275 0.17472765 0.07871141 0.057250284 -0.10630941 0.020384794 -0.09212117
-0.05599132 -0.10161536 -0.043123815 0.17909351 -0.0140348775 -0.017474357 0.019349579 -0.24141967
-0.25177616 -0.051067233 0.14884251 -0.13918184 0.041863833 0.2727996 0.012060397 -0.019970663
0.2379534 0.3043558 -0.18329327 0.14685486 0.089647025 0.038092487 0.07649397 -0.18097068
-0.07023491 -0.15770344 0.3553505 -0.19736716 0.08817575 -0.26023588 0.02722701 0.114306994
-0.10164429 -0.15471067 -0.03881913 0.021194886 -0.042764504 -0.08485341 0.11208543 0.11710262
-0.07192995 -0.057542726 -0.14325067 0.08577527 0.007523434 -0.11637125 -0.09176774 -0.04899588
-0.12356332 0.059145007 -0.022231676 0.050746784 -0.10698065 0.07699692 -0.20261395 -0.08282606
0.082141005 -0.10611496 -0.031282548 -0.094583996 0.2208516 -0.07405453 0.10089605 0.09187941
-0.16816087 -0.05237391 0.03967884 -0.04137102 0.02093366 -0.08637177 0.055435963 0.17991827
-0.11901825 0.05633708 0.06431728 -0.101927355 0.10964818 0.051447466 0.1363279 0.08090265
0.31013852 0.019452356 0.02368398 0.07414946 0.006142874 0.0805859 -0.1946518 0.01593437
0.16291945 0.032042917 -0.08388765 0.03662107 -0.0072124125 -0.032895997 -0.0171913 -0.042108502
-0.07458097 0.18311904 -0.10372078 0.08970779 0.17705905 0.07625202 -0.0720232 -0.02336279
-0.011101321 -0.1707806 0.077873126 0.0028821449 -0.06502976 0.256281 -0.03643073 -0.05245335
0.14730635 0.2610793 0.08770293 -0.05896257 0.025615301 -0.10789945 0.17862277 0.016781077
-0.046810806 0.075815246 0.13425724 -0.13806725 -0.0809413 -0.09795967 -0.011530949 -0.012620413
0.17324747 -0.016683197 -0.032182883 0.10722633 -0.14628607 -0.09319495 0.04563293 -0.06950052
0.21081588 0.029177872 -0.19026783 -0.024981562 0.005858896 -0.005585264 -0.013335476 -0.040848527
-0.025530903 -0.036801547 0.024408575 0.12730978 -0.022189211 -0.028837651 -0.036354296 -0.12067596
0.03681595 0.009040715 -0.18529741 -0.004174676 -0.093714476 -0.103474304 -0.06597924 -0.12838513

fc3.bias f4 [10]
00000000: 7fa9 38bd 8e75 3a3d 47a6 e0bd f0fe 33b9
00000010: f90f d5bd 2559 8b3d 22d9 3dbd b7d9 643d
00000020: e474 e6bc 34ce a13d
-0.04508352 0.045522265 -0.10969215 -0.00017165742 -0.10403437 0.06804112 -0.046349652 0.05587169
-0.02813191 0.07900658
