src/artifacts/checkpoints/round_005.pt (torch, 181669 bytes, 10 tensors)

conv1.weight f4 [6, 1, 5, 5]
-0.05859298 -0.22404245 -0.41472206 -0.15013519 0.04090449 0.19158892 -0.020415133 -0.47119716
-0.1356359 -0.12129827 0.35070568 0.29779813 -0.32033032 -0.21373685 -0.41916057 0.08001432
0.5224789 0.108157985 -0.105429545 -0.09501493 -0.14645512 0.31028506 0.45966995 0.24587746
0.13719873 0.026856052 -0.09312917 -0.28388208 0.09139743 0.30729663 0.08792659 -0.19719017
-0.21775505 -0.14038526 0.19537309 -0.10873973 -0.27548903 -0.251575 -0.27898133 0.09855501
-0.14750883 -0.16111465 -0.1426822 -0.27195784 -0.23283115 -0.10844002 -0.2230266 -0.12773775
-0.09323544 -0.2070851 0.09337623 -0.24477923 -0.16834229 -0.28423098 -0.2676538 -0.043454226
-0.12566629 -0.37935382 -0.35233888 -0.063975036 -0.17931102 -0.03811241 -0.24475102 0.11127692
0.10341111 0.23486143 -0.04845217 0.18534788 0.27172282 0.20128024 0.35547125 0.37755668
0.34974906 0.2002449 0.084780574 0.09177251 0.06845967 0.25901213 -0.009663326 0.059160307
-0.041758474 0.32951757 0.17743999 -0.22385429 -0.083154626 0.23595153 0.45247623 -0.10726823
-0.31386036 -0.40324348 0.14440848 0.33188593 0.006558203 -0.17209479 -0.0062350985 0.014407467
0.27014506 -0.066446185 -0.14510058 -0.24254571 0.12043739 0.20279326 0.118702404 0.17688486
0.0065957555 0.050624344 0.3522557 0.4451835 0.45561156 0.28298205 -0.012164669 0.006297186
-0.008825578 0.0405546 0.2804662 -0.3997223 -0.43123722 -0.3409111 -0.10499046 -0.09725801
-0.3672784 -0.2734829 -0.36200005 -0.3896148 -0.04137446 -0.08186747 -0.28840256 0.04999981
0.091539875 0.055076424 -0.112770304 -0.26452306 0.026731482 0.24170966 0.14253777 -0.1465373
-0.20850848 -0.24104822 0.17273906 0.31617385 -0.3306163 0.04052072 -0.21462561 0.2441697
0.2248729 -0.050633267 -0.28487986 -0.104158245 0.108238 0.15068124
00000000: 31ff 6fbd 626b 65be 7356 d4be 0abd 19be
00000010: 778b 273d e32f 443e a33d a7bc c140 f1be
00000020: 23e4 0abe 3a6b f8bd b28f b33e ff78 983e
00000030: 5602 a4be d5dd 5abe 379c d6be 8cde a33d
00000040: 2dc1 053f ef81 dd3d 72eb d7bd 3097 c2bd
00000050: 55f8 15be afdd 9e3e dc59 eb3e 4dc7 7b3e
00000060: d37d 0c3e 3901 dc3c 82ba bebd fe58 91be
00000070: 932e bb3d fc55 9d3e db12 b43d 38ec 49be
00000080: 2efb 5ebe 27c1 0fbe e20f 483e f0b2 debd
00000090: e60c 8dbe 70ce 80be a4d6 8ebe 36d7 c93d
000000a0: 8e0c 17be 3dfb 24be 481b 12be 0f3e 8bbe
000000b0: 4a6b 6ebe cd15 debd 1661 64be afcd 02be
000000c0: 39f2 bebd 1e0e 54be 093c bf3d 68a7 7abe
000000d0: ec61 2cbe b986 91be eb09 89be 0ffd 31bd
000000e0: aaae 00be aa3a c2be c365 b4be 5805 83bd
000000f0: 4f9d 37be c21b 1cbd 03a0 7abe 27e5 e33d
00000100: 34c9 d33d 847f 703e c875 46bd d6cb 3d3e
00000110: 411f 8b3e 681c 4e3e 5400 b63e 1c4f c13e
00000120: 4f12 b33e 000d 4d3e 70a1 ad3d 3af3 bb3d
00000130: 9534 8c3d 3d9d 843e ed52 1ebc 1452 723d
00000140: ef0a 2bbd 87b6 a83e d4b2 353e 0f3a 65be
00000150: f94c aabd 479d 713e f7aa e73e 72af dbbd
00000160: 4eb2 a0be ee75 cebe d1df 133e f4ec a93e
00000170: 32e6 d63b 9e39 30be cc4f ccbb 4c0d 6c3c
00000180: 7450 8a3e f014 88bd 3f95 14be e75d 78be
00000190: e1a7 f63d 09a9 4f3e 3f1a f33d 4e21 353e
000001a0: 3521 d83b 795b 4f3d dc5a b43e 17ef e33e
000001b0: eb45 e93e 06e3 903e 524e 47bc a058 ce3b
000001c0: 2899 10bc 951c 263d 4499 8f3e 67a8 ccbe
000001d0: 20cb dcbe e68b aebe 3d05 d7bd 352f c7bd
000001e0: ea0b bcbe f305 8cbe 1258 b9be 977b c7be
000001f0: 4478 29bd 22aa a7bd 80a9 93be 9acc 4c3d
00000200: 4279 bb3d d197 613d 1ef4 e6bd 916f 87be
00000210: fbfb da3c bd82 773e 6cf5 113e e00d 16be
00000220: 3f83 55be 58d5 76be 82e2 303e 8ae1 a13e
00000230: 8a46 a9be 0ef9 253d d1c6 5bbe 9f07 7a3e
00000240: 1545 663e d464 4fbd c6db 91be eb50 d5bd
00000250: e2ab dd3d 2f4c 1a3e

conv1.bias f4 [6]
-0.068726614 0.30043125 0.038384467 -0.13528387 -0.053776007 -0.17803368
00000000: 8ac0 8cbd 20d2 993e 0839 1d3d db87 0abe
00000010: 3b44 5cbd 764e 36be

conv2.weight f4 [16, 6, 5, 5]
-0.17334138 -0.1602079 -0.058647092 -0.015159606 0.10917038 -0.12020907 0.0019748108 -0.10665482
0.014607319 -0.030321663 -0.06874173 0.18491101 0.08725483 0.059802663 -0.03242946 -0.10815473
0.21309018 0.12089469 -0.083084516 -0.06772223 -0.08499759 -0.06380548 -0.008380357 -0.015281935
-0.039365973 -0.14536457 -0.12145249 -0.11413064 -0.07781223 -0.121749766 -0.12860003 -0.079723455
-0.09872513 -0.10256405 0.009158687 -0.085780986 -0.16649339 -0.0846379 -0.0532261 -0.096270986
0.039334584 -0.05063052 -0.22975293 -0.11592449 -0.09375177 0.0044174795 0.072380565 -0.055446245
-0.0075907013 0.020859461 -0.11368175 -0.040418923 0.11633272 0.04374671 0.014406172 -0.2703232
-0.03752643 -0.04926665 -0.0024362283 0.120958135 -0.20688541 -0.1354594 0.14833675 0.17601208
0.12441744 -0.32038268 -0.12681068 0.11263076 0.13102095 -0.07434486 -0.29240817 -0.120298654
-0.11519821 -0.13612047 -0.057483338 0.008894905 0.17551242 0.029906068 0.0111065535 -0.0024200676
0.11475197 0.20001712 0.11401654 0.003844162 -0.033034205 -0.017803343 0.15413813 0.10838741
0.008718597 -0.019075034 -0.18329905 0.027056208 -0.051064 0.10938002 -0.03501927 -0.0771787
0.057877317 0.038134217 -0.07966182 -0.13639487 -0.2301572 -0.2437301 -0.13920972 -0.02335978
-0.099538006 -0.16632073 -0.3059167 -0.12022182 -0.07995681 -0.0018048673 -0.0067849504 -0.13136531
-0.25562727 -0.112582885 -0.043924488 0.16033055 0.10884639 -0.014259749 0.10414615 0.070055775
0.10911146 0.12157145 0.27184674 0.11212693 -0.11146021 0.10579331 0.081890464 0.032735948
-0.09032077 -0.022366421 0.13311733 0.111833096 -0.07959159 -0.11480813 -0.14612916 0.13755703
0.15791784 -0.1212394 -0.08730555 -0.06494883 0.20978613 0.061838835 -0.08479943 -0.030961538
-0.008902455 0.120232075 -0.032286413 -0.016372824 -0.113543294 -0.08565312 0.24981853 -0.10918035
-0.11113295 0.0016088196 -0.02412304 0.20995066 0.27836385 -0.051160883 -0.060982928 -0.040580407
-0.0015689625 0.2869411 0.14844956 -0.0947925 -0.06549799 -0.10894791 0.02049967 0.04564929
0.02873856 0.009952019 -0.12370998 -0.09008867 0.031192958 0.04037243 -0.011439913 0.0008536185
0.0749695 -0.021321803 -0.07748161 -0.04124001 -0.121369846 -0.0074441526 0.039187044 -0.018202974
0.005869445 0.0016025358 0.0035154815 0.009112896 0.016675942 -0.0069231815 -0.051736034 0.030287342
-0.03133502 -0.08680071 0.02807917 -0.048088584 0.035353042 -0.017564453 0.020568643 -0.0858356
0.1324441 -0.018472077 -0.13035259 -0.077084124 0.00796101 0.029272158 0.121593945 -0.025223132
-0.1384044 -0.017611349 -0.18185161 0.055091556 0.053274583 -0.12229463 0.025393687 -0.09404772
0.023224577 0.02387036 -0.05212346 -0.038858116 -0.1443584 -0.09772456 -0.030032475 0.04778237
0.041775018 0.043096557 -0.20229012 -0.15385704 -0.008152745 0.005703579 0.061859436 0.05162962
-0.09419559 0.008044558 -0.0027057081 -0.0070630712 0.15320472 -0.10684727 0.023882823 0.05604105
-0.014356196 0.13503094 0.0723682 -0.02300734 0.001981267 0.13188845 0.070034765 -0.024423225
-0.044022474 0.05794784 -0.13175239 0.05722722 0.00037480867 -0.07460246 0.066836216 -0.013973982
00000000: 6780 31be 8a0d 24be ef37 70bd ff5f 78bc
00000010: b894 df3d 2c30 f6bd d46b 013b d86d dabd
00000020: 8953 6f3c 2365 f8bc 77c8 8cbd 5059 3d3e
00000030: a9b2 b23d a3f3 743d c1d4 04bd 3a80 ddbd
00000040: 5034 5a3e a397 f73d 3728 aabd f4b1 8abd
00000050: 3713 aebd 73ac 82bd c44d 09bc 1561 7abc
00000060: 373e 21bd 73da 14be 15bc f8bd 53bd e9bd
00000070: 055c 9fbd f157 f9bd baaf 03be 0d46 a3bd
00000080: 6730 cabd 1a0d d2bd 510e 163c f1ad afbd
00000090: 3e7d 2abe a356 adbd 9c03 5abd b929 c5bd
000000a0: 4d1d 213d f361 4fbd 5a44 6bbe d269 edbd
000000b0: ee00 c0bd 81c0 903b 433c 943d 9a1b 63bd
000000c0: 6bbb f8bb 76e1 aa3c fad1 e8bd 508e 25bd
000000d0: d93f ee3d c02f 333d dd07 6c3c cd67 8abe
000000e0: 50b5 19bd d4cb 49bd 21a9 1fbb e6b8 f73d
000000f0: c5d9 53be deb5 0abe 97e5 173e 833c 343e
00000100: 92ce fe3d 3309 a4be a9da 01be f5aa e63d
00000110: 5b2a 063e 1e42 98bd 86b6 95be 245f f6bd
00000120: 0aed ebbd 2a63 0bbe a673 6bbd f0bb 113c
00000130: 87b9 333e 92fd f43c 43f8 353c ff99 1ebb
00000140: 1503 eb3d 4ad1 4c3e 8181 e93d 56ee 7b3b
00000150: e04e 07bd 51d8 91bc 63d6 1d3e 38fa dd3d
00000160: 72d8 0e3c 3f43 9cbc bfb2 3bbe fba4 dd3c
00000170: 7c28 51bd a202 e03d 5e70 0fbd de0f 9ebd
00000180: c410 6d3d a032 1c3d bc25 a3bd 19ab 0bbe
00000190: 54ae 6bbe 6294 79be fe8c 0ebe 025d bfbc
000001a0: 95da cbbd fb4f 2abe 1da1 9cbe dc36 f6bd
000001b0: 65c0 a3bd 4c91 ecba 4a54 debb a184 06be
000001c0: 94e1 82be db91 e6bd 2aea 33bd b12d 243e
000001d0: dbea de3d b9a1 69bc 944a d53d 6779 8f3d
000001e0: d475 df3d 74fa f83d 7f2f 8b3e cea2 e53d
000001f0: 4045 e4bd 2aaa d83d 30b6 a73d 2116 063d
00000200: 19fa b8bd c939 b7bc e94f 083e c008 e53d
00000210: ea00 a3bd 8620 ebbd e2a2 15be c0db 0c3e
00000220: 37b5 213e 5d4c f8bd 41cd b2bd e403 85bd
00000230: 2dd2 563e b84a 7d3d 53ab adbd 0da3 fdbc
00000240: 9adb 11bc 3c3c f63d c23e 04bd 4d20 86bc
00000250: 6389 e8bd e76a afbd 6ed0 7f3e f399 dfbd
00000260: ac99 e3bd 07df d23a ae9d c5bc 4efd 563e
00000270: b585 8e3e 138e 51bd 3cc9 79bd a437 26bd
00000280: a5a5 cdba f2e9 923e 2903 183e 9222 c2bd
00000290: cf23 86bd 1520 dfbd edee a73c c0fa 3a3d
000002a0: 216d eb3c cb0d 233c a85b fdbd 6980 b8bd
000002b0: 6088 ff3c 905d 253d 796e 3bbc 5ec5 5f3a
000002c0: 9c89 993d 10ab aebc aeae 9ebd 49eb 28bd
000002d0: c190 f8bd 14ee f3bb 9882 203d 671e 95bc
000002e0: 7954 c03b 2e0c d23a fe63 663b 424e 153c
000002f0: fc9b 883c dbdb e2bb 2ae9 53bd 291d f83c
00000300: 2659 00bd 92c4 b1bd 4a06 e63c 89f8 44bd
00000310: 5ace 103d 54e3 8fbc 927f a83c 93ca afbd
00000320: 6d9f 073e c152 97bc 267b 05be 48de 9dbd
00000330: e56e 023c 2acc ef3c 3f06 f93d bea0 cebc
00000340: e2b9 0dbe ad45 90bc 4f37 3abe afa7 613d
00000350: 7336 5a3d 9b75 fabd 6c06 d03c 179c c0bd
00000360: 7841 be3c c68b c33c 697f 55bd b029 1fbd
00000370: b0d2 13be d023 c8bd aa06 f6bc 72b7 433d
00000380: 481c 2b3d 0486 303d 2425 4fbe b38c 1dbe
00000390: 1793 05bc 17e5 ba3b 5260 7d3d 9579 533d
000003a0: 9ee9 c0bd 52cd 033c 4052 31bb 5671 e7bb
000003b0: b3e1 1c3e bed2 dabd e9a5 c33c 4d8b 653d
000003c0: 4036 6bbc 8d45 0a3e c735 943d e479 bcbc
000003d0: 25d8 013b c40d 073e 636e 8f3d 3713 c8bc
000003e0: e950 34bd b75a 6d3d 19ea 06be 1767 6a3d
000003f0: f881 c439 2dc9 98bd 6de1 883d 21f3 64bc

conv2.bias f4 [16]
-0.05570712 0.012451484 -0.08391562 -0.052752018 -0.06545711 -0.054975048 0.05050388 -0.087575346
-0.065758884 -0.012889116 -0.03755403 0.056628823 -0.0075764265 0.030905174 -0.07252659 -0.078329414
00000000: 262d 64bd 4f01 4c3c f4db abbd 8012 58bd
00000010: 610e 86bd 842d 61bd 28dd 4e3d b45a b3bd
00000020: 98ac 86bd df2c 53bc 41d2 19bd a0f3 673d
00000030: ac43 f8bb d92c fd3c d288 94bd 2c6b a0bd

fc1.weight f4 [120, 256]
0.035845954 -0.035807475 -0.056600686 0.040026702 0.0027429536 -0.054594282 0.008744274 -0.03572215
-0.033652846 0.023073813 -0.0124546075 0.06566808 -0.034052193 0.026238259 -0.0093163345 0.08515254
-0.025912974 0.052329704 -0.0031777085 0.03415195 -0.020700186 0.046439297 0.032055642 0.015522799
-0.0055915583 -0.04939534 0.049336564 -0.033264738 6.5324657e-06 0.009363908 0.007378273 0.04934005
-0.017532527 0.04458797 -0.010311829 -0.056705184 -0.002486919 -0.029674947 0.033664424 0.018348169
0.014962107 0.019141363 0.06321504 -0.0010915742 0.06630913 -0.0002376692 0.041771263 0.03604846
0.013897439 -0.052985016 0.046325315 -0.017082892 0.010344177 -0.056009967 -0.023377089 -0.015178708
-0.040292185 0.017755726 -0.0038678332 0.012750297 -0.028493527 -0.048773423 0.021297425 0.0018844111
-0.03145044 -0.023692206 0.05858483 0.06927648 0.025371993 0.0077550886 0.025762048 -0.011415639
0.032075226 0.03246456 0.0062262504 -0.06633662 0.046142902 -0.021579597 -0.04960976 -0.042939793
-0.011661469 0.014021716 0.016997207 0.04345626 -0.0142058525 -0.055062767 -0.06139757 -0.0059381765
-0.050441813 -0.0114788525 -0.07156862 0.010253906 0.046582766 -0.010772252 0.01954268 0.026102485
-0.014008864 0.04152385 -0.036440883 0.0026888747 0.05046855 0.043793187 -0.03303816 0.058747116
-0.021818252 0.010638561 -0.022317443 0.05356911 0.0030071095 -0.0063906545 0.03472127 -0.051300805
-0.038794044 -0.037806846 -0.049645387 0.065005206 0.024491537 -0.057464905 -0.045005392 0.047200046
-0.061619002 -0.042606823 -0.027382832 0.057844922 0.035311528 0.009458865 -0.055961996 0.013559476
-0.01116792 0.013572338 -0.059394572 0.046819523 0.055122994 -0.0097546885 -0.05706428 0.013835793
-0.03900772 0.009493883 0.013063032 0.008161832 0.024947112 0.051821314 0.048905537 -0.062114045
-0.034682307 0.029887982 -0.03684607 -0.00054169126 0.035521403 -0.04778348 -0.04845941 -0.055558175
-0.02625816 -0.03309122 0.028690614 0.03336849 -0.027461896 -0.026750952 0.0073324637 -0.008533743
0.05862898 -0.012751656 0.031215575 0.034653712 0.0028816555 -0.051052272 -0.048624016 -0.035639573
0.05067678 0.037866857 -0.06266821 -0.030912213 -0.03009975 0.026972702 0.009097942 0.048147332
-0.048539735 -0.056830052 0.016684113 -0.050634727 0.0007292217 -0.03253698 0.0026596542 -0.00047549943
-0.030513166 -0.020335553 0.054942228 -0.039683342 -0.027738744 -0.011379373 0.022971936 0.046391994
0.04068819 -0.06379814 -0.021810234 7.2147624e-05 -0.039958015 -0.052264873 0.025183663 0.007994958
0.05228507 -0.02024902 -0.045149162 -0.035626147 0.039493088 -0.02881986 -0.062108275 -0.057537325
-0.042148467 0.05865833 0.033105932 0.0057156645 0.03776537 0.04378506 0.00052153144 0.007229368
0.024584139 -0.037400678 0.012556655 0.048119005 0.015482782 -0.037740815 0.0034137839 0.030514585
-0.021269584 0.003011261 -0.07955411 0.017009435 0.026145337 0.019693924 -0.027641863 0.02400836
0.007036296 -0.020004885 0.033920407 0.04889492 0.04972739 -0.018931976 -0.033819787 0.051518627
-0.035270054 0.03424132 0.022534003 -0.022200562 0.0027331912 0.050969098 -0.0011987645 0.052292477
-0.04083368 -0.005007108 0.017840775 -0.038441163 0.04272482 -0.04599934 -0.0004833911 -0.004155212
00000000: 35d3 123d dcaa 12bd 1fd6 67bd 0af3 233d
00000010: 20c3 333b 419e 5fbd 2544 0f3c 6451 12bd
00000020: 91d7 09bd 4b05 bd3c 690e 4cbc fc7c 863d
00000030: 507a 0bbd 9ef1 d63c 8aa3 18bc 7464 ae3d
00000040: 7247 d4bc ac57 563d 1a41 50bb eae2 0b3d
00000050: 7093 a9bc 2237 3e3d c74c 033d 5753 7e3c
00000060: 6439 b7bb c552 4abd 2315 4a3d 9b40 08bd
00000070: 7431 db36 146b 193c 71c5 f13b cb18 4a3d
00000080: 60a0 8fbc e0a1 363d f2f2 28bc b243 68bd
00000090: 94fb 22bb e018 f3bc b5e3 093d e64e 963c
000000a0: a023 753c 59ce 9c3c e376 813d 2713 8fba
000000b0: 15cd 873d d736 79b9 5818 2b3d 8da7 133d
000000c0: 16b2 633c d106 59bd 9dbf 3d3d 6cf1 8bbc
000000d0: 9f7a 293c b56a 65bd 4f81 bfbc 1eb0 78bc
000000e0: 6b09 25bd 7574 913c 797b 7dbb 9fe6 503c
000000f0: 426b e9bc a4c6 47bd f077 ae3c 58fe f63a
00000100: 2dd2 00bd 2816 c2bc a6f6 6f3d d4e0 8d3d
00000110: edd8 cf3c 661e fe3b ee0a d33c a908 3bbc
00000120: 5061 033d 8ff9 043d 9305 cc3b 7edb 87bd
00000130: 5700 3d3d b2c7 b0bc 9b33 4bbd a3e1 2fbd
00000140: bf0f 3fbc 57bb 653c ba3d 8b3c 31ff 313d
00000150: aabf 68bc 7f89 61bd 057c 7bbd 0995 c2bb
00000160: 139c 4ebd cc11 3cbc 9292 92bd 0000 283c
00000170: 92cd 3e3d 1a7e 30bc f817 a03c e1d4 d53c
00000180: 6f85 65bc ea14 2a3d 0943 15bd d537 303b
00000190: 1cb8 4e3d 7c60 333d 0653 07bd d1a0 703d
000001a0: 31bc b2bc 5c4d 2e3c 12d3 b6bc 486b 5b3d
000001b0: ed12 453b b268 d1bb e437 0e3d cb20 52bd
000001c0: 81e6 1ebd 5adb 1abd f658 4bbd 7321 853d
000001d0: 7aa2 c83c 5260 6bbd 9357 38bd d654 413d
000001e0: 3564 7cbd 7e84 2ebd f651 e0bc ccee 6c3d
000001f0: d2a2 103d 5bf9 1a3c 6838 65bd 9028 5e3c
00000200: a7f9 36bc 835e 5e3c b947 73bd d4c5 3f3d
00000210: a6c8 613d 21d2 1fbc 3cbc 69bd 86af 623c
00000220: 8fc6 1fbd 3b8c 1b3c 5406 563c 34b9 053c
00000230: e35d cc3c 9642 543d 2c51 483d 4c6b 7ebd
00000240: 090f 0ebd a4d7 f43c e8eb 16bd 4900 0eba
00000250: e47e 113d 9cb8 43bd 607d 46bd f890 63bd
00000260: 5a1b d7bc a98a 07bd 9408 eb3c 66ad 083d
00000270: c5f7 e0bc d024 dbbc 2a45 f03b 1dd1 0bbc
00000280: f124 703d 52ec 50bc ceb7 ff3c 0df1 0d3d
00000290: 28da 3c3b 301c 51bd fa29 47bd cdfa 11bd
000002a0: 7592 4f3d 471a 1b3d 3158 80bd 9c3b fdbc
000002b0: c093 f6bc dbf5 dc3c 890f 153c 2336 453d
000002c0: 9ad1 46bd a1c6 68bd 1fad 883c 5c66 4fbd
000002d0: 3d29 3f3a 7f45 05bd 984d 2e3b 744c f9b9
000002e0: bff6 f9bc bf96 a6bc 1a0b 613d 008b 22bd
000002f0: 5d3c e3bc 8d70 3abc a42f bc3c 8805 3e3d
00000300: a9a8 263d 99a8 82bd 60ab b2bc f64d 9738
00000310: 04ab 23bd b113 56bd f84d ce3c 49fd 023c
00000320: df28 563d 46e1 a5bc 54ee 38bd b9ec 11bd
00000330: 81c3 213d a117 ecbc 3f65 7ebd 42ac 6bbd
00000340: dfa3 2cbd b843 703d 169a 073d 784a bb3b
00000350: dcaf 1a3d f757 333d 62b7 083a 56e4 ec3b
00000360: ad64 c93c 7431 19bd 6eba 4d3c 6f18 453d
00000370: 7fab 7d3c 1d96 1abd cab9 5f3b b9f9 f93c
00000380: 8d3d aebc 9458 453b 44ed a2bd 5f57 8b3c
00000390: bf2e d63c 2755 a13c 3071 e2bc 2ead c43c
000003a0: bb90 e63b 49e1 a3bc 20f0 0a3d 0a46 483d
000003b0: f3ae 4b3d 3b17 9bbc 9e86 0abd 3205 533d
000003c0: 5577 10bd a040 0c3d 3b99 b83c f4dd b5bc
000003d0: 571f 333b f9c4 503d dd1f 9dba a330 563d
000003e0: 3841 27bd ab12 a4bb d126 923c 7b74 1dbd
000003f0: 3900 2f3d ce69 3cbd a86f fdb9 7228 88bb

fc1.bias f4 [120]
-0.04774045 -0.0011825316 0.039156802 0.020045372 -0.0426616 -0.03353176 0.031723764 0.07436297
0.021123609 -0.034068678 0.057887856 -0.05128631 -0.066325806 -0.048964206 -0.058147453 -0.050114557
-0.0030906766 0.010376822 0.017830577 -0.032724362 0.023002326 0.009253245 0.01763578 -0.02829965
-0.013329124 0.027394017 0.010527805 0.037017625 -0.0403009 -0.02667163 0.03533636 -0.03766317
-0.055595286 0.010293892 0.057772864 -0.007887663 0.044222556 0.016048903 0.026575912 -0.016942099
-0.023035659 0.038820244 -0.0006133347 -0.03581135 0.03868195 -0.048871253 0.053309217 -0.03720043
0.049984008 0.0022414871 -0.04840658 -0.028152352 -0.038188376 0.00460452 -0.03553847 0.014075823
0.002856533 0.0019765033 -0.055615157 0.06679396 0.0778698 0.048245896 0.04688312 0.038222358
0.026867604 0.006107673 0.04857049 -0.0034935481 -0.060386576 -0.01310756 -0.074851155 0.010066888
0.0032549212 0.030958967 0.01532083 -0.053845156 -0.054121546 0.014930688 -0.013104929 0.0325315
0.06275855 -0.03622719 -0.0026419014 0.015773179 -0.024431285 0.02057101 0.023092138 0.038951468
-0.013496138 0.00019180338 0.030565951 -0.05249477 -0.006343535 0.03491972 -0.05603234 0.029524527
-0.034977093 0.038969394 0.055507008 -0.058030628 0.002645961 0.034633465 -0.005730415 -0.033068407
0.013310907 -0.04805505 0.059098486 -0.043015204 -0.05421928 -0.05896204 0.03227662 0.0024006416
-0.015678573 0.026815914 0.027224172 0.043677647 0.071179524 0.00657723 0.051328454 -0.037184373
00000000: 7d8b 43bd 2dff 9aba e262 203d 3136 a43c
00000010: eebd 2ebd 9958 09bd c7f0 013d 9d4b 983d
00000020: 6b0b ad3c 998b 0bbd d11b 6d3d 9811 52bd
00000030: d3d5 87bd b18e 48bd 062c 6ebd ec44 4dbd
00000040: f38c 4abb 8c03 2a3c 6e11 923c fb09 06bd
00000050: 606f bc3c ec9a 173c e978 903c abd4 e7bc
00000060: 6662 5abc 6b69 e03c d17c 2c3c cb9f 173d
00000070: 8e12 25bd 767e dabc dcbc 103d b244 1abd
00000080: e2b7 63bd b6a7 283c 3da3 6c3d 423b 01bc
00000090: b622 353d fd78 833c bab5 d93c 28ca 8abc
000000a0: 47b5 bcbc fa01 1f3d 32c8 20ba ecae 12bd
000000b0: f770 1e3d 392d 48bd c45a 5a3d 7a5f 18bd
000000c0: 08bc 4c3d eae5 123b fa45 46bd c39f e6bc
000000d0: 6a6b 1cbd 83e1 963b c990 11bd 489e 663c
000000e0: ac34 3b3b 3988 013b b8cc 63bd 46cb 883d
000000f0: 347a 9f3d 7d9d 453d 8408 403d 0c8f 1c3d
00000100: 7319 dc3c e022 c83b daf1 463d 03f4 64bb
00000110: ea57 77bd 17c1 56bc 904b 99bd 97ef 243c
00000120: 8450 553b a99d fd3c 3804 7b3c bd8c 5cbd
00000130: 8eae 5dbd d89f 743c 0eb6 56bc c03f 053d
00000140: 8e87 803d f662 14bd c023 2dbb c136 813c
00000150: 1e24 c8bc 8984 a83c b92b bd3c 938b 1f3d
00000160: e81e 5dbc d41e 4939 7265 fa3c c204 57bd
00000170: 6edd cfbb fb07 0f3d 2b82 65bd 6cdd f13c
00000180: 2444 0fbd 5f9e 1f3d 515b 633d 86b1 6dbd
00000190: dc67 2d3b d2db 0d3d 35c6 bbbb bd72 07bd
000001a0: fe15 5a3c 5fd5 44bd 4111 723d b630 30bd
000001b0: 0915 5ebd 2e82 71bd 7d34 043d 1554 1d3b
000001c0: 5a70 80bc 0cad db3c 3a05 df3c 55e7 323d
000001d0: 92c6 913d ce85 d73b c93d 523d a44e 18bd

fc2.weight f4 [84, 120]
0.039150342 0.0523697 -0.056393426 -0.08035561 -0.049433786 -0.07482029 -0.04181072 -0.055728324
-0.029613437 -0.071526565 0.012048503 0.06898521 0.031823836 -0.020091454 0.0785054 -0.09004345
-0.00866348 -0.07902799 -0.0677837 -0.027775273 0.08366974 -0.075432785 0.07614084 0.032100007
0.019596644 -0.08096703 0.07133164 0.03863812 -0.047594223 -0.064983405 -0.031590704 -0.05928727
0.08033696 0.011415868 -0.04050865 0.044119097 -0.0004843913 0.028733015 -0.021648554 -0.024179999
0.067227334 -0.034531962 0.011088149 -0.0023134963 -0.051483158 -0.009016725 -0.02912244 0.006659227
0.019504327 0.052922305 0.00329196 0.020512182 0.07086146 -0.026569573 -0.07283996 0.0662606
-0.08443648 0.056930337 0.08134027 -0.051058505 -0.0037903192 -0.081255786 0.06997285 -0.079328634
-0.011813254 0.026938336 0.0058304924 0.008316203 -0.037495922 0.06616576 -0.01821593 -0.02599113
0.062232148 -0.035765328 -0.012821894 0.08017836 -0.04939812 0.087597944 -0.04889468 -0.023747332
-0.08101404 -0.023588412 -0.03639625 -0.077092096 -0.06661897 0.07737765 -0.04590873 -0.08855103
0.032796364 0.012929625 -0.007840371 0.0025487472 0.046591245 0.05695317 0.091860525 0.0051363027
0.0327549 0.075532444 -0.028743686 -0.07144814 -0.06630773 -0.08348257 -0.06717684 -0.018104665
0.06757427 -0.060754277 -0.08695751 -0.02493306 -0.0060021076 0.061218135 -0.028382204 -0.052917697
0.0020529446 -0.018870905 -0.073982224 -0.07016757 -0.046096023 -0.06648194 -0.03865365 -0.02067358
-0.07193429 0.015558183 0.1466686 -0.072602354 0.034449913 -0.09791143 0.0067087137 0.049558055
0.08863032 0.045160275 -0.058350332 -0.010447506 -0.11479371 -0.023807462 -0.061107896 0.02237132
0.05957196 0.018868567 0.018722212 0.027331501 -0.009209541 0.057098214 0.032902557 0.045244507
0.07533034 0.100454815 -0.0266011 0.008721239 0.05410293 0.0503155 -0.07034496 -0.006630804
0.08161504 -0.08245743 -0.007932248 -0.069804266 0.046384003 0.04949471 0.08372459 -0.060839213
0.070260376 0.044845145 -0.047460847 0.056581903 0.03670339 -0.0779862 -0.016083455 0.011716941
-0.066827215 -0.032316808 -0.0359907 -0.08292777 -0.1282299 0.061858684 -0.055458754 -0.0050549214
-0.00063022005 0.067280635 0.11757098 0.022611428 -0.031762086 -0.032320183 0.05740161 -0.028287359
0.099270895 0.08097533 0.011708426 -0.012409791 -0.04342982 0.06545275 -0.030376298 0.00738896
0.05143235 -0.08247174 -0.00901804 -0.07194647 0.06487112 -0.09980161 -0.06915992 0.035972442
-0.10456291 0.032687318 0.08601032 -0.08338187 0.13144378 0.026029218 0.06843398 -0.016819317
0.046671137 0.035501216 0.04032948 0.00032434374 -0.07726381 -0.013308311 -0.06022525 0.06762212
0.06643111 0.07120195 0.04357511 0.0232538 0.085453436 0.0039686714 0.0026115314 -0.12427088
-0.10030185 -0.01791393 0.0016101137 0.14129236 0.116371125 0.043617226 0.020054536 0.030670661
-0.07135248 -0.0030395915 -0.045441292 0.012057559 -0.009817177 -0.034023568 -0.12266251 -0.07580241
-0.017303063 0.046737023 -0.01670583 0.0010841116 0.08331267 0.040606674 0.011956262 -0.080734976
-0.025476778 -0.049948335 -0.06360848 0.028910346 0.06059421 -0.010174777 0.073320225 -0.06630696
00000000: 1c5c 203d 9c81 563d cbfc 66bd 7b91 a4bd
00000010: 157b 4abd 613b 99bd b841 2bbd 6243 64bd
00000020: e197 f2bc 857c 92bd 1667 453c 1e48 8d3d
00000030: b659 023d d596 a4bc 70c7 a03d b368 b8bd
00000040: 45f1 0dbc 6dd9 a1bd 2ed2 8abd f888 e3bc
00000050: 0a5b ab3d 817c 9abd bbef 9b3d 4c7b 033d
00000060: 2489 a03c 0bd2 a5bd 5316 923d 0143 1e3d
00000070: 29f2 42bd 0516 85bd 4165 01bd 35d7 72bd
00000080: b487 a43d 9f09 3b3c 66ec 25bd 3ab6 343d
00000090: e6f5 fdb9 8061 eb3c 4f58 b1bc 2215 c6bc
000000a0: 7cae 893d 6371 0dbd 11ab 353c 079e 17bb
000000b0: 01e0 52bd e3ba 13bc 2f92 eebc a535 da3b
000000c0: 8ac7 9f3c 0fc5 583d edbd 573b 2a09 a83c
000000d0: d01f 913d 6fa8 d9bc 1e2d 95bd a3b3 873d
000000e0: 09ed acbd c92f 693d ba95 a63d b922 51bd
000000f0: 0167 78bb 6f69 a6bd ed4d 8f3d 0d77 a2bd
00000100: 618c 41bc c9ad dc3c b70d bf3b af40 083c
00000110: 5395 19bd ea81 873d 9339 95bc 5aeb d4bc
00000120: 23e7 7e3d aa7e 12bd ec12 52bc 8d34 a43d
00000130: af55 4abd 8d66 b33d ca45 48bd c489 c2bc
00000140: b0ea a5bd 7c3c c1bc 3c14 15bd 76e2 9dbd
00000150: 876f 88bd 2c78 9e3d cb0a 3cbd 3e5a b5bd
00000160: 7b55 063d c7d6 533c e674 00bc e208 273b
00000170: 76d6 3e3d ba47 693d 5f21 bc3d 6e4e a83b
00000180: 012a 063d c1b0 9a3d e177 ebbc 6753 92bd
00000190: 59cc 87bd e9f8 aabd 0394 89bd 3c50 94bc
000001a0: 6164 8a3d 7ad9 78bd c716 b2bd 6b40 ccbc
000001b0: 54ad c4bb debf 7a3d cc81 e8bc 3ac0 58bd
000001c0: b28a 063b 2897 9abc fe83 97bd 04b4 8fbd
000001d0: 2fcf 3cbd af27 88bd 4a53 1ebd a45b a9bc
000001e0: 4952 93bd c0e7 7e3c 4b30 163e 8bb0 94bd
000001f0: 5a1b 0d3d ca85 c8bd c5d4 db3b 63fd 4a3d
00000200: d083 b53d fbf9 383d c200 6fbd 042c 2bbc
00000210: f718 ebbd de07 c3bc 464c 7abd 0f44 b73c
00000220: ba01 743d 4192 9a3c 535f 993c 50e6 df3c
00000230: 9de3 16bc d1df 693d d5c4 063d 4e52 393d
00000240: cb46 9a3d 41bb cd3d 8dea d9bc 87e3 0e3c
00000250: 099b 5d3d a017 4e3d 0511 90bd 3747 d9bb
00000260: c925 a73d 71df a8bd 42f6 01bc 8af5 8ebd
00000270: 27fd 3d3d f7ba 4a3d cc77 ab3d 8a32 79bd
00000280: ace4 8f3d 8baf 373d 4e66 42bd 6dc2 673d
00000290: 4b56 163d 3bb7 9fbd 73c1 83bc 6af8 3f3c
000002a0: b5dc 88bd a15e 04bd fc6a 13bd 09d6 a9bd
000002b0: b34e 03be 885f 7d3d b828 63bd c1a3 a5bb
000002c0: 5a35 25ba 6eca 893d 0ec9 f03d 9a3b b93c
000002d0: f618 02bd 2b62 04bd f31d 6b3d e4ba e7bc
000002e0: 8a4e cb3d 65d6 a53d b3d4 3f3c 7052 4bbc
000002f0: 78e3 31bd 170c 863d b7d7 f8bc 171f f23b
00000300: baaa 523d f2e6 a8bd 67c0 13bc ac58 93bd
00000310: 26db 843d c964 ccbd b7a3 8dbd d757 133d
00000320: 1425 d6bd 23e3 053d 2e26 b03d 1dc4 aabd
00000330: 3399 063e 3a3b d53c 1d27 8c3d aac8 89bc
00000340: 3c2a 3f3d b969 113d 8630 253d ae0c aa39
00000350: 7d3c 9ebd 1a0b 5abc c0ae 76bd 777d 8a3d
00000360: 090d 883d 54d2 913d d17b 323d c17e be3c
00000370: 3602 af3d a10b 823b 3a26 2b3b bb81 febd
00000380: 0e6b cdbd 3cc0 92bc 730a d33a f2ae 103e
00000390: fc53 ee3d faa7 323d 6949 a43c 0a41 fb3c
000003a0: 4021 92bd e233 47bb a620 3abd 118d 453c
000003b0: 3ad8 20bc 4c5c 0bbd 7b36 fbbd 4b3e 9bbd
000003c0: 27bf 8dbc 526f 3f3d aada 88bc c018 8e3a
000003d0: d59f aa3d 2f53 263d 33e4 433c 6158 a5bd
000003e0: adb4 d0bc a096 4cbd 2a45 82bd 64d5 ec3c
000003f0: a231 783d 1cb4 26bc ea28 963d f2cb 87bd

fc2.bias f4 [84]
-0.08311455 -0.06731922 -0.050187223 -0.020098956 0.1583903 0.08099454 -0.023368154 0.045123354
-0.05668396 0.0673392 -0.0006223969 -0.058122355 -0.04159047 0.10632949 0.0042581987 -0.048550878
0.05652074 0.040274017 0.041987758 -0.008648913 0.04738547 -0.004759226 0.13287863 0.058919523
-0.030955832 -0.038954075 -0.07695657 -0.059549525 -0.010585717 0.07372005 -0.042562265 -0.022464149
0.095527574 -0.025568696 0.076437995 0.042366024 0.022886392 -0.013518399 0.03925771 0.04005181
0.06391554 0.09002517 0.02008784 0.0954213 -0.09709736 0.044816494 -0.039496496 -0.061500903
0.060641054 0.052238505 0.057190876 -0.004043493 0.049860455 0.0557428 0.07422247 0.043217465
-0.046293765 0.018589502 0.015902221 2.2453878e-05 0.054410227 0.0108381845 -0.01717963 -0.08256158
0.13259423 -0.07525975 -0.0491666 -0.0853976 -0.05162486 0.08776888 -0.06959228 0.04595402
-0.08695375 -0.043031123 -0.011068908 -0.0748452 0.10318466 -0.068417504 0.07813262 0.0037406753
-0.0281083 -0.020018376 0.06463748 0.08839357
00000000: f637 aabd a9de 89bd 1e91 4dbd 91a6 a4bc
00000010: 1131 223e 77e0 a53d 926e bfbc 44d3 383d
00000020: 712d 68bd 22e9 893d 5928 23ba b511 6ebd
00000030: c55a 2abd 47c3 d93d 5c88 8b3b 49dd 46bd
00000040: 4b82 673d 5ef6 243d 5bfb 2b3d 2cb4 0dbc
00000050: 4417 423d 48f3 9bbb 5611 083e 9955 713d
00000060: 1697 fdbc 4f8e 1fbd 689b 9dbd 34ea 73bd
00000070: b76f 2dbc 8afa 963d c555 2ebd bc06 b8bc
00000080: f6a3 c33d 7175 d1bc 868b 9c3d ff87 2d3d
00000090: 3e7c bb3c 467c 5dbc b1cc 203d 5e0d 243d
000000a0: 27e6 823d 1e5f b83d 418f a43c 3e6c c33d
000000b0: fbda c6bd 8091 373d 14c7 21bd 5fe8 7bbd
000000c0: c162 783d 0bf8 553d fb40 6a3d 477f 84bb
000000d0: 7a3a 4c3d 9052 643d f301 983d cc04 313d
000000e0: 889e 3dbd 0349 983c 6045 823c 565b bc37
000000f0: 42dd 5e3d a492 313c 4cbc 8cbc 0c16 a9bd
00000100: c8c6 073e c921 9abd eb62 49bd f0e4 aebd
00000110: 9774 53bd 2cc0 b33d 6686 8ebd 483a 3c3d
00000120: cf14 b2bd 6741 30bd 5d5a 35bc 7148 99bd
00000130: 7b52 d33d 7a1e 8cbd ff03 a03d 1e26 753b
00000140: 6143 e6bc 94fd a3bc a860 843d b007 b53d

fc3.weight f4 [10, 84]
-0.06022172 0.1446602 -0.09268699 -0.058195397 -0.18197496 0.13462251 -0.06637768 -0.082340844
-0.19376555 -0.058266763 0.110704154 -0.040398184 0.1176879 -0.21836315 -0.18942876 0.02594576
0.010069111 -0.022465533 -0.12678668 -0.14599031 0.12284505 -0.08125426 -0.074454576 -0.10498242
0.058369324 -0.16398312 0.21311714 0.059837177 -0.07896268 -0.05326139 -0.087554365 -0.17035171
0.11696613 0.07068132 0.20617859 0.1909582 0.16501436 0.09162763 0.13605663 -0.1925796
0.29402682 0.13407102 -0.13583887 -0.17701924 0.056491263 0.06979244 0.012574716 0.035185363
-0.08176796 -0.12489798 0.108835936 -0.0077130217 0.14074728 -0.16908242 -0.07463935 -0.070195034
-0.020976448 -0.061994355 -0.2271105 0.2769401 0.041007582 -0.09031651 -0.09439664 -0.027581168
0.1663147 0.111314304 0.07730784 0.11189458 0.0043771015 0.286959 -0.12157216 0.15482743
-0.105479695 -0.10045394 -0.20702358 -0.096833095 -0.09352332 0.075572945 -0.0050843675 -0.14684717
0.11227314 -0.20328584 -0.1268178 -0.12229941 -0.010673467 -0.20005225 0.11804625 0.020823933
0.2993205 -0.049024086 0.12931482 0.3451718 0.124697596 0.06301166 -0.21838076 0.061459705
-0.07595725 -0.21636173 0.12578185 0.12781636 -0.09023993 -0.22568409 -0.024635186 -0.03927726
0.055696037 -0.10814087 0.19354272 0.08067393 -0.15714069 0.034084275 -0.113649696 0.1288517
-0.110497594 -0.021562748 -0.14381154 0.14809313 -0.084101155 0.058202185 0.090789706 -0.13687521
0.019567674 0.07414467 0.17199951 -0.19309932 -0.29657504 0.25068182 0.26396295 -0.04280257
-0.018212738 -0.16965841 -0.17471476 0.03160562 -0.058639504 0.17510717 -0.024943084 0.02404639
0.05643183 -0.05760981 0.21909264 0.017862722 -0.013523803 -0.13980553 0.20898664 -0.082613885
-0.16656092 -0.026913302 0.05196784 0.19837159 0.20808883 -0.09722474 0.0033540276 -0.01483868
-0.2144986 -0.020094844 -0.063338496 -0.060623914 0.06999189 -0.15149227 -0.054297715 0.07357291
0.24256115 0.054832857 0.09763692 -0.16523027 -0.007883651 0.031806197 -0.03935978 -0.23256378
-0.07382314 -0.17169817 0.030944804 0.08165479 -0.26689032 0.14053594 0.15426804 0.080079116
-0.19568233 -0.1457017 -0.11975892 0.070714846 -0.22110054 0.1369834 -0.02668871 0.08443116
-0.0071905283 0.03376264 0.08434744 0.04196442 0.15571621 -0.103861794 -0.091639966 0.07959685
-0.19878256 -0.05608239 -0.048972987 0.15069728 0.18318978 0.04451345 -0.11599513 0.19724615
0.37383413 -0.1019662 -0.17439003 0.022070177 0.06417566 0.019498529 0.06446538 -0.02283259
0.11607401 -0.03861035 -0.06098799 0.071485475 0.07988824 -0.19533361 0.2662042 0.012204798
-0.046096187 0.2389253 -0.16732058 0.06343934 0.0957792 -0.20212607 0.011637096 0.118675806
-0.08953719 -0.18182999 0.09831358 0.04179639 -0.059221458 0.074926175 -0.08434136 0.1458632
-0.25170296 0.059746 0.030921707 -0.13624613 0.21986665 0.22128426 -0.102766365 -0.20467465
-0.006927906 -0.16480744 -0.14306056 0.07342529 0.019416057 0.03618765 0.017444676 -0.053434335
0.12660538 0.036261667 0.0026463447 0.07676545 0.10021693 0.048968405 0.00428797 -0.04150515
00000000: 0dab 76bd ce21 143e add2 bdbd 4c5e 6ebd
00000010: a557 3abe 7cda 093e 05f1 87bd 51a2 a8bd
00000020: 7a6a 46be 21a9 6ebd dcb8 e23d 9178 25bd
00000030: 5b06 f13d 979a 5fbe 9df9 41be 348c d43c
00000040: eaf8 243c a309 b8bc 5ed4 01be 7c7e 15be
00000050: 3096 fb3d a268 a6bd a47b 98bd 0601 d7bd
00000060: ac14 6f3d 31eb 27be 613b 5a3e d417 753d
00000070: 30b7 a1bd 9e28 5abd b44f b3bd ae70 2ebe
00000080: f08b ef3d 5ec1 903d 7b20 533e 8c8a 433e
00000090: 86f9 283e 44a7 bb3d 6e52 0b3e 9633 45be
000000a0: af8a 963e ea49 093e 5819 0bbe 8844 35be
000000b0: 6263 673d 57ef 8e3d 2e06 4e3c 871e 103d
000000c0: f675 a7bd 83ca ffbd 60e5 de3d 84bd fcbb
000000d0: 0e20 103e f123 2dbe 84dc 98bd 6ac2 8fbd
000000e0: cdd6 abbc cbed 7dbd a88f 68be 18cb 8d3e
000000f0: 91f7 273d ddf7 b8bd 0753 c1bd e7f1 e1bc
00000100: 674e 2a3e c1f8 e33d 9353 9e3d fc28 e53d
00000110: ca6d 8f3b 4aec 923e d3fa f8bd 158b 1e3e
00000120: bd05 d8bd ccba cdbd fdfd 53be 6e50 c6bd
00000130: 2889 bfbd fdc5 9a3d c49a a6bb 1b5f 16be
00000140: 76ef e53d 2a2a 50be 86dc 01be 1d78 fabd
00000150: c4df 2ebc 7fda 4cbe 3bc2 f13d f496 aa3c
00000160: 8940 993e 7bcd 48bd 1b6b 043e 5cba b03e
00000170: 7461 ff3d 420c 813d 359f 5fbe 2cbd 7b3d
00000180: 7a8f 9bbd ee8d 5dbe f5cc 003e 4be2 023e
00000190: b6cf b8bd bb19 67be bbcf c9bc 31e1 20bd
000001a0: 8721 643d f678 ddbd 1030 463e 6038 a53d
000001b0: 7de9 20be f49b 0b3d 2cc1 e8bd b3f1 033e
000001c0: 904c e2bd 5ca4 b0bc 5543 13be baa5 173e
000001d0: 3a3d acbd 6a65 6e3d f4ef b93d 0429 0cbe
000001e0: 634c a03c 29d9 973d a420 303e d4bb 45be
000001f0: afd8 97be 5e59 803e 2726 873e bf51 2fbd
00000200: e132 95bc efba 2dbe 6de8 32be e574 013d
00000210: fa2f 70bd 4b4f 333e 7055 ccbc effc c43c
00000220: 1025 673d 44f8 6bbd d259 603e d854 923c
00000230: f192 5dbc 2e29 0fbe 9800 563e 7831 a9bd
00000240: f28e 2abe 4979 dcbc 3bdc 543d ec21 4b3e
00000250: 3d15 553e c41d c7bd 3fcf 5b3b ef1d 73bc
00000260: 85a5 5bbe f19d a4bc 9db7 81bd c850 78bd
00000270: e857 8f3d ca20 1bbe 4867 5ebd 65ad 963d
00000280: f361 783e 6b98 603d def5 c73d 2032 29be
00000290: 6e2a 01bc 3747 023d b837 21bd 3325 6ebe
000002a0: 9630 97bd a5d1 2fbe f57f fd3c a03a a73d
000002b0: d9a5 88be a7e8 0f3e 71f8 1d3e 8500 a43d
000002c0: f360 48be d432 15be 2a44 f5bd f2d2 903d
000002d0: 2e68 62be 6045 0c3e 48a2 dabc 3eea ac3d
000002e0: 869e ebbb b24a 0a3d 5abe ac3d e2e2 2b3d
000002f0: 1274 1f3e 7eb5 d4bd bcad bbbd ac03 a33d
00000300: a88d 4bbe a6b6 65bd e697 48bd 6350 1a3e
00000310: 1a96 3b3e bc53 363d db8e edbd e5fa 493e
00000320: 3067 bf3e a8d3 d0bd 4d93 32be 84cc b43c
00000330: 876e 833d 61bb 9f3c 6d06 843d 690b bbbc
00000340: 36b8 ed3d e325 1ebd 8bce 79bd fa66 923d
00000350: 729c a33d 8905 48be eb4b 883e a2f6 473c
00000360: 5bcf 3cbd d5a8 743e 1656 2bbe 7cec 813d
00000370: e327 c43d 23fa 4ebe 85a9 3e3c 4d0c f33d
00000380: 465f b7bd a431 3abe a158 c93d b132 2b3d
00000390: 3392 72bd e572 993d 2abb acbd 2a5d 153e
000003a0: 36df 80be 39b8 743d 854f fd3c 1b84 0bbe
000003b0: b924 613e 5798 623e 2c77 d2bd 3b96 51be
000003c0: 7d03 e3bb 48c3 28be 787e 12be 0060 963d
000003d0: 6c0e 9f3c 8039 143d 23e8 8e3c f6dd 5abd
000003e0: d7a4 013e 1d87 143d 4c6e 2d3b 3437 9d3d
000003f0: 893e cd3d 1893 483d 1982 8c3b 4e01 2abd

fc3.bias f4 [10]
0.051080663 0.076104626 -8.716296e-05 -0.02323227 -0.029598843 0.017970687 -0.08724538 0.03347707
0.09853508 0.027465
00000000: f539 513d bedc 9b3d 42cb b6b8 9a51 bebc
00000010: 4679 f2bc 4337 933c b5ad b2bd 411f 093d
00000020: c3cc c93d 48fe e03c
