src/artifacts/checkpoints/round_002.pt (torch, 181669 bytes, 10 tensors)

conv1.weight f4 [6, 1, 5, 5]
000000 47 ba 74 bc 9e c6 63 be a4 f2 fc bd 7f 3f 40 3d
       -0.01493699 -0.22243735 -0.123509675 0.046935555
000010 1b 44 b2 bd 9d e0 22 3d 96 e7 63 3e 32 a1 9b 3e
       -0.08704396 0.03976499 0.22256312 0.3039642
000020 46 de b4 3e fe 72 6b 3e c1 a7 1d 3e 84 d2 ae 3c
       0.3532583 0.22993085 0.15396024 0.021340616
000030 78 91 3c 3e 58 c0 48 3e 00 8d bd 3d 41 c4 33 bd
       0.18414867 0.19604623 0.09255409 -0.043888334
000040 33 89 27 bd 57 d7 bd bd 93 75 57 bc 3d ae 91 bd
       -0.040902328 -0.092695884 -0.0131505905 -0.071133114
000050 7c 54 90 bd 16 14 be bd e5 c6 a9 be 42 29 bb be
       -0.07047364 -0.09281175 -0.33159557 -0.36554915
000060 06 53 2b be cc 1d c0 bd 03 08 64 be f2 39 1f be
       -0.1673089 -0.09380683 -0.22268681 -0.15549448
000070 b5 e9 d0 bd b9 56 5f 3e c7 14 26 3d 9b c3 59 bd
       -0.10200826 0.21810426 0.04054716 -0.05316506
000080 36 3f 36 be a6 9a 87 bc e6 7f ac 3e 96 30 2b be
       -0.1779755 -0.016553234 0.3369133 -0.16717753
000090 bc bd 66 be dd e2 66 be a3 76 8b 3d 55 b9 2f 3e
       -0.22533315 -0.22547479 0.068097375 0.17160542
0000a0 0e b8 18 be a4 5c 76 bd 62 93 cf 3c af db 7f 3d
       -0.14913961 -0.060146943 0.025338832 0.062465366
0000b0 3c fe a5 3e a9 1e 1d bd a2 9f dc bb 00 98 f3 3d
       0.32420528 -0.038359318 -0.006732897 0.11894226
0000c0 a8 9a fa 3d 1b 5e 4e 3d 7c 94 4f 3e 69 10 fe 3c
       0.122365296 0.050382715 0.20271486 0.031013684
0000d0 91 6c 74 3e 24 87 29 3e 27 38 d7 3d 8d 96 53 3c
       0.2386954 0.16555458 0.10508757 0.012914312
0000e0 3f 2c ec 3e 56 25 94 3e ad e6 b5 bc 5d 2a 63 be
       0.46127507 0.28934735 -0.022204721 -0.22184129
0000f0 08 ef bf 3d 3d bf 5f 3e c2 33 20 3d 88 ea 33 3e
       0.093717635 0.21850295 0.03911186 0.17569935
000100 a7 d0 d6 be 6e de 6c be 78 78 9c 3e d1 91 93 3e
       -0.41956064 -0.23131725 0.3056066 0.28822187
000110 d0 12 34 3b 6c 19 b6 be 9c eb 84 be c8 f7 c6 3d
       0.0027477033 -0.3556627 -0.25961006 0.09715229
000120 7d b3 d1 3d 5c 75 ac bd 31 f9 1d be 6f 3c bd be
       0.10239313 -0.08420822 -0.1542709 -0.3696017
000130 ed e6 90 be 89 a0 8c be 62 12 26 be de b0 03 be
       -0.28301182 -0.2746623 -0.1621795 -0.12860438
000140 b1 09 9c be 47 c5 a9 be 7c 89 a1 be dc c9 b7 be
       -0.30476144 -0.33158323 -0.31550205 -0.35896194
000150 aa f1 d7 be cd 86 5d be e8 b7 66 bd ad 0d 47 be
       -0.42176563 -0.21633454 -0.05632773 -0.1943881
000160 8c ff 4d be 48 41 2a bd cb 79 00 be 24 22 08 be
       -0.20117015 -0.041566163 -0.1254646 -0.13294274
000170 6e 9e 3b 3d d4 ae 7e 3e 2b 1d 2c 3d b2 63 a0 3e
       0.045805387 0.24871379 0.042020004 0.3132606
000180 db 7a 89 3e 65 8b af 3e d5 fe 0f 3e 84 f3 bc 3e
       0.26851544 0.34286037 0.14062054 0.36904538
000190 66 a1 6e bd 1c 79 08 3e fa fd 34 be 5e 1a 44 be
       -0.05825939 0.1332745 -0.1767501 -0.19150683
0001a0 75 96 66 3d 4b a3 88 3d cb 26 4a be 2e d0 14 be
       0.05629583 0.06671771 -0.19741361 -0.14532539
0001b0 bd 59 f4 3d 67 06 1b 3e 4a 56 bf bd 85 f2 68 bb
       0.11931179 0.15139161 -0.0934263 -0.0035544944
0001c0 dd 84 c1 bd 29 4f c8 b9 e0 50 41 bd aa 87 81 be
       -0.0944917 -0.00038205952 -0.04719627 -0.25298816
0001d0 63 9c b0 3c 36 a5 7e 3e a2 49 99 3e 61 9f 3d 3e
       0.021558946 0.2486771 0.2993899 0.1851783
0001e0 40 ac 2e 3e 9d d3 f1 bd 56 33 59 3e cd fb 00 3e
       0.17057896 -0.1180794 0.2121099 0.12596054
0001f0 81 d4 76 bb 58 fa 5d bc c9 16 6d 3e a6 31 ae 3e
       -0.0037663283 -0.013548456 0.23153223 0.34022254
000200 b2 72 05 3f 69 f5 47 3e ea 1c ae bd e2 06 3b 3e
       0.52128136 0.1952721 -0.08501609 0.18264344
000210 f2 e8 ae 3d 66 bb b2 3e 4c f8 01 3f 57 a1 dd bc
       0.085405245 0.349086 0.50769496 -0.027054472
000220 80 b0 66 be 7e cb b7 be ed 56 60 be 2c 33 40 3e
       -0.22528267 -0.3589744 -0.2190816 0.1876952
000230 e6 b9 ad be 14 96 82 be fa 52 c7 be f6 dd 6f be
       -0.33930892 -0.25505126 -0.38930494 -0.23424515
000240 b2 c5 f8 bc 40 ee 42 39 81 85 16 3d 75 af c9 bd
       -0.030367706 0.00018590037 0.036748413 -0.09847919
000250 79 c5 7d bb 62 a4 0a bd
       -0.003872244 -0.033848174

conv1.bias f4 [6]
000000 a1 84 15 3d e1 2d 16 3c b1 f6 2d 3e a3 81 10 3d
       0.036503438 0.009166212 0.16988637 0.03527988
000010 94 df 82 bc 1f f7 d9 3d
       -0.015975751 0.10642838

conv2.weight f4 [16, 6, 5, 5]
000000 ce 21 80 3a 5e 9e b8 bd ef df 40 3c 4f 58 0a bd
       0.00097757 -0.09014581 0.01177214 -0.033775624
000010 f8 55 1b bc d3 fd 26 3c 5d 11 04 3c c2 27 c9 3d
       -0.009480946 0.010192352 0.00806078 0.09822036
000020 aa 31 d7 3d 57 63 b9 3c fc 18 da 3d 10 47 42 3e
       0.105075195 0.022630377 0.10649297 0.1897242
000030 9a 4c ec 3d 74 c8 52 3e 1f 1d d9 3d b9 c2 56 bd
       0.11538048 0.2058428 0.106012575 -0.052431796
000040 a7 91 34 bc e2 35 bf bc 0a e0 bb bd ba ff 97 3d
       -0.011021054 -0.023341123 -0.091735914 0.07421823
000050 1e 60 48 bd cc 61 56 bd 62 33 fd bd 31 52 ab bd
       -0.04891979 -0.05233936 -0.12363316 -0.08365286
000060 68 ca 86 bc 09 b1 8b 3d 3b f7 98 bd ed e2 c9 3d
       -0.016453937 0.06820876 -0.074690305 0.09857736
000070 70 38 cc 3b d2 5e 1a bd 9d 2b 2e 3d 38 b7 b0 3a
       0.006232314 -0.037688084 0.04252206 0.0013482338
000080 76 cb 0a 3b cb 41 8f bd ae 40 ac bd f0 29 68 bc
       0.00211784 -0.06994971 -0.08410774 -0.014170155
000090 f6 be 7a bd f8 28 a6 bd 1b 39 a5 3c 7f a3 1b bd
       -0.06121727 -0.08113283 0.020168832 -0.03799772
0000a0 3c 4a ae 3a f3 ac 93 bd 63 f9 08 bd ad 66 71 bd
       0.001329727 -0.07210722 -0.03344096 -0.05893581
0000b0 4a 2e 8a bd dd 2a 0f bd c1 ed 35 bd ad 79 eb 3c
       -0.0674711 -0.034952987 -0.044416193 0.028744543
0000c0 8c 00 c1 bc 63 e9 a5 bd 81 ce 62 3d 5c da 94 3c
       -0.023559831 -0.081011556 0.05537272 0.018170528
0000d0 d7 c7 ca 3c 64 b9 61 3d 0d dc 0c 3d ca b6 8e 3c
       0.024753494 0.055108443 0.034389544 0.017421145
0000e0 39 07 4c 3d 5b 16 51 3c cb 77 fc 3d 7a 8c 11 3b
       0.049811576 0.012761678 0.12327536 0.0022208975
0000f0 16 e9 c1 bd c4 50 ee 3d 0c e1 22 3e ac 0b dd 3d
       -0.09468286 0.116364986 0.15906161 0.10793242
000100 ef 5a be 3d f7 94 81 be e2 94 4e be 9f 26 f9 bd
       0.09294688 -0.25308964 -0.20173982 -0.121655695
000110 24 1a 41 be ed f4 15 bd da c3 af be 60 cf 9b be
       -0.18857628 -0.036610533 -0.3432911 -0.30431652
000120 44 34 79 be 5b 75 1f be d3 13 20 be f2 7b ef bd
       -0.24336344 -0.15572111 -0.15632562 -0.116935626
000130 a3 f7 08 bd cb f1 29 3d d2 dd df bc ca ab 62 3d
       -0.03343929 0.041490357 -0.027327452 0.055339612
000140 fc e0 f0 bd df a1 da bd f3 1a f7 3c fe 48 3c bc
       -0.11761662 -0.10675406 0.030164218 -0.011492012
000150 5c 6c bb bc f5 06 8e bd 1e f3 8b 3c bd fb 07 be
       -0.022878818 -0.06934921 0.0170837 -0.13279624
000160 54 f0 3b bd 6d 34 15 be 39 25 54 3e bc e4 14 3e
       -0.04588349 -0.1457078 0.20717324 0.1454038
000170 7f 9a 0a 3e 70 73 c5 3d 4f 0b 95 bd 7b 66 ec 3d
       0.13535498 0.096411586 -0.072775476 0.11542984
000180 30 af 4f 3e e8 b2 4c 3e a1 70 14 3e ed af 59 3c
       0.20281672 0.19990122 0.1449609 0.013286573
000190 7a fe 4e 3d 0a c7 d7 bc dc 11 b2 3d b4 5b 4b 3d
       0.050535657 -0.026340026 0.08694813 0.049648
0001a0 77 45 d6 bc 83 89 f1 bc 2a d6 b5 bc 1f 55 a8 3d
       -0.02615617 -0.029484516 -0.022196848 0.082193606
0001b0 51 64 c0 3d 2e 74 be bc 68 0d 00 be 26 54 2d bd
       0.09394134 -0.023248758 -0.12505114 -0.04231658
0001c0 d6 ba ee bd 83 ef 90 bd 34 37 de bc 94 f0 c4 bd
       -0.1165673 -0.07076933 -0.027125932 -0.09616199
0001d0 07 ae 03 bd f1 d1 0b be c2 ba a6 bd bf b7 b5 bd
       -0.032148387 -0.13654305 -0.0814109 -0.088729374
0001e0 79 1a ee 3b c1 e2 82 3d c8 5d 71 3d 31 18 ee 3c
       0.0072663394 0.06390906 0.058927327 0.02906427
0001f0 b5 85 d0 bd 71 ad b4 bd 28 74 ce bd 9d 9f ee bd
       -0.101817526 -0.08822144 -0.10080749 -0.116515376
000200 49 c9 fb bc 79 f5 ea bd c6 5f f0 3c 13 fd b4 bd
       -0.030735629 -0.114726014 0.029342543 -0.088373326
000210 70 09 6c bc 0f 7e fe 3c 17 c4 5e bd 03 6a 27 3e
       -0.014406547 0.031065969 -0.054386225 0.16349034
000220 bb 24 76 3d 8f c6 18 3e 2e 6f 28 3e 45 65 60 3d
       0.060093623 0.14919494 0.16448662 0.05478408
000230 d1 8f 8c 3d 0b de a2 3d 1a d4 17 3e 9c 90 81 3d
       0.06863368 0.079525076 0.14827004 0.0632641
000240 f6 61 f8 3d e7 95 31 be d1 e6 58 be 67 30 7c be
       0.121280596 -0.1734234 -0.211818 -0.24627839
000250 3d b0 c8 bd 94 4a 1d be d2 7c 83 bd 83 54 83 3c
       -0.0979924 -0.1536048 -0.06420292 0.01603151
000260 2c 4b 0a bd b6 34 6d bd 83 b8 75 bd a6 27 8c bd
       -0.033763096 -0.057911597 -0.059990417 -0.068435
000270 c8 fa 32 bd db 6c ba bc 04 2e fc 3b 75 4a 61 bb
       -0.043696195 -0.022756984 0.007695915 -0.0034376655
000280 e4 84 45 bd c7 55 cd bc e9 c8 7d bb af 31 70 bd
       -0.048222438 -0.025065316 -0.0038724488 -0.058641132
000290 9d 22 6e 3d b5 e0 43 bd 02 0c 50 3d 0a 9b c0 3b
       0.05813848 -0.04782172 0.0507927 0.005877857
0002a0 f7 39 9a 3c 57 b4 de 3c e9 1d 62 3d 89 6f 03 bc
       0.018826468 0.027185602 0.055204306 -0.0080221975
0002b0 a4 cb 9c bd 80 7b 81 bc 58 57 4e 3d c8 07 3f bd
       -0.07656029 -0.01580596 0.050376266 -0.04663828
0002c0 d7 bf 90 bd d2 00 36 3d 92 8a 9d bd 7d 27 89 3b
       -0.070678405 0.044434376 -0.07692446 0.0041856156
0002d0 a4 71 14 3d 00 fc 8c bd 84 8c 11 3d 19 ef 0f bd
       0.03624119 -0.06884003 0.035534397 -0.03514013
0002e0 0d c8 97 3d f5 71 7d bd 0f e7 95 3d 9f 21 06 bd
       0.074112035 -0.061876256 0.073194616 -0.032746907
0002f0 d0 bc b5 bc 05 48 78 bc 52 bb 9e bd 5a ee c3 3b
       -0.02218476 -0.01515389 -0.07750572 0.0059793415
000300 c4 c9 9e bb a3 79 c8 3b 3d 62 8a bd 56 b5 6d 3d
       -0.0048458297 0.006118016 -0.06757019 0.058034264
000310 0b 53 64 3a 2d 18 ff 3c 61 73 c5 bc c8 aa f7 bc
       0.0008709884 0.031139458 -0.024102869 -0.030232802
000320 27 a4 23 bd 62 88 9b bc 84 09 92 bd f2 dd 13 b9
       -0.03995147 -0.01898593 -0.07130721 -0.00014101694
000330 9a 35 12 bd e7 f2 17 bd c7 4a 8d 3c 70 1f 20 3d
       -0.03569565 -0.037096884 0.01724757 0.03909248
000340 dd 3c 66 3b be f4 a8 3c af 79 29 3d 35 2a 8e 3c
       0.0035131492 0.020624515 0.041375812 0.01735411
000350 3c 23 90 bb 28 07 8d 3a db 1f 9a bd 0a 35 83 ba
       -0.0043987315 0.0010759579 -0.07525607 -0.0010010314
000360 5a 5d 93 3d 2f 38 4e bd 12 1c 59 bd c4 d9 92 bd
       0.0719554 -0.05034655 -0.053005286 -0.07170442
000370 86 cc 87 bb 3b c1 b1 bd f7 a5 35 3c 92 66 a8 bd
       -0.004144254 -0.08679434 0.011086932 -0.08222689
000380 de b6 09 bd 27 df 86 bd df 1f 47 bc b1 70 6c 3d
       -0.03362166 -0.06585532 -0.012153595 0.05772466
000390 e3 f8 64 3d 5c 70 c3 3c 77 9c c6 3c 0a 73 45 3d
       0.05590142 0.023857288 0.02424453 0.048205413
0003a0 f6 d2 a0 3d 24 aa ab 3d ce 86 6c 3c 59 4d 7d bd
       0.078527376 0.08382061 0.014436437 -0.061841343
0003b0 ab 11 8d 3d 3e 1f 35 b9 b8 45 8f bd 48 f4 80 bc
       0.068881355 -0.00017273144 -0.0699572 -0.015741482
0003c0 03 12 75 bd e5 b1 80 bd 29 99 fd bc 94 28 f9 bb
       -0.05983163 -0.06283931 -0.030956822 -0.0076037142
0003d0 3a 06 97 bd 3d de 69 bd bc ac 8a 3d 90 66 95 bd
       -0.073742345 -0.05709671 0.06771228 -0.07294953
0003e0 38 c0 af 3d 9f ea 4c bd 53 44 8a bd 3b b9 35 3d
       0.08581585 -0.05002844 -0.06751313 0.044366103
0003f0 00 ee f9 bb 8f 31 63 bd f1 0f 43 3d 64 01 41 3d
       -0.0076272488 -0.055467185 0.047622625 0.047120467

conv2.bias f4 [16]
000000 4a 75 2e bb 0d 6e 6d bb 75 7e 58 3d 1a e4 84 bc
       -0.0026620203 -0.0036228925 0.052854974 -0.016222049
000010 52 c2 bd bd bc bf 99 bd 9e 04 8c bd 25 b4 8e bd
       -0.09265579 -0.075072736 -0.06836818 -0.069679536
000020 44 4e 11 3c e2 7d 91 bd 0e 56 a0 bd cc 00 73 bd
       0.008868758 -0.07104088 -0.07828914 -0.05932693
000030 55 18 83 3c c5 cc d0 3b db 31 3a bd 35 1a 64 3d
       0.016002813 0.0063720667 -0.045457702 0.055689055

fc1.weight f4 [120, 256]
000000 45 9a 03 bd 90 a1 8c bd 97 3d ed 3c 9e f7 7b 3d
       -0.032129545 -0.06866753 0.028960032 0.061515443
000010 30 e5 a0 bd f4 18 b2 bd 60 41 43 bd 20 65 8c bd
       -0.07856214 -0.08696166 -0.04766977 -0.068552256
000020 ea a1 87 bd d9 96 1d bd 38 5c 20 3d 1a d9 07 bd
       -0.066226795 -0.038473938 0.039150447 -0.03316603
000030 12 77 9f 3c 1f 01 2e 3d 4d 2a f3 3d 94 ed e8 3d
       0.019465957 0.042481538 0.118733026 0.113734394
000040 78 6f 81 bc 40 d0 0c bd 09 12 5a bd 6f bc 48 3d
       -0.015800223 -0.03437829 -0.053239856 0.04900783
000050 d6 b2 6a bd 8a d5 26 bd df e9 d0 bc 35 97 22 3d
       -0.057299457 -0.04073099 -0.025502143 0.039694984
000060 f4 34 60 3d cb 71 db 3c 8d 03 d6 3a db 2a 80 3c
       0.054738 0.02678766 0.0016327963 0.015645435
000070 fc f1 7f 3d 8c 93 ed bc 9e d8 0d bd 51 b3 84 3c
       0.062486634 -0.02900102 -0.03463041 0.016198786
000080 9f 85 2e 3c 0a 66 e0 bd cd 24 ca 3d 70 d0 4c 3d
       0.010651975 -0.109569624 0.098703004 0.05000347
000090 bf 7f 91 bd 58 f8 26 bd 81 e7 5d 3d 65 9c 03 3d
       -0.07104444 -0.040764183 0.054175857 0.03213157
0000a0 87 f3 3f 3d 5a 66 13 3d 59 5e b2 bc f7 5d 7d 3d
       0.046863105 0.035986282 -0.021773504 0.06185719
0000b0 7a d3 34 3d 9f 9a 7e 3c 3a 9f 50 3d 34 2c 46 3d
       0.044146992 0.015539794 0.0509331 0.048382
0000c0 1f b4 f4 3c 8c 42 b4 bd 3b 9b e0 bc ff a9 a9 bd
       0.029871045 -0.08801755 -0.02741777 -0.08284377
0000d0 a9 d3 d3 3c 5f e0 82 bd 90 aa 27 ba 17 5a 9f 3d
       0.025857763 -0.06390452 -0.000639596 0.07780855
0000e0 a3 47 16 3d de 99 49 3d 4d f6 c8 3d 9a 7a 8e 3d
       0.03668941 0.049219005 0.09812603 0.06956978
0000f0 2c 31 7d bd 2d 8e b3 3c eb 9d c0 bc 77 86 88 bc
       -0.061814472 0.02191838 -0.023512801 -0.01666568
000100 54 c1 5a bd 4a 12 17 bd 7e ff 53 3c 89 62 0a bd
       -0.05340703 -0.036882676 0.012939332 -0.033785377
000110 9c a7 c4 3c 01 c1 7c bd 5f 95 b1 3c e2 89 3b 3d
       0.024005704 -0.0617075 0.021677671 0.045785792
000120 d9 34 4f bc 02 6f 84 bd 0f d1 1c bd 61 04 83 3d
       -0.012646877 -0.064664856 -0.03828531 0.063973196
000130 e3 46 ad bb 17 20 90 bc 99 4e 14 3d f0 cd 8b 3c
       -0.0052879914 -0.017593427 0.03620777 0.017065972
000140 7e ab 55 bd 1d c3 d2 bd d0 2b 86 bd 0d 49 73 bd
       -0.0521655 -0.10291121 -0.06551325 -0.05939584
000150 95 08 7c bd 3e f5 81 bd e2 7e 72 3c ec 82 bd 3c
       -0.061531622 -0.06345604 0.014800759 0.023133717
000160 0b c9 1c bd 75 c5 12 3d 30 23 41 3d 1c 18 4a 3c
       -0.038277667 0.03583284 0.047152698 0.01233485
000170 be 56 77 3d 43 8c 46 bd d7 9e 3b 3d f0 ed 86 3d
       0.06038546 -0.048473608 0.04580578 0.06588352
000180 75 e2 07 bd ac 0e 9d 3d 32 07 a5 3d 72 1f b9 bc
       -0.03317495 0.07668814 0.08058013 -0.022598002
000190 22 81 ca 3c b7 08 d3 3c bb 58 5d 3d 99 24 a2 bd
       0.024719778 0.025760991 0.054039698 -0.07917137
0001a0 b4 ff bc bc 58 5a c5 3c 84 bf 84 bd 3c c5 34 bb
       -0.023071148 0.02409093 -0.06481841 -0.002758338
0001b0 91 d1 01 3e f6 0c 82 3c 48 24 81 bd f3 94 13 3d
       0.126776 0.01587532 -0.06305748 0.03603072
0001c0 74 18 d6 bc 25 46 20 bd 83 c8 2c 3c af d1 98 bd
       -0.026134707 -0.039129395 0.010545853 -0.07461869
0001d0 43 de 6d 3a 09 b6 95 bd b4 ea 1b 3d d4 92 4f bd
       0.0009073952 -0.07310111 0.038065627 -0.050677136
0001e0 f4 ef 10 3d 8b 42 70 3d e6 ee 1f bc 3c 0e d1 3c
       0.035385087 0.05865721 -0.009761548 0.025519483
0001f0 09 a9 1b 3d 6a 62 fa 3c 37 92 66 bc ea 30 65 bd
       0.038003 0.030564506 -0.014072946 -0.05595485
000200 a4 2d 2f 3d ad 75 c5 bc 12 b8 b4 bd fd 45 ab 3b
       0.042768136 -0.024103964 -0.08824171 0.005226849
000210 ed 6a f5 bc e1 5e 3e bc 85 60 ca bc d7 87 7a 3c
       -0.029958213 -0.011619301 -0.024704227 0.015291176
000220 92 9c 3d bd 6a 44 d1 3c e2 e8 26 bd 1b 0e 00 bc
       -0.046291895 0.025545318 -0.040749438 -0.007815863
000230 b9 f8 6a 3d 00 64 09 3c a9 8b 17 3d f8 e9 da bc
       0.057366107 0.008385658 0.036998425 -0.026722893
000240 87 c6 4c bd 23 e5 89 bc 58 2c b1 bd 1c d3 dd bc
       -0.049994018 -0.016832894 -0.08651036 -0.027078204
000250 0f 4c bf 3c c6 7f 36 bc 1a 29 92 3d be ad 2a 3c
       0.023351697 -0.011138862 0.07136746 0.0104174
000260 81 03 99 3d f0 e8 46 3c f8 ce 9d 3d 6f 74 83 3d
       0.074713714 0.012140498 0.07705492 0.06418692
000270 fb ac 14 3d 20 6c 46 bd e0 2e 41 3d 5e 95 cb 3c
       0.03629778 -0.04844296 0.047163844 0.024851497
000280 f1 44 d6 3c fa 29 6d 3d c9 6a f4 3d 23 f2 6d ba
       0.02615592 0.05790136 0.1193443 -0.00090769137
000290 59 8e 7b 3d d3 d0 5b bc 2c cb 2e bc a3 10 13 bd
       0.06141505 -0.013416487 -0.010668557 -0.035904538
0002a0 1d b5 06 bc 92 37 d5 3c 43 eb 56 bd 2e 8e 84 bd
       -0.008221892 0.026027475 -0.052470457 -0.06472431
0002b0 b5 5b 2b 3d fa ac aa 3d a8 7d bc bd d9 b3 55 bc
       0.041835506 0.08333774 -0.092036545 -0.013043367
0002c0 32 15 4c 3d f0 96 4c bc f2 d5 8f 3d 82 b0 14 bd
       0.0498249 -0.012487158 0.07023229 -0.036301143
0002d0 3b 54 8e bd a0 86 68 3d f4 1b 2a 3d a1 52 40 3d
       -0.069496594 0.056769013 0.041530564 0.0469538
0002e0 b7 8f 09 bd b6 88 15 bb 45 6f f7 3c 33 2b 30 bd
       -0.033584323 -0.0022817082 0.030204425 -0.043009948
0002f0 5c 0a 65 bc 84 e2 5e bc b7 d4 02 3d ba 54 35 3d
       -0.013979521 -0.01360381 0.031941142 0.044270255
000300 5c d2 ab bc 65 9c 2a 3d c7 51 e8 bb a0 20 3c bd
       -0.02097433 0.041653056 -0.0070898267 -0.04592955
000310 8e b0 52 bd 98 9f b0 bd 54 87 1a bd ed e5 70 bd
       -0.051437907 -0.0862419 -0.037726715 -0.058813024
000320 db 84 e7 3b db f4 83 3c 94 fa 4f bd 4a e5 92 bc
       0.007065398 0.016107967 -0.05077608 -0.0179316
000330 be dc 26 bb a7 3c e0 3b 45 e6 0c 3d a6 18 94 3d
       -0.0025461162 0.006843168 0.03439929 0.07231264
000340 da 13 ab 3a 58 d4 96 3c a6 89 0d bc c2 cd 34 bd
       0.0013052181 0.0184118 -0.008638775 -0.04414154
000350 15 df 29 bc 3f bb d9 bb 2b 75 ee 3c 0b b1 fb 3c
       -0.010368128 -0.006644636 0.029108604 0.03072407
000360 14 68 49 bb ae 10 ca 3b bb e3 9e 3d 54 d8 bf 3a
       -0.0030732201 0.006166539 0.0775828 0.0014636614
000370 d6 1a c9 bc 5e 5e 2d 3c e6 58 a4 3c 19 ad f2 bb
       -0.02454893 0.010581581 0.020061921 -0.0074058888
000380 e1 24 5d 3c 3b 4a 0f 3d f8 de 89 bc 9e d1 c4 bc
       0.013497562 0.0349829 -0.016829953 -0.024025735
000390 6d 53 fa 3b ec e8 7e 3c dd e1 54 bc 80 95 90 bc
       0.0076393397 0.015558463 -0.012993303 -0.017649412
0003a0 2c 07 6a bd 2f 0c dd 3c 2b 03 2b 3d 77 de 2a 3d
       -0.057135746 0.026983349 0.041751068 0.041716065
0003b0 d8 79 27 3d 33 7c 75 bd 7e a6 ba bc 00 ea d5 bb
       0.040887684 -0.0599329 -0.022784468 -0.006528139
0003c0 95 5f 85 bd f4 ea ed bc a0 a3 f7 3a 4b 31 1a 3c
       -0.065123715 -0.029042698 0.0018893369 0.009411166
0003d0 1c a7 34 3d 49 c3 f6 3c 3e b1 10 3d 68 c0 54 3d
       0.04410468 0.030122416 0.03532528 0.051941305
0003e0 13 bc c3 bc 9b ed 2e 3d 65 58 23 3d 74 0f b9 bb
       -0.023893392 0.042707067 0.03987922 -0.005647594
0003f0 6c 73 a1 bb 96 9d a4 bb 7b cc 0a 3d 5f 6b e2 3c
       -0.0049270894 -0.0050236685 0.033886414 0.02763909

fc1.bias f4 [120]
000000 f8 44 84 bc c1 44 48 bd 76 ac c0 bc ff 24 1a 3d
       -0.016146168 -0.048893694 -0.023519736 0.03763294
000010 93 4b bb 3c ea a9 21 bd 05 35 2a 3d d6 0d 50 bd
       0.022863185 -0.039468683 0.04155447 -0.050794445
000020 1a 1e 6c 3d cc ac a7 3c 29 03 9e 3c da bc 1e 3d
       0.057645895 0.020468138 0.019288616 0.03875432
000030 d1 5d 7b bd d1 14 a0 3c d6 a4 54 3d 52 41 99 3c
       -0.061368767 0.019541176 0.051915012 0.018707905
000040 52 e7 ff 3a ee 1c 71 3d b7 20 6c bd 89 95 27 bc
       0.0019523895 0.05886548 -0.057648387 -0.010228523
000050 c2 e1 e8 bc 39 86 87 3d 34 5a 57 3d d5 40 ca 3c
       -0.028427962 0.06617398 0.05257626 0.024689117
000060 6e f0 de 3c 63 9d 8e bc 89 00 ac 3c 50 7e bd 3c
       0.027214255 -0.017409032 0.020996349 0.02313152
000070 c1 09 1a bd 4a ab e1 3c 34 36 54 bc 32 29 6c 3c
       -0.03760696 0.027547497 -0.012952376 0.014414119
000080 b6 b8 a5 bc 97 18 7d bd b0 20 8c bd 8c dd 66 bc
       -0.020229679 -0.06179103 -0.06842172 -0.014090907
000090 1f e8 60 bd 4b 3d 69 3c 9e f6 46 bc ac 79 d8 3c
       -0.054908868 0.014235805 -0.012143759 0.026425205
0000a0 11 1f 58 bd 63 32 3b 3d 9e 9c 65 3d 17 fe e2 3c
       -0.052764002 0.04570235 0.056057565 0.02770905
0000b0 b2 eb 3e 3a 57 10 50 3c 80 0d 8e bd 09 fe 78 3d
       0.0007283046 0.012699208 -0.06936169 0.06078914
0000c0 9b 4a 1b 3d 95 5f 41 3d 30 c4 45 bd 22 b8 09 bd
       0.037912946 0.047210295 -0.048282802 -0.03362287
0000d0 7a 7c 3e 3d 54 2c 78 bd f5 6a 64 bd c0 f7 41 bd
       0.04650543 -0.06058915 -0.055766065 -0.047355413
0000e0 d0 90 34 bc 78 76 20 3d ea dd 7d bb 22 4f 18 3c
       -0.011020854 0.03917548 -0.0038737007 0.0092962105
0000f0 07 97 ba bc 16 1d 05 bd 07 98 00 3d ec 05 16 3d
       -0.022777094 -0.03249844 0.031394985 0.03662674
000100 99 bd e0 3c 85 dd f8 3c 92 2b d0 3c 42 2c 5e 3c
       0.027434157 0.030379066 0.025411401 0.013560357
000110 01 9d 89 bc 2e 59 27 3d 59 16 45 bc 8d aa e9 3c
       -0.016798498 0.040856533 -0.012029254 0.028523708
000120 cc 2c 64 39 eb ed e9 bc 37 f7 25 3d be c4 75 bd
       0.00021760463 -0.028555831 0.040518966 -0.06000208
000130 8c 08 22 3d 50 1b 04 3d d1 dc 04 3d 84 9c 87 3d
       0.039558932 0.03225261 0.03243715 0.0662165
000140 4f c3 07 3c f2 a0 fc 3c 94 b2 0a bd 1a b1 0c bd
       0.008286311 0.030838463 -0.03386171 -0.034348585
000150 20 6d 0a 3c c4 a1 5b 3d 1b 7b 28 3d de 55 e3 3c
       0.008448869 0.05362107 0.041133028 0.027750906
000160 eb 07 77 3d ba 32 09 bd 23 fd 12 3b 1a d1 be bc
       0.060310286 -0.033495642 0.0022428713 -0.023293067
000170 e1 5d 56 3d d0 74 68 3c c7 cb 1a 3d 12 43 f5 ba
       0.052335624 0.0141880065 0.037791993 -0.0018712005
000180 00 2c 7a 3d 5f 0d 0a bd 11 f1 c7 3c 7a c5 ef bc
       0.061077118 -0.033704158 0.024406942 -0.029268969
000190 26 6f 73 3d 9c 5d 0a 3d 08 63 4e 3d 87 f7 2b 3d
       0.05943217 0.03378068 0.050387412 0.041984107
0001a0 52 c3 5f 3d 3a 01 fa 3b 62 b0 d0 3b 94 94 d5 3c
       0.05462963 0.0076295407 0.0063686827 0.026071824
0001b0 d5 bd cf 3c 4d 95 cf bc 64 da 17 bd 3e fe 74 3d
       0.025359074 -0.025339747 -0.037073508 0.059812777
0001c0 81 7a 5f bd 9b 2c cd 3c ee ab aa bc 8f c5 16 bd
       -0.05456019 0.025045684 -0.020833936 -0.0368095
0001d0 45 0f c0 3c ca ae 9a bc 60 8f 19 3d 50 ad dd bc
       0.023444781 -0.018882174 0.03749025 -0.02706018

fc2.weight f4 [84, 120]
000000 e4 8f 4d bc 54 26 91 bd 77 cf e9 bd 67 21 8b bd
       -0.012546513 -0.07087389 -0.11416524 -0.0679348
000010 a8 9d 4f 3c 19 ad 8e bd 3c db c4 bd 42 29 a8 3d
       0.0126718655 -0.069666095 -0.09612128 0.08210994
000020 73 d5 20 3d ed e7 e2 bd 1b 3f 3d bc 6c 82 82 3d
       0.03926606 -0.110793926 -0.01155069 0.06372532
000030 f0 88 cb bc ae c6 97 bd 30 90 94 bd 6c c7 25 bc
       -0.02484557 -0.07410942 -0.07254064 -0.010118347
000040 5c 95 fd 3d cf 57 81 3c 06 da 19 3d 88 18 6c bd
       0.12382004 0.01578894 0.03756144 -0.057640582
000050 3d 8e 18 bc 62 6f b4 bd 91 b3 ad 3d 11 7f af bc
       -0.009311256 -0.08810307 0.08481515 -0.021422895
000060 7f 23 70 3c aa 61 a1 3d 24 be a4 bd ee 5b c3 bc
       0.0146569 0.07879956 -0.08044079 -0.023847546
000070 19 fa ee 3c 80 6f 5a bd c6 c9 99 3d 48 eb 4e bd
       0.02917199 -0.05332899 0.07509188 -0.05051735
000080 f5 d7 8a bd 98 93 3b 3c 9e 34 9f bd 29 d9 bc 3d
       -0.06779472 0.011448763 -0.07773708 0.092211075
000090 6c 47 40 3d ac f4 0e 3d d3 61 6c bd 0b c6 f6 3d
       0.046943113 0.034901306 -0.05771048 0.120494924
0000a0 eb f5 c0 bd dc 21 44 bd 41 e8 49 bd 14 bb 3c 3d
       -0.09421905 -0.047883853 -0.04929376 0.04607685
0000b0 55 fd 5a 3d 92 6f 94 3d 9e 8f 46 3d 44 ea 15 3d
       0.053464253 0.07247843 0.048476808 0.036600366
0000c0 b4 b4 d4 bc c8 63 4f 3c 86 bf 97 3d 1f cc dc bd
       -0.025965072 0.012658067 0.07409577 -0.107811205
0000d0 0b a9 86 bd 4a 6c b9 3d 5e 0e 18 bd 0a 52 8f 3d
       -0.06575211 0.090538576 -0.037123077 0.069980696
0000e0 9f 48 bf bb d8 40 3c 3d 74 17 80 bc 32 1a 70 bc
       -0.0058375145 0.045960277 -0.015636183 -0.014654683
0000f0 e8 f2 d0 3d f7 90 05 3c f0 90 c8 bc 0f 6b 91 bd
       0.10202581 0.008152238 -0.024483174 -0.07100498
000100 a4 08 c8 3d 46 da ef 3c 9c 43 ac 3d 08 4f c9 bd
       0.09767273 0.029278886 0.08411333 -0.09829527
000110 d5 35 3c bd 99 c2 a9 bc 75 1a 7f bd 3e 97 96 bb
       -0.045949776 -0.020722674 -0.06228109 -0.004595666
000120 5d 8e 83 3d 15 bd a4 3d a5 08 4c 3c 74 8f 71 bc
       0.06423638 0.08043877 0.012453233 -0.014743675
000130 4f db 10 3d 2e 81 ff bc 50 68 82 bc 77 05 c5 3d
       0.0353654 -0.031189527 -0.01591888 0.09620183
000140 d8 82 23 bb 83 c4 8f bd 65 3f 1a bd c7 24 eb 3d
       -0.0024949815 -0.070199035 -0.037658114 0.11481624
000150 c0 ab 34 bd 13 b5 52 3d 24 c3 97 3b 8a 27 ae 3d
       -0.044109106 0.051442217 0.004631417 0.08503635
000160 78 f9 4b bd e5 a3 97 bd d5 ed ac 3d 1b 47 15 3d
       -0.04979846 -0.07404307 0.084438 0.036444765
000170 2a d4 62 3d 03 8d 00 be 47 79 9d 3b 31 fc cb 3d
       0.055378117 -0.12553792 0.004805717 0.09960211
000180 a7 5f 3b 3e b7 7c 44 3c 06 c5 3f bd ed 9e b4 bd
       0.18298207 0.011992625 -0.046818756 -0.08819375
000190 56 39 5a 3d 53 b5 19 be f7 8f bd 3d e2 46 b1 bd
       0.053277336 -0.15010576 0.09255975 -0.08656098
0001a0 91 a2 60 3d 64 61 70 3d 77 e9 8d 3d b7 c0 87 bd
       0.054842535 0.05868663 0.069292955 -0.06628554
0001b0 b7 cb ad bd b3 ab 00 3c dd 43 40 3d 4b 05 76 bc
       -0.08486121 0.007853436 0.04693972 -0.01501591
0001c0 f4 7d 35 3d d0 00 04 bc 01 05 50 3d 7e 2e dd 3d
       0.04430957 -0.008056834 0.050786022 0.10799883
0001d0 1c 93 e4 3d ce 46 7d 3d a2 58 5a 3d e0 ee b4 bc
       0.111608714 0.061835103 0.053307183 -0.02208656
0001e0 6c 86 29 3c 93 73 0c bd 2e 79 bf 3c 9a 98 a0 3d
       0.01034699 -0.034289908 0.023373213 0.078416064
0001f0 ab 13 f8 3b d9 11 a1 3c 78 33 8b bc 5b 54 88 bd
       0.007570704 0.01966183 -0.016992316 -0.066567145
000200 4b 0e 92 bd 89 e5 7f bd b4 cf b7 bb 60 60 80 bd
       -0.071316324 -0.06247476 -0.005609477 -0.06268382
000210 d4 3e 7c bd 6f e1 8f 3d c0 55 c9 bd 81 ff 43 3d
       -0.061583355 0.0702542 -0.09830809 0.04785109
000220 5f d5 fe 3b 0f 7f 81 bd de 3f 05 3d 63 c3 97 3c
       0.0077769007 -0.06323063 0.03253161 0.018525785
000230 e0 2d 6e bd b0 8a bd bd 57 a5 a5 3c e1 3c 0a 3d
       -0.05814922 -0.09254968 0.020220442 0.033749465
000240 49 43 64 bd f0 59 c3 bd ca 9c 95 bd 0f 74 6c bd
       -0.05572823 -0.095386386 -0.07305296 -0.05772787
000250 4c 15 9a bd 99 1e a2 bd 2c 32 18 3d 1a ba 91 bd
       -0.07523593 -0.07915992 0.037157223 -0.07115574
000260 5a 2a b8 bd a0 32 a7 bd 59 c1 50 bc 7b c7 83 3d
       -0.08992453 -0.08163953 -0.01274141 0.06434532
000270 00 28 af bd c3 61 df 3b 66 ea 8d 3d b7 02 b6 bc
       -0.08552551 0.006817074 0.069294736 -0.022218091
000280 3a 36 9f 3d 1c ef 60 3c 8e 17 a3 3c e4 a0 3b 3d
       0.07774015 0.013728883 0.019908693 0.045807734
000290 86 28 1a 3d c3 29 43 bd 13 f9 b1 3d 60 ad 3d 3d
       0.037636302 -0.04764725 0.08690085 0.04630792
0002a0 1c 73 af 3d cd eb 1e 3d 35 f2 66 bd 4c 20 9c 3d
       0.08566877 0.038799096 -0.05638333 0.07623348
0002b0 c4 e8 a8 3a 82 7e 7d bd e5 60 31 3d f8 1c cd bd
       0.0012886752 -0.061888225 0.043305296 -0.10015291
0002c0 85 d4 11 bc da 85 11 3c 3c 16 d5 3c e6 51 85 bd
       -0.008900766 0.00888201 0.026011579 -0.065097615
0002d0 22 bb c3 3b cf 3b 85 3d 7f bf 07 bd d2 3c 6e bc
       0.0059732357 0.06505548 -0.03314161 -0.014540868
0002e0 9d 58 81 bd b6 44 60 3d e5 1f 62 bd b5 88 29 3d
       -0.0631573 0.054753028 -0.0552062 0.04139014
0002f0 b9 85 3f bd 65 c6 3e 3b 95 63 62 bd 2a ee 71 3d
       -0.046758387 0.0029109952 -0.05527075 0.05906502
000300 e4 31 bb bc 21 31 89 bd cc 9d 64 bd d2 90 1a ba
       -0.022850938 -0.06698824 -0.05581455 -0.00058962137
000310 52 c8 1d bd d0 58 b8 3c 2b a5 53 3d 4b 12 b1 bd
       -0.03852112 0.022503287 0.05167119 -0.08646067
000320 48 14 bf bc d1 b0 38 bc e9 7f 5f 3d 86 e9 47 3d
       -0.0233251 -0.011272625 0.054565344 0.04880669
000330 70 52 44 3c 85 6f 74 bd 53 a2 a5 3d 46 2e 8d bd
       0.011982545 -0.059676666 0.080876015 -0.068935916
000340 34 a4 97 3c 24 67 36 bd ae db 83 bd dc 8d e3 3c
       0.018510915 -0.044531956 -0.06438385 0.027777605
000350 e9 77 37 bd 0b 4d 03 3d 40 51 2a 3d ba d9 61 3d
       -0.04479209 0.032055896 0.041581392 0.05513928
000360 96 87 8c bd e4 3e 9a bc 84 4a a3 bd 4d 49 5d 3c
       -0.068617985 -0.018828817 -0.07973197 0.013506246
000370 45 68 50 3d e8 7c 22 3d 59 1e 74 3d 5e 83 68 bd
       0.05088069 0.0396699 0.059599254 -0.056765907
000380 69 5f 42 3d 22 92 b2 bd 30 02 51 bd fe 99 fc bb
       0.04745427 -0.08719279 -0.051027477 -0.007708787
000390 37 6a b3 3d 9f 89 3f 3d 79 f4 18 3d 94 30 f0 bc
       0.08760493 0.046762105 0.037342522 -0.029320039
0003a0 22 61 89 3d 2a 91 62 3d 81 2c 0b 3d 96 a2 b1 bc
       0.0670798 0.05531422 0.03397799 -0.021683972
0003b0 97 9c 94 bb 73 c8 00 3d c5 fb 19 3d 6d aa 49 3d
       -0.0045352685 0.031441163 0.03759362 0.049234796
0003c0 55 ae 1b 3d f7 71 8d bc 4d da 61 bd c4 78 8e 3a
       0.038008053 -0.017266257 -0.05513983 0.0010869731
0003d0 1b fc 95 bd dd aa 24 bd 12 57 37 39 7e ab b7 bd
       -0.07323476 -0.04020201 0.00017484676 -0.089682564
0003e0 06 06 f3 bc 71 09 17 ba aa 8f ba bd 67 63 8f 3c
       -0.029665958 -0.00057616 -0.09109433 0.017503453
0003f0 6d 24 58 bd e9 89 9f bd 41 59 71 bd e8 1a 84 bd
       -0.052769113 -0.07789976 -0.05892301 -0.064504445

fc2.bias f4 [84]
000000 ba ec 6e 3d 24 b3 be bc 6c ee 59 bd 9f 5c c9 3d
       0.05833123 -0.02327878 -0.053205892 0.09832119
000010 1a 2d 9e 3d c4 ad e8 bc 27 66 32 3d fa 95 93 bd
       0.07723446 -0.02840317 0.04355445 -0.0720634
000020 1a 84 59 bc 56 ab de bc 89 94 68 3d b8 ef 18 3d
       -0.013276124 -0.027181309 0.05678228 0.03733799
000030 84 93 88 bd 52 1a 93 bc d4 14 9c 3d 9a 0e 0a bd
       -0.066687614 -0.017956886 0.0762116 -0.03370533
000040 0f e0 94 bb 6e ec 23 bd 79 11 66 bd b1 54 ad bd
       -0.0045433114 -0.0400204 -0.056169007 -0.08463419
000050 36 ef 9d bd 1a e1 0c bd 36 83 a9 bd 9d 15 ab 3b
       -0.077116415 -0.03439436 -0.082769796 0.0052210824
000060 14 47 7f 3c 88 b7 38 3d 77 1f f4 3c ef 3b 01 bd
       0.015580911 0.045096904 0.02980016 -0.031551298
000070 8e eb 86 3d 22 f5 7a bd 5a 25 58 bd 80 8a bb 3d
       0.06587897 -0.061268933 -0.052769996 0.09157276
000080 34 bd 2b 3d cb b4 05 bd 73 46 9d bd 80 e3 bd bb
       0.041928485 -0.03264312 -0.07679453 -0.0057949424
000090 8a cd 32 bd 5f d6 30 3d cf 19 c7 3b c3 71 99 bd
       -0.04365305 0.04317319 0.0060760747 -0.074924015
0000a0 0f 8f 8d bd f8 a4 b3 bc 84 0e 1e 3d eb db 8e bc
       -0.06912052 -0.02192925 0.038588062 -0.01743885
0000b0 98 9a 8b 3d e4 64 b6 bc c7 be 92 bd 0a 65 47 3d
       0.06816596 -0.022264905 -0.07165294 0.048680343
0000c0 ad bd dd 3c ee 59 b2 bd 86 32 af 3d 56 48 3a 3d
       0.027067984 -0.08708559 0.085545585 0.04547914
0000d0 68 a2 ad bd a0 ec 0e bd 25 21 5a bd 18 89 78 bc
       -0.08478242 -0.034893632 -0.053254265 -0.015169404
0000e0 bf 85 d8 bb d5 bc 10 bd f3 02 85 bd fa 0e a4 3d
       -0.0066077407 -0.035336334 -0.06494703 0.08010669
0000f0 c8 dc b2 3b 9f a3 62 bd 58 58 8c bd 34 93 aa bd
       0.005458448 -0.055331822 -0.06852788 -0.08328858
000100 1e c3 91 bb 9f 16 50 bd b6 50 fc 3b 6f 1d 58 bd
       -0.0044483086 -0.050802823 0.007700051 -0.052762445
000110 4c 80 9c 3d 36 0a 37 bd 29 b1 48 bc e9 98 8e bd
       0.07641658 -0.044687472 -0.0122492695 -0.06962759
000120 04 76 0c 3e 07 a6 cc bc 96 b9 2d 3d ea 3d 9c bc
       0.13716894 -0.024981512 0.042413317 -0.019072492
000130 f1 22 1b bd 06 de 1d 3d 56 ac 83 bd 31 93 ab bd
       -0.03787512 0.038541816 -0.06429355 -0.08377684
000140 27 69 b9 bc db 22 50 bc 91 95 cd 3d d6 52 9f 3d
       -0.022633148 -0.012703623 0.10038293 0.077794716

fc3.weight f4 [10, 84]
000000 d6 d5 4a be 8d 63 91 3c c0 7f 9d 3b b5 77 bd 3b
       -0.19808134 0.017747665 0.0048064888 0.0057820925
000010 5d 1d 19 3e 1e 8e 28 3d 4c 08 32 3e 1c da 7b 3d
       0.14952607 0.04115116 0.17385978 0.061487302
000020 29 66 a1 3c a7 9b ad 3d 2e 0b 85 3e 34 99 6a 3d
       0.019702034 0.08476954 0.25985092 0.057275012
000030 54 38 17 be c3 cc 59 3d f8 e0 79 be 17 c5 a5 3b
       -0.14767581 0.05317379 -0.24402225 0.0050588953
000040 ab 38 f2 bd 88 97 6e bd 54 65 41 3e fe d6 2e bd
       -0.11827215 -0.05824998 0.1888631 -0.0426855
000050 3a a4 4a 3c 64 c6 48 3c 5c d1 6f be 08 e5 40 bd
       0.012368256 0.012254331 -0.23419708 -0.04709342
000060 ae 63 6f bd 85 30 f1 3d 20 57 cf bd 5b ec cc bd
       -0.05844467 0.117768325 -0.1012404 -0.10006019
000070 72 c9 1f 3d aa 28 c3 3d 04 ab 62 bd 79 44 8a bd
       0.039010473 0.095292404 -0.055338874 -0.067513414
000080 d9 18 77 3d fd 53 93 3a 68 6f bd bd b8 fd 01 bd
       0.06032643 0.001124024 -0.09249765 -0.031736106
000090 5e f3 12 bc c5 ac 9c 3d df c0 14 be 21 39 61 3e
       -0.008969156 0.07650141 -0.145267 0.21994449
0000a0 82 31 0d 3e d1 56 88 3d a9 26 90 3d 6e 59 42 be
       0.13788417 0.06657184 0.07038624 -0.18979427
0000b0 7e 09 4d 3c 74 7c 56 3a cb a5 80 bd 02 48 07 bd
       0.01251447 0.0008181997 -0.062816225 -0.033027656
0000c0 6d 36 b2 3d 72 ad 5d 3d 07 3c 11 3e b1 77 52 3d
       0.08701787 0.05412049 0.14183055 0.051383678
0000d0 f5 70 99 bd 9a 0a eb 3c a2 43 3d be 67 55 ae bc
       -0.07492248 0.028691579 -0.18482831 -0.021280957
0000e0 60 40 8c be 0a 5d b6 bd 2d 30 b0 3d 6c 81 1a be
       -0.27392864 -0.089044645 0.08602939 -0.15088433
0000f0 e5 5d 36 bd 6c 5b b5 3d 13 a2 67 bd dd 39 56 bd
       -0.04452314 0.08855328 -0.05655105 -0.052301276
000100 7c 60 8b 3e 53 06 be bd 03 54 07 be b0 32 89 3d
       0.2722205 -0.0927855 -0.13215642 0.06699121
000110 b9 04 d2 bd b9 61 82 bd 3c 1f a2 3e c6 a4 be bd
       -0.10254807 -0.06366295 0.31664455 -0.09308772
000120 4c f3 35 be bc 6f 91 bd 44 a1 92 bc 4c f2 b0 3c
       -0.17768592 -0.0710139 -0.017899163 0.021599911
000130 7c fa 83 bc 6b 7e 86 be 55 06 2d 3e e2 7b ed bd
       -0.016110651 -0.26268324 0.16896947 -0.115958944
000140 78 f4 bc 3b d9 6f b1 3d f3 af 0c 3e 4d 1a 86 3c
       0.0057664476 0.08663911 0.13738994 0.016369963
000150 ea 20 11 3d 21 90 c3 bb 88 4b 5f bd c0 84 c4 3d
       0.03543178 -0.0059681092 -0.05451539 0.095956326
000160 e7 3f ff 3d 6a 3d 5a bb ce 1f 04 3e 69 b6 c2 bc
       0.1246336 -0.0033300766 0.12902758 -0.02376862
000170 1b f9 b8 3e 01 a3 85 be 37 72 92 bc 2d d4 1a be
       0.36127552 -0.26100925 -0.017876728 -0.15120001
000180 e1 fb bd bd 6a 74 ee bc a8 48 bf 3d 5e ae ac bd
       -0.09276558 -0.029108245 0.0934003 -0.084316954
000190 b4 33 bd 3d 9c 72 e9 bd b9 6b 87 be 5d 2b cf 3c
       0.09238377 -0.11398813 -0.26449373 0.025289232
0001a0 52 14 db bc 53 30 ac bd 18 cd 16 be a6 4c 5e bd
       -0.026743088 -0.084076546 -0.14726675 -0.054272316
0001b0 1a ab a3 bd 2c 01 23 be 6d bc bc 3d 5b f8 09 3e
       -0.079916194 -0.15918416 0.09215627 0.13473646
0001c0 c6 42 58 bd 82 c3 0a bd bf 68 99 bc e7 82 8c bd
       -0.052798055 -0.033877857 -0.018726705 -0.06860905
0001d0 4c ea 3c 3e db ae a3 3d c4 a6 d4 bd 59 76 10 bd
       0.18448752 0.079923354 -0.103833705 -0.035269115
0001e0 e4 af 72 3e 9e 8c f1 bd d2 4c ef 3c a4 eb 63 bd
       0.2369991 -0.11794399 0.029211435 -0.055644646
0001f0 a6 c4 61 be 35 e7 94 bd e9 23 99 be 06 5b 3c 3d
       -0.22047672 -0.07270662 -0.2991021 0.045985244
000200 cf 76 1c bd c5 d5 06 be 37 a7 08 3d 6a b6 39 3e
       -0.038199242 -0.13167484 0.033362594 0.18135992
000210 0c 29 0c 3e 32 5a 82 3d 27 88 72 bd a8 11 47 bd
       0.13687533 0.0636486 -0.059211876 -0.048600823
000220 5c a7 b3 bd 35 99 38 3c 00 e5 71 be b5 fa 18 3d
       -0.08772156 0.011266996 -0.23622513 0.037348468
000230 bd 48 53 3d 40 d9 bc bd 81 b7 de 3d c5 34 7d bd
       0.05158304 -0.09221125 0.10874844 -0.061817903
000240 88 b6 94 3d ab e4 e0 3c 06 71 b9 3d 11 f1 dc 3d
       0.072613776 0.027452787 0.09054761 0.10788167
000250 a3 a8 93 be 35 5d 8c 3d a4 df 98 3c 0d d2 d0 bd
       -0.28839597 0.06853715 0.018661328 -0.10196314
000260 5d 36 a8 bd ec 53 39 3e 05 c3 50 be b5 1a a2 3d
       -0.08213494 0.1809842 -0.20386894 0.0791525
000270 3e f2 de 3e de e0 a8 bd 58 f4 4d 3e 41 c4 41 be
       0.4354419 -0.08246015 0.20112741 -0.18922521
000280 36 90 6e bd da ee 2a 3e ca ac c0 3d e3 e8 f2 3d
       -0.058243 0.16692677 0.09407957 0.11860826
000290 1a 40 eb bc fe c3 16 be cf 88 85 3b f9 f1 17 3e
       -0.02871709 -0.14723203 0.0040751467 0.14838399
0002a0 c3 a1 10 3e 69 08 90 3d 4a 8d 88 3d 74 f9 35 be
       0.14124207 0.07032854 0.06667574 -0.1777094
0002b0 45 69 3f 3e fc 4d a7 bd 47 99 d9 3d 5b 8a 19 bd
       0.18692501 -0.08169171 0.106249385 -0.03748546
0002c0 6f bf 48 3e 07 ba 26 3e ac 9b 2a 3d 7a 1f 9d 3d
       0.19604276 0.16281901 0.041652367 0.07672019
0002d0 58 ea 86 bd c0 c7 4f 3d ff 89 5a be 35 ae 00 3d
       -0.06587666 0.050727606 -0.21341704 0.031416137
0002e0 10 86 e8 bd 08 1a 98 bd 4a 3c a7 3d 74 2b f8 bb
       -0.113536954 -0.0742684 0.08165796 -0.0075735394
0002f0 f7 fd da bc d3 25 37 3d 86 79 1f 3d ea 43 04 be
       -0.026732428 0.044713806 0.038934253 -0.12916532
000300 4b 86 81 3d 85 c0 bb bd c2 1b 1a 3e 2f 23 8d 3e
       0.063244425 -0.091675796 0.15049651 0.27565905
000310 2b 6e 02 be e0 40 cd 3c 66 c7 8d 3d 5e 1c c1 bd
       -0.12737338 0.025055349 0.06922798 -0.09429239
000320 f8 d9 fb bd 1a 35 de b9 a1 c9 bd 3d 43 e4 6a be
       -0.122974336 -0.00042382703 0.09266973 -0.22938637
000330 fd 6e cd 3d ed 5d 09 3d 9a dc b2 3d 36 fc 08 be
       0.10030935 0.03353684 0.08733483 -0.13377461
000340 50 5a f4 3d 98 1b af bd 9e c0 84 be 26 95 43 be
       0.11931288 -0.08550185 -0.25928205 -0.19099864
000350 38 e0 d0 bb 2c 03 99 bd de d6 c5 bb c2 3d 40 bd
       -0.006374385 -0.07471308 -0.006037577 -0.046933897
000360 6e dd a1 bd 05 d9 9d bc 40 7e 2b be 1e 30 c2 3d
       -0.079035625 -0.019268522 -0.1674738 0.09481834
000370 7e 8b bd bd ce 0d 15 bd a6 9d d3 3d 80 81 68 3d
       -0.09255122 -0.03639012 0.103328034 0.056764126
000380 6f 16 ff bd b7 7b f1 3c 83 4c 4b bd a5 4d 48 be
       -0.12455451 0.029477937 -0.049633514 -0.19560869
000390 c9 1e 8a 3d 9a d4 be 3d f6 f8 23 bd a0 36 b2 bc
       0.06744153 0.09317894 -0.04003235 -0.021754563
0003a0 f0 66 5b 3e 56 26 ee 3d a5 2d b7 bd 22 58 dd 3c
       0.21425986 0.11628406 -0.08944253 0.027019564
0003b0 d2 33 70 3e a4 0a 17 bc 60 de ff bd 36 00 9b 3d
       0.23457268 -0.0092188455 -0.124935865 0.075683996
0003c0 26 ab 08 3e e5 66 9a 3d a8 5a 25 be db c2 fe 3d
       0.13346538 0.07539157 -0.16147864 0.124395095
0003d0 cb 3e 01 3e 47 dd ed bd 9c c7 a1 3d f3 27 65 3e
       0.1262161 -0.11614471 0.078994006 0.2237852
0003e0 6a ab 69 bd f9 bd 7e 3e 56 dd fd bd a6 97 40 3e
       -0.05704824 0.24877156 -0.12395732 0.1880785
0003f0 99 f4 02 3e f1 ed 9a bc b5 16 92 bd 5d e5 89 bd
       0.12788619 -0.018912287 -0.07133237 -0.06733201

fc3.bias f4 [10]
000000 86 a2 2f bc 34 f6 f2 3d 08 87 a1 bd ba fd a1 bd
       -0.010719901 0.11863366 -0.07887083 -0.079097226
000010 52 1b 8e 3c a7 3f ce bd 7d 19 0d bc a1 11 5d bd
       0.017347012 -0.100707345 -0.008612034 -0.05397189
000020 f4 fc 74 3d 4f 05 a1 bd
       0.059811547 -0.07862341
