src/artifacts/checkpoints/round_002.pt (torch, 181669 bytes, 10 tensors)

conv1.weight f4 [6, 1, 5, 5]
0	0xbd9f50c0	-0.07779074
1	0xbe286425	-0.16444452
2	0xbeb500d2	-0.35352188
3	0xbe4a771e	-0.19772002
4	0xbdc4d780	-0.09611416
5	0x3de55e9b	0.11199685
6	0x3d06ae90	0.03288132
7	0xbeb29ec2	-0.34886748
8	0xbdc7728d	-0.09738646
9	0xbe3e1b2d	-0.18565054
10	0x3e89cb5d	0.26912966
11	0x3e7e44af	0.24830888
12	0xbe73f3d1	-0.23823477
13	0xbe16855e	-0.14699313
14	0xbeba70f4	-0.364143
15	0x3d2f8d22	0.042859204
16	0x3eccfc9e	0.40036482
17	0x3d880063	0.06640699
18	0xbd924d8c	-0.07143697
19	0x3c1b27e9	0.009469965
20	0xbe060d92	-0.13091114
21	0x3e8d1e7d	0.27562323
22	0x3ed12f50	0.4085641
23	0x3e612cd1	0.21989752
24	0x3e4ba342	0.19886497
25	0x3d4af556	0.049550377
26	0xbb23c7ba	-0.0024990872
27	0xbe563803	-0.20919804
28	0x3df1e52c	0.11811289
29	0x3e8600d7	0.26172516
30	0x3dfef7b4	0.12449589
31	0xbe03ec00	-0.12882996
32	0xbe43033e	-0.19044206
33	0xbe0d3162	-0.1378837
34	0x3e252f21	0.1613126
35	0xbdf0f040	-0.11764574
36	0xbe88074e	-0.26568073
37	0xbe79a9df	-0.24381207
38	0xbe7f9803	-0.24960332
39	0x3df0ac08	0.11751562
40	0xbe26ccf6	-0.16289124
41	0xbe2130c8	-0.15741265
42	0xbe039629	-0.1285025
43	0xbe5a64be	-0.21327493
44	0xbe2fbda1	-0.17162181
45	0xbe04f86f	-0.12985395
46	0xbe689721	-0.22713901
47	0xbde809ca	-0.11329992
48	0xbd0058c4	-0.031334653
49	0xbe195a73	-0.1497591
50	0x3d111030	0.03541583
51	0xbead8e7b	-0.33897766
52	0xbe5f0fc7	-0.21783362
53	0xbe957430	-0.29190207
54	0xbe88be7b	-0.26707825
55	0xbdbbd536	-0.09171526
56	0xbe20afc7	-0.15692054
57	0xbeb565fb	-0.35429367
58	0xbea88d6f	-0.32920405
59	0xbd16cc1e	-0.036815755
60	0xbe45c918	-0.19314992
61	0x3ca453ff	0.020059584
62	0xbe5f7616	-0.2182239
63	0x3d8c1636	0.06840174
64	0x3ce8a6f4	0.028399922
65	0x3e902e9c	0.2816056
66	0x3c96b577	0.018397076
67	0x3e3eeadb	0.18644278
68	0x3e5dadfa	0.21648398
69	0x3e25972f	0.16170953
70	0x3ec121d6	0.37721127
71	0x3eb99dfb	0.36253342
72	0x3eb99468	0.36246037
73	0x3e830111	0.2558675
74	0x3e338e92	0.17534855
75	0x3e1bbf34	0.15209657
76	0x3e0239c9	0.12717356
77	0x3e9eeeda	0.31041604
78	0xbcace82e	-0.021106806
79	0x3d7fcf30	0.06245345
80	0xbd782e35	-0.06059094
81	0x3e925102	0.2857743
82	0x3e460673	0.19338398
83	0xbe46c51f	-0.19411133
84	0xbd15e368	-0.036593825
85	0x3e76a460	0.24086142
86	0x3ec6caa9	0.38826492
87	0xbde1445e	-0.10999368
88	0xbe9c89a7	-0.3057377
89	0xbebb08f3	-0.36530265
90	0x3e58b3fa	0.21162406
91	0x3eb7fb9c	0.3593415
92	0x3da7373f	0.08164834
93	0xbe0676d4	-0.13131267
94	0x3cbcf31a	0.023065139
95	0x3da6fe69	0.08153994
96	0x3ea7a3a8	0.32742047
97	0x3c1a3173	0.009411204
98	0xbdf24740	-0.11829996
99	0xbe4fe243	-0.20301156
100	0x3dc4731c	0.09592268
101	0x3e502229	0.20325531
102	0x3e178cc2	0.14799789
103	0x3e60c8e4	0.21951634
104	0x3d541c0e	0.051784568
105	0x3d426893	0.04746301
106	0x3eb13ba1	0.34615806
107	0x3ecb3454	0.3968836
108	0x3eb37cfb	0.3505629
109	0x3e900e33	0.28135833
110	0x3d59dd92	0.05318982
111	0x3dc4d657	0.096111946
112	0x3d0d9670	0.034567297
113	0x3b670e17	0.00352562
114	0x3e8cd273	0.2750431
115	0xbeaf66f0	-0.34258223
116	0xbeb7ec60	-0.35922527
117	0xbe934735	-0.28765264
118	0xbd2ecd97	-0.042676535
119	0xbd975623	-0.07389476
120	0xbec69c6b	-0.38791212
121	0xbe7e9458	-0.24861276
122	0xbea26ac7	-0.3172209
123	0xbeaaf0db	-0.33386883
124	0xbba1caf9	-0.0049375263
125	0xbda09d9d	-0.07842562
126	0xbe86efb0	-0.26354742
127	0x3d65ceaf	0.056105312
128	0x3d03f0be	0.03221201
129	0x3cd19937	0.025585754
130	0xbdbd6489	-0.09247691
131	0xbe69ed11	-0.2284434
132	0x3d810afa	0.06300922
133	0x3e5d94eb	0.21638839
134	0x3dd79a9b	0.105275355
135	0xbde81eb0	-0.11333978
136	0xbe4823c2	-0.1954489
137	0xbe5cb081	-0.21551706
138	0x3e14158a	0.14461342
139	0x3e8e53b1	0.27798226
140	0xbe88b652	-0.267016
141	0x3dcd654e	0.10029088
142	0xbe4dbd89	-0.20091833
143	0x3e58e647	0.21181594
144	0x3e3a5598	0.18196714
145	0x3ccbae60	0.024863422
146	0xbe6ac253	-0.22925691
147	0xbda979d7	-0.08275192
148	0x3da53006	0.080658
149	0x3ddd2535	0.10798112

conv1.bias f4 [6]
0	0xbc1585b0	-0.009126112
1	0x3e9a28a1	0.30109122
2	0x3dd32368	0.103094876
3	0xbc1ec0da	-0.009689534
4	0x3cc5be37	0.024138553
5	0xbdb83517	-0.08994501

conv2.weight f4 [16, 6, 5, 5]
0	0xbe0f53cb	-0.13996808
1	0xbe245105	-0.16046531
2	0xbd3fa447	-0.046787526
3	0xbc9c7069	-0.01909657
4	0x3db62680	0.08894062
5	0xbdc3105d	-0.095246054
6	0x3c17225e	0.009224502
7	0xbde0bd2c	-0.10973582
8	0x3c3d19ed	0.011541826
9	0xbc15c3df	-0.009140938
10	0xbdba0659	-0.09083242
11	0x3e1ad7b9	0.15121354
12	0x3d65368e	0.05596023
13	0x3d767dea	0.060178675
14	0xbac675aa	-0.0015141268
15	0xbe08e9cc	-0.13370436
16	0x3e2551fe	0.16144559
17	0x3d506817	0.050880518
18	0xbd9e95ab	-0.07743391
19	0xbd3bed45	-0.045880575
20	0xbdb7ab17	-0.0896818
21	0xbd8e87c3	-0.06959488
22	0xbcc3d0e8	-0.023903325
23	0xbb876c01	-0.004132748
24	0xbd13e786	-0.03610947
25	0xbdf5099c	-0.119647235
26	0xbd9d1794	-0.07670513
27	0xbd9cc57f	-0.07654857
28	0xbd289040	-0.041153193
29	0xbdb01b47	-0.08598953
30	0xbde1370e	-0.10996829
31	0xbd2f1a32	-0.04274959
32	0xbd791947	-0.060815122
33	0xbdaaca28	-0.083393395
34	0x3d3930e7	0.045212653
35	0xbda66b53	-0.08125939
36	0xbe13f82d	-0.1445014
37	0xbd7a6f62	-0.06114138
38	0xbd1509b8	-0.03638622
39	0xbd9f4d00	-0.077783585
40	0xbbad3790	-0.0052861646
41	0xbd265a9e	-0.040613763
42	0xbe3b3b84	-0.18284422
43	0xbdb5553b	-0.08854147
44	0xbdc3a496	-0.09552877
45	0xbc4f7447	-0.012662
46	0x3d936b78	0.071982324
47	0xbcd9fb26	-0.026609015
48	0x3c53e3a2	0.01293269
49	0x3c3d95c1	0.011571349
50	0xbd680600	-0.056646347
51	0xbdb1383a	-0.086533025
52	0x3cc93f27	0.024566246
53	0x3b517e04	0.003196598
54	0xbc3feea3	-0.01171461
55	0xbe6291cc	-0.2212593
56	0xbdc9b099	-0.098481365
57	0xbd952320	-0.0728209
58	0xbce399ea	-0.027783353
59	0x3dbf5a38	0.0934338
60	0xbe5ca47a	-0.21547118
61	0xbdcadca4	-0.09905365
62	0x3e355228	0.17707121
63	0x3e320065	0.17382963
64	0x3e0ce9d1	0.13761069
65	0xbe8f2815	-0.27960268
66	0xbd8a21d9	-0.06744737
67	0x3ddf09f5	0.10890571
68	0x3dc3f872	0.095688716
69	0xbd5cab6e	-0.053874426
70	0xbe8e37fe	-0.27777094
71	0xbdb68094	-0.08911243
72	0xbdf07fce	-0.11743127
73	0xbdedb5ce	-0.11606942
74	0xbd4a06ed	-0.04932301
75	0xbd50795e	-0.050896995
76	0x3e1e55f6	0.15462479
77	0x3d6eb314	0.05827625
78	0xbc5d10e7	-0.013492799
79	0xbc15c079	-0.009140127
80	0x3dab6a6c	0.08369908
81	0x3e6bcaba	0.23026553
82	0x3dbee3c2	0.09320785
83	0xbd2cd2dd	-0.042193282
84	0xbd065b21	-0.03280175
85	0xbbba218a	-0.0056802677
86	0x3e4ff794	0.20309287
87	0x3dafe11b	0.08587857
88	0xbc5723dc	-0.013131108
89	0xbd5342b4	-0.051577285
90	0xbe135d49	-0.14391054
91	0x3d71f7bc	0.05907415
92	0xbd64bb27	-0.055842545
93	0x3db7be41	0.08971835
94	0xbd97b759	-0.07408018
95	0xbd53cfbc	-0.051711783
96	0x3d42299a	0.047402956
97	0x3d0fa690	0.035070956
98	0xbdc21cb9	-0.09478135
99	0xbe0e7658	-0.13912332
100	0xbe4c468c	-0.19948786
101	0xbe68018c	-0.2265684
102	0xbe0dadcf	-0.13835834
103	0xbd01a284	-0.031649128
104	0xbdad6406	-0.084663436
105	0xbe05e08d	-0.1307394
106	0xbe75ec22	-0.24015859
107	0xbda47094	-0.08029285
108	0xbd98e90a	-0.07466324
109	0x3c923ea8	0.017852142
110	0x3bf6fd73	0.0075375377
111	0xbdc31070	-0.095246196
112	0xbe6b6a9e	-0.2298989
113	0xbda00e71	-0.078152545
114	0xbd63c5f1	-0.055608694
115	0x3e1ed85b	0.1551222
116	0x3ddf7174	0.10910311
117	0xbc8d3ac3	-0.017239934
118	0x3dcdbb4f	0.10045492
119	0x3d6ef656	0.058340393
120	0x3de75971	0.112963565
121	0x3dc5a2e9	0.09650213
122	0x3e6d6107	0.23181544
123	0x3db554e6	0.08854084
124	0xbd73a1c1	-0.059480432
125	0x3dd70398	0.10498732
126	0x3da40ef1	0.08010662
127	0x3d2c1384	0.0420108
128	0xbd93bc73	-0.07213678
129	0x3c4f406c	0.012649637
130	0x3dadd5b1	0.08488024
131	0x3d591ede	0.053007953
132	0xbd2cfda4	-0.042234078
133	0xbda75abe	-0.081716046
134	0xbdf35718	-0.11881846
135	0x3d4f8ec7	0.050673272
136	0x3dd723fa	0.10504909
137	0xbd8cc673	-0.06873789
138	0xbd6214bc	-0.055195555
139	0xbd3ad5d6	-0.045614086
140	0x3e1e6c9e	0.15471122
141	0x3d684ebf	0.056715723
142	0xbc6cad13	-0.014445561
143	0x3c9e3795	0.019313613
144	0x3cc38a61	0.023869695
145	0x3dd2d5d2	0.10294689
146	0xbce36272	-0.027756903
147	0x3cb3b171	0.021935197
148	0xbd51db28	-0.051234394
149	0xbceea664	-0.029132076
150	0x3e083f6f	0.13305448
151	0xbd7f9470	-0.06239742
152	0xbd6d2241	-0.057893995
153	0x3b20c9eb	0.0024534415
154	0xbd172f81	-0.036910538
155	0x3dd66656	0.10468738
156	0x3e4dad5f	0.20085667
157	0xbc886e26	-0.016654085
158	0xbcede1c5	-0.02903832
159	0xbd35dbd6	-0.044399105
160	0xbc852ce3	-0.016256755
161	0x3e41bf03	0.18920521
162	0x3dda3184	0.106539756
163	0xbda1522f	-0.078770034
164	0xbd5460ad	-0.05185001
165	0xbdbfa4e6	-0.09357624
166	0x3c140db9	0.009036475
167	0x3cc331d7	0.023827476
168	0x3c63dc6e	0.013907535
169	0x3acf9e5a	0.0015840039
170	0xbd9d8fba	-0.07693429
171	0xbd9d7f00	-0.07690239
172	0x3d46d8e4	0.048546687
173	0x3d559bb4	0.052150443
174	0xbc0d5a62	-0.008627506
175	0xba55d2e5	-0.0008156731
176	0x3d840234	0.06445733
177	0xbc7bbba7	-0.015364564
178	0xbd957d4b	-0.07299288
179	0xbce0c1bc	-0.02743613
180	0xbdd96d49	-0.106165476
181	0xbb3ed79e	-0.0029120217
182	0x3d1477a1	0.0362469
183	0xbc40c60b	-0.011765967
184	0x3ca9c257	0.020722551
185	0x3b636b91	0.0034701566
186	0x3c42fa89	0.011900553
187	0x3bd6273d	0.0065354393
188	0x3cd08146	0.025452267
189	0x3bc88b50	0.006120123
190	0xbd05ce63	-0.03266753
191	0x3d0ef1b2	0.034898467
192	0xbcf65e6f	-0.030074326
193	0xbd965428	-0.0734027
194	0x3d2c13a4	0.04201092
195	0xbba424f0	-0.005009286
196	0x3d2fce9c	0.042921647
197	0xb8a70b18	-7.965247e-05
198	0x3cfcfbdb	0.030881813
199	0xbd97ea99	-0.07417793
200	0x3ddcec6d	0.10787282
201	0x3c0c3fcf	0.008560135
202	0xbda1c0e7	-0.07898121
203	0xbd82d9be	-0.06389187
204	0xbc265e74	-0.010154355
205	0x3d1ec50b	0.038762134
206	0x3df975d5	0.12180678
207	0xb990bc27	-0.00027606005
208	0xbdc3d144	-0.095613986
209	0xbc5f3da8	-0.01362554
210	0xbe1b22d2	-0.15150002
211	0x3d736630	0.059423625
212	0x3d7a020d	0.061037112
213	0xbddc338d	-0.1075202
214	0x3ccd65a4	0.02507288
215	0xbd947ef4	-0.07250777
216	0x3d2de41c	0.04245387
217	0x3c30fbf5	0.010802259
218	0xbd9a5af5	-0.0753688
219	0xbd60e100	-0.054902077
220	0xbddc2ec4	-0.10751107
221	0xbdd3c1a4	-0.103396684
222	0xbd3917d5	-0.045188744
223	0x3d2ff08e	0.04295402
224	0x3d28fc08	0.04125598
225	0x3d843115	0.06454674
226	0xbde477d7	-0.1115567
227	0xbe0af500	-0.13570023
228	0xbbe2e5bf	-0.0069243605
229	0x3bd5b475	0.0065217563
230	0x3daf6f8a	0.08566196
231	0x3d8931f5	0.06698982
232	0xbd4f096e	-0.050546102
233	0x3d007104	0.03135778
234	0xbc140a76	-0.009035697
235	0x3bd92cab	0.0066276393
236	0x3e0226b8	0.12710083
237	0xbdc3dcb2	-0.09563579
238	0x3cfe18c4	0.031017669
239	0x3d6d1a93	0.05788667
240	0xbd5634e7	-0.052296545
241	0x3dacbcd6	0.08434455
242	0x3d9ed5c5	0.07755617
243	0xbce492b4	-0.027901985
244	0xba22aa92	-0.00062052265
245	0x3db51110	0.08841145
246	0x3d020d84	0.03175117
247	0xbc2f168f	-0.010686531
248	0xbd6ca8ac	-0.057778046
249	0x3d5027b7	0.050819125
250	0xbdf38832	-0.118912116
251	0x3cd7c47c	0.026338808
252	0xbd2e36ce	-0.042532735
253	0xbdadb906	-0.08482556
254	0x3d8c4825	0.06849698
255	0x3c7e456a	0.015519479

conv2.bias f4 [16]
0	0xbd48e1ff	-0.04904365
1	0x3c96635c	0.018357925
2	0xbda37ade	-0.079824194
3	0xbd42f640	-0.047598124
4	0xbd7f6d18	-0.0623599
5	0xbd6e55d7	-0.058187332
6	0x3d5b0dc7	0.053479936
7	0xbd9caf72	-0.07650651
8	0xbd8901da	-0.06689806
9	0xbb98ddf4	-0.0046651307
10	0xbd14e16a	-0.036347784
11	0x3d8008b0	0.06251657
12	0x3a2a0914	0.0006486338
13	0x3cdf6139	0.027268039
14	0xbdae2ae3	-0.08504274
15	0xbd8ab5e2	-0.06772973

fc1.weight f4 [120, 256]
0	0x3d0e6347	0.034762647
1	0xbd2091ee	-0.03920167
2	0xbd68f1fb	-0.056871396
3	0x3d2bdc77	0.0419583
4	0xba70ce34	-0.0009186
5	0xbd712b6c	-0.0588793
6	0x3c28333c	0.0102661215
7	0xbd0a0722	-0.03369821
8	0xbd17bb34	-0.037043765
9	0x3cb43261	0.021996679
10	0xbbe63a2f	-0.007025979
11	0x3d6cb093	0.05778558
12	0xbd1f7f86	-0.038939975
13	0x3cee20dc	0.029068403
14	0xbb728862	-0.003700756
15	0x3d9534c6	0.07285456
16	0xbcd69949	-0.026196139
17	0x3d518640	0.05115342
18	0xbac0f7e8	-0.0014722319
19	0x3d1dfa64	0.03856887
20	0xbcaad177	-0.020851834
21	0x3d406e0a	0.04697994
22	0x3d03b7a4	0.032157555
23	0x3c955ec0	0.018233657
24	0xbb9fc129	-0.0048753214
25	0xbd44f7d3	-0.048087906
26	0x3d4c23f0	0.04983896
27	0xbd18e2c7	-0.037325647
28	0x3a3cd978	0.0007204036
29	0x3c4c0127	0.012451447
30	0x3c2ac0ab	0.010421912
31	0x3d4573c4	0.048206106
32	0xbcad2292	-0.021134648
33	0x3d326e55	0.043562252
34	0xbc327379	-0.010891789
35	0xbd6233bd	-0.055225123
36	0x3a1a88bf	0.00058950105
37	0xbce12018	-0.027481124
38	0x3d12f29e	0.03587591
39	0x3cb0994a	0.021557469
40	0x3c69e503	0.014275792
41	0x3ca25f30	0.01982078
42	0x3d84f856	0.06492679
43	0xbb4cbd5b	-0.0031240794
44	0x3d7e5a2c	0.062097713
45	0xbbb9b267	-0.005667019
46	0x3d2d28e6	0.042275332
47	0x3d1ce2a1	0.038302068
48	0x3c7d2e65	0.015452956
49	0xbd5c8d70	-0.053845823
50	0x3d3a81a4	0.04553379
51	0xbc905c61	-0.017622175
52	0x3c0d4d94	0.008624453
53	0xbd652eb9	-0.05595276
54	0xbcb4dc13	-0.022077596
55	0xbc62c387	-0.013840563
56	0xbd3b43a1	-0.045718793
57	0x3cae50fc	0.02127885
58	0xbac39f8e	-0.001492487
59	0x3c5012e1	0.012699814
60	0xbcdffe35	-0.027342895
61	0xbd37b3a9	-0.04484907
62	0x3cb6f9e2	0.02233595
63	0x3aa4a52e	0.0012561434
64	0xbd090058	-0.033447593
65	0xbcb9f601	-0.022700312
66	0x3d740775	0.059577424
67	0x3d863a95	0.065541424
68	0x3cc4e0c9	0.024032967
69	0x3c242a17	0.010019801
70	0x3cc8bcc9	0.024504082
71	0xbc544174	-0.012955058
72	0x3d05fe3f	0.03271317
73	0x3d0b2956	0.033974968
74	0x3ba4336e	0.0050110137
75	0xbd826e72	-0.06368722
76	0x3d4131ea	0.047166742
77	0xbca3614f	-0.019943861
78	0xbd4a0a5c	-0.049326286
79	0xbd2a4335	-0.041568
80	0xbc1f6fed	-0.009731275
81	0x3c8a5741	0.016887309
82	0x3c5b4227	0.013382471
83	0x3d26d134	0.040726855
84	0xbc7bc19f	-0.015365987
85	0xbd6924a9	-0.056919727
86	0xbd7616aa	-0.060080208
87	0xbb8dca50	-0.004327096
88	0xbd47594c	-0.048669145
89	0xbc5ed9d8	-0.013601743
90	0xbd8f9805	-0.07011417
91	0x3c5ea0e8	0.013588168
92	0x3d318056	0.04333528
93	0xbc459a65	-0.012060736
94	0x3c3904b1	0.011292622
95	0x3cbbb255	0.022912184
96	0xbc803aca	-0.015653033
97	0x3d2a6176	0.041596852
98	0xbd1477f9	-0.036247227
99	0x3b0a0e46	0.0021065637
100	0x3d4fb9fb	0.050714474
101	0x3d3b9aec	0.045802042
102	0xbd04079a	-0.032233812
103	0x3d6be8fd	0.05759524
104	0xbcb6842e	-0.022279825
105	0x3c33b1c4	0.010967676
106	0xbcc4ee66	-0.024039458
107	0x3d5ade7e	0.05343484
108	0x3b84433e	0.004036336
109	0xbbca2616	-0.006169091
110	0x3d18be30	0.037290752
111	0xbd4da902	-0.050210007
112	0xbd230bb5	-0.039806087
113	0xbd1351da	-0.03596673
114	0xbd550dd7	-0.05201515
115	0x3d833553	0.06406655
116	0x3cccbbee	0.024991956
117	0xbd591fd9	-0.053008888
118	0xbd3929d1	-0.045205895
119	0x3d430e22	0.0476209
120	0xbd6a0de2	-0.057142146
121	0xbd220514	-0.039555624
122	0xbcd5c900	-0.02609682
123	0x3d735eef	0.059416708
124	0x3d23e6b3	0.040014934
125	0x3c02f05f	0.007991879
126	0xbd650e1a	-0.05592165
127	0x3c6e3065	0.014537905
128	0xbc4ca159	-0.01248964
129	0x3c544cc2	0.012957754
130	0xbd75672b	-0.05991284
131	0x3d3fff4e	0.046874337
132	0x3d633915	0.05547436
133	0xbc22a3b0	-0.009926721
134	0xbd692bec	-0.056926653
135	0x3c642381	0.01392448
136	0xbd1dc6ff	-0.038519856
137	0x3c1dae2f	0.009624048
138	0x3c5bdb69	0.013419011
139	0x3c08891c	0.008333471
140	0x3cbf1b3f	0.023328422
141	0x3d510ba4	0.051036492
142	0x3d4a5c56	0.049404465
143	0xbd7de9ea	-0.061990656
144	0xbd126dde	-0.03574931
145	0x3d015b32	0.03158111
146	0xbd0a92b9	-0.033831332
147	0x3b03b0e8	0.0020094458
148	0x3d12834b	0.035769742
149	0xbd3b8d17	-0.04578885
150	0xbd4b152f	-0.04958075
151	0xbd5f71eb	-0.054552
152	0xbccde172	-0.025131915
153	0xbd0047c8	-0.031318456
154	0x3cfc13ce	0.030771162
155	0x3d025427	0.031818535
156	0xbccf4636	-0.025302034
157	0xbcd6af6e	-0.026206698
158	0x3c25cbae	0.010119362
159	0xbc247524	-0.010037694
160	0x3d778c79	0.0604367
161	0xbc74aa1a	-0.0149331335
162	0x3d017073	0.03160138
163	0x3d166170	0.036714017
164	0xbac43241	-0.001496859
165	0xbd6857c7	-0.056724336
166	0xbd494994	-0.049142435
167	0xbd0dc042	-0.03460718
168	0x3d45e841	0.048317198
169	0x3d1c7acb	0.038203042
170	0xbd7df1d4	-0.061998203
171	0xbcf062c7	-0.029343976
172	0xbd08e726	-0.033423565
173	0x3cdc3a0c	0.026883148
174	0x3c222067	0.009895421
175	0x3d48598e	0.04891353
176	0xbd50e9f5	-0.05100437
177	0xbd683e8c	-0.056700274
178	0x3c8e5940	0.017376542
179	0xbd4a8b73	-0.049449395
180	0x3aa03f3d	0.0012225878
181	0xbcf10a17	-0.029423757
182	0x3a97eb28	0.0011590468
183	0xbb5b458a	-0.0033458197
184	0xbd003239	-0.031297896
185	0xbcb2bc24	-0.021818228
186	0x3d62a8d6	0.055336796
187	0xbd2fd8d8	-0.042931408
188	0xbcd51bb6	-0.02601419
189	0xbc40e71d	-0.011773852
190	0x3cc29173	0.023750996
191	0x3d43eeee	0.047835283
192	0x3d3c448b	0.045963805
193	0xbd757981	-0.05993033
194	0xbcb8a510	-0.022539645
195	0xbb204b60	-0.002445899
196	0xbd2126f4	-0.03934379
197	0xbd58de90	-0.052946627
198	0x3cd8e112	0.02647451
199	0x3ba6e84f	0.0050936113
200	0x3d493a57	0.049127903
201	0xbcabc3de	-0.02096742
202	0xbd193b80	-0.03741026
203	0xbd183c24	-0.03716673
204	0x3d0e8964	0.034798995
205	0xbcf2aae8	-0.02962251
206	0xbd6f5d55	-0.058438618
207	0xbd6b1ec4	-0.057402387
208	0xbd271824	-0.040794507
209	0x3d68cccb	0.05683593
210	0x3d1498d4	0.03627856
211	0x3c1c6677	0.009545914
212	0x3d167c89	0.03673986
213	0x3d2d4c0b	0.04230885
214	0x3a2a45e9	0.0006495403
215	0x3c15c601	0.009141446
216	0x3cc74745	0.024325976
217	0xbd1c0309	-0.038088832
218	0x3c7f3c5d	0.015578357
219	0x3d5005b3	0.050786685
220	0x3c3dfe4e	0.0115962755
221	0xbd1b9091	-0.037979666
222	0x3b89e9bf	0.004208773
223	0x3cf8876f	0.030338017
224	0xbca326db	-0.019915989
225	0x3c055e54	0.008140165
226	0xbd91e515	-0.07123772
227	0x3c9186f0	0.017764539
228	0x3cf10818	0.029422805
229	0x3c9afbfc	0.018918984
230	0xbcd3eb01	-0.025868895
231	0x3cebb836	0.028774362
232	0x3c2bc7a6	0.010484612
233	0xbc91a1a2	-0.017777268
234	0x3d0b42e9	0.033999357
235	0x3d518e48	0.05116108
236	0x3d32cb2b	0.043650787
237	0xbcbc40e4	-0.022980161
238	0xbcd25aa8	-0.025677994
239	0x3d41f890	0.04735619
240	0xbd11672e	-0.03549879
241	0x3d0fc7d5	0.035102684
242	0x3cbf731d	0.02337032
243	0xbcbf40ec	-0.023346387
244	0x3b82d084	0.003992142
245	0x3d5b63b7	0.053561892
246	0xbae7d319	-0.0017686813
247	0x3d5861e2	0.052827723
248	0xbd20d781	-0.03926802
249	0xbafd4f71	-0.0019326044
250	0x3c7e45c4	0.015519563
251	0xbd0fd7ea	-0.03511802
252	0x3d2ffe80	0.04296732
253	0xbd3d4464	-0.0462078
254	0xbb1eba2f	-0.002421986
255	0xbaa5f82c	-0.0012662462

fc1.bias f4 [120]
0	0xbd437195	-0.047715742
1	0xb9e50a33	-0.00043685883
2	0x3d332fdf	0.043746825
3	0x3ca84357	0.020539923
4	0xbd207da5	-0.039182324
5	0xbd077e07	-0.033079173
6	0x3d08ccb5	0.03339835
7	0x3d9b68b6	0.075883314
8	0x3cac720b	0.021050474
9	0xbd123039	-0.03569052
10	0x3d6725da	0.056432582
11	0xbd526dfb	-0.051374417
12	0xbd77fc24	-0.060543194
13	0xbd4a7948	-0.04943207
14	0xbd6e5e4e	-0.058195405
15	0xbd42b9cc	-0.04754047
16	0xbb10980d	-0.0022063286
17	0x3bda3dc7	0.0066601965
18	0x3c6428e4	0.013925765
19	0xbd01f389	-0.031726394
20	0x3cc960e4	0.024582334
21	0x3c1c41dc	0.0095371865
22	0x3cb414ff	0.021982668
23	0xbce82eed	-0.028342688
24	0xbc4295c2	-0.011876525
25	0x3cd850cb	0.026405713
26	0x3c33c06a	0.010971168
27	0x3d2564d1	0.04037935
28	0xbd2c9d35	-0.04214211
29	0xbcdbc80d	-0.02682879
30	0x3d17549e	0.03694593
31	0xbd0a88a8	-0.03382173
32	0xbd6ccdc0	-0.057813406
33	0x3c1bed23	0.009516987
34	0x3d76b9b7	0.060235705
35	0xbbe3a428	-0.006947059
36	0x3d32ee5f	0.04368436
37	0x3c8c73cf	0.017145066
38	0x3cf3496c	0.029698096
39	0xbc804032	-0.01565561
40	0xbcbd63a6	-0.023118805
41	0x3d1a7195	0.037705977
42	0xbaeb8669	-0.0017969134
43	0xbd14ba02	-0.036310203
44	0x3d1a6145	0.03769042
45	0xbd423835	-0.047416884
46	0x3d50a8b3	0.050942134
47	0xbd25281e	-0.04032146
48	0x3d49b65a	0.04924617
49	0x3b38b2f8	0.0028182846
50	0xbd4ca084	-0.049957767
51	0xbce82be4	-0.028341241
52	0xbd24e6d9	-0.040259216
53	0x3b307547	0.0026925371
54	0xbd1d8f6d	-0.03846686
55	0x3c57e521	0.013177187
56	0x3ade091a	0.0016939968
57	0xbb0a73c0	-0.0021126121
58	0xbd623bab	-0.055232685
59	0x3d840547	0.06446319
60	0x3d9b5184	0.07583907
61	0x3d413fe9	0.04718009
62	0x3d3f7012	0.046737738
63	0x3d222514	0.03958614
64	0x3cf2de61	0.029647054
65	0x3c1957b5	0.00935929
66	0x3d4c4065	0.0498661
67	0xbb793fdc	-0.0038032448
68	0xbd6fe32e	-0.058566265
69	0xbc523d78	-0.012832038
70	0xbd96fb3b	-0.07372137
71	0x3c1ce44c	0.009575915
72	0x3b6e30e6	0.0036345064
73	0x3ce80282	0.028321508
74	0x3c76f1e1	0.015072317
75	0xbd554d95	-0.05207594
76	0xbd60bb0b	-0.054865878
77	0x3c75be44	0.014998976
78	0xbc234427	-0.009964979
79	0x3cebcd88	0.028784528
80	0x3d851452	0.064980164
81	0xbd176b16	-0.03696736
82	0xba45fe43	-0.00075528416
83	0x3c552abf	0.01301068
84	0xbcb04d4f	-0.021521239
85	0x3ca6b6a8	0.02035077
86	0x3cbc4aff	0.02298498
87	0x3d1ae4b1	0.037815753
88	0xbc570a87	-0.0131250685
89	0x3a22c0ab	0.00062085193
90	0x3d031712	0.032004423
91	0xbd582ea0	-0.05277884
92	0xbc056a59	-0.008143031
93	0x3d12235a	0.035678245
94	0xbd6abeb6	-0.057310782
95	0x3ceecc7e	0.029150244
96	0xbd1047bd	-0.035224665
97	0x3d151754	0.0363992
98	0x3d6047b1	0.05475587
99	0xbd6eb5cc	-0.058278844
100	0x3b456e8f	0.0030125713
101	0x3d0a287a	0.033730008
102	0xbb9c05e1	-0.004761443
103	0xbce67158	-0.028130218
104	0x3c5a74df	0.013333528
105	0xbd413613	-0.04717071
106	0x3d74e449	0.059788022
107	0xbd268593	-0.04065473
108	0xbd5995c0	-0.05312133
109	0xbd6f3d07	-0.05840781
110	0x3d119372	0.035541005
111	0x3b2effec	0.0026702834
112	0xbc93ca36	-0.018040758
113	0x3cdcb9db	0.026944092
114	0x3cf7c5f8	0.030245766
115	0x3d35ca14	0.04438217
116	0x3d927c83	0.07152655
117	0x3bbe1fb7	0.0058021205
118	0x3d472fb4	0.048629478
119	0xbd15ba4c	-0.03655462

fc2.weight f4 [84, 120]
0	0x3d1f3bd8	0.03887543
1	0x3d505780	0.050864697
2	0xbd69d7f1	-0.057090703
3	0xbda45f5f	-0.08026003
4	0xbd483bc6	-0.04888513
5	0xbd9ba09c	-0.07598993
6	0xbd29b7df	-0.04143512
7	0xbd66b487	-0.056324508
8	0xbcf3164b	-0.029673716
9	0xbd93cff0	-0.07217395
10	0x3c4081e0	0.011749715
11	0x3d8ca768	0.06867868
12	0x3ceb8543	0.028750068
13	0xbcac17dc	-0.02100747
14	0x3d9d43c9	0.076789446
15	0xbdb806da	-0.08985682
16	0xbc1c254f	-0.009530379
17	0xbda2e9bb	-0.07954737
18	0xbd8cd45a	-0.0687644
19	0xbce55d97	-0.027998729
20	0x3daad980	0.08342266
21	0xbd9985ca	-0.07496221
22	0x3d9daf52	0.07699455
23	0x3d037be6	0.03210058
24	0x3c89fce1	0.016844215
25	0xbda6b661	-0.08140255
26	0x3d923440	0.07138872
27	0x3d1cfa00	0.038324356
28	0xbd49ff30	-0.04931563
29	0xbd85173a	-0.06498571
30	0xbcfeeb75	-0.031118134
31	0xbd74bc8c	-0.059750125
32	0x3da20801	0.07911683
33	0x3c329856	0.0109005775
34	0xbd2601b8	-0.040528983
35	0x3d33506e	0.043777876
36	0xba9a6fe7	-0.0011782617
37	0x3cd5d5a4	0.026102848
38	0xbcbc7e75	-0.023009518
39	0xbcbc550d	-0.022989774
40	0x3d854f1e	0.06509231
41	0xbd0d8ee4	-0.0345601
42	0x3c3345aa	0.010941902
43	0xbb236c95	-0.0024936546
44	0xbd5b0904	-0.053475395
45	0xbc0f8de8	-0.00876186
46	0xbcf9e790	-0.030505925
47	0x3bdbbf12	0.006706127
48	0x3ca10511	0.019655736
49	0x3d4d574c	0.05013208
50	0x3adffb3f	0.0017088427
51	0x3ca96851	0.020679625
52	0x3d94fe14	0.07275024
53	0xbce36154	-0.02775637
54	0xbd955f3f	-0.072935574
55	0x3d880d2d	0.06643138
56	0xbdad26db	-0.08454677
57	0x3d5bcd2c	0.053662464
58	0x3da454a2	0.08023955
59	0xbd4e5716	-0.05037602
60	0xbbc10f60	-0.0058917254
61	0xbda647ac	-0.08119139
62	0x3d8f7f4d	0.070067026
63	0xbda313f0	-0.07962787
64	0xbc5de87b	-0.013544197
65	0x3ccf8c11	0.025335344
66	0x3bb8f41b	0.005644334
67	0x3c0cab8c	0.008585822
68	0xbd1c1f95	-0.038116056
69	0x3d87a6e9	0.066236325
70	0xbcad52b3	-0.021157598
71	0xbcd87d4e	-0.026426937
72	0x3d7ba7f8	0.061439484
73	0xbd11a6ad	-0.035559345
74	0xbc55d596	-0.013051411
75	0x3da45df1	0.080257304
76	0xbd50fb84	-0.051021114
77	0x3db34f8f	0.08755409
78	0xbd438209	-0.047731433
79	0xbcc4aaae	-0.024007168
80	0xbda4217a	-0.08014198
81	0xbcc84a5c	-0.02444952
82	0xbd16e379	-0.03683803
83	0xbd9dd23c	-0.07706115
84	0xbd8bb3ef	-0.06821429
85	0x3d9a8dae	0.075465545
86	0xbd3d2512	-0.04617793
87	0xbdb568c6	-0.088578746
88	0x3d0125cb	0.031530183
89	0x3c538221	0.012909443
90	0xbc0b6ec8	-0.008510299
91	0x3b0736d2	0.002063204
92	0x3d3ecdc5	0.046582956
93	0x3d68f816	0.05687722
94	0x3dbb2047	0.09137016
95	0x3b9b5e25	0.0047414475
96	0x3d0230eb	0.031784933
97	0x3d9b0f25	0.07571248
98	0xbcebb74d	-0.028773928
99	0xbd90e864	-0.07075575
100	0xbd884c30	-0.066551566
101	0xbdaa7664	-0.083233625
102	0xbd87ef0c	-0.066373914
103	0xbc910245	-0.017701278
104	0x3d890ea7	0.06692248
105	0xbd82c78e	-0.06385718
106	0xbdb304a4	-0.087411195
107	0xbce2feaf	-0.027709333
108	0xbc14f434	-0.009091426
109	0x3d6ccee7	0.057814505
110	0xbce0b3fc	-0.027429573
111	0xbd5917e3	-0.053001296
112	0x3adf1d48	0.0017022276
113	0xbc98c34e	-0.018647816
114	0xbd96e3ad	-0.073676445
115	0xbd8fdb1c	-0.07024214
116	0xbd3cf005	-0.046127338
117	0xbd88b112	-0.066743985
118	0xbd184074	-0.037170842
119	0xbcc2715f	-0.0237357
120	0xbd9247ef	-0.071426265
121	0x3bd72f10	0.0065668896
122	0x3e0bef28	0.1366545
123	0xbd992b29	-0.07478935
124	0x3d0fa262	0.03506697
125	0xbdbf2ae8	-0.093343556
126	0x3c51e896	0.0128118
127	0x3d5d5a3e	0.05404114
128	0x3dabb094	0.08383289
129	0x3d2fba5f	0.042902347
130	0xbd445ce8	-0.047940165
131	0xbc74582a	-0.014913598
132	0xbdefa24b	-0.11700877
133	0xbc91723f	-0.017754672
134	0xbd500dcb	-0.050794404
135	0x3d0a8175	0.033814866
136	0x3d8082c5	0.06274942
137	0x3cbf2fae	0.023338165
138	0x3caae2f2	0.02086017
139	0x3ce1f0c0	0.027580619
140	0xbb9a11c3	-0.0047018244
141	0x3d786f06	0.060652755
142	0x3d208b5f	0.039195415
143	0x3d3996bd	0.04530977
144	0x3d5ec66a	0.05438844
145	0x3dca56b6	0.0987982
146	0xbcb89c48	-0.022535458
147	0x3c186ad7	0.009302816
148	0x3d275549	0.04085282
149	0x3d4b0e54	0.04957421
150	0xbd89377e	-0.067000374
151	0xbc1afa23	-0.009459051
152	0x3d8eb89a	0.06968804
153	0xbd9d3629	-0.07676346
154	0xbaffb2b5	-0.0019508215
155	0xbd8f40c4	-0.06994775
156	0x3d378102	0.044800766
157	0x3d62b88e	0.055351786
158	0x3db4813e	0.088137135
159	0xbd556046	-0.052093767
160	0x3d7580c1	0.059937242
161	0x3d38c4b1	0.045109455
162	0xbd7b2b55	-0.06132062
163	0x3d5efea2	0.054442056
164	0x3cff20f0	0.031143636
165	0xbd953ae1	-0.07286621
166	0xbcca511d	-0.024696881
167	0x3c8e85a7	0.017397715
168	0xbd870cea	-0.0659426
169	0xbcb84c25	-0.022497246
170	0xbd26b541	-0.0407002
171	0xbda9228b	-0.08258542
172	0xbe04b51b	-0.12959711
173	0x3d87a54a	0.06623323
174	0xbd418f5f	-0.04725587
175	0xbb5545a4	-0.003254273
176	0x3b3a3ad8	0.0028416421
177	0x3d905d01	0.07048989
178	0x3ddf16e3	0.10893037
179	0x3cef5579	0.029215561
180	0xbc993674	-0.018702723
181	0xbd033301	-0.032031063
182	0x3d66a6a1	0.056311253
183	0xbcfa6d1d	-0.030569607
184	0x3dbee9bd	0.09321926
185	0x3db7c7b5	0.08973638
186	0x3cd4b260	0.025963962
187	0xbc8eb645	-0.017420897
188	0xbd408364	-0.047000304
189	0x3d8a1289	0.067418166
190	0xbd235585	-0.03987648
191	0x3bcdce79	0.006280717
192	0x3d49370b	0.04912476
193	0xbd96b7fb	-0.0735931
194	0xbc49119c	-0.012272265
195	0xbd9e8257	-0.07739704
196	0x3d784cc4	0.060620084
197	0xbdbe91e9	-0.09305174
198	0xbd81f9c1	-0.06346465
199	0x3d2b42c4	0.04181172
200	0xbdc88ea4	-0.097928315
201	0x3d2343f2	0.03985972
202	0x3db3dd46	0.08782439
203	0xbda15fcf	-0.07879602
204	0x3e045f1e	0.1292691
205	0x3c841461	0.016122999
206	0x3d84c781	0.06483365
207	0xbc20043e	-0.009766636
208	0x3d2b3133	0.041794967
209	0x3d12029e	0.035647027
210	0x3d13f354	0.036120728
211	0x3bf46fc0	0.0074596107
212	0xbda1a008	-0.07891852
213	0xbc42fe4f	-0.011901452
214	0xbd88d57b	-0.06681343
215	0x3d89b048	0.06723076
216	0x3d7c6bfd	0.061626423
217	0x3d923084	0.0713816
218	0x3d34e5b5	0.04416438
219	0x3d03e9fc	0.032205567
220	0x3db7a654	0.089672714
221	0x3b8e86aa	0.0043495493
222	0x3baa8e15	0.005204926
223	0xbe001e5a	-0.12511578
224	0xbda31bc8	-0.07964283
225	0xbcb048ab	-0.021519026
226	0x3ca759a8	0.020428494
227	0x3dfcb05e	0.12338327
228	0x3dd942ca	0.10608442
229	0x3d074d63	0.033032786
230	0x3cffc36e	0.031221118
231	0x3ce07c95	0.027403155
232	0xbd8f4dfe	-0.06997298
233	0xbab709ae	-0.0013964677
234	0xbd0a50dd	-0.033768523
235	0x3c4c317f	0.012462973
236	0xbc7a587a	-0.0152798835
237	0xbcc1001d	-0.023559624
238	0xbe0014f4	-0.12507993
239	0xbd91c567	-0.0711773
240	0xbc86d444	-0.016458638
241	0x3d3ca55b	0.046056133
242	0xbc7f2d39	-0.015574747
243	0xba08ab36	-0.00052135007
244	0x3da7aff6	0.08187859
245	0x3d4a4f08	0.049391776
246	0x3bfda6b3	0.0077408194
247	0xbd993db1	-0.0748247
248	0xbcd39516	-0.025827926
249	0xbd4ea30c	-0.050448462
250	0xbd78a062	-0.060699828
251	0x3cf17930	0.029476732
252	0x3d6e27cd	0.058143426
253	0xbc32f502	-0.010922672
254	0x3d98be23	0.07458141
255	0xbd833225	-0.06406049

fc2.bias f4 [84]
0	0xbdab2c88	-0.08358103
1	0xbd88ff04	-0.06689265
2	0xbd4642cc	-0.048403546
3	0xbc9827a4	-0.01857359
4	0x3e1d6c41	0.15373327
5	0x3d9f91a6	0.07791452
6	0xbcf5a1c5	-0.029984364
7	0x3d43537d	0.047687043
8	0xbd7073e3	-0.05870427
9	0x3d7c50b9	0.06160042
10	0xbb097348	-0.0020973254
11	0xbd684f3f	-0.0567162
12	0xbd2f4368	-0.042788893
13	0x3dca6677	0.09882825
14	0xb983736a	-0.00025072257
15	0xbd4315da	-0.04762826
16	0x3d70e679	0.058813546
17	0x3d2c8769	0.042121325
18	0x3d14163b	0.036154013
19	0xbc8d9d4e	-0.017286923
20	0x3d439808	0.04775241
21	0xbb568674	-0.003273395
22	0x3e016782	0.12637141
23	0x3d7f974d	0.06240015
24	0xbce08e9b	-0.02741175
25	0xbccdd3c5	-0.025125394
26	0xbd9e4854	-0.07728639
27	0xbd6a8402	-0.0572548
28	0xbc20c270	-0.0098119825
29	0x3d979d13	0.074030064
30	0xbd4c2055	-0.04983552
31	0xbc8e1e2e	-0.017348375
32	0x3daa9ea3	0.08331039
33	0xbcb5237d	-0.022111649
34	0x3da10ef6	0.07864182
35	0x3d2322f6	0.039828263
36	0x3cd26b3b	0.025685897
37	0xbc696223	-0.014244589
38	0x3d2684c0	0.040653944
39	0x3d105b27	0.03524318
40	0x3d5a8605	0.053350467
41	0x3db770fd	0.08957098
42	0x3cc1937e	0.0236299
43	0x3dbac706	0.09119992
44	0xbdc55642	-0.09635593
45	0x3d4768b7	0.04868385
46	0xbd173e31	-0.036924545
47	0xbd775a06	-0.060388587
48	0x3d6e617e	0.058198445
49	0x3d63057a	0.055425145
50	0x3d6048d2	0.054756947
51	0xbb781ac4	-0.003785775
52	0x3d5153c0	0.05110526
53	0x3d5b01d1	0.05346853
54	0x3da87582	0.08225538
55	0x3d363467	0.04448357
56	0xbd3e5cfb	-0.04647539
57	0x3c72f300	0.0148284435
58	0x3bfad449	0.007654701
59	0x3b0f8d46	0.0021904274
60	0x3d511141	0.051041845
61	0x3c1efd8b	0.009704004
62	0xbc939d66	-0.01801939
63	0xbd98a4c5	-0.07453302
64	0x3e05337c	0.13007921
65	0xbd9cfce6	-0.07665424
66	0xbd43772d	-0.047721077
67	0xbda568f1	-0.080766566
68	0xbd469660	-0.048483253
69	0x3daba634	0.0838131
70	0xbd8e3cd8	-0.06945199
71	0x3d1f6b10	0.038920462
72	0xbdad1c9f	-0.08452725
73	0xbd66f238	-0.05638334
74	0xbc19213a	-0.009346301
75	0xbd99269e	-0.07478069
76	0x3ddc4b5a	0.1075656
77	0xbd8d0422	-0.06885554
78	0x3da13a75	0.07872478
79	0xbbcb2722	-0.0061997334
80	0xbcce085b	-0.025150469
81	0xbcb42122	-0.021988455
82	0x3d6b737c	0.05748318
83	0x3db5d720	0.088789225

fc3.weight f4 [10, 84]
0	0xbd72e306	-0.059298538
1	0x3ded4e8b	0.115872465
2	0xbdb2c026	-0.08728056
3	0xbd69a096	-0.057037912
4	0xbe235ce4	-0.15953404
5	0x3e214034	0.15747148
6	0xbd5be7d8	-0.0536879
7	0xbd9f7d9c	-0.0778763
8	0xbe3ea453	-0.18617372
9	0xbd707a59	-0.05871043
10	0x3ddd787a	0.10813995
11	0xbcf8b0a0	-0.030357659
12	0x3db2e601	0.08735276
13	0xbe55e0bf	-0.20886515
14	0xbe3c913c	-0.18414778
15	0x3d0e5d8a	0.034757175
16	0x3c96f9d4	0.018429674
17	0xbcace6c6	-0.021106135
18	0xbdfc7dc7	-0.123286776
19	0xbe02365b	-0.12716047
20	0x3ddec194	0.10876766
21	0xbda355bd	-0.07975338
22	0xbd968ff1	-0.073516734
23	0xbdb78cb4	-0.08962384
24	0x3cde65db	0.027148178
25	0xbe0dc5aa	-0.13844934
26	0x3e3c4459	0.18385448
27	0x3d6c7b35	0.057734687
28	0xbd9274a1	-0.071511514
29	0xbd5c2db9	-0.053754542
30	0xbdac38ee	-0.08409296
31	0xbe2177c6	-0.15768346
32	0x3e08d9bc	0.13364309
33	0x3d9bc80c	0.07606515
34	0x3e2b1020	0.1670537
35	0x3e375f35	0.17907412
36	0x3e1b0845	0.15139873
37	0x3da9ccfe	0.08291052
38	0x3dfb0ba4	0.1225808
39	0xbe226ccf	-0.1586182
40	0x3e8ad885	0.27118316
41	0x3df17d68	0.117914975
42	0xbdf944fa	-0.12171359
43	0xbe250609	-0.16115583
44	0x3d8b6ca2	0.068078294
45	0x3d6988f6	0.05701538
46	0x3cc57075	0.024101475
47	0x3d0aba31	0.033868972
48	0xbd90e98c	-0.070757955
49	0xbdde67a4	-0.10859612
50	0x3dc74c84	0.09731391
51	0xbc65a9bb	-0.014017518
52	0x3e1a6a65	0.15079649
53	0xbe200b1c	-0.15629238
54	0xbdaa9250	-0.08328688
55	0xbd8d3c2c	-0.068962425
56	0xbd09e923	-0.033669602
57	0xbcb45c0c	-0.022016548
58	0xbe46d106	-0.19415674
59	0x3e691ca3	0.2276483
60	0x3d447033	0.047958564
61	0xbdc0f6e8	-0.09422094
62	0xbdcbae11	-0.0994531
63	0xbc3cbd9d	-0.011519817
64	0x3e0445de	0.12917277
65	0x3dec11a7	0.115268044
66	0x3da2b5c1	0.07944823
67	0x3dd74b03	0.10512354
68	0x3c87595a	0.016522098
69	0x3e88223c	0.2658862
70	0xbdd1e013	-0.10247817
71	0x3e06a797	0.13149868
72	0xbdc27e0b	-0.09496697
73	0xbddf2600	-0.1089592
74	0xbe45761e	-0.1928334
75	0xbdbe22fb	-0.09284016
76	0xbdb81464	-0.08988264
77	0x3d9ff671	0.07810677
78	0xbbc8de6a	-0.0061300294
79	0xbe137284	-0.14399153
80	0x3de034f9	0.10947604
81	0xbe413674	-0.18868428
82	0xbde45ffc	-0.1115112
83	0xbdfc099b	-0.123065196
84	0xbc59d4d8	-0.013295375
85	0xbe3d2134	-0.18469697
86	0x3dd9c37f	0.10632991
87	0x3cb6a921	0.022297444
88	0x3e8e9fb2	0.27856213
89	0xbd732cf2	-0.059369035
90	0x3defb0f5	0.11703674
91	0x3ea14789	0.3149989
92	0x3de25bff	0.11052703
93	0x3d83a80f	0.06428539
94	0xbe55b1fc	-0.20868677
95	0x3d2fbf67	0.042907145
96	0xbdb364b2	-0.087594405
97	0xbe40a5e6	-0.18813285
98	0x3e052bda	0.1300501
99	0x3dfaa444	0.122383624
100	0xbda6c8fb	-0.08143803
101	0xbe5fb51a	-0.21846429
102	0xbc1f49ce	-0.009722186
103	0xbc19e384	-0.009392623
104	0x3d53beaa	0.051695503
105	0xbddd668f	-0.10810577
106	0x3e466891	0.19375826
107	0x3dc296f3	0.095014475
108	0xbe15b982	-0.14621547
109	0x3cf13485	0.029443989
110	0xbdd1c6d7	-0.10243004
111	0x3e04012b	0.1289107
112	0xbdc369c8	-0.095416605
113	0xbca4e47b	-0.02012848
114	0xbdf6435f	-0.12024569
115	0x3e15609d	0.14587636
116	0xbda3901d	-0.07986472
117	0x3d6f6713	0.05844791
118	0x3dabe451	0.08393157
119	0xbe040735	-0.12893374
120	0x3c89cc40	0.016821027
121	0x3d91c42c	0.07117495
122	0x3e1adf45	0.15124233
123	0xbe390c00	-0.18070984
124	0xbe90f3ca	-0.28310996
125	0x3e79a66e	0.24379894
126	0x3e719c2d	0.23594733
127	0xbd14f483	-0.036365997
128	0xbcbc8f18	-0.023017451
129	0xbe34010f	-0.17578529
130	0xbe2f070e	-0.17092535
131	0x3d05dd47	0.03268173
132	0xbd88b82e	-0.066757545
133	0x3e2900ea	0.16504255
134	0xbcda60a8	-0.026657417
135	0x3c9c5ec9	0.019088166
136	0x3d50e0e3	0.05099572
137	0xbd30ee78	-0.04319617
138	0x3e5352ee	0.20637104
139	0x3c89665e	0.016772445
140	0x3b293d96	0.0025824062
141	0xbde88934	-0.113542944
142	0x3e58611e	0.21130797
143	0xbda79889	-0.08183391
144	0xbe213e0e	-0.15746328
145	0xbcbd86fd	-0.023135656
146	0x3d6514f6	0.055928193
147	0x3e1dd851	0.1541455
148	0x3e29d700	0.16585922
149	0xbdb8dc99	-0.09026451
150	0x3b92b783	0.0044774427
151	0xbbd7f4f5	-0.0065904805
152	0xbe4079aa	-0.18796411
153	0xbcceee02	-0.025259975
154	0xbd7949f1	-0.06086153
155	0xbd5aeed4	-0.05345042
156	0x3dac150a	0.084024504
157	0xbe09efa2	-0.13470319
158	0xbd50c914	-0.050973013
159	0x3d988ef1	0.07449139
160	0x3e70326a	0.23456731
161	0x3d77e369	0.06051961
162	0x3dcc6815	0.099807896
163	0xbe1fd9cf	-0.15610431
164	0x3a4772dd	0.00076083635
165	0x3d20d669	0.039266977
166	0xbc819c1e	-0.015821513
167	0xbe49460a	-0.19655624
168	0xbd9449e7	-0.07240658
169	0xbe12302f	-0.14276193
170	0x3bf2420e	0.0073931282
171	0x3d9b7db6	0.07592337
172	0xbe74da5d	-0.23911424
173	0x3ddd10e1	0.10794235
174	0x3e272f20	0.1632657
175	0x3d564ee2	0.052321322
176	0xbe301062	-0.1719375
177	0xbdf87550	-0.121317506
178	0xbdfba63a	-0.122875646
179	0x3d56705e	0.052353255
180	0xbe4ca2c4	-0.19983965
181	0x3e0bd159	0.13654079
182	0x3b052ffe	0.0020322795
183	0x3d9f0256	0.077641174
184	0xbb9cb1fb	-0.004781959
185	0x3cd5e430	0.026109785
186	0x3d97fb0b	0.074209295
187	0x3d6cd0ff	0.0578165
188	0x3dfe0b2b	0.12404474
189	0xbdd71d2a	-0.105036095
190	0xbdb18238	-0.086674154
191	0x3d8de964	0.06929281
192	0xbe2fcaa6	-0.17167148
193	0xbd67e956	-0.05661901
194	0xbd5232ee	-0.0513181
195	0x3e03a3a1	0.12855388
196	0x3e228c74	0.15873891
197	0x3d433629	0.047659073
198	0xbde63f00	-0.11242485
199	0x3e16dd2b	0.14732806
200	0x3eaf4b2e	0.34237045
201	0xbdd516f7	-0.10404771
202	0xbe16086b	-0.14651649
203	0x3cb705c0	0.022341609
204	0x3d579e2a	0.05264107
205	0x3ca7a82f	0.020465938
206	0x3d35e635	0.044408996
207	0xbc992b36	-0.018697362
208	0x3ddc9f6a	0.10772593
209	0xbd26fabe	-0.04076647
210	0xbd3c0286	-0.045900844
211	0x3d803bdc	0.06261417
212	0x3d9fa506	0.077951476
213	0xbe33bc66	-0.17552337
214	0x3e6f6d5d	0.23381563
215	0x3c3dd594	0.0115865655
216	0xbd0e87d2	-0.034797497
217	0x3e3db841	0.18527319
218	0xbe154057	-0.14575325
219	0x3d83616c	0.06415066
220	0x3dc18397	0.09448927
221	0xbe43b984	-0.19113737
222	0x3c938df8	0.018012032
223	0x3dd3ddcb	0.10345038
224	0xbdb48bde	-0.0881574
225	0xbe450f69	-0.1924416
226	0x3ddb3105	0.10702709
227	0x3ccd9bb2	0.025098655
228	0xbd83d2e4	-0.064367086
229	0x3daa6194	0.08319393
230	0xbda8317c	-0.082125634
231	0x3e028b3c	0.12748426
232	0xbe51a42d	-0.20472784
233	0x3d702e76	0.05863806
234	0x3d163580	0.036672115
235	0xbdfd56c3	-0.12370064
236	0x3e4b8133	0.19873504
237	0x3e5ebd13	0.21751814
238	0xbdcb6351	-0.099310525
239	0xbe34b269	-0.17646183
240	0xbb824ad9	-0.0039762077
241	0xbe067fca	-0.13134685
242	0xbdef3fa6	-0.11682062
243	0x3d7f4389	0.062320266
244	0xbbc21837	-0.005923297
245	0x3d15bf71	0.036559526
246	0x3c9fb7ce	0.019496825
247	0xbd2c9491	-0.04213387
248	0x3e0e7d4d	0.13914986
249	0x3ce5c239	0.028046714
250	0x3c947237	0.018120868
251	0x3da12a8e	0.07869445
252	0x3dc93a60	0.09825587
253	0x3cf4170d	0.029796148
254	0x3bf3527c	0.0074256044
255	0xbd090928	-0.033455998

fc3.bias f4 [10]
0	0x3d49ba05	0.049249668
1	0x3db821e1	0.08990837
2	0xba03761c	-0.0005014853
3	0xbd232272	-0.03982777
4	0xbc662fcc	-0.014049482
5	0x3ca7c3bb	0.020479074
6	0xbd805c86	-0.062676474
7	0x3d29df8f	0.041472968
8	0x3d5a5f75	0.05331369
9	0x3cde0406	0.027101528
