src/artifacts/checkpoints/round_003.pt (torch, 181669 bytes, 10 tensors)

conv1.weight f4 [6, 1, 5, 5]
000000 3c 74 0e be cd 81 b3 bd ea 9a ed 3d 07 0d 53 3e
       -0.13911527 -0.08764992 0.11601813 0.20610438
000010 92 87 9f 3d 84 c9 ba 3d be 82 97 3c aa 5c a8 3e
       0.0778953 0.09120467 0.01849496 0.32883197
000020 b1 2d 10 bd c4 e2 3f be 98 09 b9 3d a3 ea cd 39
       -0.035199825 -0.18738848 0.09035033 0.00039275465
000030 ca b5 b4 bd 45 6f d6 3d 30 bc b0 bd 77 6c 61 3e
       -0.08823736 0.10470442 -0.08629644 0.22014032
000040 c2 06 ff 3d 67 f0 fb bd c5 2e 8a 3d 9f 94 1c 3e
       0.12452461 -0.123017125 0.06747202 0.1529107
000050 9e 71 34 3e 66 d5 2a 3e e7 55 8f be 20 c2 56 bd
       0.17621467 0.16682968 -0.27995226 -0.052431226
000060 49 d7 d9 3d b0 df e2 3d 58 4d 82 3d fd 03 b0 bc
       0.106367655 0.11077821 0.063624084 -0.021486277
000070 f0 45 05 3e cc 28 88 3d bf be 01 be e6 00 8b 3e
       0.1301496 0.066484064 -0.1267042 0.27149123
000080 c1 f0 c8 3d 0d 43 72 3e dc a4 02 3e c2 75 06 3e
       0.09811545 0.2365839 0.12758201 0.13130859
000090 98 fd 08 3f b8 e5 01 3f a4 86 0d be 88 a5 3e be
       0.53511953 0.5074115 -0.13820893 -0.18617833
0000a0 a8 07 08 3d b8 8c 67 3e 52 69 ed bb c2 7f dd 3d
       0.033210427 0.22612274 -0.007245221 0.108153835
0000b0 b8 c2 8e be 02 ce 89 3b 9a 03 53 3d 5f db d5 3d
       -0.27882934 0.0042054662 0.051517107 0.10442232
0000c0 db 3e f6 bd 3c 13 8a be d4 45 fe bd 62 48 39 3e
       -0.120237075 -0.269678 -0.124156624 0.18094018
0000d0 d7 49 35 3e cc e7 5c 3e 89 57 34 3e 27 93 b8 3e
       0.17703949 0.21572798 0.17611517 0.36049768
0000e0 42 af 99 3e 42 74 18 3e ff 27 e0 3e c7 eb 59 3e
       0.30016524 0.14888099 0.43780515 0.21281348
0000f0 f4 96 25 be d3 51 1a 3e 3f ee 39 3e e4 9e e4 bd
       -0.16170865 0.15070276 0.1815729 -0.111631185
000100 4c b5 5a 3e ce d3 ba be 70 97 19 be ab f5 a6 be
       0.21358222 -0.3648972 -0.14999175 -0.32609305
000110 ed 75 1e bd 56 91 87 be b1 0b 24 bd 4e df f4 be
       -0.03868668 -0.2647807 -0.040050212 -0.47826618
000120 9e f3 b3 be ba c4 f3 be 59 d7 93 be 7e de ca 3c
       -0.35146803 -0.47611028 -0.28875235 0.024764296
000130 bc 2a dc 3d 82 03 49 bc 3e 0a eb bd 82 e3 55 bc
       0.107503384 -0.012268903 -0.11476563 -0.01305473
000140 24 d3 52 be ca fa 37 3c 4c 43 14 be f0 81 24 be
       -0.20588356 0.011229226 -0.14478797 -0.16065192
000150 b7 af 15 3e 63 3e 30 be bd 2b 01 3d 20 e5 11 be
       0.14617811 -0.17211299 0.031535853 -0.1424756
000160 4a d2 1a be cd a7 4b be be bd 41 be 53 4b 0b 3e
       -0.15119281 -0.1988823 -0.18920037 0.13602953
000170 f3 92 1f 3c 7e c0 d7 3d 06 d5 3c be 9c be 00 be
       0.009739625 0.10534762 -0.18440637 -0.12572712
000180 ca 0f 20 be f8 97 01 be 0a 31 f5 3c 1e 98 3e be
       -0.15631023 -0.12655628 0.02993061 -0.18612716
000190 76 f9 1e be a7 f4 34 be 88 c5 51 be 2a 83 81 3d
       -0.1552485 -0.17671452 -0.20485508 0.06323846
0001a0 f5 c3 08 3c 8c 2d 97 be 56 65 a9 bd 69 db 8b be
       0.008347501 -0.29526937 -0.082712814 -0.27315834
0001b0 6a 35 4d 3e 32 71 0d 3d 42 4e bd be c0 f0 29 bd
       0.20039907 0.03453178 -0.36973768 -0.041489363
0001c0 92 75 41 be 87 0e e8 3d 86 01 17 3e 22 65 b1 be
       -0.18892506 0.11330896 0.14746675 -0.3464747
0001d0 2d fc 1a be f9 32 ea bd 59 95 9a 3e be b9 85 3e
       -0.1513526 -0.114355035 0.30192068 0.26118273
0001e0 c2 c7 68 bd 90 d2 f1 bd 28 02 87 3e de 58 a4 3e
       -0.05683113 -0.1180774 0.26368833 0.3209905
0001f0 d8 96 a6 3e 04 89 5f bc 37 1f 27 3d 10 c0 14 be
       0.3253696 -0.013643507 0.040801253 -0.14526391
000200 54 71 f2 bd 8e ec ab bd 26 8e 53 3e ac 34 2d be
       -0.11838022 -0.083947286 0.20659694 -0.16914624
000210 2e 0a 44 be 5a 2b 82 bd d8 2d 0e be a7 b3 57 3e
       -0.19144508 -0.06355925 -0.13884676 0.21064626
000220 e8 6f 39 be e4 18 86 be 71 3b bd be ca ac 9c be
       -0.18109095 -0.26190865 -0.36959413 -0.30600578
000230 0c 96 c7 3e 4c 12 b3 3e 46 88 ba bb ff 7d c2 bd
       0.38981664 0.34974897 -0.0056925146 -0.09496688
000240 4d 05 39 3d 30 58 c9 bc 9b 34 af 3e 48 d3 f7 3e
       0.04517107 -0.024578184 0.34219822 0.48403382
000250 b4 fd 54 3e ce b9 65 3e
       0.20799905 0.2243416

conv1.bias f4 [6]
000000 65 1b b3 3d 18 0a 57 3d 57 53 1a 3e 63 3e b1 bd
       0.087454595 0.05249986 0.15070854 -0.086544774
000010 7a e7 c0 bd 52 78 26 3e
       -0.09419151 0.16256836

conv2.weight f4 [16, 6, 5, 5]
000000 40 78 28 bd 66 ea 41 3c e0 d3 a3 bd 64 34 8b bc
       -0.041130304 0.01183567 -0.07999396 -0.016992755
000010 ba b2 75 3c 98 0c b2 3c 20 4b f7 bd ff c8 9e bd
       0.014996225 0.02173452 -0.12074876 -0.07753181
000020 f0 5d 1a bd 76 b6 7b 3d 9a 03 1e 3d 95 e6 2f bd
       -0.037687242 0.061453305 0.038577653 -0.04294451
000030 40 58 5a bd f6 fc bc 3c 40 d4 20 3c 53 d5 7b bd
       -0.053306818 0.02306984 0.009816229 -0.06148274
000040 80 9b a4 3d 91 de 2b 3d c2 fe 37 3c ce e6 55 bd
       0.08037472 0.041960303 0.011230173 -0.052222066
000050 20 8e 82 3c e8 b3 e5 3c 47 6e d0 bc 84 cf cf bd
       0.015936911 0.028039888 -0.02544321 -0.10147002
000060 b8 b2 b1 3b f0 bc c0 bb 20 9c ab bc f4 2b 3f be
       0.0054229163 -0.005881898 -0.02094847 -0.1866911
000070 11 43 de bb 6f 59 44 3d 35 09 ce 3d d5 00 3c be
       -0.0067828973 0.047936853 0.1006035 -0.18359692
000080 8e 89 9e bd 7f b6 d4 3d f2 0b 62 3d ec d4 cc bd
       -0.0774108 0.10386371 0.055187173 -0.10001549
000090 0d 4e e4 bd ee c9 24 3d 91 44 ee 3d d4 19 f7 bd
       -0.111476995 0.040231638 0.11634172 -0.12065473
0000a0 ba 84 0d be 9b 76 11 3d 94 00 a3 3d 28 6e 07 bd
       -0.13820162 0.0355135 0.07959095 -0.033064038
0000b0 df 9d 48 be 4a 4b 84 3d 34 bc 5c bc 88 74 8a 3c
       -0.19591473 0.06459673 -0.0134726055 0.01690127
0000c0 45 94 d6 3c 23 3d 4b be 94 f4 f1 bc ec ed ce bd
       0.026193747 -0.1984754 -0.02953557 -0.10103974
0000d0 99 c5 ac bb 39 39 c9 3c 44 36 3a ba 1b 63 aa bd
       -0.005272579 0.024563419 -0.0007103423 -0.08319684
0000e0 0c 30 c6 bd b6 6c 91 3c 7c 5d d7 3b c3 ca d7 3d
       -0.09677133 0.017752033 0.0065724235 0.105367206
0000f0 c2 c7 bf 3c d1 9b ca bd 4c 4c e4 3c 1b 11 85 3d
       0.023410682 -0.09893001 0.027868412 0.06497403
000100 07 b7 67 3d b2 22 92 bd ba c4 36 3c 75 70 86 bd
       0.056571033 -0.07135524 0.011155302 -0.06564418
000110 46 6b b7 bd 3b 26 45 bd 88 94 d8 bd 5e 2f 89 bd
       -0.08956008 -0.048132163 -0.10575205 -0.06698488
000120 0c f7 e1 3b a8 90 9a bd c0 00 fa bd 2c 37 73 3d
       0.0068959054 -0.07547122 -0.12207174 0.059378788
000130 40 44 99 bd 1d 06 65 3d 2d be 83 3d 48 19 dd 3c
       -0.07483721 0.055914033 0.064327575 0.026989594
000140 29 11 ad bd 04 83 5d 3d 26 d4 ae bd 68 88 aa bd
       -0.08450539 0.054080024 -0.08536558 -0.08326799
000150 57 34 47 bd ea 0e 46 3d 8e 70 46 bd 12 5f ee 3c
       -0.0486339 0.048354067 -0.048447184 0.029098067
000160 22 11 1d 3c 28 96 04 bd 4e 3b 8b bc 8e 40 52 3c
       0.009586604 -0.032369763 -0.016996052 0.012832774
000170 68 b6 27 3d 21 57 e4 3b 95 38 83 3d c0 c0 a0 bd
       0.04094544 0.0069683944 0.064072765 -0.07849264
000180 8c 54 b7 bd 10 ed b4 bd cc 24 8a 3d 02 5b 24 bd
       -0.08951673 -0.088342786 0.067453 -0.040125854
000190 62 79 92 bd e2 9f 9e bd 09 e0 f4 3c 59 79 7b 3d
       -0.07152058 -0.07745339 0.029891985 0.061395023
0001a0 26 97 91 3d 4f 2f ab bd 9f 58 a6 3d a8 54 04 3e
       0.071089074 -0.08358633 0.08122372 0.12922919
0001b0 39 5a b5 3d 57 54 e6 3b 75 2a ba bd 8e 5b b9 3d
       0.08855099 0.007029097 -0.09090129 0.09050666
0001c0 b8 20 31 3d 1d ec c4 bd 2c 54 e1 bc 4d ad 5b 3d
       0.043244094 -0.096153475 -0.027505957 0.05363207
0001d0 35 f3 de 3d e4 69 84 bd e0 ff 34 bd c6 b9 e7 bd
       0.10886232 -0.064655095 -0.044189334 -0.1131473
0001e0 55 e0 98 3c 51 50 d4 3d 1e 75 3e bd 34 03 6d bd
       0.018661657 0.10366882 -0.04649841 -0.057864383
0001f0 df 53 dc bd a4 3a 75 bc 90 2a 06 bd b4 0b 32 bc
       -0.10758185 -0.014967594 -0.032755435 -0.010867048
000200 50 bd b3 bb 1b 00 fe 3c 97 48 06 3d 54 78 d7 3c
       -0.0054852143 0.03100591 0.03278407 0.026302494
000210 bc c3 cb bc b6 30 84 bd 7b df 55 bd fc 9c 38 bc
       -0.024873607 -0.064546034 -0.05221508 -0.011267897
000220 10 e9 b1 3a 68 b6 06 be b5 06 87 bd 44 a6 33 3c
       0.0013573486 -0.1315552 -0.06593076 0.010964934
000230 5b d7 c5 3c 38 95 d7 bc 1d 1a b1 bc 96 05 02 bc
       0.024150541 -0.02631627 -0.021618897 -0.007935902
000240 97 ca ba bd c1 3c 1a 3b c6 bb a0 bb 36 5c 00 3d
       -0.09120672 0.0023534747 -0.004905197 0.03133794
000250 1b 86 93 3d 53 4c 69 bc ab 43 3e 3d ea 34 9a bd
       0.07203313 -0.0142393885 0.046451252 -0.07529624
000260 bb 0f 80 3c a0 d2 ec ba 3c b1 66 3d 2a 64 c3 3b
       0.0156325 -0.0018068142 0.056321368 0.005962868
000270 ca 8f 5e ba f0 9a 67 3c 7f 2d 85 3b f4 18 11 bd
       -0.0008490054 0.014136061 0.0040642614 -0.035424188
000280 0c 5f b9 bd 13 6c 48 3d ac f5 ae 3d 3f b4 f6 bb
       -0.09051332 0.048931193 0.08542952 -0.007528811
000290 43 73 6a 3d 56 4f 5e 3d 3c 07 a4 bc 5a fe ee 3c
       0.05723883 0.05427488 -0.02002298 0.029174019
0002a0 46 1c bf 3d f8 4a ab 3c 62 57 3f bd ed 4f 8f bd
       0.093315646 0.020909771 -0.046714194 -0.069976665
0002b0 81 58 0a bd 72 d0 cf 3d e9 de 8a 3d a2 38 bc bd
       -0.03377581 0.1014718 0.06780798 -0.09190489
0002c0 b8 b8 06 be 1f 1b 8c bc 8c ee c2 bd 71 26 27 be
       -0.13156402 -0.017102776 -0.095181555 -0.16323258
0002d0 ea 6d a9 bd 9c 63 57 3c 43 f9 fc 3d 88 44 c5 3c
       -0.082729176 0.013146307 0.123522304 0.02408053
0002e0 d9 20 91 3c e6 92 be 3b 66 4e ce 3c 8c f9 2e 3d
       0.017715858 0.0058158515 0.025183868 0.042718455
0002f0 80 af 26 3e b3 83 42 bd 25 4c 66 bd aa 10 62 be
       0.16277885 -0.04748888 -0.05622496 -0.2207667
000300 e0 f0 22 be 43 24 1b 3d 98 d8 d8 3d 25 a4 34 be
       -0.15912199 0.03787638 0.10588187 -0.17640741
000310 2a c2 c9 bd 0e 03 77 3c 0c 80 e0 3c b4 65 4a 3e
       -0.09851487 0.015076412 0.027404808 0.19765359
000320 56 71 75 bd 92 ea 83 bd 88 5e cf bd 89 89 f8 bd
       -0.05992254 -0.06441225 -0.10125452 -0.12135608
000330 d4 02 95 3d b4 1e 8a bd d7 01 7b bd 2c 9d 9e bd
       0.0727593 -0.067441374 -0.06128105 -0.07744822
000340 9f 10 6a bd 7e 14 86 bd d8 3e b6 3d 1e e3 48 bc
       -0.057144757 -0.06546877 0.08898705 -0.01226118
000350 5c 86 70 bd 78 52 20 be ce 62 e0 bd 3a 4f 81 bd
       -0.058721885 -0.1565646 -0.109563455 -0.063139394
000360 7e aa 46 3d 9a c0 6d 3c f0 f9 73 bd 00 bc 38 be
       0.048502438 0.014511252 -0.05956453 -0.18040466
000370 3e 97 0d bd 33 e7 f1 bc 01 0e ca bd e5 8f cf bd
       -0.034568064 -0.02952919 -0.09865952 -0.101348676
000380 eb 62 7c bc 95 ea b0 bc 52 98 03 bb 7a e6 56 bd
       -0.015404443 -0.021596232 -0.0020079804 -0.052465893
000390 c5 af 9b 3c b0 30 f7 3c 72 4a a8 bd 32 1d d8 bc
       0.019004712 0.030174583 -0.08217324 -0.026381109
0003a0 e5 ce 9e bd a4 46 86 bd 2a 08 87 bd 5d a8 18 3d
       -0.07754306 -0.065564424 -0.06593354 0.03726994
0003b0 e4 24 45 bd 0d 45 ae bd 32 ab d3 3c 29 19 41 bd
       -0.048130885 -0.08509264 0.025838468 -0.047143135
0003c0 35 c6 ae bd 99 64 2d 3d f7 47 5d 3d 5d 48 2d bd
       -0.08533899 0.042332266 0.05402371 -0.04230534
0003d0 23 dd b7 3c 39 d8 9a bb a8 08 68 3b 2a 3b fb bc
       0.022444313 -0.004725483 0.003540555 -0.03066786
0003e0 02 87 cb bd 71 e1 5b bd d6 40 ac 3c d1 1e d2 bc
       -0.0993786 -0.053681795 0.02102701 -0.02564946
0003f0 22 85 cc 3c 98 93 80 3c 14 b6 d7 bd 40 dd ec 3c
       0.024965826 0.015695378 -0.105327755 0.028914094

conv2.bias f4 [16]
000000 7b c8 44 3d 26 ce c5 3c 42 40 e3 bd 84 c2 c1 3c
       0.048042756 0.02414615 -0.110962406 0.023652323
000010 0a d6 96 3c 2b 73 88 bd 5b ca 00 bd d8 0c 90 3d
       0.018412609 -0.066625915 -0.03144298 0.070337
000020 64 ec 93 bd 11 e1 a3 bd ac bd da 3b 16 1b 4b bd
       -0.07222822 -0.080019124 0.0066754427 -0.049586378
000030 0b cf ae bd c1 33 1b 3d b5 aa 4d bd 38 77 0b 3d
       -0.08535584 0.037891153 -0.050211627 0.034049243

fc1.weight f4 [120, 256]
000000 6b a5 09 bd 86 ae 3c bb ca 3c 0e 3d 62 f3 89 bd
       -0.03360502 -0.0028790548 0.03472594 -0.06735875
000010 77 40 e5 bb b6 a1 a9 bc 63 c0 18 3d 95 92 21 bc
       -0.00699621 -0.020706993 0.03729285 -0.009861608
000020 d5 74 1c 3d 7d e8 90 3c 0c 71 13 3d f4 72 21 bd
       0.038197357 0.017688984 0.03599648 -0.03941627
000030 3b 26 0d bc 5f 61 0b 3d f7 dd 18 3d 5d 56 b3 bc
       -0.008615072 0.034028407 0.037321057 -0.021891767
000040 56 fa 5e bc 1e a7 36 bc ea 59 c3 3d c2 7f 1c 3b
       -0.013609489 -0.011148242 0.09538634 0.002387986
000050 37 fd c6 bd 5b 1a 07 bd fa 56 63 3c 4e 89 e5 3c
       -0.09716266 -0.03298412 0.013875717 0.028019574
000060 76 81 50 bd 94 ee c4 bc 16 ab ba 3c de 46 ee bc
       -0.050904714 -0.024039544 0.022786658 -0.029086526
000070 a2 82 06 3d d8 50 68 39 c0 fb 92 bb 6b c3 17 3c
       0.032839425 0.00022155361 -0.0044855773 0.0092629
000080 3a 3a 2d bd 1e a7 f7 bd c2 eb b8 3c 23 10 b3 bd
       -0.042291857 -0.12092422 0.022573356 -0.08743312
000090 63 dd d4 bc d8 7f 36 3d e7 3e e4 bc 8c 2d 4a bd
       -0.025984472 0.044555515 -0.027862025 -0.049359843
0000a0 85 ad 3d bd 1f 3c 1f bd 77 0c e8 3c 70 03 ed bc
       -0.04630806 -0.038875695 0.028326256 -0.028932303
0000b0 2a 75 6f 3d 20 e7 ac 3d 52 f1 81 bd 9c 2a f9 3c
       0.058461346 0.08442521 -0.06344856 0.030415826
0000c0 3c e3 d1 bb f2 29 f3 3c 71 31 22 bd 93 9a f2 3c
       -0.0064052623 0.029683087 -0.039597932 0.029614722
0000d0 db 61 ae 3c fc 3c b0 bc f7 13 8f 3d 46 a7 ab 3c
       0.021286895 -0.021513455 0.0698623 0.020953786
0000e0 7f 0c cc 3c 8d 53 c1 3c df 12 ae bc 58 36 0c 3d
       0.024908302 0.02359941 -0.021249233 0.034231514
0000f0 ef d8 06 3c 91 a2 53 3d e2 67 d1 3c 4c 25 89 bd
       0.008230432 0.051668707 0.02556223 -0.06696567
000100 59 0b 12 3d 86 8a 07 bb de f7 73 bc c8 85 61 3d
       0.035655353 -0.0020681932 -0.014890639 0.055059224
000110 f3 73 8b bc 2c 25 49 bd 86 2e ff 3c 8e 17 0c 3d
       -0.017023062 -0.049107715 0.031150114 0.03420215
000120 77 3f b3 bb d9 49 aa 3c 2d 28 dc 3b 44 57 a5 bd
       -0.005470212 0.020787166 0.0067186565 -0.08073285
000130 21 84 b1 bd 79 83 a3 bc 52 49 63 bd 8c d4 1c 3d
       -0.0866778 -0.019960152 -0.055489846 0.038288638
000140 30 55 aa bd 55 2c 8b bd c0 6c aa bd e9 8e 71 3d
       -0.083170295 -0.06795565 -0.08321524 0.05897418
000150 11 a9 2c 3c 10 bf 4b bd ba 63 a9 3c c4 7b 6a bd
       0.010538355 -0.04974276 0.020677436 -0.05724694
000160 0d 12 10 bd e4 dd dc bd 1c 97 3c bd 08 b8 c7 bc
       -0.035173465 -0.1078451 -0.046042547 -0.024379745
000170 8d 43 a4 bc 77 bd 16 3c b9 ba b4 3c 38 3c 2b bc
       -0.020051742 0.009200445 0.022061693 -0.010451369
000180 4e f4 62 bd a3 b2 3d 3d 04 b7 fb 3c c9 00 59 bc
       -0.05540877 0.04631294 0.030726917 -0.013244816
000190 4a 43 ed 3c 4a 9b 0e 3c 06 ae 5b bd 64 f2 37 3d
       0.02896275 0.008704016 -0.05363276 0.044908896
0001a0 7c e4 35 bc 3f 61 11 bd 42 47 db 3c 56 a4 ce 3c
       -0.011101838 -0.03549313 0.026767377 0.025224846
0001b0 30 4c 84 3d a2 61 2e 3d 90 f7 8f bd ef f0 2a bc
       0.06459844 0.04257358 -0.07029641 -0.01043342
0001c0 ef fd 4e bc ec f9 0f 3d 9c d9 2f 3c 7e 0c 81 bd
       -0.012633785 0.035150453 0.010733034 -0.06301211
0001d0 00 a3 93 3c 71 e7 74 3d a9 81 00 3d 2d 2a 4c bd
       0.01802206 0.059791032 0.031373654 -0.04984491
0001e0 0b b1 42 bd 89 b9 5e bd 8f 17 65 3c aa 4d 63 3c
       -0.047532123 -0.05437616 0.013982668 0.013873497
0001f0 56 f2 d2 3c 8c 0d b8 bc aa 3a 72 bb 49 6e 1c 3d
       0.02575032 -0.022467397 -0.0036961236 0.038191114
000200 ff 87 61 bd 54 e8 18 bc 48 4f 2a 3d 0b f6 90 3c
       -0.055061337 -0.009332735 0.041579515 0.017695447
000210 dc 49 31 bd 55 8b 73 3d c0 d6 62 3c f6 16 95 bd
       -0.04328333 0.05945905 0.013845146 -0.0727977
000220 33 96 f3 3b 26 a7 00 bd 76 04 20 bc 22 04 e5 3c
       0.0074336766 -0.031409405 -0.009766689 0.027956072
000230 91 98 90 3d 26 a6 c7 bb 38 13 bf bc 38 41 14 bd
       0.0706035 -0.0060928045 -0.023324594 -0.03619501
000240 41 28 27 ba 1d d9 bb bc 9c 72 81 bc 94 bc da bc
       -0.0006376543 -0.022930676 -0.01580172 -0.02670125
000250 65 08 3f 3d a6 0c b4 3c 8a ea 4c 3c ac e3 d8 bc
       0.046638865 0.021978687 0.01250709 -0.02647575
000260 bb 73 b9 bc f1 13 d8 bc 8c aa c9 bc 87 5c 79 bd
       -0.022638192 -0.026376696 -0.024617456 -0.060879257
000270 ed a9 cc 3c e9 e1 72 3d 0c 53 65 bd 72 4a 66 bd
       0.02498337 0.059297476 -0.055987403 -0.05622334
000280 d7 4d 93 bd ec 5d a6 bc 70 a6 d1 ba c3 f2 af 3b
       -0.07192581 -0.020308457 -0.0015995037 0.0053695156
000290 6d 4e 14 bd d8 8c b3 bc be fc 7c bc 76 6e d8 3c
       -0.036207605 -0.021917745 -0.015441118 0.02641986
0002a0 42 61 d6 3b 09 57 23 3d b1 4c 54 bd 8a bd d4 bc
       0.0065423558 0.039877925 -0.05183095 -0.025969286
0002b0 49 3e e1 bc f7 81 58 bd 74 95 45 bd 3d 68 7b 3b
       -0.02749552 -0.05285832 -0.048238233 0.0038361691
0002c0 93 52 24 3d 99 06 8f bd 7b aa d6 bb 12 ef 06 bd
       0.04011781 -0.0698368 -0.0065510846 -0.03294284
0002d0 56 ee 1a 3c 56 8c 89 bd 01 81 f0 bc b4 b7 48 3c
       0.009456238 -0.0671622 -0.029358389 0.0122508295
0002e0 c4 71 9d bc 0b 4d 7a bc bc 85 3a 3d 65 64 05 3d
       -0.019219287 -0.015277158 0.045537695 0.032566447
0002f0 04 3e 57 3d 29 30 a9 3c 43 07 9c 3c 82 05 c5 3c
       0.052549377 0.020652847 0.019046431 0.024050478
000300 06 92 4d 3c c1 d1 3d 3c 82 85 04 bd d6 db 54 3d
       0.012547022 0.011585654 -0.032353885 0.051967464
000310 46 02 0e 3d 94 c9 ea 3b e0 17 92 3b bf 75 cd bc
       0.034670137 0.0071651433 0.0044584125 -0.02508056
000320 8a 42 17 bd 72 71 5e bc 02 98 d2 3b c4 4f 55 3c
       -0.03692869 -0.013576852 0.006426812 0.013019506
000330 64 4d e2 3c 63 cd fb 3c 14 cb 80 bc 84 36 fe bc
       0.027624793 0.030737584 -0.015721835 -0.031031854
000340 74 0b 05 3d 1b 31 d8 bc 8b 3a 85 3c 79 c7 78 bd
       0.032481626 -0.026390603 0.016263267 -0.060737107
000350 6f 79 49 3d f8 94 7c bd fc 6a 0d bc 84 23 fa 3c
       0.049188074 -0.061665505 -0.008631464 0.030534513
000360 8c e5 3b bd a0 2f 56 bc e0 81 17 3c b8 c2 fd bb
       -0.04587321 -0.013072878 0.009247273 -0.0077441595
000370 26 98 48 3c b4 e1 8f 3d 7d 05 36 3d ea 80 48 bd
       0.012243306 0.07025471 0.044438828 -0.048951067
000380 fe 40 ad 3d 88 d7 20 3c 4b a7 53 bb 60 82 db bd
       0.08459662 0.009817012 -0.003229576 -0.107182264
000390 57 72 00 bd bd 48 39 3d e8 a9 6d bc 25 09 f8 bc
       -0.031359043 0.045235384 -0.014505841 -0.030277798
0003a0 e5 c0 57 3d b8 3a 0d 3d bc af 9b bb ba 72 7a 3d
       0.052674193 0.034479827 -0.004751174 0.061144568
0003b0 40 6d df 3c be 99 3a 3d 51 c5 67 3c 28 4d 35 39
       0.027273774 0.045556776 0.014146165 0.00017290248
0003c0 06 1f 22 3c 37 3e 39 bd e0 f3 60 3b ee 85 56 3d
       0.009895092 -0.04522535 0.0034325048 0.05237382
0003d0 b0 36 2c bb 57 74 29 3c 2e be 9c bb 91 48 7d 3d
       -0.0026277713 0.010342679 -0.0047834134 0.061836783
0003e0 6a 33 05 3d ba 56 ec 3b 3b db 83 bd 53 0f 50 bd
       0.032519735 0.007212487 -0.06438299 -0.050795864
0003f0 16 b9 13 bd 95 18 44 3d d5 71 3e 3c 0a 4e d7 3c
       -0.036065184 0.047875006 0.011623819 0.02628233

fc1.bias f4 [120]
000000 3e 05 25 bd ae 23 94 3c 25 e9 33 3d 52 7f dc 3c
       -0.040288202 0.01808342 0.043923516 0.02691618
000010 1c 99 36 bd 47 19 3e bd 39 ec 45 3d 75 7c 2f bd
       -0.04457961 -0.046410825 0.048320983 -0.0428433
000020 b4 11 12 3d 33 e3 0b 3d 93 55 f0 ba 90 9b 64 3d
       0.035661414 0.03415222 -0.001833605 0.05581242
000030 9f c5 42 bd ba 0e 4c bd 46 39 60 bd e3 b0 84 bc
       -0.047551747 -0.04981873 -0.05474212 -0.016197627
000040 c4 cb ae bc ce e0 53 bd 72 92 7b bc 6c dd 9d bc
       -0.021337397 -0.051728062 -0.0153547395 -0.019270621
000050 1e 9d a1 bc 40 5e 83 3d d4 d7 61 3d 27 d1 08 3d
       -0.01972824 0.06414461 0.05513747 0.03340259
000060 74 88 b9 3c 72 18 21 bd a3 65 28 bd f2 1e 56 3c
       0.022648074 -0.039329953 -0.041112553 0.013068901
000070 3b 4b 0e bd d2 00 ca bc 5a 9a cc 3c 08 b6 89 3d
       -0.034739714 -0.024658594 0.024975944 0.06724173
000080 46 7b 69 3d ce 6f 6c bc c4 05 8a 3c d6 14 5c bd
       0.05700233 -0.014430953 0.016848452 -0.05373081
000090 e4 88 08 3d 1e f0 06 bd 87 06 2a bd c5 d6 3a 3d
       0.033333674 -0.032943837 -0.04151013 0.045614976
0000a0 e0 ba 08 bd 92 86 40 bd 6c de 42 bd b8 85 bc 3b
       -0.033381343 -0.047003336 -0.0475754 0.005753245
0000b0 84 11 45 bd ca ac ae 3d 07 00 5a 3c d6 2f 6a 3d
       -0.048112407 0.08529051 0.013305671 0.057174526
0000c0 d7 52 1d bd 1a 84 a1 bc d2 ad 0f bd 0d 99 c3 bc
       -0.03840908 -0.019716311 -0.035077877 -0.023876691
0000d0 82 fa 67 3d b0 66 44 bd 7c 76 31 3d 1f 6a b6 bc
       0.056635387 -0.047949493 0.043325886 -0.0222674
0000e0 29 2f cc 3c 35 2e 80 bc 38 47 2d bc 33 53 0a 3d
       0.024924831 -0.015647033 -0.010576062 0.03377075
0000f0 2b ac e2 bb 3f 2f 80 bc ba 00 6a bc cd 55 2d bd
       -0.0069174967 -0.015647529 -0.0142824 -0.042318154
000100 de 0d bc 3c 35 16 6a 3c 48 21 23 3d c9 ea 3b bd
       0.022955831 0.014287521 0.03982666 -0.045878205
000110 08 94 40 bd cc 2f a3 bc d2 5c 3a 3c 51 c6 00 3c
       -0.047016174 -0.019920252 0.011374669 0.007859782
000120 fb 3c 56 3d 4e b4 b2 bc 2c 75 61 bd b1 e9 e5 3c
       0.05230425 -0.021814492 -0.055043384 0.028065534
000130 d0 57 97 bc 73 b6 a6 bb 20 ea 39 bc dc 5d 4f 3b
       -0.01847449 -0.0050876676 -0.011347324 0.0031641638
000140 3d 20 2a bd 83 3c a7 bc 1a 47 ec bc 27 c9 23 3d
       -0.04153465 -0.020414596 -0.028842498 0.039986756
000150 a0 f5 6f 3d 48 e5 32 3d a2 ba 8a 3c 45 b1 da bc
       0.058583856 0.04367569 0.016934697 -0.026695857
000160 a0 a5 93 3d b4 6f 27 3c 99 83 a0 3b 5b 4d 45 3d
       0.07209325 0.010219503 0.0048985 0.048169475
000170 e6 b0 01 bd c9 b7 1b bd 3a b0 62 3c 9a 97 51 bc
       -0.031662844 -0.038017068 0.013835961 -0.012792492
000180 94 61 7f bd d7 4f 51 3c 78 8c 6b 3c 02 36 00 bd
       -0.062348917 0.012775383 0.014376752 -0.031301506
000190 ee db 9a 3b 5a 64 50 bc 9a 43 73 3c 9d 07 05 bd
       0.0047259247 -0.012719238 0.01484766 -0.032477964
0001a0 d3 a6 2f bd ee 60 48 bd c0 76 c5 3a 01 0e a0 3b
       -0.042883705 -0.048920564 0.0015065297 0.004884482
0001b0 92 0e 8c bc 36 30 21 bd 4d ce 0f bd b5 46 fc bc
       -0.017096791 -0.03935262 -0.035108853 -0.030795434
0001c0 d6 de 23 3d b1 08 60 3c fa 59 3f 3c 04 b5 ca bb
       0.040007435 0.013673947 0.011679167 -0.0061861295
0001d0 f0 4d f4 bc 9d b4 74 bc e7 f6 35 3d a0 db cc 3c
       -0.02982232 -0.01493564 0.044424918 0.02500707

fc2.weight f4 [84, 120]
000000 02 0b 20 3d 05 55 e6 bd 96 94 13 3d ae 06 b8 3d
       0.039072998 -0.11246685 0.036030374 0.08985649
000010 49 50 c6 3d b3 89 08 3d 17 a4 8e 3d 13 a1 2f bd
       0.09683282 0.033334445 0.069648914 -0.04287822
000020 3d f9 b6 bc ba f9 95 bc 98 ed 78 bd 97 ca 9f 3d
       -0.022335643 -0.018307555 -0.060773462 0.07802313
000030 c3 2b 37 3a 3a c1 c6 bd e9 32 32 3d d6 8c 12 3d
       0.0006987417 -0.09704824 0.043505583 0.035778843
000040 28 e9 f9 3c 1e 0a c5 bb 15 ff 68 3d 58 eb af bd
       0.030506685 -0.006013169 0.05688389 -0.0858981
000050 6d b7 96 3d 1c 27 8a bd 0a 15 47 bd a6 27 81 3c
       0.073592044 -0.06745741 -0.04860405 0.015765976
000060 8c cb 85 3d 88 61 89 3c 95 37 6f bc 46 3f 52 bd
       0.06532964 0.01677014 -0.014600654 -0.051329874
000070 1f 20 89 3b b3 50 dc 3c d3 5a 59 3d 3e 97 00 3d
       0.0041847373 0.02689395 0.053065132 0.031394236
000080 c2 41 55 3d 24 3a 48 3c 2e e7 66 bc 4c c6 30 3d
       0.052064665 0.012220893 -0.0140932035 0.04315786
000090 94 da 96 bc d1 34 74 bd c2 42 3e bd 7d 8f ac 3d
       -0.018414773 -0.059620682 -0.046450384 0.08425806
0000a0 61 cd 26 3d 28 ab 81 3d e4 1a a3 bd a7 e3 a2 bb
       0.04072321 0.063314736 -0.07964113 -0.004970986
0000b0 a5 b5 b3 bc ec ad 35 bd d4 c8 f3 3c 1f ac dc bc
       -0.0219372 -0.044355318 0.029758848 -0.026937542
0000c0 6e f0 26 3b 07 ad a8 3d 9d 79 4a bd f9 e3 90 bd
       0.0025472897 0.08236127 -0.049432386 -0.07074732
0000d0 38 92 c7 bd d3 06 d3 3d 7e bc 93 3d d5 7e 00 bd
       -0.09744686 0.10304036 0.072136864 -0.031370956
0000e0 92 47 61 3d 4a 57 a4 bd 78 ed 49 bd d8 25 80 3c
       0.054999895 -0.080244616 -0.049298733 0.015643045
0000f0 f4 43 0f 3d 74 17 a4 bc 25 83 16 bc 9e aa 50 bd
       0.034976915 -0.020030715 -0.009186541 -0.050943963
000100 32 dd 81 3c 86 30 4b 3d e6 b2 67 bd 54 c8 e8 bc
       0.015852544 0.049606822 -0.056567095 -0.028415836
000110 4f 7e e2 3d 26 b5 94 3b 5a 8e 36 bd 8a 3b 96 bd
       0.11059248 0.004538196 -0.04456935 -0.07335575
000120 97 0f ad 3d 30 8b d5 3c 68 e7 c0 3c 2e 6c 5c 3d
       0.08450239 0.026067346 0.023547843 0.053814106
000130 1b 4b b3 3c 04 cd 1b 3c 58 85 d4 3c 88 06 40 bd
       0.021886399 0.009509329 0.02594249 -0.04688123
000140 4c ed 35 bd a8 fe 88 3d fe 49 c0 3d e4 65 cd 3c
       -0.044415757 0.06689197 0.09389113 0.025073
000150 32 2d 83 bd db 8f 68 bd b6 8e 8b 3c 16 4a 3d 3c
       -0.06405105 -0.056777816 0.017035823 0.011553308
000160 ab b1 99 bd d8 4a 96 bd ce eb 83 bd 3a 22 92 bc
       -0.075045906 -0.07338494 -0.064414605 -0.017838586
000170 10 5e 9d 3d 15 bb 38 bd 18 87 61 3d dc 3d 41 bd
       0.076839566 -0.04510029 0.055060476 -0.047178134
000180 46 e5 66 bd 40 79 c9 3c 46 a0 d0 3d 1b 9f 99 bd
       -0.056370996 0.02459395 0.1018682 -0.0750105
000190 9d 11 3e 3c ad 12 2e 3d 31 69 7b ba 89 dd 7b bd
       0.011600879 0.04249828 -0.0009590565 -0.06149057
0001a0 27 c2 3c bc 78 90 c5 bd 45 2c 1e 3c 4b 6b 8a 3d
       -0.011520899 -0.09646696 0.009654109 0.06758746
0001b0 92 d8 ad 3d d5 91 09 bd 64 f1 da bc 65 90 b4 3c
       0.08488573 -0.033586342 -0.026726432 0.022041509
0001c0 d2 25 4e bd fc 78 42 bc 06 c7 61 3d 8f a9 95 3d
       -0.050329037 -0.011869665 0.055121444 0.07307731
0001d0 53 de 62 bd 91 9a 52 bd 50 49 8c bd 62 99 8b 3d
       -0.055387806 -0.051416937 -0.06849921 0.06816365
0001e0 72 a9 23 bd b3 31 0e 3d 93 30 98 bd 16 d0 c7 3d
       -0.039956518 0.034715366 -0.0743114 0.09756486
0001f0 9a 22 9f 3d ca bd b9 3d fa bd 51 3d 2f b6 9d 3d
       0.077702716 0.090694025 0.051206566 0.077007644
000200 75 5d 88 3c a6 31 1d 3c 49 ec 82 3d 10 98 eb bc
       0.016646126 0.009594357 0.06392724 -0.028759032
000210 bd fd 0e 3d 7a 35 54 3d 7d c5 c2 3d 84 b2 15 bc
       0.034909952 0.05180881 0.09510324 -0.0091368
000220 fa 12 a9 bd 80 17 84 3d 39 44 84 bc e3 b0 70 3d
       -0.082555726 0.06449795 -0.016145812 0.058762442
000230 90 42 9f 3d dc 68 d3 3d 44 cd c3 bc 86 6e b2 3d
       0.07776368 0.10322735 -0.02390159 0.08712487
000240 73 83 1f 3d ff 32 cd 3c bc fc 9d bc a2 89 9a bc
       0.03894372 0.02504873 -0.019285552 -0.018864457
000250 8a f7 ba bd 5c af 8e bd f3 59 83 3c 5e 2c 0f 3d
       -0.091292456 -0.06967041 0.016034102 0.03495442
000260 a3 61 79 bc 8a c7 a7 3d 1e 6c 7d bc 0e 35 53 3d
       -0.015221032 0.08192356 -0.015467672 0.05156427
000270 ad bd 39 3d ca c7 88 bd 13 99 a3 3d 62 cc bd 3c
       0.045346905 -0.06678732 0.07988181 0.023168746
000280 06 2f ac bd 2c bb c0 3d f0 a4 f0 3c 14 9b a2 3c
       -0.084074065 0.094107 0.029375523 0.019849338
000290 c2 f2 d1 bd e1 c4 b4 3c 00 4b 25 3d 6a 07 47 3d
       -0.102513805 0.022066535 0.04035473 0.048591055
0002a0 b8 17 f0 3c 88 4a 0d 3d 65 1d 08 3b d6 0b 97 bd
       0.029308185 0.034494907 0.0020769474 -0.073753044
0002b0 8c 26 8b bd bd 90 51 bc 6a 7e f6 3c dc 2e cf bc
       -0.067944616 -0.012790856 0.030089576 -0.025290899
0002c0 bd 3e 55 bc ab 9a 9f 3b e4 02 11 bd 1f 1b 4c 3d
       -0.013015446 0.004870733 -0.035403147 0.049830552
0002d0 0e 27 8d 3d d6 61 94 3c 89 77 9f 3d d0 4a 63 bc
       0.06892215 0.018113058 0.077864714 -0.013872817
0002e0 91 15 e0 3c 2a 8b 19 3d 62 9a b8 bd ec b5 1f bc
       0.027354034 0.037486233 -0.09013821 -0.009747963
0002f0 a9 71 b5 bc 7e 6e 8e 3d d3 56 b7 3b 1b 6d 50 3b
       -0.022148924 0.069546685 0.005595067 0.0031803313
000300 30 b2 96 bd ee e1 57 bd e7 e8 53 bd 81 a6 93 bd
       -0.07358205 -0.052705698 -0.051735785 -0.072094925
000310 8e 37 dc bc d7 e6 86 bc 6e 28 9b 3d 00 71 e9 3c
       -0.02688196 -0.016467495 0.07576071 0.028496265
000320 19 92 9c 3d 38 e1 00 bd c2 08 a4 3b 86 2c 7c 3d
       0.076450534 -0.031464785 0.005005927 0.0615659
000330 05 93 3f bd fa b9 80 3a 00 7d 6b 3d 78 0c 5b 3d
       -0.046771068 0.000982105 0.057492256 0.053478688
000340 22 93 66 bc bf ce af 3d ae 55 59 3d eb ae 4a bd
       -0.014073165 0.085843556 0.053060226 -0.04948322
000350 9c 9b 4f bc 4a 3c 85 3d ba 88 30 bd b8 b3 3b bd
       -0.0126713775 0.0650564 -0.043099143 -0.04582569
000360 b4 38 63 3d 46 5a 8c bd 2e 8d a2 bd 44 7a 30 3d
       0.055474 -0.06853156 -0.07937084 0.04308535
000370 e5 e3 da bc b8 8b 58 bc aa 2c 75 bd 9c 45 fe 3b
       -0.026719997 -0.013216905 -0.059857048 0.007759763
000380 69 74 c5 bd 76 6e 79 3d 6e 56 9f bc 5c 7b 2c bd
       -0.09641344 0.06089636 -0.019450393 -0.042109832
000390 eb bb c2 bd 64 cf 64 3c b6 ac a6 bd e2 c3 27 3d
       -0.09508499 0.013965461 -0.08138411 0.040958293
0003a0 68 7c a5 bd 81 52 39 3c b3 d3 82 3d 4f 3f 97 bd
       -0.08080369 0.011311174 0.06388035 -0.07385122
0003b0 84 e4 1a bd 60 2c 07 3d 87 aa b1 bd 44 8f 7b bd
       -0.037815586 0.033001304 -0.08675104 -0.061415926
0003c0 07 58 82 3d 36 0d f3 39 a5 e4 7a bc 26 00 27 3d
       0.06364446 0.00046358415 -0.015313302 0.040771626
0003d0 2b 61 d6 bc cf c7 80 3c d6 e5 7a bd 6a 89 99 bd
       -0.02616938 0.015720276 -0.061254345 -0.07496913
0003e0 ea 6f 70 3b 8d d8 b1 3b 64 25 3f bd da 51 be bc
       0.00366878 0.005427426 -0.046666518 -0.02323239
0003f0 82 e6 3f bd 67 2e 28 3c 5a e9 aa bd 62 92 0c bd
       -0.04685069 0.010264969 -0.083452895 -0.03431929

fc2.bias f4 [84]
000000 3f 1b 8b 3c 9d 53 a8 bd 78 aa d2 3b f6 75 a9 3d
       0.016980765 -0.08219073 0.006429013 0.082744524
000010 93 70 15 3d 75 6b a1 3d 07 9c 3d bd 72 f7 9f 3c
       0.036484312 0.07881824 -0.046291377 0.01952717
000020 3f 87 4b bd eb 5e 9c bd 1a 0b 81 3d cd 64 4f 3d
       -0.049689528 -0.07635292 0.063009456 0.05063324
000030 9e 29 a1 3d f5 67 b2 3d 88 ad d2 bc 84 03 b9 bc
       0.07869266 0.087112345 -0.025717512 -0.022584684
000040 ba 2d 85 bd bf 53 5d bc e5 70 67 bc 6d 96 06 bb
       -0.06502862 -0.013508736 -0.014126037 -0.0020536438
000050 a4 ac 13 3c 4e d8 36 3c 29 c6 c8 bc fc bb d8 3c
       0.009013329 0.0111599695 -0.024508553 0.026456825
000060 b4 c2 6c bd e3 a4 ca bd f4 a0 ee 3d 4c 74 af 3c
       -0.05780287 -0.09894731 0.11651793 0.02141776
000070 d3 91 bd 3d 36 0d ee 3b bc 5e a6 3d ff 49 2d 3d
       0.092563294 0.0072647585 0.08123538 0.042306896
000080 ab 1a fe 3c e3 da 11 3c f5 d3 90 bd ed b2 bc 3c
       0.031018576 0.008902284 -0.070716776 0.023034537
000090 c5 16 e5 3d 18 da fb 3d d8 b0 18 3d b4 ce 03 bd
       0.111859836 0.122974575 0.037278026 -0.03217955
0000a0 d2 59 92 bb 88 9b d7 3b a8 40 dd 3c c7 e5 22 3c
       -0.004466274 0.00657982 0.02700837 0.0099424785
0000b0 77 5b 58 bd 69 22 9f 3b 41 ce b3 bc 2a d0 c6 bc
       -0.052821603 0.004856397 -0.021948935 -0.024269182
0000c0 20 ff b3 bd 22 59 cc bc b8 6f cf 3c d0 02 35 bc
       -0.087888956 -0.024944846 0.025321826 -0.011048034
0000d0 64 f9 17 bd ab 33 27 bc 3f ae 9d 3d 33 ec d3 3c
       -0.03710307 -0.01020519 0.076992504 0.025869465
0000e0 c0 cd 75 3d 27 5a 95 bd 0e de 3d 3d 46 9a b1 bc
       0.06001067 -0.07292586 0.046354346 -0.021680009
0000f0 8c c2 5e 3c 20 e7 95 3a 4e 41 40 3c 42 76 8d bd
       0.013596188 0.0011436678 0.01173432 -0.069073215
000100 08 9c 1c bd e8 6c 80 bd ef 6c 1e 3d c1 8a fb 3b
       -0.03823474 -0.06270772 0.038678106 0.007676453
000110 e2 4a c1 3d dd b1 1b bd 48 e2 97 3d d8 bb 87 bc
       0.09438111 -0.03801142 0.074162066 -0.016569063
000120 fe 27 8d bd d4 ae 60 bd 02 22 89 bd 06 55 23 3a
       -0.068923935 -0.05485423 -0.066959396 0.0006230626
000130 8f d1 3e 3a 3e df 5a bc 69 b3 07 bd c6 21 bd 3d
       0.00072791515 -0.013358889 -0.033130083 0.092349574
000140 c6 b1 29 bc 91 9e 42 bd 54 3c 60 bd 56 ea bd 3c
       -0.010357326 -0.047514502 -0.054745033 0.02318303

fc3.weight f4 [10, 84]
000000 fe f4 6c bd c0 f8 42 bd dd c5 16 3c 96 3a 3b 3e
       -0.05785083 -0.047600508 0.009202448 0.18284068
000010 60 b6 20 3e 36 c8 14 be 30 27 b7 bd 7f 19 30 be
       0.1569457 -0.145295 -0.08943021 -0.17197226
000020 d1 f1 1b be 9c bc df 3d 1b ae 2f bd 4e e5 96 3e
       -0.15228964 0.10924646 -0.04289065 0.2947182
000030 25 d5 f1 3b af 92 23 be 97 c4 de 3c fe d8 09 3d
       0.007380145 -0.15973924 0.02719335 0.033654206
000040 7c be 97 bd 2e 83 8b 3d 3a cd 81 3d dd 09 e1 bd
       -0.07409379 0.0681213 0.06337972 -0.109882094
000050 7d 65 db ba e0 0c 30 be a7 92 87 bd f2 4a c7 3c
       -0.001673862 -0.17192411 -0.066197686 0.024327729
000060 58 fc 0b 3d 27 a3 d0 bc 13 04 67 3e 2f 27 a1 bd
       0.0341762 -0.025468422 0.22560148 -0.07868802
000070 c5 da 67 bd f8 3d d9 3c 8d af 43 3d 8a 47 78 3c
       -0.05660512 0.026518807 0.04777484 0.015153775
000080 43 9e 89 bd 5a d8 ee bd 9c db 3c 3d a0 46 36 be
       -0.06719639 -0.116623595 0.046107873 -0.17800379
000090 08 d4 10 be 7a 31 12 3d c1 1d 6c 3e 5d ff d2 bd
       -0.14143384 0.035691716 0.23058225 -0.10302613
0000a0 8f 10 68 be 52 93 20 3e dd 06 ed bd 31 37 bb bd
       -0.22662567 0.15681198 -0.11573575 -0.09141386
0000b0 c0 20 ed 3e 3b 81 83 be f0 60 88 3d 39 d3 e8 bd
       0.4631405 -0.25684533 0.06659114 -0.113684125
0000c0 00 3b 45 3d ba 60 8c bd 54 5d e5 bd a6 ba 57 bc
       0.04815197 -0.06854387 -0.111994416 -0.013167059
0000d0 56 13 49 bd 08 91 93 3d e6 f4 6a be cc 00 44 3d
       -0.049090706 0.07205397 -0.22944984 0.047852322
0000e0 07 af 6c bc ae f6 2e bd 3c 0c 00 bd 96 01 b8 bb
       -0.014446027 -0.04271572 -0.031261668 -0.0056154234
0000f0 1d 35 71 bd db 3d 17 3d d7 29 8a be 36 75 f7 3d
       -0.058888543 0.036924224 -0.26985046 0.12082903
000100 29 1e 37 bc 3a 06 7e bc c6 e0 0a 3a 1a c0 2b be
       -0.011176624 -0.015504414 0.0005297776 -0.167725
000110 b8 56 24 3e b1 5a 13 be 8c 19 4e be 12 c7 d6 bc
       0.16048706 -0.14390065 -0.20126933 -0.026217971
000120 14 b4 1c be 10 d4 6f bd 1c b9 eb bd 10 37 f8 bc
       -0.1530307 -0.058551848 -0.11509916 -0.030299693
000130 e5 9c f7 3d 32 ae 42 3e ea a9 45 be 6b c5 de 3d
       0.12090472 0.19011763 -0.19303098 0.10877498
000140 06 f5 fa bd a8 0f 1a 3e 0b 2f c7 bc f4 2e 49 bd
       -0.12253766 0.15045035 -0.024314424 -0.049117044
000150 cc a8 f5 bd 79 0d 07 3c 86 06 28 be 7e b0 95 3c
       -0.11995086 0.008242958 -0.16408738 0.018272635
000160 ce 47 47 be 7d 8d c4 bd 85 45 03 3d be dc 15 bd
       -0.19460985 -0.09597299 0.03204872 -0.03658747
000170 6a cf 03 bd d2 c5 b2 3c 7e f7 59 bb 8b 99 91 3c
       -0.032180227 0.021822844 -0.003325909 0.01777341
000180 e6 9a d5 3e aa 9d 42 bd 2d d0 e8 bd a5 fe 4a be
       0.4171974 -0.04751364 -0.113678314 -0.19823702
000190 f8 41 8b 3d 12 68 39 bd 36 a7 8c 3d 72 2f f0 bd
       0.06799692 -0.045265265 0.068678305 -0.117277995
0001a0 bc bf 06 bc 65 08 49 3e f7 71 27 3c b6 87 97 bd
       -0.008224424 0.19632109 0.010220042 -0.07398932
0001b0 5a 12 d5 3d 10 6f 0c bd df 4a 20 bd 76 60 94 3d
       0.10403891 -0.034285605 -0.039133903 0.07244961
0001c0 c0 46 c4 3c 32 42 dc 3d 4b 99 69 be 20 c0 33 be
       0.023959517 0.10754813 -0.22812383 -0.17553759
0001d0 6c 96 c7 bd 0d 97 ad 3d af 6b ef bc 8a 90 39 3e
       -0.097454876 0.08476076 -0.029226152 0.18121544
0001e0 a0 63 8d 3d de 04 55 3e 44 69 82 bd 0c 7c 24 bd
       0.069037676 0.20802638 -0.06367734 -0.040157363
0001f0 17 0b 92 3e b4 36 10 3d 0e 34 21 be 9d c7 a4 be
       0.28524086 0.03520842 -0.15742514 -0.32183543
000200 c4 d1 4b be 16 4b 18 bd 29 5e b5 3d c0 f6 43 3d
       -0.19904238 -0.037180983 0.0885585 0.04784274
000210 12 37 a2 3d 43 86 ee 3c e5 fa 0e 3e 60 ff b6 3d
       0.0792066 0.029116755 0.13962896 0.08935428
000220 ca fa 61 3e 38 4c 79 bd 9d 53 0a be d0 8c 38 3e
       0.22068325 -0.060863703 -0.13508458 0.18022466
000230 21 0f 88 3c 91 17 7b 3d e9 ab bd bd 2c 46 02 be
       0.016608777 0.06130177 -0.09261305 -0.12722081
000240 1b d4 99 bc 3c 72 be bd c3 61 94 3e 92 78 0b 3d
       -0.018777898 -0.09299132 0.28980836 0.03405053
000250 8b a2 26 bd 10 d8 32 be fc 22 d1 3d 9d 5f 84 3e
       -0.040682357 -0.17465234 0.10211751 0.25854197
000260 be 55 56 bd 3e 2b 8a bd c4 b5 42 be ca 34 d8 3b
       -0.052327864 -0.06746529 -0.1901465 0.00659809
000270 06 39 00 be fa 81 73 bd 54 c6 98 bd be d2 b7 bd
       -0.12521753 -0.059450127 -0.07459703 -0.08975743
000280 de a3 49 bd 68 fb 92 3d 70 41 d8 bd 60 30 55 bd
       -0.04922854 0.07176858 -0.10559356 -0.052048087
000290 ca ad 67 bc 67 00 a1 bc d5 9b ba 3d cc 67 89 3d
       -0.014140556 -0.019653512 0.09111754 0.06709251
0002a0 b8 56 ad 3d cd b5 2d bd 23 6a da bd 33 76 3b be
       0.08463806 -0.042409707 -0.10664775 -0.18306808
0002b0 f7 15 12 3e ed fb 83 3e da 26 ad bc 16 8b 18 3e
       0.14266191 0.25778142 -0.02113669 0.14896807
0002c0 72 1e 1a 3d 20 22 72 bd 3a f4 43 bc 56 c1 9a bc
       0.03762669 -0.059114575 -0.011960084 -0.018891018
0002d0 1a 69 0d be ba 65 1d bb 37 a8 dd 3b d8 f7 38 be
       -0.13809624 -0.0024016933 0.0067644375 -0.18063295
0002e0 65 16 d3 bd 9d 9c 62 be 5b 69 89 bd 5d eb 1a be
       -0.10307006 -0.22130056 -0.06709548 -0.15128846
0002f0 1e 54 b5 3c c4 dd 27 bd 2e 9c 50 3d d0 54 50 bd
       0.022134837 -0.040982977 0.050930195 -0.050862134
000300 73 38 8a bd f6 6b 1a 3e 62 d2 5d 3e 38 0c 58 3d
       -0.06749048 0.15080246 0.21662286 0.052746028
000310 c5 de 43 bd 9f 9d 01 bd 84 e9 f8 bd 62 f2 79 bd
       -0.04781987 -0.03164446 -0.121539146 -0.06102217
000320 0b c6 35 3e 6d 4a 8b bd 03 b1 1d be 67 c1 83 bd
       0.17751329 -0.06801305 -0.15399556 -0.06433373
000330 31 cb 26 be 24 f3 eb bd d8 a2 5b 3e 0d 18 dd bb
       -0.16288449 -0.11520985 0.21448839 -0.006747252
000340 a6 88 1f 3e f9 e6 69 3c d4 0a 1c bc 90 7e 34 be
       0.15579471 0.01427626 -0.009524066 -0.17626405
000350 9a 72 a8 bc 59 e4 04 be 29 76 c3 bc f3 03 4e bb
       -0.020562459 -0.12977733 -0.023860054 -0.003143546
000360 5b 0b ac 3d 30 db 32 bd 25 27 4d 3e f9 10 cf 3c
       0.084006034 -0.043666065 0.20034464 0.025276648
000370 24 8a cc 3d ec 27 de bd 6e 2b 48 3e 0b 8a 78 3e
       0.09987286 -0.10847458 0.19547817 0.24271409
000380 90 14 a9 3d 5c fb 92 3d f1 69 0b 3d b2 89 ba 3d
       0.08255875 0.07176849 0.03403658 0.091082945
000390 11 3e 57 3d b3 35 c1 3d 1d 29 1a bd 1c 09 05 3e
       0.052549426 0.094340704 -0.037636865 0.12991756
0003a0 39 b2 0b bc 34 b0 48 3c 20 b5 33 3e f0 4d 12 bd
       -0.008526378 0.012249041 0.17549562 -0.03571886
0003b0 d8 86 16 bd 4f bf 25 3d 34 e6 6d 3d c0 90 74 bd
       -0.03674969 0.04046565 0.058080867 -0.059708357
0003c0 cd 61 2c bd a0 a4 e2 bc 86 cb b4 bc ab 2b fa bd
       -0.042085458 -0.02766639 -0.022069704 -0.1221536
0003d0 c0 9c 19 bd f4 ec 20 3d 6c b2 90 bd 86 ad ff bd
       -0.037503004 0.039288476 -0.07065281 -0.12484269
0003e0 79 d7 98 3e ac bb 8e 3e 77 e4 8b bd 3d 83 c3 3b
       0.29851893 0.27877557 -0.068306856 0.0059665726
0003f0 5f e8 99 bc de 95 b2 3c 10 56 12 3b 9c a1 f0 bd
       -0.018787561 0.021799978 0.002232913 -0.117495745

fc3.bias f4 [10]
000000 08 13 35 3c 85 67 1b bc 69 7f 81 bd 7f ca 5e bd
       0.011051901 -0.00948513 -0.0632313 -0.054392334
000010 43 7b ab 3b 40 6c bd bd 2c d0 51 be 1e 44 1e 3d
       0.0052332 -0.09249163 -0.20489568 0.03863918
000020 08 93 6c 3d 2e 70 fa 3c
       0.057757407 0.03057107
