src/artifacts/checkpoints/round_001.pt (torch, 181669 bytes, 10 tensors)

conv1.weight f4 [6, 1, 5, 5]
000000 e9 47 ad bc cb 00 57 be e8 65 d6 bd 05 a1 a5 3d
       -0.021152453 -0.20996396 -0.10468656 0.08087353
000010 ff 42 ac bd 9d 64 dc 3c da 57 50 3e c9 ee 8b 3e
       -0.08411216 0.026903445 0.20346013 0.27330616
000020 00 cd a7 3e 5c c8 49 3e 81 82 06 3e 86 ec 9b bc
       0.3277359 0.19705337 0.13135721 -0.019033682
000030 ff 2d 2a 3e 84 21 6a 3e 00 78 ea 3d c4 00 45 bd
       0.16619109 0.22864348 0.114486694 -0.048096433
000040 0b 6b 02 bd 66 a2 43 bd 5d 27 8d 3d 34 cb 6a bc
       -0.031840365 -0.047762297 0.068922736 -0.014330674
000050 30 fc 88 bd 9f 96 61 bd b0 09 8a be f5 ac 98 be
       -0.06688726 -0.055075284 -0.26960516 -0.29819456
000060 0b fd fd bd bf ae ff bd 11 3f 4c be a3 ad db bd
       -0.1240178 -0.12484502 -0.19945933 -0.10726478
000070 5c 07 e1 bd 3c 51 28 3e aa 2f 8f 3d 40 ec 53 bc
       -0.10987732 0.16437238 0.06991513 -0.012934744
000080 be 6f 0d be 9d d7 d9 ba 06 40 a2 3e 79 62 08 be
       -0.13812158 -0.0016620044 0.3168947 -0.13318814
000090 da c5 44 be 26 18 53 be e9 fc 8a 3d 97 ca ff 3d
       -0.192161 -0.2061468 0.0678652 0.12489813
0000a0 d4 82 cf bd f8 de 4d 3b bf 8d 8d 3d a6 22 63 3d
       -0.10132375 0.0031413417 0.069118015 0.055452965
0000b0 9f 67 97 3e e8 44 2d bb 37 0d 11 3d 12 37 19 3e
       0.29571244 -0.0026438776 0.035412993 0.14962414
0000c0 73 53 e5 3d 04 f0 08 3d e4 93 62 3e 6c 79 dd 3b
       0.11197557 0.03343202 0.22126728 0.0067588594
0000d0 58 42 84 3e e3 61 24 3e 3a 05 79 3d 47 5a 38 3d
       0.25831866 0.16052966 0.060796 0.04500797
0000e0 7a 37 e2 3e 49 b4 a1 3e ee 9a 0d 3d de 60 18 be
       0.4418295 0.3158286 0.03457158 -0.14880702
0000f0 f2 65 06 3e 7a 13 61 3e 63 65 2e 3d 92 54 60 3e
       0.13124827 0.21980086 0.04257716 0.21907261
000100 df f6 a2 be fe 5f 70 be 72 36 ab 3e 4c e2 a1 3e
       -0.31828973 -0.23474118 0.33439976 0.31617963
000110 cd d4 25 3d a8 38 9a be 48 e0 80 be 8b a0 d1 3d
       0.040486146 -0.3012135 -0.25171113 0.10235699
000120 cc 79 fe 3d e2 9b 80 bd 10 c7 c8 bd f3 13 9f be
       0.12425575 -0.06279732 -0.09803593 -0.31069908
000130 4b 0f 7d be dd 8f 78 be ce ea 19 be fa 5d e7 bd
       -0.24712865 -0.2427363 -0.15030977 -0.112972215
000140 01 6e 82 be 00 74 8f be d9 b3 81 be 82 4b a0 be
       -0.2547455 -0.28018188 -0.25332525 -0.31307608
000150 bc 21 b3 be 7d 91 53 be 7f 56 2f bd 63 03 3a be
       -0.34986675 -0.20660968 -0.0428071 -0.18165354
000160 12 9d 44 be a8 56 1e ba 2b f3 12 be d5 ae 25 be
       -0.19200543 -0.00060401345 -0.14350574 -0.16179974
000170 e0 dd fd 3b 10 b3 6a 3e 11 80 63 3d cc aa 94 3e
       0.007747397 0.2291987 0.055542056 0.29036558
000180 3e 63 67 3e f1 ec 98 3e cc 1b f4 3d d0 48 c3 3e
       0.22596452 0.29868272 0.11919364 0.3814149
000190 ff 3a e6 bd 2a e4 f5 3d 71 fc 28 be 0f 6a 40 be
       -0.11241721 0.120064095 -0.16502549 -0.18790458
0001a0 1c 32 a8 3d 42 a8 4e 3d fd 6f 4d be 75 77 13 be
       0.082126826 0.050453432 -0.20062251 -0.14401038
0001b0 d5 dd fe 3d 98 fe 2a 3e 03 8e 9b bd da 31 4e 3c
       0.12444655 0.16698682 -0.07595446 0.012585128
0001c0 53 29 b6 bd 53 69 13 bc ac 03 73 bd 77 c6 5d be
       -0.08894601 -0.008997279 -0.059329674 -0.2165774
0001d0 d0 eb 59 3d 55 3d 82 3e 69 e7 97 3e 33 5a 57 3e
       0.053203404 0.25437418 0.2966874 0.21030502
0001e0 15 bc 2c 3e d5 13 00 be ae 15 54 3e 09 0b 16 3e
       0.16868623 -0.12507565 0.20711395 0.14652647
0001f0 8c 55 38 3d cc 1b 28 ba 19 9d 78 3e ae 27 a6 3e
       0.04500346 -0.00064128335 0.24278678 0.32452148
000200 2e fc f6 3e de 3a 73 3e 74 55 92 bd 76 c7 59 3e
       0.48239273 0.23752925 -0.07145205 0.21267495
000210 14 f1 fe 3d 8f 0a a3 3e eb 61 eb 3e 01 a1 d1 bc
       0.12448326 0.31843993 0.45973143 -0.025589468
000220 74 ae 3f be 06 f0 98 be 30 21 2e be 5e 1c 1d 3e
       -0.18718892 -0.29870623 -0.17004848 0.15342852
000230 c9 a4 a8 be 5e 6b 67 be 6b 25 ae be ec aa 1c be
       -0.3293822 -0.22599551 -0.34012923 -0.15299577
000240 8b 9f 90 bc 8a 4f 4d bd ac 42 d3 3c ba 7d b0 bd
       -0.017654201 -0.050124682 0.025788628 -0.086177304
000250 bc 96 31 3d 4d b6 0f bd
       0.043356642 -0.035085965

conv1.bias f4 [6]
000000 0a c9 43 3d c0 1a e3 3c 93 04 56 3e da 0e 34 3d
       0.047799148 0.027722716 0.20900182 0.043959476
000010 46 d3 38 bc 00 c3 04 3e
       -0.01128084 0.12965012

conv2.weight f4 [16, 6, 5, 5]
000000 b2 2f 86 3c 16 e2 b9 bd 4f 0c 54 3c 72 bf 45 bd
       0.016380165 -0.090763256 0.012942388 -0.04827828
000010 07 98 58 bd 01 0e 44 3c a8 81 1a 3d 28 fb df 3d
       -0.05287936 0.011966229 0.037721306 0.10936576
000020 42 77 a0 3d 44 5a 4d bc c1 0f f1 3d b2 96 3d 3e
       0.078352466 -0.012533728 0.11770583 0.18514517
000030 b4 e7 a3 3d fd 6b 2d 3e a9 f1 bc 3d 7a 2d b0 bc
       0.08003178 0.16935726 0.092257805 -0.02150606
000040 6a ef 13 bd 0b d3 45 bd 3a 78 c1 bd 77 b4 a2 3d
       -0.036116995 -0.04829697 -0.094467595 0.07944577
000050 30 e0 89 bd a7 1d 79 bd 88 b5 02 be e6 e7 b1 bd
       -0.067322135 -0.060819294 -0.12764561 -0.08686809
000060 28 8f ee bc 50 e4 65 3d 63 91 8b bd 92 83 d6 3d
       -0.029120997 0.05612594 -0.0681484 0.10474314
000070 d0 58 a0 bc ec 3a 15 bd e7 0c 83 3d 62 73 be bb
       -0.0195736 -0.036433145 0.06398945 -0.0058120945
000080 21 e8 ae bc 48 07 ac bd 7f d9 8d bd c0 e2 9d b9
       -0.021350922 -0.08399826 -0.0692625 -0.00030114315
000090 a6 0d 98 bd 1e 91 bc bd ce c4 70 3c 78 6a 8a bc
       -0.07424478 -0.092073664 0.014695359 -0.016896471
0000a0 32 12 ad bb 16 e2 5e bd ab 3e cb 3b 7a e0 07 bd
       -0.00528171 -0.05441483 0.006202539 -0.033173062
0000b0 6e 6f 7c bd 44 35 05 bd 8c a3 02 bd c1 76 3e 3d
       -0.061629705 -0.0325215 -0.03189425 0.04649997
0000c0 f8 bd 95 bb 65 a6 66 bd 21 cd 4c 3d a4 10 b7 ba
       -0.004569765 -0.05631103 0.050000314 -0.0013966751
0000d0 c1 48 8b 3c ac cf 28 3d 37 2e 05 bc ac c8 bc ba
       0.017002465 0.041213676 -0.008128694 -0.0014403067
0000e0 b9 52 0e 3d 2d a7 0c 3c 35 7e ec 3d 7b f3 d9 bc
       0.03474686 0.00858478 0.115475096 -0.026605358
0000f0 b6 cc 43 bd 12 74 08 3e 26 3c 1c 3e 49 19 f3 3d
       -0.04780265 0.13325527 0.1525732 0.11870057
000100 6b 78 f0 3d 27 66 2a be 5e 77 16 be 46 6c de bd
       0.11741718 -0.1664053 -0.14693972 -0.10860495
000110 a3 a5 11 be 44 3d 34 3c 08 05 a7 be 04 c8 9f be
       -0.14223342 0.011000935 -0.32621026 -0.31207287
000120 38 64 6d be 7d ba 0a be ab dc 05 be 5f d8 a9 bd
       -0.23182762 -0.13547702 -0.1307246 -0.08293223
000130 42 4f e1 3c a8 27 8d 3d 4e e9 ef bc c1 0d 26 3d
       0.027503613 0.068923295 -0.029286053 0.04054046
000140 45 b8 78 bd 80 e3 a7 bd 06 94 fc 3c bb 3d cc bc
       -0.060722608 -0.08197689 0.030832302 -0.02493178
000150 40 a7 27 bd 74 b4 97 bd f8 5b 9a 3b 3d e8 0e be
       -0.040930986 -0.074074656 0.0047106706 -0.1395578
000160 f9 f0 2a bd 23 ea 05 be a3 97 05 3e ef fd d3 3d
       -0.041733716 -0.13077597 0.13046126 0.10351168
000170 00 cf d6 3d 09 a6 79 3d dc df bf bd 10 87 fa 3d
       0.10488701 0.06094936 -0.0936887 0.122327924
000180 55 ef 5f 3e 80 da 39 3e ff 77 ca 3d 40 a9 0c bd
       0.21868642 0.18149757 0.09886169 -0.034341097
000190 3f ba 73 3d 1c 91 09 bc 97 cc b1 3d 4c e0 fb 3c
       0.05950379 -0.008396413 0.086816005 0.030746602
0001a0 fa a9 0f bd 7a 4b ed ba 72 08 29 bc 10 42 af 3d
       -0.03507421 -0.0018104159 -0.010316955 0.08557522
0001b0 5e 54 b6 3d 35 a6 fc bc bc 6d b9 bd 75 28 51 bd
       0.089028105 -0.030840972 -0.09054133 -0.051063973
0001c0 a4 7c ef bd 7e 87 73 bd be 4f 50 bc fd 14 ca bd
       -0.11693695 -0.059455387 -0.0127143245 -0.098672844
0001d0 fb 17 d5 bc a4 1a f5 bd 3a ed 9b bd df 96 c7 bd
       -0.026012411 -0.11967972 -0.07613607 -0.09745573
0001e0 d2 8a 9e 3c 02 66 96 3d f6 86 83 3d 77 b3 7e 3c
       0.019353304 0.07343675 0.06422226 0.015545717
0001f0 97 42 d6 bd d1 f9 9c bd 55 f3 a2 bd 12 b5 97 bd
       -0.1046192 -0.07664836 -0.07956568 -0.07407583
000200 28 0f ce 3b 11 57 b9 bd 19 e8 6e 3d c6 c9 90 bd
       0.006288428 -0.0904981 0.058326814 -0.07069735
000210 1a 84 e7 bb 84 7b 76 3c 2e 19 9c bd 53 0a fd 3d
       -0.0070653083 0.015044097 -0.0762199 0.12355485
000220 e4 86 93 3d c8 a0 3b 3e a5 eb 23 3e 46 8e 32 3d
       0.07203463 0.18323052 0.1600786 0.043592714
000230 50 e2 8d 3d bc f9 3d 3d 23 f6 02 3e 35 57 a8 3d
       0.06927931 0.046380743 0.12789206 0.082197584
000240 d7 ea 03 3e 47 c6 31 be 59 b0 5a be a1 ac 78 be
       0.12882553 -0.17360793 -0.21356334 -0.24284603
000250 d9 8d 39 bd c8 8e b2 bd 0e 4a 87 bd 90 c9 78 3c
       -0.045301292 -0.087186396 -0.06605922 0.015184775
000260 b7 98 0c bd a6 d7 6d bd 51 e2 76 bd ca de 93 bd
       -0.034325328 -0.058066987 -0.060274426 -0.07220228
000270 f6 6f 35 bd 32 41 a8 bc 88 60 06 3c 69 a3 7c bb
       -0.044296227 -0.0205389 0.008201726 -0.0038549548
000280 05 2f 56 bd 41 f8 ee bc d4 fb 0a bc 32 2b 82 bd
       -0.052290935 -0.029171111 -0.008482892 -0.06355895
000290 e1 50 63 3d a3 d7 45 bd ce 16 47 3d d7 9c 74 3b
       0.055497054 -0.04830135 0.048605733 0.003732493
0002a0 c1 74 94 3c e6 5e cf 3c 54 5c 64 3d 97 f1 b3 bb
       0.018122079 0.025313806 0.055752113 -0.0054914462
0002b0 90 70 95 bd bf ca 5f bc be df 4e 3d f6 3e 3b bd
       -0.0729686 -0.013659178 0.050506346 -0.04571434
0002c0 a9 82 8c bd 19 d2 35 3d 99 e8 9e bd 26 9e 53 3b
       -0.06860859 0.044389818 -0.07759208 0.0032290309
0002d0 1e 04 19 3d 80 85 88 bd 71 c2 06 3d ca c7 18 bd
       0.037357442 -0.06666088 0.032900278 -0.03729991
0002e0 b5 4a 96 3d 38 24 6f bd 1e f3 95 3d 7a a5 0d bd
       0.07338468 -0.05838415 0.073217615 -0.03458164
0002f0 bb 46 bb bc 60 4b 8d bc 47 4f 9d bd a9 63 dd 3b
       -0.022860875 -0.017247856 -0.076811366 0.006756265
000300 3d a0 54 bb 79 f3 af 3b f0 89 90 bd 85 97 75 3d
       -0.0032444142 0.0053696004 -0.070575595 0.059958953
000310 48 58 97 3b 2f 20 06 3d ed 86 d2 bc 06 4d 07 bd
       0.0046186782 0.032745536 -0.025699103 -0.03303244
000320 b3 a4 35 bd 94 7e b7 bc 4e 7b 93 bd ee e5 00 ba
       -0.044346523 -0.022399224 -0.07201253 -0.00049170747
000330 6e 91 10 bd 5a 52 2e bd 04 db 65 3c 80 20 21 3d
       -0.035294943 -0.042559005 0.014029268 0.039337635
000340 04 87 40 3b f4 a8 aa 3c ee 8e 0c 3d 0c 49 7a 3c
       0.002937735 0.020832516 0.034315996 0.015276205
000350 ca 0d d6 bb f3 27 45 bb 16 90 9b bd b5 4b ce bb
       -0.0065324055 -0.0030083626 -0.075958416 -0.006295646
000360 d6 7c 8c 3d 8e 96 4f bd 72 14 64 bd b7 6d 91 bd
       0.06859748 -0.05068069 -0.05568356 -0.071010046
000370 08 d9 ea bb c3 09 b4 bd 4a d4 91 3c 64 94 a1 bd
       -0.0071669854 -0.087909244 0.017801423 -0.078896314
000380 dd 99 06 bd f8 50 88 bd 62 bf 52 bc 29 31 62 3d
       -0.03286158 -0.066560686 -0.012863012 0.055222664
000390 a8 01 53 3d 3b 98 8d 3c dd 87 ba 3c b3 b3 40 3d
       0.05151525 0.017284503 0.022769863 0.047046375
0003a0 78 60 95 3d 87 30 9d 3d 85 34 00 3c 48 6e 7e bd
       0.072937906 0.076752715 0.007825022 -0.06211689
0003b0 af b9 8c 3d d6 2c bc b9 3a 86 91 bd 1c 22 85 bc
       0.06871354 -0.0003589156 -0.0710568 -0.016251616
0003c0 a4 09 74 bd 26 6c 7c bd 6c 05 f6 bc 76 83 09 bc
       -0.059579507 -0.061626576 -0.030031882 -0.008393159
0003d0 61 48 99 bd e6 93 64 bd 70 08 8c 3d 9d a2 9b bd
       -0.07484508 -0.05580511 0.06837547 -0.075993754
0003e0 a1 3e a4 3d 35 6f 57 bd 3a 32 8d bd 4c 8f 3b 3d
       0.08019758 -0.05259629 -0.068943456 0.045790955
0003f0 92 63 db bb cd 78 65 bd 86 d9 3b 3d c3 91 39 3d
       -0.0066952193 -0.056023408 0.045861743 0.045305025

conv2.bias f4 [16]
000000 68 ce 33 bc 71 61 af bb ea e5 74 3d 68 55 f4 39
       -0.010974504 -0.005352192 0.059789576 0.0004660294
000010 a3 38 b7 bd 84 a3 89 bd b6 ed 80 bd ce ee 8d bd
       -0.089463495 -0.06720641 -0.0629534 -0.06930314
000020 23 be 45 3c fe 6a 71 bd 6b f7 9d bd 41 87 70 bd
       0.012069258 -0.058939926 -0.07713207 -0.05872274
000030 07 e4 f4 3b 67 4c 0d 3c 9b 4e 40 bd eb a6 79 3d
       0.007473472 0.008624173 -0.046949964 0.0609502

fc1.weight f4 [120, 256]
000000 0d cd f0 bc 24 b8 9a bd db 92 59 3c 58 52 38 3d
       -0.02939465 -0.07554653 0.013279642 0.045000404
000010 2e f8 9c bd 82 dd 9e bd 34 e9 40 bd 55 f6 8a bd
       -0.07664524 -0.07757093 -0.0470974 -0.06785265
000020 d7 41 75 bd 82 78 f8 bc f8 bf 08 3d db 17 ce bc
       -0.059877243 -0.0303309 0.0333862 -0.02515786
000030 cb 05 59 3c 47 ba ea 3c e9 8c dc 3d ec 79 d9 3d
       0.01324601 0.028653277 0.10769064 0.10618958
000040 f0 25 80 bc 30 0e 0f bd 73 57 5a bd 31 ab 4e 3d
       -0.01564309 -0.03492564 -0.053306054 0.05045623
000050 96 f1 6a bd 50 f8 26 bd ce eb d0 bc 7b 4d 23 3d
       -0.0573593 -0.040764153 -0.025503065 0.039868813
000060 85 05 62 3d 88 8d d9 3c 56 e5 f0 3a 03 cc 79 3c
       0.055181045 0.026556745 0.0018378894 0.015246394
000070 12 04 7f 3d 7d 90 ec bc 72 55 0e bd 28 94 81 3c
       0.06225974 -0.028877491 -0.034749456 0.015817717
000080 97 e8 7c 3c d9 cb de bd ca 32 94 3d 89 15 c5 3c
       0.015436313 -0.108787246 0.0723625 0.02405812
000090 05 2b 91 bd e7 b7 26 bd 95 d1 41 3d 94 f3 95 3c
       -0.070882834 -0.040702727 0.047319014 0.018304624
0000a0 17 6d 31 3d 89 0b d7 3c 9d 98 e9 bc 35 16 82 3d
       0.043316927 0.026250618 -0.028515154 0.06351892
0000b0 61 75 3d 3d 07 0f bc 3b e3 d8 53 3d 5a 10 45 3d
       0.04625452 0.005739096 0.05172051 0.048111297
0000c0 c2 83 ff 3c 65 84 9f bd 79 87 66 bc b7 0c 8f bd
       0.031190757 -0.07788924 -0.014070385 -0.06984847
0000d0 9f 17 f8 3c 82 fd 78 bd eb f0 50 bb 6e ff 71 3d
       0.0302847 -0.06078864 -0.003188188 0.059081487
0000e0 bd 0f 12 3d e4 5a 36 3d 45 6c ca 3d bc 7b 81 3d
       0.03565954 0.044520274 0.09883932 0.063224286
0000f0 cc ac 87 bd ae 3c 7b 3c 18 1f 04 bd 12 c7 a4 bc
       -0.06624755 0.015334291 -0.032256216 -0.020114455
000100 50 7b 67 bd 41 cb d7 bc ef 51 79 3c 01 a4 02 bd
       -0.056514084 -0.026342036 0.015217288 -0.031894688
000110 48 db e0 3c 10 b7 6f bd e9 9f 1e 3d 3d 86 42 3d
       0.027448311 -0.05852419 0.03872672 0.0474913
000120 da e3 80 bc c7 86 68 bd 61 66 e8 bc 95 64 95 3d
       -0.015733648 -0.05676916 -0.02836913 0.07294575
000130 97 a1 67 bc 2e 0c d3 bc 4b 18 2b 3d c8 a1 9d 3a
       -0.014137647 -0.025762644 0.041771214 0.0012026364
000140 60 63 3a bd 71 94 aa bd cc ba 4a bd e5 40 7c bd
       -0.045504928 -0.08329094 -0.04949455 -0.061585326
000150 45 e6 51 bd 7f 80 73 bd 62 60 10 3b a5 ee 9f 3c
       -0.051244993 -0.059448715 0.0022030105 0.019522974
000160 91 c1 07 bd 22 29 11 3d 09 3f 67 3d 48 4c 57 3c
       -0.033143584 0.035439618 0.0564566 0.013140745
000170 14 2c 4b 3d e9 44 67 bd 75 66 2d 3d 06 44 89 3d
       0.049602583 -0.056462202 0.04233404 0.067024276
000180 9b 22 29 bd 49 74 6a 3d 3c ad ac 3d 4b 41 2e bc
       -0.041292768 0.057239804 0.08431479 -0.010635684
000190 5a dc 9f 3c 5f 39 e0 3c b2 7c 6b 3d 9e 35 57 bd
       0.019514252 0.027371107 0.057491966 -0.052541368
0001a0 f9 45 06 bd 66 39 e5 3c 98 b5 8a bd 46 6b 73 bc
       -0.032781575 0.027981471 -0.067729175 -0.014857119
0001b0 da 05 d9 3d 4f 55 a6 3c 2a 74 51 bd 99 4d 2b 3d
       0.10596819 0.02030435 -0.051136173 0.04182205
0001c0 53 4b 0e bd f7 9d 10 bd 79 e7 12 3c 37 6c 69 bd
       -0.034739804 -0.035306897 0.00896632 -0.056987967
0001d0 b3 17 25 ba a1 b3 60 bd 88 2f 31 3d 1a 64 4b bd
       -0.0006297782 -0.054858807 0.04325822 -0.04965601
0001e0 d1 75 8c 3c e9 99 5a 3d e0 1d 87 bc de ab a7 3c
       0.017146023 0.053369436 -0.016493738 0.020467695
0001f0 9d eb c2 3c 7a 7b 0a 3d e3 e0 a6 bc c3 30 62 bd
       0.02379399 0.033809163 -0.020370906 -0.055222284
000200 1f 59 2c 3d e2 55 c5 bc 97 6d b2 bd 86 3a 63 3c
       0.04207718 -0.024088804 -0.08712309 0.013868934
000210 c5 f8 e5 bc 5e 86 84 bb db 9d 66 bc e2 4f 83 3c
       -0.028072724 -0.004044338 -0.014075722 0.016029302
000220 64 02 40 bd be 3f 05 3d eb 95 e3 bc f9 08 eb 3a
       -0.04687728 0.032531492 -0.027781447 0.0017931751
000230 09 2b 41 3d 67 43 21 3a ec 34 f6 3c 49 a9 0c bd
       0.047160182 0.00061517063 0.030054532 -0.03434113
000240 2d 7b 44 bd 99 ad 8c bb f1 46 a5 bd c0 98 03 bd
       -0.047969032 -0.0042931554 -0.080701716 -0.032128096
000250 8e d7 af 3c a9 a6 89 bb 18 d7 92 3d 66 10 90 3c
       0.02146509 -0.0042007756 0.07169932 0.017585944
000260 04 a6 9f 3d 80 65 87 3c 97 97 9e 3d a4 24 7a 3d
       0.07795337 0.016527891 0.07743757 0.0610701
000270 1f b8 eb 3c 7d f0 68 bd e1 38 31 3d ca e3 eb 3c
       0.02877432 -0.056869972 0.043267135 0.028795142
000280 c8 34 74 3c 0a 41 32 3d 07 b9 cb 3d 2b b3 bc bb
       0.014905162 0.043519057 0.099474005 -0.005758663
000290 aa 11 50 3d b8 55 c3 bc 2c ad 83 bb cd 06 5d bb
       0.050798096 -0.023844585 -0.0040184464 -0.0033725977
0002a0 b2 4a 87 bc 2e e0 c2 3c 48 b7 3c bd 60 0c 87 bd
       -0.01651511 0.023788538 -0.046073228 -0.06594157
0002b0 87 65 10 3d 1b 9d 9d 3d f6 85 b2 bd da 4c 9c bc
       0.035253074 0.07695981 -0.08716957 -0.019079614
0002c0 e6 80 55 3d fc 92 50 bc af 8a 79 3d 20 6c 4c bd
       0.05212488 -0.012730356 0.060923275 -0.049907804
0002d0 92 2b 8d bd d4 dd 5a 3d 48 a0 0e 3d 88 0d 07 3d
       -0.06893076 0.053434208 0.034820825 0.03297189
0002e0 53 55 19 bd 7e ae 7b ba 2f 06 c3 3c 40 e1 34 bd
       -0.037434887 -0.00096008915 0.02380666 -0.044160128
0002f0 78 f1 79 bc 24 cf 90 bc 59 cc 05 3d 79 39 3d 3d
       -0.015255325 -0.017676897 0.032665584 0.04619739
000300 c8 ed ac bc 46 37 4e 3d d4 c0 8c bc 51 26 0e bd
       -0.021109477 0.05034568 -0.017181791 -0.03470451
000310 92 28 20 bd 9e 7f 80 bd 94 24 3c bd 30 bd 5f bd
       -0.03910119 -0.06274341 -0.04593332 -0.054623783
000320 ee ad 22 3c 7e e0 ab 3c f5 81 4e bd c2 0b 8e bc
       0.009929163 0.02098107 -0.050416905 -0.017339591
000330 be 3b 87 bc a2 dc 71 3c 02 48 b6 3c 30 41 96 3d
       -0.01650798 0.014762076 0.022251133 0.07336652
000340 fa 4c 6f bc 57 27 dd 3c a9 66 cb bc 82 60 35 bd
       -0.014605755 0.026996298 -0.024829226 -0.04428149
000350 53 2f 89 bc 95 50 79 3b 28 86 b0 3c cf 76 d8 3c
       -0.016746199 0.0038042415 0.021548346 0.02642384
000360 f0 8c 20 bc d7 53 82 3b d5 0d 93 3d 73 4d 16 3b
       -0.009799227 0.0039772796 0.071803726 0.0022934347
000370 1e 34 d4 bc 5a 50 a6 3c 2d 65 9d 3c 03 4e 49 bc
       -0.025903758 0.020301986 0.019213283 -0.012286666
000380 5b 17 64 3c e6 31 0b 3d 0a cd 87 bc 7c 9b c4 bc
       0.013921584 0.033983134 -0.016577262 -0.023999922
000390 66 51 29 3c fc dc 80 3c 46 fb 61 bc e1 42 92 bc
       0.010334348 0.015730374 -0.013792818 -0.017854156
0003a0 38 44 69 bd f2 38 df 3c e0 8c 2b 3d 7a 4b 2f 3d
       -0.056949824 0.027248833 0.041882396 0.04279659
0003b0 a1 4a 23 3d 4d 92 76 bd 64 91 bd bc d0 99 e1 bb
       0.039866094 -0.060198117 -0.023140617 -0.006884791
0003c0 90 19 6f bd a2 ed 08 bd d8 5f 53 3b 7e 61 a4 3b
       -0.058373988 -0.03342975 0.0032253172 0.005016505
0003d0 1e fb 2d 3d 0a 46 c2 3c 84 eb 16 3d cb 60 28 3d
       0.042475812 0.023715038 0.0368457 0.041107934
0003e0 07 38 a8 bc 51 d3 45 3d 80 21 34 3d e8 ac 30 bb
       -0.020534528 0.04829723 0.04397726 -0.002695853
0003f0 2e bc 12 bc 5a e3 0b bc 2a 67 c5 3c 8d b9 fa 3c
       -0.008955998 -0.008538092 0.024097044 0.030606056

fc1.bias f4 [120]
000000 45 a3 8b bc 3a 1f 4e bd fb a0 c0 bc 96 94 27 3d
       -0.017045626 -0.05032275 -0.023514261 0.040913187
000010 2f 15 a4 3c 1a a5 24 bd 9a 7e 32 3d ca 75 41 bd
       0.020029632 -0.040196516 0.043577768 -0.047231473
000020 f0 82 66 3d 36 71 9a 3c ba 0e 9c 3c 6d 49 20 3d
       0.056277215 0.018852811 0.01904999 0.039132524
000030 f9 80 75 bd d4 09 b4 3c 92 09 5c 3d e7 10 9a 3c
       -0.05993745 0.021977343 0.053720064 0.018806888
000040 3b 8c 3b 3b db b1 6f 3d a5 18 6b bd 29 83 5d bc
       0.002861752 0.058519226 -0.05739655 -0.013520041
000050 bc da ed bc 34 28 84 3d 27 fe 58 3d 7f 12 ca 3c
       -0.029034965 0.06452981 0.052976754 0.024667023
000060 ff 78 d8 3c 9a b4 82 bc 4e fc ae 3c ef a3 b9 3c
       0.026424883 -0.015955258 0.021360543 0.022661177
000070 4f 4d 12 bd 24 10 df 3c 81 c0 79 bc 22 c4 76 3c
       -0.03571826 0.027229376 -0.01524365 0.01506141
000080 85 05 a8 bc 3f 82 73 bd 3a 3e 8d bd 09 64 67 bc
       -0.020510444 -0.059450384 -0.068966344 -0.014122971
000090 04 6c 63 bd 9f c4 71 3c b7 a6 42 bc 93 09 dc 3c
       -0.055522934 0.014756351 -0.011880568 0.026860034
0000a0 04 d6 54 bd c5 65 33 3d 06 42 5d 3d 10 a8 df 3c
       -0.051961914 0.043798227 0.054018043 0.027301818
0000b0 65 fd ca 38 f8 80 53 3c 7d ad 8e bd b3 2a 76 3d
       9.679309e-05 0.0129091665 -0.06966684 0.060099315
0000c0 f7 82 1c 3d 75 da 3d 3d 08 d2 3f bd c3 f4 0e bd
       0.038210835 0.046350915 -0.04683116 -0.03490139
0000d0 af ac 32 3d 47 87 70 bd 08 37 63 bd e1 1e 49 bd
       0.043621715 -0.05872276 -0.055472404 -0.049101714
0000e0 83 d5 31 bc 1c 85 20 3d 3a 39 86 bb 84 1f 1a 3c
       -0.010854128 0.039189443 -0.0040961774 0.009406928
0000f0 8f 9b b1 bc c4 57 06 bd ce 42 02 3d 51 41 0f 3d
       -0.021680621 -0.032798544 0.03180199 0.0349744
000100 c4 e1 cc 3c f6 44 00 3d 4f 1e d7 3c d7 c9 33 3c
       0.025009997 0.031315766 0.02625957 0.010973415
000110 b4 69 90 bc 87 56 2a 3d 65 2f 35 bc 0c d9 ea 3c
       -0.017628528 0.041586425 -0.011058663 0.02866795
000120 0e 18 96 b9 7f 98 e3 bc 5f 5c 27 3d 68 1b 72 bd
       -0.00028628152 -0.027782677 0.040859576 -0.059108168
000130 d3 09 17 3d 1d 88 00 3d b1 68 06 3d 0e 99 88 3d
       0.036874603 0.031379808 0.032814685 0.06669818
000140 bc 16 f9 3b 33 76 ed 3c ee fb 09 bd b6 67 09 bd
       0.007601587 0.028987026 -0.033687524 -0.033546172
000150 57 2f c7 3b 21 ca 63 3d 6c 5d 21 3d 04 df dc 3c
       0.0060786414 0.055612687 0.039395735 0.02696181
000160 11 e4 6f 3d f3 a5 0c bd be 01 81 3a c2 a8 b4 bc
       0.05856711 -0.03433795 0.0009842438 -0.022053126
000170 42 69 58 3d 77 de 12 3c 87 16 1b 3d 70 2b cc ba
       0.052834757 0.008964173 0.03786328 -0.001557691
000180 9a bf 80 3d c2 1f fd bc c2 4a c6 3c f6 89 e4 bc
       0.06286545 -0.030898932 0.02420557 -0.027897816
000190 5c 06 75 3d c0 02 fd 3c c5 54 4e 3d 08 fa 2a 3d
       0.059820518 0.0308851 0.05037381 0.041742355
0001a0 7c ae 6a 3d 31 d7 fa 3b 1b 25 d2 3b 41 3b de 3c
       0.057295308 0.0076550473 0.0064131147 0.027127864
0001b0 a3 31 c3 3c 65 00 d1 bc ef 40 1c bd 83 19 64 3d
       0.02382738 -0.025512883 -0.038147863 0.055688392
0001c0 b8 ba 5c bd 55 bd c1 3c 19 a3 a4 bc 34 be 15 bd
       -0.053889006 0.02364985 -0.020097302 -0.036558345
0001d0 7a 52 b1 3c ad a2 9d bc 14 6b 19 3d b4 bc e3 bc
       0.021645773 -0.019242609 0.037455633 -0.027799942

fc2.weight f4 [84, 120]
000000 4d 89 b5 bb db b3 a1 bd d4 d3 dc bd a7 9a 76 bd
       -0.005540049 -0.07895633 -0.107825905 -0.06020608
000010 aa da c3 3c ba eb 8e bd fe 32 c4 bd bc 54 a8 3d
       0.023907978 -0.06978555 -0.095800385 0.08219287
000020 0e 85 32 3d 79 10 cf bd df aa 9a bc 3a 14 7a 3d
       0.043583922 -0.10110564 -0.018880306 0.061054446
000030 74 fb f8 bc 95 07 9b bd c5 53 86 bd 1c 03 00 bc
       -0.03039334 -0.075698055 -0.065589465 -0.007813241
000040 39 19 d6 3d 03 69 91 3c 96 fa 1c 3d 4e f0 69 bd
       0.104540296 0.017750269 0.038324915 -0.057113938
000050 00 db bd bc bc 38 9d bd f7 ce a8 3d c3 ef 86 bc
       -0.023175716 -0.07676837 0.082426004 -0.01647175
000060 97 25 be 3c 4d ec a1 3d ca b6 9c bd da 58 31 bc
       0.023211284 0.07906399 -0.07652052 -0.0108244065
000070 3b 2b 9d 3c 1c 6c 20 bd 1b ec 8d 3d 2f 54 4f bd
       0.019185653 -0.0391656 0.06929799 -0.050617393
000080 6d 3d 90 bd 36 71 1b 3c da a4 9f bd 35 1e a8 3d
       -0.07042966 0.009487441 -0.07795115 0.082088865
000090 3f 48 48 3d 54 32 0b 3d 1c 5a 57 bd b7 48 e8 3d
       0.048897024 0.033983544 -0.05257617 0.11341994
0000a0 6a be a2 bd 56 b7 5f bd 85 15 50 bd 78 cb 2b 3d
       -0.07946475 -0.054618202 -0.050801773 0.04194209
0000b0 4c a5 28 3d 89 1c 8c 3d c6 43 48 3d 93 ee 29 3d
       0.041173264 0.0684138 0.04889276 0.041487288
0000c0 1c df ce bc c4 63 25 3d 3f 5f 90 3d 16 d8 bd bd
       -0.025252871 0.040378347 0.07049417 -0.09269731
0000d0 8a 02 75 bd fc 1b 9e 3d 55 2b f2 bc 65 8b a7 3d
       -0.059816875 0.07720181 -0.029561678 0.08180884
0000e0 06 85 a6 bb 78 1c 1b 3d 1b 56 57 bc fe f5 8e bc
       -0.0050817756 0.037868947 -0.013143088 -0.017451283
0000f0 63 32 cd 3d 83 57 ac 3b d5 e5 d1 bc 01 9f 92 bd
       0.10019376 0.0052594556 -0.025622288 -0.07159234
000100 00 b3 c8 3d 27 0d 19 3d e1 f1 a9 3d 29 77 a7 bd
       0.097997665 0.03736606 0.08298088 -0.08177025
000110 c6 58 36 bd b3 65 b1 bc c0 45 60 bd ea 61 a1 bb
       -0.044518255 -0.02165494 -0.05475402 -0.0049250023
000120 d1 20 4e 3d 61 68 b3 3d de 17 71 3c 93 ed b6 bc
       0.050324265 0.08760143 0.014715163 -0.022330081
000130 5a 9e e1 3c 71 48 1b bd 0e c5 a7 bc c1 e4 c3 3d
       0.027541328 -0.037910882 -0.020479705 0.09565116
000140 f8 3f 66 bb af 28 9b bd fb 9a 0a bd d5 be ee 3d
       -0.0035133343 -0.07576119 -0.033839207 0.11657492
000150 97 bd c6 bc b6 ef 46 3d e8 12 eb ba 74 01 b9 3d
       -0.024260325 0.04856845 -0.0017934712 0.0903348
000160 df e8 5f bd 88 06 8e bd 15 b4 a5 3d 10 63 1e 3d
       -0.054665443 -0.069348395 0.080909885 0.038668692
000170 3e 15 76 3d 1d 76 d0 bd b1 b2 f8 3a 58 a6 be 3d
       0.060078852 -0.10178778 0.0018974153 0.09309071
000180 11 5d 36 3e 65 a2 92 3c e5 6c 45 bd 6d fc a7 bd
       0.1780894 0.017899701 -0.048199553 -0.08202443
000190 51 04 85 3d c2 0e 0c be 95 00 ca 3d df 1e ae bd
       0.06494964 -0.13677505 0.09863392 -0.08501982
0001a0 18 d3 61 3d 23 32 68 3d 52 f4 8e 3d ef 62 45 bd
       0.055132955 0.05668844 0.06980194 -0.048190054
0001b0 a2 27 af bd e2 5a 9c 3c d5 e2 3e 3d 4b fb 51 bb
       -0.08552481 0.019086305 0.046603043 -0.0032040651
0001c0 28 96 55 3d 4c 6c bf bc 01 68 54 3d 05 b6 d0 3d
       0.052145153 -0.02336707 0.051857 0.101909675
0001d0 d9 b3 e9 3d f7 4a 72 3d d1 49 81 3d 9b 26 e9 bc
       0.11411256 0.059153523 0.063129075 -0.028460791
0001e0 02 d1 50 3c 96 2c 0b bd c3 ae c6 3c c9 ea a6 3d
       0.012745144 -0.033978067 0.024253255 0.081502505
0001f0 92 e3 11 3c 32 04 98 3c 14 e1 8d bc ad 14 88 bd
       0.008904355 0.018556688 -0.01731924 -0.066445686
000200 74 a9 8e bd e4 4d 82 bd 6d 67 a6 bb 8a 10 80 bd
       -0.06965914 -0.06362513 -0.0050782473 -0.062531546
000210 cc 2a 74 bd 13 9f 95 3d c1 b1 bf bd 8e 9b 44 3d
       -0.059611127 0.073057316 -0.09360076 0.04799991
000220 af 96 12 3c 71 4d 7f bd 81 f2 04 3d b1 4c 9c 3c
       0.008947059 -0.062329713 0.032457832 0.019079538
000230 7b 13 64 bd c1 5a ba bd 89 f6 c1 3c 75 4f 14 3d
       -0.05568264 -0.09099341 0.023677127 0.03620859
000240 ba fe 68 bd d6 fa bd bd 6d 0d 90 bd 50 91 5a bd
       -0.05688355 -0.09276359 -0.07033811 -0.053361237
000250 0d 39 9c bd 27 39 a1 bd d4 8c 3c 3d c7 01 8d bd
       -0.07628069 -0.07872229 0.04603274 -0.068851046
000260 92 3a b8 bd 69 66 a3 bd 15 a3 46 bc ba fc 86 3d
       -0.089955464 -0.079785176 -0.012123843 0.065911725
000270 37 4c ac bd 30 26 f4 3b b7 1d 89 3d f5 bc a0 bc
       -0.08412974 0.0074508414 0.06695121 -0.019621352
000280 45 8a a3 3d 44 5f 69 3c c7 63 92 3c 7d 4c 3d 3d
       0.07985357 0.0142439045 0.017869843 0.046215523
000290 51 ed 16 3d 5b 38 3f bd 8a 52 b2 3d e8 5f 48 3d
       0.036847416 -0.046684604 0.08707149 0.04891959
0002a0 31 c5 ac 3d 8f cb 29 3d f1 d8 5e bd 66 2c 9c 3d
       0.08436049 0.041453894 -0.05440611 0.07625656
0002b0 4d e9 30 bb 64 f5 75 bd eb b6 3a 3d 6a 65 c6 bd
       -0.0026994527 -0.060048476 0.0455846 -0.09687312
0002c0 de 04 12 bc 96 91 2d 3c ac a5 d4 3c 6b fe 85 bd
       -0.008912293 0.010593792 0.025957905 -0.06542667
0002d0 4b 25 04 3c d7 d3 83 3d f3 3a 09 bd fd 22 5c bc
       0.008065532 0.064368896 -0.033503484 -0.013436076
0002e0 2f a9 7a bd c6 0c 6e 3d ae 6f 60 bd 25 7c 33 3d
       -0.061196502 0.05811765 -0.054794006 0.043819565
0002f0 85 c4 39 bd 1c d4 73 3b 34 0d 68 bd dc 96 6f 3d
       -0.04535343 0.0037205284 -0.056653216 0.05849348
000300 23 ec 81 bc 50 da 88 bd 11 a4 64 bd be df 2d bb
       -0.01585967 -0.06682265 -0.05582053 -0.0026531066
000310 26 a9 1f bd 9a dd db 3c 1f 1a 55 3d b7 15 ac bd
       -0.038979672 0.026839066 0.052026864 -0.08402579
000320 c4 f2 bf bc f0 60 2f bc fa 97 5e 3d 50 a1 52 3d
       -0.02343119 -0.010704264 0.054344155 0.05142337
000330 ec 8a 61 3c 9d 2e 6b bd c4 69 a9 3d b3 1a 8a bd
       0.013766032 -0.0574175 0.08272126 -0.06743374
000340 6c 48 93 3c 52 fd 35 bd 55 22 84 bd 56 79 f4 3c
       0.01797887 -0.04443104 -0.06451861 0.029843014
000350 1e 43 37 bd 56 ac 10 3d 9b a0 2d 3d be 86 66 3d
       -0.044741742 0.035320602 0.042389493 0.056280844
000360 68 65 8c bd e1 0d 98 bc d6 c4 a6 bd d7 55 28 3c
       -0.06855279 -0.018561305 -0.08143012 0.010274372
000370 88 14 3f 3d 46 ea 22 3d f5 26 7c 3d e3 47 68 bd
       0.04665044 0.0397742 0.06156059 -0.05670918
000380 68 73 4a 3d e9 44 b2 bd 20 89 51 bd fc a0 0a bc
       0.049426466 -0.0870455 -0.051156163 -0.008461233
000390 47 83 b5 3d ae 6e 28 3d d5 3e 1a 3d a2 2f 03 bd
       0.0886293 0.041121177 0.037657578 -0.032027848
0003a0 2a 42 88 3d 2c b1 60 3d 0d 29 11 3d 1a 7c 9d bc
       0.06653245 0.054856464 0.03543954 -0.019224215
0003b0 d6 56 49 39 b9 9e 06 3d a6 c6 1b 3d fa c1 4c 3d
       0.00019201203 0.032866213 0.038031243 0.049989678
0003c0 9c c6 1a 3d cd 8e 8b bc 4d 87 61 bd f4 c5 e1 3a
       0.037787065 -0.017035866 -0.055060674 0.0017225132
0003d0 38 ff 95 bd b0 21 23 bd 94 4c 56 b9 91 3a b6 bd
       -0.0732407 -0.03982705 -0.00020437158 -0.088978894
0003e0 76 3b f3 bc e2 4c d0 b9 55 31 ba bd dc 8e 8f 3c
       -0.02969144 -0.00039730134 -0.090914406 0.017524175
0003f0 b0 43 58 bd 5e 50 a0 bd fb ec 70 bd 59 ae 83 bd
       -0.052798927 -0.07827829 -0.058819752 -0.064297386

fc2.bias f4 [84]
000000 a6 c3 81 3d 96 51 bd bc 37 5a 59 bd ff 47 cc 3d
       0.06336145 -0.023110192 -0.05306455 0.0997467
000010 15 cd a1 3d 4e 64 f3 bc 1a ef 30 3d d5 61 96 bd
       0.079004444 -0.029710915 0.043196775 -0.07342879
000020 69 d6 74 bc 03 08 15 bd 05 f3 66 3d 62 62 0c 3d
       -0.0149436975 -0.036384594 0.056384105 0.034273513
000030 9b 89 84 bd 34 d8 8c bc 42 32 8f 3d ce 40 0c bd
       -0.06471559 -0.017192937 0.06992008 -0.03424149
000040 4b aa 2f bb fd bc 23 bd 87 a2 7a bd 90 cb ad bd
       -0.0026804383 -0.039975155 -0.061190154 -0.08486092
000050 6b ad a1 bd 9d ad 23 bd 7f 69 aa bd 72 5a d9 3b
       -0.07894405 -0.039960492 -0.08320903 0.0066330964
000060 be ff 6d 3c c3 42 3d 3d 5b e0 ee 3c 66 3d 04 bd
       0.014526306 0.046206247 0.029159715 -0.032285117
000070 a7 36 7b 3d a6 ad 80 bd 8a 30 4f bd 7e 55 c5 3d
       0.061331417 -0.06283121 -0.0505834 0.09635447
000080 5d 53 1e 3d 82 9c 03 bd 94 a3 a8 bd fb 5d 89 bc
       0.03865372 -0.03213168 -0.08234325 -0.016768446
000090 61 ce 3a bd 19 d7 33 3d e0 c9 96 bb e2 c8 9d bd
       -0.045606975 0.043906305 -0.004601702 -0.07704331
0000a0 77 ac 94 bd 89 e5 bb bc 74 43 1d 3d 36 5b 9b bc
       -0.072594576 -0.0229366 0.038394406 -0.018964391
0000b0 8d 3f 8e 3d 20 20 95 bc 16 b6 91 bd 05 67 35 3d
       0.06945715 -0.018203795 -0.07114808 0.0442877
0000c0 86 ed d6 3c 7f 90 b0 bd e2 ac a8 3d f2 70 32 3d
       0.026236307 -0.086213104 0.082361 0.043564744
0000d0 e5 34 ae bd 8d 19 0c bd c5 54 68 bd 40 e8 6b bc
       -0.085061826 -0.034204055 -0.056721468 -0.014398634
0000e0 0c a4 ae bb 60 1c 16 bd 50 a2 8c bd e9 6a 99 3d
       -0.0053296145 -0.036648154 -0.06866896 0.074910946
0000f0 0d ae b9 3b 77 01 5d bd ed 9d 8b bd e5 63 ac bd
       0.0056665004 -0.053956475 -0.06817231 -0.08417491
000100 29 a5 1b bc 18 ea 4c bd 31 b1 5f 3c 3f 65 5a bd
       -0.0094998265 -0.050027937 0.013653086 -0.053319212
000110 aa 16 98 3d d1 92 46 bd 3c 38 26 bc 31 11 90 bd
       0.07426198 -0.04847986 -0.010145243 -0.07034529
000120 a9 13 10 3e 91 0d a6 bc e5 e3 41 3d 5f 06 5f bc
       0.1407 -0.02027014 0.047336478 -0.013612359
000130 79 a6 25 bd ca 0f 25 3d 24 fa 87 bd f0 1d a9 bd
       -0.040441964 0.04029826 -0.066395074 -0.08257663
000140 23 ee ac bc f2 c9 a7 bc 75 01 da 3d a3 41 9e 3d
       -0.021109646 -0.020482037 0.10644809 0.07727363

fc3.weight f4 [10, 84]
000000 01 56 4a be d4 80 bb 3c 1e 3f 9f 3b 4b 13 9a 3c
       -0.1975937 0.022888578 0.004859819 0.018808028
000010 87 a5 06 3e 5a a3 2d 3d 7b 7d 1d 3e 6f 2d 32 3d
       0.13149081 0.042392112 0.15379898 0.04350036
000020 54 91 54 ba f6 d2 7b 3d 50 8b 63 3e e3 42 77 3d
       -0.0008108814 0.061480485 0.22221112 0.060366523
000030 4d 6b 0b be 17 fe 4d 3d f7 a3 7b be fe 5a b8 3b
       -0.13615151 0.050291147 -0.24574266 0.0056260815
000040 e9 cd e6 bd 8f 57 48 bd b8 7f 40 3e da 74 d3 bc
       -0.11269743 -0.048911627 0.18798721 -0.025812555
000050 d2 60 a5 3c 1b ad a3 3c 7a b7 56 be 7e 87 e9 bc
       0.02018777 0.019980004 -0.20968428 -0.02850699
000060 89 5e 52 bd e2 11 cd 3d f2 f3 bb bd 36 5a c7 bd
       -0.051359687 0.100131765 -0.09177388 -0.09734003
000070 06 ae 0a 3d a6 f1 c7 3d 8e 8b 63 bd 02 3c 91 bd
       0.033857368 0.09762888 -0.05555301 -0.07091524
000080 50 1e 6d 3d f2 0b 03 3a 13 5a cd bd b0 71 61 bd
       0.057890236 0.00049990334 -0.10026946 -0.05504006
000090 7c 3b bb bc f1 0f a0 3d f4 1e 0a be 09 36 66 3e
       -0.022855513 0.078155406 -0.1348837 0.2248155
0000a0 9a ca 0f 3e 9c 69 83 3d 97 32 91 3d cc 6b 36 be
       0.1404213 0.06416628 0.07089727 -0.17814559
0000b0 fd aa 40 3c b3 aa e9 bb b5 cd 80 bd eb 46 30 bd
       0.011759517 -0.0071309446 -0.062892355 -0.043036383
0000c0 d8 a2 8a 3d d3 4a 44 3d fb 1b fd 3d 54 88 58 3d
       0.06769341 0.04792292 0.123588525 0.052864388
0000d0 42 6d 99 bd bf 87 f5 3c bd f4 2d be c9 9b ac bc
       -0.074915424 0.029971955 -0.16987891 -0.021070378
0000e0 d1 33 86 be 67 70 b6 bd 9a db 39 3d 64 48 1a be
       -0.26211408 -0.08908158 0.045375444 -0.15066677
0000f0 0d 89 33 bd ce 67 b8 3d d0 b8 60 bd 3d f8 4d bd
       -0.043831874 0.09004174 -0.05486375 -0.050285567
000100 da ba 74 3e f3 cb b0 bd af 23 00 be 6b 76 89 3d
       0.23899403 -0.0863265 -0.12513612 0.067120396
000110 66 93 ad bd a2 4d 99 bd 31 bb 97 3e 29 a3 b1 bd
       -0.0847538 -0.074855104 0.29635003 -0.086736985
000120 6d 54 2e be 9e 5a 62 bd ad 00 33 bc 81 11 69 3c
       -0.17024393 -0.0552622 -0.010925454 0.014225365
000130 04 38 3e bc 39 89 84 be 3b 0b 26 3e 95 4b cb bd
       -0.011610035 -0.25885943 0.16215222 -0.099265255
000140 95 0e f5 3b be 92 a3 3d 33 aa 0b 3e 85 b9 f8 3b
       0.007478545 0.07986973 0.13639145 0.007590475
000150 fd 4f bc 3c cc dd 9e bb 66 f8 5c bd 9a b8 ab 3d
       0.02298736 -0.0048482176 -0.05394783 0.08384819
000160 de 1b f5 3d 10 91 a2 3b bb 03 f4 3d 92 1a b6 bc
       0.11968206 0.0049611405 0.11914774 -0.022229467
000170 f0 4e ae 3e c6 a8 80 be 01 b9 88 bc 0c 57 ff bd
       0.340446 -0.25128764 -0.01668978 -0.12467775
000180 6d 22 ad bd 83 86 f8 bc b9 63 f9 3d 61 1c ab bd
       -0.08453832 -0.030337578 0.12177224 -0.08355022
000190 c2 1b b5 3d 7f f0 e6 bd 48 43 83 be 08 e9 b6 3c
       0.08843185 -0.1127634 -0.2563727 0.022327915
0001a0 1d 84 99 bc fa ec a3 bd ed 04 14 be 0b eb 21 bd
       -0.018739754 -0.08004184 -0.14455004 -0.039530795
0001b0 53 2a 9a bd ca da 17 be 74 7a bc 3d 02 22 1b 3e
       -0.07527604 -0.14829555 0.092030436 0.15149692
0001c0 7a cb 53 bd 32 59 f6 bc 44 b8 b6 bc b1 67 55 bd
       -0.051707722 -0.030071829 -0.022304662 -0.05210084
0001d0 98 a5 2c 3e 7a 2c 9f 3d f6 36 cc bd be 88 26 bd
       0.16860044 0.07772155 -0.099714205 -0.04065775
0001e0 3e 62 6d 3e 5c d6 e3 bd 29 7b ff 3c 22 5d 5f bd
       0.23182008 -0.1112487 0.031186657 -0.054532178
0001f0 9e 56 6a be a2 ef 8f bd d6 f2 89 be b9 19 20 3d
       -0.22884604 -0.07028128 -0.26943082 0.03908703
000200 3b 10 29 bd a5 d1 08 be a1 5b 09 3d 9f bd 3b 3e
       -0.041275244 -0.13361223 0.03353465 0.18334053
000210 e5 c2 08 3e bc 2a 84 3d a6 ca 7a bd bd e5 27 bd
       0.13355596 0.064534634 -0.061228417 -0.04099058
000220 98 8a b3 bd 40 73 12 3c 9a b9 65 be fd 77 1d 3d
       -0.08766669 0.008938611 -0.22434083 0.038444508
000230 bc ac 44 3d d9 b5 ba bd 9d c8 cb 3d fc f8 9b bd
       0.048016295 -0.09116716 0.09950373 -0.076158494
000240 d4 66 99 3d 45 3a 94 3c 43 1c ba 3d 54 08 e0 3d
       0.07490316 0.018094191 0.09087422 0.109390885
000250 e1 38 8d be 5a b3 88 3d eb 2d f7 3b 59 e7 cf bd
       -0.27582458 0.066748336 0.0075433156 -0.10151548
000260 b9 68 79 bd b2 16 2e 3e d4 7d 4d be 43 96 9d 3d
       -0.060890887 0.17000845 -0.20067531 0.07694676
000270 e1 e7 d4 3e f3 29 96 bd 44 1d 38 3e 4e fa 36 be
       0.4158316 -0.0733222 0.17979914 -0.17868921
000280 d2 35 58 bd 0d 85 37 3e 9e 4e 97 3d 95 5a 05 3e
       -0.052785702 0.17921849 0.07388042 0.13022836
000290 f1 9d e7 bc f3 df 0a be ae 79 38 3b 77 d6 11 3e
       -0.028273555 -0.13561992 0.0028148699 0.14241968
0002a0 73 81 1d 3e 1a b3 9e 3d 66 ee 88 3d 4a a4 28 be
       0.15381412 0.07749005 0.06686096 -0.16468921
0002b0 45 95 2c 3e 26 01 aa bd fa ad ea 3d 12 b3 53 bd
       0.16853817 -0.08301 0.11458965 -0.051684447
0002c0 bf b0 2c 3e 01 3a f1 3d fe 3c 63 3d 22 e8 8d 3d
       0.16864298 0.117786415 0.05547809 0.069290414
0002d0 d6 03 5e bd 9e 66 51 3d 79 33 3b be a8 c3 09 3d
       -0.054202877 0.051123254 -0.18281354 0.033633858
0002e0 97 27 e3 bd 8a 09 a7 bd 04 c2 cf 3d 2c 01 aa bc
       -0.110915355 -0.08156116 0.101444274 -0.020752512
0002f0 25 e7 13 bd 85 20 1c 3d 78 a2 e8 3c 71 27 f4 bd
       -0.03610911 0.03811695 0.028397784 -0.11921585
000300 e8 43 75 3d dc c6 5e bd d1 ae 10 3e 53 fc 74 3e
       0.059879214 -0.054388866 0.14129187 0.23924379
000310 48 40 e1 bd 51 9d 03 3d 10 20 92 3d 99 25 b4 bd
       -0.10998589 0.03213245 0.07135022 -0.08796234
000320 1d 8b ca bd 76 04 a3 3b 43 56 af 3d 3d dd 4c be
       -0.09889815 0.004974897 0.08561375 -0.2000627
000330 eb f4 ba 3d 7a 50 3a 3d e2 72 9e 3d af 19 ed bd
       0.09128746 0.045486905 0.07736756 -0.115771644
000340 53 be 13 3e 13 8e a6 bd 3e ee 60 be b4 8b 25 be
       0.14428072 -0.08132567 -0.21965882 -0.16166574
000350 38 cd ba bb 7e d1 91 bd 76 b4 ea bb de c9 40 bd
       -0.0057007335 -0.071200356 -0.007162626 -0.047067516
000360 53 3f 86 bd cc db 69 bc 98 ce 17 be 3e 11 9d 3d
       -0.06555047 -0.014273595 -0.14824903 0.07669304
000370 06 70 bd bd 47 b3 83 bc b1 fc c6 3d ec 14 32 3d
       -0.092498824 -0.016076697 0.09716166 0.043476984
000380 b2 11 f1 bd 78 4a fa 3c c9 f8 95 bc ea 1a 38 be
       -0.11770953 0.030553088 -0.018307107 -0.17979017
000390 5b 8e 8a 3d 68 82 c6 3d b4 af 13 bd 81 1a 9a bc
       0.067654334 0.09692842 -0.036056235 -0.018811466
0003a0 38 17 2b 3e b6 03 e5 3d 21 db 6f bd 7f 5b ae 3c
       0.16708076 0.111823484 -0.058558587 0.021283863
0003b0 6e 3a 4b 3e aa 73 d4 bb 60 f4 be bd 98 5d 87 3d
       0.19846508 -0.006483515 -0.093239546 0.066096485
0003c0 6a c3 fd 3d 9f 51 92 3d 77 48 10 be 74 5e 06 3e
       0.12390788 0.07144474 -0.14090143 0.13121969
0003d0 de 9a 11 3e 8d 38 de bd 16 8a 70 3d bb 4a 45 3e
       0.14219233 -0.1085063 0.05872544 0.19266789
0003e0 52 c7 76 bd 0a 71 48 3e 1f c4 ee bd b0 01 26 3e
       -0.06024868 0.19574371 -0.11658501 0.16211581
0003f0 f7 06 08 3e 93 a0 8f bc 32 71 92 bd f4 2e 81 bd
       0.13283907 -0.017532622 -0.071504965 -0.06307784

fc3.bias f4 [10]
000000 4a b3 91 bc 08 53 fa 3d d4 5d 95 bd 76 12 9e bd
       -0.017785687 0.12222868 -0.07293287 -0.07718365
000010 de 3b b8 3c 71 f3 b6 bd 1a dd e4 3b 7f 54 5b bd
       0.022489484 -0.089331515 0.006984365 -0.05354738
000020 3c fd bf 3c a1 22 a2 bd
       0.023436181 -0.07916761
