src/artifacts/checkpoints/round_002.pt (torch, 181669 bytes, 10 tensors)

conv1.weight f4 [6, 1, 5, 5]
000000 b8 be f0 bd 9c 89 5d bd 91 b3 05 3e 04 40 48 3e
       -0.11755127 -0.054086313 0.1305678 0.1955567
000010 41 aa 95 3d b4 ff d5 3d f3 bb 0d 3c 06 a2 a3 3e
       0.07307864 0.10449162 0.008650768 0.31959552
000020 04 1e 19 bd ac e9 32 be 64 ce ae 3d 94 17 80 bc
       -0.03738214 -0.17471951 0.0853546 -0.015636243
000030 e9 38 84 bd 1c 84 f3 3d 3e a3 bc bd 9f d8 67 3e
       -0.06456167 0.11890432 -0.092108235 0.22641228
000040 97 67 01 3e 7c 2b bc bd 6b ca 87 3d 88 b8 0b 3e
       0.12637173 -0.091879815 0.06630405 0.13644612
000050 17 a3 3e 3e 1e f4 32 3e 65 99 87 be 50 6f 62 bd
       0.18616901 0.17475936 -0.26484218 -0.055281937
000060 08 78 e4 3d 62 9d a3 3d 89 73 91 3d 23 e8 01 bc
       0.11155707 0.07989003 0.07102115 -0.007928881
000070 63 de 05 3e 38 bb 44 3d 55 3f 03 be 60 e5 95 3e
       0.13073115 0.04803011 -0.12817128 0.29276562
000080 40 15 d0 3d 22 60 78 3e 38 2f 26 3e 6b d9 21 3e
       0.10160303 0.24255422 0.1622895 0.15805595
000090 78 62 0e 3f 19 76 0a 3f fe da b1 bd 9b b8 fc bd
       0.55619 0.5408645 -0.086843476 -0.12339898
0000a0 88 24 15 3d ee ab 75 3e 42 8a f2 3c bb e9 25 3e
       0.036411792 0.23991367 0.029606942 0.16202442
0000b0 cb 65 80 be 00 bb d8 39 1b 28 3a 3d 5d 60 c2 3d
       -0.25077662 0.00041338056 0.045448404 0.09491036
0000c0 8c 6c 09 be 7f 02 8f be e4 58 f6 bd e6 d2 4a 3e
       -0.13420314 -0.27931592 -0.12028673 0.19807014
0000d0 6d 48 51 3e 3f e1 82 3e ff a4 53 3e fb 66 a6 3e
       0.20437784 0.25562474 0.2066841 0.32500443
0000e0 50 50 8a 3e b0 7c e2 3d b4 fa d3 3e b3 57 36 3e
       0.270144 0.110589385 0.4140221 0.17806892
0000f0 a4 99 10 be 51 26 1e 3e 5e bc 28 3e 3b 49 fa bd
       -0.14121109 0.15444304 0.16478106 -0.12220999
000100 30 fb 49 3e ff 7f a2 be 3a 02 d5 bd 45 78 9a be
       0.19724727 -0.31738278 -0.10400815 -0.30169883
000110 aa 3a 93 bc 31 47 79 be 66 96 36 bc b9 3c da be
       -0.01797231 -0.24343564 -0.011144256 -0.42624453
000120 9d 71 9e be 9c a3 e3 be 10 bb 8f be 2c 26 88 3c
       -0.30946055 -0.44460762 -0.28072405 0.016619764
000130 a6 d6 d4 3d e2 af 66 bc 9a a9 ed bd 55 6c 3f bc
       0.103925034 -0.01408002 -0.116046146 -0.011683543
000140 cc 88 51 be 2f 44 77 3c c7 a6 13 be 20 1c 24 be
       -0.2046234 0.01509194 -0.1441909 -0.16026354
000150 c7 bc 18 3e d3 5d 2e be 99 4b 18 3d 98 c5 10 be
       0.14915763 -0.17027979 0.03718147 -0.14137876
000160 36 3d 17 be 8e 6e 4a be ce 63 40 be fe 86 10 3e
       -0.14769444 -0.19768736 -0.18788072 0.14113995
000170 c0 1c 3b 3c d0 7d e2 3d 14 98 3b be 98 60 00 be
       0.011420429 0.11059153 -0.18319732 -0.12536848
000180 d7 e7 1e be f6 a9 02 be 38 46 09 3d a4 0c 3e be
       -0.15518127 -0.12760147 0.03351423 -0.1855951
000190 01 e5 37 be 96 4a 36 be a3 8c 4e be a5 77 a6 3d
       -0.17958452 -0.1780189 -0.20170836 0.08128289
0001a0 78 4e a2 3c cd b0 92 be c8 7b 72 bd 32 d7 80 be
       0.019812807 -0.28650513 -0.05920008 -0.2516418
0001b0 f3 3c 65 3e e8 d2 00 3d 04 5c af be 62 09 0e bc
       0.22386532 0.031451136 -0.3424989 -0.008669229
0001c0 8c b8 1f be 16 93 fc 3d c9 14 00 3e 9e 3e a3 be
       -0.15597743 0.12332742 0.12507929 -0.3188371
0001d0 06 51 ff bd e5 c4 9e bd 6a d7 9b 3e ee 88 75 3e
       -0.12466626 -0.077523984 0.30437785 0.23978016
0001e0 2a bb 0f bd 33 20 e6 bd 9c bc 8e 3e 44 80 af 3e
       -0.035090603 -0.1123661 0.27878273 0.34277546
0001f0 ed 55 b3 3e c9 7f 50 3c 82 36 56 3d 66 6f 0d be
       0.35026494 0.012725779 0.052298076 -0.13812026
000200 18 9b ef bd 75 1b ef bd 88 db 6a 3e db 47 09 be
       -0.11699504 -0.11675159 0.22935307 -0.13406317
000210 dd c3 20 be d5 6e 03 bd 7c 7c 04 be 1f c5 50 3e
       -0.15699716 -0.03208812 -0.12938112 0.20387696
000220 50 f1 32 be 88 e7 6c be 6e 55 aa be d1 40 8b be
       -0.17474866 -0.23135197 -0.33268303 -0.27197888
000230 f1 9b bc 3e 1e d4 a0 3e fd 25 16 bc 11 08 ad bd
       0.36837724 0.31411833 -0.009164331 -0.08448804
000240 a4 fb 8d 3d 95 a5 0a bc 18 aa a8 3e 0f c2 ec 3e
       0.06932762 -0.008462329 0.3294227 0.46241805
000250 86 6e 3d 3e 3c 83 62 3e
       0.18499193 0.22120374

conv1.bias f4 [6]
000000 34 4c df 3d 7a 47 81 3d b8 0e 20 3e 14 98 ae bd
       0.109032065 0.06312461 0.15630615 -0.085251
000010 4e 9c 4a bd da 76 3b 3e
       -0.04946547 0.18307057

conv2.weight f4 [16, 6, 5, 5]
000000 61 6c 3f bd 36 8b 15 3c 7a b2 9d bd 04 1c 3b bc
       -0.046734218 0.009127429 -0.07700057 -0.011420254
000010 24 f0 85 3c df b7 13 3c dc 46 ef bd e0 d3 95 bd
       0.01634986 0.009016006 -0.11683437 -0.073158026
000020 48 82 23 bd 6e 3a 79 3d aa b3 01 3d 0b 96 1e bd
       -0.039919168 0.06084674 0.03166548 -0.03871731
000030 06 79 6e bd 27 3c 6d 3c 7b 14 8a 3c 19 e8 83 bd
       -0.058220886 0.0144796735 0.016855469 -0.064407535
000040 87 4f 93 3d ae 6b 23 3d 62 9c a5 3c a8 33 39 bd
       0.07192903 0.039897613 0.02021617 -0.04521528
000050 ca fc 15 3c c6 1c e0 3c 68 a3 8e bc 94 88 bc bd
       0.009154508 0.02735747 -0.017411903 -0.09205738
000060 c9 d7 9e 3c 4e 9d a2 bc 69 ba c6 bc 7e 44 37 be
       0.019390004 -0.0198504 -0.02425881 -0.17897221
000070 67 6a 4f bb 97 27 29 3d 10 46 b2 3d 82 d8 34 be
       -0.0031649114 0.04129752 0.087047696 -0.17660716
000080 44 26 a9 bd 8d 39 d8 3d 81 13 4d 3d 41 aa dc bd
       -0.08259252 0.10557852 0.05006743 -0.10774661
000090 5b 9f ea bd 3d c2 ea 3c de 40 f5 3d 3f ca cc bd
       -0.11456176 0.028657073 0.11975263 -0.09999513
0000a0 b1 66 12 be 17 d2 dc 3c 31 e6 9c 3d 40 65 a2 bc
       -0.14296986 0.026955647 0.07661093 -0.01982367
0000b0 e3 91 2f be fe 6b 46 3d 0a af 0b bc d7 d7 10 3d
       -0.17145495 0.048442833 -0.008525619 0.03536209
0000c0 59 07 15 3d b0 c6 32 be cc d6 04 bd 8f a7 d6 bd
       0.03638396 -0.17458606 -0.03243141 -0.10481178
0000d0 ef 26 0d bc ae 77 cd 3c 59 d7 a6 3b 07 77 a1 bd
       -0.0086152395 0.025081482 0.0050915894 -0.07884031
0000e0 28 6f ae bd ef 30 b4 3c 02 18 31 bc 4d 25 a2 3d
       -0.08517295 0.02199599 -0.010808947 0.07917271
0000f0 44 3e 1a 3d 61 f7 b3 bd 07 5c 13 3d 76 97 67 3d
       0.037657037 -0.08787418 0.035976436 0.05654093
000100 cd f3 32 3d 0c b7 80 bd a8 41 a5 3c 37 75 4a bd
       0.043689538 -0.062849134 0.020172909 -0.04942819
000110 32 ce a7 bd ec 30 44 bd 9b 3e b8 bd 4d 31 70 bd
       -0.081936255 -0.047898218 -0.08996316 -0.058640767
000120 42 5d 4b 3c c4 06 90 bd 5a b8 f9 bd 15 21 80 3d
       0.012412371 -0.070325404 -0.121933654 0.0625631
000130 f5 75 99 bd dc d7 63 3d 6f 9b 87 3d bb b6 f8 3c
       -0.07493202 0.05562578 0.066214435 0.03036057
000140 1d 68 a7 bd 55 6c 5c 3d ef 72 ac bd a0 1b a5 bd
       -0.08174155 0.05381425 -0.08420359 -0.0806191
000150 27 a6 3c bd ad 23 4e 3d b3 02 43 bd 90 30 ff 3c
       -0.046056893 0.05032699 -0.047609996 0.031151086
000160 f9 77 40 3c 17 57 09 bd c4 8c 7b bc 90 6b 63 3c
       0.011747354 -0.03353032 -0.015353385 0.013880625
000170 06 d0 28 3d 86 15 d4 3b 50 26 83 3d 29 90 a0 bd
       0.04121401 0.0064722924 0.06403792 -0.07839996
000180 52 8b b6 bd 07 05 b5 bd b3 54 89 3d d2 5f 26 bd
       -0.08913292 -0.088388495 0.06705608 -0.040618725
000190 f2 61 89 bd 11 58 87 bd 17 1d f3 3c 9c d4 58 3d
       -0.06708135 -0.06608594 0.029676957 0.052937135
0001a0 ff 9c 84 3d dd a2 98 bd 89 f4 99 3d 93 8b fc 3d
       0.06475257 -0.07452939 0.075173445 0.12331309
0001b0 9e 9e b1 3d a2 e8 12 3c 0f fd b1 bd 4c 81 b0 3d
       0.08672832 0.008966597 -0.08690845 0.086184114
0001c0 21 b5 47 3d c3 57 c8 bd 96 cc db bc a6 ec 82 3d
       0.048756722 -0.09782364 -0.026830953 0.06392793
0001d0 3c f1 df 3d 2e dd 68 bd 69 db 04 bd 6c fc db bd
       0.10934684 -0.05685156 -0.03243581 -0.10741505
0001e0 f7 39 07 3d 28 6b ed 3d 82 11 1f bd 37 42 0a bd
       0.033014264 0.11592704 -0.038835056 -0.033754554
0001f0 0e 70 c9 bd 61 0b 69 bc a9 d9 b3 bc c0 95 04 3c
       -0.09835826 -0.014223904 -0.021954374 0.008092344
000200 69 0f 2a 3c 55 e3 26 3d 5b 16 0b 3d 0f e1 e6 3c
       0.010379651 0.040744144 0.033956867 0.028183488
000210 e6 7a 98 bc bc 0d 33 bd cb 47 f0 bc 81 e6 a0 bc
       -0.01861329 -0.04371427 -0.029331109 -0.019641163
000220 2a a4 1a 3c 94 b3 f8 bd b8 5c 7a bd bc 78 cc 3c
       0.009438554 -0.12143627 -0.06112358 0.024959914
000230 b1 7a dd 3c a0 7d 0e bb 9b 04 65 bb 91 9d 8e bb
       0.027036043 -0.0021742359 -0.0034945372 -0.0043522795
000240 4a 3b 9f bd 08 3a 3a ba 30 f9 7e 39 72 17 3c 3d
       -0.0777498 -0.0007103984 0.00024316157 0.045920797
000250 8f d8 a2 3d e0 1b a1 39 27 c6 18 3d d9 f4 99 bd
       0.079514615 0.00030729081 0.037298348 -0.07517404
000260 18 9b 56 3c 2c 9d c5 bb 24 1c 94 3d 6a a0 74 3c
       0.013098501 -0.0060306992 0.0723193 0.014930824
000270 ca 51 ea bb 3c c0 7d 3c 40 40 50 3c 3e de 22 bd
       -0.0071508633 0.015487727 0.012710631 -0.039762728
000280 89 32 ab bd 86 3e 38 3d 20 1c b6 3d fc b0 18 bb
       -0.08359248 0.044981502 0.08892083 -0.002329885
000290 3b 1e 24 3d 5c da 66 3d d1 b5 87 bc 47 ed 13 3d
       0.040067893 0.056360587 -0.016566189 0.036114957
0002a0 ba 03 a3 3d de ce f3 3c ea 4c 38 bd 72 f5 8c bd
       0.07959695 0.029761728 -0.044995226 -0.068827525
0002b0 4c 17 2a bd 2e d7 b5 3d 73 39 9a 3d d7 76 d8 bd
       -0.041526124 0.08878933 0.07530489 -0.10569542
0002c0 52 af 06 be 1e 8e 08 bd b8 30 a1 bd 80 f9 0d be
       -0.13152817 -0.03333866 -0.078706205 -0.13864708
0002d0 32 7e b0 bd b2 75 b1 3c 66 75 00 3e 3c d0 2a 3d
       -0.0861782 0.021662567 0.12544784 0.041702494
0002e0 04 9c 11 3d e1 e6 05 3c 1a c3 4c 3d 8a 64 92 3d
       0.03554918 0.008172722 0.04999075 0.071480826
0002f0 e2 80 1f 3e 29 ba 47 bd de 62 4e bd db 6c 45 be
       0.15576509 -0.04876152 -0.050387256 -0.19279806
000300 96 46 12 be 06 88 03 3d 6f 88 ed 3d 42 69 2e be
       -0.14284739 0.032112144 0.11598288 -0.1703234
000310 26 13 b2 bd 54 f6 b0 3a ca cd d1 3c 9b bf 4b 3e
       -0.086950585 0.0013501146 0.025610823 0.1989731
000320 f6 5a 7d bd d4 ac 5e bd c1 b4 ba bd 37 4b 02 be
       -0.061854325 -0.05436404 -0.09116507 -0.12724005
000330 dd 7f 92 3d dc 6a a1 bd f2 5b 99 bd e4 d3 7f bd
       0.07153294 -0.0788171 -0.0748824 -0.062457934
000340 4c 28 09 bd 48 f8 50 bd 18 15 a8 3d 12 ba e3 bc
       -0.033485696 -0.05101803 0.08207148 -0.027798686
000350 b5 b2 1e bd 61 94 dc bd f5 ce 9c bd 66 28 84 bd
       -0.038744647 -0.107704885 -0.076566614 -0.06453018
000360 8e 8c 5a 3d 68 f6 00 3d 1c 72 00 bd 92 23 1a be
       0.0533567 0.03148499 -0.031358823 -0.15052631
000370 08 b9 4e bd 74 5b e9 bc dc 06 b0 bd 4f af ba bd
       -0.05046943 -0.028485991 -0.08595058 -0.09115469
000380 f0 91 0f ba d2 e9 89 bc 64 e6 0b 3b e4 f0 4d bd
       -0.00054767635 -0.016835127 0.002134704 -0.05027856
000390 e7 2e ad 3c fa b3 05 3d 3b a1 a6 bd 2a 45 b7 bc
       0.021140529 0.032642342 -0.08136221 -0.022371847
0003a0 e9 35 93 bd 51 5b 74 bd 1d da 83 bd 8e 40 1e 3d
       -0.07188017 -0.0596574 -0.06438086 0.038635783
0003b0 47 c7 3b bd 5d 7d a9 bd 52 16 f5 3c 61 19 36 bd
       -0.045844343 -0.08275864 0.02991787 -0.044457797
0003c0 8c 23 a8 bd 94 1b 2f 3d dd e8 58 3d 8c b7 1e bd
       -0.08209905 0.04275091 0.05295645 -0.038749263
0003d0 80 ea c6 3c b0 c5 9f ba 53 70 0f 3c 16 32 eb bc
       0.02428174 -0.0012189653 0.0087548075 -0.028710406
0003e0 95 3d c0 bd ca 24 51 bd 3c f9 a9 3c 6b ba 26 bd
       -0.09386746 -0.051060475 0.020748727 -0.040705126
0003f0 ea 5b 2d 3d 83 92 03 3d e5 40 d1 bd aa 4d de 3c
       0.042323984 0.032122146 -0.10217456 0.027136642

conv2.bias f4 [16]
000000 1b aa 52 3d 43 a0 e7 3c 58 bb df bd df 6e e7 3c
       0.051431756 0.02827466 -0.10924405 0.02825111
000010 a6 5f 9e 3c c8 dc 7b bd 6c 7a 03 bd 30 9b 88 3d
       0.019332718 -0.06148985 -0.032099172 0.06670225
000020 59 cf 95 bd 26 74 a1 bd 86 5e f9 3b f5 3a 4f bd
       -0.07314939 -0.07883482 0.007610145 -0.050593335
000030 be b5 ad bd 78 91 2c 3d e3 ba 49 bd a8 d9 1b 3d
       -0.0848193 0.042130917 -0.049250495 0.03804937

fc1.weight f4 [120, 256]
000000 07 07 08 bd 84 2a b9 3a fa c7 11 3d 4d 57 89 bd
       -0.033209827 0.001412705 0.035591103 -0.067061044
000010 1e a3 88 bb aa 26 98 bc 5f a2 0a 3d e6 36 ee bb
       -0.0041698357 -0.018573124 0.033846255 -0.007269728
000020 2c ea 36 3d a1 49 9e 3c f8 b8 21 3d fb 67 1f bd
       0.044656917 0.019322218 0.03948304 -0.038917523
000030 3c 99 73 bb 74 d0 09 3d f8 d7 1d 3d fd de ac bc
       -0.0037170192 0.033646062 0.038536042 -0.021102423
000040 4c 4c 01 bc 12 cc 70 bb 58 ac c4 3d a5 b2 51 3a
       -0.007891726 -0.003674273 0.096031845 0.00079993374
000050 30 c1 c1 bd a9 1f f2 bc 20 3d 95 3c 22 0d 04 3d
       -0.09460676 -0.029556112 0.018217623 0.032239087
000060 74 9a 41 bd 42 88 d5 bc 02 70 c3 3c 83 0d cc bc
       -0.04726644 -0.02606595 0.02385712 -0.024908787
000070 71 9a 02 3d 3a b6 6e ba 7e 39 25 bb 12 02 3d 3c
       0.031885568 -0.00091061334 -0.002521127 0.011536138
000080 97 02 32 bd 15 2c e9 bd e6 f4 ce 3c c9 40 ac bd
       -0.0434595 -0.11385361 0.025263261 -0.08410794
000090 08 e1 bd bc 11 76 38 3d 24 b0 da bc 27 85 46 bd
       -0.023178592 0.045034472 -0.026695319 -0.048466828
0000a0 8c 52 21 bd 1e 7d 03 bd b7 9d ed 3c 6a ac f5 bc
       -0.039385363 -0.032101743 0.029005868 -0.02998944
0000b0 68 be 73 3d ba a2 ab 3d f7 d0 83 bd 8a a6 f0 3c
       0.059507757 0.08380647 -0.06436341 0.029376287
0000c0 65 3b 0c bc 28 1e f5 3c c5 22 18 bd 6e cf e9 3c
       -0.008559083 0.029921606 -0.037142534 0.028541293
0000d0 0a 7c c5 3c 9f 30 8a bc f6 a8 7f 3d 93 5f a5 3c
       0.024106998 -0.016868887 0.062416993 0.020187175
0000e0 19 be 05 3d 8a f0 00 3d 31 02 6c bc d0 18 1d 3d
       0.032651994 0.031479396 -0.014404819 0.03835374
0000f0 d7 7f 27 3c c4 72 67 3d f9 a3 c4 3c 7a 41 7b bd
       0.0102233505 0.056505933 0.02400397 -0.06134174
000100 df 4b 1a 3d 60 6e 6d 3b 47 8b 73 bc 4e 60 64 3d
       0.037670013 0.0036229119 -0.014864749 0.055755906
000110 37 64 8c bc e2 3c 61 bd ba 77 fc 3c 36 ad 0e 3d
       -0.01713763 -0.054989703 0.030818809 0.034833156
000120 a8 91 b2 ba 5d 39 a1 3c 0f 07 97 3b 3c 1a a4 bd
       -0.0013623731 0.019680673 0.0046089957 -0.08012816
000130 c6 e9 a6 bd ea c4 a0 bc 6c 0b 53 bd 7b 02 21 3d
       -0.081500575 -0.019625146 -0.051524565 0.039309006
000140 26 7a 9b bd d3 56 86 bd 24 35 9e bd b1 f3 7a 3d
       -0.07591657 -0.06559529 -0.077249795 0.06126756
000150 82 58 6c 3c ef 63 42 bd e6 bb bb 3c f7 09 43 bd
       0.014425399 -0.047458585 0.022916745 -0.047616925
000160 e5 4b 09 bd ea 06 d8 bd 96 e5 2b bd ab c0 75 bc
       -0.033519644 -0.10548194 -0.041966997 -0.014999549
000170 e2 6c 85 bc 6c 39 51 3c 40 ef a7 3c f0 3e cc bb
       -0.016287271 0.012770038 0.020499825 -0.0062330887
000180 23 ea 57 bd 6e 01 3c 3d 60 77 f9 3c 85 58 35 bc
       -0.052713525 0.0458998 0.03045243 -0.011068468
000190 e0 b7 00 3d 1a 04 4f 3c da 6e 5b bd 19 5a 33 3d
       0.031425357 0.012635255 -0.053572513 0.043787096
0001a0 7d c6 2e bc e1 b0 07 bd 0d b5 f3 3c 2a c6 e0 3c
       -0.0106674405 -0.03312767 0.029749418 0.027438242
0001b0 cc 0e 7f 3d 7a 5d 2e 3d 4a 37 8c bd 8a e0 1d bc
       0.06226997 0.042569615 -0.06846483 -0.009636054
0001c0 02 96 80 bc f1 64 15 3d 9c 83 77 3c 2b 13 7c bd
       -0.01569653 0.03647322 0.015107062 -0.061541717
0001d0 05 cd ad 3c cf cc 7d 3d 62 5e 09 3d 5f ce 56 bd
       0.021215925 0.0619629 0.033537276 -0.052442905
0001e0 29 9c 35 bd 48 40 54 bd 3e d1 89 3c 34 39 80 3c
       -0.04433838 -0.051819116 0.016823407 0.015652277
0001f0 1e b9 c8 3c 8b a4 9f bc ec de 1a bb 3c 66 1c 3d
       0.024502333 -0.01948764 -0.0023631407 0.038183436
000200 5f 59 54 bd 98 58 bb ba a4 6f 41 3d b4 a0 b3 3c
       -0.051843043 -0.0014293371 0.04722561 0.021927215
000210 7d fe 08 bd 1e 32 6d 3d b3 1a 31 3c 82 74 95 bd
       -0.033445824 0.057909124 0.010809588 -0.07297613
000220 58 79 04 3c 15 ae a9 bc 2b a4 07 bc 09 0c f7 3c
       0.008085571 -0.020712892 -0.008278887 0.030157106
000230 d1 09 9b 3d 2e ae 23 bb 67 4f ae bc 1a 72 07 bd
       0.07570232 -0.0024975645 -0.021278096 -0.0330678
000240 88 f9 95 39 53 58 a6 bc 06 60 74 bc ff ee db bc
       0.0002860541 -0.020305788 -0.014915472 -0.02684736
000250 7c f7 40 3d a1 80 c0 3c 3c 72 4e 3c 88 d8 d9 bc
       0.04711102 0.023498835 0.012600478 -0.026592508
000260 12 6b b6 bc 94 d4 c6 bc 9d ae c9 bc 98 7f 79 bd
       -0.022267852 -0.024271287 -0.024619395 -0.0609127
000270 21 38 d0 3c ce 6d 73 3d 3b 33 66 bd b3 54 66 bd
       0.02541739 0.05943089 -0.0562012 -0.05623312
000280 f7 e5 88 bd f2 fc 57 bc 81 3e 9b 3a ce 7e 39 3c
       -0.06684487 -0.013182865 0.0011844189 0.0113217365
000290 38 a4 12 bd 1a 22 b2 bc e9 0d a6 bc 91 e3 e4 3c
       -0.035801142 -0.021744777 -0.020270305 0.027940543
0002a0 d4 c2 e3 3b 19 4b 33 3d bf 23 47 bd 5c 00 d7 bc
       0.0069507156 0.04377279 -0.048618075 -0.026245289
0002b0 7e 00 f4 bc 59 b5 64 bd ec 72 42 bd c4 cb 9e 3b
       -0.029785391 -0.05583701 -0.04747288 0.004846068
0002c0 6b 63 2a 3d cb bf 8c bd 48 fc 95 bb 1b a2 15 bd
       0.04159872 -0.06872519 -0.0045771934 -0.03653155
0002d0 1c 54 32 3c 91 3a 84 bd 54 bd e0 bc 8a a9 89 3c
       0.010884311 -0.06456483 -0.027434029 0.016804475
0002e0 cf 53 8c bc 3a 73 53 bc 28 13 4b 3d ba ed 03 3d
       -0.017129807 -0.01290589 0.049578816 0.032209136
0002f0 bd c4 57 3d 8f b6 a3 3c 0b 60 9d 3c 8e be c7 3c
       0.05267786 0.019984512 0.019210836 0.024382856
000300 72 93 39 3c 04 e1 22 3c af b6 fd bc 7f 9d 59 3d
       0.011326658 0.009941343 -0.0309709 0.053128716
000310 0c a1 12 3d 7e 37 f1 3b 91 e6 0b 3c 2d fb b7 bc
       0.035798118 0.0073613515 0.008538858 -0.022458637
000320 e3 47 17 bd 1a 4b 63 bc f3 02 0e 3c 8f 6e 52 3c
       -0.03693379 -0.013872886 0.008667695 0.012843742
000330 22 6c ea 3c 40 db 0c 3d 30 da 56 bc 4f ed f0 bc
       0.028616015 0.03438878 -0.013113543 -0.029410033
000340 d0 fc 03 3d 42 4b d7 bc ed ca 9b 3c 98 26 81 bd
       0.032223523 -0.026281003 0.019017661 -0.06306189
000350 9a 59 42 3d 21 da 78 bd 60 fe b7 bb 4a 02 d7 3c
       0.047448732 -0.0607549 -0.0056150407 0.026246209
000360 79 4b 34 bd 8a fd e4 bb aa 80 47 3c 82 ff c2 bb
       -0.04401729 -0.006988232 0.012176672 -0.005950869
000370 36 c2 7b 3c 86 39 91 3d fa 42 3f 3d 3e 41 45 bd
       0.015366128 0.0709105 0.046694733 -0.048157923
000380 ac e4 b6 3d 03 83 5b 3c 62 80 90 39 ac 4f d3 bd
       0.089303344 0.013397935 0.00027561473 -0.103179306
000390 48 d6 fe bc 9a d1 3f 3d e5 c6 31 bc 1e 10 ac bc
       -0.031108037 0.04683075 -0.010850643 -0.021003779
0003a0 70 43 68 3d 9d 2b 23 3d be 40 b9 3a 0a d4 76 3d
       0.05670494 0.039836515 0.0014133675 0.06026081
0003b0 ab fe c4 3c 14 11 4e 3d 3b 13 9d 3c b4 c4 a7 3b
       0.024047216 0.050309256 0.019174209 0.0051198844
0003c0 f8 9e 42 3c 65 43 33 bd eb cf 82 3b 46 90 5e 3d
       0.011878721 -0.043765444 0.003992071 0.05433681
0003d0 7b 4f 07 b8 ae df 50 3c a9 73 22 bb 1a f6 7f 3d
       -3.226053e-05 0.012748642 -0.0024788177 0.06249056
0003e0 44 61 ff 3c ae 04 04 3c dc 6e 83 bd e2 6b 4a bd
       0.03117431 0.008057756 -0.06417629 -0.04941929
0003f0 16 85 13 bd 4e dc 48 3d bb 37 36 3c c8 4f ee 3c
       -0.036015593 0.049038224 0.011121686 0.029090777

fc1.bias f4 [120]
000000 b9 0c 1e bd 74 f1 99 3c 76 f6 34 3d b8 b3 e3 3c
       -0.038586352 0.018791892 0.044180356 0.027795658
000010 59 97 2e bd c9 a9 40 bd 76 14 49 3d 78 d9 2c bd
       -0.042624805 -0.04703692 0.04909178 -0.04219958
000020 9d bf 04 3d 6a 85 14 3d eb 25 17 ba 10 85 65 3d
       0.0324093 0.036260046 -0.0005765843 0.0560351
000030 e2 4c 45 bd 12 ce 43 bd a0 a6 58 bd d5 fa 81 bc
       -0.048169024 -0.047803946 -0.05289328 -0.015866676
000040 9a 66 c9 bc 1e 74 57 bd f4 b4 85 bc 67 ac 98 bc
       -0.024585057 -0.052600972 -0.016321637 -0.018636895
000050 ba 7b 8e bc 9b 77 88 3d 6b 57 62 3d 99 0e 08 3d
       -0.017392982 0.06663438 0.05525915 0.033217046
000060 50 b6 b5 3c 3e 45 1f bd b0 6a 22 bd b6 4c 70 3c
       0.02218166 -0.038884394 -0.039652526 0.014666727
000070 08 9f 09 bd 16 72 d1 bc 34 61 ba 3c 4c 1a 86 3d
       -0.03359893 -0.025567096 0.022751428 0.065479845
000080 90 fa 6a 3d 5d 94 64 bc 90 01 82 3c cc 52 5b bd
       0.05736786 -0.013951388 0.015869886 -0.053545758
000090 5c 16 0c 3d e1 92 07 bd 46 ea 2e bd ea c4 4a 3d
       0.03420101 -0.03309906 -0.04270389 0.049504198
0000a0 40 fd 07 bd 4c 40 4b bd ea 0a 38 bd 6e 4c b7 3b
       -0.033200502 -0.049621865 -0.044932283 0.005593828
0000b0 f0 29 40 bd 49 02 a1 3d 2c ae 6d 3c 2c 50 6c 3d
       -0.046914995 0.07861764 0.014506858 0.057693645
0000c0 64 7a 1e bd fb e3 a7 bc 2e ff 0e bd f2 e5 c6 bc
       -0.03869094 -0.020494452 -0.034911327 -0.024279568
0000d0 0e 6b 63 3d 94 83 46 bd 6e 8d 32 3d e6 31 b5 bc
       0.055522017 -0.048465326 0.04359191 -0.02211852
0000e0 a0 bf d0 3c df 11 66 bc 45 6d 06 bc 68 7c 0c 3d
       0.025481999 -0.014042347 -0.008204763 0.03429833
0000f0 a0 f8 e5 bb 28 73 74 bc 81 7b 63 bc 8a bb 28 bd
       -0.007018164 -0.0149200335 -0.013884426 -0.041194476
000100 17 b1 bc 3c a0 18 6f 3c c5 82 26 3d 51 0b 37 bd
       0.023033662 0.014593273 0.040652055 -0.044688527
000110 c0 69 36 bd cc 79 95 bc 2c 7c 4d 3c 72 ea 14 3c
       -0.044534445 -0.018246554 0.012541812 0.009089099
000120 a8 f4 52 3d be c0 b3 bc 64 e0 63 bd 5a 1b df 3c
       0.051502854 -0.021942493 -0.055633917 0.027234722
000130 4c b5 8a bc 74 a9 9f bb 5b 56 3a bc 17 aa 7c 3b
       -0.016932152 -0.0048724953 -0.011373128 0.003855353
000140 a7 d5 1f bd 77 83 99 bc 05 18 d8 bc 55 ec 28 3d
       -0.039022114 -0.018739445 -0.02637864 0.04124101
000150 53 84 6c 3d 8c cf 33 3d 30 36 83 3c 41 68 de bc
       0.05774338 0.043899104 0.01601705 -0.027149322
000160 a8 1e 9a 3d c8 c2 3e 3c 94 e6 af 3b 32 80 43 3d
       0.075253785 0.011643119 0.005368063 0.04772968
000170 94 ee ff bc cf 6c 13 bd 4b de 62 3c 47 b6 4c bc
       -0.031241693 -0.03599244 0.013846944 -0.01249463
000180 00 37 80 bd 42 77 56 3c 9e 19 5f 3c 8c d4 01 bd
       -0.062604904 0.013089957 0.013616947 -0.03169684
000190 fc 77 e4 3b 91 6f 56 bc e1 41 2f 3c 8f 96 06 bd
       0.006972311 -0.013088123 0.010696859 -0.032858428
0001a0 5d a5 38 bd 8e f4 45 bd 84 0f 3f 3b 74 3e 70 3b
       -0.045079578 -0.04832893 0.0029153535 0.0036658319
0001b0 48 92 6f bc 43 50 21 bd 87 43 16 bd e8 49 f8 bc
       -0.0146222785 -0.039383184 -0.036685493 -0.030308679
0001c0 c0 30 23 3d 7d 85 5d 3c a3 96 40 3c 2e 51 c7 bb
       0.039841413 0.013520596 0.011754665 -0.0060826754
0001d0 cb de f0 bc 8d 87 6e bc 8e 22 34 3d 1b 56 bd 3c
       -0.029403111 -0.014558685 0.043978266 0.023112347

fc2.weight f4 [84, 120]
000000 9a b4 42 3d 6a c0 e2 bd b9 54 11 3d 17 77 b1 3d
       0.047535516 -0.11071856 0.03548119 0.08665293
000010 5c 49 be 3d 7c 9c fb 3c d9 60 91 3d c1 54 17 bd
       0.09291336 0.030714266 0.0709855 -0.036946062
000020 74 74 c5 bc 0a de 97 bc 92 af 76 bd 33 b6 a7 3d
       -0.02410338 -0.018538494 -0.06022603 0.081890486
000030 de 5a 8c bb 94 a4 b8 bd bb 21 28 3d 18 9e 08 3d
       -0.004283293 -0.09015766 0.041047793 0.033353895
000040 fb 54 8f 3c 2c 03 00 bc 04 47 6a 3d 48 27 a3 bd
       0.017496577 -0.007813256 0.057196632 -0.07966477
000050 08 e1 93 3d b8 f4 86 bd f0 c4 58 bd a5 0b 85 3c
       0.07220656 -0.06589645 -0.05292219 0.016240904
000060 7d 8c 84 3d f4 0b 86 3c 38 e4 88 bc af 88 47 bd
       0.064721085 0.016363122 -0.016710386 -0.048714336
000070 03 cc 01 3c e4 59 e2 3c 72 5c 52 3d 23 3c cc 3c
       0.007922175 0.027630754 0.051357694 0.02493102
000080 c8 3c 62 3d 6e 73 31 3c 3c 3e 78 bc 6e d4 3c 3d
       0.055233747 0.010830743 -0.015151557 0.046101026
000090 28 75 80 bc 3b 86 6b bd 45 10 42 bd 0c d2 a9 3d
       -0.015680864 -0.05750106 -0.047378797 0.082920164
0000a0 b0 f2 26 3d 66 5f 63 3d fc cb 98 bd 77 b8 dd bb
       0.04075879 0.0555109 -0.07460782 -0.0067663747
0000b0 ff 46 9b bc c3 37 3f bd a8 9d ea 3c 34 11 f8 bc
       -0.018954752 -0.046684038 0.02863963 -0.03028164
0000c0 7a 8d 0c 3c ec e6 9a 3d fb 93 49 bd 26 d0 8a bd
       0.0085786525 0.07563576 -0.04921339 -0.067779824
0000d0 70 a9 c5 bd ff 49 c7 3d c8 3e a1 3d 77 e5 09 bd
       -0.09651458 0.097309105 0.07873303 -0.0336661
0000e0 57 11 55 3d 04 53 a8 bd 2c 59 4d bd 72 01 7d 3c
       0.05201849 -0.08218959 -0.05013387 0.015442239
0000f0 d0 39 00 3d c9 13 d1 bc d6 c4 14 bc f0 78 5f bd
       0.031305134 -0.02552213 -0.0090801325 -0.054558694
000100 a2 97 7c 3c f9 4b 48 3d df 89 73 bd 90 7a e7 bc
       0.015417011 0.04890058 -0.059457656 -0.028256685
000110 8c 16 e3 3d 3c cd 00 3c 79 25 29 bd 5c 20 8d bd
       0.11088285 0.007861432 -0.041295502 -0.06890938
000120 05 9a a5 3d 02 e9 e0 3c 3a f6 bd 3c de 40 6e 3d
       0.080860175 0.027454857 0.023188699 0.05816733
000130 14 31 ad 3c 01 f4 8c 3b b6 a8 c5 3c 4d 2d 4e bd
       0.021141566 0.0043015485 0.0241283 -0.05033617
000140 86 2f 2f bd 36 8b 81 3d a4 ab c9 3d a2 12 9e 3c
       -0.04276993 0.063253805 0.09847191 0.019295994
000150 44 14 8a bd 01 72 59 bd d6 84 3a 3c a2 5a da 3b
       -0.067421466 -0.05308724 0.01138421 0.0066636363
000160 ba a0 94 bd 0e c7 98 bd 6c 58 84 bd 50 d8 8c bc
       -0.07257219 -0.07459842 -0.06462178 -0.01719299
000170 1a 38 a2 3d 16 0f 34 bd 85 e7 53 3d f8 51 3e bd
       0.07920857 -0.0439597 0.051734466 -0.04646489
000180 0b 13 67 bd 55 da c5 3c 09 a8 c5 3d ce 1f 9a bd
       -0.056414645 0.02415196 0.09651191 -0.075255975
000190 30 87 39 3c cc 9e 14 3d da 11 76 ba 9e 47 83 bd
       0.011323735 0.036284253 -0.00093868154 -0.06410144
0001a0 12 dc 68 bc 61 f8 c4 bd 6e 99 47 3c 2e e2 8a 3d
       -0.014212625 -0.09617687 0.012182577 0.067814216
0001b0 64 02 a8 3d 86 c8 09 bd d6 58 f7 bc a9 29 b2 3c
       0.08203581 -0.0336385 -0.030193727 0.02174838
0001c0 0f 5e 4b bd 7e cf 3d bc 17 5f 5e 3d 75 9a 96 3d
       -0.04965025 -0.0115851145 0.054289903 0.07353679
0001d0 72 7e 56 bd fb 57 45 bd bc 0b 8a bd 11 d5 83 3d
       -0.05236668 -0.048179608 -0.067405194 0.064371236
0001e0 9a 87 20 bd 70 ca 15 3d de 18 94 bd 89 f8 c4 3d
       -0.03919182 0.036570013 -0.072313055 0.09617717
0001f0 45 46 8e 3d 56 3d ba 3d b7 81 51 3d f7 45 a8 3d
       0.069469966 0.0909373 0.051149096 0.0821647
000200 78 ed 87 3c 55 10 40 3c 7c 48 87 3d 0b 72 e3 bc
       0.016592726 0.011722644 0.06605622 -0.02776434
000210 4f 4f 08 3d c6 c3 52 3d fc f8 b7 3d 2c 01 40 bc
       0.03327876 0.051456235 0.08983037 -0.011719029
000220 ec 56 9e bd 69 82 84 3d e6 da 89 bc bd cb 72 3d
       -0.07731423 0.06470186 -0.016828012 0.05927633
000230 4e 14 a9 3d dd 3c d9 3d aa 51 ca bc c7 fd b3 3d
       0.08255826 0.10607312 -0.024697144 0.087886386
000240 5c 0a 1b 3d 79 99 c1 3c af 27 b1 bc 6d bb 8b bc
       0.037851676 0.023632752 -0.021625368 -0.017057145
000250 50 8b b8 bd 8f b0 8e bd 5e 2e 37 3c 67 5f 0e 3d
       -0.09010947 -0.0696727 0.011180488 0.03475895
000260 6b 9c 04 bc 75 a7 a7 3d 2a 9a 79 bc 6c 65 5e 3d
       -0.008093934 0.08186237 -0.0152345095 0.054295942
000270 80 1a 45 3d 1e 3d 88 bd b9 5f a5 3d 64 8c d6 3c
       0.048120975 -0.06652282 0.08074898 0.02618999
000280 7c da ab bd 0d 07 ba 3d 7c 37 0c 3d d6 0e a4 3c
       -0.08391282 0.09083376 0.0342326 0.020026606
000290 c7 90 ca bd 6a 7b d9 3c b4 e2 1e 3d e8 fb 40 3d
       -0.09890895 0.026548106 0.03879042 0.047115237
0002a0 ca b9 08 3d fc 25 0c 3d 28 b0 08 3b 3b b1 8f bd
       0.033380307 0.034215912 0.002085695 -0.07016226
0002b0 c1 5b 84 bd 48 75 9a bc 74 1d fb 3c 5e 8d fa bc
       -0.06462813 -0.018854752 0.030653693 -0.030584987
0002c0 f7 04 2d bc 2c f9 33 3c ea 79 13 bd 44 77 38 3d
       -0.010560266 0.0109847 -0.03600494 0.045035616
0002d0 2d df 82 3d ad fb 8c 3c 4f c5 9f 3d a3 c8 5e bc
       0.06390224 0.017209852 0.078013055 -0.01359764
0002e0 b9 19 de 3c c8 37 0f 3d 91 fb b6 bd 18 7a 27 bc
       0.027111875 0.034965307 -0.08934701 -0.0102219805
0002f0 3a 56 e7 bc 94 4d 96 3d 96 41 3e 3c cf 58 86 3b
       -0.028239358 0.073390156 0.011612317 0.0040999423
000300 c4 0c 98 bd 00 90 33 bd 06 e7 4c bd 42 b6 8d bd
       -0.0742431 -0.0438385 -0.05002501 -0.069195285
000310 a0 c8 db bc d0 2c b7 bc 55 43 9a 3d c8 ac ee 3c
       -0.026829064 -0.022360235 0.07532374 0.029135123
000320 39 4c 9e 3d d9 57 06 bd 96 03 39 3c 41 19 71 3d
       0.07729382 -0.03279862 0.011292359 0.058861975
000330 65 eb 43 bd 0d a3 15 3a 05 02 6d 3d 6d 13 57 3d
       -0.04783191 0.00057081954 0.057863254 0.05250876
000340 c0 ca 44 bc 6b e1 b5 3d 2c de 53 3d 8a 6d 47 bd
       -0.01201123 0.08880886 0.05172555 -0.04868845
000350 b0 27 5a bc c6 d3 85 3d 4a 41 37 bd 8c 81 36 bd
       -0.013315126 0.06534533 -0.04474 -0.04455714
000360 50 05 65 3d b6 e5 8b bd a1 0b 9e bd 50 45 30 3d
       0.05591327 -0.06830923 -0.07717062 0.04303485
000370 64 94 c1 bc a7 59 29 bc 98 e8 63 bd 80 22 7a 3b
       -0.023630328 -0.010336316 -0.05564174 0.0038167536
000380 50 3f b5 bd 0d cf 84 3d 04 76 ba bc e9 96 20 bd
       -0.088499665 0.06484804 -0.022761352 -0.03920642
000390 4c 47 ba bd 8b 92 50 3c ac 15 ad bd 5f b8 27 3d
       -0.0909563 0.012730251 -0.08451399 0.040947314
0003a0 df be a4 bd 24 84 29 3c 9c c9 7c 3d 29 6a 98 bd
       -0.08044218 0.010346446 0.061715707 -0.074421234
0003b0 60 00 10 bd 9c 49 04 3d f2 c9 a8 bd ec 7d 80 bd
       -0.035156608 0.032296762 -0.08241643 -0.06274018
0003c0 8f 62 86 3d ec 39 89 3b f3 ef 76 bc 9a 8d 34 3d
       0.06561767 0.004187813 -0.015071857 0.044080354
0003d0 ad 44 af bc 08 bd 79 3c d4 ac 77 bd 8d ab 94 bd
       -0.021395052 0.0152428225 -0.060467556 -0.07259283
0003e0 04 63 c4 3b b7 bd e1 3b 7b ae 30 bd 9a 58 cd bc
       0.005993249 0.006889071 -0.043135148 -0.025066663
0003f0 3e 06 33 bd 55 2e 87 3c 16 5f a8 bd 6b 07 0e bd
       -0.043707125 0.016501585 -0.08221261 -0.034675043

fc2.bias f4 [84]
000000 6c b5 53 3c 30 f3 a6 bd 5b 48 44 3b 06 b0 b7 3d
       0.012921672 -0.08151853 0.0029950354 0.08969121
000010 62 3a 22 3d db 5f 91 3d 19 ce 37 bd 00 2e d7 3b
       0.03960646 0.07098361 -0.044874284 0.006566763
000020 e9 b0 63 bd 4a 6a 9b bd 95 a1 84 3d f1 bb 54 3d
       -0.055588637 -0.075886324 0.06476132 0.051937047
000030 bb 41 a4 3d 0d be b3 3d 17 a8 fb bc 60 60 ba bc
       0.080203496 0.08776484 -0.0307198 -0.022751033
000040 ed fe 82 bd e6 ad 9c bc b2 90 6b bc 91 40 04 3b
       -0.063962795 -0.01912589 -0.01437776 0.0020180086
000050 c6 ac 1c 3c 36 23 61 3c 77 c4 d5 bc ce 29 dc 3c
       0.009562677 0.013741305 -0.026094658 0.026875403
000060 5c ad 6e bd 85 25 c8 bd d6 14 e0 3d 52 24 ab 3c
       -0.058270797 -0.09772781 0.10941474 0.020891342
000070 e1 89 c4 3d 5a 41 ec 3b 21 7d 9f 3d f6 18 30 3d
       0.09596611 0.007209939 0.07787538 0.042992555
000080 4e 09 f1 3c 77 10 d5 3b 5c 6d 90 bd ba ea ef 3c
       0.029423382 0.006502207 -0.07052109 0.029286731
000090 8e 02 e3 3d 8b 30 f0 3d 39 eb 06 3d 1b b3 f7 bc
       0.11084472 0.11728009 0.03293917 -0.030236771
0000a0 4a e3 4f bc d2 81 1a 3c 4a bd d8 3c a1 30 1d 3c
       -0.012688467 0.009430366 0.026457448 0.009594114
0000b0 e5 22 4f bd d0 46 c1 3b 86 ce ad bc 5d 3e df bc
       -0.050570387 0.005898334 -0.021216642 -0.027251417
0000c0 d7 86 af bd da a4 be bc 44 fd 93 3c 31 d5 36 bc
       -0.085706405 -0.023271967 0.018065102 -0.011159227
0000d0 85 71 12 bd 51 57 23 bc 38 8c 9f 3d dd 5b e2 3c
       -0.035752792 -0.009969548 0.077904165 0.027631694
0000e0 2e 03 6f 3d b2 f2 97 bd c7 bb 36 3d 2d 14 ad bc
       0.05835264 -0.07419337 0.044612672 -0.021127785
0000f0 c8 dd 63 3c a2 d3 e4 3a 87 db 12 3c 4c cf 8c bd
       0.013907857 0.0017458091 0.008963472 -0.06875476
000100 45 0a 18 bd b7 ee 79 bd 4a 84 11 3d a8 3c 06 3c
       -0.03711917 -0.06101867 0.03552655 0.0081931725
000110 69 96 bd 3d 24 18 0d bd 41 00 99 3d 5b e8 83 bc
       0.09257204 -0.03444685 0.074707516 -0.016102007
000120 38 5f 90 bd 46 da 62 bd 31 99 8c bd 08 38 39 3b
       -0.070494115 -0.055383943 -0.068651564 0.0028262157
000130 cd 0b fe 3a 54 33 50 bc c3 6a 14 bd a2 56 c2 3d
       0.0019382179 -0.01270755 -0.03623463 0.0948918
000140 6c 16 0c bc 62 a7 3b bd 9b b2 6a bd 0b bb b6 3c
       -0.008550268 -0.045813926 -0.057299238 0.022305986

fc3.weight f4 [10, 84]
000000 28 03 5d bd 79 ba 64 bd 0b 4c 33 3c 11 09 30 3e
       -0.05395809 -0.055841897 0.010943423 0.17190959
000010 32 5c 23 3e b1 70 10 be 42 f2 ac bd 79 89 2f be
       0.15953138 -0.14105488 -0.084446445 -0.17142285
000020 74 4e 17 be 02 bb dd 3d 40 ea 21 bd 36 0d 95 3e
       -0.14776021 0.108266845 -0.03953004 0.29111642
000030 1a 2a df 3b d7 ee 10 be d8 7d 01 3d b1 89 23 3d
       0.006810439 -0.1415361 0.031614155 0.039926235
000040 1d db 91 bd 5e 1a 8c 3d 70 9e 5e 3d 21 4f cb bd
       -0.07121871 0.06840967 0.054350317 -0.09927202
000050 ec 5c ad bb 38 2b 2e be 97 c5 85 bd 04 55 c8 3c
       -0.005290618 -0.17008674 -0.06531828 0.024454601
000060 9b 6c 0c 3d 2c 05 b9 bc c8 5b 67 3e 38 ac 9f bd
       0.03428326 -0.022585474 0.22593606 -0.0779652
000070 8e 7e 77 bd 17 ea d9 3c 65 9d 4c 3d 86 1f aa 3c
       -0.060423426 0.02660088 0.04995479 0.020766985
000080 b1 c8 7b bd 16 9b e0 bd 76 32 29 3d 4a 85 34 be
       -0.06147069 -0.1096708 0.04130789 -0.1762897
000090 d4 13 07 be 3d 11 10 3d 8b b2 65 3e d0 4d d6 bd
       -0.13191158 0.03517269 0.2243139 -0.1046406
0000a0 82 96 5f be ba 23 1f 3e 1d a8 df bd 0c 86 b8 bd
       -0.21834758 0.15540972 -0.10920737 -0.090099424
0000b0 f0 bb e0 3e ea 07 80 be 7f 40 84 3d f8 a9 e1 bd
       0.43893385 -0.25006038 0.06457614 -0.11018747
0000c0 e8 3b 4e 3d ee cd 88 bd 26 df b6 bd 19 69 33 bc
       0.0503501 -0.06679903 -0.08929281 -0.01095035
0000d0 f4 1c 23 bd 97 f0 93 3d 94 b0 65 be 86 18 3a 3d
       -0.039822534 0.07223623 -0.2243064 0.045433544
0000e0 4a 80 33 bc f9 bf 27 bd 57 27 f8 bc b1 6e 99 ba
       -0.010955879 -0.040954564 -0.030292196 -0.0011705962
0000f0 62 f5 76 bd 72 a4 f9 3c 02 84 86 be ff cd fd 3d
       -0.06029261 0.030473921 -0.2627259 0.12392806
000100 d0 4d aa bb ba 07 62 bc 1e 92 e3 bb 52 df 1e be
       -0.0051972643 -0.0137957875 -0.0069449088 -0.15514877
000110 c2 b1 0e 3e 78 f2 0c be b6 e1 4b be 8f 0b 03 bd
       0.13934997 -0.1376437 -0.1991032 -0.031993445
000120 bf d4 15 be 83 8f 70 bd fa 5a de bd 9f b4 fb bc
       -0.14631937 -0.058730613 -0.10857196 -0.030725775
000130 0e b1 df 3d 3c 3b 4a 3e 40 e5 49 be f9 9c e4 3d
       0.109224424 0.19749159 -0.19716358 0.11162753
000140 ee b7 00 be 9c 79 11 3e 99 ab bc bc a2 52 4c bd
       -0.12570164 0.14206547 -0.023031043 -0.049883492
000150 f8 01 e9 bd 9a 0a 01 3c 7d a2 1e be 94 8d c4 3c
       -0.11377329 0.007876063 -0.15491672 0.023993291
000160 10 1a 3e be 3e b0 c2 bd 9c e8 fb 3c ba ea e7 bc
       -0.1856463 -0.09506272 0.030750565 -0.028310169
000170 e5 10 bf bc 90 48 45 3c b8 60 e5 3a 69 df bb 3c
       -0.023323486 0.012041226 0.0017500138 0.022933679
000180 a8 bf c6 3e a2 27 f4 bc 24 bf dd bd fe 96 43 be
       0.38818097 -0.029804055 -0.10827473 -0.19100568
000190 c2 21 61 3d 52 58 f2 bc 54 6a 6c 3d 81 1e d4 bd
       0.054963835 -0.02958313 0.05771859 -0.10357381
0001a0 9f f4 32 bc cf a8 3a 3e 40 65 44 3c 2a fb 91 bd
       -0.01092258 0.18228458 0.0119870305 -0.07127984
0001b0 31 a9 d7 3d 96 66 35 bd 07 cf 31 bd 7a 56 8b 3d
       0.105303176 -0.044287287 -0.043410327 0.068036035
0001c0 b0 c8 e9 3c 7d 44 d8 3d 71 6e 54 be d8 c1 2c be
       0.028538078 0.10559938 -0.20745255 -0.1687082
0001d0 6e 57 af bd e8 ef ac 3d 64 c1 ea bc d2 b7 32 3e
       -0.08561598 0.08444196 -0.028656669 0.17452934
0001e0 12 c4 83 3d a6 d4 48 3e 19 c2 81 bd 80 93 35 bd
       0.06433882 0.19612369 -0.06335849 -0.04433012
0001f0 55 fe 87 3e 6a 9a 1d 3d 94 14 24 be 78 f2 9a be
       0.26561227 0.03847734 -0.16023475 -0.30263114
000200 48 ae 45 be cb a3 0b bd d2 ec b6 3d 0e d2 42 3d
       -0.19304764 -0.034091752 0.08931889 0.047563605
000210 b3 bc 96 3d d3 97 c2 3c a4 3a 08 3e c8 27 b2 3d
       0.0736021 0.023754036 0.1330362 0.08698994
000220 9e b2 4a 3e c4 30 77 bd 63 b8 01 be a1 a0 24 3e
       0.197947 -0.06034924 -0.12667994 0.160769
000230 f2 e6 af 3c d3 91 82 3d 46 d6 bb bd 8e 39 ee bd
       0.021472428 0.0637547 -0.09171729 -0.116320714
000240 d4 d9 97 bc 43 6a bf bd 7a 12 8c 3e b1 3c db 3c
       -0.018536486 -0.0934644 0.27357846 0.026762338
000250 ae 0a 0a bd f3 4a 25 be e0 13 be 3d c4 d9 75 3e
       -0.03370159 -0.16141872 0.092811346 0.24008852
000260 38 26 7d bd ad f8 88 bd 35 cc 3c be 7f e2 01 3c
       -0.061804026 -0.06688056 -0.18437274 0.007927536
000270 fb 08 ed bd 0e 99 6f bd aa b6 7e bd 4c e0 b1 bd
       -0.115739785 -0.058495574 -0.06218592 -0.08685359
000280 6a 22 45 bd c8 31 83 3d dd b4 b9 bd 8e 65 69 bd
       -0.048128523 0.064059794 -0.090677 -0.056981616
000290 15 af b2 bc b8 65 20 bd d7 f6 b7 3d fa 73 72 3d
       -0.021812001 -0.039159507 0.08982628 0.059192635
0002a0 6a 3b a6 3d 36 e9 1c bd fd 69 d1 bd 0b 48 34 be
       0.08116801 -0.038308345 -0.10225294 -0.17605607
0002b0 39 a2 0c 3e 70 a6 6d 3e 2b 39 d2 bc 50 5a 0f 3e
       0.13733758 0.23208022 -0.025662025 0.13999295
0002c0 63 7a f3 3c f3 ed 38 bd 00 26 34 bc 82 c7 f1 bc
       0.029721444 -0.0451488 -0.010995388 -0.029514078
0002d0 99 c3 08 be 2f 2f 97 bb ec a2 93 ba 0e d0 30 be
       -0.13355865 -0.004613779 -0.0011263764 -0.17266867
0002e0 6a 98 ce bd 9d 7e 58 be da 80 6b bd 71 a4 16 be
       -0.100876644 -0.21142049 -0.05749593 -0.14711167
0002f0 81 11 fd 3c e6 8e 18 bd fd 65 45 3d 87 c1 45 bd
       0.030892136 -0.037245654 0.048192967 -0.048280265
000300 30 ac 88 bd 12 10 10 3e 02 33 42 3e 87 38 70 3d
       -0.06673467 0.1406863 0.1896477 0.05864766
000310 1b ef 48 bd 8a 98 01 bd 5d e9 f9 bd be bf 60 bd
       -0.049056154 -0.031639613 -0.12202714 -0.05487036
000320 22 3d 26 3e 19 c7 76 bd 43 35 18 be 74 3b 48 bd
       0.16234258 -0.060248468 -0.14864068 -0.048884824
000330 cd 57 20 be ee 7d e1 bd 27 45 4c 3e 98 de 3f bc
       -0.15658493 -0.11010347 0.19948255 -0.011710785
000340 57 af 06 3e 52 71 52 3c 64 a7 d2 bb f8 2b 34 be
       0.13152824 0.0128444005 -0.006428646 -0.17594898
000350 50 1b 02 3c 56 e2 02 be 25 df cb bc d2 d8 90 bb
       0.007941082 -0.12781653 -0.024886677 -0.0044203782
000360 f6 6f ae 3d 6f 83 1f bd 35 e3 3a 3e ae b0 be 3c
       0.085174486 -0.038943704 0.18250735 0.023277607
000370 f1 f4 b7 3d fe 81 dc bd 3a af 37 3e 53 c8 70 3e
       0.08982266 -0.107669815 0.17937937 0.23513918
000380 d7 e6 af 3d c0 37 9b 3d 95 f7 b1 3c c9 3f a2 3d
       0.08588951 0.07578993 0.021724502 0.07922322
000390 dc 53 57 3d a4 3b c0 3d 5f 8d f9 bc c0 42 fd 3d
       0.05257021 0.093863755 -0.030462919 0.12366247
0003a0 cd 9d 93 bc e2 5e 6e 3c 8d 27 2a 3e 3e 9f 1e bd
       -0.018019581 0.014548989 0.1661665 -0.038726084
0003b0 1e 04 f9 bc 9c 7f 34 3d 3c f6 72 3d b7 fc 65 bd
       -0.030397471 0.04406701 0.05931686 -0.05614921
0003c0 5e 76 3e bd 30 ca de bc fb 58 de bc a0 12 ff bd
       -0.046499602 -0.02719602 -0.027142039 -0.12454724
0003d0 57 7a 08 bd d2 a0 3d 3d 2e 2d 9e bd 6c 16 f9 bd
       -0.033319797 0.04629595 -0.07723461 -0.1216248
0003e0 ce d0 8f 3e 36 57 81 3e 24 9c 85 bd 2a 2b 35 3b
       0.28088993 0.2526185 -0.06523922 0.0027644136
0003f0 0c e2 03 bd 6f 10 b2 3c 0c 6d 2a 3b 56 f2 e4 bd
       -0.032197997 0.021736352 0.0026004938 -0.111790344

fc3.bias f4 [10]
000000 77 1e 59 3c c1 63 c4 bb ec 9c 86 bd f4 fd 6f bd
       0.013251892 -0.005993337 -0.06572899 -0.058591798
000010 a2 ad 3d 3c 7e 37 ba bd f4 75 41 be bb 38 24 3d
       0.011577042 -0.090926155 -0.18892652 0.040093165
000020 84 c6 ca 3c 1b c3 20 3d
       0.024752863 0.039248567
