global_mnist_cnn.pt (torch, 181781 bytes, 10 tensors)

conv1.weight f4 [6, 1, 5, 5]
0	0xbc48952f	-0.012242599
1	0xbdb0b089	-0.086274214
2	0xbe57f1eb	-0.21088378
3	0xbdf071b0	-0.11740434
4	0x3d70be5c	0.05877529
5	0x3e378206	0.17920694
6	0x3da16aa2	0.07881667
7	0xbe03db3a	-0.12876597
8	0xbf154891	-0.5831385
9	0xbee57219	-0.44813612
10	0xbcc7d1a0	-0.02439195
11	0xbd8561d1	-0.065127976
12	0xbd8f9dfb	-0.07012554
13	0xbecaa2f4	-0.39577448
14	0x3d9d715a	0.07687636
15	0x3d9ff764	0.07810858
16	0x3d986295	0.07440678
17	0x3d91aa91	0.07112611
18	0x3e966fdb	0.29382214
19	0x3e65bfd9	0.22436465
20	0x3dda4e6e	0.106594905
21	0x3e82c4a7	0.2554066
22	0x3e96ebea	0.29476863
23	0x3f016beb	0.50555295
24	0x3e676035	0.22595294
25	0xbe453dda	-0.19261876
26	0xbebce601	-0.3689423
27	0xbda0243b	-0.078194104
28	0xbdcf1db0	-0.10113084
29	0xbdf93e69	-0.12170107
30	0xbe71f74c	-0.23629493
31	0xbe01e87f	-0.12686346
32	0xbec2a096	-0.38013142
33	0xbe50c49e	-0.20387504
34	0xbe843578	-0.25822043
35	0x3dc4f08a	0.09616192
36	0xbe8b9344	-0.27260792
37	0xbe072d57	-0.1320089
38	0xbe87ceba	-0.26524907
39	0xbe2fef24	-0.17181069
40	0x3e2738a8	0.16330206
41	0xbd070431	-0.03296298
42	0xbdbe3087	-0.092865996
43	0x3d9546fa	0.07288928
44	0x3d5fa3f0	0.054599702
45	0x3e316f66	0.17327651
46	0x3ddc9914	0.10771385
47	0x3ea22ca8	0.31674695
48	0x3e9c3fff	0.30517575
49	0x3e51cbc6	0.2048789
50	0x3e43409a	0.19067612
51	0xbd313307	-0.043261554
52	0xbdc849ee	-0.09779726
53	0x3e935cc6	0.28781718
54	0x3ef06184	0.469494
55	0x3ec02e39	0.37535265
56	0x3d3303f8	0.043704957
57	0x3eb937be	0.3617534
58	0x3e89a361	0.2688246
59	0xbdbfe4d1	-0.09369815
60	0xbdbbfe0a	-0.091793135
61	0xbd816bf0	-0.063194156
62	0xbc521c90	-0.012824193
63	0xbe1a0c77	-0.15043817
64	0xbe50b770	-0.20382476
65	0xbe123462	-0.14277795
66	0xbae75c71	-0.0017651451
67	0xbdca61d1	-0.09881938
68	0xbe5adfde	-0.21374461
69	0xbeb54ce4	-0.35410225
70	0x3d68f185	0.056870956
71	0xbe791e3d	-0.24327941
72	0xbeb04383	-0.34426507
73	0xbdd5f18a	-0.104464605
74	0xbd4827ec	-0.048866197
75	0x3e14fdc3	0.14549927
76	0x3e8bdb13	0.27315578
77	0x3e2bf0d7	0.16791092
78	0x3d9c7514	0.076395184
79	0x3de0047b	0.109383546
80	0xbdad4a56	-0.08461444
81	0x3d0db08c	0.034592196
82	0x3e88615e	0.26636785
83	0x3eaf45c8	0.34232926
84	0xbe03ed8a	-0.12883583
85	0xbe70026b	-0.23438422
86	0xbdbf4421	-0.093391664
87	0xbdc195a9	-0.094523735
88	0x3e43c13d	0.19116683
89	0x3dc5ec6e	0.09664236
90	0xbe92ea3a	-0.28694326
91	0xbe6419e3	-0.222755
92	0xbe46f69d	-0.19430013
93	0x3af3f2ef	0.0018611829
94	0x3e53fdf8	0.2070235
95	0x3d50e5d1	0.05100042
96	0xbe476fb3	-0.19476204
97	0xbddd61de	-0.10809682
98	0xbd094f93	-0.033523154
99	0x3e86cb05	0.26326767
100	0xbd83a8fc	-0.064287156
101	0x3de3e7fc	0.11128232
102	0x3e222b0b	0.15836732
103	0x3e53e8f3	0.20694332
104	0xbcc7ee1b	-0.02440553
105	0xbe86cee9	-0.26329735
106	0xbe72ee3e	-0.23723695
107	0x3eb88cb5	0.3604485
108	0x3e959996	0.2921874
109	0xbe89aeea	-0.2689126
110	0xbea93dcc	-0.3305496
111	0xbe1af654	-0.15133029
112	0x3e3b01a0	0.18262339
113	0x3f09f1f0	0.5388479
114	0x3cc0d858	0.02354066
115	0xbec45704	-0.38347638
116	0xbc9e27fa	-0.019306172
117	0x3e12a3e7	0.14320336
118	0x3eedf08e	0.4647259
119	0x3d947765	0.07249335
120	0xbe6a7b7a	-0.22898665
121	0x3e2b909f	0.16754387
122	0x3ea01cfc	0.31272113
123	0x3db8f83d	0.09031723
124	0x3c69b740	0.014264882
125	0xbb0bef8e	-0.0021352503
126	0x3dd6c7db	0.10487338
127	0xbd7dc43d	-0.061954726
128	0xbe60f8fe	-0.21969983
129	0xbdeb1fd5	-0.11480681
130	0x3dd45e8c	0.10369596
131	0x3ed916d2	0.42400223
132	0x3f0ca8ba	0.54944956
133	0x3e5cfa66	0.21579894
134	0x3cb155ae	0.0216473
135	0x3d7505cb	0.059819978
136	0x3d45255f	0.048131343
137	0x3ed1763f	0.40910527
138	0x3efa66f7	0.4890668
139	0x3e7f5540	0.24934864
140	0xbee7b8fc	-0.4525832
141	0xbead9771	-0.33904603
142	0xbe9bbd8c	-0.3041805
143	0xbd1818df	-0.037133094
144	0xbb718a64	-0.003685617
145	0xbeaa554f	-0.3326821
146	0xbecf1555	-0.40445963
147	0xbe9dda3c	-0.30830562
148	0xbed54171	-0.4165149
149	0xbd623bab	-0.055232685

conv1.bias f4 [6]
0	0x3d12e8d6	0.03586658
1	0x3de0aa86	0.10970025
2	0xbe01b337	-0.12666021
3	0xbde23ddb	-0.11046954
4	0xbe4109b3	-0.18851356
5	0xbc8771ce	-0.016533758

conv2.weight f4 [16, 6, 5, 5]
0	0xbd9c7fb2	-0.076415434
1	0xbdd6d8a6	-0.10490541
2	0xbbd1f860	-0.0064077824
3	0x3d2745d9	0.040838096
4	0x3dddae60	0.10824275
5	0xbcceadbd	-0.02522933
6	0xbdbc62dc	-0.091985434
7	0xbe40789b	-0.18796007
8	0xbc7336bf	-0.014844595
9	0x3d1a8007	0.037719753
10	0xbdc49b8c	-0.09599981
11	0xbe063df1	-0.13109566
12	0x3c32f92f	0.010923668
13	0x3df1b87b	0.11802765
14	0x3db66eb9	0.089078374
15	0x3dbc13b3	0.09183445
16	0xbd8d4aef	-0.06899058
17	0x3cbcb3ee	0.023035016
18	0x3dd6eea7	0.10494738
19	0x3d76f93c	0.060296282
20	0xbe2661c6	-0.16248235
21	0xbdcd1962	-0.10014607
22	0xbdcd24a2	-0.10016753
23	0xbde4fbad	-0.11180816
24	0xbdc15f0f	-0.09441959
25	0x3abdac4c	0.0014470904
26	0xbd331ec4	-0.043730512
27	0xbe0d6151	-0.13806655
28	0x3b96c487	0.0046010646
29	0xbc1c464d	-0.009538245
30	0xbceeb2f1	-0.02913806
31	0xbdf577ba	-0.11985727
32	0xbd8a4f43	-0.06753399
33	0xbe432363	-0.19056468
34	0xbb911e63	-0.004428671
35	0xbe060ad4	-0.13090068
36	0xbdf30298	-0.11865729
37	0xbe0f0c39	-0.13969506
38	0xbcb42504	-0.021990307
39	0x3c9b9828	0.018993452
40	0xbd16052c	-0.036626026
41	0xbca3cf9b	-0.019996455
42	0xbe1bed14	-0.15227157
43	0x3ccec8c5	0.025242219
44	0x3d8fbec8	0.070188105
45	0xbe08ad6d	-0.13347407
46	0xbdf98da6	-0.121852204
47	0xbcb4d09b	-0.022072127
48	0xbb4e519d	-0.003148175
49	0x3c790187	0.015198118
50	0xbdd3fdf2	-0.103511706
51	0xbd62f111	-0.05540568
52	0xbdae238f	-0.08502876
53	0x3d6bc731	0.05756301
54	0x3cc7bf1b	0.024383118
55	0x3d0dfc19	0.034664247
56	0xbd28530f	-0.041094836
57	0x3d8a721e	0.067600474
58	0x3c9a8a19	0.018864678
59	0x3d510170	0.05102676
60	0xbccc26ec	-0.024920903
61	0xbd5a0b32	-0.053233333
62	0x3d031c3f	0.03200936
63	0x3d159cb7	0.036526408
64	0xbd3e8f52	-0.0465234
65	0xbdca2601	-0.0987053
66	0xbda36dcc	-0.079799265
67	0x3d17f9f3	0.037103605
68	0x3c87a8f9	0.016560065
69	0x3d652b9d	0.055949796
70	0xbc6f8bde	-0.014620749
71	0xbda7ce83	-0.08193686
72	0x3e0923f6	0.13392624
73	0x3dc54de8	0.09634
74	0xbd31cab1	-0.043406192
75	0xbc4b3ea6	-0.012405073
76	0x3d6db34e	0.058032326
77	0x3c9f336b	0.019433698
78	0xbe0e6822	-0.13906911
79	0xbbea00d1	-0.0071412106
80	0x3d81aa9f	0.063313715
81	0x3dadbdbe	0.08483456
82	0xba29174b	-0.00064503093
83	0xbd875e92	-0.06609835
84	0xbd812dd1	-0.06307567
85	0x3d89f075	0.06735317
86	0x3c5d2154	0.013496716
87	0xbd0a1696	-0.033712946
88	0xbd28939c	-0.041156396
89	0xbe087ab5	-0.13328059
90	0xbd35652c	-0.04428594
91	0x3cdd32e6	0.02700181
92	0xb95fd1a2	-0.00021345032
93	0xbdb1ff4b	-0.086912714
94	0xbd039224	-0.032121792
95	0x3c4cccc6	0.012499994
96	0x3d1bdb04	0.038050666
97	0xbcb55ecc	-0.02213993
98	0x3db86aca	0.090047434
99	0x3d82427d	0.06360338
100	0xbde6c257	-0.11267536
101	0x3df9db4f	0.12200033
102	0x3ea935f3	0.33048972
103	0xbd4d9fda	-0.050201274
104	0xbe6b7d31	-0.22996975
105	0xbd98d0c6	-0.074616954
106	0x3e7c158a	0.24617592
107	0x3e9f4de7	0.31114122
108	0xbd49e0fa	-0.04928682
109	0xbe5c3c35	-0.21507342
110	0xbc9b46d8	-0.01895468
111	0x3e1c6d6b	0.15276115
112	0x3e27ec4e	0.16398737
113	0xbd9bd16a	-0.07608302
114	0xbe398ea2	-0.18120816
115	0x3d25d177	0.040482964
116	0x3dda2391	0.10651315
117	0xbd0ecd39	-0.034863684
118	0xbe3ea66f	-0.18618177
119	0xbe477228	-0.19477141
120	0xbda5da00	-0.08098221
121	0x3c354af1	0.011065231
122	0xbe0da910	-0.13834023
123	0xbe31df8e	-0.17370436
124	0xbe94076b	-0.2891191
125	0xbd9935b3	-0.074809454
126	0xbdc12eb9	-0.0943274
127	0xbd9903b5	-0.0747141
128	0xbd6db18a	-0.058030643
129	0xbd3f1bfa	-0.04665754
130	0x3c991ecb	0.018691441
131	0xbd970d77	-0.07375615
132	0xbe806ed4	-0.25084555
133	0xbda7fbd0	-0.08202326
134	0x3c65999b	0.014013673
135	0x3d35b92e	0.044366054
136	0xbe1de19d	-0.15418096
137	0xbe21636d	-0.15760584
138	0xbce66c60	-0.02812785
139	0x3c30dff6	0.010795584
140	0xbd4a7fad	-0.049438167
141	0xbd0b10ff	-0.033951756
142	0x3b401747	0.002931075
143	0xbbc527fd	-0.00601673
144	0xbd481d3f	-0.048856016
145	0xbc76e16b	-0.015068392
146	0x3c9291eb	0.017891845
147	0x3dd75c86	0.10515694
148	0x3df99215	0.12186066
149	0x3cffd835	0.031231025
150	0xbe034844	-0.12820536
151	0xbe2ddcad	-0.16978712
152	0xbe33fd1a	-0.1757702
153	0x3baac69a	0.0052116634
154	0x3b82b47d	0.003988801
155	0x3d1bfffd	0.038085926
156	0xbdd5a1a1	-0.10431219
157	0xbe476421	-0.1947179
158	0xbe6f3f24	-0.2336393
159	0xbe83dd26	-0.2575466
160	0x3dc42cbe	0.095788464
161	0xbc83b70a	-0.01607849
162	0xbcb5fb1f	-0.02221447
163	0x3c5b8613	0.013398665
164	0xbd9e8efd	-0.077421166
165	0x3cdd1214	0.02698616
166	0x3e0ae700	0.13564682
167	0x3e25178c	0.16122264
168	0x3e486c2e	0.19572517
169	0x3e7cc923	0.24686103
170	0x3d808879	0.0627603
171	0x3cf47a08	0.029843345
172	0x3d2eaac6	0.04264333
173	0x3cd96e6d	0.026541913
174	0x3dd7cb59	0.10536832
175	0xbbc14cd4	-0.005899051
176	0xbd3a6a01	-0.04551125
177	0x3d0b76bc	0.03404878
178	0xbdc0aeab	-0.09408315
179	0x3bb3f4bf	0.0054918225
180	0x3d886e19	0.066616245
181	0xbcd59aa8	-0.026074722
182	0xbd4a112e	-0.04933279
183	0xbd8acda4	-0.06777504
184	0xbb927f9a	-0.0044707777
185	0xb88daf58	-6.756064e-05
186	0x3dac3347	0.08408218
187	0x3e05b86d	0.13058634
188	0x3e018e86	0.12652025
189	0x3d50945b	0.050922733
190	0x3c613197	0.013744733
191	0x3dbc13c8	0.091834605
192	0x3e0ccf95	0.13751061
193	0x3e2ca2a7	0.16858922
194	0x3de8d01e	0.1136782
195	0x3dc7842f	0.09742009
196	0x3d3d6b82	0.046245106
197	0x3d132683	0.0359254
198	0xbd2ae636	-0.041723453
199	0x3dad2336	0.084539816
200	0x3d416720	0.04721749
201	0x3d9eea47	0.077595286
202	0x3d8967ee	0.06709276
203	0x3d8d0963	0.06886556
204	0xbc3c065c	-0.011476126
205	0x3ce5f701	0.028071882
206	0xbdbc7e76	-0.09203808
207	0xbd03af18	-0.032149404
208	0x3cb1a838	0.021686658
209	0x3c5c4487	0.013444073
210	0xbd3e2536	-0.046422206
211	0xbcb00911	-0.021488698
212	0xbb7b2e18	-0.0038327035
213	0xbd786018	-0.060638517
214	0x3b398831	0.0028309936
215	0xbc350f1a	-0.011050964
216	0x3d20f8ac	0.039299652
217	0x3ce0ca83	0.027440315
218	0xbdfea235	-0.12433282
219	0xbdd3dda4	-0.10345009
220	0x3daff5b7	0.08591788
221	0x3dbc543e	0.091957554
222	0xbc0ba172	-0.008522378
223	0xbd3d6ac6	-0.046244405
224	0xbc15056b	-0.00909553
225	0xbd91e550	-0.07123816
226	0xbd949979	-0.07255835
227	0x3dc69909	0.09697158
228	0x3bc94daf	0.006143294
229	0x3d2a1238	0.04152128
230	0xbdf3d6e2	-0.1190622
231	0xbd971d2a	-0.073786095
232	0xbd92da34	-0.07170525
233	0xbd6b3aa8	-0.057428986
234	0xbcef1976	-0.029186945
235	0xbd24e1f5	-0.040254552
236	0xbd02498e	-0.03180843
237	0xbb10affc	-0.002207755
238	0xbdb2a946	-0.087236926
239	0x3be60d65	0.0070206397
240	0xbe1aec4e	-0.15129206
241	0xbda857ba	-0.082198575
242	0xbd7b362c	-0.06133096
243	0x3c9ce0e3	0.019150203
244	0xbe21f2ba	-0.15815249
245	0xbd929dcd	-0.07159004
246	0xbb3bd914	-0.0028663324
247	0xbbfd0b9a	-0.0077223303
248	0x3d3b1f7d	0.045684326
249	0x3d444e96	0.047926508
250	0xbdeddeb9	-0.116147466
251	0xbd9ffcd0	-0.07811892
252	0xbd896676	-0.06708996
253	0x3d42c695	0.047552664
254	0xbcb874cf	-0.022516636
255	0xbe82136b	-0.2540544

conv2.bias f4 [16]
0	0x3d084392	0.033267565
1	0xbd5c8766	-0.053840064
2	0xbd70a0f7	-0.058747258
3	0x3d67a27d	0.056551445
4	0x3d1511e8	0.03639403
5	0xbd8e1f5e	-0.069395766
6	0xbd70c9a9	-0.058786068
7	0xbd23b182	-0.039964207
8	0x3cb93a61	0.022610845
9	0xbc502c81	-0.012705923
10	0xbcfc44c1	-0.030794503
11	0x3cd2ce01	0.025732996
12	0xbd9cff74	-0.07665911
13	0x3ce7a491	0.028276714
14	0x3d245846	0.040123247
15	0xba8c3d33	-0.0010699391

fc1.weight f4 [120, 256]
0	0x383e9833	4.5441277e-05
1	0xbd8627ab	-0.06550535
2	0x3c7921f5	0.01520585
3	0x3cb70a6a	0.022343833
4	0x3ca6c728	0.020358637
5	0xbd036fb0	-0.032088935
6	0xbadd81f6	-0.0016899693
7	0x3df15b1c	0.11784956
8	0x3ca0499b	0.019566348
9	0xbd5ceca9	-0.053936634
10	0xbe1dbf49	-0.15405001
11	0xbcc05187	-0.023476375
12	0x3cb2617b	0.021774998
13	0x3b1063d6	0.0022032163
14	0xbe176114	-0.14783126
15	0xbbf86e2c	-0.007581493
16	0x3d80a255	0.062809624
17	0x3d7dd719	0.06197271
18	0xbd1062bc	-0.03525041
19	0xbd582600	-0.052770615
20	0xbc495886	-0.012289172
21	0xbbf1c409	-0.0073781055
22	0xbd6d9b1c	-0.058009252
23	0xbd0444fd	-0.032292355
24	0x3cc8f412	0.024530444
25	0x3d8084eb	0.06275352
26	0x3d708069	0.05871621
27	0xbd7d5bd4	-0.061855152
28	0x3d42df6b	0.04757635
29	0xbc5437b9	-0.012952738
30	0x3d58a677	0.05289313
31	0xbba57ff1	-0.005050652
32	0x3c009334	0.007847596
33	0x3a71b78c	0.0009220771
34	0x3d65bc74	0.056087926
35	0x3cbc72c8	0.02300395
36	0xbcb9d0dc	-0.0226826
37	0xbd1e15b0	-0.0385949
38	0x3a12ab2f	0.00055949664
39	0xbceebffd	-0.029144282
40	0xbcf19030	-0.0294877
41	0xbdcf772f	-0.10130154
42	0x3d683a7c	0.0566964
43	0xbd1c2432	-0.038120456
44	0xbc7a15e0	-0.0152640045
45	0x3d45fad9	0.04833493
46	0xbc8a534c	-0.016885422
47	0xbd0443ec	-0.032291338
48	0x3d9ff9eb	0.0781134
49	0xbc403e39	-0.011733585
50	0xbdb75252	-0.08951248
51	0x3c9fd2c3	0.019509679
52	0xbd0e720f	-0.034776744
53	0xbd31ca2f	-0.043405708
54	0x3d313f83	0.04327346
55	0xbc7ad725	-0.0153100835
56	0x3c3234b1	0.01087682
57	0x3c88852c	0.016665064
58	0x3dff60f9	0.12469668
59	0xbce14039	-0.027496444
60	0xbd0256b9	-0.031820986
61	0x3d8c54ab	0.06852087
62	0x3a3a4b3d	0.00071065483
63	0xbd39e2a8	-0.045382172
64	0xbcb396c1	-0.021922471
65	0xbd393abc	-0.04522203
66	0xbcd66499	-0.026171016
67	0x3da55928	0.08073646
68	0x3d92a9d2	0.07161297
69	0x3b50bf55	0.0031852324
70	0xbd412451	-0.047153775
71	0xbd8c81e2	-0.06860711
72	0x3d75c715	0.060004313
73	0xbbb3ca1b	-0.0054867393
74	0x3d854e46	0.0650907
75	0x3a8338f8	0.0010011485
76	0x3c964244	0.018342145
77	0xbd3554a2	-0.044270165
78	0x3d9d3318	0.07675761
79	0x3d0bcd25	0.034131188
80	0x3db8585e	0.0900123
81	0xbd142d77	-0.03617617
82	0x3cd837be	0.026393767
83	0xbd0c5a37	-0.034265723
84	0xbd20f1fd	-0.039293278
85	0x3cb358e5	0.021892974
86	0x3d93edb9	0.072230764
87	0x3d209e5b	0.03921352
88	0xbdce2be4	-0.10066965
89	0xbce0478f	-0.027377872
90	0xbd8ede6b	-0.069760166
91	0xbbc40557	-0.005982082
92	0x3c50477e	0.012712358
93	0xbc3bff28	-0.011474408
94	0x3d95b0fd	0.073091485
95	0x3be334b6	0.006933774
96	0x3d003f4c	0.031310365
97	0x3be9ebd0	0.0071387067
98	0xbc445021	-0.011981995
99	0x3c2fdab7	0.010733298
100	0xbd549591	-0.05190045
101	0xbded8cff	-0.115991585
102	0xbdcd8e01	-0.10036851
103	0xbd7ce76b	-0.061744135
104	0x3c98d97d	0.018658394
105	0x3cd7ce55	0.026343504
106	0x3930100a	0.00016790643
107	0xbc9424e7	-0.018084003
108	0x3d93c5ae	0.07215439
109	0x3d8a6b74	0.06758776
110	0x3d9afe62	0.07568051
111	0xbccbe796	-0.024890702
112	0x3cee13fc	0.029062264
113	0xbd29790b	-0.0413752
114	0xbd5e3cc9	-0.054257188
115	0xbca1ba43	-0.019742137
116	0xbd1b9a88	-0.03798917
117	0xbd9c34ef	-0.07627284
118	0xbd6385c7	-0.055547502
119	0xbe18da14	-0.1492694
120	0xbcb82e39	-0.022482978
121	0x3e077b8d	0.13230725
122	0x3ddd30bb	0.1080031
123	0xbdb27eab	-0.08715566
124	0xbb22bae2	-0.002483063
125	0x3d75f26b	0.06004564
126	0x3cc83813	0.0244408
127	0x3c14ef31	0.009090231
128	0xbd5f4d97	-0.054517355
129	0xbd25238e	-0.04031711
130	0xbb9605fc	-0.00457835
131	0x3d61fdd8	0.055173725
132	0xbc36104e	-0.011112286
133	0xbd8f5ae7	-0.0699976
134	0x3d31af3c	0.043380007
135	0x3da9ff54	0.08300653
136	0x3d959066	0.073029324
137	0xbdcde1c1	-0.10052825
138	0xbdcc1d17	-0.09966486
139	0x3db05f16	0.08611886
140	0x3dbf92d7	0.09354179
141	0x3d06cdbd	0.03291105
142	0xbd827bd1	-0.06371272
143	0xbd213708	-0.039359123
144	0xbd51d005	-0.051223774
145	0xbd56396a	-0.052300848
146	0xbaf33147	-0.0018554115
147	0x3d6bb05c	0.057541236
148	0xbc369d32	-0.011145877
149	0xbd0f3c47	-0.034969594
150	0xbd86eb3f	-0.065878384
151	0x3c3c86dc	0.011506762
152	0x3c98ec9c	0.018667512
153	0xbd6b937b	-0.057513695
154	0x3cd42992	0.025898729
155	0xbb848b6b	-0.00404494
156	0x3ca9bc01	0.02071953
157	0xbbbc6c1c	-0.0057501923
158	0x3caac060	0.020843685
159	0xbd931033	-0.07180824
160	0x3d280d82	0.041028507
161	0x3c04249d	0.00806537
162	0x3bb9a331	0.005665206
163	0x3e082636	0.13295826
164	0xbdbcdb22	-0.09221484
165	0xbcfe5e30	-0.031050771
166	0x3ca45810	0.020061523
167	0x3e1d5dd4	0.15367824
168	0xbd0b11fc	-0.033952698
169	0xbd10ab49	-0.0353196
170	0xbd18318d	-0.03715663
171	0x3ca03f97	0.019561572
172	0x3d2b6596	0.041844927
173	0xbd59ae47	-0.05314472
174	0xbd1b2cb1	-0.037884418
175	0x3cfd10d3	0.030891811
176	0x3d299375	0.04140039
177	0xbc96fb4c	-0.018430375
178	0xbd7dab5a	-0.06193099
179	0x3d3dbe38	0.046323985
180	0x3b882674	0.0041549746
181	0x3d04ffc7	0.03247049
182	0xbdd94b32	-0.106100455
183	0x3be350e1	0.0069371318
184	0x3d0f24fc	0.03494738
185	0xbda7b3c2	-0.08188583
186	0xbdd3f8e4	-0.103502065
187	0xbcdda170	-0.027054518
188	0xbacc00de	-0.0015564223
189	0x3d254663	0.04035033
190	0x3a5fa140	0.0008530803
191	0xbd8b406b	-0.06799396
192	0xbbca5c9f	-0.006175592
193	0xbcc2335f	-0.023706136
194	0x3c869a31	0.016430946
195	0xbbf09150	-0.0073415413
196	0x3d88bd47	0.06676727
197	0x3d0b4b2c	0.034007236
198	0xbd6ebbe7	-0.058284666
199	0x3d65035a	0.0559114
200	0x3c3c1db5	0.011481692
201	0x3d090f60	0.03346193
202	0x3d2a6fe3	0.04161061
203	0x3d64d0f4	0.055863336
204	0xbbf20b61	-0.0073866104
205	0x3cf6c89f	0.03012496
206	0x3c593855	0.0132580595
207	0xbd1a9c51	-0.03774673
208	0x3c98fef3	0.018676257
209	0xbc5f9740	-0.013646901
210	0xbd87fc00	-0.06639862
211	0xbdcd203e	-0.10015915
212	0x3c22fbb5	0.009947707
213	0xbbe9ffbc	-0.0071410816
214	0x3af87233	0.0018954932
215	0x3a986c09	0.0011628877
216	0x3cb7b294	0.02242402
217	0x3d4eabd5	0.05045684
218	0x3cf7ec38	0.030264005
219	0xbb951782	-0.0045499215
220	0x3cbd41fb	0.023102751
221	0x3cbb4be7	0.022863341
222	0x3c3bdcfc	0.011466261
223	0x3cec1c1e	0.028822001
224	0xbd4df320	-0.05028069
225	0xbcda068e	-0.026614454
226	0xbc2655af	-0.0101522645
227	0xbcd5708c	-0.026054643
228	0x3d1a0cbb	0.037609797
229	0x3ca1d14a	0.019753117
230	0xbcfd305a	-0.030906845
231	0x3bba04d3	0.0056768446
232	0xbdc51ff6	-0.09625237
233	0xbd93eb50	-0.07222617
234	0x3ca81bbe	0.020521041
235	0x3d4daece	0.050215535
236	0xbcbca87e	-0.023029562
237	0xbd6c9fa1	-0.05776942
238	0x3d59188a	0.053001918
239	0x3c666209	0.014061459
240	0xbc5e98d2	-0.01358624
241	0x3d521901	0.051293377
242	0x3db1519a	0.086581424
243	0x3b61de23	0.003446468
244	0xbc873038	-0.016502485
245	0x3c466bdf	0.012110679
246	0x3c42fc1c	0.011900928
247	0x3da173ad	0.078833915
248	0xbded67d0	-0.11592066
249	0xbd34dd2e	-0.044156246
250	0xbdd61d20	-0.10454774
251	0x3d950352	0.07276024
252	0xbda72971	-0.08162201
253	0x3d3af955	0.045647938
254	0xbd400a10	-0.046884596
255	0x3d97b26f	0.074070804

fc1.bias f4 [120]
0	0xbd4baf97	-0.049728002
1	0x3d620797	0.05518302
2	0x3d8c1555	0.06840006
3	0xbd706dcc	-0.05869846
4	0xba8ece8f	-0.00108953
5	0xbc90da5e	-0.01768225
6	0x3d69797e	0.05700063
7	0x3c79cb04	0.015246157
8	0xbd724b92	-0.0591541
9	0x3d34829b	0.044069868
10	0xbcf610a2	-0.030037228
11	0x3d798e8f	0.06092697
12	0x3ca74a65	0.020421216
13	0xbd64857a	-0.055791356
14	0xbd35e678	-0.044409245
15	0xbd3f1f2d	-0.04666059
16	0x3a98d8b9	0.0011661268
17	0xbc612c4c	-0.013743471
18	0x3d1fff5c	0.03906189
19	0x3d3c3b82	0.04595519
20	0x3c9f8ba9	0.019475775
21	0xbcfd8639	-0.030947791
22	0x3bddfb50	0.0067743436
23	0xbd6bbb8a	-0.057551898
24	0x3c9a187b	0.018810501
25	0xbca04a66	-0.019566726
26	0x3bf8cb07	0.007592562
27	0xbc895f5f	-0.01676911
28	0xba9b6525	-0.0011855705
29	0xbd6ee8dc	-0.05832754
30	0x3d323c6b	0.04351465
31	0x3d1eef67	0.03880253
32	0xbc93f811	-0.018062623
33	0xbb91f25d	-0.004453941
34	0x3d18b145	0.037278432
35	0xbcc13ed4	-0.02358953
36	0x3b7954e7	0.003804499
37	0x3d665dde	0.056241862
38	0xbcb0da34	-0.021588422
39	0x3d282d03	0.04105855
40	0x3d25f145	0.040513296
41	0x3c800b3d	0.015630359
42	0xbc2fd4f1	-0.0107319215
43	0xbd435f4b	-0.0476983
44	0xbcea200d	-0.028579736
45	0xbd6b7382	-0.057483204
46	0xbd35a443	-0.044346105
47	0xbd0ea749	-0.034827504
48	0xbc61d96b	-0.013784747
49	0xbb5c6d38	-0.0033634435
50	0xbd5ddb7e	-0.054164402
51	0x3c9cde11	0.019148858
52	0x3cfe25ad	0.031023825
53	0xbbae3c5e	-0.005317255
54	0xbd1ce89c	-0.03830777
55	0xbd6e866a	-0.058233656
56	0x3c267256	0.010159096
57	0xbd149d9d	-0.036283124
58	0xbd208ed1	-0.0391987
59	0x3da05a85	0.07829765
60	0xbc8f575c	-0.01749771
61	0x3cc4bdfa	0.02401637
62	0xbbe2feb1	-0.0069273342
63	0xbd131322	-0.03590692
64	0x3d81ddc8	0.063411295
65	0x3d804647	0.06263404
66	0x3aae3a38	0.0013292497
67	0x3d62c2c1	0.055361513
68	0x3b2459d9	0.0025077967
69	0x3c8b1d9f	0.016981898
70	0x3ca3d08f	0.01999691
71	0x3ced2483	0.028948074
72	0xbc3c793f	-0.011503517
73	0x3c2b3737	0.010450176
74	0x3d1cd5c3	0.038289797
75	0xbc25654e	-0.010094954
76	0x3d01f6b4	0.031729415
77	0xbd8993d8	-0.06717652
78	0x3d4c0f66	0.049819373
79	0xbc003913	-0.007826108
80	0xbd54e88a	-0.05197958
81	0x3d33d49e	0.04390394
82	0x3d20ea02	0.039285667
83	0xbd6343f8	-0.055484742
84	0xbca1b6b7	-0.019740446
85	0x3d91e693	0.07124057
86	0x3c0e84d5	0.008698662
87	0xbcaab5bd	-0.020838613
88	0xbc89a2e6	-0.016801309
89	0x3d44c8c5	0.04804303
90	0x3ccd9331	0.0250946
91	0x3d607255	0.054796536
92	0xbccb2faa	-0.024803001
93	0x3da112ee	0.07864939
94	0xbb52b2de	-0.003215007
95	0xbd11c1af	-0.0355851
96	0xbd7172e5	-0.058947463
97	0x3d5fdd71	0.054654542
98	0xbd7bbe43	-0.061460745
99	0x3c70642f	0.014672323
100	0x3d4f2b76	0.050578557
101	0x3d82f219	0.06393833
102	0xbbbfcbbd	-0.005853145
103	0x3c6a4db4	0.014300752
104	0xbcec1e61	-0.02882308
105	0x3bd5a8b2	0.006520354
106	0x3ce5601d	0.027999932
107	0xbd456991	-0.04819638
108	0xbc27c4ce	-0.010239793
109	0x3d7eb149	0.06218079
110	0xbd22ff61	-0.03979433
111	0xbd053c72	-0.03252835
112	0x3b19eef1	0.0023488367
113	0xbd078ee0	-0.03309524
114	0xbc587608	-0.013211735
115	0x3cb45248	0.022011891
116	0xbd03ee51	-0.032209698
117	0xbd229eea	-0.039702334
118	0xbcc5a2e9	-0.024125533
119	0x3d557fa2	0.052123673

fc2.weight f4 [84, 120]
0	0x3ce14303	0.027497774
1	0x3da6ff80	0.081542015
2	0x3d8d074b	0.06886157
3	0xbc698f2c	-0.014255326
4	0xbd97f79b	-0.07420274
5	0x39baf40b	0.0003565851
6	0x3d008d72	0.031384893
7	0xbc7ae223	-0.015312704
8	0xbdbe8a3d	-0.093037106
9	0xbd85e1e3	-0.06537225
10	0x3ca05ab5	0.019574502
11	0xbd0b70e7	-0.03404322
12	0xbd6d8079	-0.05798385
13	0xbc8d0508	-0.017214313
14	0x3df11577	0.11771672
15	0xbd25fc3d	-0.040523756
16	0x3d0784ad	0.033085514
17	0x3cf60ae5	0.030034492
18	0x3e2c22a7	0.16810094
19	0xbe2f7e9e	-0.17138144
20	0x3d996ce7	0.074914746
21	0xbd5de342	-0.054171808
22	0xbcab5966	-0.020916652
23	0xbc2670fd	-0.010158774
24	0x3e1aff7c	0.15136522
25	0x3d36e8e4	0.044655696
26	0x3da68df0	0.08132541
27	0xbce3beec	-0.027801
28	0xbba673d5	-0.005079726
29	0xbde77944	-0.113024265
30	0x3bfca469	0.007710029
31	0x3decfda1	0.115718134
32	0x3d7289db	0.0592135
33	0x3c899163	0.016792959
34	0xbce6cb31	-0.028173061
35	0x3dd880b9	0.10571427
36	0xbdf34125	-0.1187766
37	0x3d9cf608	0.07664114
38	0xbcf77830	-0.030208677
39	0xb8360604	-4.3397784e-05
40	0xbde05eba	-0.10955568
41	0xbb5377a5	-0.0032267359
42	0x3d889768	0.066695035
43	0x3c991261	0.018685522
44	0xbe143887	-0.14474688
45	0xbd9a7182	-0.07541181
46	0x3c95f253	0.018304026
47	0x3c9aae87	0.01888205
48	0xbdd8d217	-0.105869465
49	0xbd3ac3b4	-0.045596793
50	0x3d406523	0.04697145
51	0xbdb150f5	-0.086580195
52	0xbcc28d9c	-0.023749165
53	0x3d643412	0.05571372
54	0xbc3a2421	-0.011361153
55	0x3d6551fb	0.055986386
56	0xbd1a6829	-0.03769699
57	0xbd8ae552	-0.06782021
58	0xbccc9f76	-0.02497838
59	0x3df186e5	0.11793307
60	0x3bc369f7	0.0059635597
61	0xbc22efbc	-0.009944852
62	0x3cd30cd2	0.02576295
63	0xbd3c1e26	-0.04592719
64	0xbc187cd4	-0.009307105
65	0x3dc803c0	0.0976634
66	0x3bfdf56b	0.0077502034
67	0x3d80747e	0.06272219
68	0xbd054679	-0.03253791
69	0xbd8cb892	-0.068711415
70	0x3d880671	0.066418536
71	0x3c53b309	0.012921103
72	0xbdacbaf4	-0.08434096
73	0x3df020a8	0.11724979
74	0x3d8bc477	0.06824582
75	0x3c6b1b9d	0.014349845
76	0xbd6fd69d	-0.05855428
77	0xbdf8c3ca	-0.12146719
78	0x3d4caad3	0.0499676
79	0x3c67a051	0.0141373435
80	0xbddaa6dc	-0.10676357
81	0x3df47534	0.11936417
82	0xbbfe7e7e	-0.007766544
83	0xbd619798	-0.05507621
84	0xbd1133f4	-0.035449937
85	0x3ca6bce2	0.020353738
86	0x3dea9e55	0.11455981
87	0x3d9e6208	0.07733542
88	0xbd77e8b9	-0.060524676
89	0x3d8b57de	0.06803869
90	0xbe0ae43a	-0.13563624
91	0x3c75536f	0.014973505
92	0x3e28bfa5	0.16479357
93	0x3d2062db	0.039156776
94	0xbd757722	-0.059928067
95	0xbd7f1615	-0.06227692
96	0x3c8bec32	0.0170804
97	0x3dd6217f	0.104556076
98	0xbdd9b68e	-0.10630523
99	0x3d441155	0.04786809
100	0xbd9bfb76	-0.07616322
101	0xbdd32a72	-0.1031083
102	0x3b9f862a	0.0048682885
103	0xbda4f213	-0.080539845
104	0x3d373487	0.04472783
105	0xbda9eceb	-0.08297142
106	0x3e18b305	0.1491204
107	0x3dfe81cc	0.124271005
108	0xbd9adb2c	-0.07561335
109	0xbe4d81aa	-0.20068994
110	0x3cf4d282	0.029885534
111	0x3e0a9328	0.13532698
112	0x3d9ee936	0.07759325
113	0x3d59d94a	0.05318574
114	0xbdb109b0	-0.08644426
115	0x3c9de774	0.019275405
116	0xbd300120	-0.042969823
117	0xbdc59af5	-0.09648696
118	0xbdacaec0	-0.084317684
119	0x3a3b1734	0.00071369414
120	0x3d908c67	0.070580296
121	0x3d1c160d	0.038106967
122	0xbd6a8ab4	-0.057261184
123	0xbda5472c	-0.080702156
124	0x3d5b3129	0.05351368
125	0x3c5407ed	0.012941343
126	0x3d827acf	0.0637108
127	0x3c2ecb70	0.0106686205
128	0xbcda22fa	-0.026628006
129	0xbda1871e	-0.078871
130	0xbda9eae4	-0.08296755
131	0x3cbcb471	0.02303526
132	0xbdd68e34	-0.10476342
133	0x3d28347d	0.04106568
134	0xbd9febb4	-0.07808629
135	0x3bac8d7a	0.0052658888
136	0xbcb0f988	-0.02160336
137	0xbcbc2e08	-0.022971168
138	0xbcada315	-0.021195928
139	0xbc03ff36	-0.0080564525
140	0x3d852b82	0.06502439
141	0xbd23ad0f	-0.039959963
142	0xbdc2823e	-0.09497498
143	0x3d81bbce	0.06334649
144	0xbd7fc02f	-0.06243914
145	0xbc8bbe8e	-0.017058637
146	0x3d827572	0.06370057
147	0x3da838eb	0.08213981
148	0xbc2333b4	-0.009961057
149	0xbdb82bfd	-0.08992765
150	0x3d43ca6b	0.047800463
151	0xbdb3d0c6	-0.08780055
152	0xbd72968c	-0.059225604
153	0xbd82c79f	-0.06385731
154	0x3b3d36c3	0.0028871752
155	0xbbf09a3d	-0.0073426054
156	0xbd5986d9	-0.053107116
157	0x3bd98af4	0.006638879
158	0x3d4f3c49	0.0505946
159	0x3d6e86a9	0.05823389
160	0x3d6a2df1	0.05717272
161	0xbd8ba050	-0.068176866
162	0x3cfc116f	0.030770032
163	0xbd674025	-0.056457657
164	0x3c8234f4	0.01589439
165	0x3d3fb069	0.046799097
166	0xbce6d4cc	-0.028177641
167	0xbc19a73b	-0.00937825
168	0xbcb1c0fc	-0.021698467
169	0x3d6d8961	0.057992343
170	0xbd8f0955	-0.06984202
171	0x3a88cf47	0.001043775
172	0x3cf2af4b	0.029624602
173	0xbd839003	-0.064239524
174	0xbdac5f65	-0.084166326
175	0x3cbada0a	0.022809047
176	0x3ce77c6b	0.02825757
177	0xbd0936a9	-0.033499394
178	0xbba9ec9d	-0.005185677
179	0x3d308077	0.043091264
180	0x3d652136	0.055939876
181	0x3cc3c6e6	0.023898553
182	0x3d84e87e	0.06489657
183	0x3d7bdd4e	0.06149035
184	0xbce4da52	-0.027936134
185	0xbd9293ad	-0.07157073
186	0xbdb96750	-0.090529084
187	0xbcad0c4e	-0.021124031
188	0xbd45265a	-0.048132278
189	0xbd8c5d69	-0.06853754
190	0xbd293ae7	-0.04131594
191	0x3bf5329d	0.00748284
192	0x3daff749	0.08592088
193	0x3dacafe4	0.08431986
194	0xbd9fa391	-0.0779487
195	0xbb8aa99d	-0.0042316453
196	0xbb83003b	-0.00399783
197	0x3a59605f	0.00082922535
198	0x3d838a96	0.064229175
199	0x3cad085c	0.02112215
200	0x3d5e6732	0.054297633
201	0x3d56bf3b	0.052428465
202	0xbda0b224	-0.07846478
203	0xbcfc9014	-0.03083042
204	0x3c382009	0.0112381065
205	0xbdb8ed32	-0.090296164
206	0xbc81fe06	-0.015868198
207	0x3c208b0a	0.0097987745
208	0x3d6fa3b3	0.058505725
209	0xbdb9d563	-0.090739034
210	0xbc757608	-0.014981754
211	0xbcee1985	-0.029064903
212	0xbd4d4453	-0.050113987
213	0x3d8b4739	0.06800694
214	0xbd28849b	-0.041142087
215	0x3caa8eec	0.020820104
216	0x3d9c7d62	0.076411024
217	0xbcf78e74	-0.030219294
218	0xbbcac52f	-0.006188057
219	0xbcb6f8c9	-0.022335427
220	0xbc2322c4	-0.009957019
221	0xbc7225fa	-0.014779562
222	0x3d5be8dd	0.053688873
223	0xbc41b90b	-0.011823903
224	0xbc9b6889	-0.018970745
225	0xbd3d6bd4	-0.04624541
226	0xbd1a1673	-0.037619065
227	0x3d6b2a36	0.057413302
228	0x3d85a0e4	0.06524828
229	0x3d26755d	0.04063927
230	0xbd8dd977	-0.06926244
231	0xbd4403c6	-0.04785516
232	0x3c527818	0.012846015
233	0x3d6abbf3	0.05730815
234	0xbd7e3ad9	-0.06206784
235	0xbd831d5f	-0.064020865
236	0xbd3bf359	-0.04588637
237	0x3cd52127	0.026016785
238	0xbd8b28dd	-0.067949034
239	0xbd7dfb91	-0.06200749
240	0xbda33389	-0.07968814
241	0xbd89d26b	-0.06729587
242	0xbd8af1b8	-0.067843854
243	0xbdea3e30	-0.114376426
244	0x3daaa003	0.08331301
245	0x3d8d2a81	0.068928726
246	0x3d90c739	0.07069249
247	0x3ce2be61	0.02767867
248	0x3c9576e7	0.018245174
249	0xbc91cc2d	-0.017797554
250	0x3dbf834c	0.09351215
251	0x3cc7eb57	0.024404211
252	0xbe0fb03d	-0.14032073
253	0x3c2285ba	0.009919578
254	0xbda6cd50	-0.08144629
255	0xbc9f19cf	-0.019421486

fc2.bias f4 [84]
0	0x3c9ff8ec	0.019527875
1	0x3d8dc5a2	0.06922461
2	0xbca93685	-0.02065588
3	0xbd676860	-0.056496024
4	0x3d9f085f	0.077652685
5	0x3caa0461	0.020754041
6	0xbdaf643e	-0.085640416
7	0xbda5f5ca	-0.08103521
8	0x3d49c242	0.049257524
9	0xbd8277c6	-0.06370501
10	0xbd664d09	-0.05622581
11	0xbdc3b06e	-0.09555136
12	0xbc2a335d	-0.0103882225
13	0xbba66a17	-0.005078565
14	0x3d051903	0.032494556
15	0xbbce7f3a	-0.0063017877
16	0xbbe382e5	-0.006943094
17	0x3dc2c5ca	0.095103815
18	0xbd3bca61	-0.0458473
19	0x3cc91b6b	0.024549207
20	0xbd893147	-0.06698852
21	0x3cbe77ae	0.023250427
22	0xbd9d867d	-0.07691667
23	0x3db1c57e	0.08680247
24	0xbdb330b9	-0.087495275
25	0x3d0f9ac5	0.03505971
26	0x3dcb1388	0.09915835
27	0x3c29462a	0.01033167
28	0xbd937898	-0.07200736
29	0x3ce8b247	0.028405322
30	0x3e168dee	0.1470258
31	0xbc9a6e05	-0.01885129
32	0x3d2b9e18	0.041898817
33	0x3b875aae	0.004130683
34	0x3c96f487	0.018427147
35	0x3d4f5cd6	0.050625645
36	0xbd20f77b	-0.039298516
37	0xbb16a70c	-0.0022987751
38	0xbdb206c0	-0.08692694
39	0xbd3a37c6	-0.045463346
40	0x3d98697b	0.07441994
41	0x3ccda012	0.025100742
42	0xbca2cb22	-0.019872252
43	0x3d972ca6	0.07381563
44	0x3da6fa98	0.08153266
45	0x3cdfd84c	0.027324818
46	0x3dde5606	0.108562514
47	0xbc12593b	-0.008932407
48	0x3d093e4a	0.03350667
49	0xb93bd465	-0.00017912833
50	0xbd1712ea	-0.036883272
51	0xbc79445e	-0.015214054
52	0xbd0e15e1	-0.034688834
53	0xbd3ca439	-0.046055052
54	0x3c39ce4d	0.01134069
55	0x3d9d62c9	0.076848574
56	0xbdd3c0f4	-0.10339537
57	0xbcd8d671	-0.026469441
58	0xbd2e1798	-0.04250297
59	0x3d3e0529	0.04639164
60	0x3cca2546	0.024675976
61	0xbd0cd428	-0.034382015
62	0x3d690b1a	0.056895353
63	0x3ddfdfe2	0.10931374
64	0xbd295bcb	-0.041347306
65	0x3d81287b	0.06306549
66	0x3d069976	0.032861196
67	0x3cbdd0bb	0.02317082
68	0xbd4ec55e	-0.050481193
69	0xbd8963c5	-0.06708483
70	0xbd753a93	-0.059870314
71	0xbd290b45	-0.041270513
72	0xbcf2f423	-0.02965743
73	0x3dc88c39	0.0979237
74	0xbd84afa8	-0.06478816
75	0xbbfbcdec	-0.00768446
76	0xbb654f0f	-0.003498975
77	0x3d1b0883	0.037849914
78	0x3bb39f8e	0.005481667
79	0x3d7e6839	0.062111113
80	0x3d4d626b	0.050142687
81	0x3ce19cb1	0.027540537
82	0x3dbdb5cb	0.0926319
83	0xbd159455	-0.036518414

fc3.weight f4 [10, 84]
0	0xbe3a1d67	-0.18175279
1	0x3d98cf10	0.07461369
2	0xbe0587ac	-0.13040036
3	0xbbf00fd4	-0.0073261056
4	0xbe04170f	-0.12899421
5	0xbd54f13d	-0.051987875
6	0x3e1ab6bc	0.1510877
7	0xbd87d293	-0.06631961
8	0xbdc5bf66	-0.09655647
9	0xbe17280b	-0.14761369
10	0xbd5656db	-0.052328926
11	0xbd6a41cc	-0.057191655
12	0x3e0d5559	0.13802089
13	0x3dea7bb0	0.11449373
14	0x3c513e86	0.012771254
15	0xbddeaaee	-0.10872446
16	0xbe34b98c	-0.17648906
17	0xbd8857b2	-0.066573516
18	0xbd76802c	-0.060180828
19	0x3d78185a	0.0605701
20	0x3e7616cd	0.24032135
21	0xbdd4b49b	-0.1038601
22	0xbd56f7a0	-0.052482247
23	0xbc811280	-0.015755892
24	0xbdd41f74	-0.10357562
25	0xbe034f00	-0.12823105
26	0xbda9175c	-0.082564086
27	0xbe2b416c	-0.16724175
28	0xbbc601d1	-0.006042697
29	0xbde60dca	-0.11233099
30	0xbe24e4e4	-0.1610294
31	0x3c7a5f4a	0.015281508
32	0x3c7b4cc3	0.015338126
33	0x3dbbb24e	0.09164868
34	0x3c5ba65c	0.013406362
35	0xbca64a96	-0.020299237
36	0xbd9d126d	-0.0766953
37	0xbe59b65b	-0.2126097
38	0xbb044a4e	-0.002018589
39	0xbd87808e	-0.06616317
40	0x3e7b3c23	0.24534659
41	0x3dc0c772	0.09413041
42	0xbd932558	-0.07184857
43	0xbe5ed30f	-0.217602
44	0x3e4390d9	0.19098224
45	0x3ea848ea	0.3286813
46	0xbe2a174e	-0.16610453
47	0xbd1af391	-0.03782994
48	0xbe43651c	-0.19081539
49	0x3bade136	0.0053063883
50	0x3c3ce2d7	0.011528692
51	0xbde5b60b	-0.112163626
52	0x3bd1b474	0.0063996855
53	0x3de14ce0	0.11000991
54	0xbddc0c1c	-0.10744497
55	0x3e66167d	0.22469516
56	0x3c9f7a1b	0.019467404
57	0x3e2ce03a	0.1688241
58	0xbcd27e4b	-0.025694987
59	0xbe3f45d6	-0.18678984
60	0x3d9010f3	0.07034483
61	0xbb8d318b	-0.0043088845
62	0xbdd1fb27	-0.10252982
63	0xbeafc5ff	-0.34330747
64	0xbd611cd4	-0.054959133
65	0x3d804b20	0.06264329
66	0x3e794a3f	0.24344729
67	0xbd61febb	-0.05517457
68	0xbe32fcef	-0.17479299
69	0x3e8e0147	0.2773535
70	0x3c2440b5	0.010025193
71	0x3d0de3a4	0.034640923
72	0xbdc20242	-0.09473087
73	0xbcbc2d10	-0.022970706
74	0xbda3c134	-0.07995835
75	0x3e4e9444	0.20173746
76	0x3dc88592	0.097911015
77	0x3ca33ea9	0.01992734
78	0xbc29a1d9	-0.010353529
79	0xbdaa583f	-0.08317613
80	0xbe925cec	-0.2858652
81	0x3d7abfd8	0.061218113
82	0xbcfd966f	-0.030955521
83	0xbe30d46f	-0.17268537
84	0x3d850134	0.0649437
85	0x3b5f2b6c	0.003405298
86	0x3d68afc3	0.056808244
87	0x3dc55106	0.096345946
88	0x3adef71c	0.00170109
89	0xbd9575b4	-0.07297841
90	0xbd445420	-0.04793179
91	0x3dda9844	0.106735736
92	0x3ee62871	0.4495273
93	0xbda3a18e	-0.079897985
94	0xbce96af9	-0.028493391
95	0xbde4a35e	-0.11163972
96	0xbde1c6a4	-0.11024216
97	0xbdd277b0	-0.10276735
98	0x3ca2e2ee	0.0198836
99	0xbdc807e5	-0.09767131
100	0x3e8869cf	0.26643226
101	0x3eac20f4	0.3361889
102	0xbba9f008	-0.0051860847
103	0xbcefbdc5	-0.029265294
104	0xbddbdb87	-0.10735231
105	0xbd1fbc71	-0.03899807
106	0xbd8f1eec	-0.0698832
107	0xbe53acbb	-0.2067136
108	0x3ac1bf72	0.0014781787
109	0x3e449895	0.1919883
110	0x3d9d9e0b	0.0769616
111	0x3d72b36c	0.05925314
112	0x3ddaeb19	0.106893726
113	0xbd08076f	-0.033210214
114	0x3e9d5b1e	0.3073358
115	0x3d26d5ca	0.04073123
116	0xbe1feb77	-0.15617166
117	0xbe0c8985	-0.13724335
118	0xbc70674c	-0.014673065
119	0x3e2a5681	0.16634561
120	0xbdb526ce	-0.08845292
121	0x3dc7b8c5	0.09752039
122	0x3d1444bd	0.036198366
123	0xbe2f678d	-0.17129345
124	0x3e043b14	0.12913162
125	0xbca80017	-0.020507855
126	0xbe5c1b2f	-0.21494745
127	0x3d7e4ed7	0.062086906
128	0x3d977771	0.073958285
129	0xbd8b0147	-0.06787353
130	0x3e003274	0.12519246
131	0xbc3cb7e7	-0.011518455
132	0x3e4f6d72	0.20256594
133	0xbd77880a	-0.06043247
134	0x3cd652e6	0.026162576
135	0xbe6dcb79	-0.2322215
136	0xbe03c8a2	-0.12869504
137	0xbe2ff177	-0.17181955
138	0xbe656bc5	-0.22404392
139	0xbe4a96f1	-0.19784142
140	0xbe02b18d	-0.12763043
141	0xbdea9f55	-0.114561714
142	0xbd6f75bd	-0.058461893
143	0xbd144729	-0.036200676
144	0x3e28c766	0.16482314
145	0xbe1eab7b	-0.15495102
146	0xbde375cc	-0.11106452
147	0x3d2e6368	0.04257527
148	0x3e157191	0.14594103
149	0xbe140fd0	-0.14459157
150	0xbe278d0b	-0.16362397
151	0x3d4249ba	0.047433592
152	0x3e35352f	0.17696069
153	0x3d78efcf	0.060775574
154	0xbd775601	-0.060384754
155	0x3d20a114	0.039216116
156	0x3e55776a	0.20846334
157	0xbe977f14	-0.2958914
158	0x3d0e8c2f	0.03480166
159	0xbe17282a	-0.14761415
160	0x3cc35a53	0.02384678
161	0xbd987cae	-0.07445656
162	0x3d7102f8	0.05884072
163	0xbd810f41	-0.063017376
164	0x3c7239ab	0.014784257
165	0xbc58156b	-0.0131887
166	0xbe1cc6d4	-0.15310222
167	0x3e78526a	0.24250188
168	0x3e798bf5	0.24369796
169	0xbce20e72	-0.027594779
170	0xbd34b09e	-0.044113748
171	0xbd0f602e	-0.035003833
172	0x3e4fa472	0.20277575
173	0xbe4621ae	-0.19348785
174	0xbbdd3f93	-0.0067519634
175	0x3dea959a	0.114543155
176	0x3ddde32c	0.10834345
177	0xbda3e31f	-0.08002304
178	0xbd7b7453	-0.061390232
179	0xbe3b952c	-0.18318623
180	0xbe67d269	-0.22638859
181	0xbb43c017	-0.0029869133
182	0xbcf88233	-0.030335521
183	0x3d04f2a9	0.03245798
184	0x3e43ebf1	0.19132973
185	0xbccbe3fd	-0.024888987
186	0x3dd9b2c1	0.10629798
187	0x3e204a98	0.15653455
188	0x3e6cecc9	0.23137201
189	0x3ddd295a	0.10798903
190	0x3e216f1d	0.15765043
191	0xbde18820	-0.11012292
192	0x3d7278bf	0.059197184
193	0xbe4170f3	-0.18890743
194	0xbe584aa2	-0.2112222
195	0x3dba13d0	0.0908581
196	0x3da7f944	0.082018405
197	0x3e7e865b	0.2485594
198	0x3e4ec68f	0.20192932
199	0x3d02b87d	0.031914223
200	0x3c52ff57	0.012878261
201	0xbda27c99	-0.07933921
202	0xbe0e2916	-0.1388286
203	0xbd099d89	-0.033597503
204	0xbe2e26f5	-0.17007048
205	0xbe7ffef5	-0.24999602
206	0xbdd3abe4	-0.1033552
207	0xbdb33808	-0.087509215
208	0xbea4327d	-0.3206977
209	0x3da3195c	0.07963821
210	0xbdbf9bd8	-0.09355897
211	0x3d77b119	0.060471628
212	0xbe3b92b2	-0.18317679
213	0x3de5fd9f	0.11230015
214	0xbd336c44	-0.043804422
215	0xbdce21c6	-0.100650355
216	0xbe070818	-0.13186681
217	0xbd452932	-0.04813499
218	0xbd9c5b76	-0.07634632
219	0x3dadd9ff	0.08488845
220	0xbd6fd96f	-0.05855697
221	0x3db23458	0.0870139
222	0xbce4f01d	-0.027946526
223	0xbca4f720	-0.02013737
224	0x3e1fe898	0.15616071
225	0x3e6b0621	0.22951557
226	0x3c6db62b	0.014508764
227	0x3e22d0d8	0.1589998
228	0x3e4ab197	0.19794308
229	0x3d26354e	0.04057818
230	0xbe082d82	-0.1329861
231	0x3e363757	0.17794548
232	0x3cd0a609	0.025469797
233	0x3df12f24	0.117765695
234	0xbe8ec9b0	-0.2788825
235	0xbda2436b	-0.07923015
236	0x3cf86dbe	0.030325767
237	0xbdf425a6	-0.11921243
238	0xbc838926	-0.016056608
239	0x3d32123a	0.043474413
240	0xbe416cc8	-0.18889153
241	0xbdd55d16	-0.10418145
242	0xbd87d6d3	-0.06632771
243	0x3e6089c3	0.21927552
244	0x3da54065	0.08068923
245	0x3e20fbf6	0.15721115
246	0xbdb6cf8a	-0.08926304
247	0x39bbe0d7	0.00035834938
248	0xbe857909	-0.26068905
249	0x3e1862a1	0.14881374
250	0xbe0189e9	-0.12650265
251	0xbe08da65	-0.13364561
252	0x3dfefc5e	0.12450479
253	0x3cdd2932	0.026997183
254	0x3c6db4ae	0.014508409
255	0x3db08e17	0.086208515

fc3.bias f4 [10]
0	0xb911ba76	-0.0001389774
1	0x3e86e343	0.26345262
2	0xbd9b04d5	-0.07569281
3	0xbdb9a3ec	-0.09064469
4	0xbd12dc72	-0.035854764
5	0xbc1ecd04	-0.009692434
6	0xbdd8fdd0	-0.10595286
7	0x3d2fa353	0.042880367
8	0x3e18e01b	0.1492924
9	0x3daede8f	0.085385434
