global_mnist_cnn.pt (torch, 181781 bytes, 10 tensors)

conv1.weight f4 [6, 1, 5, 5]
00000000: 72cf f23d b3a7 03bc 4396 66be b674 b0be
00000010: 2590 aabd a391 113e 3946 bf3e 108d 7d3d
00000020: af7c 7cbd 068a 9dbe e194 b23d 639f 873e
00000030: dc58 7c3e 667c 923d 8bb0 54be e6fd 7dbd
00000040: 10a4 f0b9 fd21 873e ba9b 993e b681 8c3e
00000050: 47f2 4bbe 088c 203e 57ca fc3d cf35 f63c
00000060: d5f3 893d cb53 4f3e cf6d c33e fc0a 313e
00000070: a0de 753e e4d0 413e 63b8 ba3d b98e 803e
00000080: c515 a83e b897 953e df15 1c3c 8c48 bcbe
00000090: 80d9 6fbe 9d9e bbbd 82d1 193d d25a 6c3e
000000a0: 17d5 0abe 6163 ecbe 8f72 b5be 304b 083d
000000b0: 2325 b43d f1a2 b7be 8296 adbd 91e2 d1bd
000000c0: c5d5 aebe ad30 17bd c576 adbe c8ae 7cbe
000000d0: ce75 183e 2a6d 893e ed63 583e bea4 35be
000000e0: 593a 7fbe 4687 f83d 02a6 8a3e b8b3 2c3e
000000f0: 2e83 b1be 0b92 23bd 7d84 6a3e b439 d63e
00000100: 8e23 283e 1736 ddbc e4f3 be3d 2822 c13c
00000110: b989 9c3e ff3d 92bd 5721 94bc 0301 e13d
00000120: c63c 3e3e fbcd 983c 3a1d 30be e037 51be
00000130: d933 66be 3c9d bebe e9e8 84bd 826c 39be
00000140: 468c 8ebe e365 99be b748 8abe 5658 95be
00000150: 1920 17be a0c4 71be 3a96 913d e089 93bd
00000160: 28cb 143e 5f49 883e 7199 8cbd a80b 1dbe
00000170: d918 833d 5a42 7b3e 7601 8f3e b195 e4bd
00000180: 7729 ffbd 8380 9c3e 7108 133c f577 513b
00000190: d5e4 40bc 509d bd3c 28f2 293e 40aa 0a3e
000001a0: 9a78 25be f116 b03d 16e2 a83e e26a f5bc
000001b0: ff0f 30be b443 d7bd 5f8f 963e 1fb0 393e
000001c0: 9ebd 5bbe e01f 86be a3e3 213c e711 a83e
000001d0: 4cb8 e13b 585b 72be df9d e93c 796a 80be
000001e0: a0af b23e 0bde c2bd 9b84 5ebe 7b7c 60be
000001f0: 0d59 c6bd 492f 95bc 1df5 9c3d 2750 6cbd
00000200: ad1d aabe f3fe 09be 7278 87bb 193c c1be
00000210: cb0e 8fbe f561 0dbe 31cb 8dbe b7ac 033e
00000220: ca3f b8be 0f7b b8be 9891 61bd 1409 7e3e
00000230: 5b7d 973e 2974 943e e9df a23e db12 d23e
00000240: a178 3e3e 7f72 e63c 4d9b 9b3e 9c0e 953e
00000250: 6258 00bd e79a bfbd
0.11855973 -0.008035588 -0.22518258 -0.34464043 -0.08328275 0.14215712 0.37358263 0.061902106
-0.061642345 -0.30769366 0.08719803 0.2648879 0.24643272 0.07152633 -0.20770471 -0.062009715
-0.00045898603 0.26393119 0.30001622 0.27442712 -0.1991664 0.15678418 0.12343281 0.030054955
0.067359604 0.20246808 0.38169715 0.17289346 0.24010706 0.18927342 0.091172 0.2510889
0.3282911 0.29217315 0.009526699 -0.367741 -0.23422813 -0.091611125 0.037553318 0.2308152
-0.1355785 -0.4616957 -0.35438964 0.03327483 0.08796146 -0.35866502 -0.08475973 -0.10248292
-0.34147468 -0.036911655 -0.33879676 -0.24676049 0.14888689 0.26841098 0.21131869 -0.17738625
-0.24924602 0.12135176 0.2707978 0.16865432 -0.34670395 -0.0399342 0.22902103 0.418409
0.16419813 -0.027003331 0.09323862 0.023575857 0.30573824 -0.07140731 -0.018082304 0.10986521
0.1857787 0.018652907 -0.17198649 -0.20431471 -0.22480716 -0.37229335 -0.064897366 -0.18107799
-0.27841395 -0.29960546 -0.27008602 -0.29168957 -0.14758338 -0.23610163 0.071087316 -0.07204032
0.14530623 0.26618478 -0.06865204 -0.15336478 0.06401224 0.2453703 0.27930802 -0.11161364
-0.12459081 0.30566797 0.008974181 0.003196237 -0.011773308 0.023146302 0.16596282 0.13541508
-0.16159287 0.08598126 0.3298499 -0.029958192 -0.17193602 -0.1051096 0.29406258 0.18133591
-0.21459052 -0.26196194 0.009880933 0.32826158 0.006888425 -0.23667657 0.028517662 -0.25081232
0.34899616 -0.095150076 -0.21730272 -0.21922486 -0.09684954 -0.018211024 0.07663939 -0.057693627
-0.33225766 -0.13476162 -0.0041342312 -0.37741163 -0.27940974 -0.13806899 -0.27694085 0.12858854
-0.35986167 -0.36031386 -0.05507049 0.2480815 0.29587826 0.28994873 0.31811455 0.4103001
0.18600704 0.028130768 0.30391923 0.2911271 -0.03133429 -0.09355717

conv1.bias f4 [6]
00000000: 833a 00be 3a72 2e3e 7321 acbe 5aee c73c
00000010: e042 a2bd eb2c 6f3d
-0.1252232 0.17035761 -0.3361927 0.024405647 -0.07922912 0.058392446

conv2.weight f4 [16, 6, 5, 5]
00000000: 5ab0 263c bf96 753d 7f57 1fbe 2d1c 3dbe
00000010: 66e7 40bd f180 503d a742 cd3d 7373 e93d
00000020: 1fe6 94bd aaa2 d7bd 5d32 fcbd 46d2 3e3e
00000030: d3d5 923e f557 5a3e 9940 f8bd 0853 e5bd
00000040: bc5e d4bd 599d 463e d828 db3d afbd cb3c
00000050: 2981 35be dfe3 dabc 1e50 9dbd 9ace 653d
00000060: 60e7 aa3c 2e09 313c 82b8 58be 4324 5cbd
00000070: 59c9 41bc 9516 78bd b0f6 f23d 0bf3 533d
00000080: 90ab 55be 5925 62bd a5a1 ae3d 1c98 903d
00000090: fa9f 423e 6833 6dbd 0fbf 27be d439 52bc
000000a0: 2642 11be e5ac a2bc 94a2 183e 7fd7 ed3c
000000b0: 4268 52bc 17fb 73bd b7f0 76bd 9209 8dbd
000000c0: 5523 b4bc 76fd a13d 1e05 4cbd fecf babd
000000d0: aab0 aebd 0ffe 473d 5d0c a13c cb0f 3ebd
000000e0: a6a2 3bbd 12f3 b8bd 0e21 bdbd 43ff 04bd
000000f0: 43e0 25bd d584 d83d dece 953b ae83 afbd
00000100: 5f0a f93d 1e51 d1bd 7834 113e aa49 043e
00000110: 365b 0cbe 0cf0 653d 9595 53bc 1496 3bbd
00000120: c315 ba3d b9cf b83c 225c afbd 7bfe 013d
00000130: 817a 6ebd 6fa6 ae3d 981c be3d aa64 703c
00000140: 4428 59bd e2b8 9fba eaf8 fbbc 3f53 8fbd
00000150: da4e f0bc baef e4bd 87c9 07be a145 cbbd
00000160: b25d 2bbe a516 ad3b 8975 c3bd 4acd 7cbd
00000170: 6171 3cbe 969e 97bd 5c4a 99bc 05c9 673d
00000180: 2702 b33d 9353 67bd c398 abbd b071 cebd
00000190: 5f94 f9bc 0226 6ebc 762e 233e e0d5 913d
000001a0: e996 8bbc e95a 04be 5fae c3bd 8331 3ebb
000001b0: 6f32 e63d b0ea 3b3d c42d 54bd 906c f2bd
000001c0: 5c4d abbd 8864 623c b316 c03c 9a3f d9bd
000001d0: caf6 f2bd cc67 eebd 6ae6 963c 7f32 393d
000001e0: 57b5 74bc b783 5cbd d351 2bbd 018a 8dbd
000001f0: e6ac f03b 5fb1 593c 6bb2 b33d 86ed 6e3d
00000200: 334a 06be 9424 e4bd f09c 36bd 7cc6 adbd
00000210: fa09 a53d 4f7f 2c3d 3547 c0bd ecaf 93bd
00000220: 02ad 90bd fa34 403d db98 623e 692f d73d
00000230: 9cf2 efbb 29a4 e0bd dffc aabd d250 5d3c
00000240: b3b7 e33d 6b90 00be f71b 70bb 8ca2 f3bd
00000250: e732 11be b5b4 aebc 5be9 d43b 36df 6b3d
00000260: 6068 a63c 0b4a 03be c004 2d3d 9e24 213e
00000270: d6e9 143e be9c b23d 8ed6 2a3d d6cc a5bd
00000280: 3510 d03c 6b7b d93b 4179 e6bc 280c 38bc
00000290: 0e99 16bc e7b3 453d 56b9 033d f38a 8b3c
000002a0: fbfe e1bd 7a53 c63c 2527 03bd f09a 96bc
000002b0: 177b 9ebb 7e48 adbd 2694 b4bc 19ea 6ebb
000002c0: 7e73 82bc 03a2 d93c d5a9 193d ed7d 8839
000002d0: 0f8b 823d 1511 ca3c 1a12 98bd 98e8 a9bd
000002e0: 0f13 d0ba 2859 8f3c 20d2 7dbd bbba 0bbe
000002f0: befe 7fbc e99b e0bd e537 53bc f9d8 203c
00000300: b461 a8bc 5dd9 74bd d320 863d e5e1 6f3d
00000310: ead6 f7bc 3929 c83c c746 21bd 3acd 91bd
00000320: 0af4 ad3b df6a f9bd c1dd f5bd e71e 14be
00000330: 5e0f 5f3d 8515 0ebd f1b4 6fbd a54b 56bc
00000340: 71b5 003c ca77 cd3b f22f 073e 9544 873d
00000350: c80a 063d a9d5 bb3c 5d30 a83c 75ce 843b
00000360: 3c62 393d e034 983d 51d4 24bd 23cb 03be
00000370: 4b86 f5bc 3b39 443d 30f7 1fbd 98fa a5bd
00000380: 823f a93b 3861 cbbc ba9f 39bc 989e 9cbd
00000390: 63cd f63c 8cde ebbc a511 cfbc 0006 2ebd
000003a0: f3be 0bbe bd1a c3bd 36db 8abd 417e 843c
000003b0: eea3 02bd a85b c7bd 5e80 f3bc c463 e7bb
000003c0: 11ed 6abd 7c51 e13c 6b99 dfbc 5f88 85bd
000003d0: 5b98 22bc 73e9 febd 3052 8b3c 8f75 8d3b
000003e0: eccb 37bd faaa 69bc 930b b83b 239f 403d
000003f0: 6d2f 15bc a9fc 54bd ff6e 38bc a113 453d
0.010173881 0.059958216 -0.15560721 -0.1846778 -0.04709568 0.050904218 0.100224786 0.11398973
-0.072704546 -0.105290726 -0.123142935 0.186349 0.2867876 0.21322615 -0.12121696 -0.111974776
-0.10369632 0.19395961 0.1070115 0.024870722 -0.17725052 -0.026719986 -0.07681297 0.056105234
0.020862281 0.010805411 -0.21164134 -0.05374552 -0.01182779 -0.06056841 0.11863458 0.051745456
-0.20866227 -0.0552114 0.08526925 0.070602626 0.19006339 -0.057910353 -0.16381477 -0.01283117
-0.1418539 -0.019857833 0.14905769 0.02903342 -0.01284224 -0.05956563 -0.060288157 -0.06886591
-0.021989504 0.07909672 -0.049809568 -0.091217026 -0.0852979 0.048826274 0.019659216 -0.04640178
-0.04580941 -0.09030737 -0.0923482 -0.03247 -0.040497076 0.10572211 0.0045717796 -0.08570038
0.12160181 -0.1022055 0.14180171 0.12918726 -0.13706669 0.05613713 -0.012914081 -0.045797423
0.09086182 0.022559987 -0.08562495 0.031736832 -0.058222298 0.085278384 0.092827976 0.014672438
-0.053016916 -0.0012185837 -0.03075834 -0.069983 -0.029334474 -0.11178537 -0.1326047 -0.0992539
-0.1673496 0.0052822405 -0.095439024 -0.061719216 -0.18402626 -0.07403295 -0.018712215 0.05658819
0.08740645 -0.056476187 -0.08378746 -0.10080278 -0.030466257 -0.014535429 0.15935692 0.071208715
-0.017039733 -0.12925304 -0.09554743 -0.002902121 0.11240088 0.045878112 -0.051801458 -0.11837113
-0.083643645 0.013817914 0.023448324 -0.10607834 -0.118634775 -0.116408914 0.018420417 0.045214172
-0.014935813 -0.05383655 -0.04182608 -0.06911088 0.00734483 0.0132869175 0.08774265 0.05833199
-0.13114242 -0.11139789 -0.04458326 -0.084851235 0.080585435 0.0421136 -0.09388582 -0.07211289
-0.070642486 0.046925522 0.22128622 0.1050709 -0.0073226225 -0.10968811 -0.083490126 0.013508039
0.11119022 -0.12555091 -0.0036637762 -0.11896238 -0.14179574 -0.021326402 0.0064975447 0.057585917
0.020313442 -0.12821214 0.042240858 0.15736625 0.14542326 0.087213024 0.04170852 -0.0809571
0.025398353 0.006637027 -0.02813399 -0.011233367 -0.0091917645 0.04826727 0.032159172 0.01703403
-0.11034962 0.024209727 -0.032019753 -0.018384427 -0.004836451 -0.084610924 -0.022043299 -0.003645545
-0.015924212 0.026566511 0.03751548 0.00026033763 0.063741796 0.024666348 -0.074253276 -0.08296317
-0.001587482 0.017498568 -0.06196797 -0.13645451 -0.0156247 -0.109672375 -0.012891744 0.009817355
-0.020554401 -0.059777606 0.065492295 0.05856504 -0.030253846 0.024433719 -0.03937414 -0.07119222
0.0053086327 -0.12178587 -0.12005187 -0.14464913 0.054458015 -0.03468849 -0.05852217 -0.0130795585
0.007855759 0.0062703835 0.13201883 0.06604878 0.032725126 0.02292903 0.020530874 0.004052932
0.0452597 0.0743196 -0.040241543 -0.1287046 -0.029971262 0.04790614 -0.039054096 -0.081044376
0.0051650414 -0.024826631 -0.011329586 -0.07647437 0.030127233 -0.028792642 -0.025276968 -0.04248619
-0.1364706 -0.09526584 -0.067800924 0.016173484 -0.031894617 -0.09734279 -0.029724296 -0.0070614535
-0.05735499 0.027504675 -0.027294835 -0.06520151 -0.00992402 -0.12446871 0.017006963 0.0043169926
-0.04487221 -0.014261955 0.005616614 0.047026765 -0.0091055455 -0.051998768 -0.011256932 0.048114423

conv2.bias f4 [16]
00000000: 1e04 9f3c bbdc aebc f4b8 5bbd ba6e 04bc
00000010: 5bd8 08bc 848b b53c 1ec7 5dbd 23aa 6b3d
00000020: 715b 95bd 57da 933d 74b4 a03d 6fb5 71bd
00000030: c8fd e6bb b4dc 793c b79f d83c 3569 26bc
0.019411143 -0.021345487 -0.053643182 -0.00808304 -0.008352364 0.022161253 -0.05414497 0.057535302
-0.07292832 0.072193794 0.07846919 -0.05901092 -0.007049296 0.015250374 0.026443345 -0.010156919

fc1.weight f4 [120, 256]
00000000: 5af8 b1bc 68cb 0dbd 1b87 9dbd 9cb5 89bd
00000010: 80e9 55bd b2e9 ee3b f89e afbc 4d41 a33d
00000020: 353d c83d 48d9 f9bc aa8b 06bd 7786 50bd
00000030: 281e 393d c6ec a03d 0511 263d f21a f23c
00000040: 6a8f 90bc d4c9 223c 31c2 48bd a72b 5cbd
00000050: c30c 9d3d 0ebb 30bd fa06 09bd 2218 49bd
00000060: b3d6 6fbd 4a97 203c 6e45 233d 9c92 7abc
00000070: dbf7 be39 4c19 c7bc 5453 373d f79b 8f3c
00000080: 88aa de3c bff5 37bd c41b 453d c637 3dbd
00000090: 6e0a f7bc 5687 62bd b1e0 3f3c bd3c 9f39
000000a0: 74e5 3d3d 365c 85bd 2c49 2c3c 3a01 843c
000000b0: 6b1e edbc adec 283d 987c f4bc 6176 2c3d
000000c0: d6bd cc3d d630 1bbc 4311 5c3c a16b 953c
000000d0: 25e4 8f3d cf45 b83d 77da 8cbc fa0e 3a3d
000000e0: f874 4f3d 94ae 18bd 225f d639 21e5 073c
000000f0: c9da 543b b53a a83c 85ac 283d ddd7 2d3d
00000100: 955b 803d 3331 13bd 0baf b2bd c133 efbc
00000110: 1ff6 3abd 516a 04bc 9729 b4bb 21ab 833d
00000120: edf7 893c 2406 ad3c 272e 1e3c dbeb b93d
00000130: 8a2e 353c 488a c23c f0cd 2cbd b75a f8bb
00000140: fe99 6ebc a462 063d 1c21 7c3d 0f1f 5b3d
00000150: 3d83 9d3d 6d6f 463d 2631 b0bb ffe0 34bb
00000160: 2791 80bd 195d e43a 4736 893d fa36 95bd
00000170: 7ba1 5dbd d6c1 dcbc 41f6 05bd 77ef 16bd
00000180: 10bf 8abd 8f10 06bd 1daa 52bd 1750 14bd
00000190: c3c2 aabd d8a2 a7bd 60f8 963c ea99 343c
000001a0: b53b 2b39 1722 90bd e4d3 71bd ef09 e5bb
000001b0: aef1 0c3b 1629 813d 5ce8 b33d 0376 bc3b
000001c0: c950 9f3c 8dfa 4c3c 9f0e 65bc ba2e c33d
000001d0: 9cfc c73d 560f d1bb 22ba 1abd fece ad3c
000001e0: 0c9f ae3c e3f2 afbc 46c6 0abd 4379 c5bc
000001f0: 41f4 01bd 3a77 0fbd 1028 73bd d0c7 20bd
00000200: 592b 1dbd 2df8 31bd 641c d43d 48fb a43d
00000210: 6a00 813d 744a 93bc 110b 4f39 0ea6 8fbc
00000220: 90ff babb a3e2 593d 626a 55bc 95de 373d
00000230: 656a 4d3b 161e 0f3d 7f81 4bbd 70b6 a23a
00000240: edd4 35bb 0a59 dc3a a2f0 3cbd 0b45 94bd
00000250: 8255 d8bc fed4 a9bd fb46 59bd ee83 81ba
00000260: 1a7e 91bd 6524 d23c 4eaa 893c 9863 5a3d
00000270: c8df 01bd a0c1 4bbd 3144 843d 9041 b4bb
00000280: a837 613d ee53 453d 4d70 af3d 58da 933d
00000290: cd6d 8b3d 6517 05bd f1a6 503d a312 d33c
000002a0: fc09 11bd c11d 31bd cbb9 ff3c 05e9 f4bb
000002b0: 1c8b 633d ee79 c7bc 259b 4c3c 50ac 083d
000002c0: 6e44 58bc 48a4 3b3c 74f8 b33a 87f1 533d
000002d0: 0fc9 403d cbc0 02bd 5a8a 03bd ac32 3c3c
000002e0: 048d 123d 26a6 2bbd a31a cbbc 7d44 973d
000002f0: 27f8 f83b e7d3 8f3d e11d 2a3c 5471 373d
00000300: 804c b539 b061 a5bd b641 bcbd e6ae 0dbc
00000310: 2bf4 e4bc d7ee 2c3c 9410 56bd ce77 b0bd
00000320: fe2f c4bb 398f 1dbd b360 1ebc 828a adbc
00000330: eb7a a7bc 49a8 c23c 60ac 373d 7f1a 033c
00000340: 9476 5fbd 9466 2ebc 5191 c83c f9fe 0d3d
00000350: c530 bc3c 83d3 073d be96 0b3c 026c 713d
00000360: f90a 5c3d 4ad0 08bb 899e 91bc 4640 2c3d
00000370: e283 18bd c937 c43c b310 7ebd ad66 72bc
00000380: 01a4 43bd 6356 88bc 0b7d 98bd ba4e 45bd
00000390: 12ce 2dbd eac1 1a3c 5dce 823d 3fec 8e3d
000003a0: dfb4 103c 6789 543d 1e69 163d a240 fd3b
000003b0: dd59 febc 381f d73c f8d8 6c3d 16a1 0fbd
000003c0: 6f0d 1cbc 717c 9f3d 2f9d d23c 1233 5ebd
000003d0: 254b 273d eba2 31bd a9bf 73bb 5258 4bbd
000003e0: a859 78ba 0086 73bd d3c9 ed3c 65d7 72bd
000003f0: e2a6 2d3a 4ccc 343d 6f64 773a 600c 85bc
-0.021724869 -0.03461781 -0.07691785 -0.06724092 -0.052224636 0.0072910422 -0.021438107 0.079714395
0.09777299 -0.030499116 -0.032848038 -0.050909486 0.045194775 0.07857661 0.040543575 0.029553864
-0.01764651 0.009935815 -0.04901332 -0.053752568 0.0766845 -0.04314714 -0.03345392 -0.04909528
-0.058554363 0.009801695 0.039861135 -0.015293743 0.0003642429 -0.024304055 0.044757202 0.017530425
0.027180925 -0.044912096 0.048122182 -0.046195768 -0.03015634 -0.055304848 0.011711285 0.00030372097
0.0463614 -0.065117285 0.010515492 0.016113866 -0.028945168 0.041241337 -0.029844567 0.042105082
0.09997146 -0.009472093 0.01343185 0.018239798 0.07025937 0.0899769 -0.017194016 0.04542444
0.05064866 -0.037275866 0.0004088814 0.008294375 0.003247904 0.020535806 0.041180152 0.04244219
0.06267468 -0.035935592 -0.08724793 -0.029199483 -0.045644876 -0.008081988 -0.005498122 0.064291246
0.016841853 0.021121092 0.009654558 0.09078189 0.011058459 0.023747578 -0.042188585 -0.0075791734
-0.014563082 0.032808915 0.061555013 0.053496417 0.07691047 0.048446108 -0.0053769527 -0.0027599928
-0.062776856 0.0017422765 0.06699806 -0.072858766 -0.054109078 -0.026947897 -0.03270555 -0.036849465
-0.067747235 -0.032730635 -0.051431764 -0.036209192 -0.08337929 -0.08185357 0.018428981 0.011023024
0.00016330073 -0.07037752 -0.059039965 -0.0069897096 0.0021506357 0.06306665 0.087845534 0.005751373
0.019447701 0.012510908 -0.013980537 0.09530397 0.09764978 -0.006380002 -0.037775166 0.021216866
0.021316074 -0.021478122 -0.033880495 -0.024105674 -0.03172708 -0.035025813 -0.05936438 -0.039253056
-0.038371418 -0.04344957 0.103569776 0.080557406 0.06298907 -0.017979838 0.00019745181 -0.017535236
-0.005706735 0.053194653 -0.013025852 0.044890005 0.0031343934 0.0349408 -0.049684044 0.001241399
-0.0027745322 0.0016811204 -0.046127923 -0.072397314 -0.02640796 -0.08292578 -0.053046208 -0.0009881237
-0.0710413 0.02565212 0.01680484 0.053317636 -0.031707555 -0.049745202 0.06458319 -0.0055009797
0.05498472 0.048175745 0.085663415 0.0721938 0.06808052 -0.032493014 0.050940458 0.025765723
-0.035409912 -0.043241266 0.031216523 -0.007474067 0.055552587 -0.024350133 0.012488161 0.033367455
-0.013199909 0.011452742 0.0013730661 0.05174401 0.047066744 -0.031922143 -0.032114364 0.0114866905
0.035779014 -0.0419065 -0.024792975 0.0738611 0.0075979414 0.07022839 0.0103831 0.044785812
0.00034580007 -0.08075273 -0.09192221 -0.008647656 -0.02794846 0.010554991 -0.052261904 -0.08616601
-0.0059871664 -0.038466666 -0.00966661 -0.02118421 -0.020444354 0.023761885 0.044842124 0.008001923
-0.054556444 -0.010644574 0.024483355 0.03466699 0.022972474 0.033160698 0.008519826 0.058940895
0.0537214 -0.0020876103 -0.01777579 0.042053483 -0.03723515 0.023952382 -0.062027644 -0.014794988
-0.04776383 -0.016642755 -0.07445725 -0.048170783 -0.042432852 0.009445647 0.06387017 0.06978654
0.0088321855 0.05188885 0.03672134 0.007728652 -0.03104871 0.026260003 0.057824105 -0.035065733
-0.009524687 0.07787407 0.025709717 -0.054247923 0.040843148 -0.04336826 -0.0037193096 -0.049644776
-0.0009473809 -0.059453964 0.029026901 -0.059287447 0.0006624294 0.044140145 0.0009437268 -0.016241252

fc1.bias f4 [120]
00000000: 3660 84bc 18f8 c5bc 5a44 06bd 6441 193d
00000010: c78f 86bd 622e 483d c4fd 653d b8e6 10bd
00000020: 1406 c43b 82ca 953b 0a29 03bc 8480 623d
00000030: c294 8b3c 98b2 573d 141a 853c 3847 3cbd
00000040: e4d8 013c 75ce 44bd 1469 c439 cdf7 9c3c
00000050: 6387 3e3d 231d 593d 309f 29bd 92ff 0fbb
00000060: f0ac 153d 3311 b4bc 0fc3 ce3c ee94 bcbc
00000070: bc20 3b3d 1e35 0b3b 7693 7e3c 9c53 ce3c
00000080: e49f 183d 6307 b13b b454 643d 9ac1 8cbc
00000090: 208b 163b 24f3 5a3d 6854 d83a 8394 6d3d
000000a0: c60a 013c d872 13bd 11bd 2f3d 983c bebc
000000b0: b390 aabc 715b 7e3c 46ad 94bc eb33 77bd
000000c0: 606b 753d 7fc9 863c bb8a 09bd bea7 cf3c
000000d0: fcff 09bd 0b94 39bd 987f 293d 6c19 8d3d
000000e0: 8cc0 d9ba 45ef 0e3d 7375 6f3b dcd8 653d
000000f0: d831 c4bc a690 ffbc 6e0f adbc e8fc 2a3d
00000100: fef7 893c c25a d0bb 66ab df3b 21f4 193c
00000110: bbd2 a2bc 28eb de3c a5c0 2ebd 6476 11bc
00000120: 5762 15bd 6f28 163d 8148 c13c b759 153d
00000130: 5215 7fbd 8baa 5b3d 29d1 8d3c 6b72 d53a
00000140: ad02 fdbc 3d6a b33c 82d0 5abd 1c58 b9bc
00000150: 3213 1c3d 0e67 87bb 1c13 3fbb 11c0 ba3c
00000160: b331 273d 8684 6dbd 97d4 4dbc 529c 893d
00000170: 1273 4a3d 5320 ddbc de70 5f3d b3dc 6a3d
00000180: 4425 0d3d 3eb5 63bd b4af 333d a8e1 fbbb
00000190: 2b9f 3abb 1f69 a13c 6e34 f63c 6d35 2a3d
000001a0: 37bd 4c3d d679 2e3b 22cf 3cbd 6511 20bd
000001b0: ac85 1e3d edf5 3a3d fb1e b33c 2ebd c4bc
000001c0: 976e 19bd 2f68 883d 158d e53c 0703 2f3c
000001d0: a58b 643d 3116 1a3c 6771 26bc 9f6f 1bbd
-0.016159158 -0.024166152 -0.03278003 0.037415877 -0.06570392 0.04887236 0.056150213 -0.03537628
0.00598217 0.00457126 -0.00800539 0.055298343 0.017038707 0.052660555 0.016247787 -0.045966357
0.007925246 -0.048048455 0.00037462323 0.01916113 0.046515834 0.053006303 -0.04141158 -0.00219724
0.03654188 -0.021980857 0.025239496 -0.023020234 0.045685515 0.0021241377 0.015538087 0.025186352
0.03726186 0.005402492 0.05574484 -0.01718216 0.0022971109 0.053454533 0.0016504647 0.05800296
0.007876104 -0.035998195 0.042904917 -0.023222253 -0.020820951 0.015524731 -0.01814903 -0.060352247
0.059916854 0.016453503 -0.03357957 0.02534854 -0.03369139 -0.0453072 0.04138145 0.068896145
-0.001661317 0.034896154 0.003653851 0.056115016 -0.023949549 -0.031196903 -0.021125522 0.041745096
0.016841885 -0.0063584754 0.006825852 0.009396584 -0.019875875 0.02721174 -0.04266419 -0.008878324
-0.036470737 0.036659654 0.023594143 0.036462512 -0.062276192 0.05362944 0.01731165 0.001628471
-0.030885065 0.021901244 -0.053421505 -0.022625022 0.038104244 -0.004132158 -0.0029155677 0.022796663
0.04081888 -0.057987712 -0.012562892 0.06719269 0.049426146 -0.026992952 0.054550998 0.05733938
0.034459367 -0.055592768 0.043868735 -0.0076868124 -0.002847622 0.019703446 0.030054297 0.041554857
0.049985137 0.0026622913 -0.046095975 -0.03907909 0.0387017 0.04564469 0.021865359 -0.02401599
-0.037458982 0.066604964 0.028021375 0.010681874 0.055797238 0.009404705 -0.010158873 -0.037948247

fc2.weight f4 [84, 120]
00000000: b299 d03c dcef e2bc 8749 87bb 60c7 88bd
00000010: 53b4 9a3d 085c 5f3d 6d4c 9bbd 72e4 d13b
00000020: 34cd 94bd fb64 223d 1c8c b3bd b60c b4bc
00000030: d6b4 bb3d e3c9 c3bd 5a41 ae3d 0ddd 97bc
00000040: 082c cdbc b235 7e3d 0bcd b53d 0e4b 823c
00000050: 5f44 593d b747 c3bd 6730 a6bc 447d babd
00000060: b341 a3bd e3cb 293d a74a 40bd d496 d4bb
00000070: e251 af3d 86bf 343d 33bb 913d 3306 3d3d
00000080: 9915 a43c b10c 4d3c 8a13 a8bd d998 2d3d
00000090: 9550 89bd 09cc ed3c be7c 973d 516c f1bc
000000a0: ce0c b43c 6320 adbd f34f 583d 235d 89bc
000000b0: 595a 343c bb86 b0bc 87ba b9bd 0715 6cbd
000000c0: 26f1 323d 45f4 c83d 9eed 55bc 97df 853d
000000d0: 5536 143d 5d29 1ebd 0a1b 84bd 44b6 c7bc
000000e0: 6871 7a3d 1e19 7abc 2052 29bc 2168 b53d
000000f0: dcf7 fa3c 3cb7 c7bc 2cff e1bb 45e6 903c
00000100: cf5a a9bd 9ef8 c3bd c9d8 6d3c f74e 5e3d
00000110: 3a57 05bd 0d98 5b3d 9644 80bd f934 743d
00000120: 8d43 b6bd bd7e 9fbc 9ee8 96bd 45c2 0e3d
00000130: 3dc0 5fbd fdd2 bebc 3fae 5ebd 2cd2 393c
00000140: 2704 22bd 0981 903c a779 d23d f1cd 8dbd
00000150: 472f 8c3d c075 76bd 76e9 c13d cd74 073d
00000160: 2a81 7a3c 5a29 573d 25c1 b63c cdcb da3c
00000170: 28c8 8d3b 113a 44bd c2fb a4bd 820e 823d
00000180: 6b0e adbb 71a4 b63d 63b7 a63d 51fb 7abd
00000190: e2ea 42bd cc39 4aba 273c 97bd 51fe a1bc
000001a0: f861 1abd bc01 a73d f600 85bc 0047 6b3d
000001b0: d592 94bc a3ae 3fbd d1e3 97bd e985 783d
000001c0: 7e63 a3bd 9cc9 5cbd 6b7a 58bb 6698 bdbd
000001d0: 713d 103d 0e7f e9bc b9c6 cebd c56e 3f3d
000001e0: c4e2 57bd 858d 043b c8a4 023c f252 233c
000001f0: 532d 2cbc d925 b93d 6b6d d53d 4b41 943d
00000200: a742 04be 7cbc b7bb 3b0b 443d 29a5 233b
00000210: d31b 0c3e 0362 d13d b19e d6bd d422 7abd
00000220: c3da b4bd 5585 45bc b3e8 82bd 5b03 6bbd
00000230: 19be 98bc f1ed b3bc 46e0 1fbe 63d1 70bd
00000240: 34cc b73d fbac f9bd af7f a3bd ffa5 1ebd
00000250: 0e1c 6cbd 5718 d8bb 15a8 bcbd a5e2 d0bd
00000260: 6df5 b0bd bd86 863d 6dcc 02be 7efc 043d
00000270: 42ef 5a3c 1b13 493d 45f8 2abc b92e c33d
00000280: 7dea 1f3d 72a7 9bbc 28c0 b83d 051c e53d
00000290: c977 3abd 30b3 ffbc 3d4a 19bd 7178 653d
000002a0: 7ea3 aa3d ee6a ff3d b408 9e3c 31ca 4c3d
000002b0: 2eae 5d3b bd37 623d 13de 5dbd 8b61 85bd
000002c0: 738c 8e3d dd6a 70bc 91f0 53bd 72a6 29bd
000002d0: 263e 923d b4eb 0c3d 8c10 4dbd db04 88bd
000002e0: a4a1 b53d df87 4f3e 08cf 1e3d 2336 8b3d
000002f0: 12aa cd3d ab7e e8bc 669c a1bc 9a51 59be
00000300: c45a 9b3d 7a95 f6bd 52da 853d afb7 9abd
00000310: 778e 613d a8eb 89bd 0f99 693c 0912 fe3d
00000320: ce03 213d 6317 acbd 82e7 603d 90d5 80bc
00000330: 2675 a13d 2fdd b9bc 4c4d f83d 8e9b 05bd
00000340: 0f2a 24bd f0f0 d23d aa25 63bd 6c4e a73d
00000350: a8ed 1fbe 539f 87bd 2247 36bd f2c5 a6bc
00000360: 6a1e 5fbd 1250 babc 7d14 793d bad6 25bd
00000370: 5462 693c 4280 fbbd 3782 9a3d e671 413d
00000380: 6b44 71bd c7c2 07bd 161a 98bd 0cfb 87bd
00000390: 0ed8 0b3c e968 303a 0918 3ebc e4ff adbc
000003a0: 31a0 d43c 2e7d 423d a8bc 693d 8420 8dbd
000003b0: 1816 ba3d f823 bd3d d0a9 2d3d 6053 d6bd
000003c0: d00b adbd 18cc 883d 90d9 90bd 6e9d ff3c
000003d0: 036b 8a3c 4b92 eebd 3c99 983d bff2 8abd
000003e0: f4b1 0cbe 7e09 eebc f66c b9bd 0ed7 10be
000003f0: 0e21 003e 6e31 48bc 7af2 aebc a3e3 4cbd
0.025463913 -0.027702264 -0.004128638 -0.06678653 0.07553925 0.054531127 -0.075829364 0.0064054066
-0.07265702 0.039647084 -0.08766958 -0.021978717 0.09165351 -0.09559991 0.085085586 -0.018538022
-0.02504541 0.062062927 0.088769995 0.01590493 0.05304372 -0.09535163 -0.020286752 -0.09105924
-0.079715155 0.041454207 -0.046946194 -0.0064877067 0.0856054 0.044127963 0.071157835 0.04614849
0.02002983 0.012515233 -0.08206852 0.042382095 -0.06704823 0.029027956 0.073968396 -0.029470595
0.021978762 -0.08453443 0.05281062 -0.016768044 0.011007869 -0.02154862 -0.090687804 -0.05763724
0.04368701 0.09812216 -0.013057141 0.06536787 0.036184628 -0.038613666 -0.0645047 -0.024378903
0.06114331 -0.0152647775 -0.0103345215 0.08857752 0.030635767 -0.024379365 -0.006896874 0.017687926
-0.082692735 -0.09568904 0.014517018 0.054274525 -0.03255389 0.053611804 -0.06263082 0.05962083
-0.08899603 -0.019469613 -0.07368587 0.03485324 -0.054626692 -0.023293966 -0.054365393 0.011341613
-0.03955474 0.017639654 0.102771096 -0.06924046 0.06844955 -0.06017089 0.09468357 0.033070374
0.015289584 0.05252967 0.022308895 0.026708508 0.004326839 -0.04790694 -0.080558315 0.063504234
-0.00528126 0.089180835 0.08140447 -0.06127483 -0.047587283 -0.0007714301 -0.0738452 -0.019774588
-0.037691087 0.08154628 -0.01623581 0.057440758 -0.018136421 -0.046797406 -0.074164994 0.06067458
-0.07977961 -0.053903207 -0.0033031951 -0.09257583 0.035214845 -0.028502967 -0.10096497 0.046736497
-0.052706495 0.0020225954 0.007973857 0.009968506 -0.010508853 0.09040422 0.104212604 0.07239016
-0.12916051 -0.005607186 0.047862273 0.002497027 0.13682489 0.102237724 -0.10479487 -0.06106837
-0.08830788 -0.012055715 -0.0639204 -0.057376247 -0.018645333 -0.021964045 -0.15612897 -0.058793437
0.089744955 -0.121911965 -0.07983338 -0.038732525 -0.057643943 -0.0065946984 -0.092117466 -0.10199479
-0.08640561 0.06568668 -0.12773295 0.032467358 0.013362708 0.049090486 -0.010435169 0.09530396
0.039041985 -0.019000743 0.09021026 0.11186985 -0.045524392 -0.031213373 -0.037424315 0.056023065
0.08331965 0.12471567 0.01929126 0.049997512 0.0033825743 0.055228937 -0.054166865 -0.065127455
0.06960382 -0.014673916 -0.051743094 -0.0414185 0.0714076 0.03440447 -0.05006461 -0.06641551
0.08868721 0.20266674 0.03877166 0.06797435 0.10042204 -0.028380712 -0.019727897 -0.21222535
0.075856715 -0.12040229 0.06535782 -0.07554566 0.055067506 -0.06734401 0.014257683 0.12405784
0.03931027 -0.08402898 0.054908283 -0.015726835 0.078836724 -0.022688476 0.12124118 -0.03261905
-0.040079173 0.102998614 -0.05545584 0.08169255 -0.15618002 -0.066221856 -0.04450143 -0.02035806
-0.054472364 -0.022743259 0.060810555 -0.040487982 0.014244635 -0.122803226 0.07544368 0.047227763
-0.05890314 -0.03314474 -0.074268505 -0.0663968 0.008535398 0.00067295 -0.01160241 -0.021240182
0.025955291 0.047482662 0.057064682 -0.068909675 0.09086245 0.09235376 0.042398274 -0.10465121
-0.08449519 0.06679553 -0.07072747 0.031202998 0.01689673 -0.11648997 0.07451102 -0.067845814
-0.13739759 -0.02905726 -0.09053986 -0.14144537 0.1251261 -0.012218816 -0.021355856 -0.05002178

fc2.bias f4 [84]
00000000: 7228 aebd 9cec 1a3c 9c85 383c e066 1ebd
00000010: 6bfe 6ebd 7621 adbd 205e 8cbc acbd 6abd
00000020: f102 8d3c 5216 983d 0d75 b6bd cd74 463d
00000030: 3d39 453c a163 2f3d d11d 75bd d350 62bc
00000040: aed8 403d 2108 9abd 2f37 c2bd da8c aa3d
00000050: 522a 0b3d a4c4 e73c 5619 6abd 92fd 963d
00000060: 9426 83bd d1e0 283d bf89 99bb 9b25 97bc
00000070: fb0c 7f3c 6f82 51bc ca31 e63d 6b3a 913c
00000080: 1308 d53d 1e4f b53d ccf9 8dbd 6487 963d
00000090: e0d8 263d 8eea bd3c b0a0 bfbd c4be 05bc
000000a0: 3071 c63d fe81 b3bd e5a7 573d 9ff0 4e3d
000000b0: a315 b7bc 7fdc 73bd e559 203d c5a5 8e3b
000000c0: 821c b03d 8155 bbbc 70da 2abd 3a14 453c
000000d0: 6dd9 453d 05e5 c4bd 493c 4a3d 93c6 1e3d
000000e0: aeaf 53bc c22e a53d b16d 8a3d 9a68 563d
000000f0: e88c a4bd b32e 70bd 2a52 54bd 5976 c93d
00000100: a256 39bd dfa9 a3bd 9603 bc3d 0207 723d
00000110: e9f9 183d 2ae5 6fbd b222 783d 18aa ca3d
00000120: ec9d aebd 4734 b33d 375e d13d 616e ae3d
00000130: 2808 363d 7a7b 02bc 8b36 f63a 1f63 adbc
00000140: a3df 033c 1a73 e13c da6b bf3d 71d2 2dbb
-0.08503808 0.009455826 0.011262324 -0.038672328 -0.0583481 -0.08453648 -0.017134726 -0.05730979
0.017213317 0.07426132 -0.089090444 0.048451234 0.012037572 0.042819623 -0.05984289 -0.013813215
0.04708164 -0.07521082 -0.09483182 0.083276466 0.033975907 0.028292008 -0.05715307 0.073725834
-0.064038426 0.041230027 -0.00468561 -0.018450549 0.01556706 -0.012787445 0.11239965 0.017728051
0.10401931 0.08852981 -0.069324106 0.073500425 0.040734172 0.023183133 -0.093568206 -0.008163158
0.096895576 -0.087650284 0.05265035 0.050522443 -0.022349184 -0.059536453 0.03914823 0.0043532574
0.085991874 -0.02286792 -0.041712224 0.012028748 0.048303057 -0.096139945 0.0493739 0.038763594
-0.012920303 0.08065559 0.06759203 0.05234585 -0.08034688 -0.058638286 -0.05183617 0.09837026
-0.045248635 -0.07991385 0.091803715 0.059088714 0.037347708 -0.058568157 0.060579963 0.09895724
-0.08526215 0.087502055 0.10223048 0.08517147 0.044441372 -0.007964009 0.0018784566 -0.021165429
0.008048925 0.027520705 0.09346743 -0.0026523138

fc3.weight f4 [10, 84]
00000000: 6227 943c b86f ff3d 7dfc 95bd 4124 f1bc
00000010: 8b34 a83d 468e 823d f963 d9bc 0fa4 503d
00000020: 1feb 9b3d 4e34 203d bb50 bdbb 9117 233e
00000030: 3ae9 bcbd 86ab 73bb c460 a5bd 24ca 3bbd
00000040: 83b8 c73d d7c8 33bd bc7f 0b3d 2479 ef3d
00000050: 1431 053d 3964 223e afd6 573c 101b 383a
00000060: 3887 cf3c 80aa 453d 6f6a 133e 9fb6 a93d
00000070: c323 7dbd 4722 f5bd f6d6 5cbe e867 303d
00000080: c0f2 0fbe c036 81bc dda9 3c3e 1b68 5f3e
00000090: d720 32be e36c 833d 701b c53b 97ab 6abc
000000a0: 1f51 8ebd a36b 1a3e e061 703e 283b 4dbd
000000b0: 1f52 0a3d 90d9 b9bc 4fd3 98b8 5de5 92be
000000c0: 6e24 7fbe b8ed e7bd 11a0 85ba b560 d1bd
000000d0: 8e6f 8f3e dbd6 9cba c27d 4e3d 1932 00be
000000e0: f45a 64bd 4bff 3e3e 25dc f6bc 436d f5bd
000000f0: 9b6a 37be 5584 bbbd af75 68bd a90e e1bd
00000100: 135e b93a f588 a63d a56b 52be db93 14be
00000110: f1d0 033e d98f cdbc e878 c13e 709e 7dbe
00000120: 0f98 10be 34e3 cfbd d309 2a3d 9bcf 32bd
00000130: 1623 1cbd 029c 60bc 8129 5cbd 9b6a a73d
00000140: 0419 9ebe eb6c 81bd 7605 cb3d 6cbf ff3d
00000150: 762d 703d 80ac edbd 8973 563e c623 92bc
00000160: 4c76 61be 0278 43be 1627 df3d 0e10 953d
00000170: 73c8 34bd ec0e 55bd 5ff3 93bb 0800 21be
00000180: 8549 d63b 10db 423d 440f 82bc d796 0dbd
00000190: 6e7a 63be 640b 9e3d 0530 a33d 008f d9bd
000001a0: 6921 d83d 8bab 32be 4857 92bd acc2 053e
000001b0: ca69 a83d e633 933d 993b 68bd 049d febd
000001c0: 0ff0 58bd e612 bd3e a783 923e c703 613e
000001d0: 292f 093d a856 a93d 8fa6 9b3d 671b dabd
000001e0: 663e 1038 d844 b63d 38cb 8e3d e066 b6bd
000001f0: a0ef c73d 8ad0 13be 04c2 0b3c 17a4 0c3d
00000200: 4700 10bd 60e7 95bc 62fb 50bd 0ebf 123d
00000210: 4e59 2cbd 92ac 3abe 00ad 1cbe d177 413d
00000220: 44ca 17be bb14 56be 9ba5 6cbd 0ab3 0a3e
00000230: a156 08be 81e9 3e3e c9ae 14bd 5bcd b13c
00000240: 2632 43be 52cd 913d b71b a13e 492c d83d
00000250: afa7 7abc 978a b1bd c1ad c93e 6aa4 99bd
00000260: c525 023e 78d2 84bd eba3 5f3c 6519 88bd
00000270: d0b8 58be aec3 a43d 2501 a23e 33cb 873d
00000280: 4343 56be f51a 983d c783 42be 0cb7 86bd
00000290: b450 8d3d b19e cf3d 833b 5cbe 0268 3abe
000002a0: 5de5 5b3d 22ec c9bc 5ffe 8e3e 544e 58bc
000002b0: 84c8 69bd cc2f 553e 2cca d33d d801 b63c
000002c0: b386 c73a 009e 103e dd0f 663c 8875 32be
000002d0: 2125 00bd 1d7f b03d ef2f a23e b474 bc3d
000002e0: bb74 60be c2e9 aebd a874 d53a 58a6 33bd
000002f0: da39 633d 849f b3bd f507 7cbd 54f6 4dbe
00000300: bb98 e3bd 6709 11bc 54f5 cc3d 4f6c 15bd
00000310: c4fc bc3c 4636 713e 811f 483d 87f6 16be
00000320: 2bfe 87bd 1393 093e 682d bdbd 5213 e23c
00000330: b6b9 953d 25e3 a5bd 2cb9 563d 234b 4dbd
00000340: 9173 13be 65bc a53d 5fa6 423e 704d 08bd
00000350: 579f 20bd 916e dbbd 2b1d 9fbd 27a5 53be
00000360: f979 c8bb 2eb5 0a3e 29d8 f63c 2d6d 023e
00000370: fcbd 43be f938 9f3d a1fb c73d 1326 0d3e
00000380: 8008 ca3b 89b4 15be f80d ddbd c6e0 12be
00000390: 4db1 8d3d 8de2 b7bd 8f81 1ebe cdf3 1cbe
000003a0: 5972 da3d 243f c0bd dd2b 90be 732e ce3d
000003b0: ff46 b63e b1f6 893d 0193 553d 5aa6 4abc
000003c0: 1b72 abbd a79d e43d ce8f 0fbe a714 35bd
000003d0: 2010 54be 6dcc 6a3d 2c46 8dbd a219 ea3d
000003e0: b561 2d3e 5890 dabc 8742 32bd e2c8 b13d
000003f0: 0b0e 24bd 71a1 943e 9842 68bd 0a8d 80bd
0.018085185 0.124724805 -0.07323549 -0.029436233 0.08213147 0.06374793 -0.026536928 0.05093771
0.07613205 0.03911238 -0.005777446 0.15926959 -0.09224172 -0.0037181093 -0.08075097 -0.045847073
0.0975199 -0.043892708 0.034057364 0.116930276 0.032517508 0.15858544 0.013173743 0.00070230756
0.025333032 0.048258305 0.1439607 0.08286785 -0.061801683 -0.119694285 -0.21566376 0.043067843
-0.14057446 -0.015773177 0.18424173 0.21817057 -0.1739534 0.06417253 0.0060152337 -0.014323137
-0.06949066 0.15080123 0.23474836 -0.050105244 0.033769723 -0.02268675 -7.287284e-05 -0.28690615
-0.2491624 -0.11324638 -0.0010194798 -0.102235235 0.28014797 -0.0011965887 0.0504129 -0.1251911
-0.055750802 0.18652074 -0.03013427 -0.11983731 -0.1791176 -0.091561 -0.056752857 -0.10989124
0.0014142416 0.08131591 -0.20548876 -0.14509527 0.12872674 -0.025093006 0.37787557 -0.2476747
-0.14120506 -0.101507574 0.041513275 -0.04365502 -0.038119398 -0.01370907 -0.05375052 0.0817463
-0.3087846 -0.063196026 0.09913151 0.12487683 0.058637105 -0.116051674 0.2094251 -0.017839324
-0.22017783 -0.19088748 0.10896127 0.07278453 -0.044136476 -0.052016184 -0.004515096 -0.15722668
0.006539526 0.047572196 -0.01587642 -0.03456768 -0.22214672 0.07717016 0.079681434 -0.10622978
0.105532475 -0.17448251 -0.07145554 0.13062543 0.08223303 0.07187633 -0.05669746 -0.12432292
-0.052963313 0.3692848 0.28616068 0.21974097 0.03349224 0.082684815 0.07600128 -0.10649758
3.439039e-05 0.0889985 0.06972355 -0.089063406 0.09762502 -0.1443502 0.008530144 0.034336176
-0.035156514 -0.018298805 -0.051020987 0.035826735 -0.042077355 -0.18229893 -0.1530037 0.047233406
-0.14823252 -0.20906346 -0.05777512 0.1354486 -0.13314296 0.18643762 -0.0362995 0.021704366
-0.19062099 0.0711924 0.31466457 0.10555322 -0.015298768 -0.08669012 0.39390376 -0.075020626
0.1270972 -0.06485456 0.013649921 -0.066454686 -0.2116425 0.080451354 0.31641498 0.06630554
-0.20924096 0.07427017 -0.18995582 -0.06577882 0.069001585 0.1013769 -0.21507077 -0.18203738
0.053685535 -0.02464873 0.27928445 -0.013202269 -0.057075992 0.20819014 0.103412956 0.022217676
0.0015222639 0.14122772 0.014041868 -0.17427647 -0.03128541 0.08617995 0.31677195 0.09201947
-0.21919529 -0.085406795 0.0016285377 -0.04385981 0.055475093 -0.087706596 -0.061531026 -0.20113498
-0.111131154 -0.008852339 0.1000773 -0.036480244 0.023069747 0.2355586 0.04885817 -0.1474248
-0.066402756 0.1343501 -0.09237176 0.027597103 0.07310812 -0.08099965 0.052422687 -0.050120484
-0.14399554 0.08092574 0.19008778 -0.033276975 -0.03921446 -0.10714448 -0.07769235 -0.2066847
-0.006118056 0.13545677 0.03013237 0.1273696 -0.19115442 0.077745385 0.09764791 0.13784055
0.006165564 -0.1461965 -0.1079368 -0.14343557 0.06918583 -0.08978758 -0.1547911 -0.15327378
0.10666341 -0.09387043 -0.28158465 0.10067453 0.3560104 0.06736506 0.052142147 -0.012368763
-0.08371373 0.11162882 -0.14019701 -0.04420915 -0.20709276 0.057323862 -0.0689815 0.1143067
0.16931804 -0.026680157 -0.043520477 0.086808935 -0.040052455 0.2902942 -0.056704134 -0.06276901

fc3.bias f4 [10]
00000000: 988c 1bbc 159e 413e 09db 8e3c 370f 483d
00000010: 9696 d6bd fea9 8e3c 17bf 5dbd 4275 143e
00000020: 49f9 f93d 797a 5c3d
-0.009493969 0.1890796 0.017438428 0.048842635 -0.10477941 0.017415043 -0.054137316 0.14497855
0.122057505 0.053827737
