global_mnist_cnn.pt (torch, 181781 bytes, 10 tensors)

conv1.weight f4 [6, 1, 5, 5]
00000000: bb52 48bd c84f b93c f53d 16be f8f2 90be
00000010: 2973 06be 6aaa 1b3d 305c 13bd e42c aebe
00000020: 1e27 7bbd 6264 8c3d 70e6 1cbd b3ff adbe
00000030: cea0 46be fef0 3a3e 3787 a33e 3750 13be
00000040: 73b0 1ebe e36d 8c3e 0c0d 133f 0afc be3d
00000050: 079b ad3d ddd6 a33e 1f59 d63e b94f ea3d
00000060: 9b88 11bf 35f3 75bd 3904 dabb b7d3 8f3e
00000070: 81b9 2ebe 4b1c 3dbd 2e1d 443e 392c 8f3e
00000080: 37d6 aebd 1c98 e1bd 32c6 0abe 70b1 623c
00000090: 23d2 943e 3c9b 5f3e 2dd0 8ebe 2b24 cebe
000000a0: 19db 52bd 06bc e13e d19f c13d 3043 213c
000000b0: abba 61be 704e 28be 1aa6 b23e 29b9 453d
000000c0: 9ef6 003e 7be3 a1be 8179 67be 8e4e 68be
000000d0: d975 ccbd b499 463e fb97 c83e d8e9 3abe
000000e0: 40e3 77be 342d d03d 347f 013d 8855 883e
000000f0: 4301 9abe 9d70 04be 7fe8 043d f525 343d
00000100: 1ceb e93e fa70 83be 678c 8abe f569 1fbd
00000110: 1a40 503e 0dc1 bb3e aece 95be f052 ca3c
00000120: c59a 703c 6bee 7b3d d374 843c 36ab a7be
00000130: d8a3 16be 8d3d 1b3d c0dc fe3d 3489 903e
00000140: 8b58 743e e1a4 9e3e b4e3 eb3e 899d a73e
00000150: 60f0 3e3e 6198 023c 5b85 06bd 9c3d bebd
00000160: 7bec 93bd 9393 c4bd 0de0 c1be 796a c9be
00000170: e27f 99be c2e4 bdbe d219 f5bd e0ee 4cbd
00000180: ecd5 8ebe 02c6 b0be 07b8 2dbe eab0 8abe
00000190: e858 92bd 408d cabe 12ce 06be 5f8c 1fbd
000001a0: 1309 f83d 3f36 a43e 4715 cabd 7f3e 27bf
000001b0: ea58 0abf 63d9 82be 0479 2e3e ecae 273f
000001c0: 446b 943e 98e2 77be dfec 143e b475 46bd
000001d0: c763 cc3e c45e 213f 1eab ac3e eac0 fc3c
000001e0: d487 82be 7389 44be 20ad b13d 0c7f d639
000001f0: f094 91bd d7a5 603e 8dd1 983e 880a 9f3e
00000200: 9c1f c63e 6e0f 413e 85f5 04bd 3c76 b43d
00000210: e2b4 103e e055 443e 4de4 d03e 113b aabe
00000220: ab9e 4ebe 3305 4abe 7b1f 63bd 9378 6f3d
00000230: 013c 87be 0cb4 02be 4580 b1be 8712 3cbe
00000240: b1a4 8cbe ee59 99bc 95f6 a6be 7384 28be
00000250: de45 97be 12bc 17bc
-0.048907023 0.02262105 -0.14672072 -0.2831037 -0.13129868 0.038004316 -0.03597659 -0.34018624
-0.061316602 0.06855084 -0.0383057 -0.33984146 -0.1939728 0.18255994 0.31939098 -0.14386068
-0.15496998 0.27427587 0.5744178 0.093254164 0.08476835 0.31999865 0.4186487 0.11440987
-0.5684907 -0.060046393 -0.0066533354 0.28091213 -0.17062952 -0.04616956 0.19151756 0.27963427
-0.08536952 -0.11015341 -0.13552168 0.01383625 0.29066572 0.21836561 -0.278932 -0.4026197
-0.05147848 0.44088763 0.09454311 0.009842679 -0.22043864 -0.16436172 0.3489235 0.048272286
0.12594077 -0.31618866 -0.22604944 -0.22686216 -0.09983415 0.1939457 0.39178452 -0.18253267
-0.24207783 0.10164872 0.03161545 0.26627755 -0.30079088 -0.12933584 0.032448288 0.04398151
0.45687187 -0.25672132 -0.27060243 -0.038919408 0.20336953 0.36670724 -0.29259247 0.02469775
0.014685337 0.06150667 0.016168987 -0.3274781 -0.14710939 0.037900496 0.124444485 0.28229678
0.23861901 0.30985168 0.4607216 0.32737377 0.18646383 0.0079709 -0.03284202 -0.09289095
-0.072228394 -0.0959846 -0.3786625 -0.39339045 -0.2998038 -0.3708859 -0.119678155 -0.050032496
-0.27897584 -0.34526068 -0.16964732 -0.270881 -0.07145864 -0.3956089 -0.13164547 -0.038952228
0.12111106 0.32072636 -0.098673396 -0.65329736 -0.5404192 -0.25556478 0.17038351 0.65501285
0.28988087 -0.24207532 0.14543484 -0.048452094 0.39919874 0.63035226 0.33724302 0.030853707
-0.25494254 -0.19193058 0.08675599 0.00040911918 -0.07108486 0.21938263 0.29847375 0.31062722
0.3869599 0.18853542 -0.03246071 0.08811614 0.14131501 0.19173384 0.4079918 -0.3324819
-0.20177715 -0.19728546 -0.055449944 0.058464598 -0.26412967 -0.12763995 -0.34668174 -0.18366443
-0.274694 -0.01871964 -0.32610002 -0.16456775 -0.29545492 -0.009261148

conv1.bias f4 [6]
00000000: 1c83 d13b c498 4abc 9100 a3be 3812 e4bd
00000010: 2e4e 80be 3559 04bd
0.0063938033 -0.012365524 -0.3183637 -0.111362875 -0.25059646 -0.032311637

conv2.weight f4 [16, 6, 5, 5]
00000000: 03b6 85bd f16a 273d dab7 423b 9611 693b
00000010: 0225 7e3d 1212 06be 45ea 1c3e 12da c03c
00000020: a7b9 33be f7e0 8abd d9a2 96bd 8b6b 573c
00000030: 0f81 17bd f68a 033d c15d e33b a590 22bd
00000040: 2b5a e1bd c3ad 193c 8b78 923b a4c5 dabc
00000050: 7da4 003b 56ea 543d 5106 f9bd 8ce1 e4bd
00000060: 108d 35bd d1f9 87bd 5acf 693d 57fe e4bd
00000070: 3dcd 56be 4835 cb3c 64f9 79be 4d91 373e
00000080: fb64 643e d800 25be cd13 a7bd 2d03 77be
00000090: 77bd f73c de7d 9e3e 566e a7bc d9cd 50be
000000a0: 2a65 06be 1915 b0bd f83d 903e d721 2e3e
000000b0: 80f1 623c 7bdb 58bd 6aa5 09be 1ff4 0b3d
000000c0: ee7d fc3c 3bc7 88bc a1e0 133d 8f6d 62be
000000d0: 4359 52be 04fe 253d c38d 0d3a 36dd aa3d
000000e0: cc6e 87bd ee32 45be 5027 a13d 5baf f63d
000000f0: 0b1e 3f3e 17c4 583d 50ed 85be def9 b0bd
00000100: 70f8 24bd 5f87 8f3d 512d 5e3e 5fd7 0abc
00000110: 8191 ddbd a282 d83d 8a98 983c 9bde 993d
00000120: 4285 1dbd 1d7d cabd 6b8c ee3b 6de8 2bbe
00000130: 3d40 0abd f6e8 e23c 118e f23d e834 7a3d
00000140: 8ab6 2f3c af9a 02be 780c 0fbe bf60 0cbc
00000150: ef65 0d3d c5c9 9cbd 5936 1bbe 0556 5fbe
00000160: f378 33bc c46d e9bd 0803 dfbc 4c47 a4bd
00000170: 6930 37be 3cb7 d6bd 5a17 093c 3953 e73c
00000180: d7bc 973d 8107 843d 6b71 29bb 8b16 30bc
00000190: ff00 543b 5821 2d3e 8299 4fbd 6076 d2bd
000001a0: c3a7 33bd 5a30 0fbe 783f 823e 583b 383e
000001b0: e7e4 30be d132 7cbe 1926 ccbd 60fa e33c
000001c0: 84e5 ac3e 5770 ce3d acba c1bd 5106 37be
000001d0: ddca 92be d668 d83d 97ba fa3d 1054 b2bd
000001e0: 63d2 613d 97fa 58bd 1bab 30be 6964 bcbd
000001f0: 3579 ac3d 88b9 99bd 3141 7ebd b624 5f3d
00000200: e8ac cc3b 2dcb cfbc 2758 39bd f1a7 26be
00000210: 571f 30be 6bcf febc 0087 083d 31bb a4bd
00000220: 960e 04be dbc6 1dbe a646 ebbd 612a 47be
00000230: afa6 22bd 1a9b 0bbc 1bb5 f5bd 990b 23be
00000240: 7348 413c 08cb 15bd 83c7 6cbd c43e a23d
00000250: a625 ddbd 08d0 27be 136c d33d 60cb 0b3d
00000260: e9ba 823d 6a8e b4bc ffdd 123d 06c4 913c
00000270: 2ced 843c edbd 56bd 0dc7 a13c 8482 ea3d
00000280: 34d7 4abe 89bf cabd 8895 50be 560b 37be
00000290: 031f 6fbe cbfa 12be d4ab 2cbd cfa5 053e
000002a0: c04e 263e baa4 3dbd 170c ec3c 30bc c43d
000002b0: 5f6f 183e c5b8 b53d 6657 933d 787b de3c
000002c0: 2eba b739 c568 053e 7472 8c3d 93ec 9abd
000002d0: e792 92bc ab11 683d bfe6 8f3d b281 e6bc
000002e0: 0ea6 3dbe 9cd7 87bc 06ff c7bd 6caf 50be
000002f0: bb2e a8be f43c 9fbe aaf6 eebd b4e5 5fbe
00000300: 84c8 c0be ae1c a5be cee7 30be e693 eebb
00000310: cde6 41be b34a 0bbe c740 923d 4531 d93d
00000320: e158 8d3d 9fd8 a2bc 97fa 583d 28bb 2f3d
00000330: f969 a3bd 11e0 7d3c 538b 88bd 90ff 0e3d
00000340: 22cd 523d 4e72 8f3d 31da 34bc 38b7 7ebd
00000350: 39f5 d5bd bef7 223d 9e60 38be 1af1 01be
00000360: e115 2dbe a9e3 ffbc 68f6 1bbe ed06 90be
00000370: 5b38 4bbe 0c97 c33c 18e0 34bd 0962 713d
00000380: b028 a8bd 35e0 da3a b3dd 3cbd 73f2 23bd
00000390: 9e7c 69bd a419 293e 19b5 79bd 4642 61bd
000003a0: c13c ee39 f02b bbbb 1e0f 003e 896b 013e
000003b0: 1e3d 143e cddd 733e 0056 043e 1335 573e
000003c0: 4f42 d63d f78b edbc b403 0a3d 13cc c5bd
000003d0: 8ecf abbd c654 d4bd 8528 11be 36e2 3cbd
000003e0: d765 f8bb ee55 9abc 3104 39bd 9f6b 98bd
000003f0: 2bd4 d9bc e582 30be 4bf9 d93c 15a6 15be
-0.065288566 0.04087347 0.0029711635 0.003556346 0.062047012 -0.13092831 0.15323742 0.023541484
-0.1755129 -0.0678119 -0.073552795 0.013148199 -0.036988314 0.032114945 0.0069386666 -0.039688725
-0.11003526 0.009379807 0.0044699362 -0.02670557 0.0019629293 0.051981293 -0.12159408 -0.11175832
-0.04432398 -0.066394456 0.05708251 -0.11181324 -0.2097673 0.02480568 -0.24411541 0.17926522
0.22304146 -0.16113603 -0.081580736 -0.24122305 0.030241711 0.30955404 -0.020438354 -0.20391025
-0.13124529 -0.08597774 0.28172278 0.17005096 0.013851523 -0.052943688 -0.13442007 0.03416836
0.030821767 -0.016696563 0.036102895 -0.22112106 -0.20541863 0.04052545 0.0005399847 0.08342974
-0.0661293 -0.1925771 0.078688264 0.12045165 0.18663804 0.05292138 -0.26157618 -0.086414084
-0.04027599 0.07008242 0.21696974 -0.0084742 -0.10818768 0.10571791 0.018627424 0.07513162
-0.038457163 -0.09887145 0.0072799227 -0.16787882 -0.03375267 0.027698975 0.11843503 0.06108561
0.010724673 -0.1275432 -0.139696 -0.008567988 0.03452104 -0.07655672 -0.1515745 -0.21810158
-0.0109541295 -0.11397889 -0.027223125 -0.08021411 -0.17889561 -0.10484168 0.008367384 0.028237926
0.07409065 0.06446744 -0.0025854956 -0.010747562 0.0032349227 0.16907251 -0.050683506 -0.102764845
-0.043861162 -0.13983288 0.25439048 0.17991388 -0.1727482 -0.2462876 -0.09968204 0.027829349
0.33768857 0.10080021 -0.09459433 -0.17873503 -0.28670397 0.10566871 0.122426204 -0.0870744
0.05513228 -0.052973356 -0.17252772 -0.09198839 0.08421556 -0.075060904 -0.06207389 0.05447837
0.006246198 -0.025365436 -0.045250084 -0.16275002 -0.17199455 -0.031104764 0.03333187 -0.080435164
-0.12896189 -0.15407889 -0.114880845 -0.1944976 -0.039709743 -0.008520866 -0.11997434 -0.15922393
0.011797058 -0.03657058 -0.057807457 0.07922128 -0.107981965 -0.16387951 0.10323348 0.0341295
0.063833065 -0.022040565 0.035856243 0.017793667 0.016226374 -0.05242722 0.019748235 0.11450675
-0.19808656 -0.09899814 -0.20369542 -0.17875418 -0.23351674 -0.14353482 -0.042156056 0.13051532
0.16240978 -0.046299674 0.028814359 0.096062064 0.14886235 0.088731326 0.07194404 0.027158484
0.00035043195 0.13028248 0.06857768 -0.07564654 -0.017892314 0.056657474 0.07026433 -0.028138015
-0.18520376 -0.016582303 -0.09765439 -0.20379418 -0.32848153 -0.3110119 -0.11668141 -0.21864969
-0.3765298 -0.32248443 -0.17275926 -0.0072808145 -0.189357 -0.13602714 0.071412615 0.106051005
0.06901718 -0.019878684 0.052973356 0.042903095 -0.07979197 0.015495316 -0.06667199 0.034911692
0.05146516 0.07004224 -0.011038349 -0.06218645 -0.10447163 0.039787047 -0.18005607 -0.12689629
-0.16902877 -0.031236487 -0.15230715 -0.28130284 -0.19845717 0.023875736 -0.044159025 0.058931384
-0.082108855 0.0016698899 -0.046109866 -0.04002614 -0.05700361 0.16513687 -0.060963724 -0.054994844
0.00045440163 -0.005712025 0.12505767 0.12638678 0.1447644 0.23815079 0.12923431 0.2101634
0.10461866 -0.028997405 0.033694938 -0.09658065 -0.08389197 -0.10367732 -0.14175613 -0.04611417
-0.0075804996 -0.018839803 -0.045170013 -0.07442402 -0.026590427 -0.17237432 0.02660813 -0.14614137

conv2.bias f4 [16]
00000000: 36de 133d 92c3 693c 9b58 773d c59e b7bd
00000010: 2696 1fbe 53cf 25bd b380 87bd 895d 303d
00000020: 7ad3 40bd 9a4e b5bd 1dad a73d f4d1 4cbd
00000030: 4562 a6bd defc e73c 788a 693c 3211 96bd
0.03610059 0.014267819 0.060387235 -0.0896583 -0.15584621 -0.040480923 -0.06616344 0.043057952
-0.04707668 -0.08852883 0.081873156 -0.050004914 -0.08124212 0.028318819 0.014254205 -0.073274985

fc1.weight f4 [120, 256]
00000000: e361 c6bb e697 84bd 3b0d a5bd 9c6d d3bd
00000010: 84ae e33c 6109 803d d377 26bd 7c2b ccbd
00000020: d59c acbc 75a5 4d3d ce5e d7bc 04e9 44bd
00000030: d578 26bd 8374 b5bd 7c97 6f3d 0ae3 33bd
00000040: c1a4 143c ab21 72bd b221 3e3c 1bbd d83b
00000050: 9c61 48bc beb9 343c 679e 9a3c 0d4c 513b
00000060: b654 e43b 41c5 de3c bea1 2a3c ca88 2a3d
00000070: 6af0 31bd 143d c8bd 90e5 7fbd 9cd6 e1bc
00000080: e840 53bc 4ab8 423b 4e23 0d3d e91c 6eba
00000090: 4add a43c 462c 79b8 a350 51bd 11da 783c
000000a0: f201 92ba 5842 6a3c 33b1 8ebd 63b3 2abd
000000b0: 7254 20bd b98e 5fbd 4df9 3fbd 8273 8a3d
000000c0: 6869 303d cd07 623d 0689 983c c79e a8bd
000000d0: d86f 3ebc c5a4 59bd 5e77 84bd c137 c43c
000000e0: 1ef5 0b3b 4c5d 803d d415 f53c e67f a8bc
000000f0: 5fe0 af3c c845 72bb cc92 a2bc 20f3 c1bc
00000100: fe76 263d d703 513d 0ef5 bc3c b414 2238
00000110: aea6 b7bd 91af 2bbd 9d6c 823d 9702 353d
00000120: 8798 e6bc 6660 1f3d b71c 0b3d 35fb 94bd
00000130: f5c2 aebd 77fe e63c 5adb 1ebd 7a70 f43c
00000140: 78c8 2abd 979d 803c 56ea 7abd 68cf aa3d
00000150: 051a 233d 33b3 11bc 1734 a8bd b6ed fdbb
00000160: 7c77 c3bc ecfb 393c ca7a a5bc c6ab 4cbc
00000170: e80e 2ebc 59f3 d03c 755a c73a ed5c 613d
00000180: 0da1 963a 8266 c43c d63e bf3b 8a42 603c
00000190: 7f17 73bd 7329 003e 29e2 5d3d cc60 1b3d
000001a0: b657 c33c 7e0d 42ba f786 3c3d 6572 80bc
000001b0: c5b5 4fbc f2ce efbb 7955 a93b fb4e 853c
000001c0: 14d5 97bc c3b1 fbbc ae1b a93b 95be aebc
000001d0: 7d34 cfbc 7907 f5bd 8308 f4bc c186 893b
000001e0: 9719 963c e7aa 0fbc 7baf babd dfcf 5bbd
000001f0: a0f2 b7bd 93f6 bfbd 5770 d83c c6c0 83bc
00000200: 7e1e b2bc ab6b e8bd 8464 85bd 4b5e 503d
00000210: f565 8f3b ba2b 143d 7f34 95bc 4158 1a3d
00000220: 3a1f f03c 94f2 163d b7ea 29bd 4f06 7bbd
00000230: ba47 a13d 79d8 4cbd 1278 98bb 0802 07bc
00000240: b0f0 3abc 92fd d1bc 8617 27bd e976 7e3d
00000250: 90fa de3c 7812 183d a84d a1bc 9387 60bb
00000260: 68e4 98bd 100c 613b 8acb 1f3b 28e7 953d
00000270: 68bc d83b 806a ad3c 531c 173c dcd7 4c3c
00000280: 2526 343d 0727 3dbc cfe5 bbbd a32c 783c
00000290: 292b c2b9 3409 01bd 9416 81bd 08b6 463c
000002a0: e752 893d ebd9 543d bdbf 03bd b293 873d
000002b0: 4aff 56bc e757 38bd b5f5 9e3c 8e84 a53d
000002c0: 671c 95bb e17a ad3c 524b 9dbd 22c1 eebb
000002d0: 3f0e 853d 2192 1bbd bb5b 78bd 1ebb a1bc
000002e0: 9507 763d b1cc 22bd bec6 013c 7a54 c33d
000002f0: 4166 8bbd 875e 47bd 42e6 d4bc 2c25 2a3d
00000300: 8a93 e8bc 6871 053d ae8c 1b3d 4d52 88bd
00000310: 77ef 103d 5ae0 ac3d 3665 ae3d 98cb 443c
00000320: 9eaa 9c3c 5b2c 033d f95e c73c 9ce5 303c
00000330: 38b6 d2bd bb37 e3bc 8233 f03c cfd4 bcbc
00000340: b70d babc 599f 003e 148f 3f3d 3ff3 ce3d
00000350: 5386 cabb d222 3bbd 2b51 d2ba ad30 863d
00000360: b22b d2bc 1caa a0bc 2092 65bd 448b 37bc
00000370: 6ebe 64bd 38ac 343d 9c85 8fbc fa53 ec3c
00000380: e3ff 633c e367 193e 1a66 233d 875a a9bb
00000390: 8361 b43c 4ab2 eb3c bc8f 753c 8eb5 393d
000003a0: bb90 213d 311e 663c 885d 5e3d ee03 aabd
000003b0: efdf a0bc c751 5cbd 4f93 33bd 9187 0f3c
000003c0: bb2b 283c 30cd 54bd 1511 edbc 9501 d0ba
000003d0: 3075 bb3c 5326 c7bd b0ab 34bd cf61 aa3c
000003e0: 6b5f 28bb c42d a03d d747 eb3c 6b72 8ebd
000003f0: 2f81 833c 0afa 843a d2d9 2dbb cf7b c5bc
-0.0060541495 -0.06474285 -0.08059164 -0.10323641 0.027793176 0.06251789 -0.040641617 -0.099692315
-0.021070877 0.05020662 -0.026290324 -0.048073784 -0.04064258 -0.088601135 0.058494076 -0.043917693
0.0090724835 -0.05911414 0.011604713 0.00661434 -0.012230303 0.0110306125 0.01887436 0.00319362
0.006968106 0.027193667 0.010414539 0.04163436 -0.043442167 -0.09777275 -0.062474787 -0.027568154
-0.012893893 0.0029711896 0.034457497 -0.00090832874 0.02012505 -5.940746e-05 -0.05110229 0.01518871
-0.0011139496 0.014298044 -0.06967392 -0.041674983 -0.039143033 -0.05457947 -0.04686861 0.067603126
0.043069273 0.05518322 0.018620025 -0.082334094 -0.011623345 -0.053135652 -0.0646808 0.023952367
0.0021355818 0.06267795 0.029917635 -0.0205688 0.021469293 -0.0036967862 -0.019845389 -0.023675501
0.040640824 0.051029053 0.02306607 3.864309e-05 -0.089673385 -0.04191548 0.063683726 0.044191923
-0.028148903 0.038910292 0.03396293 -0.072744764 -0.08533279 0.02819751 -0.03878341 0.02983879
-0.04169509 0.015700145 -0.061258636 0.08340341 0.039819736 -0.008892822 -0.0821306 -0.0077492846
-0.023860686 0.011351567 -0.020200152 -0.012492126 -0.010623671 0.025506662 0.0015209453 0.05502026
0.0011492089 0.02397466 0.005836348 0.013687739 -0.05934858 0.12515812 0.05417076 0.03793411
0.023845535 -0.0007402523 0.04602715 -0.015679548 -0.012677615 -0.007318371 0.00516766 0.016273012
-0.01853422 -0.030724412 0.0051607704 -0.021331111 -0.025293583 -0.11964316 -0.029789215 0.004196972
0.018322749 -0.008768774 -0.091155015 -0.05366504 -0.08981824 -0.09373202 0.026420755 -0.016083132
-0.021743055 -0.11348661 -0.065133125 0.050871175 0.004376168 0.036174513 -0.018213509 0.03768182
0.029311765 0.036852434 -0.041483607 -0.061285313 0.07875009 -0.050011132 -0.0046529854 -0.00824023
-0.011409923 -0.025633607 -0.040793918 0.06212512 0.027219087 0.03712699 -0.01969035 -0.0034260496
-0.0746544 0.0034339465 0.0024382793 0.0731948 0.0066142567 0.021168947 0.009223062 0.012502637
0.04398169 -0.011544949 -0.09174692 0.015147361 -0.0003703472 -0.031502917 -0.063031346 0.012128361
0.067052655 0.051965635 -0.032165278 0.066199675 -0.013122389 -0.045005705 0.019404272 0.080819234
-0.004550505 0.021176757 -0.07680382 -0.007286207 0.06496858 -0.037981156 -0.060634356 -0.019742545
0.060065825 -0.03974599 0.007920919 0.09537597 -0.06806613 -0.048674133 -0.025988702 0.041539356
-0.028390665 0.032578856 0.03797596 -0.06656323 0.03538462 0.08441229 0.08515398 0.012011431
0.019124325 0.032024723 0.024337279 0.010796931 -0.10288662 -0.027736535 0.029321436 -0.023050694
-0.022711618 0.12560786 0.04676731 0.10104989 -0.0061805635 -0.045687504 -0.0016045918 0.06552253
-0.025655601 -0.019612364 -0.05604756 -0.011202637 -0.05584567 0.044109553 -0.017519765 0.028848637
0.013915989 0.14981036 0.039892294 -0.0051682624 0.022019153 0.028771538 0.014987882 0.04533916
0.039444666 0.014045284 0.054288417 -0.08301531 -0.01963803 -0.053788926 -0.043841656 0.008760349
0.010264332 -0.051953495 -0.02893881 -0.0015869612 0.022883028 -0.09724107 -0.044109046 0.020798592
-0.002569164 0.07821229 0.02872078 -0.06955417 0.01605281 0.0010145318 -0.0026527536 -0.024106888

fc1.bias f4 [120]
00000000: bf9a abb9 e998 62bc 4891 85bd 6bae 8a3c
00000010: 8633 2f3d 98c7 87bd 4551 373c 27ef 9ebd
00000020: e125 0bbd 0afe 973c 2cae 1e3b b0f8 c83c
00000030: 4b27 59bd 9915 3e3d 970c 203b 2a32 18bd
00000040: 35d4 74bc c48a e2bc 0c0f f3bc d26e 81bb
00000050: ae1d f4bc 0d1a bc3c 300a 43bb 195e dab5
00000060: f8fe d73c 5b01 e4bc 3d03 36bd 51bb 2d3d
00000070: 7340 6ebc 71d8 5fbd 23bd 2c3d 8917 76bd
00000080: 66f9 fd3c 54f0 1dbd 854e 4b3c 5ac3 d83c
00000090: 4c4a d3bb 982c 483d e2db 66bc d920 40bc
000000a0: d4cf 0dbd 5cdf ccbb b6f5 c33c 3704 0e3d
000000b0: 1b67 283d e53e 0e3d ae9b 0cbd d960 653c
000000c0: bb54 723c 7e28 6ebc 78c4 593b 1f40 1abd
000000d0: ae36 2c3d 3c70 8a3c 6c4d 5abc bfe9 e3bc
000000e0: 72b2 83bc 705d 8ebd 558d 77bd 092e 6b3a
000000f0: ad9b 7e3d 412a 663a 9ff0 1e3d 41fd 423d
00000100: afe9 86bc 394f 083c cc59 efbc 0a09 773d
00000110: 345f 6b3d 0ee6 163d 1def 1dbd b720 c3bc
00000120: 5950 d7bc 7a41 74bd 6b53 73bd 8aff 3cbd
00000130: 9b25 f8bb 52f5 743c ba43 3cbc dd94 313d
00000140: 97ac 623c 635c e73c fa43 023d 3d18 b53b
00000150: 5cc8 df3c 52a0 533d 674f 48bd f651 08bd
00000160: 493c 763d 9d14 583c ab2c 3c3d 5d5e 323d
00000170: 9c87 263d fecd 513d a447 ea3b a625 9d3a
00000180: 7a89 9e3b eafe ad3c a662 343c 02b8 d63c
00000190: afa1 753d ef57 53bd a42c 403d 8b94 68bb
000001a0: e7c9 663d c00a ea3b cb2b af3b 6fd6 1cbd
000001b0: c696 17bd bffd 3dbd ea85 1dbd e929 483c
000001c0: dd0a ffbc bdb0 16bd 6e93 bf3c b18e 6cbd
000001d0: 956b b83b 9af2 253d ed00 db3c f502 35bd
-0.00032730956 -0.013830402 -0.06521851 0.016928872 0.042773746 -0.06629866 0.01118881 -0.077604584
-0.03397167 0.018553752 0.0024212701 0.024532646 -0.05301599 0.046407316 0.0024421567 -0.037157215
-0.014943172 -0.02765406 -0.02967026 -0.0039499784 -0.029799309 0.02296164 -0.002976071 -1.6269652e-06
0.026366696 -0.027832678 -0.044436682 0.042414967 -0.014541733 -0.054649774 0.042172562 -0.06008104
0.031002712 -0.038559273 0.012408857 0.026460338 -0.006448066 0.048870653 -0.01409051 -0.0117265815
-0.03462203 -0.0062522124 0.023920875 0.03467199 0.041113954 0.03472795 -0.034328155 0.014000141
0.014790709 -0.014536021 0.0033228677 -0.037658807 0.042044334 0.01689922 -0.013324123 -0.02782142
-0.0160763 -0.069514155 -0.06043752 0.00089713983 0.062160183 0.00087801 0.038803693 0.047604803
-0.01646885 0.008319669 -0.029217623 0.060311355 0.05746384 0.03684049 -0.038558114 -0.02381931
-0.02628343 -0.059632756 -0.059405725 -0.04614214 -0.0075728423 0.014951067 -0.011490757 0.043354858
0.013835094 0.028242296 0.03180311 0.005526571 0.027317218 0.051666565 -0.04890385 -0.03328129
0.060116086 0.013188508 0.045941036 0.043547023 0.04065667 0.05122184 0.0071496535 0.001198937
0.004838166 0.021239717 0.011009848 0.026210789 0.059968647 -0.051597532 0.046917573 -0.003548893
0.056344893 0.007142395 0.0053457967 -0.038290437 -0.037009023 -0.04638457 -0.03845779 0.012217023
-0.03113311 -0.036789645 0.02338573 -0.05775327 0.005628059 0.040514566 0.02673384 -0.044192273

fc2.weight f4 [84, 120]
00000000: 8e4a dbbc 29ac 22bd 9d96 79bd 9eb1 8bbd
00000010: 93c9 95bd 24b3 87bb 9930 6f3d 9292 ef3b
00000020: 9f3d 113d 3caf da3c 998a c0bb 7214 6abc
00000030: 21a1 edbd e722 4a3c 3379 a5bd e052 d53c
00000040: 4746 c03c 4220 31bd 240f e63c 70b9 68bd
00000050: 149e 6c3d e349 233d 09e3 6abd 05c3 d6bc
00000060: ba35 dfbc 416f 80bd 13c0 9abc 1e31 43bd
00000070: 1a9a 91bd 1c05 25bd d8b0 963d 9ae1 42bc
00000080: f5f6 8a3d 1bbf a9bd ff72 773d eb46 e73a
00000090: 1029 b7bd 9073 893d 8dee bf3d 7e21 5c3d
000000a0: 2d2c 83bd f3e9 a6bd 4b7d 913d 7e5e ddbc
000000b0: 79b1 ad3d 3ea8 b7bd 91fa 83bd c57f 46bc
000000c0: 8ac2 55bd 5633 26bd 1b0c 713d c161 663c
000000d0: 6e4a dfbc e922 33bc 6fa8 7f3d 94eb fcb8
000000e0: 7d69 c7bd a120 e33d 1e75 983d 334d 953d
000000f0: c4eb 2e3d 973e d63b 17cc 6d3c df37 373d
00000100: fb06 6e3d 2a49 b23c 8124 23bd e547 0d3d
00000110: fa67 583d 5b9f b43d 044f c53b 5e0c afbd
00000120: 7352 883d 00a9 343d 14d9 9fbd ac9f 11bd
00000130: b900 f03b 603e 66bd 8c2f bebc 2bd0 de3c
00000140: 22ad a43d 97b3 89bd ef77 343d a12a 583d
00000150: 9383 e1bc ab08 c43c f2ee 6ebd 3958 94bc
00000160: 5032 77bd 25f0 b5bc c33c 36bd c4e1 16bd
00000170: b371 f93c 3081 3bbd 8fd5 a8bd b0e8 0d3d
00000180: 8ce0 063c b3d8 86bd 2a57 fc3c bdbf aeba
00000190: 3491 f7bc ed19 edbc 472e b63d 8d1f b8bc
000001a0: 6b88 44bd fa3d 47bd 6f51 76bd 5db9 abbd
000001b0: d764 2fbd a437 7bbd 84b3 703d cbba c93d
000001c0: 587a e3bc 9fc4 45bd d738 28bb 973b 93bc
000001d0: b81c 9abd ae25 febb e01e 61bd 88ed f8bc
000001e0: a172 8fbd a0b4 bd3b ef6b 36bd 2a67 2d3d
000001f0: bd17 283d a97c ffbc 0a1a 80bd 69bc b5bc
00000200: d018 423d 1f7d 993d 0596 6bbd 5350 fc3c
00000210: 2b12 b53b e6fd 943d 2695 6f3c f807 14bd
00000220: aaff 82bd 874c 793d 858f 50bc 7d0f ed3d
00000230: 6569 cd3d d455 063d 55c4 a6bc 881c b03d
00000240: 5707 06be cd50 adbd b896 3fbd d1b5 c8bc
00000250: 2973 d0bc 1c7c 25bd bee6 c9bc bacb cb3c
00000260: 9700 75bd 078e c3bb 0396 8b38 6750 99bd
00000270: a93d 6f3d 19f0 423d d28b 58bd 13f9 dabc
00000280: 1849 803c 8cc2 83bd 32e9 3a3d 9566 6b3d
00000290: 6d7f 0ebd dc65 a8bd 4633 72bb a466 103b
000002a0: 9a30 cd3d b89d 3e3d 160a 71bd 5d1e c0bd
000002b0: af14 8cbd 0e68 29be 91e9 b63d 7b72 c9bd
000002c0: b1d2 c83d 5f9b 31bd d39d 233d 9b4a 04bc
000002d0: 5303 3e3d 3f02 f33c f2ad ccbd d849 c93c
000002e0: 591c 6f3d 03e1 183d eff4 143d ac10 afbd
000002f0: ba59 ebbb 3dbc b5bc c992 9ebd 5905 673c
00000300: 82a9 61bd 6bc1 633c 6021 a5bd 73d1 b8bc
00000310: 050f 823d 1acd 743d e77e a43d dec1 a43d
00000320: e40d a73d 0622 033d f0e8 e43d 1f1c 9e3b
00000330: b5dc 47bd 44aa 983d bd6b 763a e6e1 d1bc
00000340: e663 923d e320 a5bd 6d28 7abd 00e9 273d
00000350: 7c54 96bc 971e 943d 1622 eb3c 6245 a83c
00000360: ee33 443c 6923 633c 5194 55bd 716d 90bc
00000370: 6f18 ab3c 3eac ee3c 8a38 a0bd 851f ec3c
00000380: 9118 3dbd c656 903d f1e8 9d3d 97c7 8bbd
00000390: 6047 f13c 49bb d93b c131 313d 6396 c8bd
000003a0: 22cc 753d 65b2 8f3d edf3 ac3c 4afb 0bbc
000003b0: c923 80bd b537 2cbd 52f1 da3d 272d 95bd
000003c0: 0a6d bbbd 1cde 00be 66c9 973d 4a8f bf3c
000003d0: b3d0 3bbd 8d9a 43bd 7570 0b3d 7e24 bebd
000003e0: e431 b1bd be73 f3bb 8de7 2a3d f1b7 143e
000003f0: 60c7 f73c e5d7 1dbd 9ee4 f8bb 25df 45bd
-0.026768949 -0.039714966 -0.06093465 -0.06820987 -0.07313838 -0.0041412283 0.058395956 0.0073111737
0.035459157 0.026694886 -0.005875897 -0.014287101 -0.116029985 0.012337423 -0.080797575 0.026040494
0.02347101 -0.043243654 0.028083391 -0.056817472 0.057767943 0.039865386 -0.057345424 -0.02621604
-0.027247299 -0.0627122 -0.018890416 -0.047654264 -0.07109471 -0.040288076 0.07357949 -0.011894608
0.067853846 -0.082884036 0.060412403 0.0017645037 -0.08943379 0.06711495 0.09371672 0.05374288
-0.0640491 -0.08150091 0.07103976 -0.027022596 0.08481116 -0.089676365 -0.06444276 -0.012115424
-0.05218748 -0.0405763 0.058849435 0.014061392 -0.02725717 -0.010933616 0.06241649 -0.00012060176
-0.09736917 0.11090208 0.07444213 0.07290115 0.042705312 0.006538223 0.014513991 0.044731017
0.058112126 0.021763403 -0.039829735 0.034492392 0.052833535 0.08819457 0.0060213823 -0.08547281
0.06656351 0.044106483 -0.07805076 -0.035552666 0.007324305 -0.05621183 -0.023216031 0.027198872
0.08040835 -0.06723707 0.04405969 0.05277503 -0.02752856 0.023929914 -0.058333345 -0.018108474
-0.060350716 -0.022209236 -0.04449154 -0.0368364 0.030449724 -0.0457775 -0.08243858 0.034645736
0.008232247 -0.06584301 0.030803282 -0.0013332289 -0.030220605 -0.028943026 0.088955455 -0.022475982
-0.04798166 -0.04864309 -0.060136255 -0.083849646 -0.042820778 -0.06133236 0.05876495 0.09850081
-0.027768299 -0.048283216 -0.0025668645 -0.01797275 -0.07525009 -0.0077559566 -0.054961085 -0.030386701
-0.070042856 0.0057893544 -0.044536527 0.042334713 0.041038264 -0.031187372 -0.062549666 -0.022184568
0.047386944 0.07494568 -0.057516117 0.03080002 0.0055258474 0.0727499 0.014622962 -0.036140412
-0.0639642 0.060863998 -0.01272953 0.1157522 0.10029868 0.032796696 -0.02035729 0.08599192
-0.13088737 -0.08462677 -0.046774596 -0.02450076 -0.025445538 -0.040401563 -0.02464616 0.024877418
-0.059815016 -0.0059678587 6.655978e-05 -0.07486039 0.058408413 0.047592256 -0.052867718 -0.026730096
0.015659854 -0.06433591 0.04563255 0.057470877 -0.03478949 -0.08222553 -0.003695683 0.0022033835
0.10019036 0.04653713 -0.05884751 -0.09380791 -0.068398826 -0.165436 0.08931268 -0.098362885
0.09805811 -0.043361064 0.039945435 -0.008074428 0.04638989 0.029664157 -0.09994115 0.024571344
0.058376644 0.037323963 0.0363664 -0.08548102 -0.007182327 -0.022184486 -0.07742841 0.014100396
-0.055093296 0.013901095 -0.080630064 -0.02256081 0.06350521 0.059765913 0.08032017 0.0804479
0.08156946 0.03201487 0.11177242 0.0048251296 -0.048794467 0.074543506 0.00094002095 -0.025620412
0.0714796 -0.08062913 -0.06107371 0.04099369 -0.018350832 0.07232397 0.028702777 0.020540897
0.011975272 0.013863423 -0.0521434 -0.01763031 0.020885674 0.029134866 -0.07823284 0.028823623
-0.046166006 0.07047801 0.07710446 -0.06825178 0.02945298 0.0066446406 0.04326034 -0.09794309
0.06000913 0.07016448 0.021112407 -0.008543799 -0.062568255 -0.042045314 0.106905594 -0.07284003
-0.09151657 -0.12584728 0.074114606 0.023383755 -0.045853328 -0.047754813 0.034042794 -0.09284304
-0.08652094 -0.007429569 0.04172473 0.14523293 0.030246437 -0.03853597 -0.0075956127 -0.04830851

fc2.bias f4 [84]
00000000: 8bab d23a 0d9b 87bd dbd1 5fbd bcb9 86bd
00000010: f8ff b9bd 3ad5 babc b568 7dbb d10f d13d
00000020: c8c9 393d 2f98 3bbd b3c0 b73d 9366 383d
00000030: 9adb 08bd 69d0 33bc 51ee a03d d4bc e1bb
00000040: 7946 14bd b9ab 9f3d f3d4 13bc b2c3 b2bd
00000050: dc10 5cbd 593c 953d 7ec1 2e3c e096 e83c
00000060: 23ff cf3d aa78 a13b 53cc 253d a20c 7bbd
00000070: a928 c0bb 8430 1e3d be87 65bd 6fb8 453d
00000080: 9ede 76bd 50fd b03c beff 3d3d f704 b73d
00000090: 2fa6 6cbd 809c 813d 46c6 433d cb94 43bd
000000a0: 6cbc aebb e1b1 43bc 3438 65bd 0664 df3c
000000b0: e5c0 883d 00b9 d03d d53f 91bd c050 debc
000000c0: 53a8 b93d 4cec 4c3d bc85 be3d b60c 8a3d
000000d0: 6aba e83b 3f8d 773d a265 0abd ecd8 fc39
000000e0: de80 79bd a095 b6bc 5dfa cebd 58ff 4dbd
000000f0: 5232 afbd bb0e 263d 7eb9 3abd 04d3 983d
00000100: 725d de3b 3361 56bc d88d 763d 5ebf 1cbd
00000110: 64a7 983c bdc2 cfbc d2ac debc 4bd8 73bc
00000120: e9e0 1a3c 9315 9abc 5b38 a5bc 96d6 b6bd
00000130: f922 823c ba9e 2cbd 3bfd a4bc 8952 7f3d
00000140: dc93 d83d bb2d c1bd 1441 e13d c234 40bc
0.0016072852 -0.066213705 -0.054643493 -0.06578395 -0.09082025 -0.022806752 -0.0038667147 0.10208095
0.04535845 -0.04579943 0.08972301 0.045019697 -0.033412553 -0.010974982 0.07857955 -0.006888965
-0.03620002 0.07796425 -0.009022939 -0.08728732 -0.053727016 0.07286901 0.010666249 0.028392255
0.10156085 0.0049277144 0.040478062 -0.061291344 -0.005864222 0.038620487 -0.056037657 0.048271593
-0.060270898 0.021605164 0.046386473 0.08936494 -0.057775673 0.06328678 0.04779651 -0.047749322
-0.00533252 -0.011944265 -0.055961803 0.027269375 0.06677417 0.10191536 -0.07092253 -0.027138114
0.090653084 0.050030038 0.093028516 0.06740706 0.0071023004 0.060437437 -0.03378833 0.00048226805
-0.060913913 -0.022288144 -0.10106347 -0.050292343 -0.0855452 0.04054139 -0.045587055 0.07462123
0.006786042 -0.013084698 0.060193866 -0.03826844 0.018634506 -0.025361413 -0.027182017 -0.014883111
0.009453037 -0.018809116 -0.020168474 -0.08927648 0.015885817 -0.04214356 -0.020140281 0.06233457
0.10575077 -0.094325505 0.10998741 -0.011731328

fc3.weight f4 [10, 84]
00000000: 4767 c53d 8241 cf3c 55a0 3abd 4617 5bbe
00000010: 7caa 90bd 03ff 37be 38a9 a1bd baa5 12be
00000020: 0ca9 233d 05da f1bd 0d00 52bc 4573 cabd
00000030: 21e7 c93d 2d1e afbd c12f ecbd 6911 1abe
00000040: 2fff a73d dbd8 8ebd 9237 283c 1e35 6a3d
00000050: 1994 99bd f7ec 8abd 692a 643d e159 9c3d
00000060: 5c0a a8be 6b0b 9dbd f968 f63d 440d adbd
00000070: 650c 7a3e a745 e83e 5fc5 08bc 18a2 123e
00000080: 267e 983d 5c63 5e3d 8109 823c 97fd 91be
00000090: 332c fcbc 31d0 b6bd 887f dfbb d3d6 f43d
000000a0: 9222 803e 21dd ccbc 6500 b0bd a442 38bd
000000b0: 5899 07be a3ce 85be 25ab eb3d 59bb 973e
000000c0: 1d30 d2bc bc15 20bd 4af0 9b3d ba26 86bd
000000d0: e648 b3bd f408 0c3e f5af 0e3d 7983 59bd
000000e0: a9bc 883d 0d93 d4bd 47de a23c 9e73 313d
000000f0: 4bab 333d fb52 4abe 5828 12bd 6867 9fbd
00000100: d140 4f3d 6254 8cbd 094b 41be 0e48 3abe
00000110: 2ca4 5dbd 2049 313e 41f6 9bbd d922 8a3e
00000120: 000c d8bb dbb2 e5bd 08dc 153e 6916 8c3d
00000130: ba53 24be c439 20be 8c27 8a3d 877e 9cbe
00000140: 874b 813e 21ce f83d c911 213e 5714 56be
00000150: 49b4 82bd c7dc 603e 451f bebd d9fc 023d
00000160: 1b6d 6e3d a74a f0bd 6b7d 273c d763 c63e
00000170: 223f 11bd e950 c7bc 90ea 833e 67f9 c7bc
00000180: 8678 e93d 86a4 d53d 27a9 0d3f 2299 453e
00000190: 7c27 44bc 94b8 41be 69e9 0dbe 85f3 a6be
000001a0: c771 d3bd 1db6 a0bd f9cb 62bb 03f2 5ebd
000001b0: ddfa 7cbd 9712 5abd 2e3d f1bc fa9a 76bc
000001c0: 1d30 2abc 8e01 9dbd f5bf 8ebd 90b5 82bc
000001d0: 0335 57be 3e35 70bd 857f 9abc 0a1c 823e
000001e0: bb4b 3ebe f82d 4cbe 66d4 7abe 0a3a 9ebb
000001f0: 7dd8 1cbe db5e 243c cfb6 c53c 7225 ac3c
00000200: 7ba7 51be 44c6 113c 9638 553c af17 1a3d
00000210: 2a42 a5bd 5fbf 2bbd da22 afbb a153 7dbd
00000220: aabc 6d3d 172f 013e 4834 823d 3f3e 6a3d
00000230: ac59 07be 0682 21bd 0ff9 71bd a9ef d2bb
00000240: 74db 86bc 22bd 4f3e 656a e5bc fc3d 9c3e
00000250: c649 a5be 28ff 8bbe 7cd6 b1bd 2612 b53c
00000260: 3d52 53bd b27e 67bc f778 3abd 8e4c bc3c
00000270: e254 d5bd c747 2f3e ab37 27be 934e 743d
00000280: 28c7 13bd cbdf 1c3e b04d 2bbd 5d35 1e3e
00000290: 008b c5bd a183 42be 06c3 643e 74f5 dd3d
000002a0: 9c0d 013e 53fd 7bbb 99b5 103e 8cc8 29be
000002b0: 4370 cb3d 6e1e 3fbd 75d0 f73d c3f9 77be
000002c0: 54a2 6fbd 334a edbc 56a3 d7bc 6c88 bebc
000002d0: 5602 73bd b047 babd 6d64 ca3e 1bd2 36be
000002e0: 9214 9cbb 9ceb 6b3e 44e8 bfbc 21d7 b53e
000002f0: d9e7 1bbd 36de 91bd ce75 14be 307a 153d
00000300: 6885 dbbd 0329 08be 7f81 963d 617a 353d
00000310: b1cc 693c b009 12be 10ec 1cbd 5107 56be
00000320: 3613 3e3e 7b75 6cbd a14f 173e 2c7a 45be
00000330: e22e 623e 11b1 1e3e b3ea 96bd 5b37 e03d
00000340: 0146 58be 0362 893e fb05 85bd b5b4 a03d
00000350: d850 623d 48da 5dbe ec31 01be c12a b73d
00000360: 33b7 0cbe 1993 cbbd 5cdb 40be 4b74 92bd
00000370: 7763 f6bb 7e08 423d 6fba 53bd 68af 36be
00000380: c2bf 1abe 34cd 1f3d fca4 b7bc f749 703d
00000390: 0567 2cbd 4fbe 65be 449e 0abe 09dd 8c3e
000003a0: 1d70 be3e cd3b 8dbe 02e7 57be 76c5 60be
000003b0: 757f 8bbd 582c 283c 4e4f 053e 75b2 9f39
000003c0: 2733 dc3c 796a bbbd 4ac4 873e c99f 1abe
000003d0: f054 273e 96ee 73be 1c3d 81bd 6b37 0dbe
000003e0: 1ad9 1cbe b931 75bd af1a 483d 1895 513e
000003f0: 3a81 783d b8fb c9bd b06d ad3d 3148 bd3e
0.09638839 0.025299791 -0.04556306 -0.21395597 -0.07063767 -0.17968373 -0.07893604 -0.14321032
0.039956138 -0.11809162 -0.012817395 -0.09885267 0.098585375 -0.085506774 -0.11532546 -0.15045704
0.08202969 -0.06974956 0.010267155 0.057179563 -0.074989505 -0.06783479 0.055704508 0.076343305
-0.32820404 -0.076681934 0.12031741 -0.08449796 0.2441879 0.4536564 -0.008347838 0.14319646
0.07445936 0.054293975 0.015873672 -0.28513786 -0.030782795 -0.08926428 -0.006820623 0.11955037
0.25026375 -0.025007786 -0.08593825 -0.04498543 -0.1324209 -0.26134214 0.115072526 0.29635122
-0.025657708 -0.039083228 0.07614191 -0.06550355 -0.08754139 0.1367529 0.034835774 -0.053103898
0.06676609 -0.1037961 0.01988138 0.04332315 0.04386453 -0.19758217 -0.035683006 -0.07783395
0.050598923 -0.06852032 -0.1887628 -0.18191549 -0.054111645 0.17313051 -0.076153286 0.26979712
-0.0065932274 -0.112157546 0.14634717 0.06840212 -0.16047564 -0.15647036 0.06745824 -0.30565283
0.25252935 0.12148691 0.15729441 -0.20906197 -0.06382043 0.2195922 -0.09283308 0.031979416
0.05820952 -0.11732989 0.010222773 0.38748047 -0.0354606 -0.024330573 0.25764894 -0.024410916
0.11399941 0.10431771 0.5533623 0.19296697 -0.011972304 -0.18918067 -0.1385857 -0.32607666
-0.10324436 -0.07847235 -0.003460644 -0.05443002 -0.06176268 -0.053240385 -0.029448118 -0.015051598
-0.010387448 -0.07666312 -0.06970207 -0.015955716 -0.21016316 -0.058644526 -0.018859634 0.25412017
-0.18583576 -0.1993941 -0.24495086 -0.004828696 -0.15316959 0.010032381 0.024135021 0.021013949
-0.20474045 0.008897368 0.013013979 0.037620243 -0.080692604 -0.041930553 -0.005344731 -0.061847333
0.058041252 0.1261562 0.06357628 0.05718827 -0.13217801 -0.03943064 -0.05907541 -0.006437261
-0.016462065 0.20286992 -0.028004834 0.3051604 -0.32282847 -0.27343106 -0.08683488 0.02210338
-0.0515921 -0.014129328 -0.045525517 0.022985723 -0.10416581 0.17117225 -0.1632983 0.059645247
-0.036078602 0.15319745 -0.041822135 0.15450044 -0.09645653 -0.18995525 0.2234002 0.10837832
0.12602848 -0.0038450554 0.14131774 -0.16580409 0.099335216 -0.04665988 0.12100307 -0.2421637
-0.058504418 -0.028966045 -0.026323002 -0.02325841 -0.0593284 -0.090957046 0.39529744 -0.17853586
-0.0047631944 0.23039097 -0.023426183 0.35515693 -0.038062904 -0.071224615 -0.14498064 0.03649348
-0.107188046 -0.13296895 0.07348918 0.044306163 0.014269994 -0.14261508 -0.038311064 -0.20901228
0.18562016 -0.057729226 0.1477647 -0.19284886 0.22088197 0.15497233 -0.07368984 0.10948058
-0.21120454 0.2683259 -0.06495281 0.07846967 0.05525288 -0.21665299 -0.126167 0.089437015
-0.1374176 -0.09940166 -0.18833679 -0.071510874 -0.0075191814 0.04737138 -0.05169147 -0.1784035
-0.15112212 0.039014056 -0.022417538 0.05866429 -0.042090435 -0.22435878 -0.13536936 0.27512386
0.3719491 -0.27584687 -0.21084216 -0.21950325 -0.0681142 0.010264479 0.13018534 0.00030459804
0.02687986 -0.091511674 0.26516944 -0.15100016 0.16340995 -0.23821482 -0.06310484 -0.13790672
-0.15317193 -0.059861872 0.048853572 0.20467031 0.060670115 -0.09862465 0.08468187 0.3696914

fc3.bias f4 [10]
00000000: c201 f4bc 7f86 a93e 63b4 f9bd 9407 103d
00000010: ff55 1c3d 0b80 f2bd 0c97 d2bd afe7 813d
00000020: 7461 1f3e 8ce0 ce3d
-0.029785994 0.33110425 -0.12192609 0.035163477 0.03816795 -0.118408285 -0.10282716 0.06343018
0.15564519 0.10101423
