global_mnist_cnn.pt (torch, 181781 bytes, 10 tensors)

conv1.weight f4 [6, 1, 5, 5]
000000 71 68 87 be 04 28 e7 3c 61 8d d8 3d 6d c5 7a 3e
       -0.2644687 0.028217323 0.10573841 0.24489374
000010 62 ad b4 3d a6 15 a2 be 42 82 6f be cb 72 5d 3d
       0.08822133 -0.3165714 -0.23389533 0.054064553
000020 de ef 84 3e 1d 44 88 3e 69 ec f5 bd bc 1b c2 bd
       0.25964254 0.26614466 -0.12007982 -0.09477946
000030 52 1b a7 bd ba e6 d2 3e a0 97 5d 3d 54 f5 70 be
       -0.08159508 0.41191655 0.05409968 -0.23531085
000040 c7 4c 90 be 90 f4 5c 3e a0 b3 c1 3e 15 f5 57 3e
       -0.28183576 0.21577668 0.37832355 0.21089585
000050 16 e1 0c be 29 2c e2 bc e7 e1 4a 3e d7 e1 1a 3e
       -0.13757738 -0.027608948 0.19812737 0.15125214
000060 60 4b b4 3d 7c ea 86 be 4a bd 5e be 41 84 a0 be
       0.08803439 -0.26350772 -0.21751896 -0.31350902
000070 0c 5f 43 bd 84 b7 14 be 0d b4 bb be d6 40 17 be
       -0.047698066 -0.1452313 -0.36660805 -0.14770827
000080 a5 2b 93 be 2b 92 68 3d c8 d2 24 3e a7 d5 57 be
       -0.28744236 0.05678002 0.16096032 -0.21077596
000090 9c 17 62 3e be 02 e5 3e d8 28 e3 3d d8 f1 0c 3c
       0.22079319 0.44728655 0.11091775 0.008602582
0000a0 46 92 f8 3e ab e5 0b 3f 4b 74 92 3e d9 3a bf 3d
       0.48549098 0.5464732 0.2860435 0.09337396
0000b0 fa 45 b2 bd e7 a3 99 3e 2f c4 8c bd d0 28 85 be
       -0.08704753 0.3000786 -0.068733566 -0.260077
0000c0 b5 86 4a be d9 3a 9e 3b 1e 5d 9b 3d 6a b8 80 3a
       -0.19777949 0.0048287925 0.0758612 0.0009820585
0000d0 3a c3 51 be ea 6f 82 be 4e 89 01 bf 8a 4a fd bc
       -0.2048463 -0.2547601 -0.50600135 -0.030919332
0000e0 cb 85 7a 3e 2c de 1f 3e 21 79 79 bd 50 a1 33 bc
       0.244651 0.15612096 -0.060906533 -0.010963753
0000f0 5a 14 4e 3e 4d c4 bd 3e 5d 05 18 3f 06 68 ca 3d
       0.20124951 0.37063828 0.59383184 0.09883122
000100 a0 90 3e 3d 21 c1 8d be 0e bc 92 ba e7 1b 98 3e
       0.046524644 -0.27686408 -0.0011194961 0.29708788
000110 e9 71 86 3d 03 cd 8c bd d4 22 58 be 0b e3 02 be
       0.065646954 -0.068750404 -0.21107036 -0.12781923
000120 a9 fd 70 bd c1 52 8b 3e 46 0b 2f 3e 16 b1 0f 3e
       -0.05883566 0.27211574 0.17094144 0.14032397
000130 38 1c 8d 3e b3 a2 a6 bd 21 5a 19 be aa 45 16 bb
       0.27560592 -0.08136501 -0.14975788 -0.0022929707
000140 fe c2 57 3d d8 c1 10 3d d0 ca f1 3d c0 f5 4a be
       0.052676193 0.035341114 0.118062615 -0.19820309
000150 cb 51 9e be 9c 48 32 3e f3 61 15 3d e4 92 a3 3c
       -0.30921778 0.17410511 0.036470365 0.019967504
000160 ef 18 a3 be c4 d1 f4 bd 3c e4 80 3d cc df 82 3c
       -0.3185496 -0.11954072 0.06293532 0.015975855
000170 37 7c 60 be ea 9e de bd 31 40 8a bd 85 e0 a4 bd
       -0.21922384 -0.10870154 -0.06750525 -0.08050636
000180 ea 12 cf 3d 2f 71 83 be 02 01 0d be 94 b8 2f be
       0.101110294 -0.2567229 -0.13769916 -0.17160255
000190 08 92 9e 3e ce ca 0a 3e 8f bc 6f 3e 32 5b d3 3e
       0.30970788 0.13553926 0.23411773 0.41280514
0001a0 f6 45 bd 3e c9 44 0b bc 82 31 a6 3c d1 05 6e 3e
       0.36967438 -0.008500286 0.020287279 0.23244406
0001b0 65 e2 69 bd 3d ac d0 bd 04 12 19 bd 70 e4 09 be
       -0.057100672 -0.10189102 -0.037370697 -0.13466048
0001c0 66 8f ab be 35 5c c1 be fa 12 a8 be b3 b9 b5 be
       -0.33507842 -0.3776566 -0.32826978 -0.3549324
0001d0 a4 8f ab be b3 ba ce be 1d b0 c8 bd a0 fe 7c be
       -0.33508027 -0.40376815 -0.09799216 -0.24706507
0001e0 83 ae 67 be 52 bb 06 be 69 8c 86 3d 98 8c 45 3d
       -0.22625165 -0.13157395 0.0656975 0.048229784
0001f0 de d9 5f 3e 12 01 23 be 33 46 31 be df 81 7a 3c
       0.21860453 -0.15918377 -0.17311935 0.015289753
000200 56 49 83 be 41 9e 0f 3e 54 bf dc 3c 4c a4 f1 3c
       -0.25641888 0.14025213 0.026946701 0.029497288
000210 81 27 5c be 81 e2 df bc c4 35 2a 3e e3 71 33 be
       -0.21499445 -0.027329685 0.16622072 -0.17523913
000220 56 2b 81 be de d1 9d bd 46 cb e6 bd c7 3e 8b 3e
       -0.25228375 -0.077060446 -0.1126924 0.27196333
000230 22 d3 2e 3d a0 1e d9 bd 69 2d 81 be 97 3a 49 3e
       0.04268182 -0.106015444 -0.25229958 0.19651257
000240 32 b0 6d 3e 31 6c 77 be 72 87 7e 3d e2 42 6e be
       0.23211744 -0.24162365 0.06214089 -0.23267701
000250 fe 58 04 bd cc 3d ae 3d
       -0.032311432 0.085078806

conv1.bias f4 [6]
000000 64 c8 61 be bc 58 cb 3d 48 cd 15 3e 6a d3 5b 3d
       -0.22049099 0.09929034 0.1462909 0.053668417
000010 48 43 a6 3d f0 6d 9a bb
       0.08118302 -0.0047128126

conv2.weight f4 [16, 6, 5, 5]
000000 b7 21 f4 bd 1e e2 9e 3d 8d 0c 0d be bc aa a8 bd
       -0.11920493 0.07757972 -0.13774319 -0.0823569
000010 9c f0 b0 bd 96 94 85 bd 25 93 1b bc 8e 7e 10 be
       -0.086396426 -0.06522481 -0.009495531 -0.14110777
000020 27 11 b0 3d f4 a8 38 3e 49 f1 10 be 97 e8 0e be
       0.085970215 0.180332 -0.14154543 -0.13955913
000030 10 c4 72 be a8 38 1e 3d b6 e6 8c 3e 33 49 74 38
       -0.23707604 0.03862825 0.27519768 5.8242305e-05
000040 bf 22 10 bd 7c 64 fc bd ea d5 e2 bd 27 cc 7b 3e
       -0.035189386 -0.123238534 -0.11075957 0.24589597
000050 84 6d cd 3d 4b d3 24 3d d2 56 65 3d 54 23 4b be
       0.10030654 0.040240567 0.055991 -0.19837695
000060 42 7d fc 3c b0 aa 10 be 6d 0a f1 3c c6 7d 12 3e
       0.030821446 -0.14127612 0.029423917 0.14305791
000070 05 c0 68 3e b2 77 34 3e c3 3e 26 be cf 3b 8d 3d
       0.227295 0.17623785 -0.16234879 0.06896173
000080 ca 1a fb 3d 59 25 de bc 97 8b c3 bc 2d 16 5d bd
       0.12260969 -0.027117418 -0.023870273 -0.053976227
000090 29 da 87 bd b6 53 32 be 58 1c 2f be 3f 98 f9 bc
       -0.066334076 -0.17414746 -0.17100656 -0.030468104
0000a0 e5 cf d7 3d ba 77 0b 3d 36 19 f3 3d f1 aa b8 bd
       0.105376996 0.034049727 0.11870043 -0.090169795
0000b0 4c 93 b3 bd 1c e6 dd 3d 2f 8c 73 3d 9f 27 f7 bc
       -0.08768329 0.108349055 0.05945986 -0.03017026
0000c0 31 96 fe bc 5a 8c dd bd 1e 0c a9 3c 50 4e b5 3d
       -0.031077476 -0.108177856 0.02063566 0.088528275
0000d0 ef f5 bb 3d da 6d 03 3e 09 62 40 3e f0 9a 14 bd
       0.091777675 0.12834874 0.18787397 -0.036280572
0000e0 17 d3 14 3d 7e 19 e2 3c 11 31 d2 3d 10 d9 75 3e
       0.036334123 0.027600046 0.10263265 0.24008584
0000f0 f3 de 04 be b3 ac 5c be b4 39 14 be 53 27 08 be
       -0.12975673 -0.21550255 -0.14475137 -0.13296251
000100 fa 60 f5 3d 59 56 e8 3c ba 4c 30 bd bd 2d fe bd
       0.119813874 0.028361486 -0.043041922 -0.12411068
000110 4e e2 df bd 48 52 f9 bc 57 e5 22 3c 93 99 29 3d
       -0.10931836 -0.030434743 0.009942374 0.041406225
000120 e8 84 4f 3d 18 1c 1f bd fb 23 36 be d3 d9 ba bd
       0.05066386 -0.03884515 -0.17787163 -0.09123578
000130 f7 75 31 bc 28 45 f9 bc 3a 05 1e be 23 55 20 3c
       -0.010831348 -0.030428484 -0.15431681 0.009785923
000140 9a 9b 45 3d fa 7e 6e bc 7c 99 2e bd df f9 de 3c
       0.048244096 -0.014556641 -0.042626843 0.027218757
000150 3a 09 c0 bd 6c e1 c7 3c af 50 62 bb 62 15 58 3d
       -0.0937676 0.024399482 -0.0034532954 0.052754767
000160 07 af 9c 3c f8 25 18 bd a1 74 9f 3c 1e d8 8f 3d
       0.019126428 -0.037145585 0.019464793 0.07023643
000170 c0 9c 24 3d b0 c9 6a 3d 94 08 35 bc 4b 45 37 bd
       0.04018855 0.05732125 -0.011049408 -0.044743817
000180 46 32 84 bc 9e a4 ec 3c 33 62 aa 3c 52 ab a0 bd
       -0.016137253 0.02888709 0.020798778 -0.07845177
000190 f1 13 b0 3b cb 4e 82 ba 0d f0 75 bd b2 b4 93 bd
       0.005373471 -0.0009941695 -0.060043383 -0.07212199
0001a0 96 6e b9 bd 6a 3e 93 3d e8 1f 0a 3d c4 e7 0b bd
       -0.09054296 0.07189639 0.033721834 -0.034156576
0001b0 d1 4c 8a 3c e3 7b 7c bd 94 82 e4 bc 52 7e de 3d
       0.016882332 -0.061641585 -0.027894296 0.108639374
0001c0 96 fc 9f 3d 98 fb 55 3c ba ab 84 bd 18 a6 9e 3d
       0.07811849 0.013060473 -0.06478067 0.077465236
0001d0 fa ab 01 3d 56 7f 1c 3c 17 97 99 bb 6d ca 3f bc
       0.03165815 0.009551844 -0.0046872008 -0.011705977
0001e0 25 99 3a bd f5 d6 fe 3b 45 5e bf bc 99 02 c6 bc
       -0.045556206 0.0077770897 -0.02336038 -0.02417116
0001f0 59 00 a9 bd 98 8a b9 bc 55 90 d6 bb 75 0c 94 bd
       -0.082520194 -0.022649094 -0.0065479674 -0.072289385
000200 33 71 b4 3c 9d 0c db bd 81 84 8a bd 01 c7 30 bc
       0.022026634 -0.10695765 -0.06763554 -0.010789634
000210 22 33 cf bc d6 02 7e bb b2 bf fa 3c 12 f0 e5 bd
       -0.025292937 -0.0038759015 0.030608986 -0.112274304
000220 32 d6 6d bd 18 35 04 bd b4 79 7b 3d 66 78 8d 3c
       -0.0580656 -0.032277197 0.061395362 0.017269325
000230 da d7 d3 bc 93 38 da 3b ee 10 fc bd 97 5d 3b bc
       -0.025859762 0.006659576 -0.123079166 -0.011435888
000240 dd e6 c9 3d 5d 0a 26 bd b1 d4 03 bd 14 7d 1a 3c
       0.09858487 -0.040537227 -0.03218526 0.009429235
000250 17 65 cb bd 33 2d bd 3d be 4d 12 be dc 15 49 be
       -0.09931391 0.09237137 -0.14287469 -0.19637245
000260 9c 5c f4 3d d9 f7 b0 3c 88 ae 28 bd c8 72 08 be
       0.11931726 0.021602558 -0.04118207 -0.13325036
000270 da 5e ed bb 16 60 22 3e d5 44 72 bd 48 23 f1 bd
       -0.007243973 0.15856966 -0.059147675 -0.117743075
000280 20 64 b6 bd 98 95 1c 3e 1a d9 0d 3e 85 ae 3d be
       -0.08905816 0.1529144 0.13852349 -0.18523605
000290 ad 66 57 3c c3 a4 e5 3c 31 5d 63 3e 63 5d 2c bd
       0.013147038 0.028032666 0.22203518 -0.042081248
0002a0 09 7f 28 be 6e 64 33 3c d3 47 74 3d 67 f8 7b 3d
       -0.1645471 0.010949237 0.05963881 0.06151619
0002b0 35 04 5b bc 48 18 e9 bd cb 69 57 be d6 b6 45 3d
       -0.013367702 -0.113815844 -0.2103645 0.04827007
0002c0 da 79 33 be d2 0a 43 bd 15 6e c3 3d a8 35 92 3d
       -0.17526951 -0.04761774 0.09542481 0.0713914
0002d0 cf ae 1c bd ba 38 b3 bd 82 a1 b3 3d 48 36 42 3e
       -0.038252648 -0.08751054 0.087710395 0.18966019
0002e0 f0 2e 64 3c b3 7f 86 bd 91 8b 8a 3c 43 29 30 3d
       0.013927206 -0.065673254 0.016912254 0.0430081
0002f0 cc 6c a0 3d 3a 8b f7 bd 8c 21 53 bd da a6 bb bc
       0.07833251 -0.12087102 -0.051545665 -0.02290671
000300 bd 76 cc bc 0f 11 d1 bc 85 eb 3e 3e 63 7b 4f ba
       -0.024958963 -0.02552083 0.18644531 -0.00079148094
000310 a1 82 a8 bc 46 0c fb bd c5 c7 28 bc 0e f4 08 3e
       -0.020570101 -0.122582 -0.010301535 0.1337435
000320 6a 86 e4 bd 25 6d f2 bd f4 bf e7 bc 47 af 9e bd
       -0.1115845 -0.11837224 -0.028289773 -0.07748275
000330 de 30 bb bc 5d 0b 34 bd 9c 97 25 be aa 82 d3 bd
       -0.02285045 -0.04395615 -0.16171116 -0.103276566
000340 bc d2 0d be 9f 27 9e bd 46 70 04 be 61 9c f7 bd
       -0.1384992 -0.07722401 -0.12933454 -0.12090374
000350 44 8c aa bb 55 6c 7f bd 9d 32 fa bc e1 bd b3 bd
       -0.0052047092 -0.062359173 -0.030541712 -0.08776451
000360 43 1f f8 bd 9a 87 b6 3d a7 18 c7 bc f7 a0 56 bd
       -0.12115338 0.08912583 -0.024303747 -0.0523996
000370 7c 62 4b bd 1e 8c 14 bd fa ec e8 3d 16 77 ec 3d
       -0.04965447 -0.03626644 0.11373325 0.11546151
000380 3a 4d 3a bd e1 92 f5 3d 36 df 8e bc b5 4c a4 3d
       -0.045483805 0.119909056 -0.01744042 0.08022443
000390 57 87 8e 3d 9e 2d 56 bd 6b 96 3e bb 46 66 bb 3d
       0.06959408 -0.052289598 -0.0029081355 0.091503665
0003a0 22 8b 67 3c 86 6c 0e 3d 2b 00 8c 3d c3 ca 93 3d
       0.014132293 0.034771465 0.068359695 0.07216408
0003b0 cb 68 a7 bd e9 c7 bb 3d 55 d9 b5 3b 91 08 9d bd
       -0.081742845 0.09168989 0.0055495896 -0.076676495
0003c0 9a 3d df bb cf cf 79 3d fd da 89 3d c5 f8 95 bc
       -0.0068127634 0.060989197 0.06731222 -0.0183071
0003d0 2f f6 e5 bd 50 e2 0e bd 39 db 00 3d 2e 9e 3e bd
       -0.112285964 -0.034883797 0.031459067 -0.04653757
0003e0 f2 8a 20 bd e8 80 83 3d 7d f9 88 bc 88 87 54 bd
       -0.03919501 0.06421071 -0.016720528 -0.051887065
0003f0 8f d0 af bd 4d 74 d3 3c 3e e4 c7 bc f1 85 9f bd
       -0.08584701 0.025812292 -0.024400827 -0.07789219

conv2.bias f4 [16]
000000 43 b8 c0 bd 28 54 0d bd 11 7c 42 3d e8 1d a3 3c
       -0.09410145 -0.034504086 0.0474816 0.019911721
000010 c2 66 92 bd 00 81 96 3d 37 9d b9 ba 6a cb a9 3c
       -0.07148506 0.073488235 -0.0014161234 0.020726878
000020 d4 d8 a1 bd 1b d7 5f 3d bb a9 9c bd 4e 3d 1b bd
       -0.07902685 0.0546485 -0.07649561 -0.03790026
000030 3e 28 85 3c 29 c3 a3 bc 3a 6f b0 bc 9a e9 8b bd
       0.01625454 -0.01999052 -0.021537412 -0.06831665

fc1.weight f4 [120, 256]
000000 97 a3 45 bd 8d 13 85 3c 0a 89 97 3c 5b 43 c9 bc
       -0.048251715 0.016244674 0.018497963 -0.02456825
000010 7c 47 b0 3c c0 b3 85 3c cd 91 fc 3b 34 a4 09 bd
       0.021518461 0.016321063 0.0077078105 -0.033603862
000020 6c c5 d8 bc a8 c5 fd bb ca 3a 15 bd cd db 39 bd
       -0.026461326 -0.0077445097 -0.03643302 -0.045375634
000030 15 c5 29 bd c3 1e c3 ba ef a3 57 bd d4 30 c1 bc
       -0.041447718 -0.0014886487 -0.052646574 -0.023582853
000040 8c 0e c5 3a 31 c7 58 bc fd 11 9a 3c c2 31 bb 3c
       0.0015034243 -0.013231085 0.018807406 0.022850875
000050 21 61 80 bc 37 44 ba bb 52 8c e4 bc de fd ad 3c
       -0.015671315 -0.0056844014 -0.027898941 0.021239217
000060 2d b6 47 3d a7 fd 0c bc 27 db 6c 3d 7c a5 c1 3c
       0.04875772 -0.008605397 0.057826187 0.02363848
000070 06 61 72 bd 45 f5 6e bc a5 c9 72 3d 90 de 53 3d
       -0.05917456 -0.014584844 0.059274334 0.051725924
000080 a9 01 45 3d 1d 7e 0c bd 5a f2 f2 3c 32 6b 07 bd
       0.048097286 -0.03429996 0.029656578 -0.033061214
000090 96 a5 38 bd 99 28 32 3d 75 b1 5c bd 20 0b 6e 3d
       -0.04507979 0.04349575 -0.053880174 0.05811608
0000a0 64 d8 1e bd b4 ed b8 bc 4c 4b f2 3c 52 34 d6 3c
       -0.038780585 -0.022574283 0.02957692 0.026147995
0000b0 ef 0e 78 bd 46 d8 c7 bc fe 75 8b 3b dc aa 77 3c
       -0.060561117 -0.02439512 0.004256009 0.01511642
0000c0 36 bc 84 3c 0f 72 9b bc 64 e2 67 bd db 40 fc bb
       0.016203027 -0.018975286 -0.056612387 -0.007698161
0000d0 18 83 23 bd 2b 64 25 bd 9e bb 1a 3b a8 2b 2c 3d
       -0.039919943 -0.04037873 0.0023610364 0.04203382
0000e0 7d 2c 60 bb 1d 06 3b 3c 62 6a a9 3c 74 dc 9d 3c
       -0.0034206205 0.011415032 0.02068061 0.01927016
0000f0 e4 e4 8e 3c 83 68 0c 3d 45 d2 33 3d 76 28 40 bc
       0.017443128 0.034279358 0.0439017 -0.011728397
000100 67 8b b1 bc 56 a5 da 3b 06 59 38 bd 03 23 17 bd
       -0.021672918 0.0066725416 -0.045006774 -0.036898624
000110 08 8f 19 bd 44 6b 0f bc a6 8e 33 3d 22 8a be 3c
       -0.03748992 -0.008753601 0.043837212 0.023259226
000120 7c 80 22 bc 5e 50 2d bd cb ef 64 3d b0 e5 9f 3c
       -0.009918328 -0.042312972 0.055892747 0.019518703
000130 16 8b be bc 3e bb 21 bd fe ed 81 bd 62 a9 a4 bc
       -0.02325968 -0.03948521 -0.063442215 -0.0201003
000140 c1 36 56 bc ca 70 7a bd e8 d9 da bc 1f 4a 31 bb
       -0.013074578 -0.06114272 -0.026715234 -0.0027052236
000150 0f 1b a7 3a 33 4c 06 3d 04 7e 24 bc 4f f8 04 bc
       0.0012749153 0.032787513 -0.01003981 -0.008115842
000160 91 7f b3 3c 4c d0 09 bd 0e 51 6e bd b6 d9 51 3c
       0.021911414 -0.033645913 -0.05818277 0.012808254
000170 67 f6 d9 3c 43 43 03 bd 79 b1 68 bd 44 9f 65 3d
       0.026606752 -0.032046568 -0.056809876 0.05606009
000180 f4 32 23 3d b4 f1 1e bc f9 47 d8 bc d9 49 70 3d
       0.039843515 -0.009701181 -0.026401507 0.058664177
000190 ff e5 3a 3d f5 86 1c 3d 97 6c 13 3d c1 59 b4 bc
       0.045629498 0.038214643 0.03599223 -0.022015454
0001a0 e1 36 6d bd f1 69 9d 3a 0c 69 e9 bc 43 d4 cb bb
       -0.057913665 0.0012009722 -0.028492473 -0.006220372
0001b0 ae df 5e 3d d1 e8 8c 3c cf cb 12 3c 63 7d 06 3d
       0.054412536 0.01720086 0.008959725 0.03283442
0001c0 65 13 5a bd 94 5f b2 3a 0e 6d 6f 3c 42 aa ab bb
       -0.053241152 0.0013608807 0.014613403 -0.005238802
0001d0 5e 66 59 3d b8 89 34 3d ec 67 34 bd bd fb 2b bd
       0.05307614 0.04407665 -0.04404442 -0.041988123
0001e0 0e 8c 52 bd de ce 38 3d 28 77 28 bd 43 9b 7d bc
       -0.051403098 0.04511916 -0.04112926 -0.015478912
0001f0 49 a0 9c bc 30 97 a1 3c bc 20 25 bd 9e 78 19 b9
       -0.019119399 0.019725412 -0.04031442 -0.0001463615
000200 c3 ca d8 bc 78 2b 90 3c a5 5a 53 bc dd b0 0d 3d
       -0.026463872 0.017598853 -0.012900029 0.034592498
000210 59 8f 2f bd 40 93 34 3d 82 ca 20 3c 2a dd 43 bd
       -0.042861316 0.04408574 0.009813907 -0.04781834
000220 38 ed df 3b 8a b7 c1 bc 9f 47 46 bd 37 e3 3d bd
       0.0068336986 -0.023647089 -0.048408147 -0.046359267
000230 08 ad 95 3b 7e 34 e6 bc 99 4f 0b 3d 12 a2 f9 3b
       0.004567746 -0.028101202 0.034011457 0.0076181972
000240 8c 0d 68 3d e0 b6 3a 3c 8c de d0 bc 02 19 44 3c
       0.056653544 0.01139614 -0.025496744 0.011968853
000250 43 fe d1 ba 96 da 60 bd 15 8d 63 bd a2 79 5c bd
       -0.001602121 -0.05489596 -0.05555447 -0.053826936
000260 bf 26 57 bd a0 8e e2 bb f7 2d 9d 3b 07 31 6d bd
       -0.052527186 -0.006913975 0.004796739 -0.057908084
000270 d0 96 29 bd b4 88 05 3d be 23 2d bd 24 58 0d bd
       -0.04140359 0.032601073 -0.042270415 -0.034507886
000280 02 89 6d bc 6a c1 78 3d c2 b1 82 bb 67 a1 2d bd
       -0.014497997 0.06073133 -0.0039884755 -0.042390253
000290 0d df df 3c 8b 4b 67 bd 72 54 ef 3c 24 db 44 3c
       0.027328039 -0.056468528 0.029215071 0.012015138
0002a0 2e a7 68 bd bd 7b 96 bc 7e 42 16 bd 9a 7d 3f 3d
       -0.05680006 -0.01836955 -0.036684506 0.046750642
0002b0 b0 c9 50 3d cc ce ed 3c 90 f7 19 3c 25 b4 ff 3c
       0.050973594 0.029029272 0.009397402 0.03121383
0002c0 76 f4 26 bd a3 3e 4a bb 92 51 b4 3c 46 93 dc bc
       -0.04076048 -0.0030860088 0.022011552 -0.026925694
0002d0 18 d4 c3 bc a4 09 1c 3d 47 f9 3f bc 0a 85 73 3d
       -0.023904845 0.03809513 -0.011717147 0.059453048
0002e0 8f f3 5e bd 02 eb e8 bc 27 a1 cd bc 86 ec ee ba
       -0.054431494 -0.028432373 -0.025101257 -0.0018228448
0002f0 ba 51 8c bd c4 27 a8 3b 23 de 34 bd 45 dd 5a bd
       -0.068515256 0.0051316936 -0.04415716 -0.053433675
000300 9b f7 34 bd 68 c3 bd bc 09 5e 09 3d 91 80 6b 3c
       -0.044181447 -0.023164466 0.033536945 0.014373914
000310 1b 10 50 bc a0 4b 31 3c a4 ac 57 bd f7 b3 f9 3c
       -0.012699152 0.010821253 -0.052654877 0.030481322
000320 97 eb fb 3c e1 7f 22 bd b8 92 d7 3c 26 78 4f bd
       0.030751986 -0.039672736 0.026315078 -0.05065169
000330 9a 9b 20 bd 11 bc 7a 3c b8 ca 25 3c 14 da a0 bc
       -0.039210893 0.015303628 0.010119133 -0.019635238
000340 9f 0f 95 3c 2c 28 b4 3c e3 76 2e bd dc 07 4f bb
       0.018195925 0.021991812 -0.042593848 -0.0031590378
000350 18 bd 3b 3d 18 fb 11 bd f7 e8 64 bd 1a 7d 50 3c
       0.04583463 -0.035639852 -0.055886235 0.012725139
000360 e5 b5 e0 bc 3c 17 75 3c 5b 66 61 bd cb 50 0d bd
       -0.027430484 0.014959153 -0.055029254 -0.03450088
000370 ef 4a 66 bd d3 fd 93 bc 4c 46 80 bd 07 87 c7 3c
       -0.056223806 -0.018065369 -0.06263408 0.024356378
000380 26 86 ac bb 58 c9 2d 3d 32 36 6f 3d f1 f2 44 3d
       -0.005265015 0.042428344 0.058401294 0.04808325
000390 31 be 8c bc ff e5 b6 bc 49 f1 58 bd 06 e8 70 bd
       -0.017180534 -0.022326468 -0.052964482 -0.058815025
0003a0 0f 9c 7c 3a ab ea 2d bd ae 2f 33 3d ec c7 01 3a
       0.00096362917 -0.042460125 0.043746643 0.000495075
0003b0 23 b3 67 bc db d8 de bb 4a 6e 28 3c 6b 59 25 bd
       -0.014141831 -0.0068007535 0.010280201 -0.04036848
0003c0 b3 2b 53 bd 9d 18 6a bc 95 88 fe 3b 43 62 0f 3d
       -0.051555347 -0.014288095 0.0077677467 0.03500582
0003d0 39 a7 88 bc 7f 01 da bc 41 22 22 bd b4 82 ef bb
       -0.0166813 -0.026612042 -0.03958345 -0.007309282
0003e0 37 03 85 3c 5d e1 e8 bc d1 3d 5d 3d cd 79 ca bc
       0.016236885 -0.028427774 0.05401403 -0.024716282
0003f0 dd 39 15 3c 8f 80 0a 3c ef 19 68 3c 73 55 3c bd
       0.009108034 0.008453502 0.014166339 -0.04597993

fc1.bias f4 [120]
000000 de 0a 37 3d 7a da 2b bd 20 ee 4d bd 76 fc 52 bd
       0.044688098 -0.041956402 -0.05027592 -0.051510297
000010 e6 bc 50 3c 1f fc 22 bd f0 70 80 bc 1b 3b 01 bd
       0.012740349 -0.039791223 -0.015678853 -0.031550508
000020 d6 e2 2d bd 09 7b d9 bb 6f 87 ef bb 0f 71 46 3d
       -0.042452656 -0.0066369814 -0.007309846 0.048447665
000030 84 ae 1e bd fd f5 11 bc c9 10 9e b5 64 ac 9b 3c
       -0.03874065 -0.008908746 -1.1776802e-06 0.0190031
000040 26 90 a2 bc 2f 34 7b bc 5b 6a 74 bd f2 bf 70 bd
       -0.019844126 -0.015332266 -0.05967174 -0.058776803
000050 ce dd 8d bc 35 8a 2f 3c 1a 36 1a 3d 4c 10 85 3c
       -0.017317679 0.0107141035 0.03764925 0.016243123
000060 9a 69 55 3d e6 2f a1 3c 8a e2 ce 3b 07 e9 ee bb
       0.052102663 0.01967616 0.0063136267 -0.0072909626
000070 23 02 74 bd 0b be d2 3c 8a 9f 9c bc b1 b2 6e bd
       -0.05957235 0.025725385 -0.019119043 -0.058275882
000080 ee 0f 6b 3d 23 96 9f 3c 82 1b 0f bd 49 c4 35 bb
       0.05738824 0.01948077 -0.034938343 -0.0027735403
000090 dd 87 19 3d ac b1 be ba be e6 a8 bc 98 1a 5a 3d
       0.037483085 -0.00145488 -0.020617839 0.053248018
0000a0 68 af 37 3d 05 0c f5 bc 0b 82 85 bc 01 78 7d 3d
       0.044845015 -0.029912958 -0.01629736 0.061882023
0000b0 92 dc 6a bc 11 45 c3 bc 12 cc 4d 3d c7 9d 25 3d
       -0.014334815 -0.023836644 0.050243445 0.04043367
0000c0 56 41 f8 3c 8f cf d1 3c c4 c1 58 bd 37 59 0b 3d
       0.030304592 0.025611667 -0.052919164 0.03402063
0000d0 12 2f 5a 3d e3 03 12 bd d5 f8 b1 bc fe cb 6f bd
       0.053267546 -0.035648238 -0.021725098 -0.05854415
0000e0 7b c4 d1 3c 73 93 dc bc 17 69 8c 3d ef 34 59 3d
       0.025606385 -0.026925778 0.06855982 0.053028997
0000f0 92 e3 2e 3d b4 11 da bc 48 55 06 3d ae bf c4 bc
       0.042697497 -0.02661977 0.032796174 -0.024017181
000100 10 d5 72 3d 6d eb 47 3d 87 b7 a0 3b 1e 60 09 39
       0.059285223 0.048808504 0.0049046907 0.00013101145
000110 89 7a 10 bc 94 12 e4 bc c2 e8 3d bc 21 f4 59 3d
       -0.008818277 -0.02784089 -0.011591138 0.053211335
000120 dd a2 48 3d 07 c4 78 bd 4d a9 24 3d 6e 54 1c 3b
       0.048983444 -0.06073382 0.04020052 0.0023854035
000130 c6 b4 40 3d 14 2f 44 bd 86 03 29 3d 86 44 57 bd
       0.0470474 -0.04789646 0.041263126 -0.052555583
000140 0e d8 e6 3c 94 64 ec bc b4 76 0a 3d fd 53 31 bd
       0.028179195 -0.028856553 0.03380461 -0.043292988
000150 01 6f d7 3c 15 cd bc 3c 0b 50 21 3b 5f b1 ee bc
       0.026298048 0.02304701 0.002461436 -0.029137312
000160 2e 6b 05 bc 9e 6c dd 3c 4a 4e 83 bb 69 17 4d 3d
       -0.008143229 0.027029332 -0.0040071355 0.050071154
000170 62 34 0f 3d d0 ae 2b bd b9 0d 19 3d 1d 11 3b 3d
       0.034962066 -0.04191476 0.037366603 0.045670617
000180 21 8b 2f 3d e7 bc 00 bd ad d5 bd 3c 1d 30 b4 bc
       0.042857293 -0.03143015 0.023173178 -0.021995598
000190 0a 2c 58 3d c2 8a 00 3d 2b 2a f4 3b c4 f4 3d 3d
       0.052776374 0.03138233 0.007451316 0.046376005
0001a0 d8 bd 02 3d e1 7b 08 3d 5d 62 9c 3c 4f 75 88 bc
       0.03191933 0.033321265 0.019089872 -0.0166575
0001b0 5c fd 00 3d 0d 31 f9 3c cc 23 07 3d 5f 96 26 bd
       0.031491622 0.030418897 0.032993123 -0.04067075
0001c0 24 d1 2d bd e4 90 d3 bc f7 51 2e 3d d0 89 fe 3b
       -0.04243578 -0.025825925 0.042558637 0.0077678934
0001d0 e8 ea f1 bc 98 ba 01 3d f0 4b 42 bd 7b 5c 34 bd
       -0.029530957 0.03167209 -0.0474357 -0.04403351

fc2.weight f4 [84, 120]
000000 09 6b e2 bc e9 ee 7a 3a c1 5a f7 3c 42 c7 25 bd
       -0.027638929 0.00095723436 0.030194642 -0.04047323
000010 34 b2 c8 3c 9a d2 74 3d 1f 36 c6 bd 14 8c bf 3d
       0.024499036 0.059771158 -0.096782915 0.0935289
000020 c6 df 34 3c 56 24 b6 bb af e4 4d 3d 52 03 b8 bc
       0.01103968 -0.005558531 0.050266918 -0.02246252
000030 a5 91 8a bd 07 d9 c9 bd 6c de de 3c cb 0b 79 bd
       -0.06766061 -0.09855848 0.027205668 -0.060802262
000040 5e 52 67 bc e5 5e af bc 86 81 9d bd e3 01 a4 3d
       -0.014118759 -0.021407554 -0.0769072 0.08008172
000050 13 62 6d 3d dd 18 47 3d 08 c0 64 3d 4c be ec 3c
       0.05795486 0.048607696 0.055847198 0.028899334
000060 93 ef d9 3d 07 01 d7 bc 1c a5 57 bc 13 7c 36 3c
       0.10641398 -0.026245607 -0.013161924 0.01113798
000070 fb 5d f3 bc 2b f8 aa bd 73 d8 23 bd 47 89 f4 3c
       -0.0297079 -0.083481155 -0.040001344 0.029850615
000080 43 b6 9b 3c 8b 86 05 bd e2 51 c4 bd 29 b4 a7 3d
       0.019007808 -0.032599013 -0.095859304 0.0818866
000090 03 79 39 bb c6 bf 31 bd ef db 4d 3d 65 50 8a bd
       -0.0028300888 -0.04339578 0.050258573 -0.06753615
0000a0 7b 77 8c 3d df 2f 3b bd d1 60 8c bc d3 c8 71 bd
       0.068587266 -0.04569995 -0.01713601 -0.05902941
0000b0 33 be a9 3c c8 3b 1f 3d 47 6c b0 bd 02 a7 97 3d
       0.020720577 0.03887537 -0.08614402 0.07404901
0000c0 64 dc b0 3d d3 07 20 3d 54 be d1 bc 35 6d 5e bd
       0.08635786 0.03906996 -0.02560345 -0.054303367
0000d0 1c 12 b2 3d 8e 2d 04 3d 32 82 17 bd 41 c2 a4 bd
       0.0869486 0.032270007 -0.0369894 -0.080448635
0000e0 6c 44 a2 3c 2a 82 e8 bc de a3 be 3c 25 8c fd 3c
       0.019808017 -0.02838238 0.023271497 0.030950615
0000f0 0e 9c 93 bd 9c fc 96 bd 9c 7a 2a 3d 24 ac d6 3d
       -0.072074994 -0.073724 0.041620836 0.10482052
000100 0d 27 83 3d 2b 04 ab bd e7 48 db 3c ad 06 f4 3c
       0.06403933 -0.08350404 0.026768161 0.02978834
000110 be 30 2a bd c0 72 1f bd 7a b8 64 3d 2f f8 62 3d
       -0.04155039 -0.038927794 0.055839993 0.055412468
000120 88 df df bd b7 31 ab 3c 43 ca c2 3c e1 41 d5 bd
       -0.10931307 0.02089773 0.023778087 -0.10412956
000130 6a 3b c1 3d e2 43 e6 bd cf ab 54 bc b2 17 69 bd
       0.094351605 -0.11243416 -0.0129804155 -0.056907363
000140 bb 43 e1 3b b1 18 00 3d 0e 1a af 3c a7 6f a1 3d
       0.006874529 0.031273548 0.021374729 0.07882624
000150 30 7f c3 3c a4 a8 a8 3d fd c4 5a 3d a3 93 0b bc
       0.023864359 0.08235291 0.05341052 -0.008519086
000160 d2 86 5c 3d 64 82 32 bd d9 d1 a7 bc c1 8c 5f bd
       0.053839512 -0.04358138 -0.020485805 -0.054577593
000170 b6 45 8c bd 6e c8 02 3d f5 04 b9 bd b4 35 09 3e
       -0.06849234 0.031929426 -0.090341486 0.13399392
000180 a4 ab e5 bc d5 54 36 bc cf e0 1f bd b1 1f 08 bc
       -0.028035946 -0.011128624 -0.039032754 -0.008308337
000190 e4 6d b0 bb 1e f7 9b 3d 69 b1 87 bd a2 fa c7 3c
       -0.0053841937 0.07615493 -0.06625635 0.024411503
0001a0 e6 23 53 bd d6 a2 1b bd cb 31 1c bd d9 ce 88 bc
       -0.051547907 -0.03799709 -0.038133424 -0.016700195
0001b0 30 8e 29 3d d9 bf 92 3d df d4 83 bb 8b e6 2a bd
       0.041395366 0.07165498 -0.004023179 -0.04172377
0001c0 b6 fe bf 3d 7d bf 1f bc e3 c7 be 3c 7c d7 92 bd
       0.09374754 -0.009750244 0.023288673 -0.07170007
0001d0 aa c9 19 3d 23 d6 97 bd 87 51 6c bd a3 08 0c be
       0.037545837 -0.0741389 -0.057694938 -0.1367517
0001e0 cd 6e 88 3d 42 78 a8 bd d1 1c 07 bd 3b 56 89 3c
       0.066617586 -0.08226062 -0.032986466 0.01676475
0001f0 6c e1 ec 3c 6e 19 7a 3c 64 89 ff bc bf d5 af bd
       0.028916083 0.015264852 -0.031193443 -0.08585691
000200 45 57 0b 3d 53 d1 23 3c 66 7d a2 bd 33 05 59 bd
       0.034018774 0.009998637 -0.07934074 -0.052983474
000210 8e 5e 31 3d d4 8a cc bc 6e dd 32 bd 30 13 14 3c
       0.043303065 -0.024968542 -0.043668203 0.009037778
000220 a0 f4 94 bc 4f 76 5e bd cf 74 4f 3d c6 99 b1 bc
       -0.018183053 -0.054312047 0.050648507 -0.02167977
000230 93 3d 81 3d b3 08 b5 bd f9 d9 ad bc 16 ee 69 3d
       0.063105725 -0.0883955 -0.021222102 0.057111822
000240 58 f8 94 bd a0 7b e0 bc b8 e0 ac bd 0d 6e 8c 3c
       -0.0727393 -0.027402699 -0.08441299 0.01714232
000250 ea c4 4b bd 76 96 84 3d ae 44 9e 3d bc 70 c7 3b
       -0.04974834 0.06474011 0.07727943 0.006086437
000260 c5 e6 9a 3c 00 60 54 bd 3d 50 b5 bc 44 a3 fc bc
       0.018908868 -0.051849365 -0.022132987 -0.03083957
000270 be d9 26 bd 3b 40 9b bd e8 a7 b5 bd b3 d0 c4 bd
       -0.040735 -0.0758061 -0.08869916 -0.09610119
000280 11 01 8e bd ca 7a 76 bd 26 2d 47 bc 2f b9 58 bd
       -0.06933797 -0.060175695 -0.01215676 -0.05291098
000290 4c ba 32 3c 4a d4 77 3d 16 60 8d 3d 52 32 26 3c
       0.010908674 0.06050519 0.069030926 0.010143833
0002a0 47 d0 7e bc c3 4b 0a bd 09 83 b1 3c 7f 17 68 bd
       -0.015552587 -0.03376366 0.021668928 -0.056663033
0002b0 b8 3a 46 bd 4c fa 48 3b c5 37 67 3d 20 fa 71 3d
       -0.048395842 0.0030666767 0.05644967 0.05907643
0002c0 6a 46 b5 bd 3f c0 af bd b5 89 85 3d 95 36 b5 bd
       -0.08851321 -0.0858159 0.06520406 -0.08848301
0002d0 f0 3d a5 bd 53 4e 76 bc 7a c3 77 3d ef 7a 9f 3b
       -0.08068454 -0.015033322 0.060489155 0.0048669497
0002e0 fb 6b c7 3c 74 69 34 bc f9 46 e3 3c 60 42 80 3d
       0.024343481 -0.01101147 0.027743803 0.0626266
0002f0 fa 69 37 3d c9 60 b5 3b 34 97 4d 3d 9a 94 54 bd
       0.0447788 0.0055352193 0.050193027 -0.05189953
000300 28 0d a5 bd 92 c3 87 bd 15 5f b1 bd 68 23 a4 3c
       -0.0805915 -0.06629099 -0.086607136 0.020036414
000310 05 00 05 bc 6a bf 0a 3d f4 39 bc bb 3c 7c 24 bd
       -0.00811768 0.033873953 -0.0057442132 -0.04015754
000320 68 58 d0 3c 11 1c a2 3d 71 5a fd 3c 55 ea df 3c
       0.02543278 0.079155095 0.030926915 0.027333418
000330 8f d3 5b 3d c9 c1 2e 3d 67 35 65 3d 17 f8 82 bd
       0.053668555 0.042665277 0.05595913 -0.06394976
000340 6d 76 60 bd 4d d1 e1 bc f2 c1 7c bd 9b c7 83 bd
       -0.05480044 -0.027565623 -0.0617084 -0.06434556
000350 80 64 33 bd 06 fd 81 3d ab 44 20 3d bd 04 3a bc
       -0.043797016 0.063470885 0.039127987 -0.011353669
000360 05 8c 8b 3d 67 3d d1 bc ad 8c 8b bd d7 16 3c bd
       0.06813816 -0.025541974 -0.06813941 -0.04592022
000370 35 c7 ec bc d5 3f 42 bd 7a 53 43 3d 4c 05 c3 3d
       -0.028903583 -0.047424156 0.04768703 0.09522495
000380 04 8f 36 3d 2b 82 48 bc 46 a4 8e bd b1 ae b2 bc
       0.044569984 -0.012238066 -0.069649264 -0.021811815
000390 59 a8 c7 bc ab c1 5d bd bd 02 a4 bd 5e 3c b1 bd
       -0.024372267 -0.054139774 -0.08008335 -0.08654092
0003a0 71 11 a8 3c e3 6a b4 3d cb 44 eb 3c 81 6f 90 3d
       0.02051613 0.088094495 0.028719326 0.07052518
0003b0 b1 5a b4 bd b9 79 b6 bd 74 5e 32 bc 45 e6 a5 bd
       -0.088063605 -0.089099355 -0.010886777 -0.08100561
0003c0 a0 4f e2 bc 47 d4 3e 3d f5 12 e7 bc 5f e3 6b bd
       -0.027625859 0.046589162 -0.028207282 -0.057589885
0003d0 69 25 5a bb 8b 2b ec 3c 48 5e 89 bc 8c 96 8e bd
       -0.0033286458 0.028829357 -0.01676859 -0.06962308
0003e0 77 6f 8f 3d a8 75 dc 3a 5d ff 39 3d 7e c5 99 3a
       0.07003682 0.0016819732 0.04540955 0.0011731831
0003f0 95 e3 b3 bd 58 a6 ab bd f4 15 b1 bd 44 28 a0 bc
       -0.08783642 -0.08381337 -0.08646765 -0.01955045

fc2.bias f4 [84]
000000 b1 83 c6 3d c1 ee a0 bd ca 3e fd 3c ae 1e 60 bd
       0.09693087 -0.07858039 0.03091373 -0.05471676
000010 69 f0 94 3d 7e 29 ab 3c ab 60 61 3d 56 7b 8b 3d
       0.07272417 0.020893808 0.05502383 0.06810634
000020 73 2b 64 3d 3e a8 de bc 93 3c 8e bd db 96 b9 bd
       0.0557055 -0.027179834 -0.06945147 -0.090619765
000030 f0 01 20 3c 40 48 cc bd e6 28 99 3c e3 4a 45 3c
       0.009766087 -0.09974718 0.01869626 0.01204178
000040 9a 5d 27 3d 6f 27 9a 3d 81 ca 37 bd 28 7f 50 bd
       0.04086075 0.075270526 -0.044870857 -0.050902516
000050 b9 5e 86 3d 82 29 b8 bd 6a 75 33 bc 01 c8 e4 3c
       0.06561036 -0.08992292 -0.010953287 0.0279274
000060 b0 9f b7 3d 39 9a 35 3d f7 44 2c 3c a9 cb a1 3d
       0.08966005 0.04433653 0.010514489 0.07900173
000070 4c 43 b7 bd 38 69 79 bb 40 83 50 3d f3 31 0d 3d
       -0.08948383 -0.00380571 0.05090642 0.034471463
000080 59 02 94 3d 30 01 00 3d 79 09 26 bd 3a 71 69 bd
       0.0722701 0.031251132 -0.040536378 -0.056992747
000090 70 5c 57 bb 00 d7 28 3c b0 5d 81 3d ca e4 36 bd
       -0.0032861494 0.010305166 0.063166976 -0.044651784
0000a0 e9 c3 0e bc 05 d4 c0 b9 66 a2 89 bd 33 01 fc b9
       -0.008713701 -0.0003677906 -0.06720428 -0.0004806608
0000b0 ee 1f cf 3c d4 fe ab 3d 5f 93 52 bd 5d 0a 41 bd
       0.02528378 0.08398214 -0.051410075 -0.047129024
0000c0 30 8a a8 bd 60 d8 ca 3c f7 3e af 3c 1e b6 8f bd
       -0.08229482 0.024761379 0.021392329 -0.07017158
0000d0 8a fd b9 bd 09 d8 52 3c 1f 67 a1 3d 1e 6d 56 bd
       -0.09081562 0.01286889 0.07880997 -0.052350156
0000e0 f9 13 99 3d 76 18 83 3b 18 1b ce 3d bb 48 b2 bd
       0.074745126 0.0040007187 0.100637615 -0.087052785
0000f0 e9 6c 57 3c b5 38 01 3e 80 3a d0 3c 3e 7e 0b bc
       0.013148525 0.12619288 0.02541852 -0.008513985
000100 42 6a 88 bb bc 54 08 bd 52 cd 61 3d 43 0d 47 bd
       -0.0041630575 -0.033283934 0.05512745 -0.04859663
000110 58 20 ff bc 6d 33 89 bd 10 31 82 3d 30 ed bb 3d
       -0.031143352 -0.06699262 0.06357014 0.09176099
000120 4f 16 4c bd 99 15 84 3d cc e5 1c 3d b2 be 42 3d
       -0.049825963 0.06449432 0.03830509 0.047545142
000130 4c 63 58 bd f4 af 0f 3c c2 bc f5 bc 3e 2d fd 3d
       -0.052829072 0.008769978 -0.029997233 0.12362145
000140 1e 37 83 bd 23 87 07 bd e6 40 80 3c b8 f2 62 3d
       -0.06406997 -0.03308786 0.015655946 0.055407256

fc3.weight f4 [10, 84]
000000 25 da 20 3e d6 6c 86 bd 17 c0 a4 3d c0 c1 cf bd
       0.15708216 -0.065637276 0.08044451 -0.10144377
000010 02 39 b7 3d a5 d8 d0 bd 45 33 ce 3d 36 66 f8 bd
       0.0894642 -0.10197572 0.10068373 -0.1212887
000020 a2 24 c4 3d cb 23 c7 bb ba fd 0a bd 83 60 92 3d
       0.095773 -0.006077265 -0.03393338 0.071473144
000030 3d 05 b9 3b 7c af 2c bc 9c 98 81 be c8 07 05 be
       0.0056463764 -0.010539886 -0.25311744 -0.1299125
000040 c8 6e 3e be 6a 97 26 3e e1 6b 89 bd 80 4a 15 3d
       -0.18596947 0.16268697 -0.067100294 0.036448
000050 92 74 e9 3d 28 84 c0 ba 45 02 c8 bd 82 df 71 3e
       0.11399187 -0.0014687823 -0.09766058 0.23620418
000060 8e f5 b2 bc a3 ac fc 3c cf 0f f3 bd 67 f7 31 bd
       -0.021845605 0.030844038 -0.118682496 -0.043448832
000070 a4 a6 19 3d d9 82 d4 3d cf fd 0c bc d0 6d f0 3c
       0.037512437 0.1037652 -0.008605435 0.029349238
000080 16 c3 4c be ce f8 83 3e f9 2b a5 3d 15 10 9f bd
       -0.19996294 0.2577576 0.08065028 -0.07766739
000090 09 5e a4 3d cd 9d 87 be 1a bf 33 be 8b 3e 98 3d
       0.08025748 -0.2648758 -0.17553368 0.07433804
0000a0 72 8b 2b 3e 78 f9 47 3e 67 1a 0d 3c f3 46 31 3e
       0.16752413 0.19528759 0.008612252 0.17312221
0000b0 6a bc c2 3d 2f 05 0a bb ea 61 f5 bd bb f0 81 3b
       0.095085934 -0.0021060219 -0.11981566 0.003965465
0000c0 7c b2 bd bd 09 8f 1e be 38 04 b8 3d c1 7c ea bd
       -0.09262559 -0.15484251 0.0898518 -0.11449576
0000d0 da 1e 8d 3c 3a aa 3e be a7 e5 1f 3e 44 89 63 3d
       0.017226625 -0.18619624 0.15614949 0.05555083
0000e0 04 76 72 be 59 2e 11 3e 0b 5d 0d be 52 a5 7c 3e
       -0.23677832 0.14177836 -0.13805024 0.2467244
0000f0 47 ad f4 3b fd 00 91 be fb 62 31 3e ad 88 5e bd
       0.0074669453 -0.28321066 0.17322914 -0.054329563
000100 e4 08 b0 3d d7 0a d2 3d 13 33 c0 3d 5b 10 ab 3d
       0.08595446 0.10255974 0.09384742 0.08352729
000110 b8 8b e9 bd 11 03 05 3d 3a 53 08 bc e8 dc 63 3e
       -0.11403602 0.032473627 -0.008320624 0.22252238
000120 6c f0 fe 3d da 37 27 be d6 b4 aa bd 45 bd b5 3d
       0.124482006 -0.163299 -0.08335273 0.08873991
000130 f7 ec 9f 3c 77 9f b5 3c 9b 4b 51 3d 20 e7 01 be
       0.019522173 0.022170765 0.051097494 -0.12685823
000140 61 f5 5c 3e 96 1a 42 3d a0 8b 39 3c bd c5 7c be
       0.2157798 0.047388636 0.011324793 -0.24684806
000150 74 4a 67 bd 96 94 b9 bc 7a a5 2e be cd c7 00 3e
       -0.05646749 -0.02265386 -0.17055312 0.12576218
000160 12 e0 33 3e 32 5b aa bc b5 8a 0c bd 33 08 84 bd
       0.17565945 -0.020795438 -0.03431197 -0.064468764
000170 b8 e9 68 be ce 1d d3 bb d2 16 9b 3d 0e ba 22 3c
       -0.22745407 -0.006442762 0.07572712 0.009932054
000180 cb 47 9a 3d 4b cb 87 bd a4 9e 3c bd cd 09 5e 3d
       0.07533225 -0.06630572 -0.04604973 0.054208566
000190 6f ba 47 3d e2 74 94 3c 92 de 74 3e f8 42 af bd
       0.04876178 0.01812214 0.23913029 -0.08557695
0001a0 00 e4 dc bd 87 a4 96 bd 53 61 ae 3c 1f eb 47 3d
       -0.10785675 -0.073556 0.021286642 0.048808213
0001b0 50 3c c6 bd c2 cd 0d be 3b c3 8f bd 96 9f a8 bd
       -0.096794724 -0.13848022 -0.07019659 -0.082335636
0001c0 32 5c 09 3c a8 c6 68 be d0 83 80 3e b9 a5 82 3d
       0.0083837975 -0.22732031 0.25100565 0.06379265
0001d0 59 e4 c1 bc 8a 33 84 bd 5f ac 04 3e 9e e5 f7 bd
       -0.023668455 -0.06455143 0.1295638 -0.12104343
0001e0 77 e6 95 bd 72 c4 83 bc c9 c4 ef 3e 8d 16 43 bd
       -0.07319348 -0.016084883 0.46829823 -0.047628928
0001f0 46 9a 45 bb ff b4 ae bd e9 36 c8 bd 60 6e ff bd
       -0.0030151769 -0.08530616 -0.09776098 -0.12472224
000200 59 f7 26 be ca 4e 65 3d c2 66 ae bd c3 60 cd 3d
       -0.16305293 0.055983342 -0.08515693 0.100282215
000210 8e 82 0d bd 80 45 1e 3e 13 31 e2 3d 76 91 6f 3d
       -0.034548335 0.154562 0.110445164 0.05848833
000220 2e ed 09 bd 4c 84 89 3e 3e bd 80 bc c8 c2 d4 bd
       -0.033673458 0.26858747 -0.015715238 -0.10388714
000230 f7 d7 ba 3e bb 3c fb bd de 04 f4 3d b2 be 1a 3d
       0.36492893 -0.12267443 0.11914991 0.037779517
000240 4b 81 cc bd 39 91 d9 3d 38 6a 59 bd 74 c8 53 3d
       -0.09985598 0.10623402 -0.053079814 0.05170484
000250 f3 8b 8a 3d 96 dc ce 3d e8 43 3a be 3f d6 76 3d
       0.067649744 0.10100667 -0.18189967 0.060262915
000260 b6 ac 12 be 98 60 72 be 01 16 56 3e b6 2d 1a be
       -0.14323696 -0.2366966 0.20906831 -0.150565
000270 e8 47 17 3e 1a d0 cc bd a7 a4 90 be 9d a4 a9 3d
       0.14773524 -0.1000063 -0.2825062 0.082833506
000280 4e 7c 34 bd 42 88 a0 3d dd 1a 2c bd 9b 8c c5 3d
       -0.04406386 0.07838489 -0.042017806 0.09645959
000290 d3 aa 20 3c 4b 9a 16 be 9e b9 60 3d 10 6e a3 bc
       0.009806353 -0.14707296 0.05486452 -0.019949943
0002a0 45 91 bf bd e9 0c 0a bc b2 fa cc bd cf ab df bd
       -0.0935388 -0.00842593 -0.10008754 -0.10921442
0002b0 13 5f 44 3e 3b 7e 4f bd be 5a 37 3e f1 15 2c 3d
       0.19176893 -0.050657492 0.17905709 0.042013112
0002c0 2d a8 17 bd 6a 10 ea 3d c4 94 8e 3d c6 55 d6 bd
       -0.03702562 0.11428912 0.069619685 -0.10465579
0002d0 2c bd 6f 3d 6e 39 6f 3e 3c 3a 94 3d 88 75 42 bd
       0.058530018 0.23361751 0.0723767 -0.047475368
0002e0 85 33 6f bd ae 6c f3 bd 50 38 74 3d 54 1a 89 bd
       -0.058398742 -0.118859634 0.059624016 -0.06694475
0002f0 22 6c c3 bd 90 de 2c 3e a6 60 35 be 82 36 2a 3e
       -0.09542109 0.16881776 -0.1771265 0.16622356
000300 a5 55 40 be 8b 50 3d 3c af ec 7c be 31 41 79 bd
       -0.18782671 0.0115548475 -0.24699663 -0.060853187
000310 75 15 7c 3d 90 e5 93 3e ab 83 24 3d 9f 72 58 3d
       0.0615439 0.2888608 0.04016463 0.052843686
000320 d6 45 e6 bd f4 87 74 bd b3 e1 1f be 29 b3 cd bc
       -0.11243789 -0.059699968 -0.15613441 -0.025109844
000330 fb 26 74 3d 3b 9b 83 bd 51 07 59 be 9f 53 e3 3c
       0.059607487 -0.06426092 -0.21194197 0.027749835
000340 6f 9e 78 bb 9f 54 46 3e 8c 1e 95 bc 56 1f 97 be
       -0.003793623 0.19368218 -0.018203042 -0.29516095
000350 a6 2d 33 bd 7c 7c 4d bd 39 6b ae 3d 7e b9 e1 bd
       -0.043744706 -0.050167546 0.08516545 -0.11021708
000360 6f 04 21 3d 7a 38 a4 3d f2 e3 5c 3d 55 06 ce 3d
       0.03931087 0.080185845 0.053928323 0.100598015
000370 5c d3 9b 3b 09 95 62 3e 5f 8e b1 bd 88 f1 a6 3d
       0.0047554206 0.22127165 -0.08669733 0.08151537
000380 7c d8 c1 3d ca 1d 77 3e 6d 65 c5 bd 31 3a 07 3d
       0.09465119 0.24132457 -0.09638486 0.03301448
000390 6b ca 31 be 91 45 dc 3c 04 19 2b 3e 44 1a 80 3d
       -0.17362373 0.02688864 0.16708761 0.0625501
0003a0 15 63 cb bd d5 e1 79 bd 0c dd 1e be e7 27 68 3d
       -0.09931008 -0.061006386 -0.1551401 0.05667868
0003b0 43 45 cc 3c 4e fd 32 bc 66 92 b0 3d 8f 36 91 be
       0.02493537 -0.01092465 0.08621673 -0.28361937
0003c0 51 b3 17 3e e5 73 a1 3d 77 0d 58 3e 7b ef b2 3d
       0.14814498 0.07883433 0.21098886 0.087370835
0003d0 95 69 e8 ba 1c 44 18 bd 0a e5 96 bc 82 46 3e bd
       -0.0017731661 -0.03717433 -0.018419761 -0.04645396
0003e0 03 9c 47 3e f8 9e 5a bd c2 ce 20 be a7 f2 03 3e
       0.19493107 -0.05337426 -0.15703872 0.12885533
0003f0 96 05 72 bd 01 c6 a0 3d 7e fd 80 bc 4c 73 f2 bd
       -0.05908736 0.07850266 -0.015745874 -0.118383974

fc3.bias f4 [10]
000000 88 3a fc bd 72 54 7c 3d a6 89 04 be 5a 58 2b bb
       -0.123158514 0.06160397 -0.12943134 -0.002614519
000010 a0 8e ad bd 69 33 ba 3d b2 54 71 bd c3 93 ea bd
       -0.08474469 0.09091837 -0.058918662 -0.114539646
000020 80 1c 6e 3d 1f e9 20 bd
       0.05813265 -0.03928482
