global_mnist_cnn.pt (torch, 181781 bytes, 10 tensors)

conv1.weight f4 [6, 1, 5, 5]
0	0xbc070090	-0.00823988
1	0x3ee1696c	0.44025743
2	0x3efc5b5a	0.49288446
3	0x3e8b3bfa	0.27194196
4	0xbdd91e3c	-0.1060147
5	0xbdf617a4	-0.12016228
6	0xbd963a2e	-0.07335316
7	0x3ec81383	0.39077386
8	0x3ea692cd	0.32533875
9	0xbdb3013a	-0.08740468
10	0xbeb66a6f	-0.35628077
11	0xbe268ec6	-0.16265401
12	0xbdc7706c	-0.0973824
13	0x3e746897	0.23868023
14	0x3de6d5d3	0.112712525
15	0xbece6a4e	-0.4031548
16	0xbec61e47	-0.38694975
17	0x3d7ceddf	0.06175029
18	0xbe1369c4	-0.14395815
19	0x3cb2069e	0.021731671
20	0xbcbf0016	-0.02331547
21	0xbe82ce27	-0.25547907
22	0xbd9357ad	-0.07194457
23	0xbd1d4b8c	-0.038402125
24	0x3dba708a	0.091034964
25	0xbc84ed72	-0.016226504
26	0x3e435861	0.19076683
27	0xbe1b4c80	-0.15165901
28	0xbe1a03c0	-0.15040493
29	0x3e603cda	0.21898213
30	0x3d2f3dc9	0.042783532
31	0x3e53df4d	0.20690651
32	0x3ed3ba89	0.41353253
33	0x3e117bbd	0.14207359
34	0x3cd1c576	0.025606852
35	0xbe39e51d	-0.18153806
36	0x3e6a479c	0.2287888
37	0x3ed3dc22	0.41378886
38	0x3eaffef5	0.34374204
39	0x3e3c0698	0.1836189
40	0xbcaee41e	-0.02134901
41	0x3dc7a6bb	0.09748598
42	0xbdee86fd	-0.11646841
43	0xbe2f521a	-0.17121163
44	0xbe45670f	-0.19277595
45	0x3cebbd2f	0.028776733
46	0x3e00cd29	0.12578262
47	0xbe01136d	-0.12605067
48	0xbede43b7	-0.43411037
49	0xbd297229	-0.041368637
50	0x3c4c9890	0.012487546
51	0xbdcd95a7	-0.100383095
52	0xbe41bec4	-0.18920428
53	0xbe9de984	-0.3084222
54	0xbe899dcc	-0.26878202
55	0x3d59d89c	0.05318509
56	0xbe9c4bc2	-0.3052655
57	0xbe85049e	-0.25980085
58	0xbe46f601	-0.1942978
59	0xbd6ff0bf	-0.058579203
60	0xbe99eee4	-0.30065072
61	0xbeace66a	-0.33769542
62	0xbd08e213	-0.033418726
63	0x3ce51de5	0.027968356
64	0x3e4a024d	0.1972744
65	0xbea136f4	-0.31487238
66	0xbc9acac4	-0.018895514
67	0x3d167b98	0.036738962
68	0x3e185045	0.1487437
69	0x3ecd5895	0.40106645
70	0xbd00830b	-0.031374972
71	0x3e9dc73f	0.30816075
72	0x3ee67f10	0.45018816
73	0x3ec37b39	0.3817995
74	0xbdcc024a	-0.09961374
75	0xbe312c89	-0.17302145
76	0xbb9b7cd4	-0.0047451053
77	0x3e93dba0	0.28878498
78	0xbdd1c7e3	-0.102432035
79	0xbe50c1e9	-0.20386471
80	0x3e00d47a	0.12581053
81	0x3e08ef88	0.13372624
82	0x3d9249c1	0.07142974
83	0xbeaa6b45	-0.33284965
84	0xbdadf4a7	-0.08493929
85	0x3d6ffd57	0.058591213
86	0x3eaa7ca2	0.33298212
87	0xbdc95c1b	-0.09832021
88	0xbd5d3630	-0.054006755
89	0xbbb79677	-0.0056026536
90	0x3e64d15a	0.22345486
91	0x3eecd05c	0.46252716
92	0x3e60036b	0.21876304
93	0xbe39c583	-0.18141751
94	0xbd23e9cf	-0.0400179
95	0xbceb5f15	-0.028731862
96	0x3dd1f42e	0.10251652
97	0x3e82b1c9	0.25526264
98	0x3bbddb06	0.005793932
99	0xbd207cd9	-0.039181564
100	0xbcb79c3d	-0.022413367
101	0xbe11ed52	-0.14250687
102	0xbdb20d03	-0.08693888
103	0xbcea1cf8	-0.028578267
104	0xbe4a3cdd	-0.1974978
105	0xbe105b22	-0.14097264
106	0xbe946a96	-0.2898757
107	0x3d3c5603	0.045980465
108	0xbe7bfc4e	-0.24607965
109	0xbe96d1e9	-0.29457024
110	0xbe685ece	-0.22692415
111	0xbdec5445	-0.11539511
112	0xbe2d4e16	-0.16924319
113	0xbe7ade0d	-0.24498768
114	0xbe3c8977	-0.18411814
115	0xbd80cc4c	-0.062889665
116	0xbd7978c7	-0.060906198
117	0xbe3faaef	-0.1871755
118	0x3d885d90	0.06658471
119	0xbe9b1fad	-0.30297604
120	0xbdd677cb	-0.104720674
121	0xbd90c635	-0.07069055
122	0xbe269528	-0.16267836
123	0xbe3a2662	-0.18178704
124	0xbe858f87	-0.26086065
125	0x3e0df9d3	0.13864832
126	0x3d768c76	0.060192548
127	0xbed70814	-0.4199835
128	0xbe5ec9a2	-0.21756604
129	0xbe35288f	-0.17691253
130	0x3ea72634	0.32646334
131	0xbd21b245	-0.03947665
132	0xbf08d579	-0.53450733
133	0xbec42a8d	-0.38313714
134	0xbde35988	-0.11101061
135	0x3d05118c	0.032487437
136	0x3ed31a84	0.41231167
137	0x3d2de052	0.042450257
138	0x3e777887	0.24167071
139	0x3eaa5093	0.33264598
140	0x3e1f96cc	0.15584868
141	0x3ef71952	0.48261505
142	0x3e309450	0.17244077
143	0x3eda6d0c	0.4266132
144	0xbdcac779	-0.09901328
145	0xbcaa4b71	-0.020787926
146	0x3dc4013c	0.09570548
147	0x3d79dda7	0.0610024
148	0xbe9f12e3	-0.31069097
149	0xbdfa7bb2	-0.12230624

conv1.bias f4 [6]
0	0x3baac1aa	0.005211075
1	0x3d92ac90	0.0716182
2	0x3d9263ad	0.07147918
3	0x3cb03906	0.021511566
4	0x3e81a771	0.2532306
5	0x3da9427a	0.082646325

conv2.weight f4 [16, 6, 5, 5]
0	0x3c091858	0.00836762
1	0xbd1eaf04	-0.038741127
2	0xbe1f3acb	-0.15549771
3	0xbe6565a3	-0.22402053
4	0xbc46f280	-0.012142777
5	0x3d0c35c7	0.034230974
6	0x395f0d46	0.00021271882
7	0xbd8e8706	-0.069593474
8	0xbdbdac9a	-0.09261437
9	0xbc7a817c	-0.015289661
10	0xbde44804	-0.111465484
11	0x3cc2e2de	0.02378982
12	0x3e5a6712	0.2132838
13	0xbdbf8ee8	-0.09353429
14	0xbdc8d1f5	-0.09805671
15	0x3cd3da0b	0.025860807
16	0xbd19aad5	-0.037516434
17	0x3eaabbf6	0.33346528
18	0x3e32f7d9	0.17477359
19	0xbdaf3899	-0.08555717
20	0xbd807c3f	-0.06273698
21	0xbd9c552a	-0.07633431
22	0x3dd7c08e	0.10534774
23	0x3dbba350	0.09162009
24	0x3d69ee44	0.057111993
25	0xbd2bc72d	-0.041937996
26	0x3d305316	0.043047987
27	0x3cb5d309	0.022195356
28	0xbb70c414	-0.0036737965
29	0xbd42927e	-0.047502987
30	0xbc2a836d	-0.010407311
31	0xbc43dda4	-0.011954699
32	0x3c8ab8c7	0.016933812
33	0x3c8a75b6	0.016901832
34	0xbcf436e5	-0.029811332
35	0x3c4e70f7	0.012600175
36	0xbcde26a5	-0.027118037
37	0xbceae0db	-0.028671673
38	0xbcdeae3d	-0.027182693
39	0x3c6c430b	0.014420281
40	0xbc0ba87f	-0.008524059
41	0xbe15d52b	-0.14632098
42	0xbd08e7eb	-0.0334243
43	0x3e461af1	0.19346215
44	0x3d02553f	0.03181958
45	0xbe027adf	-0.12742184
46	0xbe1b386a	-0.15158239
47	0x3d064d60	0.032788634
48	0x3e18c5af	0.1491916
49	0x3d965cf4	0.07341948
50	0x3c0d3e90	0.008620873
51	0xbd332a3a	-0.043741442
52	0x3d6b49b8	0.05744335
53	0x3d103ada	0.035212375
54	0xbc6031b7	-0.013683728
55	0x3d8d692d	0.06904826
56	0xbdb63116	-0.08896081
57	0xbd5a4d51	-0.05329639
58	0xbd231fd5	-0.03982528
59	0xbde9c1f8	-0.1141395
60	0xbbfdde94	-0.0077474806
61	0xbda5683b	-0.08076521
62	0xbe1f1995	-0.15537103
63	0xbe695666	-0.22786865
64	0xbbcb0396	-0.006195496
65	0xbd9f525f	-0.07779383
66	0xbe4c230d	-0.19935246
67	0xbe4bdd58	-0.19908655
68	0xbda773a2	-0.08176352
69	0xbd8e4598	-0.06946868
70	0x3c9c04c9	0.01904525
71	0x3de68450	0.11255705
72	0xbd1afaba	-0.037836768
73	0xbd9c2929	-0.07625038
74	0xbe37216f	-0.17883848
75	0xbc91aabc	-0.017781608
76	0xbcb0ef44	-0.021598466
77	0x3ce4bd65	0.027922342
78	0xbc81cfe7	-0.015846206
79	0xbc83bc31	-0.016080948
80	0xbdb8dea2	-0.09026839
81	0xbca78e53	-0.020453608
82	0x3d9a85fa	0.07545085
83	0x3d47d0c6	0.048783086
84	0xbe447e67	-0.19188844
85	0x3e062aec	0.13102311
86	0xbdb4d735	-0.0883011
87	0x3cce2bed	0.02516743
88	0x3e6ecea3	0.23321013
89	0xbd4594c6	-0.048237585
90	0xbc18e240	-0.009331286
91	0xbd99ab87	-0.07503419
92	0xbd6d9d35	-0.058011252
93	0x3e1ab1e6	0.15106925
94	0x3d28e37b	0.041232567
95	0xbdad14b1	-0.08451212
96	0xbd1f9657	-0.038961735
97	0xbdac6425	-0.084175386
98	0xbc625dca	-0.013816306
99	0x3d1625bf	0.03665709
100	0xbd928e3d	-0.07156036
101	0xbdfbe365	-0.122992314
102	0xbde3e5ce	-0.11127816
103	0xbd877a4f	-0.066151254
104	0xbcd5c4cd	-0.026094818
105	0x3cae2800	0.021259308
106	0xbba866b7	-0.0051391977
107	0xbe0755c2	-0.13216308
108	0xbd4ad335	-0.04951783
109	0x3d2a03fa	0.0415077
110	0x3d6e36c0	0.058157682
111	0x3c5acde1	0.013354749
112	0xbdb591e5	-0.08865718
113	0xbdeaf020	-0.114715815
114	0xbdd83f7e	-0.10558985
115	0xbd0cda7d	-0.034388054
116	0xbce63ef7	-0.028106196
117	0xbe2102cc	-0.15723723
118	0xbde8b48e	-0.11362563
119	0xbda391ae	-0.079867706
120	0xbd742d7f	-0.0596137
121	0x3c29d4d0	0.01036568
122	0xbdec6204	-0.115421325
123	0x3b67f367	0.0035392882
124	0xbdb72a9f	-0.08943676
125	0xbd029149	-0.031876836
126	0x3dd88cd8	0.10573739
127	0xbca09d22	-0.019606177
128	0x3dc0642f	0.093941085
129	0xbd378acb	-0.044810098
130	0xbc7b333a	-0.015332038
131	0xbdab4878	-0.08363432
132	0xbd66137d	-0.05617093
133	0x3c2846e9	0.010270813
134	0xbe060e8e	-0.1309149
135	0xbd6fc3eb	-0.05853645
136	0xbcf4da45	-0.029889235
137	0xbd6979be	-0.057000868
138	0x3e88ba89	0.26704815
139	0x3d984f39	0.074369855
140	0xbdbdabf5	-0.09261314
141	0xbe40377f	-0.1877117
142	0xbe0f59c5	-0.13999088
143	0x3e95c4b6	0.2925164
144	0x3e6dd5e5	0.23226126
145	0x3da2880b	0.079361044
146	0xbd98c03b	-0.0745854
147	0xbe29b2d7	-0.16572128
148	0x3e09c458	0.13453805
149	0x3bbf9604	0.0058467407
150	0xbe47a37b	-0.19495957
151	0xbc87c94c	-0.016575478
152	0xbe0ff99a	-0.14060059
153	0xbd602338	-0.054721087
154	0x3d5ca830	0.053871334
155	0xbc998e6a	-0.018744666
156	0xbe111b2a	-0.14170519
157	0xbe20be6b	-0.15697639
158	0xbe1701da	-0.147468
159	0xbe1f1f4b	-0.15539281
160	0xbd1c90f3	-0.03822417
161	0x3cb4e6ca	0.022082705
162	0x3e990eac	0.29894006
163	0x3e4aa6a0	0.19790125
164	0xbe0a737a	-0.13520613
165	0xbceefeae	-0.029174175
166	0x3d35b542	0.044362314
167	0xbc4d9b61	-0.012549252
168	0x3dc4019a	0.09570618
169	0x3dd947c6	0.10609393
170	0x3db5083c	0.08839461
171	0xbd91e827	-0.07124358
172	0xbdfdf963	-0.12401082
173	0xbce57342	-0.02800906
174	0x3d76b687	0.060232665
175	0xbd6c5181	-0.057694916
176	0xbd89e598	-0.06733245
177	0xbe12e9f8	-0.14347064
178	0xbdde00b3	-0.10839977
179	0xbdfdda14	-0.12395111
180	0xbd0af46f	-0.033924516
181	0x3e3e9c30	0.18614268
182	0x3da6b42b	0.08139833
183	0xbe3581ec	-0.17725343
184	0xbe98a79a	-0.2981537
185	0x3d3820bc	0.044953093
186	0x3d4e33bc	0.050342306
187	0x3e2e3b4c	0.17014807
188	0x3dfe43c0	0.12415266
189	0x3dc59776	0.096480295
190	0xbcdb74cd	-0.026789093
191	0xbd931cca	-0.071832255
192	0xbd5dcbba	-0.054149367
193	0x3cd698f5	0.026195982
194	0x3d2a7436	0.041614734
195	0xbdbd68ca	-0.092485026
196	0x3e19a745	0.15005215
197	0x3e04bbdf	0.12962292
198	0x3db467cc	0.0880886
199	0x3cc496a6	0.023997616
200	0x3a7f53eb	0.0009739983
201	0x3d9befd3	0.07614102
202	0xbd2d3aa0	-0.042292237
203	0xbd6776fd	-0.05650996
204	0xbd0c8634	-0.034307674
205	0x3e12bc4d	0.14329644
206	0x3d79a5c8	0.060949117
207	0xbd862e78	-0.06551832
208	0xbd4b9076	-0.049698316
209	0xbe1d9449	-0.15388598
210	0x3d81fecb	0.06347426
211	0xbc1edca2	-0.009696158
212	0xbe4899d7	-0.19589935
213	0xbd8a0440	-0.06739092
214	0xbd74d5b2	-0.05977411
215	0xbde3c5f1	-0.11121739
216	0xbd71e714	-0.059058264
217	0x3d870fbc	0.06594798
218	0xbd4d7eb4	-0.05016966
219	0xbdf8d7bf	-0.12150525
220	0xbc1fc61d	-0.009751824
221	0x3d7ef2f2	0.06224341
222	0x3aa9df39	0.0012960202
223	0xbc96cd08	-0.018408313
224	0xbdc5e951	-0.09663642
225	0xbdafb1ef	-0.0857886
226	0xbd6e7b03	-0.058222782
227	0xbc40946c	-0.0117541365
228	0xbdac4eb6	-0.084134504
229	0xbe54f1c0	-0.20795345
230	0xbd928adb	-0.07155391
231	0xbc0c3f61	-0.008560033
232	0x3d9b4e0e	0.07583247
233	0x3e821483	0.25406274
234	0x3d1c9ff9	0.0382385
235	0xbd8fbf60	-0.07018924
236	0xbde1833e	-0.110113606
237	0xbe08670c	-0.1332056
238	0x3d20d21a	0.03926287
239	0x3e13d808	0.14437878
240	0xbc67fd9f	-0.014159589
241	0xbd86ddce	-0.06585275
242	0xbdd70e2c	-0.1050075
243	0x3d498c06	0.049205802
244	0x3c39b681	0.011335016
245	0xbd5b7307	-0.053576495
246	0x3ce10054	0.027465977
247	0xbd7290d6	-0.059220158
248	0xbca83f5e	-0.020538028
249	0xbe173db7	-0.14769636
250	0xbd30b052	-0.043136902
251	0xbdefbc21	-0.117058046
252	0xbccf430f	-0.02530053
253	0xbc9563e1	-0.018236103
254	0xbdba850b	-0.09107407
255	0xbd3abf59	-0.04559264

conv2.bias f4 [16]
0	0x3d03816b	0.032105844
1	0xbdfadb65	-0.122488774
2	0xbd6e935f	-0.058246013
3	0x3c9045cf	0.017611412
4	0x3c6f14a6	0.014592325
5	0xbd41d208	-0.047319442
6	0x3cdbea1f	0.026845036
7	0xbd17936f	-0.037005838
8	0xbd00c1f8	-0.031434983
9	0xbd9a3c90	-0.07531083
10	0xbd293a41	-0.04131532
11	0xbdef1212	-0.116733685
12	0xbd05e16e	-0.03268569
13	0x3cc9c640	0.024630666
14	0x3d2709e0	0.040780902
15	0xbd0d3d5a	-0.034482338

fc1.weight f4 [120, 256]
0	0xba7bbd20	-0.0009603072
1	0x3da9a9ba	0.08284326
2	0x3c1957ef	0.009359344
3	0xbca21942	-0.019787434
4	0xbcea9c64	-0.028639026
5	0x3d1959f0	0.037439287
6	0x3d27e734	0.040991977
7	0x3c9b11b2	0.018929336
8	0xb97f9888	-0.00024375517
9	0x3d6696f7	0.056296315
10	0x3a84bebf	0.0010127648
11	0xbdd7ce57	-0.10537403
12	0xbd4df0ca	-0.050278462
13	0xbb24d06d	-0.0025148646
14	0x3e09ef64	0.13470227
15	0x3caf099b	0.021366885
16	0x3cf758ce	0.030193713
17	0x3d3a1a0e	0.045435004
18	0xbce040aa	-0.027374584
19	0xbda216ab	-0.0791448
20	0x3c11e09c	0.008903649
21	0xbd2be241	-0.04196382
22	0x3c9cc822	0.0191384
23	0xbc40b65f	-0.011762231
24	0x3d88ca48	0.06679207
25	0x3cbbec18	0.022939727
26	0xbdfee723	-0.124464296
27	0xbd6fce60	-0.058546424
28	0xbd438deb	-0.047742765
29	0xbd950deb	-0.07278045
30	0x3b8988e1	0.0041972254
31	0xbd827fae	-0.06372009
32	0xbc5332f3	-0.012890565
33	0x3c814095	0.015777865
34	0x3cdb5bdf	0.026777206
35	0x3cc26812	0.023731265
36	0xbd2fdd72	-0.042935796
37	0xbd1083bf	-0.035281893
38	0x3db6dd24	0.08928898
39	0xbcd75d24	-0.02628953
40	0x3d1b4779	0.03790996
41	0x3ce5b4d1	0.028040322
42	0x3d5b1c6c	0.053493902
43	0x3c50e158	0.012749039
44	0xbd89c6fa	-0.06727405
45	0x3d8957d2	0.067062035
46	0x3def52f4	0.11685744
47	0x3d751ee1	0.0598439
48	0xbcf1c836	-0.029514413
49	0xbd9a87e9	-0.07545454
50	0xbc03803c	-0.008026179
51	0x3d24a256	0.040193878
52	0xbce17a06	-0.027524006
53	0xbd0c7f3c	-0.034301028
54	0xbcadfd29	-0.02123888
55	0x3ccc44b9	0.024935113
56	0x3cfd4b47	0.030919684
57	0xbd8c7139	-0.06857533
58	0xbdfcae65	-0.123379506
59	0xbe09c42a	-0.13453737
60	0xbd0558d2	-0.03255541
61	0xbd9e98a9	-0.07743961
62	0xbde2bac5	-0.1107078
63	0x3c612462	0.0137415845
64	0x3c8762d5	0.016526619
65	0xbcf8f780	-0.030391455
66	0x3d102922	0.035195477
67	0x3d7f2001	0.06228638
68	0xbc95c331	-0.018281551
69	0xbccb2032	-0.024795625
70	0x3dbd720b	0.092502676
71	0x3caef79e	0.021358307
72	0xbd60062c	-0.054693386
73	0x3d90e70d	0.070753194
74	0x3d068624	0.03284277
75	0xbccf516b	-0.025307378
76	0x3a8cfc4c	0.0010756343
77	0xbd78d5fd	-0.06075095
78	0x3d431944	0.047631517
79	0xbcc0416a	-0.023468692
80	0xbd6a4297	-0.05719241
81	0xbe0a463b	-0.13503353
82	0xbe0617e8	-0.13095057
83	0x3d89f738	0.06736606
84	0x3d108c3b	0.035289984
85	0xbd8fdba6	-0.070243165
86	0x3c4188d5	0.011812408
87	0x3d51d0c3	0.05122448
88	0xbaaea457	-0.0013324124
89	0x3d2d1362	0.042254813
90	0x3d5a53b2	0.053302474
91	0xbcc23708	-0.023707882
92	0x3bc5c5a5	0.006035524
93	0xbc02921e	-0.007969407
94	0xbdac0840	-0.08400011
95	0xbb4d10fd	-0.0031290643
96	0x3d561911	0.05227
97	0xbd41fca4	-0.047360078
98	0x3da7e914	0.08198753
99	0x3d3303f8	0.043704957
100	0xbd292e51	-0.041303936
101	0xbc74aa14	-0.014933128
102	0xbc643e73	-0.013930905
103	0x3cacb5a7	0.021082712
104	0xbc9e5f6b	-0.019332608
105	0x3d1c1cff	0.03811359
106	0xbd27560c	-0.040853545
107	0x3d0240cb	0.031800073
108	0xbd1e0baa	-0.038585342
109	0xbc3fa59c	-0.011697199
110	0x3c8ea3e3	0.017412132
111	0x3d81d3ac	0.06339201
112	0xbd8fc84b	-0.07020625
113	0xbdc38d2e	-0.09548412
114	0xbdfd03e4	-0.12354258
115	0xbd301ce5	-0.042996306
116	0xbdbde5a8	-0.09272319
117	0x3cec3ea8	0.02883847
118	0xbd41860f	-0.04724699
119	0x3cdc54c0	0.02689588
120	0xb80dc06c	-3.3796226e-05
121	0xbc70cb7f	-0.014696955
122	0xbd36004e	-0.044433884
123	0x3cd39418	0.025827453
124	0xbd34882a	-0.04407517
125	0xbdcbdd94	-0.09954372
126	0xbd8bfdf7	-0.06835549
127	0xbd75ccfb	-0.060009938
128	0xbbc3ea2c	-0.005978843
129	0x3c02ba3a	0.00797897
130	0xbd835c6c	-0.064141124
131	0xbc6637c6	-0.014051383
132	0xbc775f2d	-0.015098375
133	0x3d3b399f	0.04570925
134	0x3ca6524d	0.020302916
135	0xbd9f6272	-0.07782449
136	0x3d0503db	0.03247438
137	0xbc184810	-0.009294525
138	0x3d1777da	0.036979534
139	0xbc8eba12	-0.01742271
140	0x3c0daca5	0.008647119
141	0x3d98f230	0.074680686
142	0x3b279d9a	0.0025576116
143	0x3ba05d75	0.0048939534
144	0xbcdd5df0	-0.027022332
145	0xbd9af8f1	-0.07567013
146	0xbe1644fd	-0.14674754
147	0x3c7d0eed	0.015445453
148	0xbcbde689	-0.023181217
149	0xbbbb87d7	-0.0057229805
150	0x3cabf7a0	0.0209921
151	0xbd7ae878	-0.061256856
152	0x3d33822e	0.04382532
153	0x3d4b7e92	0.049681254
154	0x3c93ca91	0.018040927
155	0xbd83e799	-0.06440658
156	0xbddec18a	-0.108767584
157	0xbdc08331	-0.09400023
158	0xbdbe4146	-0.09289794
159	0xbc95dea0	-0.018294632
160	0xbdbfd2be	-0.09366368
161	0xbe1f7c72	-0.15574816
162	0xbd3ed6dd	-0.04659163
163	0x3c6c8dc0	0.014438093
164	0xbe0130c2	-0.12616256
165	0xbcf62f52	-0.030051861
166	0xbce9c544	-0.028536446
167	0x3b650759	0.0034947006
168	0xbc3c3007	-0.01148606
169	0x3d130b1c	0.035899267
170	0x3d540ab5	0.051768024
171	0xbc3aef63	-0.011409613
172	0xbdb0ded4	-0.08636251
173	0xbde4e8ee	-0.1117724
174	0xbddd9a74	-0.10820475
175	0x3bee9439	0.007280853
176	0x3cc80981	0.024418594
177	0x3d9e7341	0.07736827
178	0xbc31be9d	-0.010848668
179	0xbcd52b80	-0.026021719
180	0xbd3c5912	-0.04598338
181	0x3cbaf340	0.022821069
182	0x3d82de7a	0.0639009
183	0x3d21bb02	0.039484985
184	0xbd23f08b	-0.04002432
185	0xbc7c28ef	-0.015390619
186	0x3d3c6e48	0.04600361
187	0xbd8a91f0	-0.067661166
188	0xbdbc56d7	-0.09196251
189	0x3d2f688d	0.042824317
190	0xbb85ae43	-0.0040796115
191	0x3d3439ad	0.044000316
192	0xbd0d4cfd	-0.03449725
193	0xbd2aa841	-0.041664366
194	0xbd6755ea	-0.05647842
195	0xbd080b8b	-0.033214133
196	0x3d049eee	0.03237813
197	0x3d5d8bbd	0.054088343
198	0xbd484314	-0.048892096
199	0x3b7efaec	0.0038906885
200	0xbd27e5e2	-0.040990718
201	0x3db625af	0.08893906
202	0x3be1eeaa	0.006894906
203	0xbdaec35d	-0.08533356
204	0x3c6107ff	0.013734817
205	0xbc1b7309	-0.009487876
206	0x3d12b84a	0.035820283
207	0xbd3fffcd	-0.04687481
208	0xbd713ace	-0.05889397
209	0xbd07cac2	-0.03315235
210	0x3b1e250f	0.0024130975
211	0x3be15472	0.0068765217
212	0xbd04d4fc	-0.03242968
213	0xba640dc4	-0.0008699561
214	0xbb818bd0	-0.0039534345
215	0x3d2c0090	0.041992724
216	0x3d31a50d	0.043370295
217	0xbd066d0a	-0.03281883
218	0x3c312cd5	0.010813911
219	0x3b358fcd	0.002770412
220	0x3d0ed76f	0.034873422
221	0x3e1efab3	0.15525322
222	0x3dda061a	0.10645695
223	0xbdd687bd	-0.10475109
224	0xbd937328	-0.07199699
225	0xbd758e31	-0.059950057
226	0xbdc5a2b9	-0.096501775
227	0x3d46e36c	0.04855673
228	0xbd885275	-0.066563524
229	0xbd50c575	-0.05096956
230	0xbccff9ca	-0.025387663
231	0xbbaa6331	-0.005199813
232	0x3d6f5378	0.05842921
233	0xbd1d4c63	-0.038402926
234	0x3d953133	0.07284775
235	0x3d659246	0.0560477
236	0xbd99e333	-0.07514038
237	0x3c5bf87d	0.013425943
238	0x3d71bca2	0.059017785
239	0xbd9fcd8d	-0.078028776
240	0xbb71db98	-0.003690457
241	0xbcba7966	-0.022762965
242	0xbda8d17b	-0.0824308
243	0xbc810eef	-0.015754191
244	0x3d45db46	0.04830482
245	0x3d1e3fdf	0.03863513
246	0x3c7f5f53	0.015586692
247	0x3c2e852c	0.010651868
248	0x3cf8915c	0.03034275
249	0x3dabc2da	0.08386774
250	0x3d934da1	0.07192541
251	0xbc543675	-0.012952437
252	0xbcf1ac56	-0.029501121
253	0xbd8c1489	-0.06839854
254	0x3da25805	0.07926945
255	0xbb87985a	-0.004138035

fc1.bias f4 [120]
0	0xbca07a62	-0.019589607
1	0xbc99235d	-0.01869362
2	0xbcede619	-0.029040383
3	0xbcdc2cfa	-0.026876915
4	0x3d04b97e	0.03240346
5	0xbb9f8968	-0.004868675
6	0x3b771e5b	0.0037707302
7	0xbd570124	-0.052491322
8	0xbc7f8169	-0.015594819
9	0xbbd18b79	-0.0063948003
10	0xbb16b658	-0.002299687
11	0x3c760924	0.015016828
12	0xbd208a87	-0.03919461
13	0x3d03eeed	0.03221028
14	0xbbe8a71a	-0.007099998
15	0xbc6f2752	-0.014596777
16	0x3c7ecc8e	0.015551699
17	0x3d1704da	0.03686986
18	0x3c7cd447	0.01543147
19	0x3d7261bd	0.05917524
20	0xbd363968	-0.04448834
21	0x3c95dec7	0.018294705
22	0x3c763b77	0.015028826
23	0x3ba2cb5a	0.004968089
24	0x3d86e20a	0.06586082
25	0x3d6d6dd9	0.057966087
26	0x3c8b6cd3	0.017019665
27	0x3b874c94	0.004129002
28	0x3b0776b7	0.0020670125
29	0xbcde9fb1	-0.027175756
30	0x3cc512de	0.024056848
31	0xbd0f7c4d	-0.03503065
32	0x3d1009d9	0.03516564
33	0x3d75f655	0.060049374
34	0x3d2dd955	0.042443592
35	0xbce4e7cd	-0.027942562
36	0x3bedc476	0.007256086
37	0x3d479850	0.04872924
38	0xbd8e7868	-0.069565594
39	0xbd655718	-0.055991262
40	0x3d802f10	0.062589765
41	0x3d638d9c	0.05555497
42	0xbd1b3ec9	-0.037901673
43	0x3d3b70a0	0.045761704
44	0xbd005c5c	-0.03133808
45	0x3d4d7dab	0.050168674
46	0xbcba7a93	-0.022763526
47	0x3a0e45a7	0.0005427249
48	0x3d683a63	0.056696307
49	0xbc7d3494	-0.01545443
50	0x3d719f35	0.058989722
51	0xbd4e86f0	-0.050421655
52	0x3cdfccc7	0.027319325
53	0x3d57cbb0	0.052684486
54	0x3c465003	0.012104037
55	0x3d32c298	0.04364261
56	0xbab50f80	-0.0013813823
57	0xbcef5a62	-0.029217903
58	0x3d172f8e	0.036910586
59	0x3c0290ec	0.007969122
60	0x3d4c0857	0.04981264
61	0x3b42273c	0.0029625436
62	0xbc0fd7ec	-0.008779507
63	0x3cea76a2	0.028621022
64	0x3d034565	0.0320486
65	0xbbd6c038	-0.006553676
66	0xbd3e8559	-0.04651389
67	0x3d363df7	0.044492688
68	0xbc1fcfa0	-0.0097540915
69	0x3caaff1c	0.020873599
70	0xbd43be89	-0.04778913
71	0xbcb7b23d	-0.022423858
72	0x3d51278f	0.051063117
73	0x3d5e3417	0.054248895
74	0xbcd6d228	-0.026223257
75	0xbcbbba34	-0.022915937
76	0xbd051aab	-0.032496136
77	0xbc0c5887	-0.008566028
78	0xbd2f6a3e	-0.04282593
79	0xbce50059	-0.027954267
80	0xbca690fa	-0.020332802
81	0xbd2c1d7d	-0.04202031
82	0xbccc530d	-0.024941945
83	0xbd51ef10	-0.05125338
84	0x3c2fecb0	0.010737583
85	0x3d516587	0.051122215
86	0x3c44792b	0.011991779
87	0xbd74e652	-0.059789963
88	0x3d01cb72	0.03168816
89	0xbcf429ea	-0.029805142
90	0xbd5f713b	-0.054551344
91	0x3d526906	0.05136969
92	0x3d778b8c	0.060435817
93	0xbd85df75	-0.06536762
94	0xbd8b24d8	-0.06794137
95	0xbbfb67b2	-0.0076722736
96	0x392c91d6	0.00016457526
97	0xbbdcd798	-0.006739568
98	0x3d6dffab	0.058105152
99	0xbcaac502	-0.020845894
100	0x3c72f21d	0.014828232
101	0xbc33c66f	-0.010972603
102	0x3c9a2740	0.018817544
103	0xbcbf496e	-0.023350444
104	0x3d8df2d2	0.0693108
105	0x3c624f34	0.013812829
106	0xbcc22027	-0.023696972
107	0xbacea73f	-0.0015766396
108	0x3d646807	0.05576327
109	0xbd0a63b5	-0.033786494
110	0x3cf3bcc5	0.029753098
111	0xbd12b17f	-0.035813805
112	0xba3e85eb	-0.000726788
113	0x3d166b5d	0.036723483
114	0xbcbc5642	-0.02299035
115	0xbd344102	-0.04400731
116	0x3d9b1cac	0.07573828
117	0x3c5106b2	0.012757944
118	0xbd5ce282	-0.053926952
119	0x3c73c168	0.014877655

fc2.weight f4 [84, 120]
0	0xbaa99e4d	-0.0012940854
1	0xbd415006	-0.047195457
2	0xbd1f5b5f	-0.038905498
3	0xbd9dac3f	-0.07698869
4	0x3d2a750f	0.041615542
5	0x3cd61f47	0.026137961
6	0xbcbedd4a	-0.023298878
7	0x3cee9c3c	0.029127233
8	0x3d9d57be	0.07682751
9	0xbdab208c	-0.08355817
10	0xbd8709af	-0.06593644
11	0x3d0851f3	0.033281278
12	0xbde5ee3b	-0.112270795
13	0x3daef837	0.08543437
14	0xbdb47561	-0.08811451
15	0xbd967a60	-0.0734756
16	0x3ddd987b	0.10820099
17	0x3d9d47de	0.07679723
18	0xbd2ac02e	-0.041687183
19	0xbddb912e	-0.1072105
20	0x3d799d99	0.060941312
21	0x3e01fff3	0.12695293
22	0xbcd2b255	-0.025719801
23	0x3dbb8536	0.09156267
24	0xbcb3369f	-0.021876631
25	0x3db953b3	0.090491675
26	0x3dc6d4fe	0.09708594
27	0x3d49eac1	0.049296144
28	0xbe0c3599	-0.13692321
29	0xbc81071a	-0.015750457
30	0xbc03bf4b	-0.008041213
31	0xbd79f446	-0.061023973
32	0xbd7aa787	-0.061194923
33	0xbdf6f420	-0.12058282
34	0x3d685449	0.056721006
35	0x3dfb18d3	0.12260594
36	0x3c55dd9a	0.013053322
37	0xbcbf33b5	-0.023340086
38	0x3c610e41	0.013736309
39	0xbdfeb2df	-0.12436461
40	0xbc56973e	-0.013097582
41	0xbd045386	-0.032306217
42	0x3d117725	0.035514016
43	0x3cbd2cdb	0.023092678
44	0x3d995f48	0.074888766
45	0x3d0f611d	0.035004724
46	0xbd883d1c	-0.06652281
47	0xbd7ff70f	-0.062491473
48	0xbc718fc9	-0.014743754
49	0x3cbdeafe	0.023183342
50	0x3e0a5238	0.13507926
51	0x3d0f2426	0.034946583
52	0xbdda3f94	-0.10656658
53	0x3e2aaf50	0.16668439
54	0xbdeab6c2	-0.114606395
55	0x3cdb00ff	0.026733873
56	0xbd52e235	-0.05148526
57	0x3db6601a	0.08905049
58	0xbd829b6c	-0.063773006
59	0xbcb12a8d	-0.021626735
60	0x3d571f6a	0.052520193
61	0xbba2b2fa	-0.0049651833
62	0x3c7635a2	0.0150274355
63	0x3d2b2285	0.041780967
64	0xbc987081	-0.018608334
65	0x3dc6a59d	0.09699557
66	0xbdf4f807	-0.1196137
67	0x3bf0def9	0.007350799
68	0x3cbbdee8	0.022933438
69	0xbd9f5ab6	-0.077809736
70	0x3ce790ab	0.028267225
71	0x3ce4cb7e	0.027929064
72	0xbd17ea22	-0.03708852
73	0x3da8b892	0.08238329
74	0xbd33637e	-0.043796055
75	0xbdda6713	-0.10664191
76	0xbd0a1a1e	-0.033716314
77	0x3d6772b8	0.05650589
78	0x3d09043b	0.0334513
79	0x3cd646ec	0.026156865
80	0xbd983034	-0.07431069
81	0x3d95aeca	0.07308729
82	0x3d63c246	0.055605195
83	0x3cb9375a	0.022609401
84	0x3d3558d5	0.04427417
85	0x3dd54f53	0.104155205
86	0xbd2b6b34	-0.041850284
87	0x3d489a02	0.048975
88	0x3d9233c6	0.07138781
89	0xbd117629	-0.035513077
90	0x3e05869c	0.1303963
91	0x3ac03215	0.0014663363
92	0x3db03d12	0.08605398
93	0xbd8cc329	-0.06873161
94	0x3c7e08ea	0.015505055
95	0xbbb1b696	-0.0054233773
96	0x3e07d796	0.13265833
97	0x3d96c279	0.073613115
98	0x3bdfd594	0.0068308804
99	0x3de1b3c3	0.11020615
100	0x3d9449d0	0.07240641
101	0xbce59680	-0.028025866
102	0xbccb1d22	-0.024794165
103	0xbd45cb19	-0.048289392
104	0xbdc371ef	-0.095432155
105	0xbdb668ac	-0.08906683
106	0xbda63bf6	-0.081169054
107	0x3c9e4aa9	0.01932271
108	0x3c8a7876	0.016903143
109	0x3d6a367c	0.057180867
110	0xbcd81a33	-0.02637968
111	0x3dee785a	0.11644049
112	0x3d95ac56	0.07308261
113	0x3dd867c9	0.105666704
114	0xbdde3861	-0.10850597
115	0x3c6fc6ce	0.014634801
116	0xbdb4048d	-0.087899305
117	0xbd3032da	-0.043017246
118	0xbdacb350	-0.08432639
119	0xbcbb8c20	-0.022893965
120	0x3ccdc225	0.02511699
121	0xbad1d0fb	-0.0016007716
122	0xbd9423f6	-0.072334215
123	0x3c586f35	0.013210108
124	0xbd34a1de	-0.04409968
125	0xbc8662c2	-0.016404513
126	0xbd8b14d2	-0.067910805
127	0x3d139bd1	0.03603727
128	0x3da1e123	0.079042695
129	0xbc91c3e8	-0.01779361
130	0xbe12f5e3	-0.14351611
131	0x3c19eefa	0.009395355
132	0x3dde0f62	0.10842778
133	0x3a3f09d1	0.00072875345
134	0xbda5f286	-0.08102898
135	0xbcd48c23	-0.025945729
136	0x3cb7d916	0.022442382
137	0xbc2768ac	-0.010217827
138	0xbdf0ce08	-0.11758047
139	0xbb0e98de	-0.0021758596
140	0x3d8799a0	0.066210985
141	0xbdd79a10	-0.10527432
142	0xbd32e002	-0.04367066
143	0x3dcc33ab	0.099707924
144	0xbd55cd4e	-0.052197747
145	0xbdaedff0	-0.085388064
146	0xbda8efa0	-0.0824883
147	0xbde373d2	-0.11106075
148	0x3dd89ece	0.105771646
149	0xbd935d7e	-0.071955666
150	0x3ce8302c	0.028343283
151	0x3a2aab03	0.0006510468
152	0xbd827ef1	-0.063718684
153	0x3bfa643e	0.0076413443
154	0x3e174664	0.14772946
155	0x3da64e23	0.08120372
156	0xbbaf8963	-0.005356954
157	0x3dea5fd1	0.11444057
158	0xbd6c982c	-0.05776231
159	0x3c83cbb3	0.016088342
160	0x3d212600	0.03934288
161	0xbc5f0370	-0.013611659
162	0xbd00949f	-0.031391736
163	0xbd58d0ee	-0.052933626
164	0x3d1b24b5	0.037876803
165	0xbe106b69	-0.14103474
166	0x3cc35f6a	0.023849208
167	0xbd92771c	-0.071516246
168	0xbda9e305	-0.08295254
169	0xbda829c3	-0.082110904
170	0x3dd79b1e	0.10527633
171	0x3e0858bc	0.133151
172	0xbd1801f1	-0.037111226
173	0x3c96b178	0.01839517
174	0xbe2c823c	-0.16846555
175	0xbcc6e63a	-0.024279702
176	0xbd84632c	-0.06464228
177	0x3d70ce4a	0.058790483
178	0xbccd1c12	-0.025037799
179	0xbd2ed640	-0.042684793
180	0xbc82860a	-0.015933055
181	0x3dff6713	0.12470832
182	0x3d1066e5	0.035254378
183	0x3ddbf135	0.10739366
184	0x3ba3a2c6	0.0049937693
185	0xbcde5620	-0.027140677
186	0xbe129ba4	-0.14317185
187	0x3d9ea7d6	0.07746856
188	0x3c799601	0.015233518
189	0x3cb7c5a1	0.022433104
190	0xbdfc0790	-0.1230613
191	0x3dd478c5	0.103745975
192	0x3d1999e3	0.037500273
193	0x3d8eeb38	0.06978458
194	0xbd15df92	-0.036590166
195	0x3d889796	0.06669538
196	0xbd91d435	-0.071205534
197	0xbda13569	-0.07871515
198	0x3d641aa9	0.055689488
199	0xbda39848	-0.0798803
200	0x3d0a45f8	0.033758134
201	0xbdb131b6	-0.0865206
202	0x3d9b01d3	0.07568707
203	0x3da8dde7	0.082454495
204	0x3c99e05c	0.01878374
205	0xbd8a1c77	-0.067437105
206	0x3db872b1	0.09006251
207	0xbc013382	-0.007885816
208	0x3d550016	0.052002035
209	0xbdc5690c	-0.09639177
210	0x3c7167ed	0.0147342505
211	0xbce96df8	-0.02849482
212	0xbdb0ace2	-0.08626725
213	0x3b0b7a29	0.002128253
214	0xbbeb4c34	-0.007180715
215	0xbc896d96	-0.016775887
216	0x3dc4be22	0.096065775
217	0x3d2de898	0.042458147
218	0xbd8274cf	-0.06369936
219	0x3bd41fe3	0.0064735278
220	0xbe116a5a	-0.14200726
221	0xbb9dc876	-0.0048151566
222	0x3d9b92dc	0.075963706
223	0xbdc12ea6	-0.094327256
224	0x3df1061e	0.11768745
225	0x3c809711	0.015697034
226	0xbd62f8ed	-0.055413175
227	0xbdb70cb4	-0.0893797
228	0x3dd6773c	0.10471961
229	0x3bb45e82	0.0055044303
230	0xbd31fd7c	-0.043454632
231	0xbb3ff1b3	-0.002928835
232	0x3cde6741	0.027148845
233	0xbcc47c98	-0.023985192
234	0xbc1b9be4	-0.009497616
235	0x3dc482e8	0.09595281
236	0xbd932348	-0.07184464
237	0xbdbc62e1	-0.09198547
238	0x3daa2ae7	0.08308964
239	0x3d8ae13a	0.0678124
240	0x3e6c8181	0.23096277
241	0xbc1f1b18	-0.0097110495
242	0xbd847393	-0.064673565
243	0x3d2c854d	0.042119313
244	0xbc5c7f20	-0.013458043
245	0x3cca497f	0.024693249
246	0x3d54047c	0.05176209
247	0x3b1f6a83	0.002432496
248	0x3d1ce184	0.038301006
249	0xbe06b9c9	-0.13156809
250	0x3e0ab7f9	0.13546742
251	0xbd952468	-0.072823346
252	0x3cb14d7c	0.021643393
253	0xbdb09f94	-0.08624187
254	0xbda2c994	-0.07948604
255	0x3e025a64	0.12729794

fc2.bias f4 [84]
0	0x3c98dfab	0.01866134
1	0x3da9d475	0.08292476
2	0x3c3b09e3	0.011415931
3	0xbd12eff7	-0.03587338
4	0xbd5ff883	-0.05468036
5	0xbc74ddaa	-0.014945427
6	0xbd947b30	-0.07250059
7	0x3d988b94	0.074484974
8	0x3c8b616d	0.01701423
9	0x3cdad3fc	0.02671241
10	0x3da385ae	0.07984482
11	0x3c24c889	0.010057577
12	0xbd8a4bc6	-0.06752734
13	0xbd1a8b79	-0.037730668
14	0x3d199a6a	0.037500776
15	0x3dcb0d20	0.09914613
16	0xbd9dc219	-0.07703037
17	0xbd4a3c8c	-0.04937415
18	0x3dbff761	0.09373356
19	0xbc240ac1	-0.01001233
20	0xbde8b84c	-0.11363277
21	0x3da561b2	0.080752745
22	0x3d5e1c89	0.054226432
23	0xbd3915e9	-0.04518691
24	0x3d51dad8	0.051234096
25	0xbd3e1bc8	-0.046413213
26	0xbd931c32	-0.07183112
27	0x3d836ee2	0.064176336
28	0x3d40bc9c	0.047054872
29	0xbc45e266	-0.012077903
30	0xbd429052	-0.047500916
31	0x3d82ad86	0.06380753
32	0xbd6df881	-0.05809832
33	0xbd2bf4fd	-0.041981686
34	0x3d9b36de	0.075788245
35	0x3cbdfebc	0.023192756
36	0x3cfc5006	0.030799877
37	0xbd9ecb02	-0.077535644
38	0x3cdf4dde	0.02725881
39	0xbd87611d	-0.0661032
40	0xbd2dbe78	-0.042417973
41	0x3ce1d738	0.027568445
42	0xbd2bccac	-0.041943237
43	0x3db825fc	0.0899162
44	0xbd7ca8ce	-0.061684422
45	0x3d87c134	0.066286474
46	0xbb142c49	-0.0022609404
47	0xbd6fb041	-0.0585177
48	0x3dc54254	0.09631792
49	0xbd806e7a	-0.06271072
50	0x3cbd5742	0.023112897
51	0x3c5c8cf4	0.01346134
52	0x3cad3c7d	0.021147007
53	0x3ce2cf64	0.027686782
54	0xbd627bb9	-0.055293772
55	0x3dc8a84f	0.09797727
56	0x3cbf44c4	0.02334822
57	0xbd924a6a	-0.071430996
58	0xbd96a3f5	-0.07355491
59	0xbd3287a5	-0.043586392
60	0x3e0b1c4e	0.13585016
61	0xbc54bbb1	-0.012984202
62	0xbdba02b8	-0.0908255
63	0x3c34d095	0.011036058
64	0xbdb08827	-0.08619719
65	0x3d1ba308	0.037997276
66	0xbc8baf27	-0.017051293
67	0xbcb3f5fa	-0.021967877
68	0x3d106507	0.035252597
69	0x3d07b764	0.03313388
70	0xbdb73ac9	-0.08946759
71	0x3d8f029f	0.06982922
72	0xbc877902	-0.016537193
73	0xbd1b8535	-0.037968833
74	0x3dbee257	0.09320515
75	0x3da964a8	0.08271152
76	0x3d5c6770	0.053809583
77	0xbc96dec7	-0.018416775
78	0x3d8e6969	0.06953699
79	0x3df9fd4c	0.12206516
80	0x3c92214a	0.01783814
81	0xbd822e58	-0.063564956
82	0xbd6750c7	-0.05647352
83	0xbb1c2f42	-0.0023831879

fc3.weight f4 [10, 84]
0	0xbe9b7f42	-0.30370528
1	0xbe1978ae	-0.14987442
2	0xbe5371e1	-0.2064891
3	0x3c9e8443	0.019350177
4	0x3dbf677c	0.0934591
5	0x3e95b32e	0.29238266
6	0xbbc2e421	-0.0059476052
7	0xbe376f07	-0.17913447
8	0xbd6c881c	-0.05774699
9	0x3e2cbc2c	0.16868657
10	0x3e37e393	0.17957906
11	0x3dc8d8f9	0.09807009
12	0x3da49b8d	0.080374815
13	0xbde62b5c	-0.11238739
14	0x3e92aa4f	0.2864556
15	0x3d453b7b	0.048152428
16	0xbd8b96dc	-0.068158835
17	0xbd8d6034	-0.06903115
18	0x3e016441	0.126359
19	0xbbfcbbb8	-0.0077128075
20	0xbda7e0b7	-0.08197158
21	0xbe16087d	-0.14651676
22	0x3cc29519	0.023752736
23	0x38da1c74	0.0001040035
24	0xbc5b8997	-0.013399503
25	0x3d9ff4f2	0.078103915
26	0x3d725e69	0.059172068
27	0x3dc92eb1	0.09823359
28	0xbdb931f8	-0.09042734
29	0xbd827acf	-0.0637108
30	0xbd50051b	-0.05078612
31	0x3da622fe	0.08112143
32	0x3c92512c	0.017860971
33	0x3dc1a2eb	0.09454902
34	0x3e78470f	0.24245857
35	0xbe3f9296	-0.18708262
36	0xbe4eca60	-0.20194387
37	0xbd7f24c1	-0.06229091
38	0x3d7b9fed	0.061431814
39	0x3d0490d6	0.03236469
40	0x3cd98d84	0.026556738
41	0x3dcf5ef8	0.10125536
42	0xbe00ad5b	-0.1256613
43	0x3bc30187	0.00595111
44	0xbd1a72f6	-0.03770729
45	0x3e845246	0.2584402
46	0x3d9bb796	0.076033756
47	0x3d68eae9	0.056864653
48	0x3ea9807f	0.33105847
49	0xbdec037e	-0.115241036
50	0xbe488486	-0.19581804
51	0xbc5f0a73	-0.013613331
52	0x3d73040b	0.059330028
53	0xbd6fbf3b	-0.05853198
54	0x3dde8174	0.10864535
55	0xbe45ed78	-0.19328868
56	0xbdfbc2d5	-0.12293021
57	0x3d77cbd7	0.06049713
58	0x3d2968b8	0.041359633
59	0xbe2785b8	-0.16359603
60	0xbe90c387	-0.28274176
61	0xbc1be310	-0.009514585
62	0x3d774966	0.060372733
63	0x3c83bb0d	0.016080404
64	0xbc0ddfa1	-0.008659274
65	0x3e6104df	0.21974514
66	0xbe4f0d2e	-0.20219871
67	0x3de0cfb5	0.10977117
68	0x3e2f4098	0.17114484
69	0xbdab74c0	-0.08371878
70	0xbdb50148	-0.08838135
71	0xbe525c57	-0.20543037
72	0xbd9daf1f	-0.07699417
73	0xbd59d619	-0.053182695
74	0x3b0fd6c0	0.002194807
75	0xbea24b31	-0.31697991
76	0xbe09aa42	-0.13443854
77	0x3e10e82f	0.14151071
78	0xbc23e813	-0.010004061
79	0x3e5752bf	0.21027659
80	0x3badbbd2	0.005301931
81	0x3cb2d5d6	0.02183048
82	0x3d2ea73d	0.04263996
83	0xbdb4a6d9	-0.08820886
84	0x3e14fae2	0.14548829
85	0xbe742987	-0.23843966
86	0x3ea3816f	0.31934687
87	0x3ee05294	0.43813002
88	0x3e0defff	0.13861082
89	0xbbe5a191	-0.0070077856
90	0xbde1752a	-0.110086754
91	0x3db7a808	0.08967596
92	0x3d78c669	0.060736094
93	0xbd9685a4	-0.07349709
94	0xbe8351ba	-0.2564829
95	0xbdd1809c	-0.102296084
96	0xbdb0c287	-0.08630853
97	0xbde43450	-0.1114279
98	0xbe138485	-0.14406021
99	0x3e7e448f	0.2483084
100	0x3e093940	0.13400745
101	0x3da1d987	0.07902818
102	0xbe311689	-0.17293753
103	0x3d12dc82	0.035854824
104	0xbdbb6cb2	-0.09151591
105	0x3d2ea6dd	0.042639602
106	0xbd20e1b0	-0.039277732
107	0xbb386513	-0.0028136417
108	0xbe51e88a	-0.20498863
109	0xbe2a654e	-0.16640207
110	0xbde04a81	-0.109517105
111	0xbdaf28ca	-0.08552702
112	0x3d3e3045	0.046432752
113	0xbd598f08	-0.05311492
114	0x3d52d726	0.051474713
115	0x3e3b78d3	0.1830781
116	0xbd997eea	-0.0749491
117	0x3d81dd7f	0.06341075
118	0xbe7d5795	-0.24740441
119	0xbe05de10	-0.13072991
120	0x3d454d08	0.048169166
121	0x3d4b67d1	0.049659554
122	0xbda6eaed	-0.08150277
123	0x3e9adc5c	0.30246246
124	0x3de50309	0.111822195
125	0xbddd3f0b	-0.1080304
126	0xbdf4faa1	-0.11961866
127	0x3d5fc600	0.054632187
128	0x3daae0c7	0.08343654
129	0xbd44d8e1	-0.048058394
130	0xbbf23132	-0.0073911184
131	0xbe26a965	-0.16275556
132	0x3e079d03	0.13243489
133	0xbcfdce62	-0.0309822
134	0x3b9ed505	0.0048471713
135	0xbdc0a966	-0.0940731
136	0xbd8920f4	-0.066957384
137	0xbe2a0ca7	-0.16606389
138	0xbe8aa698	-0.27080226
139	0x3ebe32a1	0.37148002
140	0xbe84e3b4	-0.25954974
141	0xbd659150	-0.056046784
142	0x3da4d71f	0.080488436
143	0xbddea49c	-0.108712405
144	0x3e8267b0	0.25469732
145	0xbd19c6af	-0.037542995
146	0xbde007c7	-0.109389834
147	0x3e05ad11	0.13054301
148	0xbd267a8c	-0.040644214
149	0xbe15a5bb	-0.14614002
150	0x3d565cb4	0.052334502
151	0xbd5ea95e	-0.05436074
152	0xbe3a4ebb	-0.18194096
153	0x3d5ff9e9	0.054681692
154	0xbda21c58	-0.079155624
155	0x3e034438	0.12818992
156	0x3c2bea63	0.010492894
157	0x3dab9a8f	0.08379089
158	0x3dfa5c49	0.12224633
159	0xbe565b5d	-0.2093329
160	0x3d70c95a	0.058785774
161	0xbd9bde30	-0.07610738
162	0xbe676ac6	-0.22599325
163	0xbcf747d6	-0.030185621
164	0x3e8eef32	0.27916867
165	0x3de6c49c	0.11267969
166	0x3d7fe9ce	0.062478833
167	0xbd588262	-0.052858718
168	0x3dd8156e	0.105509624
169	0xbdf5a5ef	-0.1199454
170	0xbe6ef4b4	-0.23335534
171	0x3d803dad	0.06261764
172	0x3d8697ad	0.065718986
173	0xbe0224da	-0.1270937
174	0x3cf63ba1	0.03005773
175	0x3d6ecf3e	0.05830311
176	0xbba55f6d	-0.005046776
177	0xbd574427	-0.05255523
178	0xbd1580da	-0.036499836
179	0x3ea3b2ab	0.3197225
180	0x3d9c95cd	0.0764576
181	0x3e1d9a26	0.15390834
182	0x3dec39a9	0.11534435
183	0xbdfd7c94	-0.12377277
184	0xbd8c1b79	-0.068411775
185	0x3e3fe1c0	0.1873846
186	0xbe314686	-0.17312059
187	0xbd801fbb	-0.06256052
188	0xbe082b37	-0.13297735
189	0xbb590489	-0.0033114275
190	0x3e1c6594	0.15273124
191	0xbceeabea	-0.02913471
192	0xbc818fac	-0.015815578
193	0x3e64f748	0.22359955
194	0xbc19c82b	-0.009386103
195	0xbda05052	-0.0782782
196	0xbc003e98	-0.0078274235
197	0x3dcac8a4	0.099015504
198	0xbd14fe1f	-0.03637516
199	0xbda2b997	-0.07945555
200	0x3d8e2e45	0.06942419
201	0x3adb21fa	0.00167185
202	0x3e0dbcad	0.13841505
203	0xbb5ca993	-0.003367041
204	0xbe019c25	-0.1265722
205	0xbdab96a6	-0.08378343
206	0xbdd31463	-0.10306623
207	0xbdbacdba	-0.091212705
208	0x3ddb23dd	0.107002
209	0x3d9336b9	0.07188172
210	0x3deb0472	0.11475457
211	0x3e16c8f0	0.14725089
212	0x3dd2652c	0.10273203
213	0x3e2854de	0.16438624
214	0x3dcccd29	0.10000069
215	0xbe0a0de8	-0.13481867
216	0x3d993ffd	0.07482908
217	0xbdbe2ca4	-0.09285858
218	0xbe2b92ed	-0.16755266
219	0xbca8b615	-0.020594636
220	0xbd26e7b5	-0.040748317
221	0xbde131bc	-0.10995814
222	0xbcea126f	-0.028573243
223	0x3da669e5	0.081256665
224	0x3e420449	0.18946947
225	0xbcdd9eff	-0.027053354
226	0xbdea9f46	-0.1145616
227	0xbe6fdc72	-0.23423937
228	0x3dc651a9	0.09683544
229	0x3d985e8d	0.07439909
230	0x3d8c569f	0.06852459
231	0xbd49d0b0	-0.049271286
232	0x3c97c1a2	0.018524949
233	0xbdce4f1e	-0.10073684
234	0x3f002a44	0.5006449
235	0xbd282c26	-0.04105773
236	0xbe0d2f56	-0.13787588
237	0xbd6b8d90	-0.05750805
238	0x3d36a51b	0.04459105
239	0xbe7796e0	-0.24178648
240	0x3dfbfd4e	0.123041734
241	0x3d1a05d4	0.037603214
242	0xbdbb3c41	-0.09142352
243	0xbec5e753	-0.3865305
244	0xbe0d9f6e	-0.13830349
245	0x3cb73393	0.02236346
246	0x3ce05ffb	0.027389517
247	0xbc95ee77	-0.018302185
248	0xbda4b657	-0.08042591
249	0xbcf5ba50	-0.029996067
250	0xbd111466	-0.035419844
251	0xbe1f4a34	-0.1555565
252	0x3e96bfba	0.2944315
253	0x3e2d43e7	0.16920434
254	0xbe6bce42	-0.230279
255	0xbdd1f21c	-0.10251257

fc3.bias f4 [10]
0	0xbdb9511c	-0.090486735
1	0x3e50d6d9	0.20394458
2	0xbdff3761	-0.124617346
3	0x3c690b67	0.01422391
4	0x3d5d8af7	0.054087605
5	0xbd7d2ba1	-0.061809186
6	0xbe1bb0ec	-0.15204209
7	0xbd83604d	-0.06414852
8	0x3dedafc1	0.11605788
9	0xbd320723	-0.043463837
