global_mnist_cnn.pt (torch, 181781 bytes, 10 tensors)

conv1.weight f4 [6, 1, 5, 5]
0.09996125 -0.11796911 -0.21790181 -0.17192993 0.08000349 0.10177437 0.027893031 0.1411437
0.34289834 0.3735393 0.2381691 0.3415851 0.3365196 0.33799067 -0.14072204 -0.02134355
0.17250447 0.050617166 -0.29112014 -0.12246809 -0.009461267 -0.06440272 -0.15101549 -0.030458268
-0.25779268 0.2053523 0.1479107 0.05481755 -0.2753657 -0.021574711 0.27781114 0.17003782
-0.018564072 -0.38796374 -0.1075383 0.29777876 0.18543012 -0.11305616 -0.13431506 -0.27580875
0.23249468 0.28336895 -0.06305961 -0.274181 0.08321822 0.029706055 0.116891354 0.25206324
-0.12078523 -0.088566974 0.18153186 -0.09702301 0.017394554 0.25259587 0.24724126 -0.019796412
0.16060342 0.4078523 0.5265256 0.21160603 -0.1916203 0.08726454 -0.11485984 0.22191826
0.21736535 -0.2980599 -0.17505427 -0.30782926 -0.0031846124 0.042398233 -0.12434657 -0.13208541
-0.4561428 -0.25431368 0.055846132 -0.0513005 -0.30391032 -0.12584166 0.027895952 0.22176929
-0.27300453 -0.21585429 -0.18433315 0.22432132 0.329834 -0.19805485 -0.18305011 0.09116731
0.5563007 0.05483456 -0.21708687 0.1023734 0.09438787 0.34050587 -0.034529097 -0.08245554
0.05855134 0.038464528 0.18996511 -0.09020181 0.09984916 0.07491992 -0.22395521 -0.41177332
-0.48150083 0.07337147 0.24844895 0.28673065 -0.11417583 -0.47697836 -0.19339965 0.42297825
0.5253399 0.6799554 0.23372996 -0.34329638 -0.11772019 0.028393818 0.3115423 0.33444536
-0.3262817 -0.33326924 -0.43784982 -0.30680934 -0.105191745 0.2678059 0.28630295 -0.07719943
0.018146282 0.11033611 0.20690008 0.07104851 -0.011553533 -0.1254426 -0.25957295 0.15822215
-0.113302045 -0.16550142 -0.17850709 0.029882492 0.02825739 -0.1464159 -0.2536342 -0.12412484
-0.17597961 -0.23802283 -0.33978006 -0.05379376 0.06985745 0.07223578
00000000: 7cb8 cc3d ca99 f1bd a721 5fbe 660e 30be
00000010: dfd8 a33d 156f d03d ed7f e43c f987 103e
00000020: 5f90 af3e 8b40 bf3e 9ae2 733e 3ee4 ae3e
00000030: 4c4c ac3e 1d0d ad3e 7019 10be abd8 aebc
00000040: 03a5 303e f253 4f3d b30d 95be 8dd0 fabd
00000050: 6e03 1bbc 93e5 83bd cea3 1abe 9e83 f9bc
00000060: 67fd 83be e047 523e e775 173e 5e88 603d
00000070: bcfc 8cbe 73bd b0bc 433d 8e3e 651e 2e3e
00000080: ae13 98bc 2fa3 c6be 0a3d dcbd 7576 983e
00000090: 65e1 3d3e fd89 e7bd e389 09be ce36 8dbe
000000a0: 1613 6e3e bc15 913e 6625 81bd 7461 8cbe
000000b0: 506e aa3d 1d5a f33c bc64 ef3d 6f0e 813e
000000c0: 3f5e f7bd 9a62 b5bd 7de3 393e 00b4 c6bd
000000d0: 067f 8e3c 3f54 813e d02c 7d3e 162c a2bc
000000e0: 3975 243e 04d2 d03e 62ca 063f 40af 583e
000000f0: 1d38 44be c0b7 b23d a33b ebbd 8a3e 633e
00000100: 0695 5e3e 4f9b 98be 6d41 33be cc9b 9dbe
00000110: eeb4 50bb c5a9 2d3d 6aa9 febd 6641 07be
00000120: 8d8b e9be 6735 82be eabe 643d 7920 52bd
00000130: 229a 9bbe a3dc 00be 0d86 e43c 7d17 633e
00000140: 40c7 8bbe e808 5dbe d4c1 3cbe 7db4 653e
00000150: 01e0 a83e e4ce 4abe 7d71 3bbe edb5 ba3d
00000160: b969 0e3f 349a 603d 054c 5ebe 25a9 d13d
00000170: 6d4e c13d c956 ae3e 626e 0dbd 73de a8bd
00000180: 88d3 6f3d fb8c 1d3d 3786 423e babb b8bd
00000190: b77d cc3d 9d6f 993d 8454 65be f4d3 d2be
000001a0: 4787 f6be c843 963d 6769 7e3e 5cce 923e
000001b0: 04d5 e9bd 8236 f4be 8f0a 46be 9b90 d83e
000001c0: ad7c 063f 8f11 2e3f e856 6f3e 8bc4 afbe
000001d0: 4817 f1bd 279a e83c 7982 9f3e 6c3c ab3e
000001e0: 650e a7be 44a2 aabe da2d e0be 1d16 9dbe
000001f0: c56e d7bd db1d 893e 4d96 923e bc1a 9ebd
00000200: 83a7 943c e6f7 e13d 9ddd 533e e281 913d
00000210: 084b 3dbc 0674 00be bfe6 84be fd04 223e
00000220: e70a e8bd 3479 29be 90ca 36be 21cc f43c
00000230: 0b7c e73c 0dee 15be 58dc 81be 2a35 febd
00000240: 0034 34be 42bc 73be a7f7 adbe d856 5cbd
00000250: 6c11 8f3d 5af0 933d

conv1.bias f4 [6]
-0.07283115 -0.18850493 0.18600123 -0.0881518 -0.25501847 -0.0057339617
00000000: 7f28 95bd 7007 41be 1b77 3e3e ee88 b4bd
00000010: c891 82be f5e3 bbbb

conv2.weight f4 [16, 6, 5, 5]
0.052405685 -0.05256403 -0.05851117 0.03703119 -0.025302202 0.046032492 -0.01692909 -0.038566854
0.04379894 -0.0028944924 -0.0859713 -0.15470998 -0.087033056 -0.04947797 0.08685814 -0.13532224
-0.02856046 -0.09717807 0.07105138 0.28385898 -0.13788511 -0.17967433 -0.10073233 0.06764041
0.055820983 0.09957671 0.039445434 0.066055514 0.1034873 -0.011002382 0.08346967 -0.013126726
0.06862226 0.08514738 -0.041799083 0.03318232 -0.04565458 -0.022453079 0.094497845 0.10224788
-0.05053248 -0.05239484 -0.020725144 0.04157053 0.007908971 -0.03536803 -0.057572745 -0.1308882
-0.19000523 -0.08440641 -0.002294066 0.0042049666 -0.10141522 -0.13022375 -0.13828164 0.039488513
0.044456135 -0.048108693 -0.07319769 -0.11069659 -0.03013751 -0.10952002 0.0016768519 -0.10788883
-0.036421195 -0.047213662 0.0110084275 0.080848135 0.10724233 0.16050188 -0.0793647 -0.07370463
-0.002587682 0.16254865 0.07307754 -0.03349314 0.06992293 0.077265024 0.17078552 -0.033041846
0.05167258 0.055988602 0.22396956 0.2382212 -0.07457431 -0.05537714 0.08994156 0.13392136
0.06318768 -0.18303074 -0.11170735 -0.013533143 0.0784183 -0.13439704 -0.010760595 -0.16877234
-0.14088807 -0.14874245 -0.15418662 -0.17472526 -0.05245532 -0.16138381 -0.06871462 -0.015014604
0.030622398 -0.08565067 -0.19877495 -0.10785281 -0.11412893 -0.02095934 0.025945237 -0.14755046
-0.079201184 -0.0363357 0.026942208 0.06029555 -0.07580401 0.15223125 0.14308687 0.049271617
0.008936768 -0.12644327 0.004064054 0.13759878 0.14974205 0.032145314 -0.08016651 -0.022605333
0.015033755 -0.02578162 -0.023004118 -0.07038414 -0.11196371 -0.030688198 -0.11403462 -0.04416473
-0.036048025 -0.0978054 -0.15137723 -0.106045745 -0.050002158 -0.096023366 -0.018456653 -0.039939187
-0.07787718 -0.019650377 0.049915977 0.05803424 0.04641693 -0.0139112035 0.0006149594 -0.097585164
-0.11741554 -0.135362 -0.12122113 -0.13112965 -0.087805435 -0.08196187 0.19373173 0.1315906
0.016609771 0.11662916 0.19382288 0.1527648 0.038277503 -0.019857595 -0.029330192 -0.18666983
-0.2832124 -0.088913485 -0.05411993 -0.07602704 0.15519193 0.18405138 0.13646999 0.016971113
-0.049193084 0.07488976 0.022142377 -0.048009463 -0.019688962 -0.0386319 0.053447377 0.017394567
-0.077386945 -0.1110234 -0.11257035 -0.14751196 -0.2005376 -0.03045043 0.044304796 0.027569907
0.07600096 -0.0634605 -0.181693 0.050931398 -0.07318034 -0.041225422 -0.046167225 0.042058233
0.009708337 0.019128002 -0.011043046 -0.17536062 -0.23673984 -0.12533176 -0.17127633 -0.04731352
0.04628198 0.0706023 -0.09593692 0.0015081642 0.2457551 0.3006865 0.20684683 -0.042120516
-0.017944109 -0.06420133 -0.23202373 -0.17672223 0.035678856 0.089984864 -0.08073314 -0.025585622
-0.02819296 0.06313167 -0.07822307 -0.13664392 0.0118783945 0.06291003 -0.01182417 -9.780371e-06
0.020330505 0.09654352 0.09185936 -0.03301394 -0.10770208 0.05303235 -0.082713924 -0.19321394
0.07773698 0.018431336 -0.19104281 -0.211694 0.036008775 -0.06212053 0.0030219497 -0.030285498
0.065593965 -0.0020332204 -0.09732339 -0.14337492 -0.17151052 -0.048180737 -0.0024918413 -0.011265535
00000000: 58a7 563d 614d 57bd 69a9 6fbd 04ae 173d
00000010: 9046 cfbc 918c 3c3d e0ae 8abc 47f8 1dbd
00000020: 8466 333d 86b1 3dbb b911 b0bd 4b6c 1ebe
00000030: 633e b2bd 69a9 4abd aee2 b13d ea91 0abe
00000040: a0f7 e9bc 4c05 c7bd 6383 913d f755 913e
00000050: c131 0dbe 8cfc 37be c04c cebd 0e87 8a3d
00000060: 8ba4 643d e0ee cb3d 8991 213d 1d48 873d
00000070: 26f1 d33d 5643 34bc 25f2 aa3d 7b11 57bc
00000080: d489 8c3d c061 ae3d 8435 2bbd 2fea 073d
00000090: 4c00 3bbd 85ef b7bc 1688 c13d 5667 d13d
000000a0: 25fb 4ebd f99b 56bd c7c7 a9bc dc45 2a3d
000000b0: a194 013c 11de 10bd 66d1 6bbd 8e07 06be
000000c0: bb90 42be 45dd acbd 0a58 16bb d1c9 893b
000000d0: c8b2 cfbd 6059 05be b499 0dbe b5be 213d
000000e0: a317 363d 9f0d 45bd ace8 95bd e5b4 e2bd
000000f0: f0e2 f6bc 084c e0bd d0c9 db3a d2f4 dcbd
00000100: 642e 15bd 1d63 41bd b15c 343c b593 a53d
00000110: dea1 db3d 9b5a 243e f689 a2bd 74f2 96bd
00000120: 1a96 29bb 2773 263e ada9 953d 1a30 09bd
00000130: c133 8f3d 203d 9e3d 66e2 2e3e e356 07bd
00000140: a1a6 533d 4e54 653d 4758 653e 42f0 733e
00000150: 6aba 98bd 24d3 62bd 4833 b83d ae22 093e
00000160: 8b68 813d 696c 3bbe d3c6 e4bd 1eba 5dbc
00000170: c699 a03d 619f 09be 354d 30bc a8d2 2cbe
00000180: f644 10be f14f 18be 19e3 1dbe 2eeb 32be
00000190: 64db 56bd cc41 25be 40ba 8cbd d0ff 75bc
000001a0: d3db fa3c 9e69 afbd a98b 4bbe efe1 dcbd
000001b0: 6ebc e9bd ecb2 abbc 1b8b d43c 7817 17be
000001c0: 3b34 a2bd bed4 14bd e8b5 dc3c 77f8 763d
000001d0: 223f 9bbd 82e2 1b3e 5d85 123e 09d1 493d
000001e0: 866b 123c 587a 01be c22b 853b b2e6 0c3e
000001f0: fb55 193e ceaa 033d 572e a4bd d22e b9bc
00000200: 2450 763c fa33 d3bc 2273 bcbc 8f25 90bd
00000210: 3b4d e5bd d165 fbbc fc8a e9bd 13e6 34bd
00000220: 18a7 13bd 334e c8bd a202 1bbe 832e d9bd
00000230: 10cf 4cbd e6a7 c4bd 6832 97bc 4697 23bd
00000240: 127e 9fbd d4f9 a0bc b274 4c3d 50b5 6d3d
00000250: ae1f 3e3d d1eb 63bc 3a35 213a bbda c7bd
00000260: 8f77 f0bd 569c 0abe c942 f8bd da46 06be
00000270: 56d3 b3bd a0db a7bd 9c61 463e b0bf 063e
00000280: 3711 883c 45db ee3d 8179 463e 606e 1c3e
00000290: dfc8 1c3d 65ac a2bc df45 f0bc 6026 3fbe
000002a0: 3701 91be 4618 b6bd dcac 5dbd 11b4 9bbd
000002b0: a2ea 1e3e f777 3c3e cabe 0b3e 0107 8b3c
000002c0: b07e 49bd cd5f 993d ee63 b53c 92a5 44bd
000002d0: bf4a a1bc 7c3c 1ebd a3eb 5a3d 0d7f 8e3c
000002e0: 0c7d 9ebd 3d60 e3bd 498b e6bd 600d 17be
000002f0: bb59 4dbe 2e73 f9bc f278 353d 49da e13c
00000300: 64a6 9b3d 94f7 81bd bb0d 3abe 719d 503d
00000310: 93df 95bd fddb 28bd d819 3dbd 4145 2c3d
00000320: b70f 1f3c 54b2 9c3c e4ed 34bc bc91 33be
00000330: ee6b 72be f856 00be 1063 2fbe d2cb 41bd
00000340: 2c92 3d3d f097 903d 937a c4bd 98ad c53a
00000350: 3aa7 7b3e 95f3 993e a8cf 533e 9086 2cbd
00000360: 86ff 92bc fd7b 83bd a197 6dbe acf6 34be
00000370: fe23 123d fc49 b83d 6b57 a5bd f098 d1bc
00000380: ecf4 e6bc 2d4b 813d 6b33 a0bd 62ec 0bbe
00000390: 999d 423c f9d6 803d 2aba 41bc 6016 24b7
000003a0: 298c a63c 9cb8 c53d c320 bc3d a039 07bd
000003b0: e892 dcbd 7338 593d eb65 a9bd e0d9 45be
000003c0: 9134 9f3d 50fd 963c baa0 43be 50c6 58be
000003d0: f07d 133d 1972 7ebd e70b 463b 4b19 f8bc
000003e0: 2156 863d c73f 05bb 7c51 c7bd e0d0 12be
000003f0: 74a0 2fbe 2a59 45bd 294e 23bb 1493 38bc

conv2.bias f4 [16]
-0.0030640631 0.049758215 -0.027781477 -0.083370976 0.0042255106 0.0055711647 -0.03713037 -0.0016838213
0.059938703 -0.059988428 -0.028396608 -0.09407496 0.054905403 -0.060480908 -0.033436906 0.047634516
00000000: 73ce 48bb 45cf 4b3d fb95 e3bc 67be aabd
00000010: 2776 8a3b 518e b63b 0416 18bd abb3 dcba
00000020: 4982 753d 6db6 75bd 01a0 e8bc 5faa c0bd
00000030: 7de4 603d d4ba 77bd 23f5 08bd 691c 433d

fc1.weight f4 [120, 256]
-0.020266237 -0.067981675 -0.054410696 -0.06325522 -0.038910836 -0.025360886 -0.024204638 -0.05983238
0.0026495801 0.064505145 -0.033908896 -0.018653948 0.05922191 -0.050346546 -0.035366666 0.0088941585
-0.0361097 -0.06457019 -0.0012697012 0.022415692 -0.014854089 -0.053018782 -0.033026412 0.027429905
0.022148386 -0.0021203486 0.044125114 0.044006605 -0.042138934 -0.05412839 0.063258834 -0.027808176
0.026571844 -0.01839396 0.03483586 -0.047560506 -0.06771268 -0.07206073 0.044158135 0.021141248
-0.0077422746 -0.01929709 -0.008659793 -0.06697136 -0.01701314 0.0056564235 0.08134608 -0.0073172483
0.013023853 -0.04291667 -0.00200295 0.050842512 0.017917095 -0.0416683 0.008574888 -0.022766208
0.043243542 -0.00012664779 0.02171449 -0.05876346 -0.055360477 -0.010643926 0.012885804 -0.055006977
-0.01760095 -0.03293897 0.0441961 0.06399834 0.032502994 -0.042752072 0.007795209 -0.021878507
-0.0007707817 -0.019371616 0.02723777 0.046687983 -0.03149979 0.04958891 -0.008454841 -0.0077345213
-0.030595755 0.013763409 0.0053638685 0.04928734 0.05954223 0.06136164 0.022888334 -0.055870324
-0.06781749 -0.025593834 -0.027361203 0.06833266 -0.040398303 -0.02185879 0.055076897 -0.07587528
0.026033625 -0.028693069 -0.039715692 -0.049733207 0.03915724 -0.0047936006 0.03797025 0.010212261
-0.03439166 0.043513868 -0.03955215 0.030757831 0.02952543 -0.03235931 0.021487832 0.00018811328
0.03910351 0.025503885 0.031963706 -0.018962156 0.011070838 -0.056184158 0.021451691 -0.01844462
0.025684375 -0.009760934 0.0067235576 -0.056097604 0.010271338 0.00935315 -0.07375363 -0.004574379
0.026302688 0.050807163 0.06590292 0.05396458 -0.011161212 -0.07470349 0.0006192892 0.059805483
-0.012889568 0.0016885921 0.04141374 -0.053172357 0.09614822 0.0063691884 0.05881949 0.020130988
-0.047892768 -0.034425452 -0.038941815 0.036646076 -0.029695695 -0.028763205 0.036373064 -0.0057631885
-0.059770893 0.040174875 0.052395288 0.07701406 0.0047362265 -0.032741636 -0.024563402 0.057869866
-0.04165752 -0.015234026 -0.009619995 -0.010703012 -0.014770544 -0.053526457 0.025957495 0.027510064
-0.030914066 -0.055527385 0.012185831 -0.008751934 -0.031625833 0.03231892 0.017250946 0.022965685
0.059304643 -0.053103164 0.008215639 0.014975112 -0.028472517 0.043851744 -0.058144134 -0.009464934
0.05001578 0.012751458 -0.05333469 -0.004178906 0.022016468 0.058752768 0.0155137945 0.022213086
0.053972475 -0.0012039242 0.04797928 0.030206198 0.0021861969 -0.055227183 -0.0017455354 0.05820327
0.0016327383 -0.037196558 -0.0682156 -0.009875067 -0.004877741 -0.04632757 -0.00792488 -0.027493404
-0.019930882 0.07692394 -0.048218705 0.04819629 -0.030165592 0.03247421 -0.048118006 -0.02802969
0.05799556 0.056890868 -0.01066496 -0.01581007 0.040070847 0.036039643 0.008705828 0.030358477
0.05252779 -0.042724982 -0.01953414 -0.048005365 0.00721757 0.0038273341 -0.04029916 -0.039803766
-0.03314915 0.057854597 0.065976046 0.06983822 -0.02339791 0.04270414 -0.04073374 -0.061743513
0.0149464365 -0.041580476 -0.036214344 -0.0061370656 0.061614867 -0.05238439 0.055042922 0.030283162
-0.01671733 -0.0028620607 -0.0022825405 -0.015319931 0.002227369 -0.06520385 -0.020409167 -0.010323333
00000000: 6105 a6bc fa39 8bbd c0dd 5ebd f48b 81bd
00000010: f860 1fbd a2c1 cfbc ce48 c6bc cc12 75bd
00000020: 94a4 2d3b 461b 843d 0ee4 0abd 2ad0 98bc
00000030: ac92 723d 2e38 4ebd a3dc 10bd ceb8 113c
00000040: c4e7 13bd 603d 84bd 1a6c a6ba 1da1 b73c
00000050: 915e 73bc 392a 59bd b446 07bd aeb4 e03c
00000060: 8870 b53c 8cf5 0abb 89bc 343d 4540 343d
00000070: e099 2cbd bbb5 5dbd d98d 813d f9cd e3bc
00000080: 32ad d93c eeae 96bc 0cb0 0e3d cece 42bd
00000090: f2ac 8abd 9394 93bd 29df 343d 6930 ad3c
000000a0: e8b2 fdbb ee14 9ebc cee1 0dbc 4828 89bd
000000b0: 245f 8bbc 8559 b93b c698 a63d 87c5 efbb
000000c0: 0062 553c 64c9 2fbd ed43 03bb 3d40 503d
000000d0: dfc6 923c 61ac 2abd b07d 0c3c 3380 babc
000000e0: 2420 313d c2cc 04b9 96e2 b13c f4b1 70bd
000000f0: abc1 62bd dd63 2ebc fb1e 533c ff4e 61bd
00000100: de2f 90bc 03eb 06bd f806 353d 9011 833d
00000110: dc21 053d cc1c 2fbd f46e ff3b 8e3a b3bc
00000120: 490e 4aba 39b1 9ebc be21 df3c e63b 3f3d
00000130: ec05 01bd be1d 4b3d 2c86 0abc de71 fdbb
00000140: f3a3 fabc ec7f 613c 64c3 af3b 86e1 493d
00000150: 8ee2 733d 5856 7b3d 5180 bb3c 48d8 64bd
00000160: e5e3 8abd 29aa d1bc 9a24 e0bc fef1 8b3d
00000170: b178 25bd 3511 b3bc 5098 613d 8064 9bbd
00000180: 7844 d53c ba0d ebbc ecac 22bd 0cb5 4bbd
00000190: 5863 203d a313 9dbb b186 1b3d 5451 273c
000001a0: 45de 0cbd 993b 323d 6f01 22bd d9f7 fb3c
000001b0: 51df f13c 328b 04bd 4007 b03c 4640 4539
000001c0: 012b 203d 86ed d03c 60ec 023d 8656 9bbc
000001d0: 7662 353c 5c21 66bd 75bb af3c 2c19 97bc
000001e0: 0a68 d23c 53ec 1fbc 4a51 dc3b 9ac6 65bd
000001f0: 1d49 283c f43d 193c 250c 97bd ace4 95bb
00000200: bc78 d73c 2c1b 503d 1cf8 863d f709 5d3d
00000210: 84dd 36bc 25fe 98bd cb57 223a 98f6 743d
00000220: c42e 53bc c053 dd3a 74a1 293d 42cb 59bd
00000230: 5ce9 c43d a0b4 d03b b5ec 703d bee9 a43c
00000240: 352b 44bd b401 0dbd 7481 1fbd 321a 163d
00000250: 6344 f3bc d0a0 ebbc ecfb 143d 21d9 bcbb
00000260: 53d2 74bd 698e 243d 719c 563d 8cb9 9d3d
00000270: 5932 9b3b 181c 06bd 3039 c9bc f408 6d3d
00000280: 13a1 2abd 2398 79bc 2f9d 1dbc b05b 2fbc
00000290: 2700 72bc 8f3e 5bbd d0a4 d43c c95c e13c
000002a0: 7f3f fdbc af70 63bd 14a7 473c 4664 0fbc
000002b0: 178a 01bd d860 043d db51 8d3c 8822 bc3c
000002c0: 6de9 723d b482 59bd e39a 063c 2c5a 753c
000002d0: 323f e9bc e39d 333d 8b28 6ebd cf12 1bbc
000002e0: 59dd 4c3d 7eeb 503c 7a75 5abd 34ef 88bb
000002f0: e15b b43c bea6 703d 922d 7e3c 38f8 b53c
00000300: 3e12 5d3d fecc 9dba ec85 443d fd72 f73c
00000310: 4c46 0f3b e635 62bd 73ca e4ba 8d66 6e3d
00000320: 9b01 d63a 6b5b 18bd 9fb4 8bbd 08cb 21bc
00000330: 75d5 9fbb fac1 3dbd 5bd7 01bc d939 e1bc
00000340: 1746 a3bc 4c8a 9d3d fa80 45bd 7969 453d
00000350: d51d f7bc ad03 053d 6317 45bd 859e e5bc
00000360: c18c 6d3d 6606 693d 16bc 2ebc 1f84 81bc
00000370: 5421 243d 4e9e 133d e4a2 0e3c 57b2 f83c
00000380: 6127 573d 6400 2fbd 1006 a0bc 46a1 44bd
00000390: 5e81 ec3b 03d4 7a3b bb10 25bd 4609 23bd
000003a0: 67c7 07bd f1f8 6c3d 731e 873d 5707 8f3d
000003b0: f9ac bfbc 89ea 2e3d 6cd8 26bd c4e6 7cbd
000003c0: e6e1 743c 4a50 2abd 7e55 14bd 7019 c9bb
000003d0: df5f 7c3d 0491 56bd b074 613d 6514 f83c
000003e0: c8f2 88bc 6991 3bbb ad96 15bb 7300 7bbc
000003f0: 0df9 113b 9989 85bd 2031 a7bc 3223 29bc

fc1.bias f4 [120]
0.01614685 0.019170847 0.05547372 0.06270566 -0.0015947954 -0.036198154 -0.035189487 -0.059756953
0.023419112 0.011651638 0.053717762 -0.043319546 -0.028134268 0.031426102 0.05383338 -0.010900339
0.06528103 -0.036820132 -0.04724276 0.030634047 0.040818024 -0.015969222 0.041795753 -0.042268604
0.0023486926 0.0205611 0.043821838 -0.005509916 0.01376874 0.012026471 -0.039961636 -0.054068405
-0.014650174 0.055760287 0.06473278 -0.03468891 0.031168964 0.020607175 0.0045793355 -0.031120688
0.029823205 -0.04955543 -0.058449652 0.032520097 -0.008947393 -0.0033924794 0.06803778 0.019986112
0.03235702 -0.007306303 0.06288501 0.0014231198 -0.045671437 -0.04319909 0.009609877 -0.017706076
0.009579862 -0.04441818 0.015994297 -0.021810843 -0.03630977 0.002817896 -0.0627495 -0.045443647
0.027459474 -0.033593155 0.03932328 0.072582744 -0.04026413 0.08541694 -0.0052006585 0.013524917
-0.043735687 0.048404716 0.026424333 0.041546315 -0.039257117 0.0084792515 -0.053938128 0.022503398
-0.05938335 0.042620476 -0.05355362 0.03763462 -0.06166135 -0.00984009 -0.05610906 0.038959038
0.059828807 -0.02265694 -0.004825726 -0.054228365 -0.052950583 0.0069442303 0.00581164 0.037754018
0.001994037 -0.0008063963 0.010229599 0.025834834 0.0020799104 0.00015981501 0.056577276 -0.009178556
-0.047165416 -0.044614803 -0.033387266 -0.05642106 -0.046187066 0.038174096 0.010536565 -0.05978241
-0.0050639957 0.04720054 0.052476015 -0.033174276 0.016478905 0.067417726 0.04388759 0.01930852
00000000: 6646 843c 2e0c 9d3c 6938 633d d36b 803d
00000010: 7408 d1ba 8444 14bd da22 10bd b5c3 74bd
00000020: 70d9 bf3c 83e6 3e3c 2807 5c3d d66f 31bd
00000030: d679 e6bc a8b8 003d 6480 5c3d 5697 32bc
00000040: 10b2 853d b5d0 16bd a081 41bd 41f4 fa3c
00000050: cd30 273d e3d1 82bc 0632 2b3d d821 2dbd
00000060: 86ec 193b c16f a83c 877e 333d 878c b4bb
00000070: 4896 613c ad0a 453c d0ae 23bd d576 5dbd
00000080: 4907 70bc e664 643d 9f92 843d f515 0ebd
00000090: 0e56 ff3c 61d0 a83c 400e 963b d0f0 febc
000000a0: cb4f f43c a2fa 4abd e768 6fbd cb33 053d
000000b0: 1698 12bc 5c54 5ebb 6457 8b3d eab9 a33c
000000c0: cb88 043d b669 efbb dbc9 803d fa87 ba3a
000000d0: f911 3bbd 87f1 30bd bf72 1d3c 550c 91bc
000000e0: daf4 1c3c d6ef 35bd 7906 833c a7ac b2bc
000000f0: 8eb9 14bd 73ac 383b cf82 80bd 1e23 3abd
00000100: b1f2 e03c fa98 09bd 7311 213d 43a6 943d
00000110: 00ec 24bd 14ef ae3d 496a aabb 9d97 5d3c
00000120: 3124 33bd 0644 463d d877 d83c 782c 2a3d
00000130: 12cc 20bd 8fec 0a3c 3aee 5cbd 0c59 b83c
00000140: f53b 73bd cf92 2e3d 0a5b 5bbd c226 1a3d
00000150: 9d90 7cbd 5438 21bc 9dd2 65bd 8393 1f3d
00000160: 0d0f 753d 0c9b b9bc 2021 9ebb 901e 5ebd
00000170: b6e2 58bd 6d8c e33b 926f be3b f5a3 1a3d
00000180: 64ae 023b 5764 53ba 0c9a 273c 93a3 d33c
00000190: 1b4f 083b 0494 2739 93bd 673d a761 16bc
000001a0: 8630 41bd 03be 36bd 16c1 08bd c519 67bd
000001b0: a62e 3dbd 715c 1c3d 8fa1 2c3c 66de 74bd
000001c0: e0ef a5bb 5a55 413d 17f1 563d c0e1 07bd
000001d0: c5fe 863c 4e12 8a3d 79c3 333d e72c 9e3c

fc2.weight f4 [84, 120]
0.09742419 0.061674677 0.020021802 -0.0840154 0.0124827055 -0.0019326922 -0.008106405 0.031268973
0.08521899 0.03186769 -0.092015 -0.058137607 0.033610452 0.028242657 0.030435449 0.033819374
0.05257418 -0.013393518 0.07592758 0.02217026 0.12234457 -0.12679942 -0.08777311 -0.100309104
0.060838483 0.05294273 0.01741223 -0.030542463 -0.0038315097 0.03352437 -0.08619176 -0.024117433
-0.04321502 -0.06270898 0.090766884 0.054489817 0.016993886 0.039653346 0.059804283 0.07368503
-0.06281102 -0.027043369 0.12567699 0.08081296 -0.06498335 0.05990228 -0.07629467 -0.010509712
-0.044373322 -0.0595067 0.058446035 -0.085751 0.052143183 -0.08810281 0.053690284 0.05247716
0.015524944 -0.023552416 0.058591288 0.027359843 -0.0082923025 -0.059199773 -0.0032251894 -0.0205417
0.023948409 0.06012024 -0.0388106 0.017941216 -0.02340243 -0.12181532 0.0506457 0.045356177
-0.0073676035 0.069477186 -0.12793933 0.038807906 -0.036409084 -0.043394767 -0.07498142 -0.026107227
0.07069712 0.09025247 0.033745658 -0.1003626 0.028526986 0.05971973 -0.0585716 -0.019610347
0.03061571 -0.06393694 -0.14366713 0.02253375 0.075372405 -0.0248136 -0.09809639 0.012305872
0.049453195 -0.046499144 0.026169265 0.12526287 -0.003458167 -0.08321744 0.057651024 -0.11443039
0.10554769 -0.08434502 -0.0862458 -0.0048546274 0.090607986 -0.030329062 0.06960661 -0.011740121
-0.057897594 -0.018298404 -0.07017353 0.018240416 0.0562067 0.00649145 0.03604736 -0.0898311
-0.03924891 0.04920394 -0.07022401 0.026522877 -0.010044058 -0.09642808 -0.070295654 0.0681903
-0.10842724 0.046197668 -0.03445565 0.10976237 0.08631256 -0.014575789 0.043499116 0.07957935
0.15639067 -0.087971546 0.005420843 0.08010329 0.06686327 -0.04129847 0.073175095 -0.08006295
-0.040320378 -0.015340223 0.01886728 0.09839009 -0.007236818 -0.045209885 -0.092973314 0.111150496
-0.08281733 0.10311763 -0.07197678 -0.07387205 -0.046711966 0.07203188 -0.0939142 -0.041472696
-0.09028607 0.085831836 -0.101206295 -0.14424984 -0.04733847 -0.023562163 0.085386604 0.011601144
0.065251224 0.045168515 0.05021567 -0.07501452 -0.10145776 -0.07632817 -0.029068979 -0.040765785
0.07511689 0.07599084 0.072218776 -0.00416651 0.06533689 -0.054587048 0.00076663546 0.009433866
-0.055504486 -0.035209335 0.032946445 0.042046092 0.025686245 0.08155851 0.022341315 0.010673049
0.019343847 -0.022845494 -0.06320756 -0.00035703302 -0.020511016 0.116539806 -0.036387797 -0.075818785
0.059943635 0.07913246 0.08334092 0.14092845 0.10906256 0.08728329 -0.09263947 0.13910535
0.08490662 -0.03714173 -0.04074488 0.06634764 0.057772566 -0.10683987 -0.09003251 -0.09721275
-0.034839332 -0.072396435 -0.06786044 -0.03231667 -0.044035945 0.0062357844 0.074773625 0.12835506
-0.21038644 -0.0020433865 0.08260147 0.07032257 -0.05198096 0.012558373 -0.025606316 -0.07262608
0.060103595 -0.109698944 0.09289941 0.11362171 -0.04108228 0.04613291 0.08046868 0.054175057
-0.024442697 -0.09349989 0.054238323 0.025189295 0.027016165 0.011773345 -0.023300115 0.020921096
0.08157346 -0.044096973 -0.07639802 -0.08541527 0.06476124 0.0056934212 -0.055469647 -0.002043095
00000000: 5586 c73d 969e 7c3d c304 a43c 4410 acbd
00000010: 4384 4c3c 6452 fdba bad0 04bc e513 003d
00000020: 4b87 ae3d b287 023d 5c72 bcbd b321 6ebd
00000030: 1dab 093d 255d e73c c353 f93c 2f86 0a3d
00000040: 0658 573d 7c70 5bbc eb7f 9b3d 689e b53c
00000050: ca8f fa3d b5d7 01be 63c2 b3bd dc6e cdbd
00000060: c631 793d 7ada 583d 18a4 8e3c 3034 fabc
00000070: 111a 7bbb da50 093d 4e85 b0bd ec91 c5bc
00000080: 3c02 31bd 916d 80bd fde3 b93d b730 5f3d
00000090: c336 8b3c 8c6b 223d 56f5 743d 2de8 963d
000000a0: 10a3 80bd 0e8a ddbc 78b1 003e 4481 a53d
000000b0: fe15 85bd 185c 753d 6140 9cbd ed30 2cbc
000000c0: cdc0 35bd 4cbd 73bd 1c65 6f3d 389e afbd
000000d0: 1794 553d 3f6f b4bd 58ea 5b3d 4af2 563d
000000e0: 565c 7e3c fff0 c0bc 6bfd 6f3d c021 e03c
000000f0: 70dc 07bc 767b 72bd b35d 53bb 1147 a8bc
00000100: 742f c43c a440 763d ddf7 1ebd 75f9 923c
00000110: 74b6 bfbc 4f7a f9bd de71 4f3d 66c7 393d
00000120: f06b f1bb 0e4a 8e3d 8702 03be 0af5 1e3d
00000130: b121 15bd b6be 31bd dc8f 99bd d3de d5bc
00000140: a7c9 903d 49d6 b83d e338 0a3d e88a cdbd
00000150: 6db1 e93c ad9c 743d c6e8 6fbd e1a5 a0bc
00000160: cccd fa3c 5ff1 82bd 7a1d 13be b398 b83c
00000170: d95c 9a3d e445 cbbc c3e6 c8bd 919e 493c
00000180: 6f8f 4a3d e375 3ebd ed60 d63c e944 003e
00000190: 6aa2 62bb e86d aabd 7b23 6c3d 7b5a eabd
000001a0: 6329 d83d 15bd acbd a3a1 b0bd 9113 9fbb
000001b0: ae90 b93d a774 f8bc e98d 8e3d a359 40bc
000001c0: 0726 6dbd 89e6 95bc 24b7 8fbd ed6c 953c
000001d0: ff38 663d 3bb6 d43b 66a6 133d 5ef9 b7bd
000001e0: 77c3 20bd 128a 493d 9bd1 8fbd 8146 d93c
000001f0: d58f 24bc 167c c5bd 2bf7 8fbd 5ba7 8b3d
00000200: 1a0f debd c439 3d3d 5e21 0dbd 18cb e03d
00000210: a4c4 b03d 4acf 6ebc 212c 323d 80fa a23d
00000220: e024 203e 6d2a b4bd 54a1 b13b 320d a43d
00000230: 9cef 883d 9628 29bd d3dc 953d 0bf8 a3bd
00000240: fb26 25bd 8f55 7bbc 8e8f 9a3c be80 c93d
00000250: d422 edbb 002e 39bd cb68 bebd dfa2 e33d
00000260: 229c a9bd 562f d33d 9068 93bd 3b4a 97bd
00000270: 0c55 3fbd 7385 933d 1756 c0bd 46df 29bd
00000280: e7e7 b8bd 9ac8 af3d 3f45 cfbd 3bb6 13be
00000290: fce5 41bd 7005 c1bc 2cdf ae3d ba12 3e3c
000002a0: 6fa2 853d 9f02 393d f2ae 4d3d 36a1 99bd
000002b0: 16c9 cfbd f251 9cbd 1122 eebc 06fa 26bd
000002c0: e2d6 993d 16a1 9b3d 70e7 933d 3887 88bb
000002d0: 59cf 853d ab96 5fbd 09f8 483a 8090 1a3c
000002e0: ac58 63bd aa37 10bd daf2 063d 8638 2c3d
000002f0: f66b d23c 2608 a73d 2205 b73c 03de 2e3c
00000300: fd76 9e3c 7926 bbbc f772 81bd 2930 bbb9
00000310: b806 a8bc 6cac ee3d 5f0b 15bd e146 9bbd
00000320: 7587 753d 3310 a23d a5ae aa3d 8c4f 103e
00000330: 315c df3d 95c1 b23d c3b9 bdbd a271 0e3e
00000340: 86e3 ad3d ed21 18bd 1ae4 26bd 45e1 873d
00000350: eda2 6c3d ddce dabd f762 b8bd 7a17 c7bd
00000360: b0b3 0ebd 9544 94bd 6afa 8abd 7c5e 04bd
00000370: 095f 34bd 8d55 cc3b ea22 993d 826f 033e
00000380: 8b6f 57be 56ea 05bb f62a a93d 4805 903d
00000390: fde9 54bd a2c1 4d3c 56c4 d1bc fbbc 94bd
000003a0: 302f 763d d7a9 e0bd 0c42 be3d 80b2 e83d
000003b0: e545 28bd ddf5 3c3d c3cc a43d aae6 5d3d
000003c0: 0d3c c8bc df7c bfbd 0129 5e3d c859 ce3c
000003d0: 0151 dd3c fde4 403c e2df bebc b862 ab3c
000003e0: fc0f a73d 079f 34bd 9176 9cbd 33ee aebd
000003f0: 8aa1 843d e18f ba3b 2434 63bd 72e5 05bb

fc2.bias f4 [84]
0.08789603 0.09837397 0.04791345 0.031267364 0.025121612 -0.0037460306 0.047635425 0.04792245
-0.069217734 0.036950164 0.039278172 -0.020608315 -0.04894027 -0.092016794 -0.021679599 0.055242702
0.07613849 -0.04621639 -0.052514214 0.08619787 0.07434358 -0.028810265 -0.0041625905 -0.068643495
-0.042108472 0.021528551 0.012831127 0.07575305 -0.058811907 0.05154516 -0.052660342 0.049059942
-0.010890828 0.020256015 -0.018511496 -0.014454631 -0.075321406 0.030876344 -0.00902762 0.10368145
-0.064128816 -0.01798937 0.058921035 -0.051614672 -0.006566305 -0.012887135 0.09785665 0.015147609
0.009157671 0.04575588 0.028229069 0.06914533 0.022863617 0.019864189 0.06476142 0.09689099
0.068788156 -0.07747658 -0.008610567 -0.035703607 -0.04997135 0.077284336 -0.07175001 0.0066325194
-0.062330678 0.049430653 0.09440326 0.07635937 -0.019114431 0.048146732 -0.08012688 0.00979411
0.03478521 0.06689301 0.07407952 0.08070713 -0.055890407 -0.03419483 0.007908884 -0.043167237
0.11124894 -0.028502429 0.031261507 0.06683445
00000000: d502 b43d 4b78 c93d e540 443d 3512 003d
00000010: d7cb cd3c f77f 75bb 5d1d 433d 554a 443d
00000020: 07c2 8dbd 0e59 173d 26e2 203d c5d2 a8bc
00000030: 9875 48bd 4d73 bcbd 6a99 b1bc 2c46 623d
00000040: 7fee 9b3d 664d 3dbd 2519 57bd 8288 b03d
00000050: 7241 983d 8103 ecbc 5766 88bb f694 8cbd
00000060: ef79 2cbd a55c b03c a639 523c 6a24 9b3d
00000070: c1e4 70bd 0521 533d 5fb2 57bd 14f3 483d
00000080: 726f 32bc f1ef a53c 6ca5 97bc 1ed3 6cbc
00000090: 1c42 9abd 63f0 fc3c 95e8 13bc f156 d43d
000000a0: f855 83bd 715e 93bc 2f57 713d e869 53bd
000000b0: 292a d7bb 9024 53bc 1169 c83d ad2d 783c
000000c0: 0e0a 163c 856a 3b3d a640 e73c 119c 8d3d
000000d0: 7b4c bb3c 39ba a23c a3a1 843d c96e c63d
000000e0: cee0 8c3d 0bac 9ebd 5613 0dbc f23d 12bd
000000f0: c2ae 4cbd 4047 9e3d abf1 92bd 9b55 d93b
00000100: 744e 7fbd cc77 4a3d 7f56 c13d 4d62 9c3d
00000110: de95 9cbc 8235 453d 9019 a4bd 7a77 203c
00000120: f07a 0e3d 34ff 883d 01b7 973d c849 a53d
00000130: 57ed 64bd e10f 0cbd 4494 013c 21d0 30bd
00000140: 7cd6 e33d ed7d e9bc 110c 003d 80e0 883d

fc3.weight f4 [10, 84]
0.24163026 -0.15938821 -0.10940231 -0.063986935 -0.0019525894 -0.009698733 -0.13729317 -0.09172256
-0.14463557 -0.06144468 -0.2423901 0.19206133 0.11985225 0.08802931 -0.114178486 0.28476354
0.016645478 0.051298566 -0.07126559 -0.04611406 -0.054197088 -0.16773744 0.10084836 -0.09009452
-0.18462224 -0.109878354 0.02584576 0.116923206 0.15968904 0.015805263 -0.053050887 -0.11829054
-0.13757548 0.061196163 0.15587987 0.06662644 0.071416125 -0.07662686 -0.033174064 -0.0332231
-0.07318768 -0.06665611 0.25609452 0.024897093 -0.08957982 -0.21163128 0.024153054 -0.065151334
0.057216838 0.0023794645 -0.052775703 -0.13913436 0.055925574 -0.20002712 0.2298922 0.12529981
0.08759345 -0.22738194 0.385921 -0.036131606 -0.027308905 0.08557576 -0.14547262 0.041016832
-0.013249871 0.1279561 0.059421517 -0.08241423 -0.10363503 0.07393313 0.03529136 -0.009182583
-0.04890932 -0.09266178 -0.01651964 -0.010206046 0.19999266 -0.12684399 0.1369414 0.009508977
0.08528681 0.024485223 0.025464496 -0.1516173 -0.1524143 0.10603729 -0.035267968 -0.18060511
-0.02236843 0.19632474 0.16622485 -0.027909914 -0.18198577 0.0004732501 0.19314492 -0.093256235
-0.049696043 -0.10599197 -0.26281142 0.0019265778 -0.08328909 0.0038675438 -0.022665812 -0.12059604
-0.18818378 0.08398806 -0.076251715 0.070221394 0.22281004 -0.080790274 0.07728654 0.25242916
-0.18887608 0.09134313 -0.17433204 0.1349745 -0.0034957342 -0.05879344 -0.18084897 -0.07049076
-0.10868914 -0.18341888 -0.20781058 -0.09310472 0.08331894 0.023835974 -0.017955376 0.13652745
-0.14949635 0.33000916 -0.13550161 0.15926632 -0.13070877 0.38819054 -0.035390336 0.27567258
0.010245681 -0.14825343 0.025347322 -0.089935206 0.071199276 0.16609335 -0.062214673 0.029077807
0.005312943 -0.27157047 -0.078673705 -0.18304768 0.1595074 0.07675967 0.03340209 -0.057217307
0.16598868 0.15649933 0.03933865 -0.036866173 0.10178352 -0.2762456 0.14048478 0.06428171
0.03736801 0.049523324 -0.19904153 -0.048751242 0.16439277 -0.16643666 -0.09567457 0.035238508
0.085365124 -0.17282447 -0.1866673 0.017938852 0.033490404 -0.08332732 -0.12566994 -0.0013358739
-0.16199782 -0.14021371 -0.048079543 -0.011873328 0.02084475 0.2453076 -0.1326626 -0.22932272
-0.015159518 -0.09359797 -0.05025986 0.13091399 0.032510076 0.118896 -0.100912355 0.32591122
-0.15329261 -0.09655522 -0.17242004 -0.12582979 0.25979522 -0.11297477 -0.13927704 -0.17422073
-0.12838125 -0.04360582 -0.12782615 -0.05873096 -0.0032674877 -0.13633636 -0.056872178 0.13658704
0.058091257 -0.005078576 -0.18982992 -0.089822054 0.31776035 0.0077327224 -0.08100549 -0.039174505
0.052633606 0.061805494 0.06372253 0.082372636 0.08041857 0.2958587 -0.09554042 -0.082334965
0.13189209 0.0027897705 0.043936733 0.048779387 0.1780644 0.010595489 0.13066892 -0.073519416
0.11221545 -0.042354066 0.037969224 0.11351668 -0.04135186 0.31024158 -0.12872468 -0.07133093
-0.14411396 0.09706175 0.10870378 -0.07529908 -0.07185119 -0.2394239 0.029699879 -0.023810428
0.25484365 0.005435765 -0.053374365 0.056788255 -0.040592033 -0.1794798 0.11473657 -0.13911441
00000000: ec6d 773e aa36 23be 510e e0bd 950b 83bd
00000010: 07ee ffba 6fe7 1ebc 9596 0cbe 0ad9 bbbd
00000020: 591b 14be 6bad 7bbd 1c35 78be baab 443e
00000030: 1975 f53d b648 b43d 69d6 e9bd 87cc 913e
00000040: 195c 883c 721e 523d b2f3 91bd 19e2 3cbd
00000050: c4fd 5dbd 5dc3 2bbe 9689 ce3d 7a83 b8bd
00000060: 9d0d 3dbe e707 e1bd 7dba d33c 6f75 ef3d
00000070: 8685 233e 0a7a 813c e34b 59bd 5042 f2bd
00000080: 96e0 0cbe d4a8 7a3d f99e 1f3e 7173 883d
00000090: 9e42 923d 8bee 9cbd 87e1 07bd f214 08bd
000000a0: 6ce3 95bd 0083 88bd d21e 833e fdf4 cb3c
000000b0: a075 b7bd dfb5 58be a0dc c53c 106e 85bd
000000c0: 345c 6a3d caf0 1b3b 562b 58bd 3d79 0ebe
000000d0: 3712 653d e9d3 4cbe dc68 6b3e 984e 003e
000000e0: 3264 b33d d0d6 68be 7097 c53e bcfe 13bd
000000f0: edb6 dfbc 5842 af3d c6f6 14be 4401 283d
00000100: fd15 59bc ed06 033e fa63 733d cbc8 a8bd
00000110: 9a3e d4bd 416a 973d ac8d 103d 8b72 16bc
00000120: 2455 48bd 76c5 bdbd 3254 87bc 4237 27bc
00000130: e0ca 4c3e 64e3 01be 5e3a 0c3e 8acb 1b3c
00000140: daaa ae3d 3c95 c83c eb9a d03c 9141 1bbe
00000150: 7f12 1cbe 142a d93d 2575 10bd 8cf0 38be
00000160: ff3d b7bc 5a09 493e d936 2a3e 55a3 e4bc
00000170: 7a5a 3abe 8e1e f839 c8c7 453e 20fd bebd
00000180: 148e 4bbd 5112 d9bd 388f 86be 3985 fc3a
00000190: 7893 aabd 9e76 7d3b a7ad b9bc 0efb f6bd
000001a0: 40b3 40be ef01 ac3d dc29 9cbd 3cd0 8f3d
000001b0: 5128 643e 5f75 a5bd 6848 9e3d 653e 813e
000001c0: bb68 41be 1b12 bb3d 1984 32be c136 0a3e
000001d0: b018 65bb 64d1 70bd 7930 39be 765d 90bd
000001e0: 6998 debd 29d2 3bbe 4ccc 54be b0ad bebd
000001f0: 1fa3 aa3d a943 c33c 2717 93bc dacd 0b3e
00000200: 9215 19be f6f6 a83e efc0 0abe b616 233e
00000210: 85d8 05be e9c0 c63e 75f5 10bd f524 8d3e
00000220: 80dd 273c bfcf 17be 30a5 cf3c f32f b8bd
00000230: edd0 913d 6014 2a3e d0d4 7ebd 9534 ee3c
00000240: 3218 ae3b 490b 8bbe ae1f a1bd da70 3bbe
00000250: e855 233e 2d34 9d3d a1d0 083d b25c 6abd
00000260: f0f8 293e 5c41 203e 9021 213d fc00 17bd
00000270: e173 d03d 1070 8dbe 3edb 0f3e 21a6 833d
00000280: 330f 193d f8d8 4a3d 8bd1 4bbe 62af 47bd
00000290: 9456 283e 5f6e 2abe 07f1 c3bd 4156 103d
000002a0: e9d3 ae3d e6f8 30be b625 3fbe 80f4 923c
000002b0: 3c2d 093d 84a7 aabd 9faf 00be 7d18 afba
000002c0: c2e2 25be 2f94 0fbe 0eef 44bd 5988 42bc
000002d0: 9cc2 aa3c ea31 7b3e b4d8 07be 93d3 6abe
000002e0: a15f 78bc 4bb0 bfbd 48dd 4dbd 510e 063e
000002f0: 4929 053d bf7f f33d 23ab cebd d6dd a63e
00000300: bdf8 1cbe bebe c5bd e18e 30be 86d9 00be
00000310: e103 853e 515f e7bd a49e 0ebe eb66 32be
00000320: 6076 03be 049c 32bd dce4 02be e08f 70bd
00000330: 5923 56bb c29b 0bbe cdf2 68bd 79dd 0b3e
00000340: 19f1 6d3d 2f6a a6bb c662 42be a0f4 b7bd
00000350: 7cb1 a23e c762 fd3b 35e6 a5bd 7275 20bd
00000360: 5696 573d c227 7d3d f580 823d fcb2 a83d
00000370: 7eb2 a43d cb7a 973e b2aa c3bd 3c9f a8bd
00000380: b80e 073e 95d4 363b 01f7 333d e5cc 473d
00000390: 8456 363e b498 2d3c 13ce 053e 5991 96bd
000003a0: 37d1 e53d 757b 2dbd 9e85 1b3d 6f7b e83d
000003b0: 9160 29bd fcd7 9e3e 67d0 03be f315 92bd
000003c0: 9c92 13be 50c8 c63d 16a0 de3d 6736 9abd
000003d0: b726 93bd 8a2b 75be 294d f33c 160e c3bc
000003e0: de7a 823e 801e b23b 149f 5abd cd9a 683d
000003f0: d543 26bd 8dc9 37be 02fb ea3d 0274 0ebe

fc3.bias f4 [10]
0.057844352 -0.02837719 -0.031766217 -0.012356257 -0.044238415 0.047976602 -0.17799036 -0.059533425
0.118732095 -0.10458434
00000000: 33ee 6c3d 4877 e8bc 4b1d 02bd e671 4abc
00000010: 5733 35bd 1d83 443d 1b43 36be 52d9 73bd
00000020: d029 f33d 5030 d6bd
