global_mnist_cnn.pt (torch, 181781 bytes, 10 tensors)

conv1.weight f4 [6, 1, 5, 5]
0	0x3e8ce7b8	0.27520537
1	0xbe811d02	-0.25217444
2	0xbedc2237	-0.42994854
3	0xbd2d6d0b	-0.04234032
4	0x3e2fbcd1	0.17161871
5	0x3ec5d834	0.38641512
6	0xbe4fb9b1	-0.2028568
7	0xbedae5b2	-0.4275337
8	0xbe754e1d	-0.23955579
9	0x3d8b5ed3	0.06805196
10	0x3ec70d4c	0.38877332
11	0x3decbb7d	0.11559198
12	0xbeb29c16	-0.3488471
13	0xbec330a0	-0.38123035
14	0xbd5cd9ea	-0.053918757
15	0x3e9123f4	0.28347743
16	0x3e3091aa	0.17243066
17	0x3e6fec76	0.23430046
18	0xbe0b6b0a	-0.13615051
19	0xbe59aa8f	-0.21256469
20	0x3d230343	0.039798032
21	0x3e442c9e	0.19157645
22	0x3e87b3a0	0.2650423
23	0x3e971a5d	0.295123
24	0x3c405c34	0.011740733
25	0xbd9931a3	-0.074801706
26	0x3d87d8b1	0.066331275
27	0xbe5d88a2	-0.21634153
28	0x3de8d755	0.11369196
29	0xbe3e8cb5	-0.18608363
30	0xbabc88c9	-0.0014384027
31	0xbdf01ed4	-0.1172463
32	0xbdd9ace4	-0.106286794
33	0x3cc5b347	0.024133338
34	0xbe5a2a82	-0.21305278
35	0x3ceb6f1e	0.028739508
36	0xbe2374f0	-0.15962577
37	0xbe7a176b	-0.24422996
38	0xbd8ee4ee	-0.069772586
39	0xbe562693	-0.20913152
40	0xbe1cf26c	-0.15326852
41	0xbc0ad88c	-0.00847448
42	0x3daefc24	0.08544186
43	0x3d890231	0.06689871
44	0xbc987fbe	-0.0186156
45	0xbe296bde	-0.16545054
46	0xbe55aa27	-0.20865689
47	0x3d9225b5	0.07136098
48	0xbe417ff5	-0.18896468
49	0xbe0fb638	-0.14034355
50	0x3e0079a4	0.12546402
51	0xbdfa5a64	-0.12224272
52	0xbddc3bac	-0.10753569
53	0xbe33e071	-0.17566086
54	0xbec218dd	-0.37909594
55	0xbe4dfd6e	-0.20116207
56	0xbd2d46d8	-0.04230389
57	0xbe097344	-0.13422877
58	0xbdaa1672	-0.08305062
59	0xbe81f355	-0.2538096
60	0xbdb2ee49	-0.087368555
61	0xbe67fd0e	-0.22655126
62	0xbdfda25a	-0.12384482
63	0xbe8dcdb9	-0.27696016
64	0xbd96a56f	-0.07355773
65	0xbe8827d2	-0.2659288
66	0xbd909dca	-0.07061346
67	0xbd866e84	-0.06564048
68	0xbe1eece9	-0.15520062
69	0x3ea606b1	0.3242698
70	0xbe963e56	-0.29344434
71	0xbe65220f	-0.22376274
72	0xbd71f849	-0.059074674
73	0x3dececbb	0.1156859
74	0x3ea83809	0.3285525
75	0x3cf7158a	0.030161638
76	0x3ed2a36b	0.41140303
77	0x3eaa21fc	0.33229053
78	0x3e120347	0.14259063
79	0x3dcdac46	0.10042624
80	0xbda54d00	-0.08071327
81	0x3ec06080	0.37573624
82	0x3f16c287	0.58890575
83	0x3e6fb7fe	0.23410031
84	0xbc83caaa	-0.016087849
85	0xbeb452b8	-0.3521936
86	0xbeb2c9a4	-0.34919465
87	0xbd0bbb0d	-0.034113932
88	0x3e80abf0	0.25131178
89	0x3d97a46b	0.07404407
90	0xbf13c1dc	-0.5771768
91	0xbe9cdbc8	-0.3063643
92	0xbe856ec3	-0.26061067
93	0x3d2359df	0.03988063
94	0x3de2e634	0.11079064
95	0xbe9725ad	-0.29520932
96	0xbe1d4941	-0.15359975
97	0xbe854088	-0.26025796
98	0xbe1b0422	-0.15138295
99	0x3e07381c	0.13204998
100	0xbdacc7a2	-0.084365144
101	0xbe1cf276	-0.15326867
102	0xbe2c7186	-0.16840181
103	0xbcc61ebe	-0.02418458
104	0x3e9c9adf	0.30586907
105	0xbe03542a	-0.12825075
106	0xbcf4a54f	-0.029863982
107	0xbd6d2bc1	-0.057903055
108	0xbb36d681	-0.002789885
109	0x3ec657b8	0.387388
110	0xbe49f53b	-0.19722454
111	0xbe0c4f6f	-0.13702177
112	0xbe2bafde	-0.16766307
113	0x3da6ed18	0.08150691
114	0x3e7dc4d5	0.24782117
115	0xbe805a0b	-0.25068697
116	0xbe50a87c	-0.20376772
117	0xbe73c74e	-0.23806497
118	0x3e5abd07	0.2136117
119	0x3ebf3095	0.37341753
120	0x3da96966	0.08272056
121	0xbe60ab34	-0.21940309
122	0xbe87a6dc	-0.2649449
123	0x3a6e86a2	0.00090990413
124	0x3e256df4	0.16155225
125	0x3d9b69a9	0.075885125
126	0xbd8d39dc	-0.068958014
127	0xbd5691e2	-0.05238522
128	0x3e18f9d7	0.14939056
129	0x3d09daf4	0.033656076
130	0x3dc6c330	0.09705198
131	0x3eb61889	0.35565594
132	0x3ee0ea8b	0.43928942
133	0x3dde1fee	0.10845934
134	0xbc556122	-0.013023647
135	0x3eaafdc3	0.3339673
136	0x3ea64237	0.32472393
137	0x3e2ef2a2	0.17084745
138	0x3e2e3710	0.17013192
139	0xbe859def	-0.26097056
140	0x3c1b5e88	0.009482987
141	0x3e0065ec	0.1253888
142	0xbe038dc8	-0.12847054
143	0xbd9ce438	-0.07660717
144	0x3dbcbea9	0.09216053
145	0x3d9c3926	0.07628088
146	0x3d2ce343	0.04220892
147	0xbe74e6b9	-0.23916139
148	0xbe9c60e4	-0.30542672
149	0xbe7c64de	-0.24647853

conv1.bias f4 [6]
0	0xbe5ebae0	-0.21750975
1	0xbd1eab93	-0.038737845
2	0x3e0cdbd8	0.13755739
3	0xbd333405	-0.04375078
4	0xbe432111	-0.19055583
5	0x3ebae545	0.36503044

conv2.weight f4 [16, 6, 5, 5]
0	0xbdd37f9e	-0.103270754
1	0xbc917145	-0.017754206
2	0xbc11482d	-0.008867306
3	0x3dd017dd	0.101608016
4	0x3d397b4b	0.045283597
5	0x3c4ff8d9	0.012693607
6	0x3e01d88c	0.12680262
7	0x3de2211c	0.11041471
8	0xbc11d945	-0.008901899
9	0xbd7f526c	-0.062334463
10	0x3d6086d4	0.054816082
11	0x3d50b252	0.05095131
12	0x3b599d9a	0.003320551
13	0xbd9d1ce6	-0.076715276
14	0xbd88c534	-0.066782385
15	0x3da8db41	0.08244944
16	0xbcb2920e	-0.02179816
17	0xbdb27798	-0.08714217
18	0xbd8f66a3	-0.07001998
19	0xbcf05cf0	-0.029341191
20	0x3d2bc6c1	0.041937593
21	0xbb366179	-0.0027829094
22	0x3db58d8b	0.08864888
23	0x3c7de07a	0.015495414
24	0x3d18c332	0.037295528
25	0xbd1521e7	-0.036409285
26	0xbca3ff08	-0.02001907
27	0x3d6612f3	0.056170415
28	0xbd579d21	-0.052640084
29	0xbba9f7bb	-0.0051870025
30	0xb9b1059f	-0.0003376426
31	0x3d084019	0.033264253
32	0xbcaf628d	-0.021409297
33	0xbc9e072f	-0.019290535
34	0x3c5b722d	0.013393921
35	0x3d31d7d7	0.04341873
36	0xbdca23e6	-0.09870128
37	0xbca6cabf	-0.020360349
38	0xbd0f1803	-0.03493501
39	0x3d948089	0.07251079
40	0xbcf4406f	-0.02981588
41	0xbd4b6182	-0.049653538
42	0xbd7e0bea	-0.06202308
43	0x3d25c04b	0.040466588
44	0xbb433ec4	-0.002979205
45	0x3d2694d4	0.040669277
46	0x3d5a3ab5	0.053278644
47	0xbce93ad0	-0.028470427
48	0x3b8be970	0.0042697713
49	0xbcb11a5c	-0.021619014
50	0xbd43f37d	-0.04783963
51	0xbdd824c1	-0.10553885
52	0xbdfce5a8	-0.12348491
53	0xbd4140c4	-0.047180906
54	0xbd32a0a0	-0.043610215
55	0xbceca448	-0.02888693
56	0xbdac22db	-0.08405086
57	0x3bb1cba5	0.0054258876
58	0xbaf488dd	-0.0018656511
59	0x3cc0a65b	0.023516824
60	0xbd5bff0c	-0.05371003
61	0x3d3eb200	0.046556473
62	0xbd95830a	-0.07300384
63	0xbbc1533e	-0.005899816
64	0xbd32c1fc	-0.04364203
65	0xbd2e19d3	-0.042505097
66	0xbe19e241	-0.15027715
67	0xbdacc56d	-0.084360935
68	0x3d825f72	0.06365861
69	0xbbddb426	-0.00676586
70	0xbda04a34	-0.07826653
71	0xbda40377	-0.08008473
72	0xbda34575	-0.07972232
73	0x3d4ac22e	0.04950159
74	0x3ddb3de6	0.107051656
75	0xbcdc6a61	-0.026906194
76	0x3d5b794e	0.053582482
77	0x3dd2c678	0.10291761
78	0x3de5dd1d	0.11223815
79	0xbd94c2e6	-0.072637364
80	0x3c315536	0.0108235385
81	0x3dfa49ee	0.12221132
82	0x3c4ca9bc	0.01249164
83	0xbd9b918f	-0.075961225
84	0xbdc83600	-0.09775925
85	0xbbfca20c	-0.007709747
86	0xbdf61ce4	-0.12017229
87	0xbe51279b	-0.20425265
88	0xbd570b15	-0.052500803
89	0xbc693e35	-0.014236023
90	0xbde3f279	-0.11130232
91	0xbcfc42f0	-0.030793637
92	0x3d3a62d1	0.045504395
93	0x3e1cdb00	0.15317917
94	0xbcd11e20	-0.02552706
95	0xbda38f55	-0.07986323
96	0x3e09db39	0.13462533
97	0x3ddb39fc	0.10704419
98	0xbcc1683e	-0.023609277
99	0xbd947f69	-0.07250864
100	0xbcfbcc69	-0.030737119
101	0xbc93ea12	-0.01805595
102	0xbd36000e	-0.044433646
103	0x3e326777	0.17422281
104	0xbc92c483	-0.01791597
105	0xbe10247b	-0.14076416
106	0xbe462697	-0.19350658
107	0xbbf725c9	-0.007542346
108	0x3d3aae0a	0.045576133
109	0x3a293467	0.0006454647
110	0xbd9438e4	-0.072374135
111	0xbe0d6def	-0.13811468
112	0xbd817f98	-0.06323165
113	0xbcd0929e	-0.025460538
114	0xbe06293e	-0.1310167
115	0x3ba08269	0.0048983586
116	0xbca31294	-0.01990632
117	0x3c962afa	0.01833104
118	0xbded5ef1	-0.11590374
119	0xbc71831a	-0.01474073
120	0xbdd4f98d	-0.103991605
121	0xbd963f1e	-0.073362574
122	0xbe1e0c98	-0.15434492
123	0xbd3ef651	-0.046621624
124	0x3d8642d8	0.06555718
125	0x3cc3e68b	0.023913642
126	0x3d6b2489	0.05740789
127	0xbd891daf	-0.06695115
128	0xbe5930c5	-0.2121001
129	0xbd614a6d	-0.05500262
130	0xbe064337	-0.13111578
131	0xbe3c75d4	-0.18404323
132	0xbe769718	-0.24081075
133	0xbdc2162e	-0.09476887
134	0x3e928310	0.28615618
135	0xbe4d8b18	-0.20072591
136	0xbe400f4d	-0.18755837
137	0x3e0d03e6	0.13771018
138	0x3ec3cb07	0.38240835
139	0x3e86d781	0.2633629
140	0x3d7e214e	0.06204348
141	0x3e574271	0.21021439
142	0x3e9fa6bd	0.311819
143	0x3e0f7af2	0.14011744
144	0xbdf3b6a5	-0.11900071
145	0x3e2a91f5	0.1665724
146	0x3c9151e8	0.017739251
147	0xbd174cb6	-0.03693839
148	0xbdfeca94	-0.124409825
149	0xbeb54e3f	-0.3541126
150	0xbdde7376	-0.10861866
151	0xbd95a1dc	-0.07306263
152	0x3d3ebd3b	0.046567183
153	0xbd40411f	-0.046937104
154	0xbb4afa15	-0.0030971814
155	0xbd12e56b	-0.03586332
156	0x3d5924bc	0.05301355
157	0xbccf68f0	-0.025318593
158	0x3b958693	0.0045631616
159	0x3d55f346	0.052233957
160	0x3c5b1f32	0.013374137
161	0xbdba9d75	-0.09112064
162	0xbd0136b8	-0.031546324
163	0x3d5dd34c	0.054156587
164	0x3e36d8e6	0.17856178
165	0xbd55de79	-0.05221412
166	0xbc5b1d66	-0.013373708
167	0xbe0df7d8	-0.13864076
168	0xbd88d6a1	-0.06681562
169	0x3d87b21a	0.06625767
170	0xbcba08cf	-0.022709278
171	0xbcb97d24	-0.02264268
172	0xbd820931	-0.06349409
173	0xbd503560	-0.050832152
174	0xbd668a4a	-0.056284226
175	0x3ced46d6	0.028964441
176	0xbaa7adc7	-0.0012792879
177	0xbce2d8c8	-0.02769126
178	0xbcaed9a2	-0.02134401
179	0x3d80b191	0.06283868
180	0x3d662e78	0.05619666
181	0xbd5cd35d	-0.05391251
182	0x3d3712ab	0.044695538
183	0xbd95728e	-0.0729724
184	0xbd4a6e3c	-0.049421534
185	0x3d946935	0.07246629
186	0x3d286603	0.04111291
187	0x3d4d34df	0.05009925
188	0xbd30914c	-0.043107316
189	0x3b6902aa	0.0035554566
190	0x3d5fadd8	0.05460915
191	0x3ce9f727	0.028560234
192	0x3d34219c	0.043977365
193	0x3c0d6d00	0.008631945
194	0xbd1623b8	-0.036655158
195	0xbd0a966f	-0.03383487
196	0x3d8d9cd7	0.069146805
197	0xbd79fa96	-0.061029993
198	0xbbc9e847	-0.006161723
199	0xbd720084	-0.059082523
200	0x3ba8cf08	0.005151633
201	0xbdb7c74b	-0.08973559
202	0xbcf30042	-0.029663209
203	0x3de994db	0.11405345
204	0x3cc65cb2	0.024214122
205	0x3d624c3f	0.055248495
206	0xbd7074d4	-0.058705166
207	0x3d1d3c4d	0.038387585
208	0xbbce666e	-0.0062988317
209	0xb9f7a959	-0.00047237685
210	0xbd9ee8e7	-0.07759266
211	0xbd8b7002	-0.06808473
212	0xbe01a62b	-0.12661044
213	0xbda10bba	-0.07863565
214	0xbdf3287b	-0.118729554
215	0x3cda9c72	0.026685927
216	0x3d4eadf2	0.050458856
217	0xbdef3579	-0.11680121
218	0xbccf4631	-0.025302025
219	0xbcf59f12	-0.029983077
220	0x3cd03721	0.025416913
221	0x3c96be2b	0.018401226
222	0x3d587d73	0.052854013
223	0xbd4ed649	-0.050497327
224	0x3d0d5bc8	0.034511358
225	0x3c3dfc70	0.01159583
226	0xbc8fd5c9	-0.017557995
227	0xbdaa0c61	-0.08303142
228	0xbdac8cd5	-0.08425299
229	0xbe20d443	-0.15705971
230	0x3df23a28	0.11827499
231	0x3dccb0c5	0.099946536
232	0x3d2b0cc5	0.041760225
233	0x3daa2629	0.0830806
234	0xbd65263b	-0.055944663
235	0xbd2bb818	-0.041923612
236	0xbc6e6b6d	-0.0145519795
237	0x3dca560e	0.09879695
238	0x3cf79833	0.030223941
239	0xbe10be5a	-0.14135113
240	0x3d3c6299	0.045992468
241	0x3d2da253	0.042391133
242	0x3dff95d6	0.12479751
243	0x3e63085d	0.22171159
244	0x3e47588e	0.19467375
245	0xbdff3042	-0.12460376
246	0xbde8149d	-0.11332057
247	0xbe73cc22	-0.23808339
248	0xbcef23ad	-0.029191816
249	0x3e1be0b1	0.15222432
250	0x3ca02ec7	0.019553555
251	0x3c29c2ba	0.010361368
252	0xbd365b18	-0.044520468
253	0xbd9ffb59	-0.07811613
254	0x3b8bf2dc	0.0042708945
255	0x3dd10479	0.10205931

conv2.bias f4 [16]
0	0x3c8b70c7	0.01702155
1	0x3d622333	0.05520935
2	0xbc967497	-0.018366141
3	0x3d4f39da	0.05059228
4	0x3a62afae	0.0008647394
5	0xbd54d545	-0.051961202
6	0x3d709397	0.058734503
7	0xbcc268bb	-0.02373158
8	0x3c930af4	0.017949559
9	0xbca02e39	-0.01955329
10	0x3d687adf	0.056757804
11	0xbd1358f4	-0.035973504
12	0xbd9507e7	-0.07276898
13	0xbd2c9481	-0.04213381
14	0x3d87f5b0	0.06638658
15	0x3d0ee37c	0.034884915

fc1.weight f4 [120, 256]
0	0xbcfe6874	-0.031055667
1	0xbbb553a8	-0.0055336542
2	0x3d817f89	0.063231535
3	0x3d940908	0.07228285
4	0xbd421f73	-0.047393274
5	0xbd085bf0	-0.033290803
6	0x3c6b1c47	0.014350004
7	0xbd4671ae	-0.048448257
8	0xbd75e08c	-0.060028598
9	0x3cdcc23a	0.026948083
10	0xbdb93583	-0.0904341
11	0xbd9121d1	-0.07086528
12	0x3dcc0e4e	0.09963666
13	0x3d6aa954	0.05729039
14	0xbd07fa97	-0.033197965
15	0xbe0f954b	-0.14021794
16	0x3cefe772	0.029285166
17	0xbd0e835f	-0.034793254
18	0xbbe545ba	-0.0069968374
19	0x3d0cbc6f	0.03435939
20	0x3b4474f9	0.0029976948
21	0xbcb5ff4c	-0.022216462
22	0x3d8e4b20	0.06947923
23	0x3d3e53de	0.0464667
24	0x3d36770b	0.044547122
25	0x3db7debb	0.08978029
26	0xbb21b7ab	-0.0024676125
27	0xbd7b91c7	-0.06141832
28	0xbdbc9550	-0.092081666
29	0xbd9b1cae	-0.075738296
30	0xbcd48847	-0.025943888
31	0x3d246f9f	0.040145513
32	0x3c75f724	0.015012536
33	0x3c974ed8	0.018470213
34	0xbc36d82d	-0.011159939
35	0xbd169863	-0.03676642
36	0xbd2176c7	-0.039419916
37	0x3d5a75ee	0.053335123
38	0x3cfac291	0.030610355
39	0x3b4a974d	0.0030912936
40	0xbcb10443	-0.021608477
41	0xbc1309a4	-0.0089744665
42	0x3d0346a9	0.03204981
43	0x3dc7856c	0.09742245
44	0xbdc2c724	-0.09510639
45	0xbdc5f45a	-0.09665747
46	0xbd1b1d15	-0.03786953
47	0xbcb0b214	-0.02156929
48	0xbda96703	-0.08271601
49	0x3c9fc093	0.019501006
50	0x3cb0fa14	0.021603622
51	0x3d69cb75	0.057078797
52	0x3cd90498	0.026491448
53	0x3debaba6	0.11507349
54	0xbc293dd4	-0.010329682
55	0xbc2dd7a6	-0.010610497
56	0xbcf8f804	-0.0303917
57	0xbd79933b	-0.060931426
58	0x3d1e4d5f	0.038648006
59	0xbcb0ed12	-0.021597419
60	0xbdceb82c	-0.10093722
61	0xbd8f1e41	-0.06988192
62	0xbddffc82	-0.10936834
63	0xbd366151	-0.044526402
64	0xbba2dd7a	-0.0049702497
65	0xbd579a2a	-0.052637257
66	0xbce6ef3d	-0.02819025
67	0x3ce710be	0.028206225
68	0x3a770caa	0.00094241893
69	0x3cab6180	0.020920515
70	0xbc5b139a	-0.013371373
71	0x3cd1ddca	0.025618453
72	0x3b92b34d	0.0044769407
73	0x3bf434aa	0.007452567
74	0xbcf47d63	-0.029844945
75	0x3d6fc418	0.05853662
76	0xbd1e9bfd	-0.03872298
77	0x3c827f12	0.015929732
78	0x3d0ec756	0.03485807
79	0xbd0211a3	-0.0317551
80	0xbc9f2190	-0.019425184
81	0xb93d0060	-0.00018024584
82	0x3dd210b3	0.102570914
83	0x3cd2a9dd	0.025715763
84	0x3ca305a1	0.019900145
85	0x3cfda625	0.030963013
86	0x3ca9fa70	0.0207493
87	0x3d593ead	0.053038288
88	0xbd81f419	-0.06345386
89	0xbdaef952	-0.08543648
90	0xbde1a88d	-0.11018477
91	0xbdba35e7	-0.09092312
92	0xbd3c5837	-0.045982566
93	0xbb4f8f6e	-0.0031671184
94	0xbe08ad7d	-0.1334743
95	0xbdbd6b30	-0.0924896
96	0xbc156536	-0.009118369
97	0x3d2769ec	0.0408725
98	0xbd105ff0	-0.035247743
99	0x3c762e1a	0.01502564
100	0xbc95637c	-0.018235914
101	0x3c0c1a53	0.008551198
102	0x3bfdd714	0.0077465866
103	0x3cc139b3	0.023587083
104	0x3ccc03a1	0.024904074
105	0x3d88a53d	0.06672142
106	0xbb64254e	-0.0034812274
107	0xbda56b6b	-0.08077129
108	0x3d25ed18	0.040509313
109	0x3dcbec3b	0.09957167
110	0x3d88d68a	0.06681545
111	0xbd0beb2b	-0.03415982
112	0x3c2d75f4	0.010587204
113	0x3c3295ab	0.010899941
114	0x3c73608a	0.01485456
115	0xbdbe43a2	-0.09290244
116	0xbaebf49d	-0.0018001978
117	0x3b870cc4	0.004121395
118	0x3c8a4901	0.016880514
119	0x3be3fb2f	0.0069574337
120	0xbd8bedd4	-0.068324715
121	0x3d8a64d9	0.067575164
122	0x3d60c2d2	0.054873295
123	0x3d03f839	0.032219145
124	0xbbf4e7af	-0.007473908
125	0x3e05fc62	0.13084558
126	0x3da90b88	0.082541525
127	0xbc6841d5	-0.014175852
128	0xbd082ddd	-0.033246864
129	0xbd29bbad	-0.041438747
130	0xbdb36f1c	-0.08761427
131	0xbd9b1935	-0.07573167
132	0xbc4fc007	-0.01268006
133	0x3cd635b9	0.026148664
134	0x3c391e3b	0.011298711
135	0xbd275df7	-0.040861096
136	0xbb33cbfa	-0.0027434812
137	0x3cb8dab5	0.022565225
138	0x3d4f9bee	0.050685816
139	0x3d2fb06a	0.04289285
140	0xbd338325	-0.04382624
141	0x3c85966d	0.01630708
142	0x3dddb018	0.10824603
143	0x3d9c71cd	0.07638893
144	0xbd0d84c7	-0.034550454
145	0xbba88009	-0.005142216
146	0x3c83f5d0	0.016108423
147	0x3c182405	0.0092859315
148	0xbd5c1516	-0.053731047
149	0x3d1de3be	0.03854727
150	0x3d738552	0.059453316
151	0xbb4defdd	-0.0031423487
152	0x3ba63764	0.005072521
153	0x3d8e2110	0.069399
154	0x3cfb9d49	0.030714648
155	0xbc23befa	-0.009994263
156	0x3db1db37	0.0868439
157	0xba886ffe	-0.0010409353
158	0x3c547407	0.012967116
159	0xbd840b15	-0.06447426
160	0x3d654890	0.055977404
161	0x3c654b55	0.013995011
162	0x3ac2e44b	0.0014869062
163	0x3d5a001b	0.053222757
164	0x3d089370	0.033343732
165	0xbd6fc5ec	-0.058538362
166	0xbc23c434	-0.009995509
167	0xbd483d2f	-0.048886474
168	0xbd6b2b1e	-0.057414167
169	0x3d8365e7	0.06415921
170	0x3d3c9734	0.046042636
171	0x3c71434e	0.014725519
172	0xbd41dd13	-0.047329973
173	0x3d1866d8	0.037207454
174	0x3d90be46	0.07067542
175	0xbbb50124	-0.0055238176
176	0x3ba9850b	0.0051733307
177	0xbb3d7a6a	-0.0028912076
178	0xbc3d8473	-0.011567223
179	0x3ceaf1f7	0.028679831
180	0xbd8528dd	-0.06501935
181	0x3d0e18d4	0.034691647
182	0xbd0c0c0e	-0.034191184
183	0xbd0054a4	-0.03133072
184	0xbd67d43c	-0.056598887
185	0xbcc89762	-0.024486247
186	0xbc933ad9	-0.017972397
187	0x3ca2e650	0.019885212
188	0xbd6e2ce7	-0.05814829
189	0x3d464476	0.048405133
190	0xbd30691a	-0.043068983
191	0xbd94fe25	-0.07275037
192	0xba652139	-0.00087406073
193	0xbd2d3945	-0.042290945
194	0xbd9c21ce	-0.07623635
195	0xbd287e1c	-0.041135892
196	0x3d1c123b	0.038103323
197	0xbd5e1d96	-0.054227434
198	0xbc4de88b	-0.01256765
199	0x3da54d6c	0.08071408
200	0xbbb64211	-0.005562075
201	0xbd84605c	-0.064636916
202	0xbd6ee986	-0.058328174
203	0x3c2af7bb	0.01043504
204	0x3d510b59	0.051036213
205	0xbd8c2c9b	-0.06844445
206	0xbda1ff92	-0.07910074
207	0x3d02b8b6	0.031914435
208	0xbcdd4532	-0.027010534
209	0xbc0bde9c	-0.008536961
210	0x3a4d5e5e	0.0007834191
211	0x3db7de27	0.08977919
212	0xbd4074e5	-0.04698648
213	0x3cc7c950	0.024387985
214	0x3dae8884	0.08522132
215	0xbc30cdef	-0.010791286
216	0x3d6583f1	0.056034032
217	0x3c7ec9c6	0.015551036
218	0x3b8502d6	0.004059176
219	0xbdf37cf5	-0.11889068
220	0xbc8d76ad	-0.017268503
221	0xbd06eab1	-0.032938663
222	0xbd2dd079	-0.042435143
223	0xbc57c42c	-0.01316933
224	0xbc638e22	-0.013888868
225	0x3c343b34	0.011000443
226	0xbd3b8454	-0.045780495
227	0xbd45944f	-0.04823714
228	0xbc244c95	-0.010028024
229	0x3ca2b775	0.01986287
230	0x3d0729d6	0.032998882
231	0x3d3e4111	0.04644877
232	0xbcef9511	-0.029245885
233	0x3d0ba976	0.034097157
234	0xbd5d3600	-0.054006577
235	0xbc289207	-0.010288722
236	0x3d629cd3	0.05532534
237	0xbc54f298	-0.012997292
238	0x3d858217	0.06518953
239	0x3cd3ecff	0.025869844
240	0xbd0f6b27	-0.035014298
241	0xbd02e5bc	-0.031957373
242	0xbd54b19c	-0.051927194
243	0x3d9683d0	0.0734936
244	0x3bf293f0	0.0074028894
245	0x3d01da1c	0.031702146
246	0x3d7c0790	0.06153065
247	0x3d0b4b66	0.034007452
248	0x3b25540f	0.0025227105
249	0x3cc82819	0.024433183
250	0x3d5f25f0	0.05447954
251	0x3c360e0c	0.0111117475
252	0x3d88dc90	0.06682694
253	0x3cecab46	0.028890263
254	0x3d7fe2f5	0.062472302
255	0x3ce15462	0.027506057

fc1.bias f4 [120]
0	0x3d698725	0.05701365
1	0x3c8e1964	0.017346092
2	0x3d2502f2	0.040286012
3	0xbd40e21e	-0.047090642
4	0x3c5fdbc5	0.013663237
5	0x3d417a2c	0.047235653
6	0x3cada400	0.021196365
7	0x3c54b7b4	0.012983251
8	0x3d5fd522	0.05464662
9	0xbd08ebaf	-0.03342789
10	0xbc16b40b	-0.009198199
11	0xbc026c47	-0.007960386
12	0x3d228e0f	0.03968626
13	0xbd6dda68	-0.058069617
14	0xbc7f0669	-0.015565493
15	0x3d4c1413	0.04982383
16	0xbd104896	-0.035225473
17	0xbd10ba40	-0.03533387
18	0x3d153b5e	0.03643357
19	0x3a190a0f	0.00058379857
20	0x3d10f1b8	0.03538677
21	0x3d6a5aea	0.05721561
22	0xbd5edf1f	-0.054412004
23	0x3ce610cf	0.028084187
24	0x3cc35eef	0.023848979
25	0x3cb65d95	0.02226142
26	0xbc995031	-0.018714996
27	0xbcf226cd	-0.029559517
28	0x3cf9f834	0.03051386
29	0x3d278e6d	0.040907312
30	0x3d311003	0.04322816
31	0x3d8b8a55	0.06813494
32	0x3d4a3404	0.049366012
33	0xbcb632dc	-0.022241049
34	0xbcb2008f	-0.021728782
35	0xbc36d3e4	-0.011158917
36	0xbc8e6c85	-0.01738573
37	0xbcd40a3f	-0.025883792
38	0xbc294ac8	-0.010332771
39	0xbd22c39c	-0.03973733
40	0xbc90a79e	-0.017658051
41	0xbce1b037	-0.027549846
42	0xbd7861de	-0.06064021
43	0x3d13dcb9	0.03609917
44	0x3d271c26	0.04079833
45	0xbd1ac218	-0.03778276
46	0x3c700e48	0.014651842
47	0xbcbdd4ac	-0.023172699
48	0x3d46d650	0.048544228
49	0x3d72f2b2	0.059313484
50	0xbca797c4	-0.02045811
51	0x3d7c2eff	0.061568256
52	0x3cd76124	0.026291437
53	0xbd0928c7	-0.033486154
54	0x3cf36000	0.029708862
55	0x3c52b581	0.012860657
56	0xbcb223bd	-0.021745557
57	0xbbeb6ac7	-0.0071843597
58	0xbd32029b	-0.043459516
59	0xbd48da06	-0.04903605
60	0x3d6d5b0c	0.057948157
61	0x3c3d7693	0.011563915
62	0x3d469fad	0.048492122
63	0xbc4874ed	-0.0122349085
64	0x3c29a84b	0.010355066
65	0x3d4c0d35	0.049817283
66	0x3cc5dc24	0.024152823
67	0xbd536230	-0.05160731
68	0xbd5c523c	-0.053789362
69	0xbc185127	-0.009296692
70	0x3d477743	0.04869772
71	0xbccbd02f	-0.024879543
72	0xbcdbf9a2	-0.026852433
73	0x3c5ac4b0	0.013352558
74	0xbc8c8912	-0.017155204
75	0x3cc69d96	0.024245065
76	0x3d70d03d	0.05879234
77	0x3c91fc4b	0.017820498
78	0x3c988c92	0.018621717
79	0x3d196b3d	0.037455786
80	0xbd332894	-0.04373987
81	0xbcc9f06a	-0.024650771
82	0x3c8a3750	0.016872078
83	0xbcf33681	-0.029689075
84	0xbd32db88	-0.043666393
85	0xbcc92764	-0.024554916
86	0xbd35a52b	-0.04434697
87	0x3d1cb657	0.03825983
88	0xbd0b1522	-0.0339557
89	0xbd4e146f	-0.050312456
90	0xbd55b339	-0.052172873
91	0xbac3a884	-0.0014927541
92	0xbcd9a334	-0.02656708
93	0xbd27447b	-0.040836792
94	0x3d262374	0.040561154
95	0x3c41b7a7	0.011823571
96	0xbd4831f7	-0.048875775
97	0xbd450cea	-0.04810802
98	0xbd6af993	-0.05736692
99	0xbcd34771	-0.025790902
100	0xbd124ffa	-0.035720803
101	0x3d2af261	0.041735057
102	0x3c06f534	0.008237172
103	0xbd058da4	-0.032605782
104	0xbd37e50e	-0.044896178
105	0x3d9c4825	0.07630948
106	0xbd0e2959	-0.0347074
107	0xbcb2d56a	-0.02183028
108	0xbc6db9e8	-0.014509656
109	0xbbc56317	-0.0060237753
110	0xbd3ea54a	-0.04654435
111	0xbbda9dbb	-0.006671635
112	0xbb1257c1	-0.0022330137
113	0x3d3e8888	0.046516925
114	0xbd5d6cef	-0.054058965
115	0x3d401fb0	0.04690522
116	0xbca315aa	-0.019907791
117	0xbd662169	-0.056184206
118	0x3ca3c472	0.019991133
119	0xbd6f91ae	-0.05848854

fc2.weight f4 [84, 120]
0	0x3b9e5c28	0.004832763
1	0xbd8a4de0	-0.06753135
2	0x3d9d0228	0.07666427
3	0x3d30bcbe	0.04314875
4	0xbd8956bd	-0.06705997
5	0xbda1d9c4	-0.079028636
6	0xbacd709d	-0.001567382
7	0xbd9ff528	-0.07810432
8	0x3c9a816b	0.01886054
9	0x3d96b2b8	0.07358307
10	0x3d11d87e	0.035606854
11	0xbce082c2	-0.0274061
12	0xbd71c11e	-0.05902206
13	0xbd15d6a8	-0.036581665
14	0x3d91ca1d	0.07118628
15	0xbcaaa159	-0.02082889
16	0x3beea0ce	0.007282353
17	0xbd84e1a9	-0.06488354
18	0xbd185a0b	-0.037195247
19	0xbc40959b	-0.011754419
20	0x3d9925dc	0.07477924
21	0x3d684560	0.056706786
22	0xbd3084d8	-0.04309544
23	0x3c066eb8	0.008205108
24	0x3d73eee0	0.05955398
25	0x3d4be4b8	0.04977867
26	0xbd2280ad	-0.039673496
27	0x3d6574e7	0.05601969
28	0x3d83a35c	0.06427643
29	0x3d9a0bf2	0.0752181
30	0x3d839b7d	0.064261414
31	0xbcb0615e	-0.021530803
32	0xbdc6b194	-0.09701839
33	0x3d831889	0.06401164
34	0xbd1008d9	-0.035164688
35	0xbd27e997	-0.040994253
36	0x3bfa99a5	0.0076477104
37	0xbc1d8366	-0.009613847
38	0xbdbd9d07	-0.09258466
39	0x3c315c0f	0.010825171
40	0xbcf537d3	-0.029933846
41	0xbc916172	-0.01774666
42	0x3c6f0eaf	0.014590903
43	0x3d316075	0.04330488
44	0xbb085b47	-0.0020806359
45	0x3d1af358	0.037829727
46	0xbd383435	-0.044971664
47	0x3d829e25	0.0637782
48	0x3b483b5f	0.0030552966
49	0xbd12a7b1	-0.035804454
50	0x3d49abb3	0.04923601
51	0xbdba2da6	-0.09090738
52	0x3d23a1c7	0.039949205
53	0x3d38ed7a	0.04514835
54	0x3a6f26a5	0.0009122885
55	0xbd805348	-0.06265885
56	0xbd3bc459	-0.04584155
57	0xbd966e34	-0.07345238
58	0xbd055a74	-0.032556966
59	0x3b5e7098	0.0033941623
60	0xbd4f0275	-0.050539453
61	0xbce8369e	-0.028346356
62	0x3d7dfc0b	0.062007945
63	0x3d709292	0.05873353
64	0x3d04392a	0.03228108
65	0xbd5fd914	-0.05465038
66	0xbd8d4929	-0.0689872
67	0xbce92ec6	-0.028464686
68	0x3c84404b	0.016143939
69	0x3d964dd4	0.07339063
70	0xbdb2193d	-0.0869622
71	0xbd8ae488	-0.0678187
72	0x3d3b68f8	0.045754403
73	0x3d2430ac	0.04008548
74	0xbd975c49	-0.07390649
75	0xbc179e4a	-0.009254048
76	0x3d06b021	0.032882813
77	0x3be3bace	0.006949759
78	0xbd34f12e	-0.04417532
79	0x3d82fba8	0.06395656
80	0xbc72c09d	-0.01481643
81	0x3c9082e9	0.017640548
82	0x3c4ee403	0.012627604
83	0x3d800de9	0.06252653
84	0xbd5bfbfc	-0.053707108
85	0x3d27bfe2	0.040954478
86	0xbdaafcc9	-0.08348996
87	0x3ca9541a	0.020669986
88	0xbcdfb80f	-0.027309446
89	0x3d6b4cab	0.057446163
90	0x3d17cb59	0.03705916
91	0x3cd2d709	0.025737302
92	0xbd1ed81f	-0.038780328
93	0x3da6d691	0.08146394
94	0xbda9882a	-0.08277924
95	0x3ca0bc84	0.019621141
96	0xbc8ed187	-0.017433895
97	0x3d0201b9	0.031739924
98	0x3b9f1ea9	0.00485595
99	0xbc84c136	-0.016205411
100	0x3d940de1	0.0722921
101	0xbd4cd04b	-0.05000333
102	0x3be65686	0.0070293574
103	0x3d27a197	0.04092559
104	0xbc0ebe5b	-0.0087123765
105	0xbc689392	-0.01419534
106	0x3d1e056a	0.038579382
107	0xbccd22bf	-0.025040982
108	0xbd5e9118	-0.05433759
109	0xbd01336c	-0.03154318
110	0xbb0623cb	-0.0020468112
111	0x3c05244f	0.008126332
112	0xbd9b275e	-0.07575868
113	0xbce4c48f	-0.027925758
114	0xbcec7548	-0.028864518
115	0x3cdaf833	0.026729679
116	0x3dc3ffe4	0.09570292
117	0xbc8ee302	-0.01744223
118	0x3b34f0da	0.002760938
119	0xbc99bf40	-0.018767953
120	0xbd57821f	-0.052614328
121	0x398d31ca	0.00026930711
122	0xbddc9c7c	-0.107720345
123	0x3d417975	0.04723497
124	0x3c760df2	0.015017973
125	0xbc2ab694	-0.010419507
126	0xbdbbe48a	-0.0917445
127	0xbd39290d	-0.045205165
128	0x3d25f809	0.040519748
129	0xbbf53efd	-0.0074843154
130	0x3d1bcdf5	0.038038213
131	0xbde0b353	-0.109717034
132	0x3d312b6f	0.043254312
133	0xbda7cc78	-0.08193296
134	0xbd264024	-0.040588513
135	0x3d8322f3	0.064031504
136	0x3d646b3a	0.05576632
137	0x3d0c05b1	0.034185115
138	0x3c2c99eb	0.010534744
139	0xbdebe051	-0.11517394
140	0xbd372be5	-0.044719595
141	0xbc95b4bb	-0.018274656
142	0xbdef064b	-0.11671122
143	0xbd812d98	-0.063075244
144	0xbd7fe020	-0.0624696
145	0xbd9715bd	-0.07377193
146	0xbd8754d7	-0.06607979
147	0x3e125f57	0.14294182
148	0x3d16fc9f	0.036862012
149	0x3e0b8cd5	0.13627942
150	0x3be1008b	0.00686652
151	0xbdf1b23d	-0.118015744
152	0x3d917d3c	0.07103965
153	0xbcaa853d	-0.020815486
154	0xbda1a5a6	-0.07892923
155	0x3d9d8cb1	0.076928504
156	0x3c8964cf	0.016771702
157	0x3c2f8d21	0.0107148
158	0xbda65caa	-0.08123143
159	0xbdd73b64	-0.10509375
160	0xbc63615c	-0.013878193
161	0x3d6321cb	0.05545215
162	0xbdd4dad2	-0.10393299
163	0xbd1e0757	-0.03858122
164	0xbd6dd9ba	-0.05806897
165	0xbcf2621d	-0.0295878
166	0x3d567805	0.052360553
167	0x3deb4b78	0.11489004
168	0xbcd5e878	-0.026111826
169	0x3df6952a	0.120401695
170	0xbc0e4239	-0.008682781
171	0x3d5ec3d3	0.05438597
172	0x3d695a14	0.05697067
173	0x3de5963a	0.11210294
174	0x3d6f51d5	0.05842765
175	0xbd03d422	-0.032184727
176	0x3d7eb065	0.06217994
177	0x3dfeba74	0.12437907
178	0x3cd7fe2a	0.026366312
179	0x3d4e181d	0.050315965
180	0x3c08c307	0.008347279
181	0x3b00884e	0.0019612494
182	0xbd92e138	-0.07171863
183	0x3c231c72	0.009955512
184	0x3daf5782	0.08561613
185	0x3d3e039e	0.04639017
186	0x3cb94123	0.022614067
187	0x3d262ef0	0.040572107
188	0xbdb47bd9	-0.088126846
189	0x3c2eef01	0.0106771
190	0xbd1fe858	-0.03903994
191	0xbd2c3f1a	-0.042052366
192	0xbd9a22be	-0.07526158
193	0x3d63d996	0.055627428
194	0x3d8ef38f	0.06980049
195	0xbd6f3b30	-0.058406055
196	0xbdbe190f	-0.09282123
197	0x3d499618	0.049215406
198	0x3cfe89cd	0.031071568
199	0x3d0d6d62	0.034528144
200	0x3c743019	0.0149040455
201	0x3d80faf9	0.06297869
202	0x3daf3c29	0.085563965
203	0xbdfc37ed	-0.123153545
204	0x3c546d68	0.012965538
205	0x3d133011	0.03593451
206	0x3dc7adf0	0.09749973
207	0xbda75580	-0.08170605
208	0xbc4d37f4	-0.012525547
209	0xbd3d3bce	-0.046199612
210	0x3dc3e403	0.09564974
211	0x3d89e6fa	0.067335084
212	0xbd153003	-0.03642274
213	0x3dcc9ed2	0.0999123
214	0x3ca1f6e4	0.019771047
215	0x3d8e520f	0.06949245
216	0x3d8b4c77	0.06801694
217	0xbcf1d751	-0.029521616
218	0x3d984ee4	0.07436922
219	0xbd9cc361	-0.07654453
220	0xbb1b77bf	-0.0023722497
221	0xbd25c4e5	-0.040470976
222	0xbabd5715	-0.0014445508
223	0x3d0ac48a	0.03387884
224	0xbd9079b5	-0.07054464
225	0x3d692c8d	0.056927253
226	0x3c307d3b	0.010772045
227	0x3d00d721	0.031455163
228	0xbca8f908	-0.02062656
229	0xbca336f0	-0.019923657
230	0x3caeab63	0.021321958
231	0xbd17b010	-0.03703314
232	0x3e0a799a	0.1352295
233	0x3de870a4	0.113496095
234	0xbd780964	-0.06055583
235	0xbd946dfc	-0.0724754
236	0x3dbb714c	0.09152469
237	0x3be950d8	0.007120233
238	0x3d4457c9	0.04793528
239	0xbc35703d	-0.011074123
240	0xbdc61b4a	-0.09673174
241	0xbd25a8d1	-0.0404442
242	0x3c6b44d8	0.014359675
243	0xbd8672b1	-0.065648444
244	0x3de4dbcc	0.111747354
245	0x3ca6c983	0.02035976
246	0xbd91da5e	-0.07121728
247	0x3d36c1e6	0.04461851
248	0x3ae1a666	0.0017215728
249	0xbc30912e	-0.010776801
250	0x3d812b0d	0.063070394
251	0xbd36d38e	-0.044635348
252	0x3cdc743d	0.026910895
253	0x3d573bf4	0.05254741
254	0xbde0aac2	-0.109700695
255	0x3c00a3c7	0.007851548

fc2.bias f4 [84]
0	0xbd6c149e	-0.05763685
1	0x3d1e232a	0.038607754
2	0xbd5910f7	-0.052994695
3	0xbd59f8b2	-0.05321569
4	0x3db2480f	0.0870515
5	0xbdb71537	-0.08939593
6	0x3d0692d8	0.032854885
7	0x3d90040b	0.07032021
8	0xbd0d65e3	-0.034520995
9	0xbdd1c2b0	-0.10242212
10	0x3c007941	0.007841409
11	0xbcf58da6	-0.02997477
12	0x3d7a3d5b	0.06109367
13	0x3d13f2f4	0.03612037
14	0xbce8916d	-0.028389657
15	0xbd0f73aa	-0.035022415
16	0x3cdb532a	0.026773054
17	0xbd598aab	-0.05311076
18	0xbcc8339b	-0.02443867
19	0x3d8f16d8	0.06986779
20	0x3dd4df46	0.103941485
21	0x3d1b2fbf	0.03788733
22	0x3dd4bd66	0.103876874
23	0xbdc83217	-0.09775179
24	0xbd8b7d73	-0.06811037
25	0x3d9a4478	0.07532591
26	0x3d8744bb	0.06604906
27	0x3d907c2e	0.070549354
28	0x3d07016f	0.03296035
29	0x3dd2d196	0.102938816
30	0xbd3b5200	-0.0457325
31	0x3d9d3487	0.076760344
32	0x3bfe947c	0.0077691656
33	0xbb3a942c	-0.0028469665
34	0xbd2883c5	-0.04114129
35	0x3ca77eef	0.020446269
36	0xbc20fda7	-0.0098261
37	0x3d26ab72	0.040690847
38	0xbd704d59	-0.058667514
39	0xbcc1592f	-0.023602096
40	0x3caca8f0	0.02107665
41	0xbd6c71b8	-0.05772564
42	0xbd95c125	-0.0731223
43	0xbce77b16	-0.028256934
44	0x3cc79c40	0.024366498
45	0x3c68e919	0.014215731
46	0x3d9def03	0.077116035
47	0x3d8a8954	0.067644745
48	0x3db89947	0.0901361
49	0x3c1cb1f8	0.009563915
50	0xbd3adc83	-0.045620453
51	0xbcb53d2a	-0.022123892
52	0xbd017c4f	-0.03161269
53	0xbade4feb	-0.0016961073
54	0xbda3869b	-0.07984658
55	0x3c2fa777	0.010721079
56	0x3d73673b	0.05942462
57	0x3add1161	0.0016866141
58	0x3d496cb2	0.049175926
59	0x3db08b81	0.08620358
60	0x3d9ec1bb	0.07751795
61	0x3da82864	0.08210829
62	0xbd7477c9	-0.05968455
63	0x3d24f809	0.040275607
64	0x3d0b4050	0.03399688
65	0xbb97c97d	-0.0046321736
66	0x3b954fde	0.00455664
67	0xbcdb1fc7	-0.026748551
68	0x3dc97f9c	0.09838793
69	0x3dfb5e8d	0.122738935
70	0x3d9259bb	0.07146021
71	0x3d200af2	0.03907294
72	0xbdb03aa3	-0.08604934
73	0xba86f97e	-0.0010297743
74	0xbcaa573a	-0.020793546
75	0xbda32dd4	-0.079677254
76	0x3d73c9f3	0.059518766
77	0x3d31ff39	0.04345629
78	0x3cb2acb2	0.021810863
79	0xbd6e00b5	-0.058106143
80	0xbc8c5fe4	-0.017135568
81	0xbd368ba7	-0.044566777
82	0x3dd6365d	0.10459588
83	0x3c07db40	0.008292019

fc3.weight f4 [10, 84]
0	0xbd12b103	-0.035813343
1	0x3d8c7276	0.06857769
2	0xbd6f6819	-0.058448885
3	0xbad27afe	-0.0016058383
4	0xbc7850bb	-0.015155966
5	0x3d92c5b8	0.07166618
6	0xbc5b4a39	-0.013384395
7	0xbbd548ae	-0.0065089082
8	0xbd9f6ac9	-0.077840395
9	0x3ce8b771	0.028407784
10	0x3c8e2027	0.017349316
11	0xbdb78fcd	-0.08962975
12	0x3e30183d	0.17196746
13	0x3e443e2c	0.19164342
14	0x3d330a62	0.043711074
15	0x3dd1d910	0.102464795
16	0xbd3c2549	-0.045933995
17	0x3acf9e95	0.0015840108
18	0x3d99a516	0.07502191
19	0xbe0ae74f	-0.135648
20	0xbe4c67d6	-0.19961485
21	0x3cee7c37	0.029111965
22	0xbe729832	-0.2369087
23	0x3da8c8b5	0.08241407
24	0x3cd8bf77	0.026458485
25	0xbd8d35c7	-0.06895023
26	0x3e52a2fb	0.20569985
27	0x3dec3b57	0.11534756
28	0xbe2f9c49	-0.17149462
29	0x3d275aae	0.040857963
30	0x3c1e2b6e	0.009653909
31	0x3e04ed49	0.12981142
32	0x3e7dde98	0.24791944
33	0xbc1c50a0	-0.009540707
34	0xbd90a2ce	-0.070623025
35	0xbd2fa7b8	-0.04288456
36	0xbe235d2d	-0.15953512
37	0xbdbbc849	-0.09169061
38	0xbd89e772	-0.06733598
39	0xbd27bc9e	-0.040951364
40	0x3de3acb5	0.111169256
41	0xbd498536	-0.049199305
42	0x3da98fb0	0.08279359
43	0xbe40f5da	-0.18843785
44	0xbd2a8a8b	-0.04163603
45	0x3b6577aa	0.0035013952
46	0xbe40c63d	-0.18825622
47	0x3ce203ef	0.027589766
48	0xbe21b1c7	-0.15790473
49	0xbe4fe772	-0.20303133
50	0xbe147811	-0.14498927
51	0xbd10c871	-0.035347406
52	0xbe242091	-0.16028048
53	0xbd34e4f0	-0.044163644
54	0x3d1cf76e	0.038321905
55	0xbdf93508	-0.12168318
56	0x3d7ce957	0.061745968
57	0x3d3fb19f	0.046800252
58	0x3ed05409	0.40689114
59	0xbe5c49ee	-0.21512577
60	0x3d2ff878	0.042961568
61	0xbd9b1e41	-0.0757413
62	0xbdbe8a65	-0.093037404
63	0xbdab7232	-0.083713904
64	0xbd8814b0	-0.06644571
65	0xbb62a633	-0.0034583926
66	0x3dbb6a4e	0.091511354
67	0x3dc2c12f	0.09509503
68	0xbdd6c8e7	-0.10487538
69	0xbcf07b25	-0.029355595
70	0x3c910597	0.01770286
71	0xbd10a6fe	-0.035315506
72	0x3d9d9e9b	0.07696267
73	0x3d9c320b	0.076267324
74	0xbdca96a8	-0.09892017
75	0x3c6e1fa4	0.014533911
76	0x3d9057a3	0.070479654
77	0xbe5f95e0	-0.21834517
78	0x3ebbacff	0.36655423
79	0x3e01bf23	0.12670569
80	0xbe3ea008	-0.18615735
81	0xbd64120a	-0.055681266
82	0xbe6cbb53	-0.23118334
83	0x3e87d1c4	0.26527226
84	0xbcfeced0	-0.031104475
85	0x3e7f8224	0.24951988
86	0xbc3d9292	-0.01157059
87	0x3db86973	0.09004488
88	0xbe10a247	-0.14124404
89	0xbde2463b	-0.11048552
90	0xbea35add	-0.3190526
91	0xbe45e480	-0.19325447
92	0x3dcca6e5	0.0999277
93	0x3de986e2	0.1140268
94	0xbe99563f	-0.29948613
95	0xbd00986f	-0.031395372
96	0x3cf0fc18	0.029417083
97	0xbd8b166e	-0.067913875
98	0xbd1bf474	-0.038074926
99	0xbdd8a4af	-0.10578286
100	0xbc1e12d6	-0.0096480455
101	0x3dc88214	0.097904354
102	0xbe7d5440	-0.2473917
103	0xbdd5ee8b	-0.10445889
104	0x3e9b9cbd	0.3039302
105	0xbdd686d2	-0.10474934
106	0x3de43b3d	0.11144111
107	0xbd8a0314	-0.06738868
108	0x3e051f39	0.13000192
109	0x3e19426b	0.14966743
110	0xbe2fcab3	-0.17167167
111	0x3d13b13e	0.036057703
112	0xbdd56f35	-0.10421602
113	0x3de08082	0.10962011
114	0xbcdbb380	-0.02681899
115	0xbd7b1903	-0.06130315
116	0xbc506a2d	-0.012720627
117	0xbc67cdd6	-0.014148196
118	0x3c8c5511	0.017130407
119	0x3d99a772	0.07502641
120	0x3dc59439	0.09647412
121	0xbe4c2aaf	-0.19938157
122	0x3c3e1b8e	0.011603249
123	0xbd244c3c	-0.040111765
124	0xbc920ce2	-0.017828409
125	0xbdae9e44	-0.085262805
126	0x3d03ba85	0.0321603
127	0x3c6153cb	0.013752888
128	0xbd6820c3	-0.05667187
129	0xbec81843	-0.3908101
130	0xbca783e0	-0.020448625
131	0x3e31183f	0.17294405
132	0x3ecdee0d	0.4022068
133	0x3e2c8fe3	0.16851763
134	0xbe1a4efe	-0.15069196
135	0x3d3e999b	0.04653321
136	0xbdd695f7	-0.10477822
137	0x3e0108c7	0.12601005
138	0xbd827a4e	-0.06370984
139	0x3e1dc3e6	0.1540676
140	0x3e182939	0.14859475
141	0x3d464755	0.04840787
142	0xbddd6844	-0.10810903
143	0x3c8ac43e	0.016939279
144	0xbc8e242d	-0.017351234
145	0x3e85b4b3	0.26114425
146	0xbc86ee2b	-0.01647099
147	0xbda0beee	-0.07848917
148	0x3d11aa54	0.03556283
149	0x3c8622ae	0.016373958
150	0xbdb30f2b	-0.087431274
151	0x3d7a0d07	0.06104758
152	0x3e51b991	0.20480944
153	0x3e19062d	0.14943762
154	0x3e9568d7	0.2918155
155	0x3d782237	0.060579505
156	0x3da9691a	0.08272
157	0xbe115429	-0.14192261
158	0x3d57a939	0.052651618
159	0x3bc60dd2	0.006044128
160	0xbe0c91cd	-0.13727494
161	0x3e66a9c2	0.22525695
162	0xbe30adb3	-0.17253761
163	0xbe0f774b	-0.1401035
164	0xbd949b44	-0.07256177
165	0xbd9071ab	-0.070529304
166	0x3e428b47	0.18998443
167	0x3da97de4	0.08275965
168	0xbd86bcf0	-0.06579006
169	0xbd5c0799	-0.053718183
170	0xbd366aee	-0.04453557
171	0xbdd53ec9	-0.10412366
172	0xbdf3d9a9	-0.1190675
173	0x3bb5e9ed	0.0055515678
174	0xbd11b3d3	-0.035571884
175	0x3dbd61bd	0.09247158
176	0xbcf7d710	-0.030253917
177	0xbe00d2ca	-0.1258041
178	0x3e009304	0.12556082
179	0x3d1bdd13	0.03805263
180	0x3df14f61	0.117827184
181	0x3ce6d675	0.028178433
182	0x3e6059bb	0.2190923
183	0xbd724d32	-0.05915565
184	0xbd53a005	-0.05166628
185	0x3c8c0637	0.017092807
186	0x3cc965b2	0.024584625
187	0x3e4f91ea	0.20270506
188	0x3e858181	0.26075366
189	0xbe5fc6a3	-0.21853118
190	0xbd07d73c	-0.033164248
191	0xbd2a4e46	-0.041578554
192	0xbdcc4169	-0.099734135
193	0xbc29118a	-0.010319123
194	0xbe363bac	-0.177962
195	0x3d89dac3	0.067311786
196	0xbe19f5ab	-0.15035121
197	0xbe47d477	-0.19514643
198	0xbd375e43	-0.04476763
199	0xbd8d2f20	-0.06893754
200	0x3dd338a5	0.103135385
201	0x3dd184ad	0.10230384
202	0x3e04f8c8	0.12985528
203	0x3c976774	0.018481947
204	0xbe0e338d	-0.13886853
205	0xbe4f3010	-0.20233178
206	0xbc7ed989	-0.015554794
207	0xbe7275db	-0.23677771
208	0x3da5e110	0.08099568
209	0xbe37c63f	-0.17946719
210	0xbdf5b16a	-0.1199673
211	0xbdc3ebab	-0.095664345
212	0xbd8a15bb	-0.06742426
213	0x3e449d8b	0.19200723
214	0x3d046f21	0.032332543
215	0xbc22c464	-0.0099345185
216	0x3d11e137	0.035615172
217	0x3d8cdfb3	0.06878605
218	0x3d873934	0.066027075
219	0x3ddf688a	0.10908611
220	0xbe727e54	-0.23681003
221	0xbd9df9ae	-0.07713638
222	0xbd8c0951	-0.068377145
223	0x3e9d455a	0.30716974
224	0x3e886b40	0.26644325
225	0xbcbba82e	-0.022907343
226	0x3d8101ea	0.06299193
227	0x3e57dac9	0.21079554
228	0xbdacbc8d	-0.08434401
229	0xbe06bc26	-0.1315771
230	0x3d92ae57	0.07162159
231	0x3dc37bc3	0.0954509
232	0xbd847c55	-0.06469027
233	0xbe05e6e1	-0.13076355
234	0x3de5f5b3	0.11228504
235	0x3db49efa	0.08819385
236	0x3d4a01de	0.049318187
237	0xbe002132	-0.12512663
238	0x3d767460	0.060169578
239	0xbdbf0e02	-0.09328844
240	0x3d654722	0.05597604
241	0xbd91be7c	-0.0711641
242	0x3dacaf3e	0.08431862
243	0xbd865c23	-0.065605424
244	0xbda2952e	-0.0793861
245	0xbe782b20	-0.24235201
246	0x3e19d07e	0.1502094
247	0x3ce84be0	0.028356493
248	0x3d822665	0.063549794
249	0xbd3c1a88	-0.04592374
250	0x3e0a98c8	0.13534844
251	0xbde15e5f	-0.11004328
252	0x3c44d1bb	0.012012894
253	0xbe4f3c2c	-0.20237797
254	0x3e0fbc24	0.14036614
255	0xbdac8f41	-0.08425761

fc3.bias f4 [10]
0	0x3b0a2ebf	0.0021084992
1	0x3e1a9f33	0.15099792
2	0xbd8d2f34	-0.06893769
3	0xbd04b935	-0.03240319
4	0xbd6c6191	-0.057710234
5	0x3daf7204	0.08566669
6	0xbe3837aa	-0.17989984
7	0xbd8f1519	-0.06986446
8	0x3dea8c60	0.11452556
9	0xbd979cee	-0.07402979
