global_mnist_cnn.pt (torch, 181781 bytes, 10 tensors)

conv1.weight f4 [6, 1, 5, 5]
00000000: 35e6 3abe 1a9e 95be cffe 5cbd 8f58 003e
00000010: fb40 80bc 78ef 15be 199a 9ebe 8862 d2be
00000020: 95fc b5be db5a 7ebe b9c3 85bd ea40 20be
00000030: 8f6a 9abe d3c5 6cbe 4f76 71be 7a05 1e3e
00000040: 02d4 223e c7e3 0b3e 9bf4 cfbb 368d 1abe
00000050: 0ccd dd3e bcb9 963e 7913 ba3e c2f1 dc3e
00000060: 85a9 ab3e 5a90 9a3d ef19 fd3d cccd b2bc
00000070: 9a53 b33c 8238 9abe 5998 ac3d 6cba 823e
00000080: d1cf 293e 4615 203e 1ab1 c4be c544 20be
00000090: 5e66 a2bd 50e2 703e c03e cd3d 2dbd 843b
000000a0: 2649 29bd 6a55 ad3c 0708 773e 6c1a df3e
000000b0: 36aa 673e bad5 11be aaa4 0bbe 7a99 32be
000000c0: 4dbe 5a3e 2ca6 5b3e 93aa a9be 92be 13bd
000000d0: 2c62 0fbe 1000 453d 7591 263e e272 81be
000000e0: daf0 a1be 3a02 843d 6b71 bd3e c9eb 203e
000000f0: 421f dabe 1672 37bd b705 8b3e d879 bc3e
00000100: cdf8 a5bd 043d 91be 0991 88bd 76c8 4d3e
00000110: ce63 8c3e 579e 8bbd 5c48 8b3d 3d1e 693e
00000120: c800 953d 1948 0a3e 06e4 aa3c 2a0b 0abe
00000130: 5fac 5bbd 45bf d1bd f2e2 a9bd 3e60 b63d
00000140: 773e 9cbc 91b1 853d 0605 523e 83eb 173e
00000150: 5235 e73d d64a 13be 2362 493d 226e 96bd
00000160: 1575 ccbd f555 4ebe 489f 3cbe d16d 733d
00000170: 0c46 01be a5b1 55bd 42c8 28be 6775 92bd
00000180: f871 1fbd 4fbe 1dbd 78eb 78ba 98ea 2c3e
00000190: 5a4e f73d 1f8f a8be 4f2d 4d3c dbc2 47be
000001a0: 98bb 1cbe b964 d53d 245c 7bbe 5c80 7f3d
000001b0: cf70 ab3d 98c5 e13d bf77 513e 233a ab3e
000001c0: 7f02 aa3e 135a 27be 8d48 373e 1c97 ae3e
000001d0: 4e8b c23e f302 fc39 2a52 92be 8ee9 a1bd
000001e0: 6c00 11bc 49f5 a93c a068 89be 2148 543d
000001f0: b8e6 8ebd 3c2f 18be 1b7d 9b3d 304d 5e3d
00000200: 921c ae3d 7a53 5c3d e038 dfbd 1606 903d
00000210: 8685 893e 6801 e63e 0142 873e 8723 8c3e
00000220: 50ec 873d f4ea a03d 6839 aa3e 88fb cc3e
00000230: 4ca1 a33d b4fc 5b3d 3bbc a1be 5bc1 10be
00000240: 4e27 a23d c4cb 85be 90d8 b2be 9ddf abbe
00000250: a913 c6be 4695 acbe
-0.1825188 -0.29222184 -0.053953942 0.12533782 -0.015655985 -0.14642131 -0.30976942 -0.41090798
-0.35544267 -0.24839346 -0.06531472 -0.15649763 -0.30159423 -0.23122339 -0.23580287 0.15431777
0.15901187 0.13661109 -0.006346298 -0.1509293 0.433205 0.2943858 0.3634298 0.43153197
0.3352777 0.07547064 0.12358462 -0.021826647 0.02189045 -0.30121237 0.084274955 0.25532854
0.16583182 0.15633115 -0.38416368 -0.15651233 -0.07929681 0.23523831 0.10021734 0.004050872
-0.041329525 0.021158893 0.24124156 0.43574846 0.22623524 -0.14241686 -0.13637033 -0.17441359
0.21361656 0.21450108 -0.3313795 -0.036070414 -0.14002293 0.048095763 0.16266425 -0.2528296
-0.31629068 0.06445737 0.37000594 0.15714945 -0.42601973 -0.044786535 0.27152798 0.3681171
-0.081040956 -0.28366864 -0.06668288 0.20096001 0.27419895 -0.0681731 0.06800911 0.22765441
0.0727554 0.13504066 0.020860683 -0.13480821 -0.053631183 -0.1024156 -0.082952395 0.089050755
-0.019072754 0.06528009 0.20509729 0.14835934 0.11289467 -0.14384016 0.049165856 -0.07345225
-0.09983269 -0.20149978 -0.18420136 0.0594309 -0.12624377 -0.05217137 -0.16482642 -0.07151299
-0.03892705 -0.03851157 -0.0009495537 0.16886365 0.12075491 -0.32921693 0.012523009 -0.19507925
-0.15305936 0.10419602 -0.24546868 0.062378272 0.08371126 0.11024016 0.20455836 0.33442792
0.3320503 -0.16342954 0.1789877 0.34099662 0.37996906 0.00048067383 -0.2857831 -0.07905875
-0.008850198 0.020746844 -0.26837635 0.0518266 -0.069776 -0.14861768 0.07592221 0.05427283
0.08501543 0.053790547 -0.1089952 0.07032411 0.26859683 0.44922948 0.26417544 0.27370855
0.0663687 0.07857314 0.33246922 0.40035653 0.07989749 0.053707793 -0.3158892 -0.1413626
0.07917653 -0.26132023 -0.3493085 -0.3356904 -0.38686875 -0.33707637

conv1.bias f4 [6]
00000000: 74e1 4d3d 24f8 ecbd f20c 4b3d 4b69 c3bd
00000010: 9d81 93bd b9de cb3d
0.050263837 -0.115707666 0.049572892 -0.095415674 -0.07202456 0.0995459

conv2.weight f4 [16, 6, 5, 5]
00000000: 7663 0cbc e938 f2bd 9f54 b5bd d69c b3bd
00000010: 03fe f03c 4332 6d3c 6dbb 4c3d 41b5 f43d
00000020: 1df7 f23d 8d62 853e 46ab a13d fb5c cd3d
00000030: 2115 113e 29b4 8abc 55e5 f43c cb39 573d
00000040: ac4b 123d 7799 853d dfaa 77bd 3df3 a23d
00000050: dd2f b6bd 0b24 67bc 1330 f2bd 6e9b 5aba
00000060: 5261 703d a9f2 9bbd 3d90 6ebd 4027 3dbe
00000070: 77ec 4ebe b121 47bd afa5 08be 7ea8 9ebd
00000080: 3c75 f9bd fb2c 5b3d ae66 793d d8c9 5fbc
00000090: 1025 1cbb 681f c3bd e5bf 743d 7680 47bc
000000a0: 52cc 4a3d d0c6 04bb 945a b53c 59b3 9bbd
000000b0: 942d 403b 6cb4 753c 5846 08bd 47cc 113d
000000c0: b650 e13c 54c2 29bb ff46 d53d 256b abbd
000000d0: 751b 0abe 34b9 b7bd 39f9 0cbe e5f9 9dbd
000000e0: c89a 24be 37e6 9abd 2f07 00be 38f4 0ebd
000000f0: 4512 32be a8d4 283c 7763 2fbd 9a45 82bc
00000100: 74c5 59bd 936e 743d 9497 023e 148e 4d3d
00000110: 351f 8b3c f358 b53b c572 813d 5b93 dc3d
00000120: e826 3b3d 2fbd 3a3d b0a8 f4bd 7e10 0f3c
00000130: 098f 60bc 5fc8 b93c 7498 ffbc 78d6 4e3d
00000140: 7584 3e3d ca74 28bd 369c 913d 01c7 10bd
00000150: 842a 89bd bfcc c93c 15c0 323c 789c c33c
00000160: 20d8 00bd 014b 3e3c 7058 9dbd 1347 99bd
00000170: 1abf b13c 7e78 953d b336 7bbd a28b 0c3d
00000180: 072e ea3c 6b5e 51bd 9228 febc c234 9f3c
00000190: a2e8 863d e6ac dbbc fe2d e4bd 17dc 05be
000001a0: 426b f5bd d110 b8bd 7438 fdbd 2380 4fbe
000001b0: f3d4 2ebd c68c 69bd 4843 23bd d520 18be
000001c0: d7cd 6e3c d18c 423d b1fa a23d a64d 983d
000001d0: 9893 5f3d 0cf3 5e3d 9ff0 763c c5f3 07bb
000001e0: 2ec6 743d f3d7 dc3d ebf5 893c 21f7 6a3d
000001f0: 63fc 15bd 3ea7 a13d a41f 993d 3a13 90bd
00000200: b0ba 48bd 8497 6dbc 4ec7 ee3c 4753 0bbe
00000210: 1c3a 28be 0cef cfbd 8a4d 93bd 6eca a4bd
00000220: 61c0 06be 759a b53c 0fe6 d13c 9083 b23d
00000230: 4187 9fbd a97c c7bd 8d35 82bd 4225 723c
00000240: d007 423e 5f0f 763d 3b95 51bd d942 2f3d
00000250: 4fca 4c3d 5fa9 973d 42ac 513e a9ef 283e
00000260: dd45 253d f4ca 1fbd 9118 d9bd ca03 973c
00000270: 2a8f 493e 8706 913e 8624 073e 7541 af3d
00000280: a3d9 a23a 29c6 fcbd 26c2 153c d123 7b3d
00000290: d8eb bd3d 7417 a3bd 725a 73bd 3940 b0bc
000002a0: 3c64 04be 810a cebd 495f babc c961 a0bd
000002b0: 1246 c6bc 182e 15be 4c58 08be 75c2 5ebd
000002c0: 1c57 8cbd 4f79 3fbe ad0e 30be a5c0 19be
000002d0: 58eb f33d 6e02 853d 229b 213d 40c8 c2bd
000002e0: 29d0 e83c 7221 7e3c b35d 173e 00f2 0e3e
000002f0: 3ffe 183e 1a87 1c3d 6776 7e3b b51e e3bc
00000300: 8bbf ee3d ea22 9b3d 9d3a 64bc 4737 3b3c
00000310: c84e 34be 4101 cebd 0392 32be 1305 efbb
00000320: 16f5 5c3c e094 cfbd cb33 42be 7bc8 2bbd
00000330: 93ba 89bc 441b 75bc 2889 60bd efb5 40be
00000340: 8859 32be 06ea 9dbd b0a6 f6bc 75cf 96bd
00000350: 1db4 a6bd 78fb 2ebe 7cea dabd b40b 0ebd
00000360: 1be3 733c 4c03 30bd e117 04bc 0f5d 803b
00000370: 644e b1bd a2be 0dbe 19a7 92bd 2eff a5bc
00000380: c7f3 f2bc 31db 503c d671 173d 3026 a5bc
00000390: e5cc 7c3d 9f00 763c 0e1a 443d a79f 093d
000003a0: a5f8 87bd 6373 c6bc 5a23 413d 46d1 9d3d
000003b0: 6778 31bd 7be0 8cbd e1b8 86bd 0b46 62bd
000003c0: 2863 003d a8a5 d23b 69d4 84bd bdc5 7cbd
000003d0: 644f 83bc 0322 2abd 6fbe 6f3b 2110 443c
000003e0: 30f4 d4bc aef7 ff3c 52d7 39bd 706a 61bd
000003f0: d0a1 2dbe c3fe a9bd 70d9 d4bd 69a3 213d
-0.008568635 -0.11827261 -0.08854031 -0.087701485 0.029417997 0.014477315 0.04998343 0.11948634
0.11863539 0.2605175 0.07893996 0.100275 0.14168216 -0.01693161 0.02989451 0.05254535
0.035716698 0.06523412 -0.06046569 0.0795655 -0.08895848 -0.014107714 -0.11825576 -0.0008339201
0.058686562 -0.07614643 -0.058243025 -0.18472004 -0.20207392 -0.048616115 -0.13344453 -0.07746981
-0.12180564 0.053509694 0.06088894 -0.013658963 -0.0023825802 -0.09527475 0.059753317 -0.012176624
0.04951126 -0.0020260103 0.022137918 -0.07602567 0.0029324042 0.014996629 -0.03327021 0.035595205
0.027504306 -0.0025903182 0.10413932 -0.083700456 -0.13487037 -0.089708716 -0.13766946 -0.07713679
-0.1607467 -0.07563441 -0.1250274 -0.034900874 -0.17389782 0.010304607 -0.042819466 -0.01590233
-0.05316682 0.059675764 0.12753135 0.050184324 0.016982654 0.005534285 0.06320719 0.10770293
0.0456914 0.045590576 -0.11946237 0.008731959 -0.013705977 0.022678552 -0.031200625 0.050497502
0.04651304 -0.041127004 0.07109873 -0.035346035 -0.06697562 0.024633763 0.010910054 0.023878321
-0.031456113 0.011614562 -0.07682884 -0.074842595 0.02169757 0.07298373 -0.061331462 0.03431285
0.0285864 -0.051115435 -0.031025205 0.019434337 0.0658734 -0.026815843 -0.11141585 -0.13072239
-0.119833484 -0.089875825 -0.12364283 -0.20263724 -0.042683553 -0.057019018 -0.039859086 -0.14856274
0.014575443 0.047497574 0.07957972 0.07436685 0.054584116 0.054431006 0.015072017 -0.0020744663
0.05975931 0.107833765 0.016840896 0.057364587 -0.036617648 0.07893227 0.07476738 -0.07034917
-0.049006164 -0.014501456 0.02914777 -0.13605987 -0.16428417 -0.101530164 -0.07192524 -0.08046423
-0.13159324 0.022168377 0.025622396 0.087165 -0.077894695 -0.09740574 -0.0635787 0.014779391
0.18948293 0.060073253 -0.051167708 0.04278836 0.049997624 0.07405352 0.20475867 0.16497673
0.04034983 -0.03901191 -0.10600389 0.018434424 0.19683519 0.28325292 0.13197526 0.08557407
0.001242448 -0.123424836 0.009140527 0.061313454 0.09273499 -0.07963458 -0.059412427 -0.021514999
-0.12928861 -0.10060597 -0.022750514 -0.07831151 -0.024203334 -0.14568365 -0.13314933 -0.054384667
-0.06852552 -0.1869862 -0.17193098 -0.15014894 0.11910123 0.06494604 0.039454587 -0.09510851
0.028419571 0.015510904 0.14781837 0.13959503 0.14940737 0.03821478 0.0038827898 -0.027724603
0.11657628 0.07575019 -0.01392999 0.011426753 -0.17608178 -0.10058833 -0.17438512 -0.007294306
0.013486167 -0.101358175 -0.1896507 -0.04193924 -0.016812598 -0.014960114 -0.054818302 -0.18819402
-0.17416966 -0.07710652 -0.03010878 -0.07363788 -0.08139823 -0.17088115 -0.106892556 -0.03467913
0.014885689 -0.042971894 -0.008062334 0.0039173434 -0.0865753 -0.13842252 -0.071607776 -0.02026328
-0.029657258 0.012747572 0.036973797 -0.02015981 0.06171884 0.0150147965 0.04787641 0.033599522
-0.06639222 -0.024224943 0.047152855 0.07705931 -0.043327715 -0.06878754 -0.065782316 -0.05524258
0.031344563 0.006428439 -0.064858265 -0.061712015 -0.016029067 -0.041536342 0.0036582013 0.011966736
-0.025995344 0.031246033 -0.04537136 -0.055033147 -0.16956258 -0.08300545 -0.103930354 0.03946248

conv2.bias f4 [16]
00000000: 6a6e 75bc a46e ffbc 1e9e 2a3d f2fa 9e3d
00000010: 0312 8a3c 23bf 03bd 016b febc c088 d7bd
00000020: b900 4abd 1948 253d aeae 963a 2975 2c3c
00000030: 4a58 b23d ebde 9abd 2eaa 893c 48f2 11bc
-0.014979938 -0.031180687 0.0416547 0.07762708 0.016854292 -0.032164704 -0.031056883 -0.1052413
-0.049317095 0.04035196 0.001149615 0.01052598 0.08708246 -0.075620495 0.01680478 -0.008907862

fc1.weight f4 [120, 256]
00000000: 2ef0 b7bc b52d e63c 8964 34bd 3ac7 84bd
00000010: 259f 7b3b b21e efbb 4d4c 53bd 7005 5e3d
00000020: b2a1 233d 888c e83c 7b9a 0b3d d69d ae3c
00000030: 3a25 6c3d 6591 7cbd 24a8 41bc dcde 9c3c
00000040: a4d3 b1bc d781 5ebc 3fd2 89bd 1d08 453c
00000050: edf9 603c ffdb c13c 85bd 8abd da96 e93c
00000060: d273 e03c 31ff 99bc 26ff 693d 4249 8e3c
00000070: 7836 95bc 7eaf 053d 64e2 4abc 8a35 b83c
00000080: 9668 e1bc f338 00bd d676 71bd b40d 9cbc
00000090: f04f e13c 94e4 c23c dd6e 0dbd e748 71bd
000000a0: 46af db3b 5447 473c d7d8 09bd 2f7d 0b3b
000000b0: 47f8 b53c d466 58bd 99ed 61bd ad75 17bb
000000c0: bf98 273d 2a29 eb3c ed9c 1dbd 6d70 893c
000000d0: 3d96 1c3d 557f 45bd 359b 9fbb 2f92 a83c
000000e0: 8abf e3bc 724a 10bd 8d7b c0bc c960 8e3c
000000f0: 0710 0fbd 2693 65bd 73cb 813c 0983 f53c
00000100: d340 523d 2bbc 023d d29b bd3b 4cf5 31bd
00000110: 8766 87bb 7775 37bd 68f9 6b3c d004 52bd
00000120: 4dea 63bd 8eb0 72bd b276 3b3d 201a 59bd
00000130: d8da 2ebd a324 1e3b ca64 9e3a 1317 f1ba
00000140: 4642 c3bc 5bd2 dbbc 9cbe 4bbd d6fe 4ebd
00000150: eaa5 433d c8af 8ebb 2523 9dbc 0368 263d
00000160: b885 73bd 70b3 f7bc 26e5 cdbb b314 6f3c
00000170: 6e61 0dbc ae90 68bc 7ab9 6d3d 0ba8 f4bc
00000180: 044b b63c f0b3 243d c852 9d3c 293f 58bc
00000190: 479f 6bbd 95d7 2ebd d8dc 9bba 109c 5f3d
000001a0: 58a4 46bc 2a0f 933b 533b 353d 3ecf debc
000001b0: d50e 653b faae f6bc 3328 263d be29 c13c
000001c0: 69cf dbbc c1d0 19bd 2fa2 6ebd e3b3 383c
000001d0: b8c8 163d 9fa0 ca3c 6a97 363d 6c2f 12bd
000001e0: a2ae 9e3b 7001 b8bc 63d6 383d dcda 093c
000001f0: bebb e13b fdce 13bd 4cd1 14bd a587 5cbd
00000200: 0d16 2b3b e173 4abd 50a7 3dbd e7cc 7dbd
00000210: ecee 06bd 4da1 5f3d fe53 f0bc 680c 18bc
00000220: 634c b2bb 8b47 21bd 8578 b03b e94f 1bbd
00000230: 8e8e e83c 7fe8 7abc 7572 303c 6f81 b3bc
00000240: fd78 2e3d 9aed 2dbd a044 5d3d 6588 6fbd
00000250: 6555 a5bc 4c41 563d a8ee fa3c 7acd b5bc
00000260: e317 8cbc 0230 d5bc c03a 11bc 1f84 06bb
00000270: 761b 523d 47bb 363d b4a9 64bc 1f7a b03c
00000280: 2db1 523c 5719 a8bc 4324 fb3c 6997 cb3c
00000290: 9689 f33c 4cc6 d3bc 399f bd3c 19ed a33c
000002a0: 3f59 20bc 5727 20bd 964a 1c3c 764a 1c3c
000002b0: 9c9a a03c c755 783d 51b5 fabb 650f f23c
000002c0: c5fb 8fbd 9761 6fbd 5486 083d 2afc 0d3d
000002d0: 8076 623c 25d1 163d 4fde 3a3d d6d6 03bc
000002e0: a43b 983b 7d94 60bc a99d 343d e74d 91bc
000002f0: 5230 10bd d483 47b9 208e 09bb 04bc 2e3d
00000300: 1544 f6bc abfa 103d f9d9 2fbd 95b8 61bd
00000310: 4181 18bd 505d 433d c3b3 52bd 6681 bcbc
00000320: 1841 7cbd dd4e 5f3d cd8b b23c c843 02bd
00000330: c48a 4cbc 101f 1d3c 9ef4 d33c 3036 8fba
00000340: 1cb0 b2bc cbc5 43bc 10c2 3e3d d04e be3c
00000350: b3fc 0dbd 91bd 4e3d 67b3 f63c 844c 3ebd
00000360: 2b58 acbc 788a 15bd 3720 04bd 2bc4 6dbd
00000370: ece6 0d3d 4fd4 44bc 2e50 5c3d d392 75bd
00000380: c202 653d 37ff 803d f7b2 323c 7f08 383d
00000390: c9f7 2f3d 3a49 cfbc b6a2 9a3c 7563 63bd
000003a0: 8db8 383c 541e f53c 847d 0a3c e776 af3b
000003b0: e8d2 713d 1e31 7bbc 50e1 673b 401f 37bd
000003c0: 456b 12bd 53ce 913c b7f2 4ebd fda5 4fbd
000003d0: 331e 1dbc 7f40 353b 78d0 3fbc b49c 453d
000003e0: e06f 803c 0624 dbbc fe66 2d3d 38c2 9e3c
000003f0: 9de2 7a3d f43b 6cbd 7d45 d43b dab6 55bd
-0.022453394 0.028097967 -0.04404119 -0.06483312 0.0038394418 -0.0072973603 -0.051586438 0.054204404
0.039949127 0.028387323 0.03408287 0.021315496 0.05765269 -0.061662097 -0.011819873 0.019149236
-0.021707363 -0.013580761 -0.067295544 0.01202586 0.013731462 0.023664473 -0.06774429 0.028514314
0.027398977 -0.018798443 0.057128094 0.017368916 -0.01821445 0.032638066 -0.012383077 0.022486467
-0.02751569 -0.03130431 -0.05895122 -0.019049503 0.027503937 0.023790635 -0.034529556 -0.058907416
0.006704244 0.012163002 -0.03365406 0.0021284332 0.022213114 -0.05283244 -0.05515823 -0.0023110912
0.040917154 0.028706152 -0.038479734 0.016777242 0.038229216 -0.048217136 -0.004870797 0.020577518
-0.027801294 -0.035227247 -0.023496414 0.017380135 -0.034927394 -0.056048535 0.015844082 0.029969709
0.051331352 0.031917732 0.0057863975 -0.043446824 -0.0041320953 -0.044789758 0.014402725 -0.05127412
-0.05564337 -0.059250407 0.045767494 -0.05300343 -0.042689174 0.0024130724 0.0012084481 -0.0018393717
-0.023835313 -0.026833704 -0.049742326 -0.050536 0.04776565 -0.004354451 -0.019181797 0.040626537
-0.059453696 -0.03023693 -0.00628342 0.014592337 -0.008629186 -0.014194651 0.058038212 -0.029865285
0.022252567 0.040210664 0.019204512 -0.013198652 -0.057524946 -0.042686064 -0.0011891378 0.054592192
-0.012124144 0.0044878917 0.04424603 -0.02719843 0.0034951468 -0.030112732 0.04056568 0.023579475
-0.0268323 -0.0375526 -0.05826014 0.011273357 0.036812514 0.024734793 0.044577993 -0.035689756
0.004842595 -0.022461623 0.04512633 0.008413997 0.0068888357 -0.03608607 -0.036332414 -0.0538403
0.0026105673 -0.049426917 -0.04630214 -0.06196299 -0.032942697 0.054597188 -0.029336926 -0.009280302
-0.005441235 -0.03937487 0.005385461 -0.037918005 0.028388288 -0.01531422 0.010769476 -0.021912305
0.042595852 -0.042462923 0.054020524 -0.058479685 -0.02018232 0.052308366 0.030631378 -0.022192705
-0.017101234 -0.026023868 -0.008864105 -0.0020525528 0.05129572 0.044612195 -0.013956476 0.021542607
0.012859625 -0.020519895 0.03065694 0.024852471 0.029728692 -0.025851391 0.023147212 0.020010518
-0.009786903 -0.039100017 0.009539267 0.009539237 0.019604973 0.06062868 -0.007651009 0.029548356
-0.07030443 -0.05844268 0.03333123 0.03466431 0.013822198 0.03682055 0.045622166 -0.008046826
0.0046457816 -0.013707277 0.04409567 -0.017737342 -0.03520233 -0.00019027229 -0.0020989254 0.042659774
-0.03006176 0.035395306 -0.042932484 -0.05510767 -0.03723264 0.04769641 -0.051440965 -0.02301092
-0.061585516 0.05451857 0.021795178 -0.031802922 -0.012484256 0.009589925 0.025873479 -0.0010926183
-0.021812491 -0.011949013 0.04657179 0.02323094 -0.03466482 0.050473753 0.030114843 -0.04645969
-0.021038136 -0.036509007 -0.032257285 -0.05804841 0.034644052 -0.012013509 0.053787403 -0.059954476
0.055910833 0.06298678 0.010906926 0.044929978 0.042960916 -0.025303472 0.018876415 -0.05551477
0.011274469 0.029921688 0.008452777 0.0053547504 0.059039026 -0.015331535 0.00353821 -0.044707537
-0.03574683 0.017798578 -0.05052444 -0.050695408 -0.00958972 0.002765685 -0.011707418 0.048245147
0.015678346 -0.026750576 0.04233455 0.01937972 0.06125127 -0.057674363 0.00647801 -0.052176334

fc1.bias f4 [120]
00000000: b14f c6bb ab85 68bd 721f e63b 8c7c 05bc
00000010: 29a0 aabc f8c8 0dbb f228 fa3c ce9c 16bd
00000020: ad28 013d 96b1 4a3c daae 403d 1266 37bb
00000030: 9767 4dbd d532 4ebd d42c 273d caef c9bc
00000040: 546b 683d 9412 6b3d 0f1d 2b3c 7e55 26bd
00000050: 0336 e1bc f9fd 4cbd 7c2c 393c 5d78 ca3c
00000060: 73aa d43a 9f16 80bc c5f8 22bd edcf 99bc
00000070: b704 f23c 2dee a93b 9494 2d3c 160a 78bd
00000080: 921d f7bc 0852 16bc c5d1 893c 98a6 063d
00000090: 6c45 133c 80c4 673d 607f 443c d507 fe3c
000000a0: 0f07 f43c f7a2 e03c e24e 8e3c dc6e 133d
000000b0: 5dc8 84bb e60f 533d dd43 553d 8289 c53c
000000c0: 50f0 2cba d890 5a3d 4490 afbc e48f 923c
000000d0: 7afd 6d3d 9606 4b3d f1f7 a13b b0b0 8f3b
000000e0: d60b 02bc 8458 ee3c 2d71 79bb 5125 063d
000000f0: 9a4d 96bc 4777 303d aa45 143c 4187 50bd
00000100: a5bc a53c 9d32 263d d818 f73c f03f 0fbd
00000110: 53c0 12bc 332a 01bb c2e1 dabc 4bda 933c
00000120: 7e22 42bd f8ea 88bd 97d4 803d 7198 afba
00000130: b745 703c acb0 2b3d b1bd 473d c5fe 5abd
00000140: 2ec3 503d 1c0c 5c3c 0b52 fa3c c435 9b3c
00000150: 2ff1 ad3c f187 803c 30b0 a9bb 8151 553d
00000160: 0dd1 7b3d 7545 823c 5da7 603c 1129 40bd
00000170: cf10 083d 6348 e9bc ff03 413d 24cf 6c3a
00000180: dc6e 43bd 8e23 76bd bd5f 443d 9535 3d3d
00000190: 5ac8 51bd 41d1 a83c 55da 5c3d 8d9c 27bd
000001a0: 5f59 7e3d 478b 803d 48fa a23c 0ce6 333d
000001b0: 68d3 643c 66bd f9bc 7e79 c03c 4cef 39bc
000001c0: 4c69 2a3d 1998 893c 271e 65bd 4d8f 843d
000001d0: 1447 61bc bf9a e8bc 780e 103d 1e51 86bc
-0.0060519804 -0.0567681 0.0070227915 -0.00814737 -0.020828323 -0.002163468 0.030537102 -0.036770634
0.031532932 0.012371441 0.04704175 -0.0027984423 -0.05014762 -0.050341446 0.040814236 -0.024650473
0.05674298 0.057390764 0.01044394 -0.040608875 -0.027491575 -0.050046895 0.01130211 0.024715597
0.0016225114 -0.015635787 -0.039788026 -0.018775905 0.029543264 0.0051858635 0.010594506 -0.060556494
-0.030165467 -0.009174831 0.016823659 0.03287372 0.008988719 0.05658388 0.011993259 0.031009594
0.029788522 0.027421458 0.017371599 0.035994396 -0.0040522055 0.051528834 0.052066673 0.02411342
-0.00065970886 0.05336079 -0.021431096 0.017890878 0.058103062 0.049566828 0.004942887 0.0043850765
-0.007937392 0.029094942 -0.0038061843 0.03275043 -0.01834755 0.0430825 0.009049812 -0.05091024
0.020231554 0.040575612 0.030163214 -0.034973085 -0.0089569865 -0.001970899 -0.026718978 0.018048426
-0.047396176 -0.06685442 0.06290548 -0.0013396872 0.014665059 0.041916534 0.04876489 -0.053465623
0.050967388 0.0134306215 0.0305567 0.018946536 0.02123317 0.015689822 -0.005178474 0.05207968
0.061478663 0.01590226 0.0137117775 -0.046914164 0.033219155 -0.0284769 0.04712295 0.0009033552
-0.047713146 -0.0600925 0.047942866 0.046193678 -0.05121646 0.020607593 0.053919155 -0.040920783
0.06209695 0.06276565 0.019894734 0.04392056 0.013966419 -0.03048582 0.023495432 -0.011348557
0.041604325 0.016796159 -0.05593696 0.06472645 -0.0137498565 -0.028394101 0.03517005 -0.016396102

fc2.weight f4 [84, 120]
00000000: 451e b53d 481f 233d 0e05 003d 30ac 9e3d
00000010: 7c36 3bbd 6d45 65bd 95bf 133d f988 9fbd
00000020: 42c8 823d a016 493d d3ed a93c 71fe 38bd
00000030: a7fa 64bd 404f 9bbd cdf5 e4bc 9ca5 523d
00000040: 143a afbd ad62 bf3c b88c b13c 1d4c 01bd
00000050: f71b 20bd 8c67 57bd a5db 583d 7bb8 8dbd
00000060: be46 a13b b237 7bbd 4586 a83d 9cc3 aebd
00000070: a5c9 6cbc 6b53 bcbd d6e3 92bd 1ea9 a4bd
00000080: 6756 153d d3df 2bbd 25e7 33bd 6009 3f3d
00000090: 0ec7 80bc 18d1 5abd 6759 28bb c40c 9e3c
000000a0: b2c7 9f3d 1904 963c 967d 843a 3c5c ac3d
000000b0: 3224 873d a8b7 8ebd 963f 57bc 9dff 7abd
000000c0: 3fb5 dabb 9230 adbc ca2b dabc 4feb da3c
000000d0: d51e 27bc d756 093d 222f 3ebd c363 073d
000000e0: 6656 3bbd 27ff b3bd b5e1 a3bd 5f27 88ba
000000f0: 74a6 48bb 3179 2b3d 3b6c dabc b1ee 37bd
00000100: 66a8 84bd 20dd a03d e6b4 57bd 3ef3 9f3d
00000110: 0bf8 b4bd 4f27 d03c 75c9 9f3d 2c70 88bd
00000120: 6cab 9ebc c9e3 5abd d38e be3c 7d42 d0bc
00000130: 326f 3abd 9476 853c 7bd6 1cbc 4798 be3c
00000140: f733 9e3d 902e 863c 749a 7dbd e049 83bd
00000150: 2450 45bd ea0b 3abd a9a0 a33d 25fb 953d
00000160: 8320 233d 3612 26bd a539 bfbd eb19 a53d
00000170: 136c aabd 09af 6dbd 5b3b 69bd 587e 8d3d
00000180: 5b7f 973d ec03 78bd 8047 bdbd 9f93 7a3d
00000190: 92bc 193c c946 76bd 1f6f 103c 2cc1 a1bd
000001a0: 0f68 aa3d c4bd 853c 0da7 833d b0e7 a03c
000001b0: 2b8d a33d 2529 433b 690f 523c 9a8d 4c3b
000001c0: d928 ea3c ea1d 943d f7eb 07bc 2941 d4bc
000001d0: eb72 c63c 0bd2 7e3d 874d d5bb 08e8 df3c
000001e0: 2fd3 79bd ff15 843c d50b c23c a164 88bd
000001f0: adce 6ebd 327c 143d ca03 32bb 7716 69bd
00000200: 4b26 0a3e aa9f 223c 9702 34bd b26f 8f3d
00000210: f421 ffbc ace9 3b3d c38b f3bc b61a e63d
00000220: 77e6 c93c 6841 b1bd 1d4c 69bd c284 3f3c
00000230: 9527 d73d ff1e bc3d 17b3 db3d 2d84 c2ba
00000240: 7695 083e 6d51 833d 824f a2bd b978 7cbd
00000250: 0ec4 e63d fc3f 5dbd cca1 9d3d 27ae 78bd
00000260: 3551 6e3d e35e 95bd e076 4f3d 903a d23d
00000270: 2fb0 8b3d 430c 143c c0ad 7cbd a2cf acbb
00000280: 996e b8bd d7fc b6bd eea1 49bd 3c6f 0b3d
00000290: 6437 a63c b01d aabc eeee 2cbd 9f0c 713d
000002a0: cfb8 93bd 05f1 323d 6014 b23c 10e2 94bd
000002b0: 744b 37be 59c4 b9bc ffc4 88bd 3d95 3cbd
000002c0: 83a9 803d b0f9 d23c 405f 243e 32d0 c1bd
000002d0: a2f1 b53d 3452 643d 8214 a6bd febd 033c
000002e0: a3db 34be 94e9 0a3d 81e6 56bd 7e80 ac3d
000002f0: 0571 d93c e3b5 53bc 329c ee3c 8103 0fbd
00000300: 743c 0bbd 5d40 863d de73 603d f51b 9c3d
00000310: b16d a5bd 2688 a13d d26a 063e 062e ed3c
00000320: e3d1 a2bb 3fd3 9f3d 969e 8bbd 30be adbc
00000330: 0bd6 65bd c15b a03d fea0 07be 0aac 473e
00000340: 7775 12bd 91ff 8abd 78df 723d 81a1 8c3b
00000350: 44bb 1ebd 60d4 50bd 638e 3bbd dacb 78bd
00000360: 98de 653d 45c2 153d 8002 54bd 847e 3a3d
00000370: 9f79 24bd bcd2 c13d 9e82 12bc ac6e 2a3c
00000380: 922f 26bc fef0 5fbd 7f29 7c3d 1ac2 8fbd
00000390: b6cb 3c3d 6ed5 473d afa3 c63d 6d48 89bd
000003a0: 6a8d aa3c 7af9 d4bd 1ddc 8fbd 1d62 653d
000003b0: 8006 8d3b 528c 95bc 2d08 3d3d 8c33 6f3d
000003c0: b046 4c3d 39a5 48bd cf8b 8b3d 7cb2 1bbe
000003d0: c8c2 733d 08ba 8cbd 8101 223d 9eef 15bc
000003e0: 08bf 483d 2a07 ddbb 88f3 0fbd ae96 343d
000003f0: 9ac6 603d f4fa 4bbd ae37 253d b80d e43d
0.08843664 0.039824754 0.03125482 0.07747686 -0.045706257 -0.055974413 0.03607138 -0.07789797
0.063858524 0.049093843 0.020743286 -0.04516453 -0.055903103 -0.07583475 -0.027949238 0.05142747
-0.085559994 0.023362482 0.021673545 -0.031566728 -0.03908917 -0.052588984 0.052943844 -0.069199525
0.004921763 -0.061332412 0.08228735 -0.08533403 -0.014452373 -0.09195598 -0.071723625 -0.08040069
0.036459353 -0.041961502 -0.04392161 0.0466398 -0.015719917 -0.053422064 -0.0025688054 0.019293196
0.07801761 0.0183125 0.0010108228 0.0841603 0.065987006 -0.069686234 -0.013137719 -0.061278928
-0.0066744382 -0.021141324 -0.026632208 0.026723532 -0.010200222 0.033530083 -0.046431668 0.033054125
-0.045736693 -0.08788901 -0.080020346 -0.001038771 -0.0030616792 0.041863624 -0.026662936 -0.04490537
-0.06477432 0.07854676 -0.052662753 0.07810067 -0.08836373 0.025409369 0.07802097 -0.0666202
-0.01936885 -0.05343989 0.023261463 -0.02542233 -0.0455162 0.016291894 -0.0095726205 0.02326597
0.07724755 0.016379625 -0.061914876 -0.06410575 -0.04817213 -0.04542152 0.07989628 0.07323293
0.039825927 -0.04054471 -0.09337167 0.08061584 -0.08321395 -0.058028255 -0.05694137 0.06908864
0.07397338 -0.060550615 -0.09242153 0.06117594 0.009383338 -0.0601261 0.008815556 -0.07898173
0.08320629 0.016325839 0.06428347 0.019641727 0.0798591 0.0029779163 0.012821057 0.003121233
0.02858393 0.07232268 -0.0082960045 -0.025909977 0.024224719 0.06221203 -0.006509486 0.02733232
-0.060992416 0.01612377 0.023687283 -0.066598184 -0.05830257 0.036251254 -0.0027162903 -0.05690619
0.1349117 0.009925762 -0.043947782 0.07003726 -0.03114412 0.045877144 -0.02972973 0.112355635
0.024646027 -0.086550534 -0.056957353 0.011689367 0.105055965 0.091855995 0.10727518 -0.0014840417
0.13338265 0.06412015 -0.07925321 -0.061638568 0.11267863 -0.0540161 0.07696876 -0.06071296
0.058182914 -0.07293489 0.050650477 0.10265076 0.06820714 0.009036127 -0.06168914 -0.005273775
-0.0900547 -0.08934944 -0.049226694 0.03404163 0.020290084 -0.02076611 -0.04222005 0.058849927
-0.07212984 0.043686885 0.021738231 -0.072696805 -0.17899877 -0.022676634 -0.06678199 -0.046040762
0.06282332 0.025753826 0.1605196 -0.09463538 0.088839784 0.055742458 -0.0810938 0.008040903
-0.1766191 0.033914164 -0.05246592 0.084229454 0.02654315 -0.012921783 0.029127214 -0.03491545
-0.0339932 0.06555245 0.054798 0.0762252 -0.080775626 0.078872964 0.13126686 0.02895261
-0.004968868 0.07803964 -0.06817357 -0.021208853 -0.05611233 0.07830001 -0.13245007 0.19499221
-0.035756554 -0.06787027 0.059295148 0.0042917137 -0.03875281 -0.050983787 -0.045790087 -0.060741283
0.056120485 0.036562223 -0.051760197 0.04553081 -0.04015505 0.094640225 -0.008942274 0.010402363
-0.010143178 -0.054673187 0.06156301 -0.07019444 0.04609271 0.048787527 0.09699189 -0.06703267
0.020819385 -0.103991464 -0.07024405 0.05600177 0.0043037534 -0.018255387 0.046150375 0.05839877
0.0498721 -0.048985694 0.06813776 -0.15204805 0.05951193 -0.0687142 0.039552215 -0.0091513675
0.049010307 -0.006745239 -0.03514436 0.04408901 0.0548769 -0.049799874 0.040336303 0.11135429

fc2.bias f4 [84]
00000000: 9128 7c3a 77e7 a43d cec5 1a3b 52e5 b53d
00000010: 6244 49bd 4763 e83c 5b54 2abd c7b3 cb3a
00000020: d501 6fbd ab66 06bc e289 873d 2734 31bd
00000030: 7b1b 07bd fc5a 9dbd d73d afbc 1da8 8fbd
00000040: 7d83 f9bc 3d03 83bd 316e 883d 1b94 a4bc
00000050: a89f 1dbd 753f 3d3d ebc8 643d 2edc 5c3d
00000060: 5348 17bd 7265 c43d e502 ce3c 89c5 6e3b
00000070: 2114 493c 9065 253d d383 6abd b991 d23c
00000080: 71b9 913d 2d41 ad3d dedd e3bb f76c 533d
00000090: 5877 56bd eb1f 9bbd 5869 e93b 1b5d 4e3d
000000a0: ee94 84bd 3c56 163d daa1 6c3d c806 4dbd
000000b0: 5e05 8f3d 3ede 943d 472b 3fbd 1794 ab3d
000000c0: 6104 96bd bcab a1bc f7de 473d ae48 73bd
000000d0: d100 4a3d 5021 403d c7e2 36bd 76ea fa3b
000000e0: 38cc 9f3d 8b5a 5ebd 4d4c 063b f4ec 51bd
000000f0: 3396 80bd 9dab 73bc d77b 1f3c d01b 913d
00000100: 0db6 aa3d 4537 d03c b5cd 8dbc fe48 0e3d
00000110: 2456 673d ff62 02bd 49b5 1e3d 6f7e b33d
00000120: 48b0 153c 012b 863d aa40 983c 698d 7d3d
00000130: 0ed4 c13d 9fbf 923d e236 64bd ab3b 153d
00000140: 3574 963d e20a b13b b448 95bc af41 11bc
0.0009619082 0.08051961 0.0023616436 0.0888163 -0.04913748 0.028367652 -0.041584354 0.0015541249
-0.058351357 -0.008203189 0.06618096 -0.043262627 -0.03298519 -0.076833695 -0.021391792 -0.07014487
-0.030458206 -0.06397102 0.06661642 -0.020090153 -0.03848234 0.046203095 0.055855673 0.053920917
-0.036934208 0.09589662 0.025147865 0.0036433658 0.0122728655 0.04038006 -0.057254624 0.025704252
0.07115448 0.08459697 -0.006953939 0.05161759 -0.05235991 -0.07574447 0.0071231537 0.05038176
-0.064737186 0.036703333 0.05777154 -0.050055295 0.069834456 0.07268952 -0.046672132 0.08377855
-0.07325054 -0.01973521 0.04879662 -0.059395485 0.049317185 0.04690677 -0.044649865 0.0076573445
0.078026235 -0.054285567 0.0020492256 -0.051251367 -0.06278648 -0.014872459 0.009734116 0.07085383
0.08335505 0.02541698 -0.017310003 0.03473758 0.056478634 -0.03183269 0.038747106 0.0876435
0.009136267 0.06551171 0.018585522 0.061902437 0.09464274 0.07165455 -0.055716403 0.036433857
0.073463835 0.0054029087 -0.018223144 -0.008865758

fc3.weight f4 [10, 84]
00000000: da25 aa3d f5a0 7f3e c8b7 513e 8a62 3abd
00000010: ff81 bbbd c08b 4dbe 3cfd 223d 88c9 e33d
00000020: 27f5 3b3d 22ad 4abd b842 893d 8a79 d6bd
00000030: 3d84 c83d 684c 0cbe b523 a6bd 5175 573c
00000040: 5d5d 2c3c 7185 03bd d1a1 84bd b391 b1bd
00000050: 938e 873d 4bae 77bd 550c f83d cf9e 19bd
00000060: 6301 0dbc 5049 b0bd 4b56 e63c edc9 3abe
00000070: ea4a 083e 95ac 53bd 2528 a93d b418 79bd
00000080: 2af2 a5bd aa01 00be 2824 d9bd d2a4 993d
00000090: ce45 b03d c1e8 d6bd 464c 10be 3ce4 3cbe
000000a0: f16d 9abb e119 86bd 681f 113d a8e5 d8bd
000000b0: 75b8 90be 942a c9bd d0a8 23be 7305 51bd
000000c0: 06b8 b43d 41a1 b33d 4852 e93d af9f 09bd
000000d0: 4fd6 4bbe 6094 d3bd 0d0d cebd af90 ac3e
000000e0: 7f56 023e 1540 393e 2548 a23c 5b46 bd3d
000000f0: 0539 36bd 56f3 7d3e 486c 133e bb27 d2bc
00000100: f105 1cbe 17e3 6dbd d18a adbc b1af 7dbe
00000110: 5273 62be 9ecb 843e 6a65 a23d 9722 8bbe
00000120: 8b92 d1bc 0486 81b9 a5f3 7fbe ea06 2ebe
00000130: c6ab 51be 6913 12be c36c 2e3d 9828 9b3d
00000140: 7453 853d 11c4 e53d 002e c5bd fa7f b83d
00000150: 7e0a 7cbd a2c8 38be 774d 32be 24bc 20be
00000160: 14b6 d03d 6161 333e d8db ae3c 3349 413e
00000170: 5a46 0abe 07f4 9cbd 4989 15be 42bb 3e3d
00000180: 0d55 d6bd 8b84 2a3e d513 5d3d 057f 753e
00000190: 991c ba3d 84b8 8ebd d003 163d b2d1 40bc
000001a0: 0a55 c9bc 734f 313d dfa6 cfbb 6665 91bd
000001b0: 3b04 8dbe a248 823d 4f28 85bc 498b babd
000001c0: 7816 39be ea1e 49be 5002 663d da67 af3d
000001d0: a133 fd3d 3638 793e a7d6 8fbd 151d 3ebd
000001e0: f0ee f2bc 6c39 a1bd d8b1 b2bd 864c 85bd
000001f0: e05d a2bd 6bc4 6e3d c4f3 5dbe 5b95 4e3c
00000200: 32af 373d 7e0e 6cbe d7a9 283e efd3 08bd
00000210: 38aa d2bd fb48 0dbe 3ac6 28be b25c 35bd
00000220: 89da 7e3d 16c6 163d 296d 343c 90e9 573d
00000230: f93c 0c3e 1b1c b73c 4661 cdbd ade3 9bbd
00000240: 96b3 873d 9c35 7d3e 00f8 04be 06b5 cebc
00000250: 74ba 01be 35c2 93be 2853 4cbe ac63 7ebe
00000260: 0164 903e f831 6fbe c5f7 81bc 4673 aa3d
00000270: 4433 1e3e 2d63 183e f3e4 ac3e 5bac b83e
00000280: c8a1 b43c d393 9cbd e469 823d 1e0c 893d
00000290: 00a0 c0bd cf40 cabd 200a c4bd 07af c3bd
000002a0: 6852 913d ff1c d6bc 2305 ddbd 8bd8 32be
000002b0: 1dd2 41bb 63d2 69bd 98cc 393e 7338 9e3e
000002c0: 41fd c2bd 7b16 9b3d 34dc 553c 903e a0bc
000002d0: 794b 78bd 3683 53bd 28f9 993d b964 d2bd
000002e0: 181e d83d 2dd8 cdbb 2af4 0fbc 5f5d 75bd
000002f0: d1c3 663d 2245 293c 4ba0 d63d fd4e 48bd
00000300: 84da a9bc 1ce4 283d 6094 363e 4e25 3abd
00000310: 47c0 3e3e 4feb eabc e614 ac3c 2ba9 05bd
00000320: 643e 0a3d 0ee7 543e 1801 d8bd 85a6 203d
00000330: 1f0d bfbc 31d3 abbd ab43 1bbd b972 18bd
00000340: 3866 3d3e fe16 8ebd 32c0 15bd b85e 443d
00000350: f40b 533e de8a 63bd 3a54 11be c575 d5bd
00000360: 0a26 a2bb cbad a53d eedc af3e 38b4 7b3e
00000370: ec16 fc3d 563f 04be 0e6c f7bd 8c9e 33be
00000380: 72eb a53d 5c6c fdbc c2f0 293e 4ac8 df3d
00000390: 7ca1 e23d e024 a4bd 8e53 a6bd d755 473d
000003a0: 1211 6f3d 78e2 383d ff06 82be 9652 4abd
000003b0: 9dd2 88bd 3094 3cbd 10e2 63bd e6e7 92bc
000003c0: e32c 4dbd 99c3 80be 493e 233e 2631 f7bd
000003d0: 2843 22be ba63 acbd 513a cdbd 5dac 003d
000003e0: 7399 85bc 3223 883c eefc 913d 0313 093d
000003f0: ff67 b0bd 80cf 0ebd 8ad8 2cbe 7717 e33d
0.08308001 0.24963744 0.20480263 -0.04550413 -0.09155654 -0.20072842 0.039792284 0.111224234
0.045888092 -0.04948152 0.06702179 -0.104724005 0.097908475 -0.13701022 -0.08112279 0.013150529
0.010520306 -0.03210968 -0.064761765 -0.08670368 0.06618991 -0.060468953 0.12111727 -0.037504967
-0.008606288 -0.08607733 0.02811732 -0.18241091 0.13309827 -0.05167826 0.0825961 -0.060814574
-0.0810283 -0.12500635 -0.106025994 0.0750214 0.08607064 -0.10493613 -0.14091596 -0.1844644
-0.004712813 -0.06547905 0.035430342 -0.105906785 -0.2826573 -0.09822574 -0.15982366 -0.051030587
0.08824162 0.08770991 0.11392647 -0.03359955 -0.19905971 -0.10331035 -0.10061083 0.33704135
0.12728308 0.18090852 0.019809792 0.09241935 -0.04448797 0.24799857 0.14396775 -0.02565371
-0.15236641 -0.058077898 -0.021184357 -0.24774052 -0.22114304 0.25936598 0.079294994 -0.27174827
-0.025582572 -0.00024704647 -0.24995287 -0.16994825 -0.20475683 -0.14265217 0.042584192 0.07576102
0.06510058 0.11219037 -0.096279144 0.090087846 -0.061533444 -0.18045285 -0.17412363 -0.1569677
0.10190979 0.17517616 0.021345064 0.1887558 -0.135034 -0.07663732 -0.14603151 0.0465653
-0.10465441 0.16652124 0.05397399 0.23974235 0.09087486 -0.06968787 0.03662473 -0.011768745
-0.024576683 0.04328866 -0.0063370313 -0.07099418 -0.2754229 0.0636151 -0.016254572 -0.09108598
-0.18074977 -0.19640699 0.05615455 0.0856473 0.12363363 0.24337849 -0.070233636 -0.046414454
-0.02965495 -0.078722805 -0.08725327 -0.06508736 -0.079280615 0.058292788 -0.2167502 0.012608851
0.044844814 -0.23052403 0.16471039 -0.03340524 -0.10286373 -0.13797371 -0.16481867 -0.044277854
0.06222013 0.036810003 0.011012354 0.052712977 0.13695134 0.022352269 -0.10028319 -0.07611785
0.0662605 0.24727482 -0.1298523 -0.025232803 -0.12668782 -0.28859106 -0.19953597 -0.2484271
0.28201297 -0.23358905 -0.015865216 0.08322768 0.15449244 0.14881583 0.33768424 0.36068997
0.0220498 -0.07645383 0.06367853 0.06691764 -0.094055176 -0.098756425 -0.09572244 -0.09554868
0.07095796 -0.026136873 -0.107919954 -0.17465417 -0.00295747 -0.057085406 0.18144453 0.30902442
-0.095209606 0.07572647 0.013052989 -0.019561082 -0.06061885 -0.051638804 0.07518226 -0.102731176
0.10552615 -0.0062818737 -0.008786241 -0.0599035 0.05633909 0.010331424 0.10479792 -0.048903454
-0.02073408 0.041233167 0.17830038 -0.045445733 0.18628035 -0.028676657 0.021006059 -0.032632034
0.033750907 0.20791265 -0.105470836 0.039221305 -0.023321686 -0.08389891 -0.03790633 -0.037218783
0.18496025 -0.06937979 -0.036560245 0.047941893 0.20610029 -0.055552356 -0.14192286 -0.104228534
-0.0049483823 0.08089789 0.34348243 0.24580467 0.123090595 -0.12914786 -0.12081157 -0.1754095
0.08101548 -0.030935459 0.16595748 0.10926874 0.11065957 -0.08014846 -0.081214055 0.048665848
0.05836589 0.045137852 -0.25395963 -0.049395166 -0.06680796 -0.04603976 -0.055635512 -0.017932843
-0.050091635 -0.2514923 0.15941729 -0.12069921 -0.1584593 -0.08417459 -0.100208886 0.03141438
-0.016308522 0.016618345 0.07128321 0.033465397 -0.08613586 -0.034865856 -0.16879478 0.1108846

fc3.bias f4 [10]
00000000: 3d10 f0bc 96d4 bd3d 2f3d 19be 368c 7bbd
00000010: 03d1 ee39 e159 19bd d7d9 ecbd 810c 753d
00000020: eae4 d2bb fd4b 563b
-0.029304618 0.09269063 -0.14964746 -0.061413012 0.00045550623 -0.03743923 -0.11564987 0.059826378
-0.00643598 0.00326991
