global_mnist_cnn.pt (torch, 181781 bytes, 10 tensors)

conv1.weight f4 [6, 1, 5, 5]
00000000: 8045 3d3d eee7 a33e 007d 923e 7c6c 523e
00000010: 5fec 5abe cdb1 5c3e 3a93 033f 0d42 0b3d
00000020: 7c5d bbbe 0a2c 0fbe 4053 c23e d0c5 833e
00000030: b57f 28bd d97a e3bd 1615 313e e496 b13d
00000040: ffd7 023e cd33 3bbb d4e1 183e f857 123d
00000050: 3952 6cbe e187 f43d 21fa 38be 75fa a8bd
00000060: ab9d d0bd 647c 6bbe c4ad cebd fd93 16be
00000070: f251 b83d 8466 fb3c 927e a4bd 483d d3bd
00000080: d811 7ebe 22f1 24be ae1c 5cbe 6250 14be
00000090: 3564 bcbc 20e2 f2bd 7d4c 13be 85e0 44be
000000a0: 046c b63c 644e 26be 0232 5bbe 8fea 78be
000000b0: 6a28 17be e554 a83e d5a3 bf3d 7ca4 b1bd
000000c0: 3c54 f73c f8fd 2abe 6279 84bd f0c2 223b
000000d0: 3e4b 96be 1950 73bd 58ff 37bd d907 d1bb
000000e0: 5e9f cebe b4cb 51be e190 e3be 824d 93be
000000f0: 1aad efbc 61ed 85be a07a 47be ad23 c3bd
00000100: cde1 07be e4e4 053f 2b27 743e e473 973e
00000110: b1d2 793e 4b11 2c3e 433e 683e 6668 a43e
00000120: 7847 af3e 4480 3f3e b0d0 a0bc b785 2cbd
00000130: 354c 98bd f5cf afbe 6515 76be 8ea3 b2be
00000140: 1e2c 1fbe d42a 47be 5724 07be 98ca 95be
00000150: 8a72 38be be93 83be 9f61 afbe d34d 5abe
00000160: 2400 6ebe 7843 b9bd 875d 64be a9e1 27be
00000170: 136a 613b f50c a13d 818e d03e 4c0a 07be
00000180: 1aaa 733e 3bce 403e b2cd 843e 6334 e13e
00000190: 35d8 9dbe 0eb1 673e 39ac 2f3e 0eba 2e3e
000001a0: df1b 55be 7ca3 a4be 0177 7b3e ef6e 923e
000001b0: 1227 0dbe bdc6 4cbe b5e5 17be 1d4a 6f3e
000001c0: ab1e e13d 6a72 e93d 3de5 70be 7521 29be
000001d0: 06f2 433e 3c60 aa3e 6375 913e 0c72 6c3d
000001e0: c744 ffbd 0546 ec3d 5f7e 773b cbe7 a63e
000001f0: 84e4 fdbd 74d4 713c 78e1 5cbe d4c7 83be
00000200: 3689 a7bd 5a7a 42be e217 533e 1470 8d3d
00000210: fcb4 66be 1c92 1bbe 5821 95bc 0875 8b3e
00000220: 070a bc3e 14bd a03e 73e9 5f3e 599d 21bd
00000230: 9ec8 05bd 4379 6f3e 3222 e83d 76aa 603e
00000240: 2c21 753e 344a d4be 8f00 08be 330b 05be
00000250: e3d0 3cbe 5b40 e6bd
0.04620886 0.32012886 0.28610992 0.20549196 -0.21379231 0.215522 0.51396525 0.033998538
-0.3659476 -0.13981643 0.3795414 0.25736856 -0.041137416 -0.11107416 0.172932 0.08671358
0.12777708 -0.0028564811 0.14929897 0.035728425 -0.2307824 0.11939979 -0.18064167 -0.08250896
-0.10186323 -0.2299667 -0.10091737 -0.1470489 0.09000005 0.030688532 -0.08031954 -0.10314423
-0.24811494 -0.1610761 -0.21495315 -0.14483789 -0.022997001 -0.11859536 -0.14384647 -0.19226272
0.022268303 -0.16240841 -0.21405795 -0.24308227 -0.1476151 0.3287727 0.0935742 -0.08673951
0.030191533 -0.16698444 -0.064684644 0.002483543 -0.2935428 -0.05940256 -0.04492125 -0.0063791093
-0.40355963 -0.20487863 -0.4444647 -0.2877007 -0.029257346 -0.26157668 -0.19480371 -0.09528289
-0.1326973 0.52302384 0.23843066 0.29580605 0.24396779 0.16803472 0.22680001 0.321109
0.34234214 0.18701273 -0.01963076 -0.042119708 -0.0743641 -0.34338346 -0.24031599 -0.34890407
-0.15544173 -0.19449931 -0.13197456 -0.2925613 -0.18012443 -0.25698656 -0.34254166 -0.2131875
-0.23242241 -0.09046072 -0.22301303 -0.16394676 0.00343955 0.078637995 0.40733722 -0.13187522
0.23795357 0.1882867 0.25938183 0.4398528 -0.30829015 0.22626135 0.17155541 0.17063162
-0.20811413 -0.3215598 0.24557115 0.2860026 -0.13784435 -0.19997688 -0.1483372 0.23368116
0.109921776 0.11398776 -0.23524947 -0.16516669 0.19135293 0.33276546 0.2840987 0.05772595
-0.1246429 0.11536793 0.0037764532 0.3259872 -0.123971015 0.014760125 -0.21570385 -0.25738394
-0.08180468 -0.18991986 0.2061458 0.06906143 -0.22529978 -0.15192455 -0.018204376 0.27237725
0.367264 0.31394255 0.21866398 -0.0394567 -0.032662027 0.23386101 0.11334647 0.21940026
0.23938435 -0.41462862 -0.13281463 -0.12992553 -0.18439059 -0.112427436

conv1.bias f4 [6]
00000000: 3db8 dd3b e877 6ebc 0f2b c1bd 984d 193d
00000010: 753b 54be df9b cebd
0.0067663477 -0.014554955 -0.09432041 0.037427515 -0.20725806 -0.10088324

conv2.weight f4 [16, 6, 5, 5]
00000000: 6df1 ecbd d280 2dbc 5ace cfbb 75e6 d8bd
00000010: d1dc 2cbd 097c d3bc 2e3b 483e 3a8e 5e3d
00000020: 826b c4bd db2d 08be d4a2 803d 66a9 6d3e
00000030: 2fde bcbd d08f 5bbe d2a9 b6bd 6838 71bb
00000040: ac58 213e 9fa1 08bc 3a09 27be f198 9cbd
00000050: f183 9bbd 989d 303d ac01 e53d a115 0bbd
00000060: 07b6 ffbc 7e0e 833b b067 d9bd c409 b2bd
00000070: d079 b0bd 432e 623d 9f5f 1d3c 27a9 d7bd
00000080: 13ac 32bd aa76 e1bb 3f48 c63c 3dff 36bd
00000090: 6819 8dbd 6632 283d 4b65 7dbd 9b28 083d
000000a0: fa12 f2bd e80b 72bc 2ca2 83bd 20d4 8a3d
000000b0: f158 38bd 9f14 e0bb ea6e 43bd 0fb7 e63b
000000c0: ab30 87bd f1d4 823b 5550 f5bd 903b 8d3d
000000d0: b357 82bc 825a e23c c143 8abc f89e 50bd
000000e0: 1b13 a0bd 1228 febd 51c2 1dbd 7a6b 903c
000000f0: 4fcc 2ebe 61e7 f7bd cd1e c3bc c690 01bd
00000100: 29af 3cbd 4a44 62be f3ab c23c 094c 063e
00000110: 2c15 0e3b c108 6dbc c49b 20be a73c 89bc
00000120: e1a4 b33c 86d0 db3d b49a b73d 26ee 42bd
00000130: df56 4dbd 693f 983c c80e 03bd 1f45 793d
00000140: 3f46 a6bd 25fd 83bd cb11 7c3c c178 9abd
00000150: ef52 8c3c 4487 18be cfb8 20be 49f2 96bc
00000160: d8f2 76bd 405c 0b3c 9401 30be cadd eebd
00000170: 2fd6 1abd 5f4b bf3d b96d 1ebd 61c6 96bd
00000180: affa 1ebe 1bf0 e9b8 39dd 0c3d a6d3 52bd
00000190: 4b04 fa3d 4213 2d3c 99df 6dba 01d6 eebd
000001a0: 8d00 3bbc dab9 2d3d ce9a 923d ba17 333b
000001b0: 4421 3dbd 8d25 28bd 4cdc 1f3d 7a7c a33d
000001c0: 30c2 ddbd 4949 dfbc 8055 8b3c 18af a63d
000001d0: c80d 943c 9636 763c 22e9 933c 95bd 503d
000001e0: b460 8bbc 8d21 d93d ed92 23bd feb1 03bd
000001f0: 5851 813c 5a63 413d a2a3 d33d f703 4fbd
00000200: 3f65 b4bd 0f35 3fbc 05d9 d9bd dfd3 babd
00000210: 47e6 023d 725e 62bc dd40 813d ace6 52bd
00000220: 48ef 9abd 771d 8ebb 00c2 8ebd 0f2d a1bd
00000230: 0345 c4bd b8c4 c9bc 1a42 25bd 7e31 56bd
00000240: c1c0 1bbc a6c8 82bd 8ed5 78bb 2c51 fc3d
00000250: 87a4 ed3c 2b4d 673d e67d 47bd 96af 0dbe
00000260: 8386 203b c914 143d 94bc e5bc e5dd 1f3e
00000270: 5130 0c3e b6b0 983d 7bd8 003e 1459 4b3e
00000280: 6d28 97bd b57e a93d 004f b23d 26bf 043e
00000290: abd4 f93d 4633 90be 64a8 8bbe 93e8 03be
000002a0: 76db 61be 0170 d8be e012 47be 1d3d 8cbe
000002b0: faef 1fbe d44b 5abe f4ea 40be 2066 3237
000002c0: 7f15 95bc 4869 4abd 95af d5bd 286e b9bd
000002d0: 45b6 56bd 77bf 6fbd c103 60bd 2752 43bd
000002e0: 964f 5dbc 1906 60bc 6a93 ef3b 1125 e4bd
000002f0: b833 9bbc 1d4b 533d 7836 103d d8af eb3d
00000300: 8409 dc3a 9142 1ebd 6bc3 363d c673 f03c
00000310: fb15 9f3d 8991 103d 59dd cf3d 2ade 003d
00000320: 2deb cdbc 4bd6 48bc 4857 d73d f2c7 933e
00000330: e629 913e 4c7e 61bc fd30 013e c51d 0f3e
00000340: 6228 2f3d de31 8ebd 56b6 c8bd 88fc 95bd
00000350: 6409 76bd 1cdb abbd e122 4cbe 4b30 8c3d
00000360: 3b3c bd3d d421 d2bc ce0a 34bb eafa 033d
00000370: 2e1d 5ebd 8e14 943d 7643 9fbd c870 0ebd
00000380: e4fe 07be 2fe2 a8bd aa25 833d 5210 da3d
00000390: d16a 7b3e 44d1 233e 4a9c a3bd 1499 acbc
000003a0: 588f cd3d 01b2 81bd cab5 a0bd 3c95 4bbe
000003b0: da0d e3bd 0234 fcbc b9e1 0cbe 749d e8bc
000003c0: 13b7 b9bd d420 f5bc dd8a 8c3d 63cd 233e
000003d0: cdcb f73d c8c9 af3c 044b 813d 953a e53d
000003e0: 04c8 92bd 82ae 1abd 47fc 0fbd d3f0 613d
000003f0: 6669 d5bb ca6c 1ebc 50be 203b 9e8d 113e
-0.11569486 -0.010589795 -0.0063417377 -0.10590831 -0.042202774 -0.02581598 0.19553825 0.054334857
-0.09590818 -0.13298742 0.06281057 0.23209152 -0.09222066 -0.21441579 -0.089191094 -0.0036807302
0.15756482 -0.008339315 -0.16312113 -0.07646359 -0.07593525 0.043119043 0.111819595 -0.033956174
-0.031214727 0.0039995303 -0.1061548 -0.08693269 -0.08616984 0.0552199 0.009605317 -0.1053031
-0.043621134 -0.006880601 0.024204371 -0.044677008 -0.068896115 0.04106369 -0.06186418 0.03324185
-0.11820026 -0.0147733465 -0.06427416 0.06778741 -0.045006696 -0.0068383957 -0.047713198 0.0070408653
-0.066010796 0.0039926698 -0.11978213 0.06896126 -0.015910959 0.027631048 -0.01687801 -0.050932854
-0.07816144 -0.124099866 -0.038515393 0.017629374 -0.17070125 -0.12104679 -0.023818398 -0.031632207
-0.046065483 -0.22096363 0.023763632 0.13114943 0.00216801 -0.014467419 -0.1568442 -0.016752554
0.021929206 0.10733132 0.08965054 -0.047590397 -0.050131675 0.018584924 -0.03199652 0.060856935
-0.08118867 -0.06444768 0.015385102 -0.07542563 0.01712939 -0.1489535 -0.15695499 -0.018426077
-0.060290188 0.008505881 -0.17188102 -0.11663397 -0.037801918 0.09340548 -0.03867886 -0.073620565
-0.15525316 -0.00011155029 0.034390662 -0.051471375 0.1220785 0.010563673 -0.0009074151 -0.11661912
-0.011413706 0.04241357 0.07158433 0.0027327375 -0.046174303 -0.041051436 0.03902845 0.079827264
-0.10828054 -0.027256625 0.017008543 0.08138865 0.018072978 0.015027663 0.018055502 0.05096205
-0.017013885 0.106021024 -0.03993504 -0.03215217 0.015785858 0.04721389 0.10333945 -0.05054089
-0.08808374 -0.011670365 -0.10637096 -0.091224425 0.03195789 -0.013816463 0.063112 -0.051489517
-0.075651705 -0.0043370086 -0.06970596 -0.07869922 -0.095834754 -0.024629936 -0.040346242 -0.052293293
-0.009506405 -0.06385927 -0.0037969085 0.1232017 0.029009117 0.056470077 -0.04870405 -0.13836512
0.0024494238 0.036152635 -0.028044023 0.1561199 0.13690306 0.0745558 0.12582581 0.198582
-0.073807575 0.082761206 0.08706474 0.12963542 0.12198766 -0.2816412 -0.2727691 -0.12881689
-0.22056374 -0.42272952 -0.19440794 -0.27390376 -0.15618888 -0.21317989 -0.18839628 1.0633405e-05
-0.018198727 -0.04941681 -0.1043388 -0.09054214 -0.05241992 -0.058532204 -0.05469108 -0.04768577
-0.013507744 -0.013673329 0.0073112743 -0.11139882 -0.01894556 0.051585305 0.035208195 0.11508149
0.0016787504 -0.0386377 0.04461996 0.02935208 0.07767864 0.035295043 0.101496406 0.031461872
-0.025136555 -0.012258123 0.105146945 0.28863484 0.28352278 -0.013763022 0.12616344 0.139762
0.04276312 -0.06943105 -0.09800403 -0.07323557 -0.06006755 -0.08391401 -0.1993518 0.06845149
0.09240004 -0.025650896 -0.002747226 0.032221712 -0.054227047 0.07230483 -0.07776539 -0.034775525
-0.13280827 -0.08246266 0.06403668 0.10647644 0.24552466 0.15997797 -0.07988794 -0.021069087
0.10037106 -0.0633278 -0.078471735 -0.19881147 -0.11086626 -0.030786518 -0.13757981 -0.028395392
-0.09068122 -0.02992288 0.068624236 0.15996318 0.12099419 0.021458521 0.06313136 0.11192814
-0.07167056 -0.03776408 -0.0351527 0.05516131 -0.0065128086 -0.009669492 0.0024527498 0.14214179

conv2.bias f4 [16]
00000000: 8d24 8c3d 70cd 9d3b ea0c 6cbd 2b99 a5bc
00000010: e02b 953c 13f8 463c 47be c4bc 1298 d53b
00000020: 8ab2 a3bd e157 953d 7706 213d cb29 04bc
00000030: ff0e 83bd ccca 9ebb f4fb cd3c 78a4 55bd
0.06842909 0.00481575 -0.057629503 -0.020214638 0.018209398 0.012144106 -0.024016513 0.0065183723
-0.07993038 0.07292152 0.039312806 -0.008066605 -0.06399345 -0.0048459526 0.025144555 -0.052158803

fc1.weight f4 [120, 256]
00000000: 398a 28bd 9725 a53c 12d8 e73d ccaf 6cbd
00000010: 4dc5 0ebd 8f32 1d3d 13e9 453d bb12 cebd
00000020: 3d58 3e3c bb32 28bb 090b 4f3d 5217 d5bd
00000030: 6af1 08bd 9746 3abd a808 dcbd 415f 03bd
00000040: cac1 d73c 4688 b3bc c897 093e caf6 133e
00000050: 569d 71bd f8a5 a9bd 3ced f83d 4f25 693e
00000060: ad85 00bd 9540 133d ebf3 103c 573e e1bd
00000070: cdc2 323b 276e df3c 3dbc 4b3d 3fa0 a5bd
00000080: 706d aa3c 84f0 793c 442b 173d 3a11 86bd
00000090: 5e90 80bd ea68 26bd 5de2 053d 9ef9 563a
000000a0: 7f2e ef3c b2cc ddbc 065b 463d 5fda 7d3c
000000b0: 7d3c 96bc 8281 04bd 967c 783d 601e 923c
000000c0: d9c7 463d 8552 733d d319 d1bc 09d2 a9bc
000000d0: b059 0c3d f354 863d 4b0c 7b3d 41fb 5bbd
000000e0: 536f 94bd 0882 aebd f076 a0bd 625a 1cbe
000000f0: 5499 cdbd ae4f 87bd 02b2 08bd b8c2 873d
00000100: faed b9bc 7d33 5e3c 9d04 d5bd 5172 f1bd
00000110: 6470 05bd 99cf 883b 2b55 a8bd 458d 133d
00000120: 44b0 563c 2ea2 8f3d 8d42 743d 259a 5b3d
00000130: fec7 cb3b 58d5 0abd 1850 00bd 8822 4bbd
00000140: c4e1 e93b 05df f03c d51b 0d3e a32f 203e
00000150: 8e34 70bd 20ca 143d 1e9a 8b3d aa11 a83d
00000160: 094f e73b dc5f d53b fa70 28bc 6bdf 40be
00000170: bebd f9bb 993c 85bd 917f 40bd 7e5a 0fbe
00000180: ceae debb 1e0d c1bd 54ab a2bc 4ffa 683c
00000190: 10d7 7cbd 5d8d 3dbd 4719 e53c ede8 f53d
000001a0: 2580 1d3d ea2c 0b3d f1fb 6abd b40b 1e3e
000001b0: b559 103e f6c6 4b3d 1a63 a83d f1e6 073e
000001c0: 5270 5ebd 1c09 053d 0441 5e3c 0600 333d
000001d0: 216d 4cbd a814 76bd 8366 b13c 19cf 55bc
000001e0: 9536 21bc 78f7 f33b 02b7 31bd 6700 6cbd
000001f0: b1e6 b2bc 15c7 673a 0c7e c93c a06e a1bc
00000200: 97a0 a1bd d03c 0dba af0a a23d 866a 1c3d
00000210: cf72 263d 9039 013d 5a2f 2fba 5c15 15be
00000220: c2e0 8c3d b772 69bc a182 5cbd 47f3 c5bd
00000230: 2087 f13c 6871 a83c fd06 193d bbf0 22bc
00000240: 2c85 94bd 2093 c33a 03ac 923d 8ade 023e
00000250: 219b 8fbd b0d1 ea3c 1df4 643d e8e2 753d
00000260: d2c6 663d 8a66 a73c 4d6d 6ebd a149 a1bd
00000270: 89c7 e2ba 8727 2e3d fd5d 3d3d 286e 01bd
00000280: 6e63 64bb 882e 473d 1d79 beba 74cd 8e3d
00000290: bc92 39bc 9256 d3bc 8ca5 93bd 00c1 0dbe
000002a0: a82f b43c 95de 46bd dd8f 85bc 30d9 a9bd
000002b0: 6934 0c3d f998 703d dc1f c63d 3520 b33d
000002c0: 3ebe 1b3c e4c1 5cbc 5794 e0bd ae06 69be
000002d0: 7725 cdbc 60bc b03d 8083 f93c 3918 653c
000002e0: 2e23 d93c 946f 323d 2891 9d3d acec 1d3e
000002f0: 672a a83d c5c9 ce3d baf2 3b3c 8b7f a53c
00000300: 4590 63bd 2b00 83bd bacf 2b3c ff30 0bbb
00000310: ce7d be3b 49a3 8fbc c742 763d a6f0 8c3c
00000320: b8d2 643d 3622 d2ba f231 183d 66c5 023d
00000330: 997b 483d c534 573d 2d5c 7d3d ad04 143d
00000340: 145b 203c c24d 323c 4b1b 11bc 0174 aebd
00000350: 7861 e53c e726 bb3c b779 7fbd 76d2 9fbd
00000360: 5a04 a0bd 5a04 98bd 2076 6abd 6a13 26bd
00000370: 5d5c 3bbd 92a0 1d3d 1e82 8abd 72fe d2bb
00000380: 4f7d 003d fb6f 843d ee9a f53b 5cca 41bc
00000390: 304e 51bc 87b9 edbc 38cc 653d 9eee cabc
000003a0: 56f7 643d e4ff 1d3b 3a14 c43c 4cb4 1fbc
000003b0: 28f1 003d 3526 3ebd d7fe 893d 375c 5b3d
000003c0: 35f2 babb 487d c33c e989 b63d fc00 03bb
000003d0: 9a2c bbbc dd89 a63c d41d 983d 23d7 b7bd
000003e0: 4cd7 7abd bb03 92bc 751f 4fbd 1031 4ebe
000003f0: effe 06be c7e6 e3bd 89e6 fcbd 97c8 d1bc
-0.041147444 0.020159526 0.11320509 -0.05778484 -0.03485613 0.038378295 0.04831798 -0.10062166
0.011617717 -0.0025665003 0.050547633 -0.104048386 -0.033433355 -0.045477476 -0.107438385 -0.032073263
0.026337523 -0.021915566 0.13436806 0.14449611 -0.058987938 -0.08283609 0.12154624 0.22768138
-0.031377483 0.035950262 0.008847217 -0.109982185 0.0027276755 0.027274204 0.049740065 -0.08087205
0.020804137 0.015255097 0.036906496 -0.065462545 -0.06277536 -0.040627398 0.03268658 0.0008200648
0.029196976 -0.027075145 0.04842665 0.015493958 -0.01833939 -0.03235007 0.06066569 0.01783675
0.048530433 0.05940487 -0.02552501 -0.020730035 0.03426522 0.065591715 0.06129102 -0.05370641
-0.07247796 -0.08520895 -0.078351855 -0.15268853 -0.10039011 -0.066069946 -0.033372886 0.066289365
-0.022696484 0.01356208 -0.104012705 -0.11789382 -0.032577887 0.004175138 -0.082193695 0.036023397
0.013103548 0.07013355 0.05963378 0.0536138 0.0062189093 -0.033894867 -0.031326383 -0.04959348
0.007137509 0.029403219 0.13780148 0.15643172 -0.05864387 0.036325574 0.06816505 0.08206494
0.0070589823 0.0065116715 -0.010280842 -0.18835227 -0.007621496 -0.06505699 -0.046996657 -0.13999364
-0.0067957407 -0.0942633 -0.019857086 0.0142198345 -0.061728537 -0.046277393 0.027966155 0.12007318
0.038452286 0.03397838 -0.057369176 0.15434152 0.1409672 0.04975029 0.08222027 0.13271691
-0.054306336 0.03247939 0.013565306 0.043701194 -0.04990876 -0.060078293 0.021655327 -0.013049864
-0.0098396735 0.007445272 -0.04338742 -0.05761757 -0.021838518 0.0008841616 0.024596237 -0.01970607
-0.07891958 -0.0005387785 0.07912194 0.038187526 0.040636834 0.031549037 -0.0006682776 -0.14558929
0.06878807 -0.014248542 -0.053835515 -0.09665542 0.029483378 0.020561889 0.03736018 -0.00994509
-0.07251963 0.0014921166 0.07161715 0.12780204 -0.0701201 0.02866444 0.055896867 0.060030848
0.056341954 0.020434637 -0.058209706 -0.07875372 -0.0017301898 0.042518165 0.046232212 -0.031599194
-0.0034849304 0.04862836 -0.0014531944 0.06972781 -0.011326488 -0.025798116 -0.0720931 -0.13843155
0.02199538 -0.048552115 -0.01630395 -0.08293378 0.03422967 0.058739636 0.096740454 0.087463774
0.0095058065 -0.0134739615 -0.109657936 -0.22756454 -0.025042279 0.0862968 0.030458212 0.013982826
0.026506033 0.04356344 0.07693702 0.15422314 0.082112126 0.10097078 0.011471445 0.020202419
-0.055557508 -0.063965164 0.010486538 -0.002123892 0.005813337 -0.017533915 0.060122278 0.017204594
0.05586502 -0.0016031924 0.037157007 0.031926535 0.048945997 0.05254056 0.061855484 0.03613727
0.00978734 0.010882797 -0.008856605 -0.0851822 0.028000578 0.022845699 -0.062371936 -0.07803814
-0.0781333 -0.07422705 -0.05724156 -0.04054586 -0.04574238 0.03848321 -0.06763099 -0.0064390237
0.031369504 0.06466671 0.0074952757 -0.011828031 -0.012774989 -0.02901913 0.05610296 -0.024771985
0.05589994 0.0024108822 0.023935426 -0.009747576 0.031479985 -0.046423156 0.0673806 0.05355474
-0.005705143 0.02386345 0.08913023 -0.00199896 -0.022848416 0.02032941 0.07427564 -0.08976581
-0.06124048 -0.017824044 -0.05056711 -0.20135903 -0.13183187 -0.11128002 -0.123486586 -0.025608344

fc1.bias f4 [120]
00000000: 23fc 3f3d 8699 28b9 397b 28bd 7eeb 413b
00000010: 4228 bcbc 0596 44bd 695a 2e3d 44ec 39bd
00000020: 9fea 6d3d 8e46 7b3d f98b 593d 9f4d a3ba
00000030: fd0b 2ebc 6558 383c 2525 14bd f54a 193d
00000040: 47ca 3c3d b36f 41bd f8a7 853c 9b4a f23b
00000050: 0d7a 9d3c 502e 423d 2a1f 95bb e9ac cd3b
00000060: de6c 923d 79c0 043d 9a73 223d 2083 593c
00000070: 46b0 273d 902c 4c3d 0ee7 47b9 18da d4bc
00000080: 02d5 443d d663 563d a5bf 353d 80ee 033d
00000090: 6dab 6f3d 9de6 333d 7f89 303d aa0c 453c
000000a0: 2e96 873c 6233 373d 76eb 1a3d 99cb d63c
000000b0: fba4 043a 34d3 70bd 4c90 e9bc f7c6 5b3d
000000c0: d4b9 633d d421 3a3d e5c5 04bd f650 bcbc
000000d0: 98ee 3db9 eabd 08bd 25a4 893d 3298 053d
000000e0: d305 0abd 7ed7 4a3d 7dfe 3b39 c668 4db9
000000f0: 96da 463d 1425 16bd 5b7f d7bc a2aa a33c
00000100: f35a 82bd d34e e739 fa11 863d 4fc6 733d
00000110: 4aa3 783d cbdf 94bb f5a9 3b3d a9e0 77bd
00000120: c67f 583c aa87 14b9 1890 7c3d 3b21 4b3d
00000130: b94e 2d3c 585d 313d 30ac 9f3b 02d0 393b
00000140: 4f00 81bd 753d 4bbd 3361 77bd 5e0a 173d
00000150: 8c4d 53bd 0c5b 023d f3de abbb d0df fabc
00000160: 7316 0dbb ad5f 7b3d b542 f2bc fe86 b7bb
00000170: 2800 083d b712 303b c475 453d 26c5 9dbc
00000180: efb6 313c ca4f f7bb 21c9 033d d697 203d
00000190: 3f6f 46bd 7aae a4bc 9e95 083d e743 c2ba
000001a0: 3c2f 4abd 1dd0 813c aef3 60bd 0fe4 633d
000001b0: d4da f53b b8da a0bc 00c3 853c 8572 d7bc
000001c0: ec3b 8dbc a523 d13c 6bd6 5ebc 2ccf 433c
000001d0: ccd5 7cbd d6b1 e13c 2c30 703d 3d59 bb3c
0.046871316 -0.0001607892 -0.04113314 0.0029589827 -0.022968415 -0.047994632 0.04256669 -0.045391336
0.05808508 0.061346583 0.053112004 -0.0012459046 -0.010622975 0.011251544 -0.036168236 0.037425
0.046091344 -0.047225665 0.016315445 0.0073941476 0.019223237 0.04740745 -0.004550834 0.006276716
0.07149671 0.03241012 0.039661027 0.013275892 0.04093959 0.049847186 -0.00019064193 -0.025982901
0.048054703 0.052341305 0.04437222 0.032209873 0.058513094 0.0439211 0.043099876 0.012026945
0.016551103 0.044726737 0.03782221 0.02622013 0.00050599844 -0.05879517 -0.028511189 0.053656545
0.05559714 0.045442417 -0.03241529 -0.022987824 -0.00018113328 -0.03338424 0.06720761 0.032615848
-0.03369696 0.049521916 0.00017928514 -0.00019589355 0.048548304 -0.036656454 -0.026305845 0.019978825
-0.063650034 0.00044118482 0.065463975 0.059515294 0.0607026 -0.0045432798 0.04581638 -0.060516987
0.013214057 -0.00014164919 0.061660856 0.049592238 0.010577851 0.04330191 0.0048728213 0.0028352742
-0.06298887 -0.049619157 -0.06039543 0.03687512 -0.051587626 0.03182511 -0.0052450835 -0.0306243
-0.0021528273 0.06137054 -0.029572824 -0.005600809 0.033203274 0.0026866624 0.048208013 -0.019259047
0.010846837 -0.0075473534 0.032174233 0.039207302 -0.048445936 -0.020102728 0.03334581 -0.0014821262
-0.049361452 0.015846306 -0.05491989 0.055637415 0.007502893 -0.019635543 0.016328335 -0.026299724
-0.017240487 0.025529692 -0.013600926 0.011951249 -0.06172733 0.02755062 0.05863969 0.0228697

fc2.weight f4 [84, 120]
00000000: 3537 393e 2a80 563d 5a97 143d d766 36bd
00000010: 81c0 863b 7936 76bd ed50 1c3e 9d05 c23d
00000020: 40df a33d e1ff 9dbc c202 85bd 2d72 cdbc
00000030: 4330 82bd db92 b1bc 12e3 ff3c f418 66be
00000040: 30bf 2b3d 32aa 2c3d 3716 843d 069b 893d
00000050: a814 283d 924c dc3c 5d3c 35bd 767e d33c
00000060: b669 bdbd 9857 053e 2026 8b3d 29a3 8ebd
00000070: 69c3 72bc 6c6c 823d d49a aebc 1841 a23c
00000080: e941 cf3d 35a2 e5bd a4fc 99bd 9238 313d
00000090: 1229 6ebd 2cd6 64bc 31be 7d3c 7380 2bbc
000000a0: 6828 b43c 512e 853d 4418 98bd 5190 abbd
000000b0: 5fe8 183d ef14 abbd f0ab 123e 171e 7e3d
000000c0: f391 91bd 1202 0fbd e979 553d d4af 05bd
000000d0: 8bcd de3d 8617 803a 7466 ea3b 616d d63d
000000e0: 3766 a13d 4816 28bc 7539 e83d 46e3 e93d
000000f0: 1536 543d fc3d 32bd 141e f0b9 3ff7 d9bd
00000100: 5c7a d5bb 39e9 003e 62f8 e5bd 7808 86bd
00000110: 70c4 aa3d 6e8d 2c3d f569 b3bc ceb2 653d
00000120: 6395 8ebd d29b d5bd 0b55 2cbd 68da 9f3d
00000130: 26f2 96bd c996 003d c36d c0bc 26cb 8abc
00000140: 85a6 fbbc d161 d5bd e166 a0bd 1f33 ca3c
00000150: 6807 243d 47bd 90bd ba7a 133d 46e9 0f3d
00000160: 8696 babb 8232 553d 66ba 7a3d 92a3 a4bc
00000170: ff98 9fbc d997 603d 1a2b 8cbd 91b8 843d
00000180: 8d2a b0bd 42c6 43bd 7064 10bd c3f5 11bd
00000190: 3388 aa3c 60b5 a1bd af7a ba3c c71f 8bbb
000001a0: d47f 643d 6b91 05be f39e c1bd 59bf dc3c
000001b0: 8a07 a33d 5693 c8bd ceaa 713d 2c28 b53d
000001c0: bc63 8bbd a749 a53d e397 df3d 9bff 14bd
000001d0: 20e9 13bd 178e b5bd 48f4 d7bc b9f2 d3bc
000001e0: 5311 5c3d dc41 b8bd 9b8e a8bd f183 9dbc
000001f0: 54c0 80bd d66f 4ebc da01 063d f806 56bd
00000200: 5ae9 ea3c c663 ddbc b9dc 223d 609a b83c
00000210: 3713 213c 3c9e 4c3c 38bb 11bd f48e 033d
00000220: 0c24 9abd 3f0f 91bd 9a51 84bd 79a0 3f3c
00000230: d9f8 9f3c 0b40 393d 7ee6 b7bc 080d 483c
00000240: 72f2 9ebd 90ef 61bc a18c 4bbd 2ede 1d3d
00000250: 5405 75bc 35ec 203d 5f4a cbbc bfe1 26bc
00000260: 874f 423d 1798 b7bb dca2 a13d ef54 8d3d
00000270: e894 593d 255d 96bd c19e 29bd fde7 aabb
00000280: fea1 0c3d 2a1d 853d a3be 823c d838 cab8
00000290: 29e7 4ebc d840 703d b0ff 063d d19b ae3b
000002a0: 9a93 a7bb 2c3e 353d b6b0 ce38 3d9f d03d
000002b0: 6de9 203d 6426 7a3c 2898 313d a983 48bd
000002c0: 9eaf dc3c f1e0 103d 673e 8abd 4887 d53d
000002d0: 7230 f7bc 94f8 5fbd 6c28 e0bd 6f59 0f3d
000002e0: 58d2 adbd 89b4 643d e422 58ba fd44 523c
000002f0: 4fa2 83bd fc18 f4bc 2871 653c 759e cc3d
00000300: 2c95 86bd 9799 a9bd 9b9c 0fbd 25ea 063d
00000310: c71f 9bbb 9f31 5e3d fca7 92bd b814 17bd
00000320: 94cd 973a 553b 91bd c3eb b53d ffea c0bd
00000330: 0f02 d2bc a44d a63d 03d4 df3c 6e22 15bd
00000340: d27b 05bd 2953 8ebd d9aa f9bc 35d3 6a3d
00000350: 2650 32bc d45e 8fbd b375 01bc 94e3 243d
00000360: f01e a5bd 3e31 acbd 627f 41bd c1f1 af3d
00000370: 3989 433d e092 ae3d a505 92bc c4ee 2f3d
00000380: 7af2 e1bc 2894 b4bd 2865 01bd 600e 86bc
00000390: 2db9 b23d a3e7 5bbd 1211 8ebd ac4d e43c
000003a0: 3ba9 36bd 9f15 823d 0fb7 b5bd f6f4 153d
000003b0: fe61 7a3c cec5 cdbc 7bdb d73c 3757 e7bc
000003c0: 9935 80bd 4ce1 a8bd 1d82 b23d ffa8 28bc
000003d0: 0425 ed3c 4e5f 54bb 0895 3e3d f9c1 a5bb
000003e0: 574e ff3b 124e dd3d 3bc8 5d3c 624b 02bd
000003f0: 45d4 cf3d 3406 aabc 73f7 21bd 288d 973a
0.18087466 0.05236832 0.036277153 -0.04453167 0.0041123037 -0.060110543 0.15265246 0.09473727
0.08001566 -0.019287052 -0.06494667 -0.025078857 -0.063568614 -0.021676471 0.031236205 -0.22470456
0.041930377 0.0421545 0.0644955 0.067190215 0.041035324 0.02689198 -0.04424702 0.025817137
-0.092486784 0.13021696 0.06794381 -0.06964714 -0.014817097 0.06368336 -0.021314062 0.01980643
0.10119993 -0.11212579 -0.075188905 0.04326684 -0.058144636 -0.013967078 0.01548724 -0.010467636
0.021991923 0.06502975 -0.07426503 -0.083771355 0.03733098 -0.08353602 0.14323401 0.062040415
-0.07107916 -0.034914084 0.052118216 -0.032638386 0.10879048 0.0009772636 0.0071533266 0.10470081
0.07880824 -0.0102592185 0.11339084 0.11420302 0.05180939 -0.043516144 -0.00045798777 -0.106428616
-0.0065148305 0.12588967 -0.11229016 -0.06544584 0.08338249 0.042127065 -0.02190111 0.056078725
-0.06962087 -0.10430111 -0.04207329 0.078053296 -0.07370405 0.0313938 -0.023489838 -0.016942572
-0.030719051 -0.104190476 -0.078321226 0.02468258 0.040046126 -0.07067352 0.036005713 0.035134576
-0.0056942133 0.05205012 0.06121292 -0.020097528 -0.019482134 0.054832313 -0.068441585 0.06480516
-0.08601866 -0.047796495 -0.035252035 -0.035634767 0.020816898 -0.07895923 0.022763578 -0.0042457315
0.05578597 -0.13043754 -0.09454145 0.02694671 0.07960422 -0.09793727 0.059000783 0.08845553
-0.06806132 0.08070689 0.10917642 -0.036376577 -0.036110997 -0.08864992 -0.0263616 -0.025872575
0.05372746 -0.08996937 -0.08230325 -0.019227954 -0.06286684 -0.012599906 0.03271661 -0.05225274
0.028675724 -0.027025115 0.03976128 0.02253455 0.009831241 0.012488898 -0.035578936 0.032118753
-0.07526407 -0.07082986 -0.06460877 0.0116959745 0.01952784 0.04522709 -0.022448774 0.012210138
-0.077610865 -0.013790026 -0.04969466 0.038541965 -0.014954884 0.039287765 -0.024815736 -0.010185658
0.047439124 -0.0056028473 0.07892391 0.069009654 0.053120524 -0.07341985 -0.041411165 -0.0052156434
0.034334175 0.06499703 0.015960043 -9.6426986e-05 -0.012628355 0.05865559 0.032958686 0.0053286334
-0.005114031 0.044248745 9.8557604e-05 0.10186622 0.039285112 0.015267942 0.043357998 -0.048953686
0.02693921 0.03537077 -0.067501836 0.104261935 -0.030174468 -0.054680422 -0.1094521 0.0349974
-0.084873855 0.055836234 -0.0008244945 0.012833831 -0.06427442 -0.02979707 0.014004029 0.09991161
-0.06571421 -0.08281248 -0.03506146 0.03293814 -0.0047340128 0.05424654 -0.07160947 -0.036884993
0.0011581653 -0.07091395 0.088828586 -0.09419822 -0.025635747 0.081202775 0.027322775 -0.036409788
-0.032588787 -0.06949455 -0.030476974 0.05733033 -0.010883367 -0.07000509 -0.007901597 0.040256098
-0.080625415 -0.0840783 -0.047240622 0.08591033 0.047738288 0.08524108 -0.017824957 0.042952314
-0.027581442 -0.08817321 -0.03159061 -0.016364276 0.08726726 -0.053687703 -0.0693685 0.027869068
-0.044594985 0.0635178 -0.08872806 0.036610566 0.015282152 -0.025118735 0.026349774 -0.02823983
-0.06260223 -0.08246097 0.087162234 -0.010294198 0.028948314 -0.0032405439 0.046528846 -0.0050585237
0.0077913213 0.10805906 0.013536508 -0.031810172 0.10147909 -0.020754911 -0.039542627 0.0011562454

fc2.bias f4 [84]
00000000: d9b6 fd3c abba 88bd ddb6 a4bd 312b 993a
00000010: ea5c 9a3d 5225 73bd 0ae2 543d 9a22 b93d
00000020: f6f1 dc3d b9de 7dbc d995 c9bc 4756 26bd
00000030: fa5e 2bbd 8454 fe3c 7774 253c 8518 5abd
00000040: 4efb 4d3d ee07 da3d 435c e23c a271 bb3d
00000050: fc1d 053d 5b13 89bd cfe4 ba3d 4892 c63d
00000060: 6061 5dbd b7b6 ef3d 34c4 7c3d 7ce6 5abd
00000070: ac65 903d f177 173d d78d b8bd e132 ed3d
00000080: 30f5 c2bd 106d 8b3d a12c 343c 7255 a0bb
00000090: 9679 f1bc 35ea dbbb 4dbe adbd 6d59 d53d
000000a0: fcbf 863c 294f 85bd d102 993d 4884 553d
000000b0: 0ac2 ab3d 6196 84bc f0b6 6cbd 7e6f 8e3d
000000c0: 0ea1 aa3d 55c9 39bc ac2e 03bc ccf6 dabd
000000d0: 00ad c23c ddf2 71bd 7130 6fbb faf5 9dbd
000000e0: 38f2 8e3d 74b1 22bc c226 a33d a633 183d
000000f0: ca3b 64bd 65b8 863d ef61 0f3d 4cb1 81bc
00000100: 2526 bc3a c84e d53c 985a 28bd f3b5 e6bc
00000110: 1fbd d33c 144c 783d 59e6 313d 5a08 4ebd
00000120: d2e2 523d 5ebf 48bd a99e 80bc c077 1e3d
00000130: 431d 0dbc e612 c0bc 2530 553d 785c c83d
00000140: 396b 4a3c 9e1f 8d3d a34c c6bd cfeb ed3c
0.030970978 -0.06676229 -0.08042691 0.0011685846 0.07537253 -0.059361763 0.05197338 0.09039803
0.10788338 -0.015494996 -0.024607586 -0.040609624 -0.041838624 0.03104616 0.010098568 -0.05324604
0.05028849 0.10646044 0.027631884 0.09152533 0.0324993 -0.06693145 0.09125673 0.0969587
-0.054047942 0.11704772 0.06171055 -0.053442463 0.07050642 0.03697962 -0.09011429 0.1158197
-0.09519422 0.068079114 0.0109969685 -0.0048929984 -0.029476922 -0.0067112693 -0.084835626 0.10417447
0.016448967 -0.06509239 0.0747124 0.052128106 0.083866194 -0.016184988 -0.05779165 0.06954859
0.083315 -0.011339505 -0.008006733 -0.10691604 0.023764133 -0.059069503 -0.003649738 -0.07712932
0.06979793 -0.009930003 0.07966377 0.03715863 -0.05572108 0.06578139 0.035005506 -0.015831612
0.001435463 0.026038542 -0.041102022 -0.028162932 0.025847016 0.06061943 0.043432567 -0.050300933
0.051485844 -0.049010627 -0.015700655 0.03868842 -0.008612934 -0.023446511 0.052047867 0.09783262
0.012354665 0.06890796 -0.09682586 0.029043106

fc3.weight f4 [10, 84]
00000000: 9b4e 8d3e 3a86 bdbd 40a0 f8bc db90 9dbd
00000010: 9343 0abe 1843 c13c 4e7b babd d606 47be
00000020: e460 9cbe 8dd7 d03d 1241 973d b2df 93bd
00000030: 98dd a83d fe74 78bd b63b 6f3e 35b4 9fba
00000040: 2f69 973d 586a 3ebe d56e a3bd fb69 a5be
00000050: dd90 0bbd e758 8c3c 9418 5b3d 42ff 963e
00000060: 2045 f6bd 9026 80be 2040 953c c664 4abc
00000070: b360 363e 1bb7 50be 4c1c 14be d223 1f3d
00000080: c2ea b6bd 6857 b7bd 4930 bebd 98a9 d03d
00000090: 4243 d53c 7e8b f2ba c4f6 bcbd 2298 273d
000000a0: 4056 1dbe 1550 efbd 9929 a4bb 8961 d0bc
000000b0: aa6d 22bd be1a c2bc ad67 8abe cbbf 28be
000000c0: 3471 223c eef0 2c3e 6098 ce3d beef 4f3e
000000d0: de90 80bd 11d2 8cbd 08cb 053e 3b89 33bd
000000e0: 8fb3 cebd 98c6 c1bd fb45 b2bd 1ad2 023e
000000f0: 0256 26bd 0704 5f3c 5365 edbd 9482 55bd
00000100: a969 413c 9ca9 273d e44f a2bd f989 93bc
00000110: 69ba 743d 0dc2 163d 7ea9 6f3d 301f ad3e
00000120: 2c38 a53c 563d 8b3d bdb2 0b3e 187d 053e
00000130: 69fe 3dbe 44c9 3ebd 7ae2 113e b73e 4fbd
00000140: b30e 5c3d 1c20 6abe b27c 96bc 7001 703d
00000150: 92cc 35be 9dc6 a9bd 3f53 b23d ee08 9fbd
00000160: 7483 b33e 31d8 f63c 65db 40bd aa02 2fbc
00000170: 6169 b43e 231e 573d dadd e5bd fee1 ae3d
00000180: 03b3 a3bd 78a3 c6bd 8a19 02be 099c c53d
00000190: a74d fdba d919 59bd 360c 963d 13ac c03e
000001a0: 1950 783e ba94 d13d 1ba6 8bbd d964 213d
000001b0: 3cce 4abd be02 1dbc fcec 4a3e cf19 243d
000001c0: ae3b 87be ebcf c8bd 2508 133d 8d92 4d3e
000001d0: 842a 053c be1e f83c d9b3 583e 7a43 22be
000001e0: 7523 8abd 334e 10be 8bb2 ef3d 3d22 703d
000001f0: 6f11 85be f266 97bd d198 5abe 506d aa3c
00000200: 2bb8 e13d a052 d8bc e9d4 a53e 99e3 eabd
00000210: 7f84 acbd fc3f 41bd 9638 1ebe b38e 55be
00000220: 415e 9b3d ea60 033d 86d4 efba 08f9 9c3d
00000230: e562 1ebe e9ae 6cbd 2bef 6dbc 50e5 563c
00000240: b324 f5bd 2d5b f43c fe8b 473d d671 d7bd
00000250: 35c8 843d 73f4 413d 2639 06be ab31 6dbd
00000260: ebb5 dcbd e5ad c2bd adf6 793e be6d 15bd
00000270: aed9 223d d499 9e3d ec25 2a3e a65e 683d
00000280: 2cda 60be 6fd6 9abd 3bd3 09be 0dcf 0bbe
00000290: 29af 2ebd cef2 79bd eaa2 43bd 658e 3c3d
000002a0: 8522 a33d 0c00 cbbd e296 a3bc 74da bd3d
000002b0: f66c 11be 91e6 913d 4c31 1d3e 97c7 24bd
000002c0: 1c13 f8bc 7b1e 42bd 4c32 0b3e 8cc4 26bd
000002d0: 5342 08be da04 9c3b 21e5 5cbe 99e2 b13d
000002e0: 7e1d 833d 557d 90bd de09 8cbd 0425 27be
000002f0: 64e5 ed3d 2cdf b63d 640e 4f3d 6ac1 05be
00000300: 72ea d2bc ccc5 c33c 17fd 023d 76ec a7bd
00000310: 9bd6 ad3e b584 8dbc 61dc 06be 1997 d53c
00000320: 017e babd fc3a 523e 5dbe 833e 324a 39be
00000330: 6495 08be 7de5 ab3e f6b4 903d aa16 c53d
00000340: ad31 88be a8a1 443c 2e00 733e 52a8 4b3d
00000350: 23f7 0a3e 4a1c aebd 4a5f 8d3c 3560 5d3e
00000360: e178 5ebd 14b2 c9bb 39a0 0abe 648d 95bd
00000370: bf88 75bb ab94 e0bc 3df1 813d 1707 033b
00000380: bd14 0fbe 4914 d0bc c9f3 4bbe 34d8 e5bc
00000390: 4759 bc3d 8ae8 b23d 16cf c7bd 96e1 cf3c
000003a0: c63d dbbc 70dc 49bc 747f cc3d 4934 a13d
000003b0: 5434 063d ea8b 4cbc bfac 65bd 748a 22bd
000003c0: e40e c3bc 5769 cabd 033c 52bc df2b 803e
000003d0: dccc 60be 7ba2 c63d 548f 193e c501 23bd
000003e0: fde8 063d 928e d0bd 14f4 883c 5fa9 233e
000003f0: 1d54 ff3d 19e6 483d ecf2 3d3d 5a37 e9ba
0.27599034 -0.09254117 -0.03034985 -0.076936446 -0.1350234 0.023591563 -0.0910555 -0.19436201
-0.30542672 0.10197363 0.07385458 -0.07220401 0.08245391 -0.060658447 0.23362622 -0.0012184443
0.07393109 -0.18595254 -0.07980124 -0.3230742 -0.0340737 0.017132236 0.053490236 0.2949162
-0.12024903 -0.2502942 0.018219054 -0.012353128 0.17810325 -0.20382349 -0.1446392 0.03885252
-0.08931495 -0.08952218 -0.092865534 0.101885974 0.026033048 -0.0018504707 -0.09226754 0.04091657
-0.15364933 -0.11685196 -0.0050098416 -0.025437133 -0.039655365 -0.023694392 -0.27032223 -0.16479413
0.009914685 0.16888782 0.10087657 0.20306298 -0.06277631 -0.068760045 0.13065732 -0.043832045
-0.10092842 -0.09461707 -0.08704754 0.1277546 -0.040609367 0.0136118 -0.11591592 -0.052126482
0.0118049765 0.040933236 -0.07925394 -0.018010126 0.059748087 0.036806155 0.05851125 0.33812857
0.020168386 0.06798808 0.13642402 0.13036 -0.18554081 -0.04657866 0.1424655 -0.05059692
0.053724956 -0.22863811 -0.018370006 0.05859512 -0.17753819 -0.082898356 0.08707284 -0.07765375
0.35061228 0.030132385 -0.04708423 -0.0106817875 0.35236648 0.052518975 -0.112239555 0.08539198
-0.07993128 -0.09699148 -0.12705055 0.09648902 -0.001932551 -0.053003166 0.07326548 0.37631282
0.24249305 0.102334455 -0.068187915 0.039402816 -0.049513087 -0.009583173 0.19816965 0.040063675
-0.2641272 -0.09805282 0.03589644 0.20075436 0.008127812 0.030288097 0.21162356 -0.15846053
-0.06745044 -0.1409233 0.11703976 0.058626402 -0.25989863 -0.07392682 -0.21347357 0.020804077
0.110214554 -0.026406586 0.32389 -0.11469192 -0.08423709 -0.04718016 -0.15451273 -0.20855217
0.07586337 0.032074846 -0.001829759 0.076646864 -0.15467413 -0.057783995 -0.014522354 0.013116196
-0.119698904 0.029828632 0.04871749 -0.10519759 0.06483499 0.047352266 -0.13107738 -0.057908695
-0.107768856 -0.09505824 0.24410506 -0.03648161 0.039758377 0.07744184 0.16616029 0.05673089
-0.21958226 -0.07560431 -0.13459484 -0.13653202 -0.042647514 -0.061022572 -0.04776279 0.046034236
0.079655685 -0.09912118 -0.019969407 0.09270182 -0.14201722 0.07124055 0.15350837 -0.040229406
-0.03028255 -0.04739235 0.13593405 -0.040714785 -0.1330655 0.0047613205 -0.2157178 0.08685798
0.064021096 -0.07055155 -0.068378195 -0.16322714 0.116160184 0.089292854 0.050550833 -0.13062063
-0.025746558 0.023898028 0.031979647 -0.08199398 0.33952793 -0.017275194 -0.13170005 0.026073026
-0.091060646 0.20530313 0.25731173 -0.1809471 -0.13338238 0.33573523 0.070657656 0.096234635
-0.266004 0.0120014325 0.23730537 0.04972107 0.13570838 -0.085014895 0.017257351 0.21618731
-0.054314498 -0.006155262 -0.13537683 -0.07302359 -0.003746554 -0.02741464 0.06344841 0.001999324
-0.13972755 -0.025400298 -0.19917215 -0.028057195 0.09196716 0.087357596 -0.097562954 0.025376122
-0.026762854 -0.012320623 0.09985247 0.07871301 0.032764748 -0.01248453 -0.056072947 -0.03968282
-0.023810811 -0.09883373 -0.012831691 0.2503347 -0.21953148 0.096989594 0.14996082 -0.03979661
0.03293704 -0.10183443 0.016717948 0.15982579 0.12467215 0.049047563 0.046374246 -0.0017792985

fc3.bias f4 [10]
00000000: 1526 1cbd aefb 143e fea0 8abd 6661 d53d
00000010: e702 c4bc c50d 373d ee27 f7bd 86e8 a03d
00000020: 3333 723d 80e0 1ebd
-0.038122255 0.14549133 -0.06768988 0.10418968 -0.023927165 0.044690866 -0.12068163 0.0785685
0.05913086 -0.03878832
