global_mnist_cnn.pt (torch, 181781 bytes, 10 tensors)

conv1.weight f4 [6, 1, 5, 5]
-0.12926202 -0.07479636 0.021112591 0.13033 -0.025536519 -0.3119665 0.007136504 0.24472122
0.07228753 -0.13423064 0.27961838 0.26743355 0.34000602 0.3890403 -0.060554978 0.3575345
-0.08833365 0.0052477806 0.33699432 0.058393262 -0.2297924 -0.16324143 -0.32182705 0.18443388
0.21669441 -0.014621249 -0.33334285 -0.33635637 -0.37360567 -0.024952898 0.30468342 0.38448143
0.12450134 0.042223938 -0.14323038 0.13979836 0.5017094 0.52555704 0.08774135 -0.13005759
-0.2717448 0.04824558 0.21493593 0.2236586 -0.11329527 -0.5613652 -0.4557202 -0.13050157
0.075698495 0.095628895 -0.13917859 0.11246184 0.24042314 0.1656819 0.1671852 0.2808229
0.25750342 0.29937592 0.06152192 -0.03712883 0.46542883 0.28389186 -0.15690394 -0.22964612
-0.20110936 0.11681983 -0.14741354 -0.29025754 -0.078459784 -0.19445407 -0.09025731 -0.37269902
-0.270686 -0.31251678 0.10385919 0.16490982 0.31038132 0.2854096 0.34548232 0.3697151
-0.23766834 -0.04045576 -0.0015577679 -0.16898327 -0.23155835 -0.2020373 -0.42361253 -0.33671436
-0.3074954 -0.33892712 -0.17579345 -0.25376782 -0.39114195 -0.30390874 -0.18545371 0.29572755
0.30117476 0.40772837 0.40967596 0.36938405 -0.19008312 -0.205829 0.08984825 -0.031527463
0.042910792 -0.09904184 0.16788715 -0.1465343 -0.13645007 -0.1324418 -0.1690483 -0.13101138
-0.0005274892 -0.05786363 -0.06600837 -0.009019394 -0.16183087 0.04259517 0.11693841 -0.044100776
-0.16185965 -0.04695803 -0.19536339 -0.01465322 0.040885884 0.011609084 0.06990161 0.0038586203
0.06850589 0.19023453 -0.35207173 -0.23885486 0.023064401 0.13294789 0.27436796 -0.18008053
-0.08493776 -0.28632694 0.31363225 0.25442886 -0.37307215 -0.2805987 0.0012102601 0.47113135
0.2460353 -0.27989712 0.035387903 0.09350162 0.27565774 0.09117973
00000000: 435d 04be d62e 99bd 50f4 ac3c 3a75 053e
00000010: f631 d1bc 13ba 9fbe 56d9 e93b 3398 7a3e
00000020: 7c0b 943d c273 09be 242a 8f3e 0ded 883e
00000030: 4515 ae3e 4a30 c73e 7f08 78bd c30e b73e
00000040: 46e8 b4bd 93f5 ab3b 858a ac3e c62d 6f3d
00000050: b34e 6bbe c328 27be 84c6 a4be 3cdc 3c3e
00000060: 24e5 5d3e f78d 6fbc eaab aabe e736 acbe
00000070: 3e49 bfbe 056a ccbc 77ff 9b3e c0da c43e
00000080: 8ffa fe3d 02f3 2c3d fcaa 12be 4d27 0f3e
00000090: 0770 003f e88a 063f bdb1 b33d d12d 05be
000000a0: 2222 8bbe 289d 453d 2a18 5c3e c306 653e
000000b0: 5a07 e8bd a1b5 0fbf 2854 e9be 34a2 05be
000000c0: d007 9b3d 15d9 c33d d584 0ebe 6552 e63d
000000d0: 7c31 763e 84a8 293e 9932 2b3e 05c8 8f3e
000000e0: 7dd7 833e cd47 993e 69fe 7b3d 6614 18bd
000000f0: b04c ee3e 465a 913e 6dab 20be 5a28 6bbe
00000100: 9def 4dbe 3c3f ef3d 93f3 16be a39c 94be
00000110: 86af a0bd f81e 47be d3d8 b8bd 68d2 bebe
00000120: 5b97 8abe 3302 a0be 21b4 d43d 1fde 283e
00000130: 4dea 9e3e 3521 923e 0fe3 b03e 4c4b bd3e
00000140: 545f 73be f0b4 25bd 042e ccba f309 2dbe
00000150: a21d 6dbe dee2 4ebe bee3 d8be d365 acbe
00000160: 0970 9dbe db87 adbe 3303 34be dbed 81be
00000170: c243 c8be ed99 9bbe 94e7 3dbe 9a69 973e
00000180: 9433 9a3e c6c1 d03e 0cc1 d13e e81f bd3e
00000190: 26a5 42be d6c4 52be 5c02 b83d f122 01bd
000001a0: 3ac3 2f3d 73d6 cabd 9cea 2b3e 160d 16be
000001b0: 91b9 0bbe d39e 07be ff1a 2dbe d927 06be
000001c0: 3347 0aba 6a02 6dbd 652f 87bd 15c6 13bc
000001d0: feb6 25be 4678 2e3d 687d ef3d 04a3 34bd
000001e0: 89be 25be 1057 40bd 570d 48be 0f14 70bc
000001f0: f577 273d 0734 3e3c 9328 8f3d e8e0 7c3b
00000200: d14c 8c3d d7cc 423e bf42 b4be 5e96 74be
00000210: 8ef1 bc3c 7e23 083e f579 8c3e 0867 38be
00000220: d9f3 adbd 7299 92be 6894 a03e 8044 823e
00000230: 5003 bfbe a2aa 8fbe 97a1 9e3a 2138 f13e
00000240: adf0 7b3e ad4e 8fbe e8f2 103d c77d bf3d
00000250: 0323 8d3e 70bc ba3d

conv1.bias f4 [6]
-0.058565933 -0.0982149 0.08846448 -0.17305024 -0.1705401 -0.31828606
00000000: d5e2 6fbd e524 c9bd de2c b53d 1534 31be
00000010: 10a2 2ebe 64f6 a2be

conv2.weight f4 [16, 6, 5, 5]
0.0006570881 0.013572229 0.0016861302 0.02916693 0.0066789715 -0.19512686 -0.1775854 -0.27685976
-0.11005834 -0.037062034 -0.13284189 -0.052806783 -0.018900087 -0.029249705 0.07913788 0.003549875
-0.03543659 0.14636318 0.049411394 0.055189665 0.06237194 0.17934717 0.119060636 0.017837834
-0.13459937 -0.009499607 0.06258724 0.05463797 -0.04817868 -0.09343368 0.01361637 0.020043561
-0.09738052 -0.0902594 -0.108133584 -0.07128216 -0.094451725 -0.0038103655 -0.048050947 0.10530536
-0.06596473 -0.05755626 -0.12586424 0.051642183 0.14860587 -0.006870845 -0.10396399 -0.08790946
-0.015351312 0.061777357 0.048749328 0.028582562 0.01850251 0.12211473 0.11484474 -0.0047663325
-0.052571245 -0.027157739 0.017867273 -0.005878232 -0.061671842 -0.077394255 -0.06744199 -0.15482983
-0.035468046 -0.044330098 -0.02259289 -0.01003384 0.13066092 0.098078504 0.037400495 -0.037586424
-0.092447855 0.05283866 0.09561955 0.010084181 0.009914113 -0.09995273 0.018523358 -0.071183555
0.040820405 0.18765451 0.20296365 0.14479586 0.117485605 0.043223232 0.059852447 0.12390107
-0.011998311 -0.043045994 0.037410315 -0.016098453 0.030498844 0.021322232 -0.04433699 -0.013494055
-0.0056679985 -0.13000607 -0.043071054 0.016952405 -0.083735414 -0.04641407 0.028799802 0.029510878
-0.07736752 0.040703814 0.017304277 0.057229877 -0.036573827 -0.040710207 -0.06891125 0.08977899
-0.03194745 0.051159576 0.054942984 0.046469763 0.07547328 -0.058405396 -0.08104909 -0.08098678
-0.030934455 0.0029025625 -0.06559354 0.053048316 -0.05853838 -0.06351706 -0.084733546 -0.13158397
-0.094274946 -0.042466708 -0.07565152 -0.1671068 -0.20488143 -0.14482418 -0.04743593 -0.09002253
-0.06176831 0.045288213 0.034951013 -0.039869446 0.077784404 0.020470642 0.119216114 0.040448956
-0.11610981 0.1491222 0.07287537 -0.008161772 -0.022818515 -0.05272549 0.013967891 0.022322966
-0.07767696 0.008829146 0.10322452 0.025595749 0.07871958 0.03561077 0.043495867 0.08106983
-0.16427328 -0.1599842 -0.23023929 -0.18094149 -0.213932 -0.17153989 -0.23114583 -0.22930954
-0.11619888 0.053971004 -0.056913033 -0.11295184 0.046276666 0.05337662 0.10608783 0.0010512492
-0.014997606 0.0044002165 0.015702477 -0.010690863 0.091619894 0.1584385 0.17016575 0.10095951
-0.0009617267 0.03761589 -0.0022565757 -0.025735311 -0.106689095 -0.16146098 -0.04470492 -0.089714825
-0.0976724 -0.19028735 -0.08457707 0.034377147 -0.05894802 -0.04876536 0.11355115 0.075520284
-0.099234566 0.049801767 -0.043224953 -0.06266177 0.07446054 -0.00096305925 0.033595085 0.017822754
0.10118388 0.30991977 0.057395305 -0.012961883 0.041218635 0.067322634 0.03049275 -0.09427132
-0.09513535 -0.11953468 -0.20277445 -0.11838365 0.012584302 0.047835834 -0.027279215 -0.023391366
-0.06386528 -0.012899758 -0.026330024 0.058088817 0.08986049 -0.0050402055 0.012705325 0.012628188
0.05724311 0.052834846 0.02410689 0.04817386 0.1622239 0.17745706 0.21832374 0.19507155
0.07181788 0.05724979 0.16165379 0.18032143 0.16130395 -0.0769661 -0.04938808 -0.10474263
-0.0930392 -0.043394666 -0.014148798 0.04115323 0.04717548 0.0010101101 0.024128402 0.07522051
00000000: 7040 2c3a 0e5e 5e3c 2401 dd3a 7cef ee3c
00000010: 46db da3b 56cf 47be f2d8 35be 90c0 8dbe
00000020: 4466 e1bd 5cce 17bd b407 08be ed4b 58bd
00000030: 5bd4 9abc 149d efbc 0a13 a23d 05a5 683b
00000040: f525 11bd 3be0 153e 9a63 4a3d 8f0e 623d
00000050: b879 7f3d c9a6 373e 10d6 f33d a620 923c
00000060: 6bd4 09be 3da4 1bbc bd2d 803d 10cc 5f3d
00000070: 0257 45bd 285a bfbd 3217 5f3c 6532 a43c
00000080: 706f c7bd ecd9 b8bd 2475 ddbd 62fc 91bd
00000090: e86f c1bd 53b7 79bb 12d1 44bd 56aa d73d
000000a0: 8418 87bd 1dc0 6bbd 8ee2 00be c186 533d
000000b0: 232c 183e d324 e1bb 13eb d4bd e009 b4bd
000000c0: 1284 7bbc 410a 7d3d 60ad 473d fa25 ea3c
000000d0: 9392 973c 4a17 fa3d b833 eb3d e52e 9cbb
000000e0: f254 57bd e879 debc 635e 923c 2f9e c0bb
000000f0: 9d9b 7cbd e180 9ebd 071f 8abd b68b 1ebe
00000100: f146 11bd 7a93 35bd b914 b9bc fa64 24bc
00000110: facb 053e 62dd c83d 4331 193d 39f4 19bd
00000120: 4d55 bdbd 5a6d 583d 2fd4 c33d 1f38 253c
00000130: ce6e 223c 04b4 ccbd 4cbe 973c afc8 91bd
00000140: 4c33 273d 8128 403e b4d5 4f3e 5e45 143e
00000150: 4b9c f03d d80a 313d d727 753d d8bf fd3d
00000160: 9094 44bc ff50 30bd 8f3b 193d e7e0 83bc
00000170: b6d8 f93c f6ab ae3c b49a 35bd 2b16 5dbc
00000180: 9eba b9bb 5020 05be 466b 30bd c5df 8a3c
00000190: 797d abbd ae1c 3ebd 90ed eb3c ccc0 f13c
000001a0: dd72 9ebd 0bb9 263d b3c1 8d3c e069 6a3d
000001b0: 70ce 15bd bfbf 26bd 5721 8dbd 0cde b73d
000001c0: 54db 02bd b48c 513d e50b 613d 1457 3e3d
000001d0: bc91 9a3d 7f3a 6fbd 11fd a5bd 66dc a5bd
000001e0: 416a fdbc eb38 3e3b e855 86bd 3149 593d
000001f0: f1c5 6fbd 3b15 82bd c888 adbd f3bd 06be
00000200: 3913 c1bd 92f1 2dbd 2fef 9abd 0c1e 2bbe
00000210: 70cc 51be ca4c 14be 2e4c 42bd bb5d b8bd
00000220: c400 7dbd 2280 393d cb28 0f3d 254e 23bd
00000230: 6e4d 9f3d 0cb2 a73c 9427 f43d cead 253d
00000240: fbca edbd 7db3 183e af3f 953d f4b8 05bc
00000250: e5ed babc aff6 57bd 95d9 643c a7de b63c
00000260: 1915 9fbd 1fa8 103c 6167 d33d 2dae d13c
00000270: bb37 a13d 99dc 113d b928 323d f007 a63d
00000280: 4137 28be e6d2 23be d9c3 6bbe ba48 39be
00000290: fd10 5bbe 27a8 2fbe 7eb1 6cbe 1fd0 6abe
000002a0: aef9 edbd b310 5d3d a41d 69bd 4b53 e7bd
000002b0: 9a8c 3d3d 71a1 5a3d 9444 d93d 12ca 893a
000002c0: 85b8 75bc b12f 903b 7ba2 803c bb28 2fbc
000002d0: 36a3 bb3d b43d 223e ee3f 2e3e dcc3 ce3d
000002e0: 631c 7cba 1f13 1a3d 0fe3 13bb dcd2 d2bc
000002f0: d07f dabd 0756 25be 821c 37bd 68bc b7bd
00000300: 7808 c8bd b0da 42be be36 adbd 0dcf 0c3d
00000310: 7b73 71bd 30be 47bd 818d e83d 61aa 9a3d
00000320: 7e3b cbbd f0fc 4b3d a60c 31bd d054 80bd
00000330: c57e 983d d075 7cba 009b 093d 0601 923c
00000340: 7e39 cf3d cead 9e3e 5717 6b3d 145e 54bc
00000350: dfd4 283d 73e0 893d efcb f93c 5211 c1bd
00000360: 53d6 c2bd 99ce f4bd 1ba4 4fbe 2173 f2bd
00000370: 632e 4e3c 82ef 433d a978 dfbc 409f bfbc
00000380: cdcb 82bd 8259 53bc 10b2 d7bc 8aee 6d3d
00000390: c708 b83d 4f28 a5bb ff29 503c 76e6 4e3c
000003a0: c077 6a3d 5a69 583d d07b c53c f451 453d
000003b0: 061e 263e 4eb7 353e 4290 5f3e d6c0 473e
000003c0: 4115 933d c17e 6a3d 9288 253e 2ea6 383e
000003d0: dd2c 253e 67a0 9dbd 284b 4abd 4e83 d6bd
000003e0: 568b bebd 9bbe 31bd 5cd0 67bc 4a90 283d
000003f0: 133b 413d ac65 843a eda8 c53c 360d 9a3d

conv2.bias f4 [16]
0.01976278 -0.006057377 -0.13301387 0.04304677 -0.108432084 -0.066279605 -0.068321936 -0.06654795
0.041510146 -0.020039584 0.053085867 -0.06499655 0.010798122 -0.08206597 -0.04366995 -0.00697355
00000000: 8ee5 a13c f67c c6bb ca34 08be cf51 303d
00000010: a411 debd 9abd 87bd 5fec 8bbd 4b4a 88bd
00000020: 8b06 2a3d 0e2a a4bc 9170 593d e91c 85bd
00000030: 9bea 303c 3412 a8bd 43df 32bd 6182 e4bb

fc1.weight f4 [120, 256]
0.006375058 0.014643435 0.027675977 -0.055755 0.008513304 0.02141654 0.05062563 -0.043397598
-0.0212685 0.0047205067 0.016413648 0.03052876 0.0058128177 -0.0045399945 -0.052449558 0.03406785
-0.031237418 -0.03213022 -0.04476567 -0.010307436 -0.011589095 0.03325186 0.08495128 -0.08043266
0.07214229 0.038572323 0.024986459 -0.04521607 -0.031493288 -0.026166841 -0.04152364 -0.005100863
0.034944303 -0.07684995 -0.020993648 -0.0400657 0.07694224 -0.048825067 0.05713357 0.07765424
-0.06136311 -0.066079766 -0.076123044 -0.031000685 -0.074220344 0.13073617 0.00045183251 0.014680382
0.0598773 -0.05699894 -0.03609136 -0.056383356 -0.033323854 -0.016304543 0.02165547 -0.025840808
0.04879214 -0.00057917414 -0.027552688 -0.028255347 0.014398723 0.04025621 0.056844003 0.02117246
0.0897156 0.038902994 0.02366886 0.01606874 0.011979424 0.009625429 -0.039634753 0.043973356
-0.039657786 0.028305117 -0.027487118 -0.0009448066 -0.09598472 -0.13498244 -0.021365443 -0.052162692
-0.048461843 -0.05011551 0.009146132 0.015559138 -0.057873286 0.00515659 0.0652658 0.017962381
0.022829937 0.028900154 -0.014970104 -0.07058828 0.04780456 0.018086368 -0.014429004 -0.053976342
0.008913599 0.06888003 -0.017948097 0.026094733 -0.025534082 0.018293254 0.020227388 0.06563877
-0.052890405 -0.061495904 0.024608394 0.050089292 0.022529395 -0.007587981 0.036713876 -0.038787954
0.020727681 0.0727438 0.025383951 -0.02532771 0.030380644 0.073292375 -0.020001963 0.008469252
-0.05685015 0.024141125 0.051991526 0.02524157 -0.16219765 -0.21313621 -0.1190895 0.037908893
0.08237717 -0.045866236 0.03388806 0.089266375 0.081452586 -0.059019078 0.061921164 -0.009461346
0.042573437 -0.08576973 0.0013024996 0.079994835 -0.015111057 0.0011713022 0.17987776 -0.03428958
-0.013520449 -0.004217072 -0.030858628 -0.052363392 0.06505813 -0.00954064 -0.042294696 -0.018591795
0.062027417 0.050917357 -0.13377349 -0.036579892 0.03923303 -0.095959954 -0.06113938 0.009630417
-0.030397166 0.029336378 0.033064824 0.024629008 -0.058064107 0.031175058 0.02620561 -0.032182068
-0.0037886242 -0.017180676 -0.023521794 -0.03502349 0.049094748 -0.035565183 0.017504204 -0.040147427
0.013915213 0.090732254 -0.014865046 0.013676219 0.016554879 0.048032917 0.03332132 -0.021446873
-0.095097154 -0.031377546 -0.089572184 -0.034609225 -0.051328275 -0.08711522 -0.076226704 -0.045171417
0.01677025 0.03737331 0.01638513 0.10861622 -0.010437636 -0.004051323 0.050529864 0.06449761
-0.0023677591 -0.08510796 0.03286556 0.056730825 0.0025981427 0.02775063 0.060135335 0.049407266
0.10067704 0.06355454 -0.07086481 -0.029291997 0.09876253 0.023658652 0.00737602 -0.0055211782
-0.036859024 0.020973757 0.009891491 -0.06988219 -0.10902754 -0.0011505311 -0.08551785 -0.0006792396
0.0058950577 -0.025943229 -0.035337355 -0.09069999 -0.026252154 0.06672556 -0.061580047 0.024243657
0.02539946 -0.027950829 0.0033040028 -0.07146702 0.010605609 0.036504455 -0.009333785 0.021602886
0.007287588 0.05459437 0.022303002 0.031507365 -0.038382314 0.021238558 0.012279093 -0.062170472
-0.023283187 -0.02447502 -0.034151625 0.01691458 0.04087724 0.06203132 -0.07614294 -0.021076705
00000000: dde5 d03b 05eb 6f3c bbb8 e23c 5b5f 64bd
00000010: 637b 0b3c bd71 af3c d25c 4f3d aec1 31bd
00000020: 473b aebc 7bae 9a3b ea75 863c 7317 fa3c
00000030: 7379 be3b 3cc4 94bb 59d5 56bd bb8a 0b3d
00000040: 9de5 ffbc fa9a 03bd 355c 37bd 85e0 28bc
00000050: 30e0 3dbc 1a33 083d f0fa ad3d e1b9 a4bd
00000060: 56bf 933d 03fe 1d3d 67b0 cc3c 7c34 39bd
00000070: 1bff 00bd d85b d6bc b114 2abd 2425 a7bb
00000080: c221 0f3d 8263 9dbd dffa abbc ee1b 24bd
00000090: e593 9d3d cbfc 47bd e404 6a3d 3009 9f3d
000000a0: e257 7bbd d454 87bd 66e6 9bbd 26f5 fdbc
000000b0: d600 98bd b4df 053e efe3 ec39 fc85 703c
000000c0: e641 753d b877 69bd 89d4 13bd 3cf2 66bd
000000d0: 987e 08bd 1b91 85bc d066 b13c 1ab0 d3bc
000000e0: 44da 473d b8d3 17ba 2db6 e1bc c277 e7bc
000000f0: 9fe8 6b3c b2e3 243d 42d5 683d de71 ad3c
00000100: d0bc b73d bf58 1f3d 32e5 c13c 97a2 833c
00000110: 5945 443c fab3 1d3c 0d58 22bd 681d 343d
00000120: 3470 22bd 22e0 e73c aa2c e1bc e6ac 77ba
00000130: a393 c4bd d638 0abe 9506 afbc 8ca8 55bd
00000140: ed7f 46bd ec45 4dbd a8d9 153c c1eb 7e3c
00000150: 8a0c 6dbd 9df8 a83b 13aa 853d d825 933c
00000160: d905 bb3c 04c0 ec3c 2b45 75bc 9790 90bd
00000170: b7ce 433d dd29 943c a167 6cbc 4c16 5dbd
00000180: 580a 123c f910 8d3d e307 93bc 9fc4 d53c
00000190: da2c d1bc bcdb 953c e8b3 a53c 9f6d 863d
000001a0: 9ca3 58bd 21e3 7bbd 8b97 c93c 6e2a 4d3d
000001b0: 918f b83c 99a4 f8bb 4a61 163d 1ee0 1ebd
000001c0: 19cd a93c b4fa 943d 01f2 cf3c 0f7c cfbc
000001d0: d4e0 f83c 501a 963d 28db a3bc 9ec2 0a3c
000001e0: b4db 68bd 9cc3 c53c 11f5 543d 69c7 ce3c
000001f0: 2417 26be 6140 5abe 32e5 f3bd 5b46 1b3d
00000200: 5db5 a83d 3cde 3bbd 35ce 0a3d 4ad1 b63d
00000210: 9dd0 a63d fdbd 71bd 0ca1 7d3d c303 1bbc
00000220: 7c61 2e3d 0aa8 afbd a2b8 aa3a 55d4 a33d
00000230: 5e94 77bc 6186 993a e031 383e 3b73 0cbd
00000240: e084 5dbc 5d2f 8abb 3ccb fcbc ff7a 56bd
00000250: 323d 853d 5850 1cbc 343d 2dbd d24d 98bc
00000260: 7610 7e3d b88e 503d ebfb 08be ccd4 15bd
00000270: d0b2 203d a786 c4bd 496d 7abd e6c8 1d3c
00000280: 7a03 f9bc d852 f03c fb6e 073d c6c2 c93c
00000290: a1d4 6dbd d662 ff3c 26ad d63c 58d1 03bd
000002a0: 914a 78bb 7dbe 8cbc c7b0 c0bc cb74 0fbd
000002b0: 9317 493d ccac 11bd fa64 8f3c a171 24bd
000002c0: a2fc 633c d5d1 b93d 868c 73bc 3812 603c
000002d0: 199e 873c 2abe 443d f07b 083d 5ab1 afbc
000002e0: 4cc2 c2bd be85 00bd 9f71 b7bd 67c2 0dbd
000002f0: 993d 52bd 7769 b2bd bf1c 9cbd aa05 39bd
00000300: c361 893c c214 193d 1c3a 863c 2e72 de3d
00000310: 9e02 2bbc f6c0 84bb 67f8 4e3d 5317 843d
00000320: 682c 1bbb 154d aebd 0a9e 063d 955e 683d
00000330: 9a45 2a3b 4a55 e33c 7850 763d 465f 4a3d
00000340: c42f ce3d e228 823d 9221 91bd c5f5 efbc
00000350: 0244 ca3d cacf c13c 8ab2 f13b 00eb b4bb
00000360: 7df9 16bd 28d1 ab3c ec0f 223c 651e 8fbd
00000370: d549 dfbd 6bcd 96ba fc23 afbd ff0e 32ba
00000380: 542b c13b e586 d4bc e7bd 10bd ebc0 b9bd
00000390: c20e d7bc 69a7 883d 5c3b 7cbd a29a c63c
000003a0: 8712 d03c 23f9 e4bc f887 583b 4d5d 92bd
000003b0: 26c3 2d3c b285 153d bbec 18bc 89f8 b03c
000003c0: b8cc ee3b 599e 5f3d c9b4 b63c de0d 013d
000003d0: c636 1dbd 7cfc ad3c 402e 493c 77a6 7ebd
000003e0: 62bc bebc d67f c8bc 93e2 0bbd 7290 8a3c
000003f0: e56e 273d 8e14 7e3d d4f0 9bbd 0ea9 acbc

fc1.bias f4 [120]
0.028858084 0.037931442 0.0010042974 0.07465159 0.03747992 -0.02957343 -0.0494791 0.023375992
-0.06470533 -0.05745616 0.046808712 -0.05301637 -0.01938787 -0.060713578 -0.060488172 0.04579531
-0.048869576 -0.0034052967 0.043407038 -0.0449101 0.018706404 -0.054339565 0.056585185 0.056555346
0.03847788 -0.002089183 0.04394953 -0.016570246 -0.06318846 0.031553432 -0.011802479 0.062559575
0.03502639 -0.012438214 -0.06307318 -0.04732115 0.02162373 -0.053990595 -0.020075815 0.045532603
0.029893508 -0.011718478 0.073487535 -0.018130867 -0.063491166 0.04870519 -0.00034684903 0.0013120729
-0.0020472533 0.01715549 0.014400782 -0.0082852645 0.03125761 0.03450477 -0.061094034 0.030946271
-0.035408176 -0.03247559 -0.017991707 -0.028555911 -0.049106244 -0.02425736 -0.017675517 -0.04560484
-0.057890054 -0.052523736 -0.040903475 0.034748014 0.05695204 0.03296271 -0.05300787 0.050921902
0.08634912 0.007033434 0.05403988 -0.039481957 -0.037580527 0.053932317 -0.011825147 0.05988124
0.0036998272 0.02332062 -0.053919908 -0.0008931395 0.019765088 0.018294554 0.041934304 0.011143532
-0.04410044 -0.021821076 -0.048793193 0.027889477 0.051358934 0.019156002 0.0040563787 -0.02207867
0.0054591866 -0.012882816 -0.022734668 0.015625114 0.010817104 -0.056214616 0.022904878 0.051722214
-0.013834932 0.03717472 0.059096284 0.041671988 0.019250346 -0.03933944 -0.058642477 0.045992024
0.017693043 -0.00092342595 -0.041434217 0.03594564 -0.050625153 -0.00744776 0.002668549 0.0142792985
00000000: ca67 ec3c 005e 1b3d a1a2 833a efe2 983d
00000010: 8b84 193d fa43 f2bc 99aa 4abd 027f bf3c
00000020: 3a84 84bd 2757 6bbd 7eba 3f3d b127 59bd
00000030: 4fd3 9ebc cdae 78bd 72c2 77bd dd93 3b3d
00000040: 772b 48bd 662b 5fbb 94cb 313d a7f3 37bd
00000050: 2c3e 993c 2a93 5ebd dec5 673d 94a6 673d
00000060: fb9a 1d3d adea 08bb 6c04 343d 53be 87bc
00000070: f468 81bd 2c3e 013d 2f5f 41bc 3c1f 803d
00000080: d577 0f3d a7c9 4bbc 832c 81bd d2d3 41bd
00000090: 4024 b13c 3e25 5dbd 0976 a4bc 6580 3a3d
000000a0: 3be3 f43c dcfe 3fbc a280 963d 2f87 94bc
000000b0: a807 82bd 187f 473d 4ad9 b5b9 dcf9 ab3a
000000c0: 362b 06bb ac89 8c3c 42f1 6b3c ebbe 07bc
000000d0: fb07 003d e054 0d3d bd3d 7abd 0983 fd3c
000000e0: 2a08 11bd 2005 05bd 5863 93bc 16ee e9bc
000000f0: a123 49bd 5fb7 c6bc 3fcc 90bc 24cc 3abd
00000100: 1f1e 6dbd 2123 57bd 678a 27bd ef53 0e3d
00000110: 8b46 693d e803 073d c81e 59bd 7c93 503d
00000120: cfd7 b03d b978 e63b ec58 5d3d d5b7 21bd
00000130: 0aee 19bd 22e8 5c3d 43be 41bc 0846 753d
00000140: cd78 723b e30a bf3c 1fdb 5cbd 9421 6aba
00000150: 65ea a13c 76de 953c 4ec3 2b3d 5c93 363c
00000160: aaa2 34bd 1dc2 b2bc 5fdb 47bd 7978 e43c
00000170: bf5d 523d 0ced 9c3c 5feb 843b 54de b4bc
00000180: fae2 b23b 7212 53bc 0e3e babc 3d00 803c
00000190: 393a 313c 4c41 66bd 03a3 bb3c acda 533d
000001a0: e9ab 62bc 8544 183d f20e 723d 3fb0 2a3d
000001b0: e7b2 9d3c 6522 21bd 1833 70bd 2262 3c3d
000001c0: 00f1 903c 1112 72ba edb6 29bd bc3b 133d
000001d0: 525c 4fbd 570c f4bb d3e2 2e3b b8f3 693c

fc2.weight f4 [84, 120]
0.102325216 0.017540075 0.026485462 -0.013953163 -0.038389433 0.15018637 0.02887573 0.14943267
0.021712173 -0.054896988 0.056186195 -0.004463606 0.02846968 0.06549231 -0.087550364 -0.08353831
0.06405427 0.1664647 -0.009819827 0.0147051215 0.006459556 -0.09899519 0.035809517 -0.075559355
0.016193274 -0.014191154 0.015142142 -0.060519718 -0.043219775 -0.046298377 -0.0017664384 0.12804085
-0.00079365826 0.0215436 0.0057238 0.028365789 0.02224185 0.025586182 -0.025457403 0.082788594
0.017720787 0.0235446 0.04050756 -0.02474913 -0.08167088 0.112209246 -0.066385016 -0.07436121
-0.07909923 -0.08277874 0.037470832 -0.0191417 -0.02626799 0.076232515 -0.054263823 -0.03471362
-0.11357065 -0.059893787 -0.010708354 0.111220464 -0.0021574325 0.025638193 0.01991328 0.033764828
0.020495338 0.03821409 0.006595044 0.03499347 0.057710227 0.053231917 0.04452816 0.05499719
0.0026356885 -0.0313493 -0.04415278 0.12318584 -0.039250746 -0.04430668 0.03466077 -0.030041842
-0.03600786 0.018927593 0.0646223 -0.0789292 -0.0131379105 0.029389303 -0.053950876 0.09518787
-0.042249575 0.020303251 0.12925571 -0.008461144 -0.0071875956 -0.04982395 0.1250081 0.110102154
0.04928328 -0.13035405 -0.017466543 0.007596959 -0.06167239 -0.047709726 -0.060862266 0.064684786
0.055148285 0.008146825 -0.07724009 0.04682121 0.0052192886 0.013512523 0.06663177 -0.07889187
-0.062619776 0.008588078 0.039083283 -0.08628949 0.109947525 -0.05813759 -0.0068305586 -0.05823563
-0.00589045 -0.10767463 0.048323255 -0.13030888 -0.055454362 -0.009273656 -0.059750967 0.022907041
0.064377084 -0.028551826 0.021075055 0.06351779 0.01896114 0.029433046 0.059425514 -0.09334848
0.026767131 -0.0934548 0.120982505 -0.020916896 0.00056755956 0.016075 -0.067025125 0.047686696
-0.0034697342 -0.078873165 -0.14497532 0.036748484 -0.027978405 -0.042097915 -0.13979778 -0.034684535
0.069155134 0.03182237 -0.03778556 0.15375312 0.01103476 -0.06119331 0.11213986 -0.0068901544
0.011771314 0.028225632 -0.042347904 -0.072000355 -0.031700205 0.07006234 -0.041267242 0.089753635
-0.038685154 0.010153217 0.2086243 0.025753286 -0.12759623 -0.13101228 -0.11337729 -0.032218296
-0.000547483 0.13118187 -0.053515777 0.016824434 0.014261529 0.14344326 -0.13764101 -0.05367064
-0.025637327 0.08763232 -0.12827155 0.005236372 0.008937062 -0.048126817 0.06959582 0.05500856
-0.08158238 -0.02865425 -0.063829355 -0.0032827961 0.106359914 0.12343395 -0.014968441 -0.11614332
-0.06940797 0.028126435 0.020292938 0.1425905 -0.01067205 0.03682286 0.041919034 0.01720188
0.092368625 -0.03342069 -0.052503776 -0.062408697 0.05687795 0.025991345 -0.07137944 0.11615791
-0.064844534 0.046731304 -0.08328189 0.09023102 0.09227529 -0.0275142 -0.043435954 -0.03278224
0.07758441 -0.010876089 -0.060766067 -0.029844008 0.07292941 0.078809954 0.049471647 0.09160347
0.16634694 0.013172644 -0.14772008 -0.12366222 -0.0684733 0.08041958 -0.072576985 -0.022258786
0.0053035147 -0.052774787 -0.09179775 0.013857872 -0.022900334 0.0029180702 0.04067531 -0.06828484
-0.036505364 -0.011859858 -0.041477233 0.005842628 -0.0278624 0.041644383 0.056544986 0.028906215
00000000: e28f d13d 34b0 8f3c 0af8 d83c cf9b 64bc
00000010: 3d3e 1dbd 75ca 193e cb8c ec3c e104 193e
00000020: badd b13c aadb 60bd 7f23 663d 7143 92bb
00000030: 3f39 e93c d520 863d 9b4d b3bd 2216 abbd
00000040: e32e 833d b975 2a3e 57e3 20bc c0ed 703c
00000050: afaa d33b fdbd cabd 00ad 123d ddbe 9abd
00000060: c2a7 843c 0482 68bc bf16 783c 86e3 77bd
00000070: 3807 31bd 5ea3 3dbd d687 e7ba 241d 033e
00000080: 810d 50ba 347c b03c b78e bb3b 5f5f e83c
00000090: 8a34 b63c 1d9a d13c 0b8c d0bc 118d a93d
000000a0: 2f2b 913c 9be0 c03c 41eb 253d b0be cabc
000000b0: 1043 a7bd f6cd e53d def4 87bd b14a 98bd
000000c0: c7fe a1bd e687 a9bd 047b 193d 0ecf 9cbc
000000d0: f82f d7bc cb1f 9c3d be43 5ebd de2f 0ebd
000000e0: bb97 e8bd 3053 75bd 1872 2fbc 8ec7 e33d
000000f0: b663 0dbb 3007 d23c 2d21 a33c fd4c 0a3d
00000100: d7e5 a73c 6186 1c3d 3d1b d83b 5055 0f3d
00000110: 8f61 6c3d b609 5a3d 2963 363d bc44 613d
00000120: 84bb 2c3b 2068 00bd 8cd9 34bd dc48 fc3d
00000130: 64c5 20bd ec7a 35bd 74f8 0d3d 4f1a f6bc
00000140: fa7c 13bd 0a0e 9b3c b258 843d a2a5 a1bd
00000150: 6440 57bc d6c1 f03c 98fb 5cbd dcf1 c23d
00000160: e40d 2dbd 0153 a63c 9c5b 043e 9ca0 0abc
00000170: ec85 ebbb 3314 4cbd 2002 003e 3d7d e13d
00000180: 44dd 493d 887b 05be ff15 8fbc e9ef f83b
00000190: 309c 7cbd 466b 43bd b64a 79bd 7579 843d
000001a0: 2be3 613d 437a 053c 0d30 9ebd 99c7 3f3d
000001b0: 9106 ab3b a163 5d3c 3d76 883d 1092 a1bd
000001c0: cc3e 80bd 03b5 0c3c cb15 203d 8bb8 b0bd
000001d0: 2b2c e13d ae21 6ebd e1d2 dfbb 7c88 6ebd
000001e0: ad04 c1bb 8484 dcbd 9bee 453d b16f 05be
000001f0: 1d24 63bd 88f0 17bc 6ebd 74bd 8ca7 bb3c
00000200: 22d8 833d 85e5 e9bc 98a5 ac3c 9d15 823d
00000210: 6554 9b3c 921d f13c 2b68 733d 7d2d bfbd
00000220: be46 db3c 3b65 bfbd adc5 f73d e959 abbc
00000230: 47c8 143a b8af 833c 7844 89bd 2053 433d
00000240: 7b64 63bb 4188 a1bd 6974 14be 9485 163d
00000250: f832 e5bc dd6e 2cbd 2627 0fbe 5f11 0ebd
00000260: 35a1 8d3d 2c58 023d 08c5 1abd 7571 1d3e
00000270: 23cb 343c d6a5 7abd 95a9 e53d cec6 e1bb
00000280: 78dc 403c 7139 e73c ff74 2dbd ec74 93bd
00000290: 13d8 01bd d87c 8f3d d707 29bd c1d0 b73d
000002a0: 5374 1ebd ae59 263c 9ca1 553e 8ef8 d23c
000002b0: 96a8 02be 1528 06be 5a32 e8bd 55f7 03bd
000002c0: f684 0fba 8a54 063e 5c33 5bbd 65d3 893c
000002d0: 30a9 693c cae2 123e c4f1 0cbe bfd5 5bbd
000002e0: 5f05 d2bc 9378 b33d 9e59 03be df95 ab3b
000002f0: c16c 123c a020 45bd 4188 8e3d a850 613d
00000300: aa14 a7bd 51bc eabc f7b8 82bd 2e24 57bb
00000310: 3ad3 d93d f0ca fc3d 313e 75bc 8ddc edbd
00000320: c425 8ebd 6969 e63c 603d a63c 3e03 123e
00000330: d2d9 2ebc 91d3 163d 4bb3 2b3d f5ea 8c3c
00000340: c32b bd3d 22e4 08bd 330e 57bd 43a0 7fbd
00000350: daf8 683d cdeb d43c 622f 92bd 33e4 ed3d
00000360: 36cd 84bd 5369 3f3d b28f aabd 0acb b83d
00000370: d4fa bc3d 7665 e1bc e6e9 31bd ac46 06bd
00000380: 93e4 9e3d a031 32bc d7e5 78bd 6c7b f4bc
00000390: 045c 953d 1d67 a13d c8a2 4a3d 9a9a bb3d
000003a0: da56 2a3e 13d2 573c ef43 17be 9e42 fdbd
000003b0: bb3b 8cbd 05b3 a43d 3ea3 94bd 0f58 b6bc
000003c0: 1bc9 ad3b 602a 58bd 7500 bcbd 210c 633c
000003d0: 7b99 bbbc 183d 3f3b 279b 263d ecd8 8bbd
000003e0: a686 15bd da4f 42bc 08e4 29bd 8473 bf3b
000003f0: b03f e4bc 4d93 2a3d b79b 673d bacc ec3c

fc2.bias f4 [84]
-0.076594904 0.06793093 -0.055142462 -0.026900336 0.034686252 -0.008864783 0.09006292 -0.07446581
0.07598361 0.011804656 0.06665835 -0.008081894 -0.04923562 0.07963702 -0.070325576 -0.051986866
-0.038794857 0.06700277 0.067064375 0.07552086 0.00801255 -0.07970707 0.019538965 0.029577337
0.034502365 -0.06678002 -0.04986527 -0.027687876 -0.052748356 0.014884425 0.008500125 -0.034581456
-0.02515326 -0.072954595 0.05944846 -0.03661491 0.010881311 0.083862744 0.045533635 -0.044006664
-0.056789976 -0.056565892 0.021527173 -0.021392807 -0.069070905 -5.6780773e-05 -0.04077836 -0.023698611
-0.08009351 0.081196666 -0.052730273 -0.010059695 0.08275999 0.021841373 0.052430402 0.029417614
0.075147904 -0.08232296 0.064831704 -0.018711794 0.09996456 0.006635267 0.03288961 -0.005420889
-0.033679474 0.021471051 -0.031615302 -0.056547463 -0.03299166 -0.014281129 -0.023650317 0.007098441
-0.014636581 0.029162746 -0.086241454 -0.033201046 -0.064585015 0.0007890479 0.06371609 -0.06820769
0.015139858 -0.012603655 0.12726046 -0.07261238
00000000: cadd 9cbd 5f1f 8b3d 10dd 61bd 185e dcbc
00000010: 2c13 0e3d 983d 11bc e872 b83d 8881 98bd
00000020: 4b9d 9b3d 5168 413c 2c84 883d ec69 04bc
00000030: 4aab 49bd bc18 a33d db06 90bd 2ef0 54bd
00000040: 5be7 1ebd c038 893d 0c59 893d aeaa 9a3d
00000050: 1247 033c 763d a3bd 2e10 a03c 2c4c f23c
00000060: 5a52 0d3d f7c3 88bd 863f 4cbd afd1 e2bc
00000070: a90e 58bd cedd 733c 1c44 0b3c 49a5 0dbd
00000080: 360e cebc 3869 95bd 3a80 733d 84f9 15bd
00000090: 8747 323c 3bc0 ab3d 7a81 3a3d 5540 34bd
000000a0: 9b9c 68bd a3b1 67bd c159 b03c f83f afbc
000000b0: 0c75 8dbd e427 6eb8 3607 27bd 9723 c2bc
000000c0: 1108 a4bd 704a a63d b3fb 57bd 6bd1 24bc
000000d0: 127e a93d aeec b23c 43c1 563d 35fd f03c
000000e0: 25e7 993d f198 a8bd 7cc6 843d 7a49 99bc
000000f0: 38ba cc3d a76c d93b 41b7 063d b6a1 b1bb
00000100: 7df3 09bd 0fe4 af3c 0c7f 01bd 509e 67bd
00000110: 4322 07bd 66fb 69bc 4fbe c1bc 0a9a e83b
00000120: 45ce 6fbc b6e6 ee3c 5c9f b0bd d2fd 07bd
00000130: 2645 84bd 1cd8 4e3a 957d 823d 79b0 8bbd
00000140: 2b0d 783c 907f 4ebc 9150 023e cdb5 94bd

fc3.weight f4 [10, 84]
0.03535862 -0.10226539 -0.08806844 0.04832747 -0.08858349 -0.008252635 0.23511912 0.09938899
-0.001601261 0.2839224 -0.27282998 -0.14353095 -0.013050485 0.052794293 -0.1572284 0.04267951
-0.09694201 0.08609993 0.04562298 0.14532407 -0.1590591 0.09640879 0.023458138 0.054823678
0.06652918 -0.085883886 -0.055249732 -0.115488134 -0.0021692854 -0.14923008 0.19178095 0.15128373
-0.10976176 -0.14474319 -0.102957055 0.17147076 0.06449106 0.2843369 -0.08296092 -0.12753454
-0.0054008043 -0.09888085 -0.22454046 0.0041138125 -0.23004656 0.068755455 0.29927883 -0.025759235
0.008281 -0.11736872 0.021290591 -0.1588133 -0.12929288 0.01885677 -0.22527905 -0.05608181
0.2558631 0.0018201589 -0.035339728 -0.32944286 0.2829632 0.018302727 0.0029996862 -0.01613566
-0.23906966 -0.11810469 -0.022327587 0.10939954 0.0806921 -0.0067408527 -0.27934834 0.040037606
-0.12042435 -0.05450264 -0.11486183 -0.08438884 0.0118544195 -0.07503066 0.20799042 -0.083471835
-0.16586006 0.022958674 -0.014146855 -0.08403662 -0.05967284 -0.21388143 -0.003986019 -0.032422952
-0.07551818 -0.078109525 -0.035631705 0.026777523 -0.018422714 -0.023571368 0.066749364 0.37267995
0.053713128 -0.09043778 -0.0148731 0.0012386463 -0.043391656 -0.18692625 -0.12886512 -0.05484253
-0.0072644874 -0.112107344 -0.1939397 -0.2968865 -0.09567838 0.021445487 -0.11021543 0.07580938
-0.099434145 -0.24485181 -0.08281457 0.23478383 0.19385101 -0.23091462 0.039717305 -0.056340314
-0.21900512 0.012109519 0.054182302 -0.051950347 0.046245344 -0.009486461 0.5036527 -0.01732129
0.08181598 -0.1409187 -0.094869785 -0.116578035 -0.016774299 0.0055152485 0.038343746 0.0030886924
0.23443411 -0.03316907 0.36789516 -0.06105183 -0.18519746 -0.06704342 -0.0102136135 -0.013605412
0.10341276 0.01917264 0.04642462 -0.09709755 0.058591902 0.042766523 -0.0212087 0.086727336
0.118962094 0.2904463 -0.019151673 0.08675834 0.12895837 0.2580839 -0.040908832 0.14378488
-0.090106845 0.059653774 0.03083643 -0.011103893 -0.09745128 -0.10220872 -0.032778915 -0.1441315
-0.28040975 0.06040646 0.09245204 -0.10705965 0.0035301838 0.1301741 -0.10126336 -0.05814219
-0.13158575 -0.16742606 -0.19600342 0.10343161 -0.02104695 0.0357015 -0.18142334 0.12284262
0.06193374 -0.048915885 -0.16538113 -0.0723655 -0.13467903 0.0010000272 -0.17582881 0.2199841
0.033030003 0.11140356 -0.075699285 0.147055 -0.09238229 0.27241546 0.0214483 -0.06721417
0.10535137 0.1277655 0.072036155 -0.110817894 0.00050112454 0.024270415 -0.012491888 -0.11116191
-0.075920366 -0.18202469 0.14591806 -0.08993246 0.12643683 0.19562462 0.36985487 -0.079982236
-0.00016576715 -0.013881947 0.010654398 -0.010526966 0.2093904 0.10755301 0.13695616 0.1301821
0.29804003 -0.03939299 0.08973404 0.22490625 0.1001374 -0.009369656 -0.032533314 -0.14592543
-0.14559445 0.08879174 -0.07350192 -0.08684763 -0.13806851 -0.25027612 -0.07073165 0.007740638
0.20253484 -0.044345405 0.09239367 -0.26471847 0.026610197 -0.12417276 0.03686604 -0.090953544
0.07441547 -0.0828831 0.11300203 -0.038725246 -0.008277502 0.33264843 -0.032888684 -0.07004435
00000000: 33d4 103d 8470 d1bd 3a5d b4bd 06f3 453d
00000010: 436b b5bd 0f36 07bc 11c3 703e 748c cb3d
00000020: 67e1 d1ba 475e 913e 5fb0 8bbe c7f9 12be
00000030: b4d1 55bc d43e 583d 7b00 21be b6d0 2e3d
00000040: 8889 c6bd 2955 b03d 29df 3a3d d5cf 143e
00000050: 64e0 22be f971 c53d 482b c03c cb8e 603d
00000060: 7340 883d e4e3 afbd 8b4d 62bd 0b85 ecbd
00000070: 922a 0ebb c5cf 18be 3a62 443e 1fea 1a3e
00000080: c6ca e0bd 8f37 14be 26db d2bd 0896 2f3e
00000090: e413 843d 9b94 913e 6ae7 a9bd 6a98 02be
000000a0: 3bf9 b0bb 0b82 cabd efed 65be 29cd 863b
000000b0: 5391 6bbe a9cf 8c3d 133b 993e 0805 d3bc
000000c0: 08ad 073c 035f f0bd 9b69 ae3c f49f 22be
000000d0: 5a65 04be 8379 9a3c 8daf 66be 0ab6 65bd
000000e0: 7d00 833e 6692 ee3a 64c0 10bd bcac a8be
000000f0: 8de0 903e 9aef 953c 6296 443b ee2e 84bc
00000100: adce 74be dfe0 f1bd 58e8 b6bc de0c e03d
00000110: e641 a53d 5fe2 dcbb bf06 8fbe 79fe 233d
00000120: 0ba1 f6bd 293e 5fbd ae3c ebbd 0ed4 acbd
00000130: 0a39 423c ada9 99bd 71fb 543e 48f3 aabd
00000140: 38d7 29be d413 bc3c 36c8 67bc 641b acbd
00000150: 826b 74bd bc03 5bbe 279d 82bb eecd 04bd
00000160: 47a9 9abd e3f7 9fbd 8df2 11bd 895c db3c
00000170: 3beb 96bc be18 c1bc e4b3 883d e8cf be3e
00000180: 4c02 5c3d 7137 b9bd 4eae 73bc 135a a23a
00000190: 73bb 31bd 9869 3fbe 38f5 03be 90a2 60bd
000001a0: f00a eebb 8998 e5bd 2198 46be 8201 98be
000001b0: 07f3 c3bd 72ae af3c a1b8 e1bd f341 9b3d
000001c0: 21a4 cbbd 6fba 7abe af9a a9bd 2c6b 703e
000001d0: e180 463e e274 6cbe 9dae 223d 1ac5 66bd
000001e0: e142 60be 0167 463c 43ee 5d3d e3c9 54bd
000001f0: c26b 3d3d 1a6d 1bbc 62ef 003f 61e5 8dbc
00000200: 238f a73d fe4c 10be 174b c2bd 77c0 eebd
00000210: 416a 89bc 42b9 b43b 550e 1d3d a96b 4a3b
00000220: 7f0f 703e 4adc 07bd c15c bc3e 7c11 7abd
00000230: 67a4 3dbe 104e 89bd 0057 27bc 3ce9 5ebc
00000240: 12ca d33d f10f 9d3c be27 3e3d 15db c6bd
00000250: 10fe 6f3d f32b 2f3d debd adbc 1a9e b13d
00000260: 66a2 f33d 61b5 943e f8e3 9cbc 5bae b13d
00000270: aa0d 043e 9323 843e 0590 27bd 583c 133e
00000280: f089 b8bd 8457 743d ae9c fc3c 1aed 35bc
00000290: 8994 c7bd ce52 d1bd 2f43 06bd 3597 13be
000002a0: de91 8fbe c46c 773d 7f57 bd3d 1742 dbbd
000002b0: a85a 673b 5c4c 053e 2a63 cfbd 8126 6ebd
000002c0: 6abe 06be bd71 2bbe 1fb5 48be f4d3 d33d
000002d0: a76a acbc bc3b 123d 0ac7 39be e994 fb3d
000002e0: 3cae 7d3d 065c 48bd ac59 29be 5d34 94bd
000002f0: 4de9 09be 5813 833a 780c 34be 8343 613e
00000300: 784a 073d 8d27 e43d 3a08 9bbd 9695 163e
00000310: ed32 bdbd 0a7a 8b3e 58b4 af3c 95a7 89bd
00000320: 76c2 d73d f6d4 023e b187 933d 7ef4 e2bd
00000330: e65d 033a c0d2 c63c c7aa 4cbc dba8 e3bd
00000340: 237c 9bbd ae64 3abe 8b6b 153e 822e b8bd
00000350: a878 013e d251 483e 9e5d bd3e bacd a3bd
00000360: c8d1 2db9 1b71 63bc c98f 2e3c 4c79 2cbc
00000370: 706a 563e c144 dc3d 3c3e 0c3e 754e 053e
00000380: b498 983e 8b5a 21bd 7bc6 b73d d34d 663e
00000390: d614 cd3d 3083 19bc a741 05bd 7a6d 15be
000003a0: b616 15be 72d8 b53d 2d88 96bd 2cdd b1bd
000003b0: d561 0dbe 3124 80be c1db 90bd 2ea5 fd3b
000003c0: 4b65 4f3e 87a3 35bd e438 bd3d 2e89 87be
000003d0: a1fd d93c 4a4e febd d800 173d da45 babd
000003e0: 2367 983d 9dbe a9bd 9c6d e73d 5d9e 1ebd
000003f0: 5c9e 07bc e550 aa3e 49b6 06bd 6a73 8fbd

fc3.bias f4 [10]
-0.08677929 0.14264499 -0.09889157 -0.003732752 -0.01874177 -0.0574715 -0.088802174 0.087126486
-0.003942509 -0.11879712
00000000: 57b9 b1bd 8711 123e aa87 cabd 30a1 74bb
00000010: 5788 99bc 3c67 6bbd eadd b5bd 5f6f b23d
00000020: 2a30 81bb e84b f3bd
