src/global_mnist_cnn.pt (torch, 181781 bytes, 10 tensors)

conv1.weight f4 [6, 1, 5, 5]
00000000: b835 1d3e 8369 543e 2412 493e 90db d7bd
00000010: 56a1 68be 454e 003e 1581 f03d ef37 e43e
00000020: e242 183f 0d8a cd3e 5b75 b6be c7c5 6bbd
00000030: ad6b 283e 4a87 8f3e f60e b43e 8759 8fbe
00000040: ae00 debe c4ed c3be 30c0 acbe de20 b4bc
00000050: d68c 84be f435 a7be b4d6 e6be 7413 dbbe
00000060: 4428 cdbe edf7 18bd 95ed db3c 6253 6b3e
00000070: f8fa 64be 022d 11bd ee92 94be 5409 c1bc
00000080: 4256 cb3e 94e5 943d 081b 9f3b f57b 44be
00000090: c328 443d 8a30 da3e 205e 483e 2e8e 4cbe
000000a0: d25d 19be fafa e4bd e497 123e 761f 6b3e
000000b0: 92b7 6bbe 1ff8 2dbe e168 53bd 7f94 033e
000000c0: fe85 463e a6fa 4a3e 76c2 b43b 2d58 d8be
000000d0: 508e 3abf ac2e d7be 62a8 4bbe e850 3f3e
000000e0: a2d0 0bbf 9858 8ebe 01f2 a23d 598a 4c3e
000000f0: 5ab5 843e f832 de3e 3dcd d03e f600 7a3e
00000100: 3a00 b83b 42b6 1b3e 36a1 043f 3fcd 523e
00000110: 7ca4 b0bd fba0 19be ac73 3fbe 7964 6abe
00000120: cf9f 513d 3dc3 103e 0d16 0f3c 4c17 8fbc
00000130: a703 a93c 96fc 263e 9172 fc3d 18de 7dbb
00000140: bae3 07bd 5054 89bd 7d79 8abe 50ef 1b3e
00000150: a63f 473e 6da0 a1be 5c62 cebe e6cf 4cbe
00000160: 0004 b23e ae32 c93e 27b8 babe 557c 4ebe
00000170: 1080 0e3e 172e d13e 8001 9fbc ca53 72be
00000180: 29ff 8dbd 4cfc 5b3e 6813 7e3e 3818 3ebe
00000190: c465 113e f08a 11be 0334 58be 03d9 14be
000001a0: b242 443d 4f13 2ebe 9c7e 52be 52a9 5f3d
000001b0: 23d2 853e 9edd 943e ab71 13be b966 fa3d
000001c0: f289 a43e ae7f b23e c448 56bd 38be 803d
000001d0: 37d5 dc3e b7d5 8f3e 153d 57be 73a3 a9be
000001e0: 625f e33c faef 5cbe 212b c3be f78c dcbe
000001f0: 1b08 fbbd 6620 c5bc b8c2 2cbe bacb f0bc
00000200: 9b55 48be b68f 8bbe 13f4 adbd 627c 7cbd
00000210: 3242 82be d2cb 23be 9a98 34be 445f 50be
00000220: 8dba 5dbd e232 36be 7286 1fbe 4494 ff3b
00000230: fa74 9cbe c1db 5dbd a89e 27be d3d3 bd3d
00000240: 3766 6a3c 4510 10be 6475 3fbe a8f6 403c
00000250: 86d9 713d e1fa 313e
0.15352523 0.20743375 0.19635826 -0.10539925 -0.22717795 0.12529857 0.117433704 0.44573924
0.59477055 0.40144387 -0.3563641 -0.057561662 0.16447325 0.28032905 0.35167664 -0.2799799
-0.43359894 -0.38267338 -0.33740377 -0.021988329 -0.258887 -0.3265835 -0.4508568 -0.4278828
-0.40069783 -0.037345815 0.026846686 0.22981027 -0.22361362 -0.035443313 -0.29018348 -0.023564018
0.39714247 0.07270351 0.0048555173 -0.19187911 0.047890436 0.42615157 0.19567156 -0.19976112
-0.14977196 -0.111806825 0.14315754 0.2296122 -0.23019245 -0.16989182 -0.051613692 0.12849616
0.19387051 0.19822177 0.0055163456 -0.42254773 -0.728734 -0.42027795 -0.19888452 0.18683207
-0.54615223 -0.27801967 0.07956315 0.1997465 0.2591961 0.4339826 0.40781584 0.24414429
0.0056152614 0.15206245 0.5180849 0.20586108 -0.08625123 -0.15002815 -0.18696469 -0.2288989
0.051177796 0.14136977 0.008733285 -0.017467164 0.020631624 0.16307291 0.12326539 -0.0038737115
-0.03317616 -0.067055345 -0.27045813 0.15228009 0.19457874 -0.31567708 -0.40309417 -0.20001182
0.34768677 0.39296478 -0.36468622 -0.20164616 0.1391604 0.40855476 -0.019409895 -0.23664775
-0.069334336 0.21482962 0.2481209 -0.18563926 0.14198977 -0.14213157 -0.21113591 -0.14535908
0.047915168 -0.16999553 -0.2055611 0.054604836 0.26136884 0.2907533 -0.1439883 0.12226624
0.32136494 0.34863037 -0.05231549 0.06286281 0.4313142 0.2809274 -0.21019395 -0.33132514
0.027755443 -0.21575919 -0.38118842 -0.43076298 -0.12257405 -0.0240633 -0.16871154 -0.02939402
-0.19563906 -0.2725808 -0.08493819 -0.06164206 -0.25441128 -0.1599572 -0.17636338 -0.20348841
-0.054132987 -0.17792848 -0.1557863 0.007799657 -0.30557996 -0.05416465 -0.16369116 0.09268918
0.0143065965 -0.14068706 -0.18697125 0.011777557 0.059045337 0.17380859

conv1.bias f4 [6]
00000000: 5358 84bd aa2c bfbd 07f2 23be 2429 4cbe
00000010: 741e 65be ad43 823e
-0.06462159 -0.09334691 -0.16010295 -0.19937569 -0.22374898 0.25442258

conv2.weight f4 [16, 6, 5, 5]
00000000: 441f 8dbd 365e 093b 5fd6 fdbc eb8e a2bd
00000010: a6f0 d8bd c6db 8cbc 2f2e d9bd 659b 34be
00000020: 587d f2bd 6287 3a3c c667 0fbe de28 a2be
00000030: 7331 acbe 921b 153d 59cd 8d3d 069f 0dbe
00000040: 1eb1 21be 7108 e7bd c6e9 fcbc 1a55 9e3d
00000050: b549 6dbd f0e9 abbb c0e6 133e 393b a6bb
00000060: 20fd a7bd 5a6a 23bc 72bf e43d 5a08 89bc
00000070: aeff c5bc c783 00bd 50f8 023b 3ec3 883d
00000080: 9070 8f3d 2d55 6fbd 96ce a7bc f608 0dbe
00000090: dc52 2f3e 6abb e93d 4885 4fbe 9b40 0fbd
000000a0: d2dd c23d 2d00 813d 4a94 1a3d 211c 54be
000000b0: 4832 88b9 f9b5 293d 35fb bc3c 1e81 193d
000000c0: 06bd 0d3d 8a95 a5bd 9610 25bd 7c90 273d
000000d0: f906 893c bcab 9f3d 69f8 643d 3c2b 813c
000000e0: 0ad6 f4bd eeba 5fbd 0888 f23b c358 853d
000000f0: eeeb 34bd d5e6 00bd f6b4 d83b 7d26 cfbd
00000100: 3882 40bd 51f2 463e 20a7 d0bd 427c 4cbe
00000110: cb87 bb3d 9fc1 663d a197 bcbb 8652 4cbe
00000120: c291 5a3c d2ff ae3e 9fe6 0f3e cb23 963d
00000130: 37f7 3dbd 352c 8b3d aac3 043d 06f4 4a3d
00000140: 64e4 c2bc a7b7 3d3e 4a00 603e 888f c7bb
00000150: 6c51 cf3c 64bf 773d 032c 353e 6962 b43d
00000160: 23d8 abbd 7574 1d3e eea3 c1bd dce6 1cbd
00000170: ee15 3cbe e102 d5bd 97e5 b1bd 7a89 d4bc
00000180: d02e 8b3d fdb1 03be 5081 80bb 52a8 26bd
00000190: 0c12 20bd 3827 c1bd 3d1d 53bd 3134 293c
000001a0: 8c2e ba3d 14b7 b5bd 0c80 2ebe 445b ff3d
000001b0: 048d 983d 30a9 b9bc 50ff 24ba 604d 9f3d
000001c0: 6eab 023e 59fb 9fbc 2b86 72bc 68c6 553c
000001d0: 39d3 71bd 80ad 76bd 70d9 253e 0200 3f3e
000001e0: 38ed 3a3c ad6e fcbc 1efa 98bc c85b e33a
000001f0: edee 1bbe beb3 6fbc 2877 30bd 589b f9bd
00000200: 3ebc fd3b 6d92 59bd eac0 fcbd e0bf debd
00000210: 30f9 53bd 8399 50bd d859 e4bb 75cd 9cbd
00000220: b7ec 8dbd 30d6 13be de75 b8bd 7567 8b3c
00000230: f446 f3bc e93b e5bd 4426 9abd e4c8 d2bb
00000240: 22d1 c8bd 0c58 67bd 0e40 22bd bcde 53be
00000250: 0200 63be 476b 33be bfde 5fbd ca1a babd
00000260: b265 333d 56c1 4d3d fc86 99bd 50aa 9e3d
00000270: 873a 46be 4899 0bbd fdf5 bd3d 2e60 553e
00000280: 6af3 0c3e 4dcc ba3d ce4e 30be 87ce 3dbe
00000290: cd90 70be ffaa d7bd 7329 193e 0c01 793d
000002a0: 6411 32bd d9ed 8dbd d234 473d f2c3 983d
000002b0: 47db 373e 6aa0 443e ee6f 153e 6473 47bd
000002c0: 3c92 46be f81b 60bd ac55 773e 1e0e 663e
000002d0: 88f5 8fbd e53b 41be b8e2 8dbe c972 62be
000002e0: 8281 85bd 0eaf 03be 6cbd 103e 0545 c53b
000002f0: 0bed 2dbe 0068 b5bd 36d9 33bd 1f50 2d3e
00000300: c6f4 c23d d45d 9ebc c3ad 81bd 38f6 603d
00000310: ee5c d3bb 3a87 ad3d 2acc ea3d c7e8 debd
00000320: 49c0 9f3d 81a0 24be 45f2 acbd d5c6 b0bd
00000330: e5c2 083d d21c 2c3d 2327 fa3d 931c 13be
00000340: 64fb 84be b758 7cbe 9c9f 973d 582f 063e
00000350: cde4 903e 1450 f83d 47b9 6dbd 99c8 c33d
00000360: 86bc 0fbe c4ea aa3d 8ee3 853e 6325 7b3e
00000370: 2183 83bd e45e e33d 555d 90bd 5cae 013e
00000380: ac30 f83d c9fe 03be ee4e d5bd 6b88 b73d
00000390: 1e5d 7e3e ab88 103e 9084 2bbe b2f6 68be
000003a0: 9b46 cbbd 338d e8bc 3179 053b 308f f83c
000003b0: 574f b8bd 6c81 a1be 40d7 65be d185 abbd
000003c0: 0f1c 943d 5fec ef3c cc7f 13be 4a61 13be
000003d0: c1ff 10be 55fd 7e3d 24f5 483c 4066 00bb
000003e0: f03f 113d cc16 03be d0db a3bd c84e 18ba
000003f0: 8e1b 113d 3094 6e3d aa24 0b3d 0ad1 65bd
-0.06890729 0.0020960695 -0.03098601 -0.07937416 -0.10592775 -0.01719464 -0.10604512 -0.17637403
-0.11840314 0.011384817 -0.1400443 -0.31671804 -0.33631477 0.036403246 0.069239326 -0.13830194
-0.15790221 -0.11280907 -0.03087319 0.077310756 -0.05793162 -0.0052463934 0.14443493 -0.005072978
-0.08202577 -0.009974087 0.11169328 -0.016727615 -0.02416977 -0.031375673 0.0019984432 0.066778645
0.070038915 -0.05843084 -0.02048425 -0.1377295 0.17121452 0.114126995 -0.20265687 -0.034973722
0.09514965 0.06298862 0.037739076 -0.20713855 -0.00025977404 0.04143331 0.023069004 0.03747665
0.034604095 -0.08085163 -0.04029902 0.040909275 0.016726958 0.077964276 0.055900965 0.015767686
-0.11954887 -0.05462163 0.00740147 0.065110706 -0.044170313 -0.03147014 0.006613369 -0.10114763
-0.046999186 0.19428374 -0.101881266 -0.19969276 0.0915676 0.056336995 -0.0057553803 -0.19953355
0.013340415 0.3417955 0.14052819 0.07331046 -0.04637834 0.06795541 0.032413162 0.049549125
-0.023790546 0.18527089 0.2187511 -0.0060901083 0.02530738 0.06048526 0.1769257 0.08807833
-0.08390834 0.15376456 -0.09455095 -0.038306102 -0.1836774 -0.1040094 -0.08686369 -0.02594446
0.06796038 -0.12860866 -0.0039216653 -0.040687867 -0.03907971 -0.094313085 -0.051541556 0.010327385
0.09090909 -0.0887281 -0.17041034 0.124685794 0.074487716 -0.022663683 -0.0006294148 0.0777843
0.12760708 -0.019529032 -0.014802496 0.013047792 -0.05903933 -0.060224056 0.16196227 0.18652347
0.011409096 -0.030814493 -0.018673953 0.0017346079 -0.15227862 -0.014630256 -0.043082386 -0.121878326
0.0077433875 -0.053118158 -0.12341483 -0.10876441 -0.051751316 -0.05092765 -0.006968718 -0.07656375
-0.069299154 -0.14437175 -0.090068564 0.017017106 -0.029696919 -0.111930676 -0.0752683 -0.0064326394
-0.09805514 -0.056480452 -0.03961187 -0.20690435 -0.22167972 -0.17521392 -0.054655787 -0.09087141
0.043798156 0.050233208 -0.07496449 0.07747328 -0.19358264 -0.034081727 0.09275434 0.20837471
0.1376473 0.091209985 -0.17217562 -0.18535815 -0.23492737 -0.10530662 0.14957218 0.060792014
-0.043473616 -0.069301315 0.048634358 0.074592486 0.17954741 0.19201818 0.14593479 -0.04869403
-0.19391721 -0.054714173 0.24153775 0.22466323 -0.07029253 -0.18870504 -0.27712035 -0.221141
-0.06518842 -0.12859747 0.14134759 0.0060201907 -0.16984956 -0.08857727 -0.04390832 0.16925095
0.09519343 -0.01933185 -0.063319705 0.054922312 -0.006450287 0.08473058 0.114647225 -0.108842425
0.07800347 -0.16076852 -0.08444647 -0.08631674 0.03338899 0.042019673 0.12214496 -0.14366369
-0.25973046 -0.24643217 0.0740349 0.13103998 0.2829956 0.12124649 -0.058038022 0.09559745
-0.1403676 0.08345559 0.26150173 0.2452598 -0.06421495 0.11102083 -0.07049052 0.12664169
0.121186584 -0.12890162 -0.10415445 0.089615665 0.24840209 0.14114635 -0.16749787 -0.22750357
-0.09925576 -0.028387642 0.0020366425 0.030341715 -0.08999508 -0.31544054 -0.22445393 -0.08375133
0.07231914 0.029287515 -0.1440422 -0.14392582 -0.14160062 0.062253315 0.012265477 -0.0019592196
0.035461366 -0.12801665 -0.0800091 -0.0005810079 0.03542667 0.05824679 0.033970512 -0.05610756

conv2.bias f4 [16]
00000000: 532c 523b 03d4 efbc ee74 2e3d b90e 62bd
00000010: 843f 5c3d dbe0 8e3b 5424 f73c 9eed b1bc
00000020: 9ea3 a43d 682b c2bd 684c 3d3d 0404 1ebd
00000030: 7dc3 3b3c 04fe c13b 32b7 9cbc 3c21 9b3b
0.0032069876 -0.0292759 0.04259198 -0.055189822 0.05377151 0.004360301 0.03016869 -0.02171975
0.0803902 -0.09480935 0.046215445 -0.03857805 0.011460182 0.0059201736 -0.019130323 0.0047341865

fc1.weight f4 [120, 256]
00000000: ff46 553c 849b bcbc 067d 193d eb48 963c
00000010: f648 b33d b5e0 913d a955 12bb b073 82bc
00000020: 27f4 41bd 62cc 3fbd e870 92bd 3c6b fe3c
00000030: 571e 14bd 4bb7 debc d88a 31bd 8ecf 3f3d
00000040: 1827 663d 842d 9b3d 9e3a cb3d 7d7b 143d
00000050: 0864 283d ed41 153c 42e1 98bc 0c3e 20bd
00000060: fe29 473d 200b 213d ec06 fabd 5ea8 8bbd
00000070: ae30 043c 3bc7 2dbe f841 0bbe 24b1 8fbd
00000080: d0f5 723c 490d 9a3d e375 0dbd 607e 753d
00000090: 4813 2a3d ca3f 70bc dcd3 993c 2807 c93b
000000a0: 2c01 1c3d 9cb4 133d d2e9 febc 0264 e33b
000000b0: 96cf 25bb 0119 28bd 2484 8cbc da7e 9dbb
000000c0: b6a9 54bd 1bfb 0b3c 3bd5 95bc e100 203d
000000d0: d22b c6bc 2325 8dbd e20b 443d 1e4d 27bd
000000e0: 6bbe ebbc cc92 89bd 8c26 8abb cf9e 7fbc
000000f0: 3cff 213d c4ae 5bbd 6784 a73c 0ae4 37bc
00000100: 4cb6 783d 839b 843c c94e 123d b055 43bd
00000110: bf34 af3a 6df5 823b f2c2 54bd dcb0 63bd
00000120: bd1f acbb efd5 ce3d 59ae 90bc 8e3f 26bd
00000130: 54ea af3c ce08 2dbd a639 14bc 1cff 943d
00000140: 3b4a bc3c 8a96 3dbd 8622 46bd 8aa3 2a3c
00000150: 43c5 8bbc cd5d 4f3d e2b8 27bd d82c 1b3d
00000160: 4cec 843d f654 52bd 410d 5fbd dc72 01bd
00000170: a081 243c 7217 31bd 941f 063c b5d0 22bc
00000180: 7092 df3c a497 5a3c c88f c6bd 85a6 d5bc
00000190: 9b3f 963d e0d2 5a3d c9fe 32bd ae69 89bd
000001a0: 5294 4abd 87f3 97bc fc56 30bc 3c16 933c
000001b0: 1f23 3bbd be34 36bc 88c7 133c 98bf 0a3d
000001c0: 0e4b 4dbc 341f 423d 7961 e23b a974 e83c
000001d0: 5db9 60bd d100 fa3c 9050 1ebc 2142 1e3d
000001e0: 80e3 06bd 74a7 5a3d b4e3 aa3d afa4 16bd
000001f0: 083f c13d 5ed9 1fbd 99f8 3c3d 7e69 51bd
00000200: 5bbf 22bd ba70 92bd 25d6 963d e0f2 c5b8
00000210: 56e7 c8ba 1420 b83c a8cd 743d 2932 33bd
00000220: 8601 4fbc 7394 75bd 02fa 8e3d 5b95 3fbd
00000230: 0e55 5abc ea46 07bc 90b4 823c c35d 6c3d
00000240: bb52 d9bc 5023 7bbd 381f e03c 3f95 bebd
00000250: 0b9f 473d 0525 983c b63a a1ba a39a c8bd
00000260: 6f3e 943c 5724 38bd 4862 adbb f072 7fbd
00000270: 60a4 043d ad42 6bbd a5f7 8ebd d927 3d3d
00000280: af4f d7bc 9f98 65bd 50ff 3dbc db88 42bd
00000290: 557b 683d 89cf 94ba ebba f6bc a505 59bd
000002a0: b167 92bc 6065 783d 457e 16bd c48e 28ba
000002b0: 60fa fc3c 477e c53d 3c15 b33c 6c3b d3bc
000002c0: ae99 94bd a4ed 8cbc 3564 893c 0cd9 033d
000002d0: c826 373d 8ad1 55bc b9f8 03bd faf3 cf3d
000002e0: 6495 873d 8d69 833c 1afb 03bc 5438 1cbc
000002f0: 8f6e 9fbc 8c85 e2bc 586a 2dbd b672 f63c
00000300: 9570 f4ba 8a54 293c 5ef3 a6bd bc7d cebd
00000310: a310 173d 7d11 953c f628 b9bc cae0 1c3d
00000320: fb72 8f3d 14f1 be3c af02 9e3c aa1f 5d3c
00000330: 017a d9bc ab7f 12bd 9e40 c2bb c565 b63d
00000340: d84b 5e3b 2549 923d c2c8 4c3c 822f 68bd
00000350: 1642 953b 30d2 ee3c 61db 60bd 746a 223d
00000360: cd66 953c 8827 56bb 8bb3 7f3c 6c33 d1bd
00000370: 3056 93bd 3a5c 2ebd 3a7a d1bd 1dcb 63bb
00000380: 98b6 96bc 905d abbc 382f 1cbc 2583 bb3d
00000390: f64c 38bd 3b81 863d 629f b23d 6d3c 973d
000003a0: 00d0 4bbc 0ded 47bd b75a 80bd e633 e1bb
000003b0: 2d01 c5bc ba89 b4bd 8d8e 883c cd4b 93bd
000003c0: fc64 b1bc 0cf8 053d 35ef e83c 1095 863d
000003d0: 6417 a3bd 68e8 41bd 842c 703c 40cf 1abc
000003e0: 68b8 8bbc bc17 31bd a3a6 1dbc 2488 243d
000003f0: 67e4 523d 1cbc 91bc e6ed 663d 5943 90bd
0.013017415 -0.023023374 0.037472747 0.018345317 0.087541506 0.071229376 -0.002232889 -0.015924305
-0.047351982 -0.046825774 -0.071504414 0.031056993 -0.036161747 -0.02718701 -0.043345302 0.0468288
0.056189626 0.07577041 0.0992329 0.03625058 0.041111022 0.009109956 -0.018662099 -0.039121673
0.04862403 0.03931725 -0.122083515 -0.06819223 0.008068247 -0.16970532 -0.13599384 -0.07016209
0.014829114 0.07522065 -0.034536254 0.059934974 0.041522294 -0.014663646 0.01877778 0.0061348863
0.038087055 0.036060914 -0.031117354 0.006939412 -0.0025300733 -0.04103947 -0.017152853 -0.0048063817
-0.05191966 0.008543755 -0.018290153 0.03906334 -0.024190817 -0.06891849 0.047862895 -0.04084503
-0.028777322 -0.067174524 -0.004216021 -0.015601828 0.03955005 -0.053633466 0.020448877 -0.011223802
0.060720727 0.016187435 0.035719667 -0.04768914 0.001336716 0.003996542 -0.051943727 -0.055588588
-0.005252807 0.10099398 -0.01766126 -0.040587954 0.021474041 -0.042244725 -0.009046948 0.07275221
0.022984615 -0.046286143 -0.048372768 0.010414967 -0.017061835 0.050626565 -0.040947802 0.037884563
0.064903826 -0.051350556 -0.054456 -0.03160368 0.010040671 -0.04323525 0.00818624 -0.009937455
0.027291507 0.013341818 -0.09695393 -0.02608038 0.073363505 0.053423762 -0.043700013 -0.0670961
-0.049457856 -0.01854874 -0.010762926 0.017954938 -0.04568779 -0.011120973 0.00901974 0.033874124
-0.012530101 0.04739304 0.0069085923 0.02837594 -0.054864276 0.030517967 -0.009662762 0.038637284
-0.032931805 0.053382352 0.08344212 -0.03677815 0.094358504 -0.039025657 0.04613552 -0.051125996
-0.039733272 -0.07150407 0.073650636 -9.438931e-05 -0.0015327733 0.022476234 0.05976644 -0.04374901
-0.012634641 -0.059956025 0.06981279 -0.046773296 -0.013325943 -0.008256653 0.01595524 0.057706606
-0.026528707 -0.061312973 0.027358636 -0.0930581 0.04873566 0.01857234 -0.0012300822 -0.097951196
0.018096177 -0.04495653 -0.005291257 -0.062365472 0.032383323 -0.057436634 -0.06980828 0.04618058
-0.026283113 -0.056053754 -0.011596516 -0.047493797 0.056758244 -0.0011353354 -0.030118426 -0.0529839
-0.01787171 0.060643554 -0.036741514 -0.0006429965 0.030881107 0.09643226 0.021860711 -0.02578517
-0.072558746 -0.01720316 0.016771415 0.032189414 0.04471472 -0.013050446 -0.032219622 0.10153957
0.06620291 0.016041541 -0.008055473 -0.009534914 -0.019461898 -0.02765157 -0.042337745 0.030083995
-0.0018649275 0.010335097 -0.08151887 -0.10082576 0.0368811 0.018196816 -0.02260254 0.038300313
0.07004353 0.023308314 0.019288389 0.013496319 -0.026547434 -0.035766285 -0.005928113 0.0890613
0.0033919718 0.071428575 0.012499036 -0.056685932 0.004554997 0.02915296 -0.054896716 0.039652303
0.018237496 -0.003267737 0.015606771 -0.10214886 -0.07194173 -0.042568423 -0.10228391 -0.0034758516
-0.018397614 -0.020918638 -0.009532742 0.09155873 -0.04499527 0.065676175 0.08721806 0.07384572
-0.012439728 -0.048810054 -0.062673025 -0.006872642 -0.024048412 -0.08815332 0.016669536 -0.07192192
-0.021654598 0.03270726 0.028434375 0.065714 -0.07963446 -0.04734078 0.014659051 -0.009448826
-0.017055705 -0.043235525 -0.009622249 0.040168896 0.051487353 -0.017789893 0.05637922 -0.070440955

fc1.bias f4 [120]
00000000: 374c eabc ce91 d1ba c2e6 9cbb 56c1 c8bc
00000010: a02d ec3c 7eed 6fbd 9bdd 793c 9e9b cd3c
00000020: 006c 01bd 7812 8b3c a488 573d aa96 ef3c
00000030: 3a09 48bd 4c7f 9c3c 6473 7fbc 8fe2 dabb
00000040: f8ed 8b3d 4e51 313d 16a1 683b 88e7 c43b
00000050: 9626 cabc 62b0 e13c 486c 673c 8100 4e3d
00000060: c42b 943d 0899 383c 1a9d 19bd f88a 9cbc
00000070: b1e6 683c 74bd 1bbd 3465 f2bc 819b 113d
00000080: b25b dabc 1a0e 85bc 1e92 f8bc 83a9 b93b
00000090: 12c8 86bd ff27 833d 9c2c d0bc 92e3 d2bc
000000a0: 23b8 393d 1ebb 1c3c 4da8 5d3d 8c97 e13c
000000b0: 462e fe3c fb9c 373d dbf5 ae3c fbeb b83c
000000c0: 1e3f 1e3d 3c60 a13c a972 373d 544c a5bc
000000d0: 933a b0bc a2a0 34bd 3060 42bd edff 2bbd
000000e0: ed0d 8d3d 7a3c 44bc c695 79bd a299 57ba
000000f0: e66a 8ebd e050 2cbd 2112 963d b3e4 c53d
00000100: 1614 f9bc f800 a1bc b1ed aa3c 609d eebc
00000110: a2a3 c6bc d63d 44bd 5bab 28bc fe73 86bc
00000120: 44f3 8dba 6f6a f73c 8ac5 bebc 28df 403d
00000130: f075 43bd 5755 14bd 6f13 533c 5001 9abc
00000140: c493 203d 3620 75bd fc8d 77bc 49f3 62bc
00000150: 57ac cc3c b26c 043d 5c87 293d 623f af3c
00000160: 98a2 233d 7194 c4bc 5a70 32bb 952e ecbc
00000170: 6e73 11bc ea59 90bd d000 8e3c 0996 21bd
00000180: 86c8 573d 513a 323b 849c af3c d606 cd3c
00000190: be09 64bd 1c4a fdbc 388a 573d ee47 7f3d
000001a0: a1bc 5fbd 4691 c73c f942 5d3d fa79 9d3b
000001b0: a6be 14bd 0230 323d 1a30 bfbc ce07 81bc
000001c0: f0ce 00bd 80bf 4d3d 2974 6e3b fe5b 4a3d
000001d0: 24bc 03bd 24c3 073c 9abc 663c 3049 793d
-0.028600795 -0.0015988888 -0.0047882507 -0.024506252 0.02883035 -0.0585761 0.015250589 0.025098618
-0.031597137 0.01697658 0.052620545 0.029246647 -0.048836924 0.019103669 -0.015591476 -0.00667984
0.06832498 0.04329043 0.0035496405 0.006009046 -0.024676602 0.027549926 0.014124937 0.05029345
0.0723491 0.011266954 -0.03750334 -0.019109234 0.014215157 -0.038022473 -0.029589273 0.03554869
-0.026655052 -0.016242076 -0.030343112 0.0056659593 -0.06581129 0.06404113 -0.025411896 -0.02574328
0.045341622 0.009566097 0.054115582 0.027538083 0.031027924 0.044827443 0.021357467 0.022573462
0.038634412 0.019699208 0.044787083 -0.020177998 -0.021512305 -0.044098504 -0.047455013 -0.041992117
0.06887422 -0.011977309 -0.06093385 -0.0008224492 -0.06953983 -0.042069316 0.073276766 0.096627615
-0.030405086 -0.019653782 0.020865293 -0.029127777 -0.024247948 -0.047910534 -0.010294761 -0.016412731
-0.0010829945 0.030202119 -0.023287553 0.04708782 -0.047719896 -0.0362142 0.012883051 -0.018799454
0.03920342 -0.059845172 -0.015109535 -0.013851949 0.024984522 0.032330222 0.041388854 0.021392528
0.039949983 -0.023996564 -0.0027227611 -0.028830806 -0.008877618 -0.070484 0.017334372 -0.039449725
0.05268147 0.0027195404 0.021436937 0.025027674 -0.055673353 -0.030919127 0.05262205 0.062324457
-0.05462325 0.024361264 0.05401895 0.0048058005 -0.03631463 0.043502815 -0.023338366 -0.015750792
-0.03144735 0.050231457 0.0036385155 0.049404137 -0.032161847 0.008286271 0.014083052 0.060860813

fc2.weight f4 [84, 120]
00000000: ee62 4fbc 04aa c13d c561 54bd e32c 933d
00000010: f2e7 4f3d b768 ecbc 9da7 b3bc e4b3 8c3c
00000020: 2eb0 af3b c30d a0bd bd3e a2bd 95e1 1abd
00000030: d5ef fcbc 8557 08bd a714 4dbc 0b5a edba
00000040: 2184 3ebd 4013 d43d 6a58 96bd 0b33 b4bd
00000050: 9695 183d 4b5a 96bd 2023 b0bb e413 e6bc
00000060: aa4e 843d 45c4 febc 4bd2 303d b17b 703d
00000070: adb5 90bc d011 a1bd bc11 b53d 5410 c6bc
00000080: 6c43 98bd de12 9d3d 8005 8a3b da92 24bd
00000090: 8d09 5dbd 34e6 73bd 221b b03d 9fca aebd
000000a0: e25f a43d 3ee5 adbc b935 76bd 3273 2fbd
000000b0: 96f5 62bd 2cce 90bc 0025 47bd f619 833d
000000c0: 2ca0 093c 5132 163d ce69 4a3d 12a5 a7bd
000000d0: b753 98bd faf3 2ebd d38d 93bd 4005 643d
000000e0: b40b 763d 5d1c 6fbd 5da6 443d 3541 a63d
000000f0: 295a c63c 50c2 f939 3ae3 793d d2c6 a13d
00000100: f48a da3c 1258 a8bd 4612 6fbd ddf9 b33d
00000110: 5606 09bd 520c a9bc 09b2 a23c e7a8 1fbd
00000120: a1e2 813d d380 7ebd 5797 103c 94d0 9d3c
00000130: 854b 1bbd 3869 703c 6b32 a4bd f8a6 283d
00000140: 11e1 76bd 0ec4 0b3c 45d6 9abd 09b0 e8bc
00000150: cdd8 acbc 2ed1 34bc c5ae b4bd e015 79bc
00000160: 6e84 373d 536e 77bd 6068 8f3c ae6e e43c
00000170: 5a85 54bd 8c6f afbc 55d3 45bd f409 4d3d
00000180: e75a abbd 5ba7 973d 4208 90bd 0893 173d
00000190: 6410 963d e176 22bd 2b58 b6bc ccb0 a4bc
000001a0: 14a7 5a3d aa04 69bd 483d ac3c 2c57 9a3d
000001b0: ebc6 063d d2f7 7e3c 1204 073d d4fd 7e3d
000001c0: aad4 97bc 8a83 9fbd fac3 5ebd 0aca c4bd
000001d0: fa3e 05bd bf66 133c 6c61 cc3b 6065 8bbd
000001e0: 963f ae3d d487 c4bd f6e3 d43c 7d97 81bd
000001f0: 7cc3 b4bd ea94 553d 381a bcbc 52db 2cbd
00000200: bbfb 01bd b347 e13d ce1c 733d bc44 63bc
00000210: 22e0 15bd c03a 323c 14e5 873d 288b 453d
00000220: ceff 2a3e 3afa c2bd b4c5 d1bd 705f 563d
00000230: ad0c d93d 8962 363c 5b43 0b3e 5ed4 5abc
00000240: 2e61 783d feb2 b53c 6f3e ed3d 09fe 473e
00000250: 8edb aebd 28e0 4339 580c 01be 0054 d23c
00000260: de70 c33d 5655 cbbb f667 13bd 24f2 a5bc
00000270: 3c92 03bc 5c28 41bd 9af5 113d b211 0f3e
00000280: 698c d1bd ba8f c5bd 581c 62bd 6438 edbc
00000290: 219d 613c 221c a7bd 04a1 bb3d af14 53bd
000002a0: f817 60bd 4e41 3abd 015b 4cbd c0c2 c0bc
000002b0: 95c5 8fbc a9ca a23d f9e2 2f3c 0e32 85bd
000002c0: 08ee 233e 3855 e23d 1aae 993c 54c3 0f3d
000002d0: cc0d 85bd 8388 a8bd 15e3 1bba 733c bebc
000002e0: b956 1a3d 90a4 d3bd 91c3 93bb f6ce 9bbd
000002f0: f586 f63d 40f3 92bd 5d41 37bd 9a9e 9abd
00000300: 1a36 b73d 0dcc 113d 5c3d 50bd 5b8c 1cbe
00000310: 61d2 89bb 4208 c53d c7e6 c4bd 86bc 37bc
00000320: 27f2 ee3d 0e6e c1bd 4b55 aa3d 68cf 89bd
00000330: e6eb d4bd f231 c1bd fcb8 adbb 4264 8cbd
00000340: e37b 4c3d e9f5 69bc 21bd 20bd 39f8 ae3d
00000350: 4172 313d 3e79 c6bd f0de 0fbd 5c07 8d3d
00000360: c01a e83d 44de 42bc 3e19 25bd b88c 7f3d
00000370: d1d1 46bd ff55 b73c ca47 ea3c f8de 10be
00000380: 5af2 b53d 6f7f f9bd 8685 86bd 3c41 cbbc
00000390: 861a bb3d 439a 5fbd a0e9 a53d eab2 a53d
000003a0: 73f0 9d3d 10c9 083d fc47 19bd 5d52 adbc
000003b0: 853b bf3d aa7c 443d 9b9a 8f3d 5fd3 0f3d
000003c0: 375a e43c 85d0 ce3c 26f7 13bd 64f7 cdbc
000003d0: 3e37 ce3d 6e31 f5bc 5d25 87bd 61f1 843d
000003e0: e0bd ce3d 2d16 453c c3fe 8f3d ca82 b3bc
000003f0: b277 b8bd b7b9 8d3d c425 85bb a3ab 15bd
-0.012657864 0.09456256 -0.051851053 0.07186296 0.05075831 -0.028858526 -0.02193051 0.017175622
0.0053615784 -0.07815125 -0.07922123 -0.037812788 -0.03087608 -0.03328659 -0.012517131 -0.00181085
-0.046512727 0.10355234 -0.073410824 -0.08798798 0.03725203 -0.07341441 -0.005375281 -0.028085656
0.064603165 -0.031099448 0.0431693 0.05871171 -0.017664755 -0.078647256 0.08841273 -0.024177708
-0.07434735 0.07669614 0.0042120814 -0.04017911 -0.053964186 -0.05954571 0.08598925 -0.08534741
0.08026101 -0.021227475 -0.060109828 -0.04283447 -0.05540999 -0.017676435 -0.04861927 0.06401436
0.008400004 0.03666908 0.04941731 -0.081857815 -0.07437842 -0.042713143 -0.07204785 0.05566907
0.060069755 -0.05837666 0.04801022 0.08117906 0.024212914 0.00047637755 0.061007716 0.0789925
0.026677586 -0.08219923 -0.058367036 0.08787892 -0.033453308 -0.020635758 0.019860284 -0.038979437
0.06342054 -0.062134575 0.008825145 0.019264497 -0.037913818 0.014673524 -0.08017429 0.04117486
-0.060273234 0.00853063 -0.075604 -0.028404253 -0.021099472 -0.0110362 -0.08822397 -0.015202969
0.04480403 -0.060407948 0.017505825 0.027884807 -0.051884986 -0.021415494 -0.048297245 0.05005832
-0.083669476 0.074049674 -0.07032825 0.037005454 0.07327345 -0.039664153 -0.022258839 -0.020103835
0.053381994 -0.056889214 0.021025315 0.07536158 0.032904547 0.015562015 0.032962866 0.062253788
-0.018534023 -0.07788761 -0.054386117 -0.096088484 -0.032530762 0.008996665 0.0062371995 -0.06806445
0.08508222 -0.0959622 0.025987606 -0.06327722 -0.08826348 0.05214397 -0.02296172 -0.042201348
-0.03173421 0.11000004 0.059353642 -0.013871368 -0.036590703 0.010878265 0.0663549 0.048228413
0.16699144 -0.09520383 -0.10242787 0.05233711 0.10598121 0.011131891 0.13599913 -0.013356296
0.060639553 0.022180077 0.11584174 0.195305 -0.085379705 0.00018680154 -0.12602365 0.02567482
0.09543012 -0.006205241 -0.035987817 -0.020257063 -0.00803047 -0.04715763 0.035634615 0.13971594
-0.10231859 -0.09646554 -0.055202812 -0.028957553 0.013770373 -0.08159663 0.09161571 -0.051533397
-0.05471036 -0.045472436 -0.049891476 -0.023530364 -0.01755027 0.079488106 0.010735267 -0.06503688
0.1600877 0.110514104 0.018759776 0.03509839 -0.06496772 -0.082291625 -0.00059466186 -0.023222184
0.03768036 -0.10334122 -0.0045093973 -0.07607834 0.1203746 -0.071753025 -0.04474007 -0.07549782
0.08945866 0.03559499 -0.050839767 -0.15287916 -0.0042059873 0.09620716 -0.0961433 -0.011214381
0.11667281 -0.094448194 0.083170496 -0.06729013 -0.103965566 -0.094333544 -0.005301593 -0.0685506
0.049922835 -0.014279821 -0.039242867 0.085434385 0.04332185 -0.09691094 -0.03512472 0.06886169
0.11333227 -0.011893813 -0.040307276 0.06239006 -0.04853994 0.022379873 0.028598685 -0.14147556
0.088841155 -0.12182509 -0.06568436 -0.02481138 0.09135918 -0.054590475 0.08101201 0.08090766
0.07711878 0.033394873 -0.037422165 -0.021157438 0.09337524 0.04797045 0.070119105 0.03511369
0.027875049 0.025245914 -0.03612437 -0.02514238 0.1006913 -0.029930796 -0.06598923 0.06491352
0.100948095 0.012029213 0.07031014 -0.021912951 -0.09007205 0.06920188 -0.00406334 -0.03654064

fc2.bias f4 [84]
00000000: 2419 d5bc 815f 8cbb dfa7 44bc cb34 07bc
00000010: 7653 2dbd 7aca 0d3d fc51 87bd ecf4 61bd
00000020: 9a2f 1abd 0665 823c 1804 513d 06be c3ba
00000030: 7043 93bc 2b17 6c3d 0139 7e3d ea6b 8ebd
00000040: 6d6f 833d d0cd 593d 3991 56bb b446 fc3c
00000050: 58d8 743d dafe 7e3d cb8e 553c 06b0 853d
00000060: 6123 afbd 218f 143e 5d1f 353d 038a d73d
00000070: 0c68 04bc af7c bf3d 0532 d0ba aeb3 67bd
00000080: 39b0 bc3d 1cdc 093d 7634 353d 1e61 babd
00000090: deac 86bc 2d8f 9dbb 5d9c 72bd fc14 b3bd
000000a0: 86c3 7a3c 0e6b 99bd 3756 9c3d 305a 12bd
000000b0: c684 9fbc da8e 853d 3fb6 9f3c 4a54 743c
000000c0: 99a7 b1bd 94a3 32bb 065a a3bd 2d24 c2bc
000000d0: daf3 b1bd 8e3e 8f3d e667 1e3d d77e b4bd
000000e0: ffac 273d 7b5c a6bd d6b4 1dbd 46c6 2b3d
000000f0: 84a9 923d 0b7a 28bc e12b 5d3d 51bb b6bc
00000100: 66aa 363d 61c9 233d 024d 6dbd 7026 c83c
00000110: a01f 23bd e8dc af3b b436 0e3d 8b68 f53c
00000120: a92b a6bd b842 723d be75 153d acc8 bbbc
00000130: 3019 22bb 167a 243d 5d15 a6bd f1bf f23c
00000140: 2333 ab3d ba46 b3bc 72d6 3a3b 9069 7e3c
-0.026012965 -0.004283846 -0.012002914 -0.008252333 -0.042315923 0.034616925 -0.06607434 -0.055165216
-0.037643053 0.015917312 0.051029295 -0.0014933951 -0.017976493 0.057639282 0.062066082 -0.06954177
0.06417737 0.053174794 -0.0032740368 0.030795433 0.059776634 0.062254764 0.013034533 0.065277144
-0.0855167 0.14507724 0.044219363 0.105243705 -0.008081447 0.093499534 -0.0015884048 -0.05656784
0.09213299 0.03365718 0.044239484 -0.09100555 -0.016439851 -0.0048083276 -0.05923115 -0.08744237
0.0153054055 -0.07491122 0.07633632 -0.03573054 -0.019472491 0.065213874 0.019496081 0.014912674
-0.08674545 -0.0027258145 -0.07976155 -0.02369889 -0.08689089 0.06994353 0.038673304 -0.08813255
0.040936466 -0.08123108 -0.038502537 0.041937135 0.07161239 -0.010283004 0.053996924 -0.022306116
0.0445961 0.03998697 -0.05793477 0.02443239 -0.03982508 0.0053669102 0.034720138 0.029957077
-0.08113796 0.05914566 0.03648924 -0.022922836 -0.0024734251 0.040155493 -0.081095435 0.02963254
0.08359363 -0.021884311 0.0028509167 0.015528098

fc3.weight f4 [10, 84]
00000000: 2b36 9a3d 7e8d dcbd cd0d f9bd d88e 52be
00000010: e028 83bd 43b0 65bd 2278 223d 0c0c d5bd
00000020: 3004 8fbb f2e0 a03e a3a5 153e 12a6 ce3d
00000030: 0b7f 8dbd d2af 19be 4939 85be 1dcc 3fbe
00000040: 16a8 b739 5e9d aebd 2650 45be 2256 48be
00000050: 908e 50be ae7b cebd ec9a 9ebd 4470 0cbd
00000060: d43e bcbd 1426 a1bd 0bf6 87be 766b a1bd
00000070: daa3 7d3d ab81 c8bc 2c73 c53d 78a3 1d3d
00000080: 10ea 633e 43b9 1fbd 3402 293e 9149 953e
00000090: ad55 2bbe ffb9 9ebd bf78 f5bd fdab 283d
000000a0: 380e af3e 6451 b2bd ae70 123e 0337 b53b
000000b0: 78ed 74bd 515c adbd 4260 3b3e 971e 3d3d
000000c0: 1322 a93d 943a 1a3e 563b 9f3d 2eb3 f23d
000000d0: 7289 703e 12b1 e03c c895 9cbd 0a5e 0dbd
000000e0: 1086 acbd 3ea6 edbd 36b4 d1bd 568b b5bd
000000f0: c303 c1bd 0615 6ebe 81c8 c33e 4ef4 1a3c
00000100: 47f8 29be ad63 2d3d f796 f6bd 752c 9a3d
00000110: d641 55bc 9825 c23c 08f9 3dbc 60b7 0ebe
00000120: f8b1 9fbd ec61 a03e 3530 c3bd 9531 81bc
00000130: 3027 27bd c610 c5bd 56df 4a3d 9c4a 5ebb
00000140: c2bf 34be cc91 11be be4b 7abe d795 28bd
00000150: 20d7 90bd 2426 a83e c7e5 e23d ae2a 213d
00000160: 3922 11bd 766e c2bd 62cb 103e 3d93 c4bd
00000170: c699 09bd a5d6 2d3e 480b 3dbe d90f 70bd
00000180: 1fb2 9abd 05eb 6f3d fabf 353d d769 613e
00000190: a505 d0bc 5423 b93e 8ef6 be3e e22e 7fbd
000001a0: 9023 563e a8ab 023b 83d5 943e fb24 653e
000001b0: b9b0 0ebc c8ec 03be c1e7 4dbe a8a9 54be
000001c0: 58c7 8cbd 88e6 6abc ce06 85be 4e71 cabb
000001d0: fef1 d53d 9a51 9dbe 5b82 a03d 98de 9abd
000001e0: 38f1 80bd 7556 f33d 04bf 043d 20c1 5e3d
000001f0: f8d3 26be 7b3e 273d 2d11 14be 07a3 9dbc
00000200: 66d5 ca3d 189f 6a3d 4458 63be 2453 5abe
00000210: 58ef f4bd 8791 8b3e d084 19bc 2470 333d
00000220: c9c6 ac3c a44f 00be 8786 d2bc 2ed8 14be
00000230: 321e b4bd d610 82bd 1491 f93b cef7 ea3d
00000240: 08e8 e73d 2e0e 39be 611d 0bbe 33a2 9b3d
00000250: 248b 623e d0a9 2fbe 8855 50bd a4f6 9c3d
00000260: 2c2e ebbd 6ffd b7bd 9d6b 073b 928f f3bd
00000270: 7908 0ebe c181 71be d6aa 0fbd fc52 f8bd
00000280: f882 2cbc 4681 5bbe f0a6 19bd 82f2 143e
00000290: 6e34 84bb d503 84be d744 92bc a0d6 23bd
000002a0: 7665 fa3c dbcf b3bd f45f 723e 92b6 2a3e
000002b0: 32ae 543e 2402 a43e 6c62 8abd 4eb8 503d
000002c0: 9ac8 a2bd 3e1b 983e d2d0 d53c 5a89 bc3d
000002d0: 43c3 0bbe 4299 41be 9e44 033e 1d70 aa3e
000002e0: 10ee 42bd 5777 4bbd 2656 be39 7d9f 2fbd
000002f0: 39e5 56be dd30 9ebd ee31 2cbe 4a3c babc
00000300: a975 823d ffd8 15be bdb1 793d 4481 663e
00000310: 30ec bd3d 2c5e 5e3e 90ab 25be 270e 04bd
00000320: a8d2 4a3e 88ba 563e c93c 25bd 86d7 8bbd
00000330: 1ca0 2f3e 58bd 8bbd 0c2e 12be f51b c83d
00000340: 46f6 7fbe d29b 9fbc d03e 643d d329 e8bc
00000350: 7ca4 89be f2cc 13bd 4e6b d63c 6ad5 9dbd
00000360: 4c33 48bd e569 3ebe 6b14 453d 035a 6b3e
00000370: fb7c aa3c 9157 31bd 0e02 d2bd 9e58 d7bd
00000380: 7669 72bd 0458 98bd 5734 26be f15f b8bd
00000390: f693 9dbd bc2f 83be 4f0a 09bc 66bd 2c3e
000003a0: e3a4 11be 4ce0 4ebd 9089 abbb fd09 733d
000003b0: 0ac3 903d a60b d8bc 38ec 11be f394 cf3d
000003c0: 525f febc 96fb 1bbe c606 da3d a511 09ba
000003d0: 39d9 933d 5116 3c3e a696 d7bd 5600 e23c
000003e0: f556 16bd 2409 fabd e6a4 bb3d 6b11 b63c
000003f0: 46f8 eabd 8794 69be 7a2a 393e 3283 34be
0.07529863 -0.10769175 -0.121608354 -0.20562303 -0.06404281 -0.0560763 0.03966535 -0.104026884
-0.004364513 0.3142162 0.14613967 0.10090269 -0.06908997 -0.15008476 -0.26020268 -0.18730207
0.00035029714 -0.08526109 -0.19268855 -0.19564107 -0.20366883 -0.10082184 -0.07744393 -0.034286752
-0.09191671 -0.07868591 -0.26554903 -0.07881825 0.06192384 -0.024475893 0.09641108 0.038485974
0.22257257 -0.03899504 0.16504747 0.2915769 -0.16731901 -0.0775032 -0.11985921 0.041179646
0.34190536 -0.0870693 0.14300796 0.0055302395 -0.05979678 -0.084648736 0.18298438 0.04617175
0.08258452 0.15061408 0.07774989 0.11850582 0.23489931 0.027428184 -0.07645756 -0.03451351
-0.08424008 -0.11603974 -0.10239451 -0.08864467 -0.094245456 -0.23250207 0.3823891 0.009457661
-0.16598617 0.042331386 -0.12040513 0.07528011 -0.013016185 0.023699567 -0.011595018 -0.1393714
-0.07797617 0.31324708 -0.09530679 -0.015770713 -0.040808856 -0.0962234 0.049529396 -0.0033918982
-0.17651275 -0.14215773 -0.24442956 -0.041158523 -0.07072282 0.328416 0.11078983 0.039347343
-0.035433028 -0.09493725 0.14140084 -0.09598396 -0.033593915 0.16976412 -0.18461335 -0.058608864
-0.07553505 0.05857374 0.044372536 0.22013031 -0.025393317 0.36159766 0.3729748 -0.06230057
0.20912004 0.001993874 0.29069147 0.22377388 -0.008709126 -0.12883294 -0.20107938 -0.20767844
-0.06873959 -0.0143371895 -0.25981754 -0.0061780578 0.10446547 -0.3072632 0.07837363 -0.07561988
-0.06296009 0.11881725 0.03240873 0.054383397 -0.16291797 0.04083107 -0.14459677 -0.019242777
0.09903984 0.05728063 -0.2220164 -0.21320778 -0.11959714 0.27259466 -0.009370044 0.043808118
0.021090882 -0.1253038 -0.025698913 -0.14535591 -0.08794822 -0.063508675 0.0076161716 0.11473046
0.11323553 -0.18071815 -0.13585426 0.075992964 0.2212339 -0.17154622 -0.05086282 0.076642305
-0.11483416 -0.089838855 0.0020663508 -0.11892618 -0.1387042 -0.23584653 -0.03507503 -0.12125203
-0.010529272 -0.21436033 -0.03751272 0.14545634 -0.0040345704 -0.25784174 -0.017855091 -0.039999604
0.030565958 -0.0877988 0.23669416 0.16671208 0.20769575 0.32032883 -0.06757054 0.050957017
-0.07948418 0.29708284 0.02610055 0.09205885 -0.13648705 -0.1890612 0.12819144 0.3328866
-0.047590315 -0.04967436 0.0003630381 -0.04287671 -0.20985879 -0.07724164 -0.16815922 -0.022733826
0.06370098 -0.14633559 0.06096052 0.22510248 0.09273565 0.21715611 -0.16178727 -0.03224006
0.19806921 0.20969594 -0.040341172 -0.06828217 0.1715092 -0.06823224 -0.14275378 0.097709574
-0.2499629 -0.01948348 0.055723965 -0.028340256 -0.26883304 -0.036084123 0.026174214 -0.07706721
-0.048877046 -0.18595083 0.048115175 0.22983555 0.020811548 -0.0432964 -0.10254298 -0.10514949
-0.059182607 -0.07438663 -0.16230904 -0.09002674 -0.07694237 -0.25622356 -0.008364274 0.16869125
-0.14223056 -0.050506875 -0.0052349046 0.059335697 0.07068451 -0.026372742 -0.14250267 0.10135832
-0.031051312 -0.15232691 0.10645823 -0.00052287645 0.07219166 0.18367888 -0.10526781 0.02758805
-0.036704022 -0.12208775 0.09162311 0.022225102 -0.11473136 -0.22810565 0.1808261 -0.17628172

fc3.bias f4 [10]
00000000: e487 12bd db55 97bd da34 0fbe 3238 b6bd
00000010: 4680 9fbd 873c 323c 905f 48bd ca3d 1bbd
00000020: 500a b83d e622 dfbc
-0.035774127 -0.073894225 -0.13985005 -0.08897437 -0.07788138 0.010878689 -0.04891926 -0.037900724
0.08986342 -0.02723832
