src/global_mnist_cnn.pt (torch, 181781 bytes, 10 tensors)

conv1.weight f4 [6, 1, 5, 5]
000000 b6 16 2b be ac 93 30 bd 5a d7 3b be 62 97 cf bd
       -0.16707882 -0.04310958 -0.18343869 -0.10136296
000010 be 1c 7a bd 72 c9 b7 be ea e4 8e be c4 10 92 be
       -0.061062567 -0.35895878 -0.27909023 -0.28528416
000020 26 67 76 bd ba f8 84 3d 3c cd 8a 3d e0 7f 7f be
       -0.060156964 0.06492753 0.067774266 -0.24951124
000030 42 68 89 bd b6 07 8e 3e 39 64 67 3c 59 16 24 3c
       -0.06709339 0.27740258 0.014123016 0.010015094
000040 48 af 8e 3d 24 b9 cd 3e de 1d ed 3e da c2 21 3e
       0.06967026 0.40180314 0.4631185 0.15796986
000050 ea 5f 42 bd 56 6d 68 3e 90 fd c5 3e 26 84 34 3c
       -0.047454752 0.22697958 0.38670015 0.011017835
000060 f1 11 24 be dc 51 ca 3d 02 be 87 3e ac 02 4b be
       -0.16022469 0.09878895 0.26512152 -0.19825238
000070 1a ec 9e be fe c6 03 3c e2 af 8b 3e 8f 61 92 3d
       -0.31039506 0.008043049 0.27282625 0.07147514
000080 53 6c 9e be 48 e8 9e bd 2a 5c 6c ba 8c 5f f2 bc
       -0.3094202 -0.07759148 -0.0009016419 -0.029586576
000090 f2 92 87 be 54 b7 f4 bd ae 16 15 be 00 6f 12 3e
       -0.26479298 -0.119490296 -0.14559433 0.14300156
0000a0 71 ff 35 be 82 78 9d bd 1c 3d 9e bd 80 90 e5 3c
       -0.17773224 -0.07689001 -0.077264994 0.028023005
0000b0 b9 89 2a 3e 3e c1 a6 bd 44 af f7 bd c0 50 8b bd
       0.166541 -0.08142327 -0.12093976 -0.06802511
0000c0 1c c4 3a be d7 b8 e1 bc fd 6e 41 be 98 72 7b be
       -0.18238872 -0.027553959 -0.18889995 -0.24555433
0000d0 c7 a2 d7 bd 4a f1 68 be 7b 43 68 bd d5 65 a4 bd
       -0.10529094 -0.22748294 -0.05670498 -0.080272354
0000e0 d0 cd 50 bd 92 9d d5 3d 76 c6 8a 3e 50 03 92 3e
       -0.050977528 0.10430445 0.2710454 0.28518152
0000f0 3b 50 7d 3d 1e 79 38 be cb 23 6e bd e2 0c 23 3e
       0.06184409 -0.18014953 -0.058139604 0.15922883
000100 5f eb 72 3d 05 85 9e 3c a1 76 0b be f2 d0 2d be
       0.0593065 0.019350538 -0.13619472 -0.16974238
000110 80 fb 92 be 70 93 03 3e e4 d8 9b 3e 72 b3 68 3c
       -0.28707504 0.12849212 0.30438912 0.014202939
000120 22 d2 2a be 2a c5 72 bd 70 bf ab be c4 c3 48 3e
       -0.16681722 -0.05927006 -0.33544493 0.19605929
000130 4b 64 a1 3e 62 e1 50 be e8 0f 32 bd 9e 70 a0 3e
       0.3152183 -0.20398477 -0.0434722 0.3133592
000140 70 d5 2d bc a9 29 cc 3e 26 3b da 3e 6a 92 b4 3e
       -0.0106099695 0.39875534 0.42623252 0.35267955
000150 42 64 bc 3d 9a 6d 48 be ac 8f dc 3d 54 54 c3 3d
       0.0919881 -0.1957306 0.10769591 0.09537569
000160 7d ba 16 3e 6d 11 b1 3d 24 70 5d be fd 1c 3f 3e
       0.14719577 0.08645902 -0.2162481 0.18663402
000170 68 73 1d be 30 16 bb be d9 c9 b1 bd f9 89 2c be
       -0.15376055 -0.36540365 -0.086810775 -0.16849507
000180 a3 56 00 be 60 28 d4 bd 1e ed ab bc 64 92 1f be
       -0.1253305 -0.103592634 -0.02098709 -0.15583187
000190 7c 9c 96 3e 75 13 09 bd e6 75 2d be a0 10 05 be
       0.29416263 -0.03346582 -0.16939506 -0.12994623
0001a0 e0 30 97 3e 37 63 ce 3e 52 02 99 bd 71 a0 ef be
       0.29529476 0.4031007 -0.07471146 -0.46802095
0001b0 fc c7 80 be 4a ca 1c 3e be 56 1b 3f ea 23 0e bd
       -0.25152576 0.15311542 0.60679233 -0.03470222
0001c0 40 4b f9 be e2 46 92 be 50 15 59 bd 42 5e a3 3e
       -0.48690224 -0.28569704 -0.05299884 0.3190785
0001d0 b6 c2 d1 3e 36 81 70 be c4 45 b0 be e2 a3 39 be
       0.40968865 -0.2348679 -0.34428227 -0.18128923
0001e0 3e e2 b0 3d d7 fe bf 3e 82 e0 df 3e 14 3e 01 3d
       0.08636902 0.37499115 0.43725973 0.031553343
0001f0 e8 01 11 be a2 66 33 3d 2b 65 8b 3d d2 4a 6b bd
       -0.14160883 0.04379905 0.06806406 -0.0574444
000200 31 e3 30 be 7a 92 fb bd 9c 5e c8 bd f6 05 5d be
       -0.17274167 -0.122837976 -0.0978367 -0.21584305
000210 4b 7a 8f be 8e 8e d5 bd 7e dc c0 be 45 7d 63 be
       -0.2802299 -0.10427581 -0.37668222 -0.22215755
000220 f6 07 2b be de fe bd bd aa dc 54 be 55 14 e2 bd
       -0.16702256 -0.09277128 -0.20787302 -0.11039034
000230 43 f0 2b be fb fe e1 bd 36 74 61 be 18 eb b2 bc
       -0.16790871 -0.11034962 -0.22016987 -0.021840617
000240 50 ac 5d 3e b8 0b 9c be d4 fb 32 be ea 7c 15 3d
       0.21647763 -0.3047769 -0.17478877 0.03649608
000250 b4 4e bf 3d 68 f6 2b 3e
       0.09341183 0.16793215

conv1.bias f4 [6]
000000 90 c0 11 3e d4 df 57 bd 5f d2 ba bd e6 03 88 3e
       0.14233613 -0.052703694 -0.09122156 0.26565474
000010 87 3b e7 be 1c 36 b5 3d
       -0.45162603 0.08848211

conv2.weight f4 [16, 6, 5, 5]
000000 1a fb d5 bd 3d 6c 11 be d4 c4 e5 3c 14 c1 a0 3e
       -0.104482844 -0.14201446 0.028047957 0.31397307
000010 70 35 e6 bd 05 b2 2f bd d0 b7 7a be 06 61 82 3e
       -0.11240661 -0.042894382 -0.24484181 0.25464648
000020 3e f2 63 3e 76 c6 e1 be 64 56 7a be 37 88 80 be
       0.22260377 -0.44096726 -0.24447018 -0.25103924
000030 7c 5b ff 3d 1c 02 08 bb be f6 18 bf ca 13 a4 be
       0.12468621 -0.002075321 -0.597515 -0.32046348
000040 ea a3 5b be 96 2c 1e 3e c6 0c 17 be 99 c8 be be
       -0.21449247 0.15446696 -0.14750966 -0.3726242
000050 e1 2d f1 bb 92 d0 74 3d 8b 5e 62 bd 16 77 9d bd
       -0.0073602055 0.05976922 -0.055265944 -0.076887295
000060 50 6c 81 be 9e 5c 41 bd 90 00 f6 bc c6 3f cb 3a
       -0.25277948 -0.047207467 -0.030029565 0.0015506677
000070 22 94 7e 3c e6 5e 24 bd 80 7f 05 38 20 c4 a9 3d
       0.015538247 -0.040129565 3.1828415e-05 0.08289361
000080 c4 b1 d9 3a be f2 6a bd bc da 1b 3d 28 a0 12 bd
       0.0016608764 -0.057360403 0.0380504 -0.03579727
000090 18 32 aa bc d4 41 09 bd 71 52 43 3c a4 ad 04 be
       -0.02077584 -0.033510044 0.011921511 -0.12956864
0000a0 a7 e8 13 bd 3c 50 05 3e 69 1f bc 3d 76 ad 8d bd
       -0.036110546 0.13018888 0.091856785 -0.06917851
0000b0 c7 04 19 bd d6 3c 7c bd 22 57 dc 3d 79 aa 00 3d
       -0.03735807 -0.061581455 0.10758807 0.031412575
0000c0 ec 15 3d bd b8 34 cb bd 6b 03 e2 3b 6a 2e 20 bd
       -0.046163484 -0.09922165 0.00689738 -0.039106764
0000d0 86 47 33 be 31 8d 1c be 60 47 07 b9 52 ac b1 bd
       -0.17507753 -0.15288235 -0.00012901193 -0.086754456
0000e0 39 15 97 bb 00 3b 11 be 7b 07 19 be c8 de ae bd
       -0.0046106842 -0.14182663 -0.1494426 -0.08538586
0000f0 64 75 5d bc bb 87 06 bd 08 05 82 bd ca 96 8d bd
       -0.013516758 -0.032844286 -0.06348616 -0.06913526
000100 02 21 0c bd 34 69 a2 3c d7 91 f4 3c 1a e5 06 3d
       -0.034211166 0.019825555 0.029854698 0.032933332
000110 a2 ea 6f bd 34 33 0f bd 0c c8 95 3c af 86 fd 3c
       -0.058573373 -0.03496094 0.018283866 0.030948011
000120 fa ae 93 bb e1 bf 1f 3d 50 77 09 3c f0 00 c8 3d
       -0.004506943 0.03900135 0.008390263 0.09765804
000130 81 64 d5 bc d0 a7 9a bd 35 bd 7e 3c 65 b5 45 3d
       -0.0260489 -0.07551539 0.01554804 0.048268694
000140 cb 49 82 bd 17 37 a4 be 78 5a fd bd 57 57 a0 3e
       -0.06361731 -0.3207328 -0.12370771 0.31316635
000150 d2 9a 22 3c 92 23 42 bd af 7d 7f be 61 fd ea 3b
       0.009924607 -0.047397204 -0.24950288 0.0071713184
000160 88 06 8d 3e 4a 1e 83 bd 2e 31 1a be 49 76 72 be
       0.27544045 -0.064022616 -0.15057823 -0.23677935
000170 91 d9 9d bd 18 81 0c 3e c0 7f 54 3c 18 4c 9e be
       -0.07707513 0.1372112 0.012969911 -0.3091743
000180 7b 9c b8 be 48 26 b5 bd 0d 54 47 3e fc 3f b5 bd
       -0.36056885 -0.08845192 0.19465657 -0.08850095
000190 0b 70 5e 3d 5e 8e 5d 3c e4 09 9d be 52 aa 5f bd
       0.05430607 0.0135227125 -0.30671608 -0.05460579
0001a0 24 24 bb 3d 53 2d 66 3e 86 a1 16 3d 82 15 d6 be
       0.09137753 0.22478227 0.036775135 -0.41813284
0001b0 77 0f 92 bc c0 59 57 3e ba 52 68 3e fc 58 83 3c
       -0.01782964 0.2103033 0.22687808 0.016033642
0001c0 5a 50 4d be 29 4c 01 3e b5 c0 a6 3e f2 c5 65 3d
       -0.20050183 0.12626709 0.325689 0.05609698
0001d0 8e 8e 7b bd ed b5 82 be 7a 38 29 3e 69 49 07 3f
       -0.061415248 -0.25529423 0.1652545 0.5284639
0001e0 30 37 26 3d 79 a5 d0 3c 55 56 9a bd d8 55 26 bb
       0.040579975 0.025469529 -0.07535998 -0.0025380757
0001f0 8d 5d b6 3d 48 13 64 bd cb e8 19 bd c9 be d7 3d
       0.08904562 -0.05568245 -0.037575524 0.10534436
000200 d8 a6 20 3e bc 4a 07 be 48 2f 88 3b 8b da 33 3d
       0.15688646 -0.13212103 0.004156027 0.04390959
000210 45 80 af 3d cd d8 b8 3b 1b 9a c0 3c 88 77 06 3d
       0.08569387 0.005641079 0.023510983 0.032828838
000220 2f 2c fc bc 12 6b 18 be 82 98 00 be a0 6b 46 b8
       -0.030782787 -0.14884594 -0.12558177 -4.7307112e-05
000230 6e a4 6f 3d 54 55 ec bc 88 6f 3c be 63 86 67 be
       0.05850642 -0.028849281 -0.18401921 -0.22609858
000240 a2 e5 e7 bd d9 79 af 3b 9a 23 1d bd 06 4b 19 be
       -0.11323096 0.0053551015 -0.03836403 -0.14970025
000250 e6 22 27 be a7 d1 05 be aa 55 b7 bc 60 70 0d 3b
       -0.16321906 -0.13068257 -0.022379715 0.0021581873
000260 c4 4c 39 bd 55 78 a4 bd 88 16 15 3c 26 0c d6 3d
       -0.045239225 -0.08030764 0.00909961 0.10451536
000270 18 6a 45 be 4c d5 0f be 46 6b 74 3e c6 ee a0 bd
       -0.19278753 -0.1404621 0.23869047 -0.078580424
000280 c1 1a 04 be 6e cd 4f 3c 60 23 ba 3e 60 4b 87 3e
       -0.12900831 0.012683256 0.36355114 0.26424694
000290 be 0d c0 be 65 89 c1 bd 61 33 88 3e 98 9d 8e 3e
       -0.37510484 -0.09450034 0.266017 0.2785461
0002a0 5f 03 46 be 5b 45 6d be 94 39 08 3e e0 3b 60 3e
       -0.19337223 -0.23170988 0.13303214 0.2189784
0002b0 da d3 96 be 16 0b 86 be ad 68 8d 3c b3 2f 0f bc
       -0.29458505 -0.26180333 0.017261827 -0.0087394
0002c0 0c 9c 4a bd d9 c2 91 bd de 3d 2a bd f3 20 bc bd
       -0.049465224 -0.07117242 -0.041562907 -0.09185972
0002d0 13 fd 7b 3c e8 a6 d2 ba 78 9e 14 be 90 8e 7e bd
       0.015380162 -0.001607147 -0.14513576 -0.062147677
0002e0 7d 38 09 3d 4e db c7 bb 65 88 fb bd 12 d9 8e bd
       0.033501137 -0.006099141 -0.122818746 -0.069749966
0002f0 8c 8b 10 3d 1d 62 90 3c ac 35 1a bc 94 53 d6 bd
       0.035289332 0.017624909 -0.00941221 -0.1046516
000300 4c 89 4a 3d 1c fe 28 3e ae 72 61 3d 73 9c 22 bc
       0.049447343 0.16503185 0.055041008 -0.009924996
000310 e9 fd a6 bb f8 f4 4d bd 7e 32 bc 3c a4 02 ee bd
       -0.0050961864 -0.05028245 0.022973295 -0.116215974
000320 2d 68 48 3d ec 3b 93 bc 81 05 3e 3d 37 ba 58 bd
       0.048927475 -0.017972909 0.046391968 -0.052911963
000330 4a 8d 68 bc 43 94 3d bc 8a 1e de bb 18 4d 65 bd
       -0.014193842 -0.011570993 -0.006778543 -0.055981725
000340 84 7a ba bd 75 dc 26 bd ae 69 42 3d 62 7f b1 3c
       -0.09105399 -0.040737588 0.047464065 0.021667186
000350 48 7b 21 be 96 79 0a 3d de 44 f3 bc 76 a3 9e 3c
       -0.15769684 0.03380736 -0.029695924 0.019365054
000360 0a c5 c1 bc 3c 68 ad bd 1c 37 87 bc 14 86 cc bd
       -0.023653526 -0.08467147 -0.01650577 -0.09986511
000370 12 24 1e bd 02 cb af bd 65 1e 86 3c de a3 df bc
       -0.038608618 -0.085836425 0.016371915 -0.027299818
000380 a2 4b 34 bd 75 8f e3 bc ba 94 ce bc 58 1b 0f be
       -0.04401744 -0.027778367 -0.025217403 -0.13975275
000390 70 30 5e 3c 1b c2 aa 3d 66 34 94 bb 42 1a 1b 3d
       0.013561353 0.08337804 -0.004522848 0.03786684
0003a0 37 6c b6 bd 87 a3 45 3c 42 20 27 3e a5 c8 52 3d
       -0.08907359 0.012062914 0.16320899 0.05146088
0003b0 ed 0e 5b be e6 ad b8 bd ec 9d 16 3e d5 30 99 3d
       -0.21392412 -0.090175435 0.1470868 0.07480017
0003c0 48 90 f9 bd 98 76 34 bc ba 3f 92 3e dd 15 3b 3d
       -0.121857226 -0.011014603 0.28564245 0.045675147
0003d0 ba 20 fd bd 87 44 36 3d 4a ff 40 3e bc 85 b6 3d
       -0.12359758 0.044498947 0.18847385 0.089122266
0003e0 e1 d5 6f be 14 11 1a be 6f 5f 10 bd 5b b3 0f bd
       -0.23421432 -0.15045577 -0.035247263 -0.035083156
0003f0 c5 0b 34 3d 37 d4 09 3d 4e 8e 2e 3e d0 a0 82 3d
       0.043956537 0.03364965 0.17046472 0.06378329

conv2.bias f4 [16]
000000 d4 f5 01 bc 52 77 ec bc fb 62 e6 bc b4 31 39 3c
       -0.007932145 -0.02886549 -0.02812337 0.011303354
000010 28 37 d7 bd e0 a6 7d bd 4e 2f 49 3d 7a 90 3c 3d
       -0.10508567 -0.061926723 0.04911738 0.04603622
000020 a8 db d5 bc ed 25 ec bc a9 ee af bd 1c 2d 30 bd
       -0.026105717 -0.028826678 -0.08590443 -0.04301177
000030 50 a8 ad 3d 3e 33 58 bd 13 58 4c bb 63 67 95 3c
       0.08479369 -0.052783243 -0.0031180426 0.018237775

fc1.weight f4 [120, 256]
000000 d6 62 68 bd ea d7 2f 3c aa 81 96 3c 50 c5 3e 3d
       -0.056734882 0.01073263 0.018372376 0.04657489
000010 68 5d 01 3d fc aa 26 3c 96 f7 3c 3d f4 ab ed bc
       0.03158322 0.010172602 0.046134554 -0.029012658
000020 7c a3 bd 3c 0c c1 41 bc be 47 80 bd 86 67 35 3d
       0.023149244 -0.011825811 -0.06263684 0.04428818
000030 0a f9 80 bc 4e 2d 13 bd 5a 03 04 3d 7a ca a3 3c
       -0.015743751 -0.035931878 0.03222976 0.01999401
000040 60 1b 39 bd a7 13 8c bc d8 65 00 bd db ec c1 bb
       -0.045192122 -0.017099215 -0.031347126 -0.005918128
000050 f4 e9 4e bd 7e f9 7a bd 48 20 29 3d ac 00 4d 3d
       -0.050516084 -0.06127309 0.04129055 0.05004947
000060 98 78 06 bd a2 30 ea 3c 7a f5 2a bd 32 91 ca b8
       -0.03282985 0.028587643 -0.04173801 -9.659155e-05
000070 cf 43 0a bd ab 2d 54 38 dc 25 49 bd 95 54 df bc
       -0.033756074 5.058727e-05 -0.04910837 -0.027262012
000080 ef 6b 04 3d 22 f3 40 bd cc b7 0a 3d 62 8f 76 bd
       0.032329496 -0.04710687 0.03386669 -0.060195334
000090 6c c2 87 bd d8 78 6e bd 86 6b 61 3c 3c 8c 5f bd
       -0.0662888 -0.058220714 0.013758546 -0.054577097
0000a0 8c 84 5e bd b0 c9 64 bd 67 76 65 3c ca 4e bd bc
       -0.054325625 -0.055856407 0.01400528 -0.023108859
0000b0 98 e4 77 3d 3b 78 2e 3d 67 ea 3b bd 9e d0 1c bb
       0.06052074 0.04259513 -0.04587784 -0.0023928056
0000c0 d4 35 c2 bc 24 33 ef 3b 68 2c 2b 3c 48 54 43 3d
       -0.023707308 0.0072997976 0.010447599 0.0476878
0000d0 c0 1f 33 3d da 93 cc bb 79 a6 26 bc 55 2a 10 bd
       0.04373145 -0.006243211 -0.010171526 -0.03519662
0000e0 cd a2 5c bd 20 2b 2e bd b2 99 72 bb 46 dc 4c 3d
       -0.053866196 -0.042521596 -0.003701788 0.050014757
0000f0 b3 ef d7 3c c4 dc 92 3c 5b a4 9e bc ab 25 dd bc
       0.026359415 0.017927535 -0.01936548 -0.0269955
000100 bd 11 67 3d 75 94 ab bc 22 d0 82 bd a6 54 44 bd
       0.0564134 -0.020944813 -0.063873544 -0.04793229
000110 f6 11 22 3d d9 10 85 bc e5 5e 6d bd e6 47 6c bd
       0.03956791 -0.016243385 -0.057951827 -0.057685755
000120 6f c8 be 3c ec 17 07 3c 89 e7 b6 3b 4c 0f 39 bd
       0.023288934 0.0082454495 0.0055818004 -0.045180604
000130 99 94 18 3c 0e c9 d8 3b 0c a4 9e 3c 08 1d c6 3c
       0.009312772 0.0066157645 0.019365333 0.024183765
000140 58 bc 31 bd 00 92 03 bb 9d 04 7f bd 0c e6 51 3c
       -0.04339251 -0.0020076036 -0.06226026 0.012811195
000150 b5 5d 1c bd 10 9e 5f 3d 72 72 54 3d b0 b9 63 bc
       -0.038175303 0.0545941 0.051866956 -0.013899252
000160 80 ef 0e bd 30 29 be 3c 25 a7 ea bc 57 40 05 bd
       -0.034896374 0.023213 -0.028644154 -0.032532062
000170 40 89 6f bd 42 bf b1 bc 15 be 60 bd fb d3 7b bd
       -0.0584805 -0.021697644 -0.054868776 -0.061481457
000180 25 04 8b bc 7a 9e 47 3c a6 3c ec bc ca 0f 40 3c
       -0.01696975 0.01218378 -0.028837513 0.011722514
000190 61 c3 62 bd ac 19 a5 bc 68 5c b6 3c cd 1a 80 3a
       -0.05536211 -0.020153843 0.02226086 0.0009773612
0001a0 42 83 48 bd fe b9 79 bd 8c fb 6e 3d 7e 4b 35 3d
       -0.048953302 -0.06096839 0.058345363 0.044261448
0001b0 94 9f 6e bc 57 75 30 3d de 3a 10 3d 04 e4 5a 3d
       -0.014564414 0.043080654 0.03521239 0.05344011
0001c0 a9 c4 f8 bc 70 b3 7c 3d 88 17 81 bc b4 2c 39 bb
       -0.030367212 0.061694562 -0.01575829 -0.0028255405
0001d0 08 b7 3a bc 9a 04 64 bd 2a 3a fa 3c 93 c7 1b 3c
       -0.011396177 -0.05566845 0.030545313 0.009508031
0001e0 12 ba 55 3d bc 06 2d 3d d4 e4 a8 3a 19 08 00 3b
       0.052179404 0.04224275 0.0012885579 0.0019536077
0001f0 55 01 1c 3d 0c b3 ab bc 2b 22 09 3d 39 b6 a9 bb
       0.038087208 -0.0209594 0.03347985 -0.0051791933
000200 b4 65 6d bd 6c a1 34 3d 35 30 ae bb 68 be 9e 3c
       -0.05795832 0.044099256 -0.0053158053 0.019377902
000210 93 5f 2e 3d 9c 57 69 bc 6a e7 8f bc 58 ae 92 3b
       0.042571615 -0.014242079 -0.017566402 0.00447635
000220 82 db 89 3c cc 18 e7 bc 36 e0 b6 bc 64 d1 65 bc
       0.016828302 -0.028210066 -0.022323709 -0.014026973
000230 ef f1 2d 3d 8c 3d 65 bd 71 fd 2c bb c4 63 98 bc
       0.042467054 -0.0559669 -0.002639618 -0.01860226
000240 33 cd 96 bb 40 9f 90 ba da 1c 7b 3d 76 11 6d bc
       -0.0046020984 -0.0011033788 0.061306812 -0.014469495
000250 76 97 87 bd 55 65 14 3d 6e 41 2b bc 84 f5 d4 bb
       -0.06620686 0.03622945 -0.010452611 -0.0064989943
000260 62 76 00 bc ee 45 1a bd 5c 14 94 bc a4 b0 0a 3d
       -0.007840725 -0.037664346 -0.018076114 0.033859864
000270 8c 62 21 3d 65 9b fb 3b 68 bc 84 3d be d3 83 bd
       0.039400622 0.0076784366 0.06481248 -0.06436871
000280 61 d5 44 3c c0 1a 5c bd 40 ab 3e bd 90 71 bc 3c
       0.012013764 -0.05373645 -0.046550035 0.02300337
000290 b4 1d 65 bc de e0 32 bd df 2d 15 bd 98 a0 49 3d
       -0.013984133 -0.04367148 -0.0364207 0.04922542
0002a0 60 69 d5 3c 4e a5 e2 bc 90 46 d0 3c c2 31 3c bd
       0.026051223 -0.027666714 0.025424272 -0.04594589
0002b0 a6 f4 2c bb f6 33 88 bd 1c de 2a bc 14 63 29 3d
       -0.002639094 -0.06650536 -0.010428932 0.041354254
0002c0 ab 02 6c 3c f0 40 42 bd 07 2a 1a bd e4 8f 00 3c
       0.014404933 -0.04742521 -0.037637737 0.007846806
0002d0 9d 62 46 3d 20 fc 49 3d 82 2e 1c bd 1a e9 c3 3c
       0.04843389 0.04931271 -0.03813029 0.023914862
0002e0 a6 37 d8 37 5f 6e 46 bd 21 29 cf bc f0 b2 cd bb
       2.577512e-05 -0.0484451 -0.025288166 -0.0062774345
0002f0 4f dc 32 bd c9 20 3b 3d 99 a3 d1 3c fc c1 38 bd
       -0.043667134 0.045685563 0.025590705 -0.045106873
000300 e6 ce 50 3d 0c 18 68 bd f9 8b 5a bc 91 7a 97 3c
       0.050978564 -0.056663558 -0.013339036 0.018491061
000310 98 46 b8 ba d9 cd 2b bd 0c bd 75 bb 92 d5 a5 3c
       -0.0014059125 -0.04194436 -0.0037496714 0.02024344
000320 00 ed a5 38 28 84 29 bd 26 c1 62 bd f9 9d 23 3c
       7.911958e-05 -0.0413858 -0.055359982 0.009986394
000330 d5 00 01 bd 72 c3 4d bd 80 27 2c 3d b1 f7 2b 3d
       -0.031494934 -0.05023522 0.042029858 0.041984264
000340 2c 9c 4b 3d 2a 7e 5b 3c e5 9d 17 bd 7c ff 5f bd
       0.049709484 0.013396779 -0.037015814 -0.05468701
000350 9d cc 01 bc 28 d5 d7 3c 88 1e 01 3d 7c 6b d7 3c
       -0.007922319 0.026346758 0.031523257 0.02629637
000360 45 49 93 3c 55 7f 82 bd a9 f3 0f 3c 31 d5 47 bd
       0.017979274 -0.06371943 0.00878612 -0.0487873
000370 50 e1 a7 bc 4c bd fb 3c 78 ec a6 bc b4 ed 74 bd
       -0.02049318 0.030729912 -0.020376429 -0.059797004
000380 80 e7 19 bc 38 1a 78 bd a8 10 d5 ba 4c f2 fe 3b
       -0.009393573 -0.06057188 -0.0016255574 0.007780349
000390 47 01 08 3d e4 c7 01 3d 64 a5 50 bd 1a a6 82 bd
       0.033204343 0.03168477 -0.05093898 -0.063793376
0003a0 64 75 aa 3c b2 65 dc bc 3c 23 3a bc 0e 92 f3 3c
       0.02080793 -0.02690396 -0.01136094 0.02973273
0003b0 62 f1 b8 3b c6 bd 12 bd 7c 18 07 bd 5e 6e aa bb
       0.0056440094 -0.035825513 -0.032982334 -0.005201145
0003c0 ba f9 27 bd b2 e2 84 bc 96 1f 2a 3d e6 96 15 3d
       -0.041009642 -0.016221378 0.04153403 0.03652086
0003d0 6c f2 db 3b 18 80 58 bd 62 ed 72 bb 39 ad 17 bd
       0.0067122485 -0.052856535 -0.003706776 -0.037030432
0003e0 c8 8b 36 bc 8c ed 09 bd ce 36 b8 bc 00 b1 75 3c
       -0.011141725 -0.033673808 -0.02248707 0.014995813
0003f0 a6 c7 67 3d 89 83 05 3c 7e 1e 1b 3d 98 d9 d8 3c
       0.056586884 0.008149036 0.037870876 0.026470944

fc1.bias f4 [120]
000000 fc 4b 4d 3c 94 11 a1 bb ec 21 6c 3c 6a b9 4a 3d
       0.012530323 -0.0049154256 0.0144123845 0.04949323
000010 90 f5 e8 bc 80 90 2b bd e7 01 d2 bb ea 80 88 bd
       -0.028437406 -0.041885853 -0.006408918 -0.066652134
000020 8e d8 e2 3b 8c f7 ee 3c 68 d6 5e 3d 10 fb f3 bc
       0.006922788 0.029170774 0.054403692 -0.029782802
000030 08 96 cd bc b4 f5 c1 bc 9a da 2f bb b5 8b 95 3d
       -0.025095955 -0.02367673 -0.0026833178 0.073020376
000040 57 57 54 3d e7 34 e5 3b f4 4a 63 bc 77 2f a3 ba
       0.051841106 0.006994832 -0.013872851 -0.0012450059
000050 ba 3d 16 3c 28 8c 3c bd 5a 44 9a 3d f8 3e 31 bd
       0.00916999 -0.0460321 0.07532568 -0.043272942
000060 07 53 1e bb ba 90 64 bc 77 0d 0d 3d 34 01 2b 3b
       -0.0024158375 -0.013950521 0.03443667 0.0026093246
000070 02 73 19 3d 3d a6 89 bd 50 bd 69 3d 3c 85 40 3d
       0.037463196 -0.067211606 0.057065308 0.047002062
000080 02 13 47 3b 60 e7 e2 3c 3c 2b 3a bc 2a ff 32 bd
       0.003037632 0.027698219 -0.011362847 -0.043700375
000090 10 61 37 3b ff 07 41 bd 22 47 af bc a2 63 ef bc
       0.0027981438 -0.047126766 -0.021396223 -0.029222313
0000a0 d4 71 9c 3d cc f7 58 bd a9 3a 83 bc f8 d1 3c 3c
       0.076388985 -0.052970693 -0.016019182 0.01152467
0000b0 80 c8 7e 3b 4d 97 7d ba 0c c5 dc bb c8 0c c7 3b
       0.0038876832 -0.00096737297 -0.006737357 0.0060745217
0000c0 cd 81 4e 3d f4 2f 49 bd 1e 96 cb bc 28 fb bd 3c
       0.050416756 -0.049117997 -0.024851855 0.02319105
0000d0 73 18 87 bd 68 70 a6 bc 22 f3 b2 3c f8 f4 a6 bb
       -0.0659646 -0.020317271 0.02184445 -0.0050951205
0000e0 3c 85 fb bc bc 8e 10 bd ee e8 df 3b ce 12 9a bc
       -0.03070318 -0.035292372 0.0068331873 -0.018807795
0000f0 84 02 0d bd bc fd f7 3c 16 75 73 bc 50 66 e5 bb
       -0.034426227 0.030272357 -0.014859458 -0.007000722
000100 8c 1c e7 bc 08 39 3c 3d a6 65 d5 39 ec 25 c2 3c
       -0.028211854 0.045952827 0.0004070226 0.023699723
000110 20 84 e1 3c 15 1a c9 bc c8 ac 46 3d 7e 1a de bb
       0.027528822 -0.02454857 0.04850462 -0.0067780605
000120 0e ce 6c 3d 4e 7c 2f 3d ec b5 0e ba b4 a0 0e bd
       0.057813697 0.042843156 -0.00054439786 -0.034821227
000130 d0 ab 7c bd 3c f2 93 bc 34 8a 60 bd 52 21 29 3d
       -0.06168729 -0.018059842 -0.0548193 0.041291542
000140 3a 82 1a bc 4c f8 f6 bc b6 6c ab 3b 5c c7 82 3d
       -0.0094304625 -0.030147694 0.005231465 0.06385681
000150 9c e3 a4 bd e2 cb 19 bd e6 72 6e 3d 4b 4c 2c 3d
       -0.080512255 -0.037547953 0.058215044 0.042064946
000160 e8 89 c7 bc 83 c9 12 bd cc ae 50 3d 62 32 a1 3d
       -0.024357751 -0.035836708 0.05094795 0.07870938
000170 ff c2 c4 bc 1e fe 27 bd 4d d9 b6 3c 06 c9 36 bd
       -0.024018763 -0.04101383 0.022320414 -0.044625305
000180 4c 39 5c 3c af bc 6a 3b b6 48 85 3d 7f 5e d9 39
       0.013441395 0.003581803 0.06508009 0.0004145987
000190 72 9e f3 3c c2 28 ad 3d 88 08 40 3c bc 95 7e bd
       0.029738639 0.084550396 0.011720784 -0.062154517
0001a0 9a 3b 56 3c 5d 35 80 3d 52 1b 95 3c cf 5c 98 bc
       0.013075734 0.06260178 0.018201504 -0.018598942
0001b0 c6 54 7a 3d 8a 74 2a bd 8c 51 49 bd b9 bf db bc
       0.061116003 -0.041615047 -0.049150035 -0.026824819
0001c0 e4 f2 59 3c 8a 6f 15 bd 3e b0 97 bc 9e 1e 6a 3d
       0.013302539 -0.036483325 -0.018516656 0.057158105
0001d0 e2 de 49 bd 78 a7 16 bc 39 21 d4 bc 34 b3 06 3d
       -0.049284823 -0.009195201 -0.025894748 0.032885745

fc2.weight f4 [84, 120]
000000 9f 50 fb 3c 64 db 10 3d 66 23 88 bd 5a 96 d3 3c
       0.030678092 0.035365477 -0.06647377 0.02582853
000010 01 42 75 bd 10 aa 4b 3c 18 59 1e 3d 4f 57 ba bd
       -0.0598774 0.012430683 0.038659185 -0.09098684
000020 18 a9 fb bc 62 8d 0e 39 1f f6 aa bd ca ee 84 bc
       -0.030720279 0.00013594844 -0.08347725 -0.016227145
000030 76 4b 98 bd 36 60 54 3d a2 49 7c bc cc bc 3a 3d
       -0.07436268 0.051849566 -0.015398415 0.045590207
000040 b8 97 b4 bb b0 ff f4 3c 00 0c 02 3d 8a ff 90 bc
       -0.0055112503 0.029907078 0.031749725 -0.017699976
000050 9e 08 ac 3d 01 e9 69 3d f6 93 59 bd 04 98 62 bd
       0.08400081 0.057106975 -0.053119622 -0.055320755
000060 27 a9 bf 3c aa 82 b2 bd 10 91 87 bd 8c 4a 61 3c
       0.023396088 -0.087163284 -0.06619465 0.0137506835
000070 8a cc a6 bd ca 31 ae bd ea 4c 9a bd 7c 8d 9b 3c
       -0.081444815 -0.0850559 -0.075342014 0.018988363
000080 7b ca 90 bd 4b 95 1b bd ed 86 7b bd 42 4d 15 3d
       -0.0706987 -0.037984174 -0.061407972 0.036450632
000090 97 4c a9 bd f4 5f d7 3c 67 fb 99 3d a8 be db 3c
       -0.082665615 0.026290871 0.07518654 0.02682431
0000a0 4e 7b c1 3c 70 eb b5 bd ef 43 79 bd 5e 03 8c bd
       0.023618367 -0.08882797 -0.060855802 -0.0683658
0000b0 52 1f 79 bd a4 ca 99 bd 7d 21 30 bd be 56 3c 3d
       -0.060820885 -0.07509354 -0.043000687 0.04598116
0000c0 24 d2 1a 3d de 80 8a 3d f5 e1 ad 3c 1f 9a 3d 3d
       0.037798062 0.06762861 0.021225909 0.04628956
0000d0 36 7f 9b 3c 14 da aa 3d 94 21 29 bd a0 e9 bc bd
       0.018981557 0.08342376 -0.04129179 -0.09224248
0000e0 bd be 63 bd 66 00 8a bd 26 c6 90 3c 7a c9 87 bd
       -0.055601824 -0.06738357 0.01767261 -0.066302255
0000f0 86 82 71 bc 05 cb 31 bd 73 a7 6c bb c0 81 10 3d
       -0.014740592 -0.043406505 -0.003611055 0.03527999
000100 5d 8a 45 3c 01 f8 22 3d d0 75 ac bd 10 ea 86 3d
       0.012056914 0.039787296 -0.084209085 0.06587613
000110 84 4c 72 3d 7b aa 8c bd 50 8e c0 bd bd ad 0d 3d
       0.059155002 -0.06868454 -0.09402144 0.034589518
000120 96 42 a6 bd b8 85 bf bd b0 1d 7b 3c a0 e1 2d bd
       -0.08118169 -0.09351677 0.015326902 -0.0424515
000130 d6 a4 ec 3c 95 87 b2 bd 83 54 a9 bd 50 be 80 bc
       0.028887194 -0.087172665 -0.082680725 -0.015715748
000140 40 0b b2 bd f8 e0 5b 3c 68 1f 7a 3c a8 60 90 3c
       -0.08693552 0.013420336 0.015266277 0.017624214
000150 92 6e 65 bd 6e 97 ba bc a0 f2 39 3d 24 1a 1b 3d
       -0.05601365 -0.022777285 0.0453974 0.037866727
000160 4c 35 a3 bc f8 74 83 39 60 12 1c bd 38 9a 80 3b
       -0.019922875 0.00025073416 -0.03810346 0.0039246343
000170 ec 3b aa 3d ea 51 4c 3c fa 38 73 bc 63 56 73 3d
       0.083122104 0.012470702 -0.014845127 0.059408557
000180 dd 48 11 bd 7f ed 32 bc f3 56 bc bd 82 79 9c 3c
       -0.03546988 -0.010920881 -0.09196272 0.019100908
000190 ee ab b6 bd 32 76 70 bd 74 3d 84 3d a6 2d 0d bd
       -0.08919512 -0.05870647 0.06457034 -0.034467362
0001a0 14 f6 4b bd a6 2c ac bd ea 23 d5 bc 5c e5 45 3d
       -0.049795225 -0.084069535 -0.026018102 0.048314437
0001b0 85 39 4d bd b4 0f 3e 3d 5e f5 a0 3d 6e 02 2c bd
       -0.050103683 0.046401694 0.078593 -0.041994505
0001c0 e7 cb 67 bd 9c d1 85 3d 94 41 46 3d 54 4a ba 3d
       -0.05659094 0.065341204 0.048402384 0.09096208
0001d0 58 94 0b bd 5e a7 4b bd e3 46 b5 bd 16 0f b7 3a
       -0.03407702 -0.04972016 -0.08851411 0.0013966288
0001e0 fa 76 63 3d 06 4f 38 bc 93 0b 84 bc e3 e4 2e bd
       0.055533387 -0.011249309 -0.0161188 -0.042698752
0001f0 dd fa ae 3d 05 5d 8c bd 54 72 40 3d f6 12 9f bd
       0.08543942 -0.068536796 0.04698403 -0.077672884
000200 85 fe 7a 3d 54 c2 5e 3d 92 a6 bf bb df d2 ed 3b
       0.061277885 0.054384544 -0.005848714 0.007257804
000210 11 03 95 bd 76 12 b8 bd 68 e8 1f 3d 6f 42 07 3b
       -0.072759755 -0.08987896 0.03904 0.0020638963
000220 a8 25 aa bd 6c 30 ad bd e6 c0 db 3c 18 b2 38 bd
       -0.083079636 -0.08456501 0.02682538 -0.04509172
000230 6c f8 61 bb 7e fa d3 3b ec c5 77 3d 24 c5 b9 bd
       -0.0034480346 0.00646907 0.060491487 -0.09070805
000240 6e bf 4f bd 54 bc 5c 3c e0 11 60 bc d4 39 61 3d
       -0.05071967 0.013472635 -0.013676137 0.05498679
000250 f2 17 5e bc 1a 13 9a 3c b4 f2 2e bd 3a 29 84 bd
       -0.013555514 0.018807936 -0.04271193 -0.06453176
000260 6c a8 de 3c 49 3e 7a bd 70 63 84 3d 16 79 c3 bd
       0.02717992 -0.061094556 0.06464279 -0.0954458
000270 41 61 b7 3d ce 3d 70 bd fe 29 8a 3d 92 8f 4b 3d
       0.089540966 -0.05865269 0.067462906 0.049697466
000280 66 18 cc bd a6 63 33 bd 0c 92 8c 3d 62 21 7c 3d
       -0.09965591 -0.043796204 0.06863794 0.061555274
000290 6e 44 f0 3c 10 21 4c 3d 55 cf 31 bd 12 e2 59 3c
       0.029329505 0.04983622 -0.043410618 0.013298528
0002a0 d3 05 0c bd 76 ae 01 bd f8 39 b7 bb 9c c5 8f bd
       -0.034185242 -0.03166052 -0.005591627 -0.07020113
0002b0 fe 36 73 3d d3 ba 86 3c 1b cc 18 3d c0 86 a9 bd
       0.059378617 0.016446507 0.037304025 -0.08277655
0002c0 18 a4 2c 3d d9 54 ab bd 5c 81 95 bc 34 93 b3 bd
       0.04214868 -0.08365793 -0.01825016 -0.08768311
0002d0 b1 f8 44 bd f8 33 88 bd b8 a5 26 3c 1c dd 4d 3d
       -0.048088733 -0.06650537 0.010171346 0.050259694
0002e0 e1 34 29 3d 1b 21 05 bd b2 56 be 3d 10 db a6 3c
       0.041310195 -0.032502275 0.092938796 0.020368129
0002f0 c8 0e 16 bd 0c 6f 9a bd de 77 6d bd 5a 64 64 3d
       -0.03663519 -0.07540712 -0.057975642 0.055759765
000300 6e 9d 91 bc 67 71 a1 3d 35 95 a2 3d 6c c5 98 3d
       -0.017775264 0.07882958 0.07938615 0.0745953
000310 88 fa a1 bc 24 57 b7 bd 37 f6 bd 3d 00 fb 83 3d
       -0.019772783 -0.08952168 0.092754774 0.06444359
000320 aa bf 03 3d 90 93 73 b8 83 cd 63 3c 5e 92 93 bc
       0.032165207 -5.8073143e-05 0.013903978 -0.01801413
000330 a8 4b a5 bd 28 33 a4 bd db 8f 04 3d d1 1c 96 3d
       -0.08071071 -0.0801757 0.032363754 0.07329715
000340 a0 02 75 3d 8e ef a7 3d 15 ca 35 bd cc 2b 87 bb
       0.059816957 0.08199988 -0.044382174 -0.004125094
000350 b0 01 52 bd 46 85 a7 bd 89 80 74 3d ae cf f2 bb
       -0.05127114 -0.08179717 0.059692893 -0.0074100113
000360 b3 03 84 bd 6d 93 fd 3c 78 d3 9c 3d 0e b6 6b bd
       -0.06446018 0.030954087 0.07657522 -0.057546668
000370 9a 5d 5e 3d e2 96 08 bd 76 90 c6 3b 12 12 8a bd
       0.054288484 -0.033347018 0.0060597016 -0.06741728
000380 f8 1b 6a bb 54 00 b8 bd f6 ee 48 3c cc 4c 33 3d
       -0.0035722237 -0.089844376 0.012264004 0.04377441
000390 f8 29 b0 bd 5c 5a 33 3d 76 4b 87 3d 54 f6 d9 3c
       -0.08601755 0.043787345 0.0660619 0.026606716
0003a0 78 fc 55 3d 57 9e 3e 3d 22 b1 f8 bb ca e6 43 3d
       0.052242726 0.046537723 -0.0075894753 0.04782752
0003b0 5c 5b 49 bc 5d 9c f9 3b bd 31 c1 bd 99 54 80 bd
       -0.012289848 0.007617517 -0.09433315 -0.06266136
0003c0 a0 07 81 3c d1 b8 e6 3c 6a dd ea 3d be b2 d9 3c
       0.015750706 0.0281643 0.11468013 0.026574489
0003d0 18 7c 8e bd 33 aa 4e bd 90 75 ae 3d 16 03 58 bd
       -0.06957263 -0.050455283 0.08518517 -0.052737318
0003e0 26 29 17 3d 6a a0 0d be a0 02 e9 bd d2 c3 8a 3d
       0.036904477 -0.13830724 -0.11377454 0.06775631
0003f0 6b 5e 54 3d a4 64 c4 3c 3d 24 9e 3d aa bb f7 bd
       0.051847856 0.02397377 0.07721756 -0.12096341

fc2.bias f4 [84]
000000 a3 31 72 bd 08 c0 02 bd 1a d7 31 3c 41 44 00 bd
       -0.05912937 -0.031921417 0.010854507 -0.031315092
000010 d8 e1 9b 3d d9 97 02 bd 44 79 a9 bd ba 0a e7 3d
       0.07611436 -0.031883094 -0.08275083 0.11281343
000020 b2 67 8e 3d 12 19 9d 3d 56 7c 8b bd 57 47 e5 3c
       0.06953372 0.076707974 -0.068108246 0.027988119
000030 42 48 0f bd 8a 32 42 3e 44 7d b6 3d ba 7d fb bc
       -0.03498102 0.18964592 0.08910611 -0.0306996
000040 8a 36 47 bd 4b 88 d2 bc 80 8c 84 bd 08 88 af bd
       -0.048635997 -0.025699755 -0.06472111 -0.08570868
000050 d5 7c 9a bd da 9f 57 bb 16 4f 01 3d da 2c a2 3d
       -0.07543341 -0.0032901675 0.031569563 0.07918711
000060 b2 73 eb bc a1 54 b5 3c 08 79 25 3d 52 9a 30 bd
       -0.028741691 0.02213508 0.040398628 -0.04311592
000070 d6 b7 75 bd 62 ac b4 bc 8e 19 d6 3d 84 e3 be 3d
       -0.059989773 -0.022054855 0.10454093 0.09320739
000080 56 d1 86 bd a2 6b 99 3d 04 4f de 3d dc 2f 85 3d
       -0.065828964 0.074912325 0.10854915 0.06503269
000090 dc a1 a8 bd 42 21 ae 3d 3d 1c df bc 52 b5 8b bd
       -0.08233997 0.08502437 -0.027235145 -0.068216935
0000a0 44 0f 07 3e fe 96 97 bd f0 f9 38 3d f6 0a b1 3b
       0.13189417 -0.07401846 0.045160234 0.005402918
0000b0 2e ef 6f bd 31 46 15 3a 48 28 67 bc d6 88 8e bd
       -0.05857771 0.0005694358 -0.014108725 -0.06959693
0000c0 4a 15 af bd 05 c7 40 3c 8a 36 03 3e d5 f8 c4 bb
       -0.085489824 0.0117662 0.12813774 -0.0060111084
0000d0 43 d6 4d bb b7 e0 0f bc 80 48 39 bd 2a cf 95 bd
       -0.0031408228 -0.008781604 -0.045235157 -0.07314904
0000e0 86 9a f3 3c 54 97 8a bd 2f ec 3c 3d 47 8f 58 bc
       0.029736768 -0.06767145 0.04612368 -0.013217754
0000f0 b3 81 eb bc 01 f5 a0 3d 27 c4 67 bd fc 29 60 3c
       -0.028748369 0.07859231 -0.05658355 0.013681885
000100 c8 60 6e bb 34 56 c0 bc f9 2d 99 3c 57 48 47 bd
       -0.0036373604 -0.023478605 0.01869868 -0.048652973
000110 a9 c9 f8 3c 57 48 14 bc de 91 58 bd ce cc 1a bd
       0.030369597 -0.00905045 -0.052873485 -0.037792973
000120 66 44 a8 ba 00 1a 1e bc e9 9a 3f bd 44 e9 b1 3d
       -0.0012837767 -0.009649754 -0.046778593 0.0868707
000130 b0 80 bc 3b f7 8f 8d 3c 5e e9 1d 3e 28 24 5a bd
       0.0057526454 0.017280562 0.15421054 -0.053257138
000140 b6 b5 b1 bc 30 19 0b 3e 92 bb 3a 3d fd ba 95 bc
       -0.021693092 0.13583827 0.045589037 -0.01827764

fc3.weight f4 [10, 84]
000000 39 4a c6 bd 80 c0 82 bd c8 69 56 3e a9 fe 73 3d
       -0.096821256 -0.06384373 0.2093879 0.059569035
000010 cc 1e f7 bd 6f 37 fe bd 8a 1f b8 bd c0 01 56 3e
       -0.12066421 -0.12412917 -0.089903906 0.20899105
000020 0a 66 15 be ae 22 68 bd fe 0c aa 3e 34 74 af be
       -0.14589706 -0.056673698 0.33213037 -0.34268343
000030 f8 79 d8 bc a9 0a 69 3e 9e 1d f4 3d 00 f1 0c 3d
       -0.026425347 0.22757973 0.119197115 0.034409523
000040 54 60 1d be ca 06 d5 bd 21 86 a4 3e fd 15 0c be
       -0.15368778 -0.104016855 0.32133582 -0.13680263
000050 4c 93 85 bd 9b b9 f5 3c 94 1d 2a be 08 8b 37 be
       -0.06522235 0.02999573 -0.16612846 -0.1792413
000060 de b3 49 3d 84 c7 4c be c6 e9 be 3a 46 90 b2 3c
       0.0492438 -0.19997984 0.001456552 0.02179731
000070 9c 4c 79 3d 4a 28 ab bd 36 6d 62 be 53 d2 ad bd
       0.060864076 -0.08357294 -0.22111973 -0.08487382
000080 e5 0a 65 3b b0 94 33 3c ce b9 6f be 90 41 98 bc
       0.003494912 0.010960743 -0.23410723 -0.01858595
000090 61 14 90 bd 20 c3 9d bd 34 0b 63 be 1e 39 cd 3d
       -0.07035137 -0.07703233 -0.22172242 0.1002066
0000a0 06 19 87 3d fc 1c 07 3d 2a 72 15 3d 03 8f 10 3d
       0.0659657 0.032986626 0.03648583 0.035292637
0000b0 ca 49 fc bd b4 e6 33 be 60 13 8e 3d d2 96 dd bc
       -0.12318762 -0.17568475 0.06937289 -0.027049456
0000c0 87 83 1b bc d8 97 fd 3d de 83 80 be 4e 7e a0 3d
       -0.009491808 0.123824775 -0.25100607 0.07836591
0000d0 8e 68 e3 3c d2 79 01 be 0a 53 23 be 62 2c 5f 3d
       0.027759816 -0.12644127 -0.15949646 0.054485686
0000e0 32 24 eb bd de 2e 84 bb f2 96 17 3d 75 28 89 3b
       -0.11481513 -0.0040339073 0.037009187 0.004185731
0000f0 84 fd d7 bd 2c ab 2b bd 97 11 b0 3c 69 3e fe bd
       -0.10546401 -0.04191129 0.021492762 -0.124142475
000100 e6 fc 6e 3d 06 62 04 be 8a 90 21 bd 2a 72 1c 3e
       0.05834665 -0.12928018 -0.039444484 0.15277925
000110 14 b6 b9 bc ce 56 9e 3e 96 6e a1 bd bc 66 24 be
       -0.02266983 0.30925602 -0.07882421 -0.16054815
000120 3a 85 e4 3e 5a 52 05 be 67 3f 73 be 36 05 9b bd
       0.44632894 -0.13019696 -0.23754655 -0.07569353
000130 bc a3 a3 bd 21 b6 de bd 8e 70 ea 3d 50 0a 82 3e
       -0.07990214 -0.10874582 0.11447249 0.25398493
000140 b0 09 48 ba 9a d7 75 bd 12 51 1c 3e 82 2c 14 be
       -0.0007630838 -0.060020067 0.15265301 -0.14470103
000150 28 03 69 3c a6 7c 1f bd 3c 72 32 be 9b fb bf bd
       0.014221944 -0.038937233 -0.1742639 -0.09374162
000160 ee 1e 22 3c 90 ad 0c be 2f bb db 3d 04 05 5e be
       0.0098950695 -0.13738084 0.10729062 -0.21681601
000170 06 c2 ea 3c 13 ad 4e be da b8 21 be 4a 9e 86 3e
       0.02865697 -0.2018321 -0.15793172 0.2629264
000180 0c 1d cb 3d 40 4c 2a be 6d 9e 3f be fc b9 c9 bc
       0.099176496 -0.1663065 -0.18712778 -0.024624817
000190 38 2e fe 3d ee 1d c6 bc 28 26 94 be 57 89 cb bd
       0.12411159 -0.024184193 -0.2893536 -0.09938305
0001a0 34 6e 91 3c 72 4d 6d 3e 4e 3e 55 be 8e 09 32 bd
       0.017752744 0.23174074 -0.20824549 -0.043466143
0001b0 c4 00 92 bd ca 25 b7 3c e2 7e 13 3d b2 cf ac bd
       -0.07129052 0.022356886 0.036009677 -0.08438052
0001c0 2a e7 a4 3d 39 f2 39 3e ec 3d 6b be 70 77 cf bd
       0.080519035 0.18158807 -0.2297284 -0.10130203
0001d0 50 86 28 bc c2 1f 91 bd 7a f1 e5 bd 04 6e 11 3e
       -0.010285929 -0.070861354 -0.112276986 0.14202124
0001e0 b8 0e 20 3e dc 46 bc 3d 3e 88 70 3d 22 c9 77 3c
       0.15630615 0.09193203 0.05872368 0.015123637
0001f0 66 67 1c 3d 62 e7 d1 3c 66 8d 48 be 6e 4a b6 bd
       0.038184546 0.025623027 -0.19585189 -0.08900915
000200 00 34 8a 3e 59 eb 02 be 36 53 47 be a2 1b 36 3e
       0.26992798 -0.1278509 -0.19465336 0.17783979
000210 54 96 85 3d 8a 37 63 bd 12 ec eb 3d 5a 3d 4c bc
       0.065228134 -0.055472888 0.11519636 -0.012465799
000220 82 0c b2 3c 26 da 59 3e 02 35 cf bd 5e 8c 4e be
       0.02173448 0.21274623 -0.10117532 -0.20170733
000230 34 a6 88 3d de 8a d6 bd 49 ed 9b bd c2 a6 15 bd
       0.06672326 -0.104757056 -0.07613618 -0.036535986
000240 01 29 9a 3d 50 7d 81 3d 4c 30 ad 3d 1c 7b b7 bd
       0.07527352 0.063227296 0.084564775 -0.08959028
000250 6a cf 34 3e 22 57 82 3e 52 41 a1 bd 18 fb 39 bc
       0.17657247 0.25457102 -0.07873787 -0.011351369
000260 46 9a cc 3e 2c 00 3e 3d 1b b0 09 be 4c ba bc 3d
       0.3996145 0.046386883 -0.13446085 0.09215221
000270 32 33 3f be 63 dd ca be b5 16 ce bd 65 92 09 3d
       -0.18671873 -0.3962203 -0.10062925 0.03358688
000280 82 ff 91 3e 40 fb 4d be d2 16 31 3e 87 bf 13 bd
       0.2851525 -0.20115376 0.17293862 -0.036071327
000290 6a 65 a7 3d 9a 06 df 3e cf 70 d7 3d 31 c0 87 bd
       0.0817364 0.43559724 0.105195634 -0.066284545
0002a0 90 ad ce bd 10 15 e1 bd ce b1 79 bd a0 90 bd bd
       -0.10091698 -0.109903455 -0.060960583 -0.09256101
0002b0 ea 93 e8 bd c3 a0 a0 3d fe 9e 71 3d 53 9d 2d bd
       -0.11356337 0.07843163 0.058989517 -0.042386364
0002c0 94 91 a2 3c 3c fb 93 bd d4 b0 93 bd 7b a4 97 3e
       0.019844808 -0.072256535 -0.07211462 0.29617676
0002d0 50 d8 b3 3d ee c5 20 3e 80 b0 0f be 38 48 82 ba
       0.08781493 0.15700504 -0.14032173 -0.0009939736
0002e0 18 e6 9c bd c5 a8 20 bd e9 2b 7b 3e 13 8d de 3d
       -0.076610744 -0.03922345 0.24528469 0.108667515
0002f0 3d 79 6d 3e 76 6a 90 bd 27 fa d1 bd c2 7b 86 3e
       0.2319078 -0.07051556 -0.10252791 0.26266295
000300 ac 30 77 bd 7a f4 9c be 9b 21 75 3d c0 e8 ab 39
       -0.06034915 -0.3065527 0.0598465 0.00032789074
000310 b9 ac 96 bd ee 19 56 3e 4e 46 9f bd dc d6 76 3e
       -0.07357163 0.20908329 -0.077770814 0.241054
000320 45 96 ee bc c5 c0 a3 3c b0 9b 0e be 32 b9 65 be
       -0.029124388 0.01998938 -0.13926578 -0.22433928
000330 6e 6c f0 bd 13 81 91 3e 59 43 86 3e 31 00 19 bd
       -0.11739431 0.28418788 0.26223257 -0.0373537
000340 04 75 69 be 49 fb 8a 3e 5a 73 3e 3e bf 90 fe bd
       -0.22798544 0.2714484 0.1859869 -0.12429952
000350 8e 6a 1c be 72 df b8 3d 28 12 46 be e0 2c d6 3d
       -0.15275022 0.09026994 -0.19342864 0.10457778
000360 9a 07 b6 bd 8e c7 9c 3c 1d a4 f2 3c 39 5e 61 3e
       -0.08888169 0.019138124 0.029619271 0.220086
000370 29 d3 b5 bd 52 bd 27 3e 7c 06 76 bd 0c 9d 46 bc
       -0.08878166 0.16380814 -0.060064778 -0.012122404
000380 ca aa c0 bd e8 d6 f7 3d 76 a1 8d 3e 60 ba 19 bb
       -0.094075754 0.12101537 0.27662247 -0.0023457035
000390 ac a0 48 3d 2a 36 7f bb 1c 66 39 3d 8e c8 77 bd
       0.048981354 -0.0038942196 0.045263395 -0.060494
0003a0 bf 69 05 be 13 54 28 be de 82 2c 3e 5b b8 0a 3d
       -0.1302862 -0.16438322 0.16846797 0.03386722
0003b0 29 96 8e bd 8a 64 08 be 57 44 2d bc df de 16 be
       -0.069622345 -0.13319603 -0.0105753755 -0.14733456
0003c0 1e c4 6c 3d 5c 84 07 3e 66 b4 36 3e a3 ff e0 bd
       0.05780422 0.13234085 0.17842254 -0.10986259
0003d0 e3 74 6d 3e 4b a2 9b 3d a5 b7 31 be f2 9e 54 be
       0.2318912 0.07599314 -0.17355211 -0.20763758
0003e0 d2 17 8b 3d 98 2b ae 3c 8c 33 1b be 7a 77 c0 bd
       0.06791653 0.021261021 -0.15156382 -0.09397788
0003f0 67 43 bb bd 45 7c b4 bd 07 39 97 3e c0 e3 eb 3d
       -0.09143715 -0.08812765 0.29535696 0.11518049

fc3.bias f4 [10]
000000 10 27 f8 bd 93 b1 24 3c de 0e bc bd 7b 5b e2 bd
       -0.121168256 0.010052103 -0.09182523 -0.11052605
000010 d4 77 df b9 3c 2a 54 bd 23 e9 27 be b4 aa dc bd
       -0.00042623153 -0.05179809 -0.16397528 -0.107747465
000020 52 08 ad 3e a0 61 c6 3c
       0.3379541 0.024216473
