src/global_mnist_cnn.pt (torch, 181781 bytes, 10 tensors)

conv1.weight f4 [6, 1, 5, 5]
000000 1c 6c 13 bb 12 8f 26 3d 29 07 8d be 55 b4 32 be
       -0.0022494858 0.040663786 -0.27544525 -0.17451604
000010 81 c2 1c 3e 64 c4 16 ba 73 80 04 3e c8 f6 be bd
       0.15308572 -0.00057513104 0.12939624 -0.093244135
000020 da fd d6 be e1 5b 97 bd 87 6d 1f 3c 8a 47 3b 3e
       -0.41990548 -0.073905714 0.009730703 0.18289009
000030 e1 d0 21 3c e8 13 fa be 10 07 e6 be ad e3 40 3e
       0.009876461 -0.48843312 -0.44927263 0.18836851
000040 8c b9 c0 3e a6 b1 c7 3e 95 e7 1f be ed fe a0 be
       0.3764156 0.39002723 -0.15615685 -0.31444493
000050 ca 54 61 be e1 df b9 3e 4c dc b0 3e ba 16 a6 3e
       -0.22005 0.3630362 0.34543073 0.32439214
000060 6a cb 65 3d c2 27 c3 3d c6 a1 ce 3d b1 ab 66 3e
       0.056102194 0.095290676 0.100894496 0.22526433
000070 48 ad 3f be ec d6 46 be 10 30 b9 bd 1b e4 e8 bb
       -0.18718445 -0.19417924 -0.0904237 -0.0071072704
000080 f8 1e 02 3f f5 94 26 3f 0c b1 d4 3e 7e bf 97 bd
       0.50828505 0.6507104 0.41541326 -0.07409571
000090 a3 27 6a be 84 19 f5 bd ba de 8b 3e 14 63 bc 3e
       -0.22866683 -0.11967757 0.27318364 0.3679434
0000a0 70 4a 77 be 04 07 9a be 48 b2 a0 be e5 e5 c4 be
       -0.2414949 -0.30083477 -0.31386018 -0.38456646
0000b0 12 51 86 3d 48 69 5b 3e b0 35 fc bd d7 f5 d3 be
       0.06558432 0.2142688 -0.123149276 -0.41398498
0000c0 61 98 d4 be 1a 80 4d bd f4 86 b0 bd 8e 65 8b 3e
       -0.41522506 -0.050170995 -0.0861949 0.27225918
0000d0 fe 7c b2 bc f2 dc a8 bd 02 33 84 3e ef 72 1e be
       -0.021788117 -0.08245267 0.25820166 -0.15473531
0000e0 ca dc d5 3b 30 70 41 3e c4 03 66 3e ac 46 6b 3e
       0.0065265642 0.18890452 0.22462374 0.22976178
0000f0 06 d8 23 bd 34 ad 82 3e 6f 0d bf 3e 1e 10 9a 3d
       -0.040000938 0.25522768 0.37314937 0.07522605
000100 9c 3c 37 be 06 e6 44 3d 13 05 90 3e 52 eb a2 3d
       -0.17894214 0.04807093 0.2812887 0.0795504
000110 a4 42 56 be e8 29 99 be cf c8 ed 3b 60 26 d9 3c
       -0.20923859 -0.29914784 0.0072566043 0.026507556
000120 fb ff 0f 3c 3e 0e 74 bd 2c 3c 8e bd 6d dc 72 be
       0.008789058 -0.059583895 -0.069450706 -0.23716898
000130 ea 62 a5 be f2 04 8f be 7d 1c e0 3d 7b 64 90 3b
       -0.32302028 -0.2793346 0.10942934 0.0044065095
000140 b3 06 e9 be 24 a9 c3 3c ad 61 f5 3d 2a 0b b0 3e
       -0.45512924 0.023884363 0.11981521 0.34383518
000150 e0 3a c0 bd 78 9d 9c be c6 60 5c 3d 5b 53 00 3f
       -0.093862295 -0.3058889 0.053803228 0.5012719
000160 b3 1d a6 3d f3 5a ae bd ba 12 b2 3d 2a cd 8e 3e
       0.081111334 -0.08513441 0.08694978 0.27890903
000170 84 bb 92 3e 48 a3 d2 bd 12 e7 90 be d5 ff 1f 3e
       0.28658688 -0.1028505 -0.28301293 0.15624936
000180 15 61 84 3e d0 38 9a be a5 34 c5 be 71 82 0e be
       0.25855318 -0.3012147 -0.38516727 -0.13916947
000190 02 9b d9 3e 81 09 88 3e 30 5e 92 3e 1d 22 ae 3e
       0.42501074 0.2656975 0.28587484 0.340104
0001a0 da 5c 8d 3e 78 d4 47 3c 2f 0c 78 3e d1 25 4e 3e
       0.27609903 0.012196653 0.24223398 0.20131613
0001b0 d7 4c 1d 3e 4d a3 0e be ba 93 f2 be 32 1d 9a be
       0.15361343 -0.13929482 -0.4737833 -0.301004
0001c0 e7 f4 a6 be a9 23 e1 be e5 aa dc be dc 2e 8f be
       -0.3260872 -0.4397252 -0.43099132 -0.27965438
0001d0 ca b6 d4 be de 3b 1d bf 0e a5 d3 be 74 32 b5 be
       -0.41545707 -0.61419475 -0.41336864 -0.35390055
0001e0 7b ca bd bd 60 b7 75 be f4 25 a2 3d 75 7b 82 3d
       -0.09267136 -0.23995733 0.07917395 0.06371204
0001f0 19 40 bf 3e 56 89 29 3e 75 e7 cf bd 04 0e 2b bc
       0.3735359 0.16556296 -0.10151569 -0.010440353
000200 80 0f f0 bd e6 e5 01 3e ee 99 41 bc 28 c5 85 3c
       -0.117217064 0.12685356 -0.011816485 0.016329363
000210 5a c6 c6 bd 5b a0 14 be 39 76 43 3e 3f da b7 3d
       -0.09705801 -0.14514296 0.19088067 0.08977174
000220 36 a4 22 be 2e f1 a3 bd 54 5b 39 be 8c f0 58 3e
       -0.15882954 -0.08004986 -0.18101245 0.21185511
000230 fa 95 0e be bc c7 fb bd 69 86 0b bd 78 52 36 be
       -0.13924399 -0.12293956 -0.03406373 -0.17804897
000240 42 4f 93 3e 48 76 39 be be 35 19 be a9 82 80 be
       0.28771406 -0.18111527 -0.14961907 -0.25099686
000250 99 e2 1d bc d5 9f 7a 3e
       -0.009636545 0.24475034

conv1.bias f4 [6]
000000 e4 59 1f be aa 8f 53 be 36 9a 06 be 7b a0 97 be
       -0.15561634 -0.20660272 -0.13144764 -0.29614624
000010 54 a1 d8 bd 44 67 64 bc
       -0.10577646 -0.013940636

conv2.weight f4 [16, 6, 5, 5]
000000 dc c1 f9 ba cc f0 e1 3d 3e 5b 2e 3d 8e 7a 8d be
       -0.0019054967 0.110322565 0.042567484 -0.27632564
000010 b4 9d b8 bd 55 7f c9 3c 38 61 23 3e 7b ff dd 3c
       -0.090144545 0.02459685 0.15955055 0.027099362
000020 e6 8f 72 be c6 12 21 bd ea af d8 bc 0e fc 15 3e
       -0.23687705 -0.039324544 -0.02645107 0.14646932
000030 c8 25 98 bd ba 93 11 be 1a 32 00 3d 77 5b 06 3c
       -0.07429081 -0.1421651 0.03129778 0.008200518
000040 50 d8 de bc f5 c0 0d be 3f b1 45 be 70 fe 45 bd
       -0.027202755 -0.13843139 -0.19305895 -0.048338354
000050 74 d9 19 3d a8 16 2d 3e 96 e6 8c bb 9c bb 6a 3b
       0.037560895 0.16903174 -0.004299949 0.003581739
000060 a0 fa a8 3d 1f 4b 04 bd ba 59 d8 bd c6 2c e8 bd
       0.08250928 -0.032298204 -0.10563989 -0.11336665
000070 08 fc 63 be b5 10 00 be b8 b9 e7 bc 5d a6 24 be
       -0.22264111 -0.12506373 -0.0282868 -0.16079088
000080 4e 41 77 be a0 ad 40 be cd ad 85 be c7 9f 8a bd
       -0.24146006 -0.18816233 -0.26109162 -0.06768756
000090 a6 83 1b be 2f c0 2c be c7 53 4f be 17 f7 11 be
       -0.15186939 -0.16870187 -0.20246802 -0.14254414
0000a0 fd 4e 30 bd 80 7e 55 be 7a 77 4f be c8 ae 8c bd
       -0.04304408 -0.20849037 -0.2026042 -0.068692744
0000b0 9d a5 69 bd b6 1d 49 bd 67 cd 78 be c5 83 f7 bd
       -0.057042707 -0.0491006 -0.24297105 -0.1208568
0000c0 94 28 8f bd 13 f1 77 3d 86 2f af bd 32 db 03 bd
       -0.069901615 0.06053264 -0.08553986 -0.032191463
0000d0 26 5a 04 3d 54 68 34 be b4 28 c4 bb c2 37 65 bd
       0.032312535 -0.17617923 -0.0059862975 -0.055961378
0000e0 a3 a9 36 3e 25 4c b8 bd bf 2c 79 be ec ce 4c 3e
       0.17838149 -0.089988984 -0.24333476 0.2000081
0000f0 82 34 1d 3e 0a d5 bb 3d 50 e7 ad be b5 86 1d be
       0.15352061 0.09171493 -0.3396554 -0.15383418
000100 29 b7 58 3e 79 2e 34 3e be 4c f3 bc 06 7a aa be
       0.2116362 0.17595853 -0.02969968 -0.33296221
000110 a2 f5 b6 ba b0 b9 17 3e 8d b5 98 bc ec cc 79 be
       -0.0013958702 0.14816928 -0.018641258 -0.24394578
000120 ac 01 3e be 44 d4 26 3e 8e 1f 5a 3e 43 8c c7 bd
       -0.18555325 0.1629191 0.213011 -0.0974355
000130 e4 a9 9f 3c eb b3 21 3d dd 46 e7 bc cd 6f 33 3e
       0.01949019 0.039478224 -0.028232032 0.17523117
000140 0f 08 e6 bb 36 49 21 3e cb 5b 81 3c 45 e4 94 bd
       -0.0070200036 0.15750584 0.01579084 -0.072701015
000150 f7 c0 72 3e b8 a9 8e 3d 76 2c 0c 3e 15 39 83 bd
       0.23706423 0.06965965 0.13688836 -0.06407372
000160 89 41 91 3b 34 94 df 3d 20 7c 85 bc 45 ca 59 3d
       0.004432861 0.109169394 -0.016294539 0.053171415
000170 da 23 71 bd 17 6e 97 3d 11 f8 d0 3c 04 56 6b 3d
       -0.05887208 0.07394045 0.025508912 0.057455078
000180 da fe 0b bd 0f da 17 bc 6a 62 1a 3e ff a6 ce 3c
       -0.034178592 -0.009268298 0.15076604 0.025226114
000190 ce f1 5d bc 51 46 e3 3c 21 22 cd bd 68 1e fc bd
       -0.01354642 0.02774349 -0.10016275 -0.12310487
0001a0 22 ec da bd 00 50 0a be bb 9c 7b bd 43 c9 03 be
       -0.1068957 -0.1350708 -0.061428767 -0.12869744
0001b0 fa 96 2c be 5e 42 cc bd a2 1b 18 3d 12 2c e1 bd
       -0.16854468 -0.09973596 0.037135728 -0.10994734
0001c0 2e c2 36 be 1a 1a 0d be 17 ce ce bd 26 eb 8d 3d
       -0.17847511 -0.13779488 -0.10097902 0.06929617
0001d0 a8 c3 80 bd 97 9a ce bd 6a d1 13 be e5 37 10 be
       -0.062873185 -0.100880794 -0.14435354 -0.14083822
0001e0 1c 9a f2 3c 45 f7 a6 bc 48 e9 1c be 49 3d 57 be
       0.0296145 -0.02038158 -0.15323365 -0.21019472
0001f0 f1 98 be bc 23 44 91 3b 79 15 8c bd 84 59 2d 3d
       -0.023266288 0.0044331714 -0.06840033 0.042321697
000200 bf bb f3 3d e6 97 98 bb 90 3b 15 3a 24 c3 91 bd
       0.11901044 -0.0046567796 0.00056927744 -0.07117298
000210 bd 09 02 3e 06 ec b5 3c f0 00 b4 3c 71 b5 09 3e
       0.12699027 0.022207271 0.021973103 0.1344812
000220 4c 32 98 3d 89 d3 39 3d 42 3d 5f 3d 9b b0 8c bd
       0.07431468 0.04536775 0.05450178 -0.06869622
000230 b5 99 19 bd b8 14 db 3d 08 2a 03 3e 63 9e d6 3d
       -0.037500102 0.10697311 0.12809002 0.104794286
000240 15 66 2d 3d fb b7 6d 3c c8 bf 99 3d bd 7a f6 3d
       0.04233368 0.014509196 0.075072825 0.12035129
000250 96 e9 0e 3d d4 34 5f 3d 8d 52 62 3e 18 27 46 3d
       0.034890734 0.05449374 0.22101803 0.048377126
000260 be 32 3a bd 86 0c f8 bd cf c8 9d bd 3b 79 f6 3d
       -0.045458548 -0.12111764 -0.07704317 0.120348416
000270 f1 30 f5 3c a9 40 cf bd 0c e0 5e bd 2a d1 fd bd
       0.029930564 -0.10119755 -0.054412887 -0.123934105
000280 de 2a 41 bc ea ff 8c 3d 7a d6 80 bb 40 08 86 bd
       -0.0117900055 0.06884749 -0.0039318176 -0.06544542
000290 6b 7c b3 bd 52 03 88 3c a6 3f 5f bd 46 42 40 bc
       -0.08763965 0.016603146 -0.05450406 -0.011734551
0002a0 a2 86 0e bd 66 93 bc bb 5e db fe bc 8b f6 97 bc
       -0.034796365 -0.005754876 -0.031110462 -0.018550178
0002b0 ad 80 98 3d 5c 5f f6 3d 14 8c fd bc 79 1c 93 bd
       0.07446418 0.12029907 -0.030950584 -0.07183165
0002c0 09 fc 5e bc b3 23 a5 bd 5c 13 63 bd 86 c4 ac bc
       -0.013609895 -0.0806345 -0.055438384 -0.021089803
0002d0 66 9c 9f bd 38 d2 bf bc 34 30 aa bd bb d2 1a be
       -0.077935025 -0.02341567 -0.08309975 -0.1511945
0002e0 1a 7c 7f bd 71 c0 57 bd 89 2a 0f be ca b0 4e be
       -0.06237421 -0.05267376 -0.1398107 -0.20184627
0002f0 f8 2c e0 bc d0 e2 dc bb 5f 5d 53 be c8 38 66 be
       -0.027365193 -0.0067409053 -0.20641087 -0.22482598
000300 26 aa 17 be e6 9e ce bd f6 11 62 bd cb 6c 08 be
       -0.14811 -0.10088901 -0.05519291 -0.13322751
000310 fe 3d 6a bd 50 0f 39 3d 36 74 0c bd e4 ab d0 3d
       -0.057188027 0.04518062 -0.034290515 0.101890355
000320 b2 73 06 3e 98 6e 8b bc 0e 37 c0 bd 5e a1 2a bd
       0.13130072 -0.017020509 -0.09385501 -0.041657798
000330 1b 66 8d bd 79 f4 6b 3d 2a 9e 4e bc 7f 37 60 3c
       -0.06904241 0.057606194 -0.012610951 0.013685106
000340 59 c6 0b be d3 bc a6 bd a3 77 3a 3e ec 2a 2d 3e
       -0.13649882 -0.08141484 0.182097 0.16910905
000350 17 83 45 bd 90 09 29 be 0a 0c a8 bd 07 15 8b 3e
       -0.04822072 -0.16507554 -0.08205421 0.2716448
000360 ee 9f 98 3d 8c a0 c5 3c 79 cd 1f be 25 60 91 3c
       0.07452379 0.024124406 -0.15605725 0.01774604
000370 e6 43 c8 3d 1a 21 e6 bd 17 a0 b4 bd 87 04 ab 3c
       0.097785756 -0.11236782 -0.08819597 0.020876182
000380 20 78 22 3c 15 b8 e1 3a 04 5f c1 3d 13 79 67 bd
       0.009916335 0.0017220998 0.09441951 -0.05651195
000390 c9 2b 2d 3d 24 67 8c bd d7 71 96 bc a8 57 98 3b
       0.042278085 -0.0685561 -0.01836483 0.0046491213
0003a0 f4 5e 2d bc 4a bd 60 bc 5d b7 5c bc c8 b6 0a 3d
       -0.010581721 -0.013717005 -0.013471452 0.03386572
0003b0 1b 55 bb 3d 92 30 de bc 31 27 87 bd ae 04 84 bd
       0.09147092 -0.02712277 -0.06599272 -0.06446205
0003c0 bb a9 11 3e 95 1a 88 bd 6e 19 e2 3c e8 c7 0b bd
       0.14224903 -0.06645695 0.027600016 -0.034126192
0003d0 34 7f 9f 3c d8 e3 20 bd 2e 67 14 be a4 17 b0 3d
       0.019469835 -0.03927979 -0.14492485 0.08598259
0003e0 cf 0e 3a 3d 78 e2 f4 3d 2b 7e 87 bd 81 19 6f bd
       0.04542428 0.11957258 -0.066158615 -0.05837393
0003f0 1f eb 9a bb 80 52 bc bd 7a 76 62 bd 49 75 44 bd
       -0.0047277356 -0.09195423 -0.05528877 -0.047963414

conv2.bias f4 [16]
000000 8a 0a ea 3d 7c 92 b1 3d dd 9c 3b 3c 51 f9 44 3c
       0.114277914 0.08670518 0.011450973 0.012022332
000010 86 ad d7 bd 4c ac ea 3c 46 48 df bd 43 db 30 bd
       -0.10531144 0.02864661 -0.10902457 -0.043177854
000020 db 52 c8 bc 68 ac a6 bb 72 29 00 3d e0 06 a8 bd
       -0.024453571 -0.0050864704 0.031289525 -0.08204436
000030 b2 18 56 3d 4a 1a 33 3d ab 12 8b 3d 68 35 37 bd
       0.052269645 0.043726243 0.0679067 -0.044728667

fc1.weight f4 [120, 256]
000000 40 e8 2f 3a 6c 6e 3c 3c eb cb c7 bd 32 84 2f bd
       0.0006710328 0.011500936 -0.09755691 -0.04285068
000010 96 89 ad 3d 4e 82 40 bd 41 68 1d 3d e4 4b 81 3d
       0.08473508 -0.04699927 0.038429502 0.06313303
000020 4e 55 03 3d 58 81 f0 3c 5a 8b 7b 3d e4 80 52 3d
       0.032063775 0.02935855 0.061412193 0.05139245
000030 94 31 ce 3d c2 8e e8 3c 70 05 be b9 f6 6a 39 bd
       0.1006805 0.028388385 -0.00036243675 -0.04526802
000040 e1 df 26 bb c6 d5 25 bd 4e 24 05 bc 4b 59 3b bc
       -0.0025463032 -0.040487073 -0.0081263315 -0.011434863
000050 02 9f 3d bd 8e a5 97 bc 84 67 cc 3c 10 ce 44 3d
       -0.04629422 -0.01851156 0.024951704 0.04804808
000060 2a 58 fb bb c4 2e 98 3d c7 74 6e 3d 08 fe aa 3d
       -0.007670422 0.07430795 0.058216836 0.08349234
000070 4a e6 28 3c fc 09 9f 3d e0 66 cd 3c 28 87 10 be
       0.010308811 0.07765576 0.025073469 -0.14114058
000080 01 39 a6 bd 3e b0 be 3d 05 c6 b7 3d 89 5f c8 bc
       -0.081163414 0.09310959 0.08973316 -0.024459617
000090 39 1d 85 bd f6 60 47 be 54 3e e6 bd a2 6e a9 bd
       -0.064997144 -0.19470581 -0.11242357 -0.08273055
0000a0 a4 a8 ec bd a8 97 3c bd 12 41 22 be 2b 35 e7 bd
       -0.11555603 -0.04604307 -0.15845135 -0.11289438
0000b0 8c e4 d5 3c 75 98 32 3c bb 20 c3 3b 46 ec e6 bc
       0.026109956 0.010900606 0.0059548295 -0.028188836
0000c0 c8 c0 4b 3d 70 0b fd 39 6d 37 f3 bb 23 63 30 3d
       0.049744397 0.00048264442 -0.0074223788 0.043063294
0000d0 89 9d 4d 3d f6 20 a5 3d 85 9a 0f 3d bc 00 88 3d
       0.050199065 0.080629274 0.03505947 0.06640765
0000e0 e4 7b d7 bd 3f 28 50 bd 95 31 8e bd 00 e7 85 bd
       -0.10521677 -0.05081963 -0.06943051 -0.065382004
0000f0 e7 98 9d 3b e6 5a 1f 3d 2c af 61 bb e0 a8 94 bd
       0.004809487 0.038905047 -0.0034436686 -0.07258773
000100 11 f2 60 3d a8 f4 27 3d c3 c5 44 3c e6 1c b2 3d
       0.054918353 0.041004807 0.012010041 0.08696918
000110 4b a5 c8 3c b0 fd f8 3a 05 78 85 bd 9d a4 89 bc
       0.02449288 0.0018996503 -0.065170325 -0.016802127
000120 f2 ba 7a 3d b2 6f 03 bd 50 d4 12 3d 1a ec c7 bd
       0.06121344 -0.032088943 0.03584701 -0.0976183
000130 d2 75 ba 3d b1 0e a7 3d 5c 03 76 bd 65 08 6d bc
       0.09104504 0.08157099 -0.060061797 -0.014467333
000140 46 1d df bb 7c c9 59 3c 38 23 9c 3c 00 6d be 3d
       -0.0068089096 0.0132926665 0.019059762 0.09298134
000150 96 ac c1 bc 44 c0 dc bc d0 a6 8f 3d e5 d9 82 3d
       -0.023641866 -0.026947148 0.07014239 0.06389216
000160 0c 64 c1 bd 8e bb 07 bd 99 41 95 3c 27 94 08 bd
       -0.094429106 -0.03313785 0.018219756 -0.033344414
000170 12 2c dd 3c d1 29 9c 3c 57 00 54 bd f5 bc 0d 3d
       0.026998553 0.019062908 -0.051758137 0.03460403
000180 98 6c af bd bf ea 1a 3d 9a 7d d6 bc 56 85 6c 3c
       -0.085656345 0.037821528 -0.026182938 0.014436087
000190 52 5a 4c bd 40 47 69 be 74 86 06 be a2 a5 a0 bd
       -0.049890824 -0.22781086 -0.13137227 -0.07844092
0001a0 1d 80 37 be 44 5b 5f be 64 31 00 be 82 55 0d bd
       -0.17919965 -0.21812159 -0.12518841 -0.034505375
0001b0 e7 82 e4 3b 25 48 12 3b 3f aa 09 3e 28 10 78 3e
       0.0069736126 0.0022320834 0.1344385 0.24224913
0001c0 f0 56 91 bd 55 9b 3a 3d c1 ac c3 bc 73 51 83 3c
       -0.0709666 0.045558292 -0.023886086 0.016030049
0001d0 e4 19 71 3d ce 43 93 3d a3 49 09 3e 74 97 07 3d
       0.05886258 0.07190667 0.13406996 0.03310342
0001e0 2a b5 41 3d 0c df d1 bd 8e 48 ef bb a1 b8 b3 bd
       0.047291912 -0.10247621 -0.0073023504 -0.087754495
0001f0 21 1d 90 3b 1b a6 ee bd e5 49 62 bd b0 a5 8c bd
       0.0043980037 -0.11652776 -0.055246253 -0.0686754
000200 20 f4 79 3d 3b e3 a1 3d 1e 7e d1 bd b6 bd d0 bc
       0.06102383 0.07904669 -0.10229133 -0.025481086
000210 a1 d8 83 3d 7c 82 ba 3d 25 29 ce 3c a9 70 05 3d
       0.06437803 0.09106919 0.025166104 0.032578144
000220 ac 85 f2 bc 7a b7 07 bd 51 9f ab 3d 93 d4 c6 3d
       -0.029604755 -0.03313396 0.083799966 0.09708514
000230 17 9b 55 3d 1e 70 b8 3c 24 8e 11 bd 32 2f 8f bd
       0.05214986 0.0225144 -0.035535946 -0.06991424
000240 5d da 72 bb 90 09 be 3c 94 d4 0e 3d d9 f1 3d bd
       -0.0037056424 0.02319792 0.0348707 -0.046373222
000250 02 dc b3 bc fa 9c 57 3d 6e 79 05 3d 8f 6a 66 3b
       -0.021955494 0.05263994 0.032586507 0.0035158729
000260 8f 96 b4 bc 96 28 8a bc 50 23 39 3c 43 65 bc 3d
       -0.022044448 -0.016865056 0.011299923 0.09199002
000270 b9 dd 1b 3c 13 6e 57 3d ae 97 aa bb a9 8a de 3a
       0.009513312 0.05259521 -0.00520607 0.001697858
000280 a0 c9 20 bd 1e 76 36 bd 84 53 a1 3d 64 7f 68 bc
       -0.039254785 -0.04454624 0.078772575 -0.014190529
000290 2a 89 8b bb 35 e9 3c 3d aa 9b 10 3d df b6 0d 3e
       -0.0042582946 0.04612084 0.035304703 0.13839291
0002a0 cf 79 cf bb 8a 0c a1 bc 38 5c 64 bc 62 0a 47 3d
       -0.0063316594 -0.0196593 -0.013938002 0.048593886
0002b0 15 38 01 bd f5 37 6b 3d bc 6d cd bd 94 d3 0d be
       -0.031547625 0.05742641 -0.10030696 -0.13850242
0002c0 e4 0b 17 3c e1 0e 8d 3d 4f ed 97 bc 9a ea 5d bd
       0.009219144 0.068876036 -0.018545775 -0.05417881
0002d0 d6 0d 1a bc 9f ed d7 bd 24 ab 14 be c3 1d ec bc
       -0.009402713 -0.105433695 -0.1451841 -0.028822785
0002e0 b9 92 96 3d d6 6a 59 3d 69 bc dc bd 7c 44 53 3d
       0.07352204 0.053080402 -0.10778124 0.051578984
0002f0 f2 25 a5 3d ef 99 62 3d ee 53 03 3d e4 83 b1 3d
       0.08063878 0.055322584 0.032062463 0.08667734
000300 22 14 11 bd cc 06 3b bd 92 3e 85 3d 7d 54 09 3d
       -0.03541959 -0.04566078 0.06506075 0.03352784
000310 1d cb 8b bd 3f 63 b5 bd 3a fd e2 bb 33 84 2a bd
       -0.0682585 -0.0885682 -0.0069271596 -0.04162998
000320 ec f1 ae bd 55 2a 23 bd f8 f9 5e 3d 65 67 ce 3c
       -0.08542237 -0.039835293 0.054437608 0.025195787
000330 13 26 9d 3d c3 38 22 3e 24 b0 dd 3d 14 5c 89 3d
       0.07673278 0.15841965 0.10824612 0.06707016
000340 34 48 f0 3c 9c ce 14 3d 9d cd e3 3c bd 4d b2 bd
       0.029331304 0.03632985 0.027808005 -0.08706234
000350 62 4f d3 3d 4c 63 f2 bd 28 a9 ba bd 96 4d 76 bc
       0.103178754 -0.118353456 -0.09114295 -0.015033146
000360 8c 3a 85 bc 22 ae 4d be 22 8e 2b be 6c c9 d3 bd
       -0.016263269 -0.20085958 -0.16753438 -0.103411525
000370 4c 77 2c be ae d9 8f bd a9 14 90 3d fa 59 48 3d
       -0.16842383 -0.07023941 0.070351906 0.048913933
000380 bd 96 9c bd 5d 20 86 bb 30 3c 86 3c 2c 5b c3 bb
       -0.076459385 -0.0040932135 0.016386122 -0.0059617963
000390 08 2b ef bc 67 c2 92 bd 61 b0 9d bd 70 3c 75 bd
       -0.029195324 -0.071659856 -0.07699657 -0.05987209
0003a0 e4 92 f0 bc df fc 63 3c 1e b4 67 bd 60 19 24 be
       -0.029366918 0.01391527 -0.056568258 -0.16025305
0003b0 aa df 8d 3c a5 f3 d7 3d 1c 92 fb 3c 8b c0 16 3b
       0.017318565 0.105445184 0.030709319 0.0023002948
0003c0 57 b2 57 bb 72 26 50 3c d0 59 a7 bc 22 00 cf bc
       -0.0032912695 0.012704479 -0.020428568 -0.025268618
0003d0 b0 d7 78 bc b2 e6 18 3e 66 09 e8 3d a4 ac 99 3c
       -0.015188143 0.14931753 0.113299176 0.01875908
0003e0 f2 43 5f 3d 4f 21 ab 3d b3 38 96 3c 54 9e fd 3c
       0.054508157 0.083559625 0.018337583 0.030959286
0003f0 b0 f9 0a 3d 3a 92 fd 3a fb 4b 53 bc b0 4f b9 3c
       0.033929527 0.0019345947 -0.012896533 0.022621006

fc1.bias f4 [120]
000000 64 e8 22 bb ad af 4d bd f5 a2 56 3c 26 2b 0d 3d
       -0.0024857754 -0.050216366 0.013100375 0.034464978
000010 4e 6d 26 3d 6b ff 81 bd 5f f1 21 bd 3e ea 2a bd
       0.040631585 -0.06347545 -0.03953683 -0.041727297
000020 58 75 36 bd f0 6f 7b bc d5 16 bd 3c 4f 0d ca bc
       -0.0445455 -0.015346512 0.023082176 -0.02466455
000030 ae 8a 17 bd 74 d4 44 3d 3f cc 30 bc df 77 a9 bc
       -0.03699749 0.048054174 -0.010790884 -0.020687042
000040 1c 90 07 bd aa c4 01 3d d0 6d e5 bb c2 45 31 bd
       -0.033096418 0.031681694 -0.007001616 -0.043279417
000050 60 1f 2e 3d 66 92 4c 3d 0a 7d a8 3c fa 18 dc 3c
       0.04251039 0.049944304 0.020567436 0.026867379
000060 92 35 b9 bc 03 44 57 3d 2d 65 e6 bc 50 f3 1b bd
       -0.022608552 0.052555095 -0.028124416 -0.038073838
000070 ce ae 55 3d 95 b0 74 3d f6 cb bd ba 92 97 44 3d
       0.05216866 0.059738714 -0.0014480341 0.04799611
000080 27 90 63 3c 76 56 5a 3c c3 9b 56 3b df bd 50 bc
       0.013889349 0.013326278 0.003274665 -0.012740581
000090 79 a7 32 3d 08 1e 89 bd f5 0d 89 bd 9a 28 2f bd
       0.043616746 -0.06695181 -0.06692115 -0.04276333
0000a0 4b e8 04 3d af d5 e3 3b 24 b9 80 3d d0 f9 85 bd
       0.032448094 0.0069529633 0.06285313 -0.065417886
0000b0 c6 32 f4 3c 9a 31 de 3b fb 7d 5f bc c3 f1 a9 bc
       0.029809367 0.0067808153 -0.013640876 -0.020745164
0000c0 7e 18 8a bd b5 39 ad bc d1 ce a8 3c 54 63 47 3d
       -0.06742953 -0.02114568 0.02060643 0.04867871
0000d0 14 30 1c bd e5 c4 23 3c 54 0e 80 bd f5 3f 13 bc
       -0.03813179 0.009995674 -0.06252733 -0.0089874165
0000e0 b6 e9 48 bd 0b 8b 64 3d a6 51 3e bd 74 1f 66 3d
       -0.04905101 0.055796664 -0.046464585 0.05618234
0000f0 62 01 4c bd a4 fc 36 3d d4 33 e2 bc de 7d 19 3d
       -0.049806006 0.04467453 -0.027612604 0.037473552
000100 b0 26 1e 3d 46 2d 21 3d 91 11 94 3d 17 1c 66 3d
       0.038611114 0.039349817 0.07229913 0.056179132
000110 77 a7 9b 3c a9 26 4c bd 8a 5b 2f 3d 0a cf 1d 3d
       0.019000752 -0.049841557 0.042811908 0.038527526
000120 a4 0f 16 3c e4 57 00 3d 99 b9 33 3c e6 45 13 bc
       0.009159002 0.03133382 0.010969543 -0.008988833
000130 e7 5c fd bc c4 9e 69 bb 77 94 e4 3c 93 99 d8 bc
       -0.030928088 -0.003564761 0.027902825 -0.026440417
000140 a0 f8 81 3d 2c 00 e0 bc 03 28 08 bd a5 8d 2e 3d
       0.063462496 -0.027343832 -0.033241283 0.04261555
000150 76 de 62 3d 44 4d 46 bd 46 cd 93 3b 9a 56 3e bd
       0.055387937 -0.04841353 0.0045105545 -0.04646931
000160 f6 12 bb bb 71 66 ca bc 6c 84 7e 3b d2 b9 4b bd
       -0.0057090474 -0.024707051 0.0038836254 -0.04973776
000170 74 1a 6b 3d 26 15 59 bb a4 7c 59 bd 7d 85 c8 bc
       0.057398275 -0.0033124178 -0.053097382 -0.024477715
000180 ba cb a1 bc 83 16 3e bd 32 36 fb 3c b8 63 6a 3d
       -0.019750465 -0.046408188 0.03066549 0.057224005
000190 bc 51 5a 3d c7 1b 79 3d 04 dd 21 3d dc c5 55 3d
       0.053300604 0.060817506 0.039517418 0.052190647
0001a0 a6 b9 18 bd f6 8b 4a 3c ba d7 67 3d ea 3d df 3c
       -0.037286423 0.012362471 0.056602217 0.027251203
0001b0 59 ba 01 bd a2 a7 ce bc a0 dc 20 bc 08 39 0a 3d
       -0.031671856 -0.025226418 -0.009818226 0.033745795
0001c0 c7 16 94 bd 50 3f 57 3b c4 61 36 bd 8b 2e a2 3c
       -0.07230907 0.0032844134 -0.04452683 0.019797584
0001d0 5e 5b 63 bd 60 42 48 3d 77 bb 1e bd 72 19 b6 ba
       -0.055507056 0.048891425 -0.038753 -0.0013893081

fc2.weight f4 [84, 120]
000000 2e d0 ac 3d 7a 97 a2 3d b0 f6 aa b7 8c 43 53 bb
       0.084381446 0.07939048 -2.0380452e-05 -0.0032236306
000010 6a 05 3c 3c 5a 7b 1e bd a2 c6 f2 bc 48 37 a5 3d
       0.0114759 -0.038691856 -0.029635731 0.08067185
000020 b4 f5 0d bd 32 02 c3 bd 82 aa 08 3d c1 3f 22 3d
       -0.03465815 -0.09521903 0.033365734 0.03961158
000030 63 de 63 3d 0a 86 8b bd ce 08 cd 3d ab 6b db 3c
       0.055632006 -0.06812675 0.10011445 0.026784739
000040 f1 f6 17 3e 44 bb 42 bd b7 3a f6 3c 78 e7 04 bc
       0.14840294 -0.04754187 0.030057294 -0.008111827
000050 9c fe 17 bd 8d 12 0b 3e cf b1 bc 3c d5 0f c2 3c
       -0.03710805 0.13581295 0.023034004 0.02368919
000060 56 02 af 3d d2 fe eb bc 75 92 ee bc bf a1 30 be
       0.085453674 -0.028808031 -0.02912257 -0.17249201
000070 27 b9 42 3d 86 11 61 3d d2 f9 f1 3c d5 ad ab 3d
       0.047539856 0.054948352 0.029538069 0.08382765
000080 b6 37 09 bd 19 8a 7b 3d f2 e7 57 3d f8 e1 bc bd
       -0.033500396 0.061410997 0.052711435 -0.092227876
000090 c6 30 35 bd 81 90 15 3d 1c 39 84 bd 57 7b 4c 3c
       -0.044235967 0.036514763 -0.06456205 0.012480578
0000a0 64 45 92 bd 6f 88 4b bd 92 48 b7 bd ae 40 af bd
       -0.071421415 -0.04969066 -0.089493886 -0.085572585
0000b0 14 21 35 bc 80 79 80 bd fe 26 87 3d 9a 3a ab bd
       -0.01105525 -0.06273174 0.06599234 -0.08360787
0000c0 37 45 78 3d 1a 03 80 bd 10 f7 35 3d 96 bd a9 3d
       0.060612883 -0.062505916 0.04442507 0.08288114
0000d0 20 28 ed bc dc 03 5c bd 46 b1 39 bd 49 fd b2 3d
       -0.028949797 -0.053714618 -0.045335077 0.087397166
0000e0 8e 72 4b bd 05 0f 42 3c 08 e0 51 3d fb ee c4 3c
       -0.049669795 0.011844401 0.051239043 0.024039736
0000f0 91 6c 45 3c 11 90 87 bd 60 88 92 bd c1 f4 5c bd
       0.01204981 -0.06619275 -0.07154918 -0.053944353
000100 01 ec cb 3c 9f f6 89 3d 8a 00 3c 3d b3 0d e9 3c
       0.024892809 0.06736492 0.04589895 0.028448915
000110 08 4d 0b bc 1c 34 ae 3d 88 f2 6b 3d fd 1c 9f bd
       -0.008502252 0.08506033 0.057604343 -0.07769201
000120 1c 2e a1 3d 74 0e 08 bc 62 bb 03 3e d0 7e ac 3d
       0.07870123 -0.008304227 0.1286445 0.08422625
000130 16 17 bc 3d 38 0c 75 bd 66 f7 3f bd dd a5 f9 3b
       0.09184091 -0.059826106 -0.046866797 0.0076186494
000140 d7 c8 a3 ba a0 20 8f 3d 7f 0e 0d bd ac 81 e4 ba
       -0.0012495768 0.069886446 -0.034437653 -0.0017433665
000150 73 dc 9b bd 9e de 26 3d ca 82 34 bd a6 0d 5a bd
       -0.07610407 0.040739648 -0.044070043 -0.053235672
000160 80 9a 18 bd 05 b5 29 bd 3d f7 71 3d 64 d8 94 3d
       -0.037256718 -0.0414324 0.059073675 0.07267836
000170 ac 44 bd bd 88 da 92 bd 24 c1 33 3d 01 15 8d 3c
       -0.09241614 -0.07170588 0.043885365 0.01722193
000180 00 fc 19 be d5 d2 ae 3d fa 00 66 3d c4 9e 8f 3d
       -0.15037537 0.08536307 0.056153275 0.07012704
000190 06 f2 2d 3d bf a0 25 bd a8 2d 17 bd 46 a5 cd bc
       0.04246714 -0.040436503 -0.036908776 -0.025103223
0001a0 30 74 81 3d 02 19 19 bc de a8 1d bd 03 db 7e bd
       0.06320989 -0.009344341 -0.038491122 -0.062220585
0001b0 37 6e 7f 3d 38 63 10 3d 61 94 07 bd fb 48 3b bc
       0.06236097 0.035250872 -0.03310049 -0.011430974
0001c0 cc cc 2a bd 19 3f 94 bd 20 a6 d7 3b b9 a7 87 bd
       -0.041699216 -0.072385974 0.006581083 -0.066237874
0001d0 fb ac da bd e7 f3 af 3d e0 92 02 3e 96 24 19 3e
       -0.10677525 0.085914426 0.12751341 0.14955363
0001e0 74 fa 83 3d ae 35 c2 bd bf c0 6f 3c 88 ee c3 bd
       0.064442545 -0.09482895 0.014633357 -0.095669806
0001f0 37 64 a6 bc dc 2c 0f 3d db bb 1d 3c 2a ba 84 3d
       -0.020311458 0.03495489 0.009627308 0.064808205
000200 8b 0d 21 bd fc 28 2e bd c5 7d 15 3d 96 ba bd bd
       -0.039319556 -0.042519554 0.036496896 -0.09264104
000210 f2 35 55 bd 0e 49 8b bd e8 5b 67 3d a2 cc ba bd
       -0.0520534 -0.068010435 0.056484133 -0.09121062
000220 da 29 9c bd ba 2a af bb 04 de c7 3c 23 e7 63 bd
       -0.0762517 -0.0053456696 0.024397857 -0.05564035
000230 0f bf 68 3c 12 48 7f bc 8f bf bc bd 04 ed ac 3d
       0.014205708 -0.015581148 -0.092162244 0.08443645
000240 73 d1 ec 3c 18 44 89 bd cc 40 da bc fa a0 1b bd
       0.028908467 -0.06702441 -0.026642226 -0.037995316
000250 64 06 36 3d 7c e9 77 3a 7b d4 53 3c 29 13 ba bc
       0.04443969 0.0009457094 0.012929077 -0.022714214
000260 bd dc b0 3c dc 5c bf 3c 40 16 31 bd b4 a9 0c 3d
       0.021589631 0.023359708 -0.04323411 0.03434153
000270 09 d3 9c bd 21 8c 5a 3c 8c d3 be 3c a3 e1 49 bb
       -0.07657439 0.013339073 0.023294233 -0.0030804656
000280 d3 3b 87 3d 89 c5 09 bd 65 d7 57 bd 86 39 98 3d
       0.066032074 -0.03363565 -0.05269565 0.07432847
000290 8e dd fa 3c 34 3f d3 bd 90 d5 4e 3d 52 db 11 3c
       0.030623224 -0.103147894 0.050496638 0.008902388
0002a0 a3 09 86 bd a6 c3 60 bc 81 8e a5 3d d5 a0 1b bc
       -0.06544807 -0.013718521 0.08083821 -0.009498795
0002b0 06 0a 84 3d 48 4a d5 3c 54 6b ff 3c 0d 5f 9d bc
       0.06447224 0.026036397 0.031179108 -0.019210363
0002c0 c0 e4 bf b7 90 34 57 3d e4 ee e8 3c e7 a8 00 bd
       -2.2875494e-05 0.052540362 0.028434224 -0.031411078
0002d0 4c 42 e9 3c fb 31 30 bc b2 fb a1 3d 40 14 87 bd
       0.028473996 -0.010754104 0.07909335 -0.06595659
0002e0 48 1f 42 bd 0a 87 8d 3c 5c 76 76 bd b9 25 6e 3d
       -0.047393113 0.017276306 -0.06017147 0.058141444
0002f0 79 19 14 3c d5 91 26 3c 4b 82 8b 3b 23 fd 70 3d
       0.009039276 0.010166605 0.0042574755 0.05883516
000300 ad 93 1d 3c 08 28 9a bd db 28 a3 bd 34 5e 96 bd
       0.009617728 -0.075271666 -0.07966777 -0.073421866
000310 1c 4a ad 3d 87 88 a2 3d 1c 6c b6 bc 76 ab 22 3d
       0.08461401 0.07936197 -0.022268347 0.0397143
000320 4c b8 41 bc 11 29 a6 3b 19 69 c3 bd 6c e5 f5 3c
       -0.011823725 0.0050708135 -0.0954153 0.030016623
000330 83 b9 a7 bd 30 0a dc 3c 24 4e ab 3d 14 3b 1c 3d
       -0.081896804 0.026860327 0.083645135 0.03814228
000340 37 f5 84 bd ea f0 ed bc 16 e1 60 bb 3c a5 85 3d
       -0.064920835 -0.02904554 -0.003431385 0.065256566
000350 46 af c8 3c eb d3 39 3c b0 94 57 bc f1 e7 72 bd
       0.02449764 0.011342029 -0.013158008 -0.059303228
000360 94 41 95 3d d0 ac 74 bd bb 84 66 bd 3e 36 4d bd
       0.07287899 -0.05973512 -0.056278925 -0.050100558
000370 35 d2 c2 bd 6a 5d ad 3d 91 6a ae bd f8 08 6c 3d
       -0.0951275 0.08465083 -0.0851642 0.05762574
000380 0a 10 a2 3b 6a a3 7d bd f4 8c 60 bd 5a 9d b8 bd
       0.0049457597 -0.061923422 -0.054821923 -0.090143874
000390 ea 80 f0 bc 25 c5 a3 3d 04 4b 0e bd 18 0b 62 bd
       -0.029358346 0.07996587 -0.03473951 -0.05518636
0003a0 2e a2 ee 3c e5 e0 17 bd 12 f8 a9 bd 83 95 0b bd
       0.029130068 -0.03707971 -0.08299269 -0.034078132
0003b0 da c8 a0 bd c1 f2 5f 3d ba 17 aa 3c 25 cc 31 3d
       -0.078508094 0.054674868 0.020763267 0.043407578
0003c0 72 84 d3 bc d6 f0 9c bd f4 38 1f b9 95 67 51 3d
       -0.02581999 -0.07663123 -0.00015184638 0.051124174
0003d0 50 ae 66 bd 94 4c 97 3c e0 42 0e be 95 b6 6c bd
       -0.05631858 0.018469132 -0.13892698 -0.05779131
0003e0 35 a3 ac bd 6e 66 a3 3d b1 be b3 3d 99 73 3d 3d
       -0.08429567 0.07978521 0.08776606 0.04625282
0003f0 82 b6 66 3d 25 50 73 3c 4e 29 f4 3d 6a 96 c6 3c
       0.056326397 0.014850651 0.11921941 0.024241645

fc2.bias f4 [84]
000000 86 df 41 3c bc f5 55 bd 58 4e aa 3d 2b 8a 0e 3d
       0.011833077 -0.052236304 0.08315724 0.034799736
000010 d7 8e 9a bc bd 41 e9 3d a0 a7 36 3d 78 76 da 3d
       -0.01886694 0.11389492 0.044593453 0.10667127
000020 68 91 c3 3c 4a 03 fd 3d b7 3b a9 bd d6 c6 9b bd
       0.023873046 0.12354143 -0.08263343 -0.07606284
000030 e0 b1 02 3c 22 fd 46 3d b7 80 68 bc 63 c5 a3 bc
       0.007976979 0.04858125 -0.014190844 -0.019991582
000040 02 56 2d bd dc bf 74 bd b0 7c 84 bc 56 53 13 3d
       -0.04231835 -0.059753284 -0.016172737 0.035968147
000050 06 5f a2 bd a5 76 94 3d b8 f4 b0 bd 09 cd 70 3d
       -0.079282805 0.07249192 -0.086404264 0.058789287
000060 86 08 7b 3d be 14 69 3b de 8b df 3d 26 a9 aa 3d
       0.061287425 0.0035565342 0.109153494 0.08333044
000070 a2 3e 42 bc 36 a8 06 3e 7e 92 a9 3d c9 00 dc 3d
       -0.011855753 0.13150105 0.08279894 0.10742337
000080 cf d4 a2 bd 5e 06 c2 3c a6 c8 b5 3c 8e 3b ad 3d
       -0.07950746 0.023684677 0.022190403 0.08458625
000090 e8 8b 0e 3d ba 4a e6 3b a4 51 9f bc f6 0e e0 3b
       0.034801394 0.007027951 -0.019448109 0.006837721
0000a0 14 95 9f 3d 01 e8 64 3d 08 fe b4 bd 44 2e 8c 3d
       0.07792106 0.05588532 -0.08837515 0.06844762
0000b0 32 63 78 bd 62 93 ba bd 8c af 19 bd ca 2d 9f 3d
       -0.060641475 -0.09110142 -0.03752093 0.077724054
0000c0 88 b9 48 bd 68 22 a3 3d 21 8a d6 3c c6 78 c7 3c
       -0.04900506 0.07965547 0.026188912 0.024349581
0000d0 de c2 0c 3d 52 6e b9 bc 7c d9 a5 3d 5c 32 9b 3c
       0.034365527 -0.022635613 0.080981225 0.018944912
0000e0 82 c0 38 bd 01 1c 17 3d 1e 0b 56 3d b6 59 bd 3d
       -0.045105465 0.03689194 0.052256696 0.09245627
0000f0 b2 6f a8 3d 4e 45 a5 bd a0 10 8b bd 31 2e ea bc
       0.08224429 -0.080698594 -0.0679028 -0.028586479
000100 d0 4a 30 3c af a1 78 3d 0b 0f 88 3d cf 3b 92 bd
       0.010760024 0.06070107 0.06643494 -0.07140314
000110 c2 79 b7 bd a2 30 71 bd 48 d7 a5 bd 1c aa 0f bd
       -0.0895877 -0.05888427 -0.08097702 -0.03507434
000120 e6 f3 92 bd d1 36 4d 3d 46 19 c8 bc 48 0c d4 3c
       -0.07175426 0.050101105 -0.024426114 0.025884762
000130 3b e6 6a 3d 3a f3 19 3d 4a 8d 85 3d a0 74 80 3d
       0.05734847 0.037585475 0.065210894 0.062722445
000140 32 e0 a4 bd fc e4 ba bd 16 6d e8 3c ec c2 8c bd
       -0.08050574 -0.091257066 0.028372329 -0.06873116

fc3.weight f4 [10, 84]
000000 db 06 45 3d 88 12 bd bc c6 2d 96 3e d4 82 23 be
       0.04810224 -0.023080125 0.29331797 -0.15967876
000010 2a 50 dd 3d 38 f6 36 bb 33 8d a0 bd 20 6e 86 be
       0.10806306 -0.0027917754 -0.078394316 -0.26255894
000020 6a a9 1a 3d af 7d 84 be ec 77 84 bd cd ca 80 bd
       0.037759222 -0.2587714 -0.06468186 -0.06288681
000030 df bc b9 3c 46 89 cf bd 6f b5 25 3c f1 ed 31 bd
       0.022673069 -0.10133605 0.010114058 -0.04343981
000040 3a 12 f8 bc f6 68 92 be 56 38 ac ba 82 80 46 3d
       -0.030282129 -0.28595704 -0.0013139348 0.0484624
000050 9c b8 12 bc 4a b7 f7 bd c0 93 2f 3d 8e 1e d5 bd
       -0.008955147 -0.120955065 0.042865515 -0.104062185
000060 74 38 74 bc 86 57 25 bd a8 22 39 be ef 51 dd 3e
       -0.014906038 -0.040366672 -0.18079627 0.43226573
000070 f2 a1 f3 bc 3c e9 5d be 8c 7a 3e 3e 2a 4b 49 be
       -0.029740307 -0.21671003 0.18601435 -0.19657579
000080 58 5b 81 b9 66 a9 12 bc 3e ab ca 3d 6a cb 36 be
       -0.00024672854 -0.008951521 0.09895943 -0.17851034
000090 e1 c0 b0 bd 83 cc c9 bd d0 5d 11 3d 05 82 d5 bd
       -0.08630539 -0.09853461 0.035489857 -0.1042519
0000a0 f3 1a 45 3e a7 d5 70 3d 12 76 86 bd ae d9 bc bd
       0.19248562 0.058797505 -0.06565489 -0.092212066
0000b0 b5 d2 2b bd 80 6d 94 3e 75 0a 83 be c8 fc 6e be
       -0.041948993 0.28989792 -0.25593916 -0.23338616
0000c0 c8 5b f4 3d 94 a3 d6 3d df ea 06 be e0 59 af 3c
       0.119315684 0.10480419 -0.13175534 0.02140516
0000d0 29 2e 2f be d0 f6 c7 3d a4 ba 02 3e 30 45 9d bd
       -0.17107452 0.097638726 0.1276651 -0.07679212
0000e0 6d c7 82 3e 9b cb 3f be f8 1b d8 3c 87 e5 a2 3c
       0.25542775 -0.18730013 0.026380524 0.019884838
0000f0 58 ea f8 3b b4 d9 2c bd 12 eb 61 3e 9c af 74 3d
       0.0075962953 -0.042199805 0.22062328 0.059737787
000100 fa 34 3b 3e 3c 61 85 bd c9 76 b7 3d 6e ed 20 3d
       0.18281928 -0.065126866 0.08958203 0.03928893
000110 7c 3f 73 3b ff 5b c7 bd 69 6a 26 3d 50 2d 83 bb
       0.0037116697 -0.09734344 0.040628824 -0.0040032044
000120 7a 34 95 bc f0 a5 b1 bc 34 12 6d 3d 13 2a 2c bd
       -0.0182135 -0.02168557 0.057878688 -0.042032313
000130 fc b6 64 bd 56 37 93 be 72 9e 78 3e c7 91 00 bd
       -0.05583857 -0.28753155 0.24279192 -0.031389024
000140 42 2f 8c 3e aa 99 43 3b 9d e1 e3 bd e2 f8 36 bd
       0.27379805 0.002984623 -0.11127017 -0.044670947
000150 d2 89 2e 3e 32 80 c2 bd 94 58 aa be 52 3e 12 be
       0.17044762 -0.094971076 -0.33270705 -0.14281586
000160 ae 98 e7 bd 00 23 e1 3d a9 a7 36 be df b9 59 3e
       -0.11308418 0.10993004 -0.17837395 0.2126231
000170 c6 af 2d bd 8e 07 6a bd 76 52 41 3d 0c 8b 9f bd
       -0.04240396 -0.05713611 0.04719778 -0.07790193
000180 1e 34 da 3b 64 e9 82 3c 33 45 60 bb ec 2b 93 3d
       0.006659045 0.01598043 -0.0034220933 0.07186112
000190 c3 cb c6 bd 63 fd 0c 3e a3 2b 66 3e 56 da 14 3e
       -0.09706833 0.13768534 0.22477584 0.14536414
0001a0 38 8f 5f 3d 84 a0 24 bd 65 7e 5c be 2c 2c a9 bd
       0.054579943 -0.040192142 -0.2153259 -0.08260378
0001b0 43 95 48 3d 65 a4 ef bd 32 09 05 be 78 67 8a 3d
       0.048970472 -0.11701278 -0.12991789 0.06758016
0001c0 a5 c8 ad bd 2a 98 3e be 23 97 88 3d 9e f8 e2 3c
       -0.084855355 -0.18612733 0.06669452 0.02770644
0001d0 fd 34 84 3e ce f4 bd bc 64 5d 8f be 85 a7 86 3c
       0.25821677 -0.023188021 -0.2800094 0.016437301
0001e0 30 aa 2c 3e 04 48 b6 3d e3 43 9c bd 1e e7 dd bd
       0.16861796 0.08900455 -0.07630136 -0.10835098
0001f0 b1 a9 c4 bb 95 f0 3a be a2 3a c6 bd e9 83 84 3d
       -0.006001674 -0.18255837 -0.09679152 0.06470472
000200 52 24 ed bd 86 f8 13 3e 34 30 aa 3e bf 47 84 be
       -0.11579193 0.14450273 0.332399 -0.25835988
000210 e8 ee c5 3d 58 f0 5c be 23 49 00 be f8 d4 dd bd
       0.096647084 -0.21576059 -0.125279 -0.10831636
000220 e4 87 54 bd 04 09 b7 3c 9a 46 09 be d5 16 fd 3c
       -0.051887408 0.022343166 -0.13405839 0.030894676
000230 0e bc bd bd 10 6d d7 3d e0 27 cb 3d 36 22 38 be
       -0.09264384 0.10518849 0.09919715 -0.179818
000240 40 92 e2 3c 3a fa 7d bc 27 75 09 3e 14 a3 cb 3d
       0.027657628 -0.015501553 0.13423596 0.09943214
000250 72 e8 11 3c 62 c4 13 bd cd d2 97 be 05 0a 8e 3d
       0.008905517 -0.036075957 -0.29653016 0.06935505
000260 a3 3c a3 3e 74 cb 55 3e 62 ed 1f bd cc 03 8f 3e
       0.318822 0.20878392 -0.039044745 0.27932584
000270 a8 3a b2 3d d2 d0 f1 3d fd 22 b3 3d dc 50 c5 bc
       0.08702594 0.118074074 0.08746908 -0.024086408
000280 f8 ab e8 bd 4e fa 17 3c 19 45 7e be b6 5f 5a 3e
       -0.113609254 0.009275986 -0.24831046 0.21325573
000290 fd 27 1f 3d 26 f9 77 bd 08 60 16 3e 51 fe 12 3e
       0.038856495 -0.06054034 0.1468507 0.14354827
0002a0 5c b8 73 3e 42 39 74 3d ed d6 ab bc 19 c5 84 bd
       0.23800796 0.059624918 -0.020976508 -0.06482906
0002b0 54 d0 8e 3e 52 ce 40 3e 88 12 be 3e 8c e8 20 be
       0.27893317 0.18828705 0.37123513 -0.1571371
0002c0 47 a1 19 be ec 64 9e ba 3c bf 9d bc 0a de 85 3d
       -0.15002929 -0.001208452 -0.019256227 0.06536491
0002d0 fe 67 3a 3e c3 89 7a 3d 44 77 64 3d 8e 17 c8 bd
       0.18203732 0.061166536 0.055777803 -0.09770118
0002e0 0a 06 f4 bc c3 c8 50 be e5 23 bd bd a4 e3 40 3e
       -0.029788036 -0.20389085 -0.09235362 0.18836838
0002f0 a1 85 1a bd 0a d5 63 be 03 06 a1 bd b1 8c 15 bc
       -0.037725095 -0.22249237 -0.07862475 -0.009127782
000300 d0 d5 e2 3d b8 62 13 3d 9b 31 bf bd 62 6a 90 3d
       0.11075938 0.035982817 -0.09335633 0.07051541
000310 95 0a ea bd d1 26 42 be 1a 64 10 be 84 2c 0c be
       -0.114277996 -0.1896012 -0.14100686 -0.13688856
000320 69 6e 9a bb f6 86 07 3e 06 8d 30 bd 26 6d 34 be
       -0.004712869 0.13235077 -0.04310324 -0.17619762
000330 bc fa 26 bd 02 ec 64 be 40 85 bf bd d3 f9 15 3e
       -0.040766463 -0.22355655 -0.09351587 0.14646082
000340 18 1e f4 3c e8 0a d5 3c e8 70 c7 3d 33 9d d1 3d
       0.029799506 0.026006177 0.09738332 0.102350615
000350 d0 17 eb 3d e4 27 ac bd 58 f2 42 3e 8c 23 9f 3e
       0.11479151 -0.08406046 0.1903776 0.31081808
000360 f7 18 d3 bd 3a 86 09 be b8 dd 80 3d e5 47 e5 bd
       -0.10307496 -0.1343011 0.062922895 -0.111953534
000370 82 06 70 3e 0d fd 49 3d 8a 57 d4 3d 00 a6 88 bd
       0.23439983 0.049313594 0.10368259 -0.06672287
000380 6b 9b 18 be d2 bd 96 be ad a9 3e bc e0 51 df bc
       -0.14903037 -0.29441696 -0.011637134 -0.02726072
000390 51 2f 1b be 54 2a 46 3d 59 3c f1 bd 24 97 55 3d
       -0.15154769 0.04838021 -0.117790885 0.052146092
0003a0 df 85 d6 bd 38 ad b7 3c 84 4f e3 3b be 42 8b bc
       -0.10474753 0.022421464 0.0069369692 -0.016999599
0003b0 49 f0 e3 bc de 8f a3 3e 7a b6 af 3d dc 05 43 3d
       -0.027824538 0.319457 0.085797265 0.04761301
0003c0 19 b3 07 3e 6c 02 b0 bc bd 3d 7e 3d cd 23 89 3c
       0.13251914 -0.02148553 0.062070597 0.016740704
0003d0 4c cd 44 3d 9a af a0 3d 46 77 e2 3d 0a 62 16 be
       0.04804735 0.07845993 0.11057906 -0.14685836
0003e0 f0 7c 13 3e ee 9a eb bd 64 27 50 be 08 15 30 bc
       0.14403129 -0.1150416 -0.20327526 -0.010747202
0003f0 25 61 a8 bd 44 a5 26 bc 9b b1 7a 3c 24 44 17 3e
       -0.08221654 -0.010171238 0.0153011335 0.14772087

fc3.bias f4 [10]
000000 02 43 fb bd b0 8d 82 bd 9a c2 00 bd dc 61 15 3c
       -0.1226864 -0.06374681 -0.031435587 0.00911757
000010 42 f7 28 be 00 df af bd 52 76 29 bd 10 fc 8c bd
       -0.16500571 -0.08587456 -0.041372605 -0.068840146
000020 1e 12 26 3e 20 82 84 bd
       0.16217849 -0.06470132
