src/global_mnist_cnn.pt (torch, 181781 bytes, 10 tensors)

conv1.weight f4 [6, 1, 5, 5]
000000 35 2e 8c be c9 45 88 be a0 fb 1e 3e 44 0c 55 3e
       -0.27379003 -0.26615742 0.15525675 0.2080546
000010 d6 d7 a3 3e 46 17 e2 be 77 97 0e 3e 0a 53 aa 3e
       0.32000607 -0.4415838 0.13924967 0.3326648
000020 b6 4b ef 3e 5f 98 80 be 9f 7b 03 be d0 d8 55 3e
       0.4673745 -0.2511625 -0.12840126 0.20883489
000030 b4 96 da 3e 12 29 42 3b 49 ce a8 be 17 65 64 bd
       0.42693102 0.002962653 -0.32969883 -0.05576047
000040 f9 41 ad 3d a9 e6 38 3d e3 cd c8 bd 8a 46 9a be
       0.08459849 0.04514185 -0.09804895 -0.30131942
000050 e8 51 03 bd 5a c2 f4 3c f0 ff a2 3d dd d4 02 be
       -0.032060534 0.02987783 0.079589725 -0.12776513
000060 27 06 4b bd 2f 13 f3 bd ac a5 21 3d a1 8a e6 3d
       -0.049566414 -0.11868893 0.039464638 0.1125691
000070 12 f8 81 3c 56 69 17 be 11 0c ac bd da ba 0d 3e
       0.01586536 -0.14786276 -0.08400739 0.1384081
000080 c0 5f c4 3e 25 6c 44 be b3 7d 3c be a3 e1 24 be
       0.383543 -0.19181879 -0.18407325 -0.16101699
000090 b8 14 ce 3e 3e 7a 27 3e 33 48 ec bd 11 50 e8 be
       0.40250182 0.16355225 -0.115372084 -0.45373586
0000a0 dc 5b 45 3e 91 d1 e3 3e b5 94 8d bc 7c 1a 1e be
       0.19273323 0.44495824 -0.017282823 -0.1543979
0000b0 5c b7 a4 be e3 5f e3 3d 75 73 71 3d 72 a4 05 3d
       -0.32171142 0.11102273 0.058948 0.03262753
0000c0 f9 44 8e bd 24 67 53 be 90 54 59 be 11 a2 a3 bd
       -0.06946749 -0.20644814 -0.21223664 -0.07989896
0000d0 c5 5f e7 3b 28 f5 94 3e fa f3 35 be 96 8d 64 bd
       0.007060977 0.2909329 -0.17768851 -0.05579909
0000e0 8b c6 2e be f1 d8 b2 3c 12 d8 81 3e ac 2a 95 bd
       -0.17067926 0.021831961 0.2536016 -0.0728353
0000f0 d7 37 38 bd d4 87 41 be a8 57 c7 bd 3c af 3c bc
       -0.044975128 -0.1889947 -0.09733516 -0.0115163885
000100 8e 81 40 3e f0 33 ab be f6 15 2f be bc e9 94 bd
       0.18799421 -0.33438063 -0.17098221 -0.07271144
000110 44 0e 0b 3e 36 5b a6 3e 7a 5e ca be 96 7c 1c 3e
       0.1357966 0.32491463 -0.39525205 0.15281901
000120 c8 bb 1b 3e 6d d0 a0 3e a6 2c 75 3e 52 6b 3d 3e
       0.15208352 0.31409016 0.23942813 0.1849797
000130 18 10 8c 3e f2 48 5d be c7 ec b1 be 3c be e6 be
       0.2735603 -0.21609858 -0.3475096 -0.45067012
000140 16 08 9d be 3d e9 9f 3d 69 77 31 be 9c 69 06 be
       -0.30670232 0.078081585 -0.17330708 -0.13126224
000150 ae 36 65 3e cd 1a 21 be 0b a8 ab 3d e2 4c fa 3e
       0.2238414 -0.1573288 0.08381661 0.48886782
000160 a2 a3 42 3f f8 0b f1 3e 60 4c f5 3c 46 6b a2 bb
       0.76030934 0.47079444 0.029943645 -0.0049566356
000170 c6 ed 4c 3e 3c ca 67 bd 7a 11 fd bc fd 48 8c bc
       0.20012578 -0.05658935 -0.030892123 -0.017124647
000180 1d ac 56 bd 3f ae 02 bf e6 35 e7 be 82 93 ad be
       -0.052410234 -0.5104713 -0.4515831 -0.33901602
000190 88 54 37 bb c4 34 65 be 22 66 a7 be fd c1 7b be
       -0.0027973969 -0.2238341 -0.3269511 -0.2458572
0001a0 9b 2b ae be 3a 8c e8 3d f0 27 52 be e8 b3 71 be
       -0.34017643 0.11354871 -0.20523047 -0.23603785
0001b0 29 d5 f8 be 02 e4 c7 be c2 f2 21 3e 78 d7 92 bd
       -0.48600128 -0.39041144 0.15815261 -0.07170004
0001c0 06 d4 5b be 53 45 f5 3c c9 d4 01 3e 9a 0f cc 3e
       -0.214676 0.029940283 0.12678827 0.39855653
0001d0 40 e7 fa 3e da bb a3 3e 97 cd 1d 3f f9 b0 9f 3e
       0.49004555 0.31979257 0.6164183 0.31189707
0001e0 b0 28 3f bd 10 a2 19 3e e4 29 61 3d 1f c4 c6 3d
       -0.046669662 0.15003228 0.05497159 0.09705376
0001f0 a3 5f 08 bd 04 7c ba 3d 64 0b 35 3e a8 57 7c 3e
       -0.03329433 0.09105685 0.17680126 0.24642813
000200 23 1f f5 3e 30 c8 31 be 84 1a 66 3e f4 66 7a bd
       0.47875318 -0.17361522 0.22471052 -0.06113334
000210 76 82 ae 3d 74 7a 18 3f 9c 90 e2 3e 9f 20 8a be
       0.08520977 0.5956185 0.44250953 -0.26978013
000220 08 c6 29 be e8 51 b9 bd 47 fa e0 bb f2 aa df 3e
       -0.16579449 -0.090488255 -0.006865773 0.43685108
000230 37 15 0f bd 48 b6 4c be 18 1b b7 be 14 5e ce bd
       -0.03493234 -0.1999141 -0.35762858 -0.10076538
000240 ff a7 30 3e 97 f9 9d be 38 ce 9c be 59 c8 8d be
       0.17251585 -0.30854484 -0.30626082 -0.27691916
000250 4c cd d5 be 00 2d 3f bd
       -0.41758192 -0.046673775

conv1.bias f4 [6]
000000 58 84 c0 be f2 cc 8c be 02 0e 15 be c3 c4 2e be
       -0.3760097 -0.2750011 -0.14556125 -0.17067246
000010 bf 66 91 bd ec 4d 0e bd
       -0.070996754 -0.03474228

conv2.weight f4 [16, 6, 5, 5]
000000 39 50 ab bd 87 f8 98 bd 84 82 e5 3d b4 a5 98 bc
       -0.08364911 -0.07469278 0.112065345 -0.0186337
000010 0c 63 e0 bc 87 73 a7 bd cb a8 61 bd 7f 6a 5e 3d
       -0.02739098 -0.08176332 -0.055092614 0.05430078
000020 23 39 dc 3d a2 8a 3b 3d b9 de 69 bd 5c 3c 3d 3d
       0.107530855 0.045786507 -0.05709717 0.04620014
000030 02 90 aa 3d fe 4b 31 bd 79 e5 d5 3c e7 84 61 bd
       0.083282486 -0.043285362 0.026110398 -0.055058386
000040 9f 38 44 3d 9a 19 38 bd e5 52 3c bd bc 0d d4 3d
       0.04790556 -0.04494629 -0.045977492 0.10354182
000050 ba f1 bd 3d 07 b1 fc 3c 7a 01 d4 bd d0 b6 d5 bd
       0.09274621 0.030846132 -0.10351844 -0.10435259
000060 64 ef 51 bd 57 62 9a 3d 52 37 b0 3c de e9 ae bd
       -0.05125369 0.07538288 0.021510754 -0.085407004
000070 d0 6f 05 3e 5d 06 67 3c 6a ce 3c bc d8 17 2c bd
       0.13030934 0.014100638 -0.011523822 -0.042014927
000080 b8 f2 41 3d f4 14 15 3e a4 1e 44 bd 0a 5b bd bd
       0.047350615 0.14558774 -0.047880784 -0.0924588
000090 02 7d b7 bd fe 60 74 3d 46 87 76 bc 31 a4 c4 bc
       -0.0895939 0.05966281 -0.0150469 -0.024004074
0000a0 e2 b9 96 bd 6d 05 3f 3d 7b da ff 3d 51 9f 50 bd
       -0.07359673 0.046636034 0.12492844 -0.050933186
0000b0 23 68 a7 bc fa b5 02 3c cc a5 9d 3d 7e a9 8b bd
       -0.020435398 0.007977957 0.07697639 -0.068194374
0000c0 88 28 21 bd a7 1d 13 3d cc 0d 50 bc 62 3d bf 3d
       -0.039345294 0.03591695 -0.012698602 0.0933788
0000d0 1a 4b da 3d cc ea 3e 3d 2c 9f 43 bc c4 87 f7 bd
       0.10658856 0.04661064 -0.011939805 -0.12086442
0000e0 8f 84 b5 3d be 25 d2 3c 14 05 2c 3d a0 4c 74 3d
       0.08863174 0.025652763 0.04199703 0.059643388
0000f0 de f7 8d 3d cc 93 dc 3d ac 98 a2 bd e7 2d cb bd
       0.069320425 0.107703775 -0.07939276 -0.099208646
000100 76 71 99 3d 46 16 8d bd 98 25 b1 ba ec bf 3b bd
       0.07492344 -0.06889014 -0.0013515232 -0.045837328
000110 ef 5f 03 3c d8 e0 a4 bd 73 e3 b5 3c 54 f3 c9 bd
       0.008018478 -0.08050698 0.022203183 -0.09860864
000120 ba cd d6 bd de ab c2 3a b1 9d c8 3d b7 fe a0 bc
       -0.10488458 0.0014852246 0.09795702 -0.019652708
000130 3d 10 ad bc d3 c0 c7 ba af 42 92 bc 88 54 fe bc
       -0.021125907 -0.0015239961 -0.017854063 -0.031046167
000140 3c a7 7b bb f2 74 50 bc b0 6f 4f bd 36 47 96 bd
       -0.003839924 -0.012723194 -0.050643623 -0.07337801
000150 9b c6 8e 3d 43 4f 0d bb f4 f4 80 bd 52 0d 24 3d
       0.06971475 -0.0021562136 -0.06296721 0.040051766
000160 d4 d9 97 bd 47 30 ea 3d 08 54 39 bd dc a9 ed bc
       -0.07414594 0.114349894 -0.045246154 -0.02901166
000170 2c 01 60 bd 5a 7a 3d bd d0 ac 43 bc bf ac a0 bc
       -0.054688618 -0.04625926 -0.011943057 -0.019613622
000180 82 ee ca 3d 49 a8 83 3d 6c d7 40 bd 03 8a 8a bd
       0.09908773 0.06428582 -0.047080442 -0.06764605
000190 ac d3 25 be 24 3d ff bc 30 80 3e bc 98 92 e1 3b
       -0.16194028 -0.031157084 -0.011627242 0.0068839304
0001a0 62 43 04 3d 58 b2 7c bd 53 d2 1b bd 44 23 d3 bd
       0.032290824 -0.06169352 -0.038042378 -0.10309461
0001b0 76 0d d5 bd 1c 44 b7 3d 22 2c 9c bd 83 55 59 3d
       -0.10402958 0.08948538 -0.07625605 0.053060066
0001c0 d6 0d fc bd 73 a6 8c bd ec f7 57 3d f4 bd 03 3e
       -0.123073265 -0.06867685 0.05272667 0.1286543
0001d0 b9 e0 8d 3c b6 31 8f bd 9c ab e9 bc 98 9a b4 bd
       0.01731907 -0.069919035 -0.028524213 -0.08818549
0001e0 69 fe 9a 3d 58 1f b8 3d a0 d1 82 3c 92 95 87 3d
       0.07568056 0.08990353 0.015969098 0.06620325
0001f0 06 d2 83 3d e2 1e 24 be 9e 01 16 bd e5 c1 d9 bd
       0.06436543 -0.16027406 -0.036622636 -0.106326856
000200 b4 50 54 bd 15 61 85 bd 8e 23 a5 bd 9c 7d aa bc
       -0.051834777 -0.065126576 -0.08063422 -0.020811848
000210 d0 18 75 bd 3f 5f d7 bd 5b 86 43 bd 82 73 ef bc
       -0.059838116 -0.105162136 -0.047735553 -0.029229883
000220 53 58 b6 bd 88 8c d4 bd 24 13 59 3d 4c e2 a6 3d
       -0.08903565 -0.10378367 0.05299677 0.081486315
000230 12 09 32 be d2 c3 ce bd 34 f4 d9 bc 76 a2 95 bc
       -0.17386273 -0.100959435 -0.026605703 -0.018265944
000240 5c ee 78 3a 8f 0f ac bd 6a aa bb bd 0c 6d dd bd
       0.00094959675 -0.08401405 -0.09163363 -0.10811815
000250 86 13 95 3c c9 6e 11 be 40 44 65 be ca 6b 81 3d
       0.018197786 -0.14202417 -0.22389317 0.06319387
000260 d0 03 92 3c 6b a3 da 3d 94 94 6e bd ee 72 2c be
       0.017824084 0.10675701 -0.058247164 -0.16840717
000270 ec 56 08 3e 7a 86 73 3e ee 04 56 3e c3 3b ba bd
       0.13314408 0.23781767 0.20900318 -0.0909343
000280 ba 7a 4e be a5 57 5b 3d fe fd 1f 3e a8 9f b2 3d
       -0.20164004 0.05355038 0.15624234 0.08721858
000290 0f 54 1a be 6b 86 8b bd 21 75 89 bd 72 88 92 3c
       -0.15071128 -0.068127476 -0.06711794 0.017887328
0002a0 b4 a6 28 be 28 c7 06 be 74 f2 85 bd 1e 32 ba bc
       -0.16469842 -0.1316191 -0.06540385 -0.022728976
0002b0 0f ba 54 3d fe e4 da bd cb 5f 1f be 7d 5f 1e be
       0.05193525 -0.10688208 -0.15563886 -0.15466113
0002c0 5e c4 3d be 0c e2 84 bb 26 89 50 3e 4e 80 f3 3d
       -0.1853194 -0.004055267 0.20364818 0.118897066
0002d0 4f ae 97 be bb 51 91 bd 26 4a b4 3d 98 b3 14 3e
       -0.29625174 -0.07095667 0.08803205 0.14521635
0002e0 a7 fe 65 bd 83 01 57 be a2 a2 85 bc 17 98 0b 3e
       -0.05615106 -0.2099667 -0.0163129 0.13632236
0002f0 be a1 b4 bc 62 05 e7 bd 61 ac fc bd de 01 22 3e
       -0.022049781 -0.112803236 -0.12337566 0.15821025
000300 16 05 ea 3d 34 ce 4a 3d 16 d4 cd bb 38 3b 64 bb
       0.11426751 0.049513057 -0.006281386 -0.0034825336
000310 ac f9 c3 3c 51 3f df 3d 1c 23 17 3d 7e c8 7d bb
       0.023922764 0.109007485 0.036898717 -0.003872424
000320 3e cf 62 3d ac a2 16 3e 5c e0 10 3e 68 5e 83 3d
       0.055373423 0.14710492 0.14148086 0.06414491
000330 9b 4d 7c be 0a ea e6 3d 43 fe 18 3e 28 d3 81 3d
       -0.24638979 0.11275108 0.14940743 0.06339103
000340 86 2b fb bd 82 9c b6 bc 18 c9 e5 3d 42 4d 2e 3e
       -0.12264161 -0.022291426 0.11219996 0.17021659
000350 6c a0 27 3e ea f6 1a be fa 0d d4 bc 7d e1 b9 3d
       0.1636979 -0.15133253 -0.02588557 0.090762116
000360 73 c5 b1 3d 5d 59 6c 3d 42 1c 32 be 5b da 44 be
       0.086802386 0.05770241 -0.17393592 -0.19223921
000370 16 53 f7 bc ad dc fc 3d 2d 28 b0 3d 16 74 46 bd
       -0.030190986 0.12346778 0.08601413 -0.048450552
000380 90 52 1a be f3 aa 81 bc 7b 1a 2b 3c d4 cd b8 bc
       -0.15070558 -0.015828585 0.010443325 -0.022559084
000390 fe ec a6 3d d0 6a f0 bc 47 cf 87 bc b3 4b 3c be
       0.081506714 -0.029347807 -0.01657833 -0.18388252
0003a0 e4 c6 04 be 30 09 80 3a 5b ed f7 bc 2f 1d 35 bd
       -0.12966496 0.0009768363 -0.030264547 -0.044217285
0003b0 35 31 38 be 12 59 11 be 6a 16 67 bd 32 78 de 3d
       -0.17987521 -0.14194134 -0.05641786 0.10862769
0003c0 7e f0 29 be ef 8e 45 be 7a 45 cd ba bc 18 8e 3d
       -0.16595647 -0.19292806 -0.0015660964 0.069383115
0003d0 f4 cc fa 3c 98 3f 41 be c2 c0 2b be 2b f8 cc 3c
       0.030615307 -0.18871915 -0.1677275 0.02502068
0003e0 9f f9 0f bd ab 31 22 bd f6 25 ed bd dc 08 f0 bd
       -0.035150167 -0.03959815 -0.11579506 -0.1172044
0003f0 a4 9d a7 3d fe ca 90 3d 37 24 41 bd 60 f4 8d bd
       0.081843644 0.07069968 -0.047153678 -0.069313765

conv2.bias f4 [16]
000000 4b 00 91 3d 2d 4e a5 bd 36 62 a6 bd 5c 6b 6e bd
       0.07080134 -0.080715515 -0.08124201 -0.058207855
000010 84 45 95 3c 55 80 18 bd e1 d6 76 bd 79 ef e1 bd
       0.018221624 -0.037231762 -0.06026352 -0.11032004
000020 c1 cc ea bd d4 46 d2 bc f9 9d f3 bd d5 16 7b bd
       -0.11464835 -0.02566854 -0.11895365 -0.06130107
000030 a5 03 1d 3d d5 b1 c5 bd 57 09 4e bd cd f2 87 3d
       0.038333554 -0.096530594 -0.050301876 0.066381074

fc1.weight f4 [120, 256]
000000 fd 97 c3 3c 3c 39 e9 bc ea 49 aa bc fe 9a 82 bd
       0.023876185 -0.028469674 -0.020787198 -0.06377219
000010 f0 92 49 3d 50 c4 58 bd 0f d8 63 bd 0a 73 65 bc
       0.049212396 -0.052921593 -0.05562597 -0.014004478
000020 80 ff 34 bd de 2d bc bc c2 ef 05 3d fe 0e 1d bd
       -0.044188976 -0.02297109 0.032699354 -0.038344376
000030 8f 4f ec bc cb d8 ae 3c 06 84 a4 bc 26 b5 29 bb
       -0.02884653 0.02134361 -0.020082485 -0.0025895326
000040 03 9f 10 be 52 e3 19 be 16 6e b3 bd 12 08 de bd
       -0.14123158 -0.15028122 -0.087612316 -0.10841383
000050 06 6e 10 be 50 07 44 3c af fb 9c bd 0e 42 a8 bd
       -0.1410447 0.011964634 -0.07665192 -0.08215724
000060 7e 50 2a bc b0 0d 3a 3c e2 f1 35 3c f4 b4 f8 3c
       -0.010395167 0.011355802 0.011105033 0.030359723
000070 89 10 45 bd fc a6 a5 3d 07 75 0c 3d ce 2b ab bc
       -0.048111472 0.0808849 0.034291293 -0.020894911
000080 c6 bd 82 bc 8b 5f 8e bd 28 98 eb bd c6 df 7e bd
       -0.015959632 -0.06951817 -0.11503631 -0.062225126
000090 e4 02 84 3c 49 bc 6b bd 7c ad b3 bc 79 8e a7 bd
       0.01611466 -0.05755261 -0.02193331 -0.081814714
0000a0 fb 23 94 3c 6f d3 37 3d 59 25 bd bc bd 5b 05 bd
       0.018083563 0.044879373 -0.023089098 -0.03255819
0000b0 57 78 aa bd b2 36 63 3c b1 8f 14 3e 2e 54 90 3c
       -0.08323734 0.013868021 0.14507939 0.017618265
0000c0 30 a5 a5 3d 1a 0b bd 3d dc 1e 2a 3d 35 ca eb 3d
       0.08088148 0.09230633 0.041533336 0.11513177
0000d0 65 bb 3d bc 4e 56 d0 bd 42 36 46 bc 58 cf 66 3d
       -0.011580323 -0.10172711 -0.012097897 0.056350082
0000e0 b0 8a ba bc 41 d4 78 bd 96 2a f3 bd 26 9b 34 bd
       -0.02277121 -0.060749296 -0.11873357 -0.044093274
0000f0 14 1d 36 be 87 2d c6 bd 30 a1 15 be 62 6d ac bd
       -0.1778453 -0.096766524 -0.1461227 -0.084193006
000100 63 f1 0a 3d a7 f9 07 bc 54 8f 12 bb 29 55 f5 bb
       0.03392161 -0.008299268 -0.0022363262 -0.0074869585
000110 ac 9c 2b 3d 32 61 18 3d 3f 64 94 3c f4 06 98 bc
       0.04189746 0.037202068 0.018114207 -0.018558003
000120 ea aa 56 3d 65 d7 21 3c 04 11 b5 3c 9f eb 86 3b
       0.05240909 0.009878014 0.02210284 0.0041174437
000130 c8 d7 f5 3d f9 db 2c bc 3a ec f9 3c 6d e4 88 3d
       0.12004048 -0.010550492 0.03050815 0.06684194
000140 b2 16 9f 3c 74 9f 17 3d c9 07 27 3d 04 d8 4f 3d
       0.019420002 0.0370173 0.04077891 0.050743118
000150 f6 7b 44 3c 7e a8 90 3c 83 ab fc 3c 21 c0 2c bc
       0.011992445 0.017658468 0.030843502 -0.010543854
000160 7a bb 02 bd 48 28 6f bb c5 9f a2 bd 4e 49 e6 39
       -0.031917073 -0.0036492515 -0.0794063 0.00043923635
000170 6d fa 8a bd a4 14 50 3c 1c 30 1c 3d 9a 0a 1a bc
       -0.06786046 0.012700234 0.03813182 -0.009401942
000180 14 ce df bc 94 20 d1 bc 4e 5c b3 bc 16 61 a7 bd
       -0.027319945 -0.02552823 -0.0218946 -0.081728145
000190 a1 cd c2 bc 9e 19 59 3d ab 14 cc 3d 28 75 38 3d
       -0.023779692 0.053002946 0.099648796 0.045033604
0001a0 ae 9f 9c bc e0 40 3c 3d 3c d9 58 bc 3e 79 86 3d
       -0.01911911 0.045960307 -0.013235386 0.06566094
0001b0 63 e4 ad 3d b8 d3 15 3e ec 0d 5b bc 7c 30 6e bc
       0.08490827 0.14631546 -0.013370018 -0.014537927
0001c0 d8 b0 a3 bc ee 9b 04 bc f8 d8 98 3c 48 da bc bd
       -0.019981787 -0.008093817 0.018658146 -0.09221321
0001d0 10 5d 7f bd 4b 5e b0 bc 1c c6 6b 3c fc a0 29 bc
       -0.06234461 -0.021529337 0.014390495 -0.010353323
0001e0 0a 95 81 3d f4 44 7d bd 34 0c be 3c 34 d9 5d bd
       0.06327255 -0.061833337 0.023199178 -0.05416222
0001f0 dc 97 53 bd 39 d9 00 bd 8d db 8a 3d c2 cd 6f 3c
       -0.051658496 -0.03145716 0.06780157 0.014636459
000200 09 6a 97 ba f0 71 8b bd 14 3e 2d 3d 11 a5 9d 3d
       -0.0011551987 -0.06808841 0.04229553 0.076974995
000210 94 4a 0d 3b 9f f0 11 bd bd 12 15 bd 2b 2f 6b 3c
       0.0021559345 -0.035629865 -0.036394823 0.014354507
000220 df db 81 3d 8f 5d ba bd ac 1e e2 bd f6 65 01 3d
       0.06340765 -0.09099876 -0.110410064 0.03159138
000230 52 5a ee bd d0 e0 f8 b9 ab 21 87 bc 14 b2 0a 3d
       -0.11638321 -0.00047469744 -0.016495546 0.033861235
000240 25 1c c3 3b 20 fb 9c 3d 78 3b 12 bc 7d 13 43 3d
       0.005954283 0.07665086 -0.008925311 0.047626007
000250 88 6f 50 bd 41 00 1d 3d a2 6f 00 3d 34 63 8a 3c
       -0.050887614 0.03833032 0.03135646 0.016893007
000260 31 19 45 bd 8c 64 b0 bd da 67 91 3d 9c bd 5f 3d
       -0.048119728 -0.08612928 0.07099886 0.054624185
000270 db cd aa bd ba eb ba bd f0 80 f3 3b d9 17 15 3d
       -0.08340045 -0.091269925 0.007431142 0.036399696
000280 30 24 41 3d b0 4d d5 3c e6 a3 1b bd 25 71 10 bb
       0.04715365 0.02603802 -0.037998103 -0.0022040096
000290 d8 c1 50 bd 64 79 8b bd cc 98 be bc f0 66 c7 3c
       -0.050966114 -0.06810263 -0.023266219 0.024341077
0002a0 c1 12 5c bc 68 47 0d bc 9c 22 66 bc d1 93 55 3d
       -0.013432206 -0.008622982 -0.014046337 0.05214292
0002b0 c6 70 66 bd 6c 32 58 bd 12 16 15 be f0 c1 02 be
       -0.056259893 -0.05278246 -0.145592 -0.12769294
0002c0 78 f7 fe 3c 62 5e 48 bd b2 d2 e9 3b b5 d3 7c 3d
       0.031123862 -0.048918135 0.0071357125 0.061725337
0002d0 be 73 a7 3d dc 27 b4 b9 e0 35 11 3d 20 90 47 bc
       0.08176373 -0.00034361973 0.03545177 -0.012180358
0002e0 20 b1 73 3d a5 3b eb bc a2 aa a7 bd ec 8d 91 3d
       0.05949509 -0.028714964 -0.081868425 0.071071476
0002f0 89 0d a4 bd e7 21 49 bd cc bf ce 3c c8 d7 f1 3c
       -0.08010394 -0.049104597 0.02523794 0.029521838
000300 99 5f d0 3d 02 bb f1 3d a5 96 c1 3c 88 b7 39 3d
       0.10174484 0.11803247 0.023631403 0.045341045
000310 12 a4 20 bd 2c 89 9b 3d c1 75 b4 3d 78 0a d3 bc
       -0.03921897 0.07594523 0.08811522 -0.025761828
000320 be 97 38 bc 79 5f 0f bd 5d ec 33 bd ea 7d 81 3d
       -0.011266647 -0.03500316 -0.043926585 0.06322844
000330 94 bb 38 3d 26 e1 0f 3d 98 40 29 bd 0a 67 82 bd
       0.045100763 0.035126828 -0.041321367 -0.063673094
000340 ae 4e 18 bc 4e cb c7 bc cc cb 13 bc 74 36 89 3d
       -0.009296102 -0.024388935 -0.009020757 0.06699839
000350 20 01 64 3d 6c 19 b0 3c b6 25 30 3c 4b 7e de bd
       0.055665135 0.021496497 0.0107511785 -0.10863932
000360 7f 03 65 bc fb e5 b5 3c 25 61 bd 3c 5e 7f 0c bd
       -0.013977884 0.02220439 0.023117611 -0.034301154
000370 ee c4 c1 3c 62 e7 97 3d b1 f4 e7 3b d8 ec 0f be
       0.023653474 0.0741718 0.00707873 -0.14055192
000380 c3 d4 4d bc 04 2d 02 bc 42 6c d7 3d d0 fa 0e bd
       -0.012562933 -0.007945303 0.105186954 -0.034907162
000390 73 3a 9b bc d3 7e 85 3d 9f ef c2 3b d1 3e 42 3d
       -0.01894877 0.065183304 0.005948975 0.047423188
0003a0 29 21 1b 3d 97 30 9f bc 67 e6 28 3d 30 9f 90 3c
       0.03787342 -0.01943235 0.041235354 0.017654032
0003b0 22 f0 cf 3d 0e 74 1a 3c 07 89 ec 3c 92 92 9c 3c
       0.101532236 0.009427084 0.028873933 0.019112859
0003c0 db 05 3f 3d ea 72 86 3d d8 55 0c 3d 78 b9 0b 3c
       0.046636444 0.06564887 0.034261554 0.008528106
0003d0 b8 d1 cf bc 45 c2 02 bd ec f3 67 bd 1f b5 12 3d
       -0.025368556 -0.03192355 -0.056629106 0.03581726
0003e0 57 c8 24 bd f4 5d 9a bc 44 28 be 3d 74 b3 88 bd
       -0.04023012 -0.018843628 0.09285024 -0.06674853
0003f0 2e ce 4c bd aa 10 15 bd 93 75 ab bb 6e 44 be 3d
       -0.050001316 -0.036392845 -0.005232522 0.09290396

fc1.bias f4 [120]
000000 42 d9 08 bd 7e 1a 30 bd 7d a4 e6 3c 25 45 80 3d
       -0.03341032 -0.042994015 0.028154606 0.06263188
000010 96 a2 bf ba 0e 9e 15 bd ac ef 10 bd ab 9d 10 3d
       -0.0014620598 -0.036527686 -0.03538482 0.035306614
000020 6d 7c 20 3d 20 d5 12 bd be 6f 85 bc a0 86 1c 3b
       0.03918116 -0.035847783 -0.016288634 0.0023883954
000030 d3 d5 85 3d 6e 50 80 bd 60 4e ad bc 9e 0e 3b 3d
       0.06534924 -0.06265341 -0.021155536 0.045668237
000040 01 08 14 bd b5 f6 4a 3d 0f 77 4b bd d8 78 d4 bc
       -0.036140446 0.049551684 -0.04967409 -0.025936529
000050 2a ba a9 bc 65 98 b3 bc 54 81 46 3d 3b 92 55 3d
       -0.020718653 -0.021923253 0.04846318 0.05214141
000060 7c 59 20 3d 2f 7f e7 bc c6 d3 71 3c 8a 60 04 bc
       0.03914784 -0.028258888 0.014759963 -0.008079657
000070 5d 59 ca bc ac c6 91 bb 13 27 37 bd fc f9 86 bd
       -0.024700815 -0.0044487324 -0.044715 -0.065906495
000080 ea 6e bd 3c 76 74 36 3d 4d 20 07 3a 9e f9 df bc
       0.023124177 0.04454466 0.00051546545 -0.027340706
000090 fc 43 21 3c bf 72 08 bd b0 8e 7b 3d 46 15 c1 bc
       0.009842869 -0.033312555 0.061415374 -0.023569714
0000a0 c6 e1 ed 3c 3b 13 1a 3d 49 e8 09 ba fe cf 04 3b
       0.029038321 0.037615996 -0.00052607484 0.0020265575
0000b0 f4 eb 98 bc 66 71 8d 3c 7a 7b 38 3d b1 42 ed bc
       -0.018667199 0.017265987 0.04503963 -0.028962465
0000c0 4e a6 92 bd 6c 64 c8 bc cc 79 cc bb c8 85 a9 bb
       -0.07160626 -0.024461947 -0.0062401053 -0.0051734187
0000d0 6a 41 a6 3c 1d 51 0e 3c b8 59 44 bc 86 47 43 3d
       0.020294864 0.008686331 -0.011984281 0.047675632
0000e0 94 13 87 bd ad 49 80 3d 85 49 fc b9 18 13 a1 3d
       -0.06595531 0.062640525 -0.00048119962 0.0786497
0000f0 6c 8a 30 bd d7 b5 a8 3c b7 1d 31 bd 2e 6b 2b bd
       -0.04310076 0.02059452 -0.04324123 -0.04185026
000100 ca 43 8f 3d 75 7d 3d bc 8a b0 90 bd 4b 94 2b 3c
       0.069953516 -0.011565556 -0.07064922 0.0104723675
000110 a2 bb 2f 3d b8 3f c4 3a 32 61 c4 3c 1f 1f 12 3d
       0.04290355 0.0014972603 0.023972128 0.03567421
000120 8f 3a 24 bc ea 83 09 bd 54 24 08 3c 6d c7 a4 bb
       -0.010023727 -0.03357307 0.008309443 -0.005028656
000130 a8 4d 0c bd 5e 22 db bc 5d 31 e5 bc 7e 02 0f 3d
       -0.034253746 -0.026749786 -0.02797764 0.034914486
000140 50 74 0a 3d 0e 6b ad bc 2c a0 65 bd fc 70 3f bc
       0.03380233 -0.021169212 -0.056060955 -0.011684652
000150 72 6e a6 3b df d4 eb bb e8 bb 52 3d 31 48 a8 bb
       0.005079084 -0.007197007 0.051448733 -0.005135559
000160 2d 7c 73 3d 8e fa f1 bc 30 b2 09 bd de d6 72 3d
       0.059444595 -0.02953842 -0.0336172 0.059286945
000170 69 bd 3f bc 73 63 ec 3c c1 cc 9a 3d 28 0e 4d bc
       -0.011702874 0.028856015 0.07558585 -0.012515582
000180 6e 73 79 3d 8a 44 c6 bc ac 8b a1 3c 3a 76 ae bb
       0.060901098 -0.024202604 0.019719921 -0.0053241523
000190 a9 4b a1 3c ec cf 45 3d 18 84 19 bd 3c c7 7a 3d
       0.019689398 0.048293993 -0.03747949 0.06122516
0001a0 f2 7d 1c bd 40 b1 d7 3a c2 25 a1 bc 94 bb a9 bc
       -0.03820605 0.0016456023 -0.019671325 -0.020719327
0001b0 8c 08 c1 ba bc 78 87 bc 03 3c b2 3c b0 a0 5f 3b
       -0.0014727279 -0.016537063 0.021757131 0.0034122877
0001c0 32 71 15 3d b3 62 ae bb dc f2 6a 3d c5 0c 55 3d
       0.036484905 -0.0053218245 0.057360515 0.05201413
0001d0 c0 fb 85 bc 67 75 33 bd 07 13 65 3d 12 ce 96 3c
       -0.016355395 -0.043813135 0.05592635 0.018408809

fc2.weight f4 [84, 120]
000000 35 99 9d bd 89 8e e3 bc 41 cd 36 3e a8 44 16 3e
       -0.076952375 -0.027777927 0.17851736 0.14674628
000010 c5 2d 00 be 6d a3 e9 bc 5b d8 74 3c f0 7b 0f be
       -0.1251746 -0.02852031 0.014944161 -0.14012122
000020 51 3e 7e 3c 09 cb f2 3d 02 89 2d be 55 da 64 bc
       0.015517787 0.11855132 -0.16946796 -0.01396807
000030 4c f5 a9 3c 12 d7 e7 39 0a e9 fb bc c1 2e 8b 3d
       0.02074685 0.00044219993 -0.03075077 0.06796027
000040 51 dc 9a bd b2 f4 0e be eb 7e ab 3d ef cb 16 3d
       -0.07561553 -0.13960531 0.08373817 0.03681558
000050 09 1a cf bc 46 ce bc bd f4 24 bb 3d f0 7a e4 3c
       -0.02528097 -0.09219031 0.091379076 0.027890652
000060 ca b4 14 bd a6 64 18 be 5d fc 86 bd 37 4d e1 bd
       -0.036305226 -0.14882144 -0.06591103 -0.11001056
000070 df 0a dc bd ee c6 4c 3d 2e 58 c6 bd ef 88 9c 3d
       -0.10744261 0.0499944 -0.09684788 0.076433055
000080 ce 50 3c bd 8e e6 b7 37 c2 e5 6c 3d 53 59 a0 bd
       -0.0459755 2.192266e-05 0.0578363 -0.07829537
000090 81 b9 c2 bd 38 43 b3 bd d3 1b 26 bd 29 2a b2 bd
       -0.09508038 -0.08753055 -0.04055388 -0.08699448
0000a0 b6 b4 c7 3d da d8 d6 bd 79 5a 79 bd e5 e6 1b bc
       0.09751265 -0.1049058 -0.060877297 -0.009515499
0000b0 34 f0 23 be 96 51 1c 3e 16 f4 df 3c 86 3e 31 3e
       -0.16009599 0.15265498 0.027338069 0.17309007
0000c0 72 73 f3 3d 7a 0c 59 bd dc 35 d8 3c 0f 7b 27 be
       0.11887254 -0.052990414 0.02639287 -0.16355537
0000d0 10 d1 bd bd b6 e3 81 3d 32 0b aa bc bb 31 0e 3d
       -0.09268391 0.063422605 -0.020757291 0.034715395
0000e0 d6 b4 6b 3d dd d6 f0 3c 90 d1 0a 3a f1 d6 c3 3d
       0.057545505 0.02939933 0.00052955095 0.09562481
0000f0 42 c4 96 3d 14 5a 23 3d 66 c2 bf 3d b1 82 2b bd
       0.07361652 0.039880827 0.093632504 -0.041872684
000100 9b 06 0e bc 70 47 2d 3e 01 8e 0a be 5e bd c6 3d
       -0.008668567 0.16921782 -0.13530733 0.09704088
000110 e0 84 d6 bc 19 a4 35 3d 0e 26 1c bc b2 72 d3 bc
       -0.026186407 0.04434595 -0.009530557 -0.025811527
000120 13 b3 a2 bd 7c 3f 99 3d 45 e5 bc bc 82 b2 55 3b
       -0.07944312 0.07482812 -0.023058543 0.003260762
000130 46 48 7d 3d d0 c8 14 be 87 81 13 bd 2a 9e ed 3c
       0.061836503 -0.14529729 -0.0360122 0.029006083
000140 1b 2f 91 3c 7e f7 6a bd 48 b3 21 3b 39 60 67 3d
       0.017722657 -0.057364933 0.002467351 0.05648825
000150 42 13 a4 bb c4 ab 85 3d c8 f0 0b 3c 1c 3a 4b 3d
       -0.0050071785 0.06526902 0.008541293 0.049615964
000160 39 76 7e bc a3 6a 94 3c bc 32 09 be 91 32 ff 3d
       -0.015531116 0.018117255 -0.1339826 0.12460817
000170 da e8 02 3d f2 cf 61 3d e4 7e 09 3e 9d 0f d5 bc
       0.031960346 0.055129953 0.13427311 -0.026008422
000180 c6 c3 cb bb 4f 9d bf bd b5 64 e7 bd 9a 32 c9 3d
       -0.0062184064 -0.09356176 -0.11298505 0.098241046
000190 f4 14 6b bd aa fe f3 bc f2 59 cb 3b 06 ce c0 bd
       -0.05739303 -0.02978452 0.0062057907 -0.09414296
0001a0 8a 20 e8 3b 5a 47 ae 3d 0e b5 f4 3c ee f5 ad 3d
       0.007083957 0.08509703 0.02987149 0.08494173
0001b0 b1 5d 25 bd 6c b9 3f 3d 3d 7c fd 3c 9e 4a 80 bb
       -0.040372554 0.04680769 0.03094303 -0.003915145
0001c0 4d ba ff bd 6b 11 31 3c 53 3d 9f 3d 9f b5 3d 3d
       -0.12486706 0.010807375 0.077753685 0.046315785
0001d0 34 73 4f 3d 83 a4 0f 3d 41 84 8a 3d 6a bc 8c bd
       0.050646976 0.035069 0.06763507 -0.06871875
0001e0 b2 2c 86 3c f7 dd ab bd 5c 15 98 3d c2 c4 95 3d
       0.016378734 -0.08391946 0.07425949 0.07312919
0001f0 ff 47 c7 bd af e2 43 3d 73 cb 46 3d 5e 2d 07 3d
       -0.09730529 0.047823604 0.048533868 0.03300225
000200 30 f8 a1 bd 93 dc 8d 3d bf ae b7 bc 9f 9f d6 bc
       -0.07908666 0.06926837 -0.022422193 -0.02619916
000210 e3 b9 ea bd bc f7 87 bd ff 7e 9e bd e9 f3 33 bd
       -0.11461236 -0.066390485 -0.07739066 -0.043933783
000220 f2 7b b1 bd e9 c3 9f bd fe bb a0 ba 2b 68 a3 bc
       -0.08666219 -0.07801039 -0.0012263057 -0.019947132
000230 34 84 88 3d 50 0f af 3d f9 db e7 bd f3 b0 65 3d
       0.06665841 0.085478425 -0.11321253 0.056076955
000240 a0 59 68 bd 7f 10 ad bb 4b 28 a2 bc 30 1f 86 bd
       -0.056726098 -0.0052815075 -0.019794604 -0.06548917
000250 d9 ef ba bd 83 ca 15 bc a4 d3 40 bd 63 8b 18 3c
       -0.091277786 -0.009142521 -0.047076836 0.009310576
000260 1d 2e 91 3d 1e 41 92 bd 86 76 3d bd 0a 30 7c bd
       0.070888735 -0.07141326 -0.04625561 -0.06156925
000270 3c 48 89 3d 5a f7 41 3d 9e d4 0f bd 47 89 29 bd
       0.06703231 0.047355033 -0.035114877 -0.041390684
000280 38 a3 99 3d 20 20 f5 bc a2 6e b1 bd f5 f6 64 bb
       0.07501835 -0.029922545 -0.0866368 -0.0034937237
000290 b6 e8 d7 3a bf fd 47 3d d6 9a c9 bd ec da ce 3c
       0.0016472552 0.048825976 -0.09843986 0.025250874
0002a0 25 ce c8 3a 1b ca f1 bc 50 3a 02 be 00 9c 23 bd
       0.0015320225 -0.029515317 -0.12717557 -0.039943695
0002b0 f9 10 eb 3d bd 1d 4e 3c 78 68 05 3d 87 6a bb 3d
       0.11477847 0.012580332 0.032570332 0.09151178
0002c0 d8 13 2d bd c2 59 8b bd 7e ef b7 bc 69 c0 9a bd
       -0.042255253 -0.06804229 -0.022453066 -0.075562306
0002d0 48 49 84 bd 89 08 bd bb 22 f2 e3 3d b5 97 a0 3d
       -0.0645929 -0.0057688397 0.111301675 0.07841436
0002e0 74 a8 bc 3d b0 52 5a 3c a8 08 fe bd 81 ba a7 bd
       0.092118174 0.013325378 -0.12403995 -0.0818987
0002f0 79 e9 a7 bc ce 19 4a bd 75 40 5e bc e7 be a6 bd
       -0.02049707 -0.049341016 -0.013565172 -0.081418805
000300 86 6a 87 3d d6 ad 2c 3e ef f0 e6 3d 3c 2f d3 3c
       0.066121146 0.16863188 0.11276423 0.025779359
000310 f3 d9 30 bd 19 8e b6 bd c6 17 33 bd 47 4a 47 bd
       -0.043176603 -0.08913822 -0.043723844 -0.04865482
000320 24 3f 88 3d a5 eb b1 bd 32 a7 9a bd f0 d7 f0 3d
       0.06652668 -0.08687524 -0.07551421 0.11759937
000330 a4 bf 05 3d 5c 5b 4c 3d da 5e 8d bd 89 49 14 3e
       0.032653466 0.049891815 -0.06902857 0.14481176
000340 c9 37 d9 3d 3c ab 16 bd c0 10 4a 3d 30 34 45 3d
       0.10606343 -0.036784396 0.04933238 0.048145473
000350 08 0f 19 bd 52 a8 98 3c 14 87 75 3c 08 53 54 3b
       -0.03736785 0.018634949 0.014985818 0.0032398123
000360 8d 03 61 bd f6 10 96 3d 85 a0 15 3c d6 7b c3 3d
       -0.054935027 0.07327454 0.009132509 0.09545104
000370 be d7 38 3d ec 93 c7 3c 08 ab 8c bc 21 3c 93 bd
       0.045127623 0.024362527 -0.017171398 -0.07189203
000380 75 1f c5 3c a6 7c 9d 3d ec 5a 51 bd 58 1f ca bc
       0.024062851 0.076897904 -0.0511121 -0.024673149
000390 8e 86 37 3d e8 a1 dd bc d6 34 dc bc f0 d4 29 3d
       0.044806056 -0.027054742 -0.026880663 0.04146284
0003a0 be 9c a7 3c c4 2c b6 3d d2 fa 0c 3c 87 24 a7 bd
       0.020460483 0.08895257 0.008604722 -0.08161264
0003b0 6c fd 02 bd d3 8f 8f 3d 7d e0 d9 3d 83 d0 a2 bd
       -0.031979963 0.07009854 0.10638521 -0.07949927
0003c0 3a a9 8f bc 9a 20 a0 3d 0d 68 13 be e6 f6 04 3b
       -0.017536748 0.07818718 -0.14395161 0.0020288764
0003d0 a1 7c c4 3c 76 fe be 3c e3 4b 8d bd 98 9f 3b 3d
       0.023985209 0.023314696 -0.0689924 0.045806497
0003e0 0c a6 c6 bd 7a 3c b1 3d ab fb 20 3c 0f 5a 0c 3e
       -0.0969964 0.08654113 0.009825627 0.1370623
0003f0 48 6d 4e bd e1 ce 21 bd 84 7e 6b bd c6 44 6b 3d
       -0.050397187 -0.039503936 -0.0574937 0.057438634

fc2.bias f4 [84]
000000 cf 68 78 3d a4 a7 d2 3c 7a e4 ac 3b cc ca ae bd
       0.06064683 0.025714703 0.00527626 -0.08534774
000010 18 de a9 3c 64 18 69 3d da 60 92 bd 64 3c dc 3d
       0.020735785 0.056908026 -0.07147379 0.10753706
000020 d1 a2 81 bd 54 a9 2a bd 62 33 4e bd d2 b5 ee bb
       -0.06329883 -0.04166539 -0.05034197 -0.0072848583
000030 08 a8 60 bc 62 8b 6b 3d e0 62 1d bd 64 72 f3 3c
       -0.013711937 0.057505973 -0.038424373 0.029717632
000040 83 ab 8a bc b0 59 89 3b 97 bc 96 3d f1 ee 0e bc
       -0.016927486 0.0041916 0.073601894 -0.00872396
000050 6c bc 1b bd c0 bf 09 bd 82 cf 89 3d 2e ea 19 bd
       -0.03802149 -0.033630133 0.06729032 -0.037576847
000060 28 96 66 bd 60 6c 98 bd 3a 43 96 bd ad ce 9e 3d
       -0.056295544 -0.07442546 -0.07337041 0.07754264
000070 f0 ce eb 3c 4e 5b aa bd ba a9 e7 bc 06 9f 8f bd
       0.028785199 -0.08318196 -0.028279174 -0.07012753
000080 1d 3e a0 bd 74 c5 bd bd f2 18 56 bb 22 8a 30 bd
       -0.07824347 -0.09266177 -0.0032668677 -0.043100484
000090 ed 12 2c bd a6 65 ba bb b0 c6 8d bd 48 68 99 bd
       -0.042010237 -0.005688387 -0.06922662 -0.07490593
0000a0 51 5e f9 3c e3 2e 82 bd 26 53 8a 3d 20 5e 39 bd
       0.030440481 -0.06356599 0.067541406 -0.04525578
0000b0 8a a0 1a 3d e6 7e 69 bd 67 a0 5f 3d 9a 29 78 3d
       0.03775076 -0.057005785 0.05459633 0.06058655
0000c0 a8 0b 90 3d 48 80 76 bd e8 33 a0 3d 04 2a 10 bd
       0.07033473 -0.060180932 0.078224 -0.03519632
0000d0 7f 47 9c bc 92 da c0 3d a9 89 60 3d ee 72 86 3d
       -0.01907706 0.09416689 0.054818783 0.0656489
0000e0 06 d7 a4 bd 52 e5 5b bc 93 a9 a2 bd 89 8f cc 3d
       -0.08048825 -0.013421373 -0.079425 0.09988315
0000f0 7b c9 0d bc e6 54 ee bc 7d e4 6e 3d 44 05 84 bd
       -0.008653994 -0.029093217 0.058323372 -0.06446317
000100 96 c6 92 bd 5c 26 fc 3d a8 49 45 3d d8 41 98 3d
       -0.071667835 0.12312004 0.048165947 0.07434434
000110 33 e4 d8 3c ea 67 11 3d de f0 58 bd b6 a4 3a 3c
       0.026476001 0.03549949 -0.052964084 0.011391809
000120 10 79 38 bd 78 d8 91 bc 14 30 5f 3d d3 0d f2 3b
       -0.04503733 -0.017803416 0.05448921 0.007386902
000130 35 d6 02 bc fa 7e 82 bc 9e 05 04 3e e8 27 b2 3d
       -0.007985641 -0.015929688 0.12892768 0.08699018
000140 bd ee 9d bd 7f a8 48 3d 03 18 82 3d ce 6b 34 bd
       -0.07711551 0.048988815 0.06352236 -0.044048123

fc3.weight f4 [10, 84]
000000 27 05 a5 3e ee 24 56 3e c5 ab fe 3d 4c 2f 47 bd
       0.32230493 0.20912525 0.12435106 -0.04862909
000010 90 ae 28 3d 56 7f de bc 97 98 5d 3d 82 b2 a8 bd
       0.0411821 -0.027160328 0.0541006 -0.08237173
000020 f6 0b d8 bd 35 fb a3 3d 5a 98 b2 bd 04 cb 82 bc
       -0.10549156 0.08006898 -0.08720465 -0.015965946
000030 ac 24 29 be d4 74 c0 bc 0a db 2e bd 74 22 0f 3c
       -0.16517895 -0.023493208 -0.04268936 0.008736242
000040 94 99 d9 bd 26 87 3f bd 62 3d 1b be 5d 35 2b bd
       -0.10624996 -0.046759747 -0.15160134 -0.041798938
000050 1e 02 3c 3d 44 18 4a be 7d 72 b2 3d f1 a5 31 be
       0.045900457 -0.19735819 0.08713243 -0.17348458
000060 7a a4 37 3d 44 d5 c2 bc 58 28 1b bc d9 b4 75 be
       0.04483459 -0.023783334 -0.009470068 -0.23994769
000070 32 a3 60 3c c6 aa 08 3d 4e 04 1b be 6c 14 f2 bd
       0.013710784 0.033365987 -0.15138361 -0.118203014
000080 59 ca 1b 3e 9f f9 bd 3d e5 d5 f6 bd d3 b9 75 bd
       0.15213908 0.09276127 -0.12052516 -0.05999167
000090 68 bc b9 3d 0e cd d7 3d 83 1d 9a bd 32 4e 10 be
       0.09069139 0.10537158 -0.0752516 -0.14092329
0000a0 c5 3a 08 be a6 d9 ab 3d ed 1c f0 3c 95 69 77 bc
       -0.13303669 0.083911225 0.029310668 -0.015100856
0000b0 79 d8 6d be 55 3b 90 3c 1b 07 89 bd ae 10 7a 3d
       -0.23227109 0.017606417 -0.066908084 0.061051063
0000c0 9c 34 82 bd 41 5e ce bc 46 b4 e0 3d 15 e9 21 be
       -0.06357691 -0.025191428 0.109718844 -0.1581157
0000d0 c2 ea 01 be 8e 06 96 3e 68 7f 15 3e 82 c5 53 bc
       -0.12687209 0.29301876 0.14599383 -0.0129255075
0000e0 6c 89 90 3e 98 10 b4 3c d8 48 83 be 5d c4 21 3e
       0.28229845 0.021980569 -0.25641513 0.15797563
0000f0 66 ec 36 3c 3c a1 d1 bd ca f4 a0 be 43 d2 87 3c
       0.01116476 -0.10235831 -0.3143676 0.016579753
000100 0b b2 b1 bc 59 e4 2b be 84 22 87 bd d0 a2 f2 bd
       -0.021691343 -0.16786326 -0.0659838 -0.1184746
000110 10 19 13 be 78 97 f2 bb 73 51 9d bd a7 60 54 3c
       -0.1436503 -0.0074033104 -0.07681551 0.012962497
000120 4c ef 99 be ba 05 80 3e 18 cc 6d 3e dd a1 0d 3e
       -0.30065382 0.2500437 0.23222387 0.13831277
000130 f2 f9 16 bd 34 ca f5 bd 7f 6d 98 3e f2 a4 27 bd
       -0.03685946 -0.12001458 0.2977104 -0.04092879
000140 f9 b4 85 3d 61 2d 02 3e 16 6c 86 3e bd 43 a3 bd
       0.065286584 0.12712623 0.26254338 -0.079719044
000150 d5 b0 8c 3e 4c 78 16 be 4f 1a fa bd 1c 68 a7 bd
       0.27478662 -0.14694327 -0.12212049 -0.08174154
000160 d2 f2 82 3c 16 9c ac 3c 38 6e ac 3d d5 82 e4 3e
       0.015984926 0.021070521 0.0841946 0.44631067
000170 1b 33 94 bd 5b cb 0b bd 8b cd 80 3d 50 21 f4 bc
       -0.0723631 -0.03412948 0.06289204 -0.02980104
000180 d8 5c 3b 3e 8a e8 f1 3d df 76 dd bb 09 3b 32 3e
       0.18297136 0.118119314 -0.0067585553 0.17405333
000190 e3 fb 82 be da 92 8a 3e 97 2c b4 bd 5a 2e 84 ba
       -0.255828 0.27065164 -0.08797567 -0.0010084615
0001a0 a2 e6 c8 3d eb a5 8c be e2 39 23 3c 27 dd 62 3e
       0.09809615 -0.27470335 0.009962531 0.22154675
0001b0 c4 17 85 be 72 9b e4 3c 44 05 d8 bd bc fd 40 be
       -0.25994694 0.027906153 -0.10547879 -0.18846792
0001c0 b7 72 70 be 37 8a 01 be bb ac 68 bd a7 ac 08 3e
       -0.2348126 -0.12650381 -0.056805354 0.13347112
0001d0 50 03 a1 3d 9d aa bb bd 9a c2 f8 3d f6 86 04 be
       0.0786196 -0.09163401 0.12146492 -0.12942109
0001e0 00 3f 68 bd e9 ef 18 be 60 12 1a 3d 31 74 9b 3d
       -0.056700706 -0.14935268 0.03761518 0.07590521
0001f0 80 07 0b be 4d 94 98 be 88 df 7c bd ed 65 9d 3d
       -0.1357708 -0.29800645 -0.061736614 0.076854564
000200 77 d9 e9 3e 47 57 7a 3d 0a 06 42 bd bc d8 be bd
       0.45673725 0.06111839 -0.04736904 -0.093186826
000210 ee a7 cc bd a7 35 eb bd 8d b9 dc bd 34 91 4c be
       -0.099929675 -0.11484843 -0.107775785 -0.19977266
000220 51 cb 89 bd fd 0b d9 bd c6 eb 40 be 66 d4 6d 3c
       -0.06728233 -0.1059799 -0.1883994 0.014515972
000230 6b f3 66 bd a4 a0 50 be ab 7b 10 be 76 82 83 be
       -0.056384485 -0.2037378 -0.14109676 -0.2568547
000240 7a 18 03 be e7 b7 99 be 5a 07 20 3e 56 37 f5 3d
       -0.12802306 -0.3002312 0.15627804 0.11973445
000250 41 18 b1 bd b1 43 43 3e 3f 72 9e bd de 56 b0 3e
       -0.08647204 0.19068791 -0.077366345 0.34441274
000260 e4 d3 4c 3e 9b dc 70 be ae 4e db 3d 53 54 14 3e
       0.20002705 -0.23521654 0.10708366 0.14485292
000270 98 21 f5 bd 4e 1b 80 bd f9 72 30 be be 14 59 3d
       -0.11969298 -0.06255208 -0.17231359 0.052998297
000280 4d 37 88 bd e1 3e cc 3d da 16 27 3e c6 a7 a3 bc
       -0.06651173 0.09972931 0.16317311 -0.019977462
000290 de 36 1c 3d 34 75 d7 3d ca 26 6d be 1c 58 3c 3d
       0.038138263 0.105204016 -0.23159328 0.045982465
0002a0 de 37 f7 bd bd 32 50 bd 36 a3 43 bc c6 ea f6 bd
       -0.12071203 -0.050829638 -0.011940768 -0.12056498
0002b0 30 01 8e 3d 7f 8e c3 bd 68 56 81 bd 2a 5c 42 bd
       0.0693382 -0.09548663 -0.06315309 -0.047451176
0002c0 a7 d3 a7 bc ed 2e 2b 3d b6 d3 f4 bc b7 e1 46 bd
       -0.020486666 0.0417928 -0.029886108 -0.048555102
0002d0 fe f4 5b 3e 41 20 08 3e 94 44 5f bd b0 25 22 3e
       0.21480176 0.13293554 -0.05450876 0.15834689
0002e0 6a a1 69 bd 61 4c a4 3c fb 1f a2 bd 16 bc 1c 3e
       -0.057038702 0.020055952 -0.07916256 0.15306124
0002f0 52 4a 11 be a7 72 55 3e b2 d9 ae 3d ea d8 ad 3e
       -0.14188507 0.20844518 0.08537616 0.33954555
000300 ee da 70 be d3 fb f7 bb ba 74 20 bd 52 0b 29 be
       -0.23521015 -0.0075678616 -0.03917382 -0.16508225
000310 0c ac 06 3e 93 89 8a bd 9e ff 42 be b7 2c d3 3b
       0.13151568 -0.067645214 -0.19042823 0.0064445394
000320 4e 03 e4 bd 49 56 83 3d b0 1e 37 bd c9 53 0a be
       -0.11133443 0.06412942 -0.044707 -0.13508524
000330 d0 7f 83 bd a1 d3 92 3d a4 e7 d6 bd 08 e0 62 3e
       -0.06420863 0.07169271 -0.10493401 0.22155774
000340 56 49 f0 bb bd 0c 17 3e 4d 97 c6 3b a0 c4 81 3e
       -0.007332961 0.14750953 0.006060517 0.25345325
000350 63 c1 43 be 6d ec 9d bd 16 d2 f8 3d 25 1f 1b 3d
       -0.1911674 -0.0771111 0.12149446 0.0378715
000360 0d e8 58 bd 62 8a 86 bd 16 c3 66 bd 6f b4 5e 3e
       -0.052955676 -0.06569363 -0.056338392 0.21748517
000370 70 90 33 bd 59 fc 3d 3e 00 37 4f be 5c 65 e5 bd
       -0.04383892 0.18553294 -0.20235825 -0.112009734
000380 c2 d2 2d be e2 30 03 bd 8e 08 f0 bd 85 69 3b be
       -0.16974929 -0.03202904 -0.11720382 -0.18301971
000390 88 ed f2 3d 40 66 41 3e 9a 4f 40 3e 2f 55 5f be
       0.11861712 0.18886662 0.18780366 -0.21809839
0003a0 b3 38 d3 bd b2 ec 48 be 56 55 36 bd d4 84 8e 3e
       -0.10313549 -0.19621542 -0.044514976 0.27835715
0003b0 f9 8b 36 be e4 cf 90 3e 2e b6 4a 3d 7e 9f c5 3d
       -0.17826833 0.28283608 0.049490146 0.09649561
0003c0 fa eb 55 be 88 08 db bd 6c dc 7d 3d 94 60 c1 bc
       -0.20890799 -0.106949866 0.06197779 -0.023605622
0003d0 1f bf 5f be 74 21 61 bd c4 2c 26 be 09 d4 00 bc
       -0.2185025 -0.054963544 -0.16228014 -0.007863053
0003e0 05 b5 bb bc f1 f0 bf bd d0 32 81 3e 8e 79 a9 bc
       -0.022913465 -0.09372128 0.2523408 -0.020687845
0003f0 f7 bb 31 be b1 47 20 be 47 47 ce 3d e0 6a 1a bc
       -0.17356859 -0.15652348 0.10072189 -0.009424895

fc3.bias f4 [10]
000000 76 ff 3b bc 2c a7 17 3e a4 53 ef bd 16 38 8c bd
       -0.011474481 0.14809865 -0.11685875 -0.06846635
000010 e8 8b 3d 3a 52 ab 62 3d 24 9b d2 bd 4e 01 d5 bb
       0.00072306255 0.055339165 -0.10283497 -0.0065003997
000020 99 5a 24 3e f3 64 c3 bc
       0.16050185 -0.023851847
