src/global_mnist_cnn.pt (torch, 181781 bytes, 10 tensors)

conv1.weight f4 [6, 1, 5, 5]
0.10261911 0.26410964 0.056040984 0.23394275 -0.12612687 0.11344935 0.01568557 -0.10074996
-0.12929982 -0.19134803 -0.008148213 -0.13169831 -0.095235124 -0.24512023 0.16102111 -0.2764731
0.20255296 0.19654025 0.20164841 0.14107622 0.17658064 0.027036201 0.17752632 0.09754504
0.10157897 -0.2168602 -0.14244846 0.31618762 0.18015552 -0.38882327 -0.34553593 0.044757456
0.37135348 0.1408163 -0.35425413 -0.45748687 0.084114015 0.4804244 -0.05651568 -0.12063895
-0.3928151 -0.052735467 0.39679837 0.022370305 0.003529943 -0.31635654 -0.13310932 0.07396783
0.19425891 0.015185051 -0.03521218 0.0048427368 -0.015580607 0.026505958 -0.17058574 -0.22260068
-0.20021309 -0.5436517 -0.39551175 -0.0022744625 -0.16506311 -0.37981147 -0.26375175 0.2679703
0.25824425 0.23981017 -0.26783916 0.104042694 0.2635006 0.050519004 0.19697697 0.44988918
0.55873394 0.2254646 -0.24353224 -0.06811801 0.11749587 0.13528943 0.19828038 -0.12503275
-0.12526777 0.051068805 0.2788667 -0.116213255 -0.09386309 0.097871505 0.4681599 0.26481113
-0.078754604 -0.31089604 0.047071137 0.41519672 0.11822144 -0.23590729 -0.050892092 0.055838477
-0.015489705 -0.17816624 -0.20791373 -0.31954336 0.112144515 -0.07336968 0.033364013 -0.2660052
-0.03253594 0.0751831 0.33572802 0.4316796 0.37560245 -0.11578512 0.0327392 0.08625833
0.1521429 0.45822847 0.34732926 -0.34995311 -0.29360434 -0.08883141 0.013256312 0.2513448
-0.18416554 -0.3551221 -0.50393444 -0.41980898 -0.014917708 0.16215464 0.060131267 -0.11569546
-0.21673912 -0.11115878 0.061123278 0.2269103 -0.20890354 -0.05610182 -0.01669458 0.14362007
0.2411479 -0.03399674 0.21936029 -0.15193073 0.19095327 0.3360248 0.3746622 -0.013669479
-0.08524678 -0.05850283 -0.01885363 0.0011930419 0.25947082 -0.09925203
00000000: f829 d23d 6139 873e 3b8b 653d b08e 6f3e
00000010: 6727 01be 2258 e83d 067f 803c ff55 cebd
00000020: 2c67 04be bdf0 43be 1580 05bc ecdb 06be
00000030: a20a c3bd cc00 7bbe b8e2 243e e28d 8dbe
00000040: 0b6a 4f3e d941 493e ec7c 4e3e 4976 103e
00000050: 8ed1 343e 067b dd3c 76c9 353e b2c5 c73d
00000060: a308 d03d 9a10 5ebe 02de 11be 58e3 a13e
00000070: b07a 383e d813 c7be 16ea b0be 9853 373d
00000080: 0b22 be3e 2632 103e cc60 b5be b83b eabe
00000090: f843 ac3d 30fa f53e fc7c 67bd 8e11 f7bd
000000a0: 101f c9be 2501 58bd 2829 cb3e ee41 b73c
000000b0: 9e56 673b 7cf9 a1be cf4d 08be 727c 973d
000000c0: cfeb 463e b8ca 783c a63a 10bd d2af 9e3b
000000d0: cd45 7fbc 0623 d93c 07ae 2ebe 6ff1 63be
000000e0: a904 4dbe c22c 0bbf 8480 cabe 260f 15bb
000000f0: 4e06 29be a676 c2be 780a 87be 6733 893e
00000100: 9738 843e cc90 753e 3722 89be 5614 d53d
00000110: 8de9 863e 04ed 4e3d 55b4 493e e057 e63e
00000120: 3009 0f3f 31e0 663e 8460 79be 7581 8bbd
00000130: ada1 f03d 5089 0a3e 030a 4b3e 9608 00be
00000140: 3246 00be 862d 513d 9ec7 8e3e 3701 eebd
00000150: 4b3b c0bd db70 c83d a8b2 ef3e 5395 873e
00000160: 184a a1bd c42d 9fbe aacd 403d aa94 d43e
00000170: 151e f23d ae91 71be 3a74 50bd e3b6 643d
00000180: 88c8 7dbc 3671 36be 56e7 54be 309b a3be
00000190: 06ac e53d d842 96bd b4a8 083d d531 88be
000001a0: 6844 05bd 99f9 993d 8be4 ab3e 1c05 dd3e
000001b0: f74e c03e c020 edbd 8a19 063d 35a8 b03d
000001c0: 59cb 1b3e ec9c ea3e 24d5 b13e 0e2d b3be
000001d0: 4f53 96be 3eed b5bd 0131 593c 44b0 803e
000001e0: e495 3cbe 90d2 b5be d901 01bf 34f1 d6be
000001f0: 6769 74bc de0b 263e 344c 763d bef1 ecbd
00000200: dcf0 5dbe 37a7 e3bd 675c 7a3d 2c5b 683e
00000210: cfea 55be 06cb 65bd 12c3 88bc 2411 133e
00000220: 7aef 763e 2a40 0bbd fc9f 603e bb93 1bbe
00000230: 4189 433e 710b ac3e b9d3 bf3e f3f5 5fbc
00000240: dd95 aebd aaa0 6fbd ee72 9abc d85f 9c3a
00000250: 5cd9 843e a644 cbbd

conv1.bias f4 [6]
-0.30096406 -0.40779063 0.10596381 -0.20553024 -0.20500538 -0.08862589
00000000: f617 9abe efc9 d0be 8e03 d93d 8576 52be
00000010: eeec 51be 7e81 b5bd

conv2.weight f4 [16, 6, 5, 5]
-0.070581384 -0.0014389387 -0.010801762 0.078284584 -0.07053648 -0.011746511 0.02987481 0.0044193864
-0.014883395 -0.051013723 -0.016668221 0.026386553 0.04456004 -0.077518225 -0.06967701 -0.061154645
-0.041286513 -0.010845542 0.04286974 -0.009024918 -0.003790607 0.04183604 0.034717843 0.026635326
0.03095156 -0.07083106 0.033295795 -0.039737534 0.0012015726 -0.072234415 -0.06130676 -0.03828531
0.005302568 -0.008116029 -0.033997536 0.049996786 0.017746802 -0.025523113 -0.031549096 0.0045878896
0.031240014 -0.009660227 -0.064993784 0.098615244 -0.05613278 -0.047835555 0.010241383 -0.011867394
0.016865257 -0.022167793 -0.04805626 0.055340905 0.029460974 -0.047084287 -0.045044094 -0.07660247
-0.037503563 -0.022276962 -0.007682585 0.06056328 -0.00022597949 -0.05381391 -0.033051554 0.08699005
-0.070017025 -0.06929228 0.011202628 -0.08723144 0.061180517 -0.039997533 0.068391345 0.036712468
0.03364844 -0.028069396 0.0024376013 -0.024828428 -0.046821896 0.04043611 -0.04395174 -0.064968914
-0.010565622 0.04979525 -0.080561526 -0.0132881515 -0.006348421 0.033653792 0.07417683 0.030979611
-0.013944486 0.039989915 0.074793145 0.032704476 -0.04767864 0.017096562 0.070507094 -0.037637077
-0.06556404 -0.065465376 -0.045928255 -0.02417554 0.00026271297 0.0032165917 -0.035560846 -0.034707308
-0.0743133 -0.04902709 -0.0073810834 -0.034580216 0.006732439 -0.05927888 -0.05107122 0.04083518
-0.006504145 0.02436392 -0.031787135 0.011587685 0.024029221 -0.0366121 -0.04855379 0.05059576
-0.07573802 -0.05740388 -0.030544508 0.082461916 0.07674331 -0.07740677 -0.03742288 -0.014031535
-0.0003153698 0.062503025 0.050169576 -0.045988448 0.049619865 0.019820172 -0.0006580001 -0.027195226
-0.015605755 -0.025983542 -0.012436207 0.024724375 -0.061739124 0.0859465 0.032578498 -0.07842414
-0.06278106 -0.0026547492 -0.053322278 -0.07721177 -0.0142910015 0.05778718 0.06394194 0.020464238
-0.05235217 0.075718224 0.044165324 -0.010652535 0.014760547 0.048167817 0.04200455 0.14876917
0.09749329 0.08704593 -0.031323597 -0.0680826 -0.03366445 0.07552677 0.05387767 -0.034190673
-0.056350283 -0.09349639 0.099632196 0.104136035 -0.005125338 0.014372746 0.011005639 -0.14323203
-0.07686515 -0.017838702 0.013945825 -0.07413964 -0.07937245 -0.012667424 -0.005261842 0.046341307
-0.046718623 -0.102282025 -0.05674212 -0.038165078 -0.022974506 0.07893333 -0.06937962 0.022076966
-0.027874352 0.09687113 0.113795206 -0.06936829 -0.01766498 0.05291892 -0.064021975 -0.065316066
0.039483562 -0.016350005 -0.05863265 -0.101851344 -0.13204753 -0.13943684 -0.10235324 0.08066949
-0.011668485 0.2240036 -0.14045146 0.042249627 0.05632457 0.09029814 0.081490785 -0.10359192
-0.11384814 -0.074266315 -0.07741274 -0.08164979 -0.056251515 0.030601412 -0.098855436 -0.022570267
0.008323779 0.021639174 -0.027328426 0.042819075 0.028521774 -0.030221326 -0.11509022 -0.111685395
-0.10190731 -0.03794287 -0.04729105 -0.0074388906 -0.069956265 0.010739289 -0.07503064 -0.113629766
0.0846715 0.05393691 -0.029863948 -0.08975804 -0.092312165 0.0942442 0.11332413 0.100122675
0.008440064 -0.040574763 -0.0718076 0.06572791 0.1839387 0.040513474 0.0077411546 0.030249298
00000000: f98c 90bd c59a bcba e0f9 30bc ab53 a03d
00000010: 6e75 90bd 7074 40bc 04bc f43c 80d0 903b
00000020: 7cd9 73bc c4f3 50bd cb8b 88bc 9d28 d83c
00000030: 9784 363d e0c1 9ebd d2b2 8ebd 4b7d 7abd
00000040: 0c1c 29bd 80b1 31bc 2e98 2f3d 40dd 13bc
00000050: d56b 78bb 445c 2b3d 4c34 0e3d 5432 da3c
00000060: 208e fd3c e00f 91bd 2c61 083d d3c3 22bd
00000070: 167e 9d3a a3ef 93bd cc1c 7bbd 0fd1 1cbd
00000080: 2ac1 ad3b 18f9 04bc 0041 0bbd 6ec9 4c3d
00000090: be61 913c d915 d1bc a039 01bd 0256 963b
000000a0: 0feb ff3c ee45 1ebc 761b 85bd caf6 c93d
000000b0: 7ceb 65bd 37ef 43bd 79cb 273c 756f 42bc
000000c0: 0229 8a3c 3b99 b5bc a4d6 44bd 25ad 623d
000000d0: 2458 f13c 74db 40bd 2880 38bd c1e1 9cbd
000000e0: 569d 19bd 2d7e b6bc 32be fbbb 3411 783d
000000f0: e8f4 6cb9 f96b 5cbd 1161 07bd d727 b23d
00000100: 1665 8fbd 1ce9 8dbd 3a8b 373c 66a6 b2bd
00000110: 6c98 7a3d 74d4 23bd c310 8c3d d05f 163d
00000120: f2d2 093d caf1 e5bc 2ac0 1f3b fd64 cbbc
00000130: 51c8 3fbd 56a0 253d bd06 34bd 6c0e 85bd
00000140: 6e1b 2dbc 1bf6 4b3d 71fd a4bd 8cb6 59bc
00000150: 6a06 d0bb 8fd8 093d 06ea 973d f4c8 fd3c
00000160: 6a77 64bc 77cc 233d 262d 993d 21f5 053d
00000170: ad4a 43bd 170e 8c3c 0666 903d 5629 1abd
00000180: 7046 86bd b612 86bd 441f 3cbd c80b c6bc
00000190: bdbc 8939 74cd 523b 40a8 11bd 4029 0ebd
000001a0: 9231 98bd a1d0 48bd 04dd f1bb fca3 0dbd
000001b0: cb9b dc3b 69ce 72bd 0e30 51bd ca42 273d
000001c0: b920 d5bb d896 c73c 3a33 02bd 46da 3d3c
000001d0: eed8 c43c 92f6 15bd 57e0 46bd 803d 4f3d
000001e0: 891c 9bbd 5520 6bbd 7a38 fabc cbe1 a83d
000001f0: 992b 9d3d 7187 9ebd bc48 19bd 86e4 65bc
00000200: 3858 a5b9 9601 803d 9d7e 4d3d 625e 3cbd
00000210: 333e 4b3d ea5d a23c a47d 2cba 86c8 debc
00000220: 48af 7fbc 70db d4bc 3cc1 4bbc c68a ca3c
00000230: 2ae2 7cbd b804 b03d 0871 053d d69c a0bd
00000240: 5b93 80bd 4dfb 2dbb 7668 5abd 3421 9ebd
00000250: ce24 6abc 40b2 6c3d fef3 823d 9ea4 a73c
00000260: 3b6f 56bd 2812 9b3d b3e6 343d f887 2ebc
00000270: 39d6 713c 9e4b 453d f70c 2c3d f256 183e
00000280: 90aa c73d 2345 b23d 2c4d 00bd e46e 8bbd
00000290: bce3 09bd c7ad 9a3d d5ae 5c3d 850b 0cbd
000002a0: 8ecf 66bd 097b bfbd f70b cc3d 4645 d53d
000002b0: 74f2 a7bb ab7b 6b3c ff50 343c 6bab 12be
000002c0: 7a6b 9dbd 7822 92bc 087d 643c 86d6 97bd
000002d0: 068e a2bd 078b 4fbc 886b acbb 62d0 3d3d
000002e0: 075c 3fbd 3d79 d1bd 6d6a 68bd fc52 1cbd
000002f0: 0835 bcbc cca7 a13d e716 8ebd c1da b43c
00000300: c158 e4bc 5f64 c63d 760d e93d f610 8ebd
00000310: 26b6 90bc 82c1 583d f41d 83bd 6ec4 85bd
00000320: 84b9 213d 72f0 85bc ca28 70bd 7097 d0bd
00000330: 7837 07be 88c8 0ebe 939e d1bd 0c36 a53d
00000340: 2c2d 3fbc 3361 653e 82d2 0fbe f20d 2d3d
00000350: 98b4 663d 3bee b83d a4e4 a63d 0028 d4bd
00000360: 3729 e9bd f018 98bd 928a 9ebd 0138 a7bd
00000370: fd67 66bd d0af fa3c b874 cabd 48e5 b8bc
00000380: 7660 083c a344 b13c dddf dfbc 0e63 2f3d
00000390: 7fa6 e93c b792 f7bc 6cb4 ebbd 50bb e4bd
000003a0: c8b4 d0bd fc69 1bbd 43b4 41bd f0c1 f3bb
000003b0: 3b45 8fbd d8f3 2f3c aaa9 99bd b9b6 e8bd
000003c0: 4068 ad3d f3ec 5c3d 3da5 f4bc 10d3 b7bd
000003d0: 290e bdbd 1a03 c13d 7b16 e83d 1e0d cd3d
000003e0: 3248 0a3c b931 26bd dd0f 93bd 5b9c 863d
000003f0: 6d5a 3c3e 75f1 253d 83a9 fd3b 60cd f73c

conv2.bias f4 [16]
0.04724226 -0.012776108 0.021001715 0.015358787 -0.09892346 -0.05148863 -0.011820925 0.00672942
-0.055813503 0.00028126757 0.1227074 -0.09601457 -0.0003310283 0.03319619 0.006866255 -0.07741801
00000000: 1a81 413d e252 51bc ca0b ac3c 6ca3 7b3c
00000010: 6298 cabd bee5 52bd 8eac 41bc 7782 dc3b
00000020: b39c 64bd 1877 9339 044e fb3d 49a3 c4bd
00000030: de8d adb9 baf8 073d 52fe e03b 558d 9ebd

fc1.weight f4 [120, 256]
0.05728259 0.030186135 -0.0154969925 -0.04498271 0.029674359 0.030134339 -0.013750056 -0.05122616
-0.019653158 -0.010035861 0.00043437662 -0.019542191 -0.04191966 -0.0048769834 0.060673386 0.05738702
0.03075756 -0.039992582 -0.0011056399 0.045378074 0.074981675 0.00348579 0.01974838 0.008003442
0.06287481 0.0009938801 0.017138021 0.0054245004 -0.016891714 -0.042447016 0.0008530122 -0.026318246
0.04011201 -0.088891014 -0.06656741 -0.0016753895 -0.14339195 -0.048751295 -0.049427338 0.12947388
0.0071854265 -0.0033422078 -0.019688802 -0.10322627 0.07090184 -0.0044035283 0.0076413704 0.028366636
-0.07148349 -0.033080183 -0.020376762 -0.027346155 -0.030953925 -0.019760557 0.025590299 0.04758894
-0.055220578 -0.04540328 -0.0009996479 0.03418014 -0.05124966 0.034275867 -0.011036856 0.018638493
0.0025025418 -0.12078578 -0.014011074 -0.103754185 0.013962851 0.09286123 0.02515471 -0.04569067
0.00013741828 0.04907749 0.09407749 0.15976712 0.045607194 -0.08323494 -0.09423104 -0.028548354
0.012840746 0.045761853 0.16163333 0.11291833 -0.10128251 -0.011555839 -0.026476415 -0.09292488
-0.046907626 -0.06895666 0.07659595 0.008364895 0.034926474 -0.050033376 0.01939307 0.031315796
0.04457635 -0.042700678 -0.06548085 -0.0478047 0.013724703 -0.01732657 -0.024445347 -0.062153198
0.02640226 0.01142563 -0.064439476 -0.035615943 -0.07958725 -0.01296265 0.0064673815 -0.02426045
-0.08036497 0.060910113 -0.030415572 -0.040202513 -0.0032075068 0.024653682 0.07721928 -0.0003062057
0.032644376 -0.09914407 -0.018748568 0.0059794057 0.03748142 0.0051271445 0.055942345 -0.039915934
0.016652891 -0.037704274 0.010385657 -0.039492182 -0.04630344 -0.034308624 -0.02193394 -0.029093843
0.038476236 -0.0035233283 0.020917872 -0.015362794 -0.041963246 0.013291429 -0.03546187 0.029162988
0.0008969606 0.036335733 -0.09396435 -0.10232277 -0.008878473 0.0070103644 0.011950958 -0.008064389
0.04833742 0.10607062 -0.014636807 -0.009323876 -0.08990692 0.06847073 -0.0049094623 0.028848177
0.22819261 0.071647584 -0.055016547 -0.2325482 0.12018877 -0.070731 -0.097257055 -0.06016869
-0.0020085978 0.0760901 0.12023163 0.108918525 0.020770313 0.04335269 -0.038779385 0.015910158
0.050289184 -0.07212954 -0.077685714 -0.07740653 0.1911587 0.12796895 -0.058155604 -0.054057688
-0.07167693 -0.0015778264 -0.016460516 0.002464545 0.0007313029 0.04087704 -0.00010540333 0.06843854
-0.10865313 -0.12801598 0.09265078 0.035381127 0.013258845 -0.013435078 0.03731083 -0.07796935
-0.012092336 -0.082622096 0.030493733 0.02111135 0.054577403 0.018969566 -0.081724145 0.020885672
-0.092433885 -0.10143465 -0.102538675 -0.16504304 0.17041254 0.07622868 -0.03706415 -0.12712646
0.006071305 -0.011768637 -0.011562821 -0.0069974456 -0.037131954 0.106463134 0.03300782 0.108332284
-0.0005319597 -0.069176555 -0.028371865 0.08511501 -0.018816557 -0.015440476 -0.052333146 0.0576852
0.04190272 0.0096875215 -0.0006544809 -0.03593345 -0.017843056 0.013607629 -0.056786127 0.061529625
-0.025185836 -0.0012912184 -0.016163478 0.036679 0.08498931 -0.010449081 -0.085935116 -0.0361018
-0.030099845 0.053268053 -0.006528305 0.036979057 -0.031268924 -0.040863622 0.06519922 0.029015336
00000000: 26a1 6a3d ea48 f73c 19e7 7dbc ca3f 38bd
00000010: a417 f33c 4adc f63c ea47 61bc 86d2 51bd
00000020: a9ff a0bc 746d 24bc 0bbd e339 f216 a0bc
00000030: f3b3 2bbd 1acf 9fbb a884 783d a70e 6b3d
00000040: 47f7 fb3c 43cf 23bd 1eeb 90ba 5cde 393d
00000050: fe8f 993d da71 643b 5bc7 a13c de20 033c
00000060: 82c4 803d 1545 823a 0965 8c3c 02c0 b13b
00000070: 7e60 8abc ecdc 2dbd ae9c 5f3a 5d99 d7bc
00000080: 7e4c 243d 7e0c b6bd 7f54 88bd be98 dbba
00000090: 57d5 12be 70af 47bd 5274 4abd cd94 043e
000000a0: ba73 eb3b f108 5bbb 694a a1bc 4b68 d3bd
000000b0: fc34 913d 794b 90bb 7664 fa3b 2661 e83c
000000c0: f065 92bd 167f 07bd 2bed a6bc 0b05 e0bc
000000d0: 1693 fdbc e4e0 a1bc bfa2 d13c 9fec 423d
000000e0: f92e 62bd caf8 39bd 9e06 83ba 7900 0c3d
000000f0: 2aeb 51bd da64 0c3d eed3 34bc c1af 983c
00000100: af01 243b 895e f7bd b48e 65bc 137d d4bd
00000110: 71c4 643c 072e be3d 4011 ce3c 2426 3bbd
00000120: f017 1039 7a05 493d b3ab c03d fe99 233e
00000130: 9cce 3a3d 1577 aabd 34fc c0bd 3dde e9bc
00000140: fe61 523c c870 3b3d 3583 253e ba41 e73d
00000150: 346d cfbd b454 3dbc 11e5 d8bc 664f bebd
00000160: 3622 40bd 2639 8dbd 56de 9c3d ea0c 093c
00000170: 100f 0f3d ccef 4cbd 37de 9e3c fe44 003d
00000180: b195 363d e8e6 2ebd d31a 86bd dcce 43bd
00000190: 94dd 603c 73f0 8dbc 9c41 c8bc 5a94 7ebd
000001a0: 8d49 d83c 9132 3b3c d8f8 83bd 06e2 11bd
000001b0: a4fe a2bd 4b61 54bc 54ec d33b dabd c6bc
000001c0: 6496 a4bd e27c 793d 142a f9bc 64ab 24bd
000001d0: 0935 52bb 85f6 c93c 2425 9e3d 3c8a a0b9
000001e0: 1cb6 053d 0c0c cbbd 9996 99bc e4ee c33b
000001f0: 1e86 193d 9b01 a83b cd23 653d e47e 23bd
00000200: a56b 883c cc6f 1abd 9a28 2a3c 8ec2 21bd
00000210: ada8 3dbd 3387 0cbd ceae b3bc 3656 eebc
00000220: 4299 1d3d a4e7 66bb f55b ab3c 3ab4 7bbc
00000230: a7e1 2bbd 4bc4 593c 7740 11bd 38e7 ee3c
00000240: 0222 6b3a c7d4 143d 6270 c0bd 9a8e d1bd
00000250: 0477 11bc 33b7 e53b f3cd 433c 8020 04bc
00000260: 75fd 453d 8e3b d93d 38cf 6fbc 2cc3 18bc
00000270: 1f21 b8bd 623a 8c3d 8edf a0bb 0353 ec3c
00000280: 53ab 693e f8bb 923d 0859 61bd 1e21 6ebe
00000290: 8825 f63d 6adb 90bd b52e c7bd 7273 76bd
000002a0: aea2 03bb 20d5 9b3d 003c f63d ad10 df3d
000002b0: 8126 aa3c 9792 313d 22d7 1ebd 0556 823c
000002c0: 08fc 4d3d a7b8 93bd b019 9fbd 5187 9ebd
000002d0: 1bbf 433e 4b0a 033e 9234 6ebd 986b 5dbd
000002e0: 5bcb 92bd 12cf ceba 34d8 86bc 3484 213b
000002f0: e8b4 3f3a af6e 273d fb0b ddb8 8129 8c3d
00000300: 8885 debd 9f16 03be b1bf bd3d cdeb 103d
00000310: a03b 593c cd1e 5cbc 3ed3 183d 65ae 9fbd
00000320: ef1e 46bc c635 a9bd fecd f93c b6f1 ac3c
00000330: 8e8c 5f3d 1066 9b3c fd5e a7bd 6e18 ab3c
00000340: fa4d bdbd f8bc cfbd ccff d1bd 0b01 29be
00000350: a080 2e3e c81d 9c3d 94d0 17bd 702d 02be
00000360: ccf1 c63b 3ed1 40bc fd71 3dbc d44a e5bb
00000370: ad17 18bd 5809 da3d 3533 073d 51dd dd3d
00000380: 3673 0bba 70ac 8dbd 1d6c e8bc c750 ae3d
00000390: 2e25 9abc 0dfa 7cbc 485b 56bd 5147 6c3d
000003a0: 30a2 2b3d 69b8 1e3c 7891 2bba f42e 13bd
000003b0: 9a2b 92bc 88f2 5e3c 9298 68bd 7d06 7c3d
000003c0: 8752 cebc 1a3e a9ba 4569 84bc b83c 163d
000003d0: e00e ae3d 9f32 2bbc c0fe afbd 7bdf 13bd
000003e0: f393 f6bc 9a2f 5a3d 64eb d5bb 5a77 173d
000003f0: d813 00bd 9d60 27bd 2b87 853d 92b1 ed3c

fc1.bias f4 [120]
-0.050085995 -0.049898554 0.043333642 -0.006509419 0.04758527 0.0507811 0.028886601 0.048462987
-0.023873191 0.0343225 -0.017683066 0.029300284 -0.026894893 0.0030195378 -0.033368256 0.006505372
0.015481039 -0.033626728 -0.036614403 0.0348904 -0.03770253 -0.052586656 -0.024633575 0.008187589
-0.01758628 0.030406509 0.019588403 0.036076926 0.0013159374 -0.03937687 0.034652524 -0.055559136
0.023628954 0.03334126 -0.033139866 0.010556063 -0.047091294 -0.013969755 0.06057606 0.041313924
-0.038619112 -0.06422153 0.009948885 -0.004176192 -0.014948433 -0.057204925 -0.044653643 -0.012496357
-0.060096435 -0.014465067 -0.026694985 0.011434791 0.030555716 -0.016951667 -0.017501637 -0.023707755
0.017107598 -0.017264206 -0.06205596 -0.010507121 0.018218582 -0.015896387 0.029937383 -0.034150813
0.0043576034 0.020539694 0.027542844 0.049517136 0.06569499 0.031941224 -0.035758395 -0.014389575
0.042240188 0.014027199 -0.00871033 0.0043561365 0.0036846942 0.0075378725 0.048097372 -0.029356813
0.0052013197 0.05421891 0.009781951 0.05764562 -0.010447008 -0.028746163 0.036334343 0.005737121
0.037159424 0.007947964 0.024421848 0.026220916 0.059284363 -0.015749523 0.0079325745 0.039982036
-0.020550177 0.0010106183 0.054944184 0.034962792 0.03258703 -0.04896013 0.01566177 0.035763856
0.03347417 -0.061734334 -0.018213222 0.029840548 0.01317621 -0.013147723 -0.019516557 0.0452941
-0.0066417037 -0.050250344 -0.002503043 0.07319701 0.020511609 0.040057488 -0.003096867 -0.056343995
00000000: f926 4dbd 6d62 4cbd 9e7e 313d f74c d5bb
00000010: c6e8 423d d8ff 4f3d 98a3 ec3c 2081 463d
00000020: b691 c3bc c095 0c3d 14dc 90bc 2607 f03c
00000030: ae52 dcbc 70e3 453b 27ad 08bd 042b d53b
00000040: 2fa4 7d3c 2ebc 09bd fcf8 15bd 3ce9 0e3d
00000050: f86d 1abd 1b65 57bd 5acc c9bc 3d25 063c
00000060: 1a11 90bc 1217 f93c dc77 a03c 66c5 133d
00000070: 887b ac3a a449 21bd ceef 0d3d fa91 63bd
00000080: 8291 c13c d890 083d abbd 07bd 56f3 2c3c
00000090: cde2 40bd 66e1 64bc 9a1e 783d ca38 293d
000000a0: 132f 1ebd 9486 83bd a600 233c 70d8 88bb
000000b0: 46ea 74bc b64f 6abd bde6 36bd 85bd 4cbc
000000c0: ae27 76bd e3fe 6cbc 71af dabc fd58 3b3c
000000d0: fb4f fa3c 39de 8abc 985f 8fbc c436 c2bc
000000e0: 3c25 8c3c aa6d 8dbc 642e 7ebd 0f26 2cbc
000000f0: 233f 953c 2439 82bc 3e3f f53c b9e1 0bbd
00000100: 3aca 8e3b dc42 a83c 88a1 e13c 7bd2 4a3d
00000110: 188b 863d cdd4 023d 6577 12bd 41c2 6bbc
00000120: 0c04 2d3d 56d2 653c c6b5 0ebc ecbd 8e3b
00000130: e97a 713b 4200 f73b c001 453d b37d f0bc
00000140: d56f aa3b a614 5e3d 7a44 203c d01d 6c3d
00000150: ed29 2bbc 137d ebbc 52d3 143d 76fe bb3b
00000160: 7b34 183d 2d38 023c 5410 c83c 3fcd d63c
00000170: 29d4 723d 2505 81bc a1f7 013c 34c4 233d
00000180: d858 a8bc b976 843a 270d 613d 2535 0f3d
00000190: fa79 053d 6b8a 48bd 1d4d 803c 1f7d 123d
000001a0: 361c 093d 24dd 7cbd e533 95bc 2a74 f43c
000001b0: 08e1 573c 8c69 57bc 30e1 9fbc 4e86 393d
000001c0: a6a2 d9bb 4ed3 4dbd 180a 24bb 50e8 953d
000001d0: f607 a83c 5213 243d cef4 4abb f6c8 66bd

fc2.weight f4 [84, 120]
-0.008475371 0.017353648 -0.04737329 -0.00087789015 0.027530348 -0.046842612 -0.017473264 0.00604852
0.00070410676 0.07049489 -0.0447794 -0.009416166 -0.043980364 -0.021659836 -0.019803263 0.061665986
0.105187334 0.09021585 0.023270857 0.06958117 -0.029408928 0.023017257 -0.0069298455 0.03018981
0.09108353 0.009216885 -0.0439355 -0.083763 -0.01477136 0.03799568 0.14795172 0.025247132
-0.13000433 0.0938874 -0.010309648 -0.0417397 -0.14090705 0.11584417 -0.027583592 0.07658111
-0.014503829 -0.14893116 0.06955768 0.049973197 -0.01755666 0.10921833 -0.034680538 0.044983
-0.07343082 -0.054865487 -0.05841188 -0.0019129419 0.0025114755 0.039473962 0.077770144 0.011476321
-0.0046941587 -0.09236476 0.016682481 0.030295774 0.004192998 0.10108979 -0.01665476 0.033076562
0.09349541 0.00053792563 0.016739054 -0.006800076 0.032615617 -0.030920967 -0.05529835 -0.031154547
-0.031147402 -0.055093728 -0.011090813 -0.09229927 0.050908968 0.056072347 0.09556953 -0.005407105
-0.0029628691 0.042751864 -0.008395566 -0.12106357 0.043955404 -0.105815604 -0.09222227 0.021038514
-0.042951073 -0.05101949 0.010235073 0.049998082 0.0085523175 -0.01320406 0.06533356 0.012170498
-0.0052785147 0.060233396 0.06308848 -0.051906638 -0.10556452 -0.022565303 -0.040213585 0.05605311
-0.042422898 -0.10336592 0.028993296 0.13141768 -0.03789342 0.1028861 -0.027158074 -0.031446215
-0.020318562 -0.10641779 0.106727004 0.08916998 -0.054724976 -0.013126363 -0.106734924 0.016639719
-0.09726854 -0.0016882762 0.074144185 -0.08513674 -0.03827609 0.07902708 -0.00270765 -0.085237965
-0.054979585 0.028353807 -0.06819953 0.0015817492 0.08339935 -0.09857303 0.044678263 -0.04586318
-0.0744611 -0.088320345 0.019549347 0.018654238 -0.04450211 0.0077175167 0.056067638 0.06068017
-0.08086874 0.020557892 -0.0059931837 -0.016708648 -0.033376012 0.018851826 -0.034405734 0.019588806
0.06709385 0.03982421 0.047136113 0.07321493 0.072222546 0.06624729 0.059192687 -0.043797486
0.02036208 0.009483397 0.049497977 -0.014971856 -0.07938787 -0.008302912 -0.06858013 -0.045506906
-0.023906197 -0.01841195 -0.077589795 -0.048679687 0.02237406 0.0108455885 0.016727945 0.035151344
0.023564868 0.09905407 -0.070144445 0.06116458 -0.051529527 0.03963405 0.013065239 0.034904536
0.011295658 0.04959299 -0.1157429 -0.02818188 -0.05815582 -0.06385887 0.05568135 -0.09521623
-0.036251847 0.0067922287 0.035285547 -0.0543831 -0.060145427 -0.10321195 -0.03491249 0.032396693
0.00945311 0.00013283725 0.015371862 -0.038469814 -0.015113222 -0.04643559 -0.072834685 0.018722681
0.090811804 -0.13164723 0.042974655 0.091179945 0.034334645 0.051639915 -0.088455915 0.0045014117
-0.04847548 0.010455691 -0.088270746 -0.1246285 0.0764561 0.03431117 0.03775426 0.09082394
0.06764536 0.052126788 -0.07564862 0.044947423 -0.07513376 0.06089837 0.06621672 0.02093191
-0.035283275 0.02073856 0.0053487536 -0.08295812 0.08420438 -0.017644022 -0.08168915 -0.026712071
0.09820911 -0.0744893 0.010123683 0.1020488 0.062068153 0.11018952 0.05904411 0.045060553
-0.0045683514 -0.07512998 -0.061863884 -0.1161643 0.032434925 0.1068152 -0.06388826 0.09106416
00000000: 48dc 0abc 3d29 8e3c 7f0a 42bd 3622 66ba
00000010: 5387 e13c 0ade 3fbd 1724 8fbc aa32 c63b
00000020: ce93 383a a05f 903d 9b6a 37bd 4346 1abc
00000030: c124 34bd f86f b1bc 743a a2bc 7995 7c3d
00000040: 756c d73d 16c3 b83d 86a2 be3c 9380 8e3d
00000050: feea f0bc b08e bc3c c213 e3bb 9f50 f73c
00000060: 008a ba3d 6b02 173c b6f5 33bd f08b abbd
00000070: 9303 72bc 5ca1 1b3d a880 173e 13d3 ce3c
00000080: db1f 05be 0a48 c03d cce9 28bc 3ff7 2abd
00000090: f049 10be b53f ed3d fcf6 e1bc 8fd6 9c3d
000000a0: 78a1 6dbc 6981 18be 4274 8e3d b2b0 4c3d
000000b0: fcd2 8fbc dcad df3d 2e0d 0ebd 1840 383d
000000c0: e662 96bd a2ba 60bd 4c41 6fbd aebb faba
000000d0: 9197 243b 73af 213d f445 9f3d 2e07 3c3c
000000e0: 75d1 99bb bc29 bdbd b3a9 883c d82e f83c
000000f0: 6b65 893b 2a08 cf3d 906f 88bc 4a7b 073d
00000100: 867a bf3d 9403 0d3a 5720 893c 2cd3 debb
00000110: f497 053d f84d fdbc 8680 62bd d237 ffbc
00000120: d628 ffbc f6a9 61bd 3eb6 35bc 6607 bdbd
00000130: ec85 503d 1eac 653d f5b9 c33d 162e b1bb
00000140: b22c 42bb 941c 2f3d 8e8d 09bc 2df0 f7bd
00000150: 950a 343d dab5 d8bd 08df bcbd f658 ac3c
00000160: 77ed 2fbd d0f9 50bd 02b1 273c caca 4c3d
00000170: 051f 0c3c d755 58bc 9acd 853d c566 473c
00000180: 64f7 acbb 4bb7 763d 8834 813d 0e9c 54bd
00000190: 3632 d8bd dfda b8bc 00b7 24bd f297 653d
000001a0: a2c3 2dbd 83b1 d3bd 5983 ed3c 5b92 063e
000001b0: 2136 1bbd f3b5 d23d 9c7a debc bfcd 00bd
000001c0: 1d73 a6bc 92f1 d9bd b093 da3d c09e b63d
000001d0: 4c27 60bd f50f 57bc d797 dabd 0550 883c
000001e0: ba34 c7bd 2649 ddba e8d8 973d 2c5c aebd
000001f0: 64c7 1cbd f3d8 a13d d472 31bb 3e91 aebd
00000200: 4632 61bd 3e46 e83c 32ac 8bbd b252 cf3a
00000210: 47cd aa3d a8e0 c9bd 8e00 373d 08db 3bbd
00000220: 107f 98bd 4ce1 b4bd f425 a03c c6d0 983c
00000230: d847 36bd 39e3 fc3b 2ea7 653d c58b 783d
00000240: 839e a5bd 0669 a83c 7862 c4bb 93e0 88bc
00000250: 49b5 08bd 256f 9a3c 07ed 0cbd b478 a03c
00000260: 8068 893d b61e 233d cc11 413d b6f1 953d
00000270: 6ae9 933d a9ac 873d 0874 723d fe64 33bd
00000280: 60ce a63c 4060 1b3c 64be 4a3d 844c 75bc
00000290: 1c96 a2bd f008 08bc bd73 8cbd 7365 3abd
000002a0: eed6 c3bc a8d4 96bc 66e7 9ebd 5a64 47bd
000002b0: ce49 b73c b2b1 313c 0b09 893c dbfa 0f3d
000002c0: 1c0b c13c dcdc ca3d e4a7 8fbd b687 7a3d
000002d0: a010 53bd 5057 223d 960f 563c 0ff8 0e3d
000002e0: 6c11 393c 0522 4b3d 9d0a edbd b0dd e6bc
000002f0: cc34 6ebd 70c8 82bd 2112 643d ba00 c3bd
00000300: d17c 14bd 5891 de3b 9487 103d d0c0 5ebd
00000310: 0d5b 76bd c960 d3bd 6600 0fbd 65b2 043d
00000320: 38e1 1a3c 3a4a 0b39 43da 7b3c 8692 1dbd
00000330: 739d 77bc 3f33 3ebd 5a2a 95bd 4f60 993c
00000340: 8afb b93d 88ce 06be 3106 303d 8dbc ba3d
00000350: 7ca2 0c3d 6084 533d 6028 b5bd 9480 933b
00000360: 3a8e 46bd 594e 2b3c 4bc7 b4bd 3a3d ffbd
00000370: 0495 9c3d df89 0c3d 36a4 1a3d e701 ba3d
00000380: a789 8a3d e682 553d aaed 9abd ca1a 383d
00000390: bbdf 99bd 9270 793d a29c 873d 6679 ab3c
000003a0: 3285 10bd eae3 a93c 9944 af3b f2e5 a9bd
000003b0: 5973 ac3d 328a 90bc a44c a7bd 46d3 dabc
000003c0: dc21 c93d d98d 98bd cedd 253c f6fe d03d
000003d0: 2d3b 7e3d 0bab e13d 3dd8 713d 6a91 383d
000003e0: 1cb2 95bb bfdd 99bd fc64 7dbd 8ce7 edbd
000003f0: 7cda 043d edc1 da3d d9d7 82bd d97f ba3d

fc2.bias f4 [84]
0.036381185 -0.09817 0.008257711 0.06809705 0.028436393 -0.08426722 -0.04861737 0.005578153
-0.005653917 0.018440846 0.11428019 0.029334206 -0.06899097 0.03329745 0.07972832 -0.044270802
-0.04438992 0.029837213 -0.04117448 -0.062282227 0.08965236 -0.027280815 0.098477036 0.046527617
0.0592043 0.026393972 0.0782661 -0.0022081544 -0.017350849 0.05146692 -0.04502894 0.05186732
-0.007814885 0.07568188 -0.08588399 0.0807661 -0.05670847 -0.036522817 0.027880207 -0.056576192
0.08278537 -0.063836955 0.031799402 -0.0075176368 -0.022326283 0.013502364 -0.05361137 -0.060132954
-0.044811748 0.065624446 0.052111547 -0.058106314 0.08273527 0.048866972 -0.040041313 0.051761802
-0.0069690803 -0.007194247 0.06780176 -0.038104624 0.07007323 0.12157645 0.0048038503 -0.001400426
-0.057392642 0.02146285 0.050497532 -0.046850085 -0.015335224 -0.0425231 0.08774358 -0.04487812
-0.083073124 -0.03950996 -0.04561699 0.1067314 0.077007614 -0.064373806 0.05395812 -0.01463197
-0.07991067 0.041663855 -0.090305395 -0.03499705
00000000: 7004 153d 5a0d c9bd 5a4b 073c 7776 8b3d
00000010: 70f3 e83c 4b94 acbd 0223 47bd f0c8 b63b
00000020: 7e44 b9bb 4211 973c bb0b ea3d 4a4e f03c
00000030: 234b 8dbd e862 083d 9a48 a33d 4d55 35bd
00000040: 34d2 35bd 2c6d f43c 92a6 28bd a61b 7fbd
00000050: a89b b73d 047c dfbc 54ae c93d be93 3e3d
00000060: 3580 723d 2c38 d83c fa49 a03d afb6 10bb
00000070: 5e23 8ebc face 523d 4470 38bd d472 543d
00000080: 010a 00bc 1aff 9a3d f2e3 afbd b268 a53d
00000090: 2447 68bd f398 15bd 0865 e43c 70bc 67bd
000000a0: 608b a93d f3bc 82bd 1740 023d 8256 f6bb
000000b0: 9ce5 b6bc 0539 5d3c 9997 5bbd f94d 76bd
000000c0: 868c 37bd 1c66 863d eb72 553d e300 6ebd
000000d0: 1c71 a93d bc28 483d 5c02 24bd 2f04 543d
000000e0: e25c e4bb b8bd ebbb a6db 8a3d 9813 1cbd
000000f0: 8e82 8f3d 13fd f83d 9e69 9d3b 808e b7ba
00000100: 8c14 6bbd dcd2 af3c 80d6 4e3d e0e5 3fbd
00000110: 9740 7bbc b42c 2ebd e8b2 b33d 1fd2 37bd
00000120: 3e22 aabd 32d5 21bd e2d8 3abd fe95 da3d
00000130: 2bb6 9d3d 6ad6 83bd 3103 5d3d eeba 6fbc
00000140: 35a8 a3bd b8a7 2a3d 09f2 b8bd 1159 0fbd

fc3.weight f4 [10, 84]
-0.24837783 -0.16639696 0.010538839 0.022431936 -0.26215675 0.0018736171 -0.064224064 0.022690635
-0.0679186 -0.15149093 -0.08935046 0.14242637 -0.19690283 -0.17843643 -0.13724983 -0.11747418
-0.039027732 -0.17899266 0.41538233 -0.08759107 0.07836909 -0.15155187 -0.23918085 -0.0017053391
0.14545137 -0.26090753 -0.06583617 -0.09666477 -0.26138008 -0.13594261 0.0773266 -0.02973846
-0.06461111 -0.019650843 0.0647714 0.08193873 0.23247373 -0.09671771 0.29413328 0.18214911
-0.23327358 -0.012326776 0.0031422912 0.22737387 0.00033656892 0.15013948 0.16246893 -0.17313132
0.017212424 0.11716101 0.0022177955 0.055004776 0.00093309255 -0.11394246 0.18453632 0.31096095
0.15153626 -0.06522114 0.05955211 -0.021305744 -0.050736252 0.1029686 -0.106427245 -0.15316415
-0.021549456 0.29021508 -0.087022245 -0.04449781 0.09306395 0.0007392203 -0.038603656 -0.004177776
-0.08797 -0.072607175 0.034443792 -0.1000157 0.16302136 0.11434916 -0.24523687 -0.09102878
0.18593135 -0.024051294 0.056860656 0.0041927537 0.3044401 0.075404875 -0.13038251 -0.001067745
-0.07415423 -0.10602357 0.26915494 0.11556203 0.36507913 -0.05999933 -0.009947492 -0.15864861
-0.11409842 0.25410464 -0.024014417 0.015535578 0.012327424 0.20063546 -0.02007991 0.0689524
-0.19724126 -0.15608376 -0.056144416 -0.11096751 0.07367024 0.02961234 0.14638072 -0.06714484
0.2710737 -0.100556865 0.030888792 0.066669464 -0.08351926 -0.02941188 -0.12176259 0.0077988305
-0.104069814 0.026891198 0.0098934425 0.061606757 0.12859607 -0.026494367 -0.059072375 -0.080519
-0.08277801 -0.19760069 -0.013588294 0.20539744 0.05034724 -0.22823471 -0.14102793 -0.07105321
0.14160448 -0.1376442 -0.16197608 0.2123377 -0.056138314 -0.053889066 0.15285718 0.12946902
-0.20062567 0.17688553 -0.119228244 0.01895795 0.04240229 -0.24028043 0.11406252 0.0422645
0.009146047 -0.14379123 -0.111115396 -0.05973953 -0.09272918 0.05297412 -0.107895344 -0.052532334
0.14302456 -0.024491025 0.14534351 0.06439947 0.062853545 -0.1433094 -0.0065980274 -0.40597564
0.051599517 -0.070449635 0.1007365 0.09762509 -0.016035326 0.19412652 -0.20837767 -0.038758423
0.04750696 0.0134650115 0.06928331 0.20408055 0.0038710067 -0.105728984 0.096329175 -0.07959504
-0.054325663 0.012468975 -0.17991266 0.28944954 -0.2776429 -0.26050365 0.34051114 0.17407161
-0.01875979 -0.029003616 5.5022305e-05 -0.11351563 0.2752557 0.09674707 0.37788662 -0.040569283
0.063773796 -0.05080402 -0.08507877 -0.06222593 -0.01682666 -0.024068909 0.17316452 -0.0964905
-0.06623027 -0.08462213 0.09111327 0.014296055 0.041236315 -0.1477828 0.18846904 -0.023546118
-0.007833807 -0.067807406 -0.03666258 -0.042113476 0.07921256 -0.121424854 0.077840246 0.02875498
0.10430494 0.13364175 0.102476865 -0.025951017 -0.09877226 -0.03966115 -0.036749404 0.010434396
0.060711786 0.10188474 -0.11666286 -0.0087036155 -0.10739349 0.019434635 -0.042500496 -0.09173758
0.13165124 0.031942096 -0.12714411 -0.09515543 0.002798974 -0.0662853 -0.10722895 0.26627082
-0.111414045 0.23897433 -0.05040466 -0.12590909 0.05109687 0.017646238 0.018531276 -0.04086635
00000000: c256 7ebe f763 2abe 18ab 2c3c 2ec3 b73c
00000010: 6939 86be 2894 f53a e887 83bd b6e1 b93c
00000020: e818 8bbd 7020 1bbe 60fd b6bd 38d8 113e
00000030: e5a0 49be 0ab8 36be 388b 0cbe 4e96 f0bd
00000040: 8bdb 1fbd da49 37be feac d43e f262 b3bd
00000050: f97f a03d 6a30 1bbe d3eb 74be af85 dfba
00000060: 34f1 143e ac95 85be 1dd5 86bd 2ef8 c5bd
00000070: 9cd3 85be 8a34 0bbe 695d 9e3d 129e f3bc
00000080: d452 84bd cefa a0bc dea6 843d 7ecf a73d
00000090: 980d 6e3e ef13 c6bd a398 963e 4c85 3a3e
000000a0: 45df 6ebe 3ff6 49bc e6ee 4d3b b2d4 683e
000000b0: 8475 b039 2abe 193e 415e 263e 5649 31be
000000c0: 1201 8d3c 1df2 ef3d 6f58 113b b04c 613d
000000d0: c89a 743a aa5a e9bd 17f7 3c3e 4636 9f3e
000000e0: 522c 1b3e a992 85bd eaec 733d 6289 aebc
000000f0: d1d0 4fbd 34e1 d23d 87f6 d9bd 10d7 1cbe
00000100: 7c88 b0bc 1297 943e b838 b2bd 5643 36bd
00000110: 5098 be3d 3cc8 413a de1e 1ebd bae5 88bb
00000120: 9e29 b4bd 12b3 94bd ef14 0d3d 08d5 ccbd
00000130: 12ef 263e e42f ea3d 601f 7bbe 4c6d babd
00000140: ca64 3e3e 3807 c5bc b8e6 683d 5e63 893b
00000150: 93df 9b3e df6d 9a3d fe82 05be 94f3 8bba
00000160: 2cde 97bd e322 d9bd adce 893e c9ab ec3d
00000170: a7eb ba3e dcc1 75bd cefa 22bc c874 22be
00000180: 6fac e9bd 011a 823e e2b9 c4bc f088 7e3c
00000190: f7f8 493c 6273 4d3e a07e a4bc ea36 8d3d
000001a0: 9df9 49be 6cd4 1fbe b0f7 65bd ef42 e3bd
000001b0: 6ce0 963d 9495 f23c d4e4 153e 3c83 89bd
000001c0: 2cca 8a3e c2f0 cdbd 7e0a fd3c 008a 883d
000001d0: 250c abbd 2ff1 f0bc aa5e f9bd 558d ff3b
000001e0: 8e22 d5bd ee4a dc3c 1b18 223c 5e57 7c3d
000001f0: b0ae 033e b70a d9bc e0f5 71bd 25e7 a4bd
00000200: 8487 a9bd d657 4abe 70a1 5ebc b553 523e
00000210: e838 4e3d 5cb6 69be a069 10be 5884 91bd
00000220: c400 113e 9af2 0cbe 0fdd 25be 0e6f 593e
00000230: 4af1 65bd c8ba 5cbd 9886 1c3e 8793 043e
00000240: d170 4dbe 7b21 353e f02d f4bd b44d 9b3c
00000250: 06ae 2d3d 130c 76be 9c99 e93d 8a1d 2d3d
00000260: 4dd9 153c 023e 13be 7890 e3bd 70b1 74bd
00000270: cce8 bdbd 64fb 583d 3cf8 dcbd 252c 57bd
00000280: 0875 123e 67a1 c8bc eed4 143e dfe3 833d
00000290: 5cb9 803d b3bf 12be 4434 d8bb 0adc cfbe
000002a0: 045a 533d e647 90bd f04e ce3d aaef c73d
000002b0: 845c 83bc 1ac9 463e f560 55be 27c1 1ebd
000002c0: a896 423d 5a9c 5c3c 68e4 8d3d 7efa 503e
000002d0: b7b0 7d3b 7088 d8bd 3b48 c53d b902 a3bd
000002e0: 9684 5ebd ac4a 4c3c 063b 38be bb32 943e
000002f0: 3627 8ebe bc60 85be 7a57 ae3e d43f 323e
00000300: 22ae 99bc fe98 edbc c0c7 6638 e27a e8bd
00000310: 51ee 8c3e 5423 c63d 5b7a c13e fa2b 26bd
00000320: d69b 823d e017 50bd c73d aebd 9ee0 7ebd
00000330: 10d8 89bc 292c c5bc 0a52 313e d09c c5bd
00000340: bca3 87bd 5e4e adbd 9899 ba3d 003a 6a3c
00000350: 69e7 283d 6054 17be 07fe 403e cae3 c0bc
00000360: 5e59 00bc 9cde 8abd 802b 16bd 2e7f 2cbd
00000370: 323a a23d 98ad f8bd b56a 9f3d 908f eb3c
00000380: d49d d53d 62d9 083e 64df d13d 3a97 d4bc
00000390: 1c49 cabd bb73 22bd 8b86 16bd 07f5 2a3c
000003a0: ecac 783d f2a8 d03d f0ec eebd 9c99 0ebc
000003b0: 1ef1 dbbd 6235 9f3c 0015 2ebd eae0 bbbd
000003c0: 95cf 063e b7d5 023d 1132 02be dae0 c2bd
000003d0: fe6e 373b 96c0 87bd da9a dbbd a654 883e
000003e0: 0c2d e4bd b0b5 743e 1e75 4ebd 50ee 00be
000003f0: f44a 513d d88e 903c e7ce 973c 7963 27bd

fc3.bias f4 [10]
-0.051649153 -0.056502383 -0.14814685 -0.013648274 -0.14770573 -0.00645343 -0.14436316 0.037947834
0.17281972 0.0037902764
00000000: 108e 53bd 0b6f 67bd cfb3 17be 039d 5fbc
00000010: 2c40 17be 4b77 d3bb f0d3 13be 306f 1b3d
00000020: a7f7 303e 4966 783b
