src/global_mnist_cnn.pt (torch, 181781 bytes, 10 tensors)

conv1.weight f4 [6, 1, 5, 5]
0	0xbe2a4fd7	-0.16632019
1	0xbe2b18fa	-0.16708747
2	0xbd8f682d	-0.07002292
3	0x3e4705d8	0.19435823
4	0x3b70e0cd	0.0036755085
5	0x3df72197	0.12066954
6	0x3a734667	0.0009280205
7	0x3d6e0d40	0.058118105
8	0xbd3b48e7	-0.045723822
9	0x3c867fe7	0.01641841
10	0xbe3afcbf	-0.18260477
11	0x3dfb8c43	0.12282612
12	0x3cf0bf00	0.02938795
13	0xbd90aa57	-0.0706374
14	0x3e3ed862	0.18637231
15	0xbe2d5973	-0.16928653
16	0x3d4e1733	0.050315093
17	0xbdf197bd	-0.1179652
18	0x3daaa8ed	0.08333001
19	0x3e012a30	0.1261375
20	0xbe21e1f5	-0.15808852
21	0x3de9da4d	0.11418591
22	0x3d16c440	0.036808252
23	0x3c326480	0.010888219
24	0x3df5a063	0.11993482
25	0x3db149ea	0.08656676
26	0xbdd8768d	-0.10569487
27	0x3d42b313	0.04753406
28	0x3e3f8df7	0.18706499
29	0xbd0ff373	-0.03514428
30	0xbe3673dd	-0.17817636
31	0xbce88a00	-0.028386116
32	0x3e2373c0	0.15962124
33	0xbca57af3	-0.020200228
34	0x3e279795	0.16366418
35	0xbe357a27	-0.17722379
36	0xbcf1584d	-0.02946105
37	0xbd151e67	-0.036405947
38	0xbe4aef77	-0.19817911
39	0xbe22d122	-0.1590009
40	0x3c9f204d	0.019424582
41	0xbe31f512	-0.17378643
42	0xbe1bae77	-0.15203272
43	0xbcec411a	-0.028839637
44	0xbe181ef8	-0.14855564
45	0x3dde6c8d	0.10860548
46	0x3cb49ccd	0.022047425
47	0xbdc6449a	-0.096810535
48	0x3c2ea8cd	0.010660362
49	0x3c75e467	0.015008069
50	0x3e26aff2	0.16278055
51	0x3d4e06b3	0.050299358
52	0xbe24c84b	-0.1609203
53	0xbc100833	-0.008791017
54	0xbe3c909d	-0.1841454
55	0xbd63143a	-0.05543921
56	0xbc7a6ee7	-0.01528523
57	0xbc336400	-0.010949135
58	0x3de26b9a	0.110556796
59	0x3d429e2d	0.04751413
60	0x3e2f96ab	0.17147319
61	0xbdf7ee33	-0.1210598
62	0xbc310980	-0.010805488
63	0x3bf450cd	0.0074559213
64	0x3e14c240	0.14527225
65	0x3e2a5d77	0.16637217
66	0xbe159ea8	-0.14611304
67	0xbdfb6bc3	-0.12276413
68	0xbba93c00	-0.0051646233
69	0xbd86b187	-0.065768294
70	0xbd9da49a	-0.07697411
71	0x3dea5b4d	0.114431955
72	0xbe38679b	-0.18008272
73	0xbdeeb4e7	-0.11655598
74	0xbc1d6267	-0.0096059805
75	0x3d917937	0.07103198
76	0x3d6b302d	0.05741899
77	0x3e005873	0.1253374
78	0x3e2c44e7	0.16823159
79	0xbde1d593	-0.11027064
80	0x3ca1f04d	0.019767905
81	0x3daa133d	0.08304451
82	0x3cd44ac0	0.02591455
83	0xbe308237	-0.17237173
84	0x3d51dbed	0.05123513
85	0xbd3bfc27	-0.045894768
86	0x3e1dbde2	0.15404466
87	0xbe037e7b	-0.12841217
88	0x3c4df967	0.012571669
89	0xbde4b1c3	-0.11166718
90	0x3ce311a7	0.027718378
91	0xbd9f1153	-0.07766976
92	0xbdc65ad7	-0.09685295
93	0xbe1c446b	-0.15260474
94	0xbe0c6c8b	-0.13713281
95	0x3cc852cd	0.024453545
96	0x3d96b400	0.07358551
97	0x3d547f8d	0.051879454
98	0xbaee819a	-0.0018196583
99	0xbdbc8a77	-0.092060976
100	0xbdebe8ed	-0.115190364
101	0x3d9ea450	0.07746184
102	0x3e02a59b	0.12758486
103	0xbe2ec92f	-0.17068933
104	0xbd994a5d	-0.07484887
105	0x3e0d5070	0.13800216
106	0x3d03a18d	0.03213649
107	0xbbf036cd	-0.0073307515
108	0xbba3ce67	-0.0049989703
109	0xbcde2667	-0.027117921
110	0xbe19f022	-0.1503301
111	0xbdbda1ed	-0.092594005
112	0x3dc12e80	0.09432697
113	0x3e45219a	0.19251099
114	0xbdbf69ea	-0.093463734
115	0x3c9c0673	0.019046044
116	0xbc8ebbe7	-0.017423583
117	0x3e43fa77	0.19138514
118	0x3e161500	0.14656448
119	0xbd021480	-0.03175783
120	0xbc4cb780	-0.012494922
121	0x3de9a78d	0.11408911
122	0x3e42ffff	0.19042967
123	0x3db46240	0.08807802
124	0xbe1bf910	-0.15231729
125	0xbbee3b00	-0.007270217
126	0x3da732e3	0.08164003
127	0x3de86147	0.11346679
128	0x3d557c00	0.05212021
129	0x3dfb0f6a	0.122587994
130	0x3c89d8cd	0.016827011
131	0xbe2a5810	-0.16635156
132	0x3afcef33	0.0019297361
133	0xbd7e2c1a	-0.062053777
134	0xbd993323	-0.07480457
135	0x3ddcc8b3	0.10780468
136	0x3d68fba0	0.056880593
137	0x3dca73e7	0.09885388
138	0x3e3ed3c7	0.18635474
139	0xbd923770	-0.0713948
140	0x3d6cc527	0.057805207
141	0x3e01d217	0.12677799
142	0x3dd0bd3a	0.10192342
143	0x3e06ca57	0.13163124
144	0xbe14bee2	-0.14525941
145	0xbd196f67	-0.037459757
146	0x3c18611a	0.009300495
147	0x3d9c63ba	0.07636209
148	0x3ce88200	0.028382301
149	0xbc224ce7	-0.00990603

conv1.bias f4 [6]
0	0xbe022683	-0.12710004
1	0x3e2f7888	0.17135823
2	0x3e34afb7	0.17645155
3	0xbe079a2d	-0.13242407
4	0xbe250fb2	-0.16119269
5	0xbda93f03	-0.08263972

conv2.weight f4 [16, 6, 5, 5]
0	0xbd96b1c1	-0.073581226
1	0x3d805a7d	0.06267259
2	0x3d902a33	0.07039299
3	0xbd1bdcea	-0.038052477
4	0xbd8edd84	-0.069758445
5	0xbd867c8a	-0.06566723
6	0x3d2fc6d0	0.04291421
7	0xbd870f28	-0.06594688
8	0x3da2687e	0.079300866
9	0xbc29fd84	-0.010375384
10	0x3bb02fc3	0.0053767874
11	0xbd47b019	-0.048751924
12	0x3adf0c8c	0.0017017289
13	0xbcf67b5e	-0.030088123
14	0x3d8443ea	0.06458266
15	0xbbfa1bf3	-0.0076327263
16	0x3d59cc9d	0.05317365
17	0xbd007c38	-0.031368464
18	0xbcba7ae2	-0.022763673
19	0x3d1ef058	0.03880343
20	0xbd900f8b	-0.070342146
21	0xbd50d15f	-0.05098092
22	0xbd049900	-0.032372475
23	0xbd9cac07	-0.07649999
24	0xbd173279	-0.03691337
25	0x3d0bacb4	0.03410025
26	0xbd9a8619	-0.07545108
27	0x3d7cfbf1	0.061763708
28	0xbb91026d	-0.004425338
29	0xbcabd144	-0.020973809
30	0xbd7290f5	-0.059220273
31	0x3d40431f	0.04693901
32	0xbd2c4a52	-0.042063065
33	0xbc8b3e62	-0.01699752
34	0x3d1b7aa3	0.037958752
35	0x3d1d8adf	0.038462516
36	0x3d280751	0.041022602
37	0xbd922271	-0.071354754
38	0x3b9ab689	0.004721467
39	0x3d1c1e1f	0.038114663
40	0x3c4efc0f	0.012633338
41	0xbcbe15ef	-0.023203818
42	0xbd3c77fd	-0.046012867
43	0x3d76ea45	0.06028201
44	0x3c8fcf81	0.017555
45	0x3d40add1	0.047040764
46	0x3cdc36b9	0.026881563
47	0xbd3a1e7f	-0.04543924
48	0xbd9732a4	-0.07382706
49	0xbd7092df	-0.058733817
50	0xbd8b3142	-0.067965046
51	0x3cf7bcdd	0.030241424
52	0xbd8907d9	-0.0669095
53	0x3d0237a1	0.031791333
54	0xbbbc6565	-0.005749392
55	0x3d9e2f88	0.077239096
56	0x3d9a4eb0	0.0753454
57	0x3cc63ef0	0.024199933
58	0x3da53e52	0.08068527
59	0xbd331f0b	-0.043730777
60	0x3ce2a10b	0.027664682
61	0x3b46e1f4	0.003034708
62	0x3c51b2c6	0.012798971
63	0x3d959ab4	0.07304898
64	0xbda65806	-0.08122258
65	0xbd004e4d	-0.031324673
66	0xbd480b1e	-0.048838727
67	0x3d352b63	0.04423083
68	0xbd7a61df	-0.061128493
69	0x3cc0d104	0.023537166
70	0x3d1cabb4	0.038249686
71	0xbd8e49e2	-0.06947686
72	0x3d202dc7	0.039106157
73	0xbd7717d4	-0.06032546
74	0xbd1ab6dd	-0.03777205
75	0xbc543f71	-0.012954579
76	0xbda62343	-0.081121944
77	0x3d5a20ee	0.05325406
78	0x3d47df52	0.04879696
79	0xbbde371d	-0.0067814724
80	0x3c5d91e6	0.013523554
81	0xbda37c2d	-0.07982669
82	0x3d5e8029	0.05432144
83	0x3d5cb174	0.05388017
84	0xbd9b5731	-0.0758499
85	0xbd23a96e	-0.039956503
86	0x3d5e02c7	0.054201867
87	0x3d50aa62	0.05094374
88	0xbbc7da01	-0.006098986
89	0xbd5cd77e	-0.053916447
90	0x3d60bacf	0.054865655
91	0x3ac29385	0.001484499
92	0x3c2da833	0.010599184
93	0x3d65d81d	0.056114305
94	0xbda7212f	-0.08160626
95	0xbca67e05	-0.020323763
96	0x3d5e7d92	0.054318972
97	0xbc9e3c7b	-0.019315949
98	0x3d99792a	0.07493813
99	0xbda445a1	-0.08021093
100	0xbd97dca2	-0.07415129
101	0xbca4a70c	-0.020099185
102	0xbab588b3	-0.0013849944
103	0x39255c69	0.00015770052
104	0xbcb90d56	-0.022589367
105	0xbd77e4ef	-0.060521062
106	0x3cc4dab9	0.024030076
107	0x3da51907	0.08061414
108	0xbd14bb0e	-0.0363112
109	0x3d051d0c	0.032498404
110	0x3d8dd347	0.069250636
111	0x3d26f6c3	0.040762674
112	0xbd3dfea2	-0.046385415
113	0xbc527c68	-0.012847044
114	0xbd4a145c	-0.049335822
115	0x3d2868af	0.04111546
116	0xbcd40c44	-0.025884755
117	0xbcf8e870	-0.030384272
118	0x3d3d18d4	0.046166256
119	0xbcdf8bad	-0.027288282
120	0x3c100e2c	0.008792441
121	0x3c966cb7	0.018362386
122	0x3c003d54	0.007827122
123	0xbb3fb897	-0.0029254311
124	0xbd321f36	-0.043486796
125	0x3da1ea13	0.07905974
126	0x3ccd83bc	0.02508723
127	0xbda2af0b	-0.07943543
128	0x3d92aa46	0.07161383
129	0x3b7667ea	0.0037598559
130	0x3c725cf7	0.014792672
131	0xbd9d65f4	-0.07685462
132	0x3c948e35	0.018134216
133	0x3d8523dd	0.06500981
134	0x3d5abb4c	0.053401276
135	0x3d640f70	0.055678785
136	0xbc927686	-0.017878782
137	0x3d869d9f	0.065730326
138	0xbcefc37b	-0.029268017
139	0xbca997ad	-0.020702207
140	0x3da6a279	0.08136458
141	0xbd635eb0	-0.055510223
142	0xbd968610	-0.07349789
143	0xbc57eb79	-0.0131787
144	0x3d43c392	0.047793932
145	0x3ca0236b	0.019548139
146	0x3c362ed1	0.01111956
147	0xbd36179e	-0.044456117
148	0xbd103389	-0.035205398
149	0x3d2adf4c	0.04171686
150	0xbd04f5d1	-0.03246099
151	0x3d99a24f	0.07501661
152	0xbd8903b8	-0.066901624
153	0x3cf23f59	0.029571222
154	0x3d827d5e	0.06371568
155	0xbbc66694	-0.0060547087
156	0xbd7d46e2	-0.061835177
157	0xbd84de87	-0.06487756
158	0x3ceba5df	0.028765617
159	0xbd545055	-0.051834423
160	0xbd9112e0	-0.07083678
161	0x3d8b5af5	0.06804458
162	0xbcdb1075	-0.026741246
163	0x3d7cd9f7	0.061731305
164	0xbb238699	-0.0024952053
165	0xbcd75423	-0.026285237
166	0x3d978d6b	0.0740002
167	0xbd72aee9	-0.05924884
168	0xbd052ac9	-0.032511506
169	0x3d6fdf89	0.05856279
170	0xbd3c7bbf	-0.04601645
171	0x3d3be8d4	0.04587634
172	0xbc45dcc1	-0.012076558
173	0xbcf90f7c	-0.030402891
174	0xbbbbbca0	-0.005729273
175	0x3cc3ed2f	0.023916809
176	0xbbc57d63	-0.00602691
177	0x3cf4f8e1	0.029903831
178	0x3d845483	0.06461432
179	0x3d473b88	0.048640758
180	0xbc91811b	-0.017761758
181	0x3d41c853	0.047310185
182	0x3d2fc86f	0.042915758
183	0x3cd4c8db	0.025974682
184	0xbd2a8d45	-0.04163863
185	0x3d22ba55	0.03972848
186	0xbd552800	-0.0520401
187	0x3d054ee5	0.032545943
188	0xbc49b298	-0.0123106465
189	0x3d267856	0.040642105
190	0x3da0c09a	0.07849236
191	0x3bfdfe86	0.007751289
192	0x3d2c2704	0.042029396
193	0x3d99a20f	0.07501613
194	0xbd81a47d	-0.06330202
195	0xbb8d7ef9	-0.004318115
196	0x3ccde32a	0.025132734
197	0xbd062c18	-0.032756895
198	0x3d9ecbcd	0.07753716
199	0x3cac2f82	0.021018747
200	0xbd80268c	-0.06257352
201	0x3c97cff9	0.018531786
202	0x3a0547c3	0.00050842407
203	0xbd4a29c3	-0.049356233
204	0xbd67c3ca	-0.056583203
205	0x3d802d28	0.06258613
206	0xbc0e6c35	-0.008692791
207	0x3beaff63	0.0071715578
208	0xbd903814	-0.07041946
209	0xbbe73525	-0.007055896
210	0xbd8839ea	-0.06651671
211	0x3c7ba118	0.015358232
212	0x3d5664a3	0.05234207
213	0xbd5deb0f	-0.054179247
214	0xbce777d0	-0.028255373
215	0xbb076ba1	-0.0020663517
216	0x3c17082d	0.009218258
217	0xbcc86918	-0.024464175
218	0x3da03f9a	0.07824631
219	0xbd16ff05	-0.0368643
220	0xbccb1c38	-0.02479373
221	0x3bfec157	0.0077745127
222	0xbb426578	-0.002966253
223	0x3d3c4ae3	0.045969855
224	0xbda4b48e	-0.080422506
225	0xbc98c8c2	-0.018650416
226	0xbd497bc6	-0.049190305
227	0x3cef021d	0.029175812
228	0xbd51589d	-0.0511099
229	0x3d7562ab	0.05990855
230	0xbd83b3df	-0.06430792
231	0x3d81695b	0.06318923
232	0x3da6b1e6	0.081394
233	0x3d194446	0.037418626
234	0xbd6368ef	-0.055519994
235	0x3d4c01a5	0.049806256
236	0x3cecba61	0.028897466
237	0x3da18e09	0.07888419
238	0x3c90e471	0.017687054
239	0xbd84e0be	-0.06488179
240	0x3d984f79	0.07437033
241	0xbae313f2	-0.001732467
242	0xbd9d0a5f	-0.07667994
243	0x3aff5f40	0.0019483343
244	0xbd8e6c85	-0.06954292
245	0x3d76f39e	0.060290925
246	0xbd7257d0	-0.059165776
247	0x3d04122d	0.032243896
248	0x3a5b9581	0.0008376465
249	0x3d97af50	0.07406485
250	0xbc5bb62a	-0.0134101305
251	0x3ab97747	0.0014149927
252	0x3d69787e	0.056999676
253	0xbba491c1	-0.005022258
254	0x3d3a3bf4	0.045467332
255	0xbb594c67	-0.0033157112

conv2.bias f4 [16]
0	0xbcdf781f	-0.027278958
1	0xbc7a9113	-0.015293377
2	0xbd983595	-0.07432095
3	0xba4d502c	-0.0007832076
4	0x3d995e39	0.07488675
5	0x3c282007	0.010261542
6	0x3d812aba	0.063069776
7	0xbc579b6a	-0.013159612
8	0xbc8f9a9e	-0.017529782
9	0x39772f24	0.00023573317
10	0xbc8655c7	-0.016398324
11	0xbcb69d69	-0.022291856
12	0xbd412619	-0.047155473
13	0xbda4eee6	-0.08053379
14	0xbce2675c	-0.027637176
15	0x3d9d4dbc	0.07680842

fc1.weight f4 [120, 256]
0	0x3d72a8a6	0.059242867
1	0x3d2ff9a8	0.0429627
2	0x3cad6f44	0.02117122
3	0xbbeddcf0	-0.007259004
4	0x3bedb370	0.0072540566
5	0xbd05c68e	-0.03266006
6	0x3c99d528	0.018778399
7	0x3a804a80	0.0009787828
8	0xbcc9a560	-0.02461499
9	0xbd04d5ba	-0.032430388
10	0x3d592588	0.05301431
11	0xbd3df116	-0.046372496
12	0x3b032020	0.0020008162
13	0xbd29444a	-0.04132489
14	0x3ccf0bc8	0.025274172
15	0x3d4320d2	0.04763872
16	0xbcda5c94	-0.026655473
17	0x3d283d7c	0.04107426
18	0x3c8dc148	0.017304078
19	0xbd235646	-0.0398772
20	0xbd1704ce	-0.036869816
21	0x3d6db372	0.05803246
22	0xbcab88b8	-0.020939216
23	0x3d00c2d8	0.031435817
24	0xbd13a616	-0.036047064
25	0x3d5dfe5e	0.05419766
26	0x3ca7b31c	0.020471148
27	0x3ce9d5b0	0.028544277
28	0x3d5bdbde	0.05367648
29	0xbca0e718	-0.019641444
30	0xbd5e7f24	-0.05432047
31	0xbcc36218	-0.023850486
32	0x3d55a20a	0.052156486
33	0x3d370552	0.04468281
34	0x3849f000	4.814565e-05
35	0xbd3cfd4a	-0.046139993
36	0x3d69bdd8	0.057065815
37	0x3c4c24c8	0.012459941
38	0xbb92aa20	-0.004475847
39	0xbd01626c	-0.031588003
40	0xbd0a8124	-0.033814564
41	0x3d696e90	0.056990206
42	0xbd3a693a	-0.045510508
43	0xbd03fd0e	-0.032223754
44	0xbd13efba	-0.036117293
45	0x3cac23cc	0.021013163
46	0x3d22403e	0.039612047
47	0x3c2f10e0	0.010685176
48	0xbd6c81d0	-0.057740986
49	0xbbfde1e0	-0.0077478737
50	0x3c15d378	0.009144656
51	0x3c441fe0	0.01197049
52	0xbc476c08	-0.012171753
53	0x3d2bb54a	0.041920938
54	0x3cbb771c	0.022883944
55	0xbc49a008	-0.012306221
56	0xbbcc3ef0	-0.0062330887
57	0xbd4fe35a	-0.05075393
58	0xbd02804c	-0.031860635
59	0xbd4360a0	-0.04769957
60	0x3d73eff2	0.059555
61	0xbc9b82d4	-0.018983282
62	0xbd619c32	-0.0550806
63	0x3d3d0c92	0.046154566
64	0x3ca50e64	0.020148464
65	0xbcba6240	-0.022751927
66	0x3c6daf40	0.014507115
67	0xbd7fb1a8	-0.062425286
68	0x3d133e00	0.0359478
69	0xbcb3208c	-0.021866105
70	0xbcb9f2e4	-0.022698827
71	0x3b4c0080	0.0031128228
72	0xbce2cce0	-0.027685583
73	0x3d23a3f8	0.039951295
74	0xbc368228	-0.01113943
75	0xbd71daf0	-0.059046686
76	0x3d667fa2	0.056274064
77	0xbcf30674	-0.029666163
78	0x3b910020	0.0044250637
79	0xbd71ff38	-0.059081286
80	0x3d3eb6f0	0.04656118
81	0x3cc3f7c4	0.023921855
82	0x3d76d37e	0.06026029
83	0x3d457132	0.048203655
84	0xbd2574da	-0.04039464
85	0xbc8093b4	-0.01569543
86	0xbc59d7f0	-0.013296112
87	0xbccee8fc	-0.02525758
88	0x3cd8a418	0.026445433
89	0xbd200e96	-0.03907641
90	0xbbd322a0	-0.0064433366
91	0xbc894dfc	-0.016760819
92	0xbc3a44d0	-0.011368945
93	0xbd622a64	-0.055216208
94	0xbcbce87c	-0.023060076
95	0x3d3a0322	0.045413144
96	0xbd1e4c90	-0.038647234
97	0xbbb1ed30	-0.0054298863
98	0xbd207c92	-0.0391813
99	0x3a9ec2c0	0.0012112483
100	0xbd093136	-0.033494197
101	0x3c066aa0	0.008204132
102	0xbc8d0ef4	-0.017219044
103	0xbbe3a9e0	-0.006947741
104	0xbc397488	-0.011319287
105	0xbc042bf8	-0.008067124
106	0x3cfe594c	0.03104844
107	0x3c7e8d18	0.015536569
108	0x3d4c15b0	0.04982537
109	0xbd74fd14	-0.059811667
110	0xbc3e89c0	-0.011629522
111	0xbcedf9d0	-0.029049784
112	0xbc451f90	-0.012031451
113	0xbd094340	-0.0335114
114	0x3d25b744	0.04045798
115	0xbb80b540	-0.0039278567
116	0x3bbcc900	0.0057612658
117	0x3ca13e30	0.019682974
118	0xbc76a3f8	-0.015053742
119	0xbcf966e4	-0.03044457
120	0x3d79a0aa	0.060944237
121	0x3d4ba7f2	0.049720712
122	0xbd17d3f4	-0.03706737
123	0x3d71137c	0.058856472
124	0x3d5ca190	0.053865016
125	0xbb31b020	-0.0027113035
126	0xbd7e2a60	-0.06205213
127	0xbd0e1ffa	-0.034698464
128	0x3aa13d40	0.0012301579
129	0xbd6c91ee	-0.057756357
130	0xbd46835c	-0.048465118
131	0xbca7c660	-0.020480335
132	0xbd1968ea	-0.03745357
133	0x3c4320e0	0.0119096935
134	0xbd76f1de	-0.060289256
135	0x3d46258c	0.04837565
136	0x3d3b06ce	0.045660786
137	0xbd38451c	-0.044987783
138	0xbb881700	-0.0041531324
139	0xbd591718	-0.05300054
140	0x3cb287bc	0.021793239
141	0x3cb7f6f0	0.022456616
142	0xbd1075f0	-0.035268724
143	0x3c2a58c8	0.010397144
144	0x3c8199a8	0.01582034
145	0xbc91f374	-0.017816283
146	0x3b912690	0.004429646
147	0xbd40e112	-0.047089644
148	0xbc006420	-0.007836372
149	0xbd185bac	-0.0371968
150	0xbd07ab42	-0.03312231
151	0xbc2a5148	-0.0103953555
152	0xbd1014f4	-0.035176232
153	0xbc687a18	-0.014189266
154	0xbd1a0b2a	-0.037608303
155	0xbd778bea	-0.060436167
156	0x3d2c696c	0.042092726
157	0xbc81aba4	-0.015828915
158	0x3b32ef40	0.0027303249
159	0xbd46d06e	-0.048538618
160	0x3bda8200	0.0066683292
161	0x3d01b018	0.031662077
162	0xb9240e00	-0.00015645474
163	0x3d523e2e	0.05132883
164	0x3d370aee	0.044688158
165	0xbd705bf2	-0.058681436
166	0x3d32fc2c	0.04369752
167	0x3d68243e	0.05667519
168	0xbd4506f6	-0.04810234
169	0xbcbff27c	-0.023431055
170	0xbb92bc00	-0.0044779778
171	0xbd3e7822	-0.046501286
172	0xbcd73d84	-0.02627445
173	0xbd7c1e14	-0.061552122
174	0xbccfdc00	-0.025373459
175	0xbac9e2c0	-0.001540266
176	0x3cfe9ac0	0.03107965
177	0x3d04e958	0.032449096
178	0x3ce62198	0.02809219
179	0xbad915c0	-0.0016562268
180	0x3cfbd250	0.030739933
181	0xbc050b60	-0.008120388
182	0x3d449548	0.04799393
183	0xbc5b5580	-0.013387084
184	0xbd62cbd8	-0.05537018
185	0x3d5deeb2	0.054182716
186	0xbcda6080	-0.026657343
187	0x3c8998bc	0.016796462
188	0xbc4cee88	-0.012508042
189	0xbd606260	-0.054781318
190	0xbd329110	-0.043595374
191	0x3d23cedc	0.0399922
192	0xbcaf7c00	-0.021421432
193	0x3ba5ac10	0.005055912
194	0x3c87a23c	0.016556852
195	0xbd766064	-0.06015052
196	0x3cbcef30	0.023063272
197	0x3c0a6fe0	0.008449525
198	0xbd717846	-0.058952592
199	0x3d3177a0	0.043326974
200	0x3cba6b28	0.022756174
201	0x3bf3c630	0.0074393973
202	0x3d6b3f76	0.057433568
203	0x3d25c1f0	0.040468156
204	0xbd4a8b9c	-0.049449548
205	0x3d2ec2fa	0.042666413
206	0xbd102218	-0.035188764
207	0x3d233be2	0.03985203
208	0x3d66397c	0.056207165
209	0xbc7b03a8	-0.015320696
210	0x3c902210	0.017594367
211	0x3b2f8440	0.0026781708
212	0x3d1f69fe	0.03891944
213	0xbd1fa676	-0.03897711
214	0x3cd51f20	0.026015818
215	0xbc8a97a0	-0.016918004
216	0x3d51544e	0.05110579
217	0x3d11a78a	0.03556017
218	0x3d663670	0.05620426
219	0x3d4b8caa	0.049694695
220	0xbb7d31c0	-0.003863439
221	0x3cbd8150	0.02313295
222	0x3d7b0114	0.061280325
223	0xbced1a60	-0.02894324
224	0xbc8010b8	-0.015632972
225	0xbd525254	-0.051348045
226	0xbc83b180	-0.01607585
227	0x3d70db1e	0.058802716
228	0x3cc1ba8c	0.023648523
229	0xbcf8baf8	-0.030362591
230	0xbd4eb544	-0.050465837
231	0x3ced7474	0.028986193
232	0x3c8c0ed0	0.017096907
233	0xbd29c002	-0.04144288
234	0x3ca63ca0	0.02029258
235	0xbd63ec62	-0.055645354
236	0x3d4d9e28	0.050199658
237	0x3d65cf12	0.05610568
238	0xbcdb2c08	-0.026754394
239	0xbd297332	-0.041369624
240	0x3d4cb6ee	0.049979143
241	0x3d382284	0.04495479
242	0xbd537a62	-0.051630385
243	0x3d048456	0.032352768
244	0xbc0c1a60	-0.00855121
245	0xbc2e3c90	-0.010634556
246	0x3d4383c4	0.047733083
247	0x3c9254d8	0.017862722
248	0xbc8f8fd8	-0.017524645
249	0xbd42b0be	-0.047531836
250	0x3d4ca3f4	0.049961045
251	0xbc3fa930	-0.011698052
252	0xbcbff880	-0.023433924
253	0x3d14edda	0.036359645
254	0x3cdf9664	0.027293392
255	0x3bac43c0	0.0052571

fc1.bias f4 [120]
0	0xbd7c6f04	-0.06162931
1	0x3c0ba198	0.008522414
2	0x3b4d3860	0.003131412
3	0x3ca076c0	0.019587874
4	0xbccb8460	-0.024843395
5	0xbd2b8798	-0.04187736
6	0x3aa03800	0.001222372
7	0xbce6d2d8	-0.02817671
8	0x38895000	6.54757e-05
9	0xbccf5e90	-0.025313646
10	0x3d402fc4	0.046920553
11	0xbd46e0c0	-0.048554182
12	0x3b89b180	0.004202068
13	0x3d5f93fa	0.05458448
14	0xbc4811c8	-0.012211271
15	0xbd1f38ce	-0.038872533
16	0xbd4f6aa2	-0.050638802
17	0xbcbe539c	-0.023233227
18	0x3b28abe0	0.002573721
19	0x3d7aaba4	0.061198846
20	0x3c021c78	0.007941358
21	0xbcab2d88	-0.020895734
22	0x3d167e60	0.036741614
23	0xbce67a38	-0.02813445
24	0x3d12b71c	0.035819158
25	0x3d33670e	0.043799452
26	0xbd168d4c	-0.036755845
27	0xbd5c5494	-0.053791597
28	0xbd2c2922	-0.042031415
29	0xbccfb2c4	-0.025353797
30	0x3cb8b6a8	0.022548035
31	0x3c47e518	0.012200616
32	0x3d67eea2	0.056624062
33	0x3c2a7f20	0.0104062855
34	0xbc035940	-0.008016884
35	0x3cf5a654	0.029986538
36	0x3d7a1558	0.06105551
37	0x3d6f9686	0.05849316
38	0x3d7a575a	0.06111846
39	0x3c912ad0	0.01772061
40	0x3d0933de	0.03349673
41	0x3d3f46e4	0.046698466
42	0x3d7a3440	0.061084986
43	0x3d0ab2d0	0.033861935
44	0xbc2d1ea0	-0.010566384
45	0xbca17bd0	-0.019712359
46	0x3ce6503c	0.02811443
47	0xbd522a7a	-0.05131004
48	0x3d7dda4e	0.06197577
49	0x3d740658	0.059576362
50	0xbcf009dc	-0.029301576
51	0x3c532400	0.012887001
52	0xbd152a56	-0.036417328
53	0xbb827a10	-0.003981836
54	0x3d26d09a	0.04072628
55	0xbb314160	-0.0027047023
56	0x3cd139a0	0.025540173
57	0xbd0e0972	-0.034676977
58	0xbc831ff8	-0.016006455
59	0xbc8630d0	-0.016380697
60	0xbd43c226	-0.047792576
61	0x3d412350	0.047152817
62	0x3b8b41a0	0.0042497665
63	0x3d4e41e8	0.05035582
64	0x3b9c0970	0.004761867
65	0x3d1d4fca	0.03840617
66	0x3d43a824	0.047767773
67	0x3d39ad34	0.045331195
68	0x3ae07f40	0.0017127767
69	0x3cfd9e6c	0.03095933
70	0xbc2fecb0	-0.010737583
71	0xbd4604e6	-0.048344515
72	0x3c9c91d8	0.019112512
73	0x3d2f8964	0.042855635
74	0xbd5f8222	-0.054567464
75	0xbd69328a	-0.056932963
76	0xbcc72d64	-0.024313636
77	0x3b4a4980	0.0030866563
78	0xbc87cc2c	-0.016576849
79	0xbcdf61b0	-0.02726826
80	0x3d67f2f2	0.056628175
81	0xbd08d594	-0.03340681
82	0xbcf88520	-0.030336916
83	0xbaa79b40	-0.0012787357
84	0xbd105c3a	-0.035244204
85	0x3cdbc104	0.026825435
86	0xbd7209ce	-0.05909138
87	0xbd698d88	-0.05701974
88	0x3c400180	0.011719108
89	0xbc5564e0	-0.013024539
90	0xbc297988	-0.010343917
91	0xbd4bf48c	-0.049793765
92	0x3b337980	0.0027385652
93	0x3d2eb87e	0.042656414
94	0x3d694a0a	0.056955375
95	0xbc8ac698	-0.0169404
96	0xbd1d0346	-0.0383332
97	0xbcb749a8	-0.02237399
98	0x3d62d54c	0.055379197
99	0xbabffa00	-0.0014646649
100	0xbd577dae	-0.052610092
101	0xbd38aca0	-0.045086503
102	0x3d5f6b52	0.054545708
103	0xbd6e1e0a	-0.058134116
104	0xbd66394c	-0.056206986
105	0x3d63bca0	0.05559981
106	0x3d260a98	0.040537447
107	0x3d3a8b56	0.045543037
108	0x3c4a8d10	0.0123627335
109	0x3d10a482	0.035313137
110	0x3d378a08	0.04480937
111	0xbd26e1e2	-0.040742762
112	0x3d13f268	0.03611985
113	0x3d19ff62	0.037597068
114	0x3d236cc4	0.03989865
115	0x3ced6684	0.028979547
116	0x3d36c0a0	0.044617295
117	0x3d71b85c	0.05901371
118	0xbd5ccfc0	-0.053909063
119	0xbb2078a0	-0.002448596

fc2.weight f4 [84, 120]
0	0x3d267fd9	0.04064927
1	0xbda7af13	-0.0818769
2	0x3c77159a	0.015080834
3	0xbd9682df	-0.073491804
4	0x3c17feb6	0.009277036
5	0xbd4640b9	-0.048401568
6	0xbccbf035	-0.024894813
7	0xbd7f9051	-0.06239349
8	0xbd2c5f73	-0.042083215
9	0xbd716486	-0.058933757
10	0x3db431e9	0.08798582
11	0xbd957d07	-0.07299238
12	0x3d216bd4	0.039409474
13	0x3cf0bd14	0.029387034
14	0x3d8041ea	0.06262572
15	0x3d194877	0.037422623
16	0xbd7e25c2	-0.062047727
17	0x3cdb04eb	0.026735744
18	0xbd9f75f5	-0.077861704
19	0xbd81b871	-0.063340075
20	0xbb92f9fc	-0.004485367
21	0x3ca124d8	0.019670889
22	0xbce43c7c	-0.027860872
23	0x3c6cc36f	0.014450892
24	0xbdb23736	-0.08701937
25	0xbcf2cb94	-0.02963809
26	0x3b81d8d3	0.003962615
27	0x3b5c2473	0.0033591061
28	0xbdb3f56f	-0.08787047
29	0xbda0822f	-0.078373305
30	0xbd02a0d3	-0.031891655
31	0x3ce46fe7	0.02788539
32	0xbda38874	-0.07985011
33	0xbd717696	-0.058950983
34	0x3dae435d	0.08508942
35	0xbc6461bb	-0.013939316
36	0x3d18611c	0.037201986
37	0xbd0a21f3	-0.033723783
38	0x3cc6d4ff	0.024271486
39	0xbd590bb1	-0.052989665
40	0x3d60d95f	0.0548948
41	0x3d5f7754	0.05455716
42	0xbd80354b	-0.06260165
43	0xbd5ccf31	-0.05390853
44	0xbcc80f52	-0.024421368
45	0x3d6cd337	0.057818618
46	0x3d8bddb4	0.06829396
47	0x3ca93e97	0.020659728
48	0x3a9138da	0.0011079565
49	0xbd8668d2	-0.06562962
50	0x3d37d640	0.04488206
51	0x3d618c4b	0.055065434
52	0x3a595ac5	0.0008291419
53	0xbd64004e	-0.055664353
54	0x3d28c764	0.04120578
55	0xbd57c97b	-0.05268238
56	0x3cc64085	0.024200687
57	0x3d6effab	0.058349293
58	0xbcd7d770	-0.026347846
59	0x3d87a224	0.06622723
60	0xbd7abb15	-0.06121357
61	0xbdafab9b	-0.08577653
62	0xbd495a57	-0.04915842
63	0x3d5e6c01	0.05430222
64	0x3bb250c0	0.005441755
65	0x3daf4419	0.085579105
66	0xbd24ed3a	-0.0402653
67	0xbd019658	-0.03163752
68	0x3b125fe4	0.0022334987
69	0x3d72a2a8	0.059237152
70	0xbd180939	-0.03711817
71	0x3db18535	0.08667985
72	0x3da41171	0.08011139
73	0xbd1a3ecd	-0.037657548
74	0xbcc3a614	-0.023882903
75	0x3d07dcf1	0.03316969
76	0x3d9f24a9	0.07770664
77	0xbd0d3f66	-0.03448429
78	0xbd3db48a	-0.046314754
79	0xbd5fd165	-0.054643054
80	0xba72ed26	-0.0009266905
81	0xbd9e2d5d	-0.07723496
82	0xbd9b9980	-0.07597637
83	0xbd7d1114	-0.061783865
84	0xbd9b6967	-0.07588463
85	0xbd701721	-0.058615807
86	0x3d79598c	0.060876414
87	0x3db21168	0.08694726
88	0xbcba1fb5	-0.022720197
89	0xbd8a85ca	-0.067637995
90	0xbd602315	-0.054720957
91	0x3d66533c	0.056231722
92	0x3db84758	0.08997983
93	0x3d393ef9	0.04522607
94	0x3d828e7b	0.06374832
95	0xbd41c100	-0.0473032
96	0xbdb15a06	-0.08659749
97	0xbd405bc3	-0.04696251
98	0x3cee9f45	0.02912868
99	0xbdb8a377	-0.090155534
100	0xbdb61215	-0.088901676
101	0x3ce4dd78	0.027937636
102	0xbd3b7e7d	-0.045774926
103	0x3d695589	0.05696634
104	0x3d33967c	0.043844685
105	0x3d4fa387	0.05069306
106	0xbc277419	-0.010220551
107	0x3d2be1f4	0.041963533
108	0x3d928699	0.07154579
109	0x3daa6b57	0.08321255
110	0x3daa14a8	0.08304721
111	0x3cb2b88b	0.021816513
112	0xbb9d8e4a	-0.004808222
113	0xbd5edeb5	-0.05441161
114	0xbd6e640e	-0.05820089
115	0x3d8487f6	0.06471245
116	0x3ce5957b	0.02802538
117	0x3b9642eb	0.004585614
118	0x3cc42847	0.023944987
119	0xbd96a8c6	-0.0735641
120	0xbd580821	-0.052742127
121	0xbd3db178	-0.046311826
122	0xbd1c9f70	-0.03823799
123	0xbc291401	-0.010319711
124	0xbdba6a56	-0.09102313
125	0x3c3ea24f	0.011635377
126	0x3d9ce476	0.07660763
127	0x3d805817	0.06266802
128	0xbd9e517d	-0.077303864
129	0x3d9aac2d	0.07552371
130	0xbc0dbbd6	-0.008650741
131	0xbb3d634e	-0.0028898302
132	0x3d570947	0.052499082
133	0x3db9d265	0.09073333
134	0xbd2b3f4a	-0.041808404
135	0xbd9a6a3b	-0.07539793
136	0x3d052ba2	0.032512315
137	0xbd15208f	-0.036408003
138	0x3d12e0a4	0.035858765
139	0x3cf026b5	0.029315332
140	0x3d3fb53b	0.046803694
141	0x3d565866	0.052330397
142	0x3d248610	0.040166914
143	0x3cf909c9	0.030400174
144	0xbd999879	-0.07499785
145	0xbd8dce45	-0.069241084
146	0xbd74b43a	-0.05974219
147	0xbda4f587	-0.08054643
148	0xbd255b00	-0.040369987
149	0x3d8d9dbc	0.06914851
150	0x3d8782be	0.06616734
151	0x3da7b609	0.08189017
152	0xbd89e3da	-0.06732912
153	0xbdba5cca	-0.09099729
154	0x3be93a3b	0.0071175373
155	0x3c34468e	0.01100315
156	0xbb6af53f	-0.0035851744
157	0x3d3e12b9	0.046404574
158	0xbb4b4433	-0.0031015992
159	0xbd6a042e	-0.057132892
160	0x3d8e7012	0.069549695
161	0x3d830159	0.063967414
162	0x3c99b6fd	0.018764013
163	0xbc2850b2	-0.0102731455
164	0x3d3a30b0	0.04545659
165	0xbcb4a010	-0.02204898
166	0x3d6889f8	0.056772202
167	0xbdb8eee2	-0.09029938
168	0x3d93ab59	0.07210416
169	0xbd83fd89	-0.06444842
170	0xbd8f4d0b	-0.06997117
171	0x3d8e415a	0.069460586
172	0x3daa106f	0.08303916
173	0x3bfac1d0	0.007652499
174	0x3da1f653	0.07908311
175	0x3d0965d1	0.033544365
176	0x3dbaed03	0.09127238
177	0x3d15edec	0.036603853
178	0x3d3e5bd2	0.046474285
179	0x3cdbcefc	0.026832096
180	0xbd2fc435	-0.042911727
181	0xbda731b1	-0.08163775
182	0xbd3229ab	-0.04349677
183	0x3d61251e	0.05496704
184	0x3cfed3e7	0.031106902
185	0x3d8dd0ad	0.06924567
186	0x3d7ed68c	0.062216327
187	0xbdabc753	-0.083876275
188	0x3cf95ad9	0.030438827
189	0xbd48f59e	-0.049062364
190	0x3d14b18b	0.03630213
191	0x3da1271d	0.078687884
192	0x3d5a1767	0.053244974
193	0x3d841cd9	0.06450815
194	0xbcaaec52	-0.02086464
195	0xbc89b445	-0.016809592
196	0x3a97e561	0.0011588746
197	0x3d3f5aea	0.04671756
198	0x3d8abb43	0.067739986
199	0x3d162bc4	0.036662832
200	0x3b54d540	0.003247574
201	0xbd40cd3e	-0.047070734
202	0xbdb1d062	-0.08682324
203	0x3d3027b0	0.0430066
204	0xbd122a19	-0.03568468
205	0x3d467ec7	0.048460748
206	0xbdad4512	-0.0846044
207	0xbd448b21	-0.047984246
208	0x3d10e7cf	0.03537732
209	0xbd8872f6	-0.06662552
210	0xbdb2aff0	-0.08724964
211	0xbd620c33	-0.055187415
212	0xbd0ba0bd	-0.03408884
213	0xbd9d034e	-0.07666646
214	0xbdb08e31	-0.08620871
215	0xbc29edd0	-0.01037164
216	0xbd1f9033	-0.03895588
217	0x3dafbe7d	0.08581255
218	0x3cece58d	0.028918052
219	0xbced1208	-0.028939262
220	0x3d325cd2	0.04354555
221	0xbd55acf0	-0.05216688
222	0x3d8d401b	0.06896993
223	0x38f1340d	0.00011501471
224	0x3ccc2371	0.024919244
225	0x3d579b5f	0.052638408
226	0xbd4e4371	-0.050357286
227	0x3dba3619	0.090923496
228	0x3c19b64e	0.009381844
229	0x3d9f8328	0.07788688
230	0x3c84141a	0.016122866
231	0xbd47e566	-0.048802756
232	0xbdaa634a	-0.08319719
233	0xbdba6f5a	-0.0910327
234	0xbda2c96e	-0.07948576
235	0x3ca8b14c	0.020592354
236	0x3d53f682	0.05174876
237	0xbcf88bfe	-0.030340191
238	0xbcb03859	-0.021511244
239	0xbcc379a5	-0.023861716
240	0x3d2d2a5c	0.042276725
241	0xbd362417	-0.04446801
242	0x3d5d637d	0.054049958
243	0x3cda7498	0.026666924
244	0xbdb14fc4	-0.08657792
245	0xbda2ee5b	-0.07955619
246	0xbc3aa003	-0.011390689
247	0x3d9a0b47	0.07521682
248	0xbd2d83cc	-0.04236202
249	0xbd2650b6	-0.040604316
250	0xbcd74622	-0.02627856
251	0xbd1b9530	-0.037984073
252	0x3b1af52c	0.002364467
253	0xbd349ef7	-0.044096913
254	0xbd47b761	-0.048758868
255	0x3d2ca0b2	0.04214544

fc2.bias f4 [84]
0	0x3b0b88a4	0.002129116
1	0xbce2ff1a	-0.027709533
2	0x3cdf1cbc	0.027235381
3	0xbd7a739a	-0.061145402
4	0xbd8ee886	-0.06977944
5	0x3ab1c818	0.0013563661
6	0x3bc30e96	0.0059526665
7	0x3cd5c0ad	0.026092852
8	0xbd742790	-0.059608042
9	0xbd8afe29	-0.067867585
10	0xbd2625f7	-0.04056355
11	0x3d43d53a	0.04781077
12	0x3da5682e	0.08076511
13	0xbd3c3392	-0.04594762
14	0x3d1eaec1	0.038740877
15	0x3d0a463f	0.0337584
16	0xbd868654	-0.0656859
17	0xbd2e832f	-0.042605575
18	0xbd667029	-0.056259308
19	0xbd610e2f	-0.054945167
20	0x3da31039	0.079620786
21	0xbda07800	-0.07835388
22	0x3d569d8c	0.052396342
23	0xbd365395	-0.044513304
24	0x3d14b607	0.036306407
25	0x3db4a4f8	0.08820528
26	0x3c7987b2	0.015230106
27	0xbc6e61f8	-0.014549725
28	0x3d43a4ea	0.047764696
29	0xbd14173e	-0.036154978
30	0xbc309041	-0.01077658
31	0xbd61bce8	-0.055111796
32	0xbc8aa52d	-0.016924465
33	0x3ceb94ae	0.02875742
34	0x3d1452f5	0.036211926
35	0xbd0d69f3	-0.03452487
36	0xbc30dfff	-0.010795592
37	0xbd733eba	-0.059385993
38	0x3d106681	0.035254005
39	0xbd9f7ef1	-0.07787884
40	0x3d25b97e	0.040460102
41	0xbd5b165e	-0.053488128
42	0xbd14a370	-0.03628868
43	0x3d4fd6c3	0.050741922
44	0xbc7ffb20	-0.015623838
45	0x3d510f89	0.051040206
46	0xbc411567	-0.011784888
47	0xbcad81b8	-0.021180019
48	0x3d281b36	0.041041575
49	0x3cc0e2ec	0.023545705
50	0xbc0e2be4	-0.0086774565
51	0x3d30fed4	0.043211773
52	0xbd5b94a1	-0.05360854
53	0xbd2e06dd	-0.042487014
54	0x3cabbac5	0.020963082
55	0xbd3b03a4	-0.04565777
56	0x3ca224a7	0.019792868
57	0x3cac701c	0.021049552
58	0x3d2ca572	0.04214997
59	0xbd4f123e	-0.050554506
60	0xbd48e6a5	-0.049048085
61	0x3d8e26d9	0.06941003
62	0x3ba42904	0.0050097723
63	0x3ba12df3	0.0049188077
64	0xb8bbb586	-8.950666e-05
65	0xbc4dc00f	-0.012557997
66	0x3db11b49	0.08647782
67	0xbd2452c2	-0.040117987
68	0x3d608347	0.054812696
69	0x3d493174	0.049119428
70	0xbd5e2b39	-0.05424044
71	0x3d138cf7	0.036023106
72	0xbd86f33f	-0.06589364
73	0x3d1278ad	0.035759617
74	0xbd362d20	-0.04447663
75	0xbd903f96	-0.07043378
76	0x3cd39c7a	0.02583145
77	0x3cece8d1	0.02891961
78	0x3cecf7ac	0.028926693
79	0x3d583966	0.052789114
80	0xbd8618e5	-0.06547717
81	0x3d547006	0.051864646
82	0xbd97ca69	-0.074116535
83	0x3d0f8a31	0.0350439

fc3.weight f4 [10, 84]
0	0xbda9d3ba	-0.08292337
1	0xbb9ba388	-0.004749719
2	0xbcc82d56	-0.02443568
3	0x3d47d14d	0.04878359
4	0x3cbebe89	0.023284214
5	0xbd34f2fb	-0.044177037
6	0x3b9f3a57	0.0048592496
7	0xbdcac218	-0.09900302
8	0xbd2ccc9a	-0.04218731
9	0xbc3b1dfe	-0.011420725
10	0xbcbf7ab9	-0.023373948
11	0xbdca1dac	-0.09868941
12	0x3ba57b67	0.005050111
13	0x3dbc0921	0.09181429
14	0xbd844ef5	-0.06460372
15	0x3dab23b2	0.08356418
16	0x3ba2fd72	0.0049740607
17	0xbce99ebc	-0.028518073
18	0x3d6267e6	0.055274867
19	0xbc74685d	-0.01491746
20	0xbd49132c	-0.04909055
21	0xbba55166	-0.005045104
22	0xbd4698db	-0.048485618
23	0xbd610e18	-0.05494508
24	0x3ddb80f6	0.10717957
25	0xbcade74a	-0.021228451
26	0xbdccdcd1	-0.10003055
27	0xbcb4a6e4	-0.022052236
28	0x3dae3d2b	0.085077606
29	0x3d36da69	0.044641886
30	0xbd8c65f6	-0.06855385
31	0x3d90fd82	0.07079603
32	0x3bd10eb4	0.0063799266
33	0x3da96301	0.082708366
34	0xbd88a618	-0.06672305
35	0x3c97e060	0.018539608
36	0x3d383c7f	0.04497957
37	0xbdc92961	-0.098223455
38	0xbd4db66e	-0.050222807
39	0x3c937dff	0.018004416
40	0x3bf432f4	0.007452363
41	0xbc2602b3	-0.0101324795
42	0x3dc92eda	0.09823389
43	0x3cfa77dd	0.030574733
44	0x3dd07a4d	0.10179577
45	0x3d2542d5	0.04034694
46	0x3dcbe367	0.09955483
47	0x3d891495	0.06693379
48	0x3d2e51e0	0.04255855
49	0x3dd9b0bb	0.10629412
50	0x3d83b3c5	0.06430773
51	0xbdcc30d4	-0.09970251
52	0x3dcb43a4	0.09925011
53	0xbc9949b0	-0.018711895
54	0x3dc695e5	0.09696559
55	0x3d91f0e5	0.07126025
56	0xbdca6fc2	-0.09884597
57	0x3db79cf6	0.08965485
58	0x3cfd354c	0.030909203
59	0xbd7ca25b	-0.06167827
60	0xbd9dcc67	-0.07705002
61	0x3ddd5f19	0.10809154
62	0xbd15d37a	-0.036578633
63	0xbb89d4da	-0.004206282
64	0xbd9bd2a4	-0.07608536
65	0xbda3f13c	-0.08004996
66	0x3dc29dc5	0.095027484
67	0xbca0c57a	-0.019625414
68	0x3d000862	0.031257994
69	0xbd13db26	-0.036097668
70	0x3dcc85dc	0.09986469
71	0xbdb04127	-0.08606177
72	0xbd646231	-0.055757705
73	0xbd418c1e	-0.047252767
74	0x3dacdbcf	0.08440363
75	0x3d0f507c	0.034988865
76	0x3b65590d	0.0034995705
77	0x3c1af344	0.009457413
78	0x3a66835b	0.0008793377
79	0x3d53c3b5	0.051700313
80	0x3d9ab432	0.07553901
81	0xbd3aa41b	-0.04556666
82	0xbd459881	-0.048241142
83	0x3d21cd70	0.03950256
84	0xbd830bbc	-0.063987225
85	0x3d0cda06	0.03438761
86	0x3cc86ef7	0.024466975
87	0xbdb582d7	-0.08862846
88	0xbda8c63b	-0.082409345
89	0x3d2169b7	0.03940746
90	0xbcd55360	-0.026040733
91	0x3d86c164	0.06579855
92	0x3d991217	0.074741535
93	0xbb233825	-0.002490529
94	0xbc3d9301	-0.011570693
95	0xbba84c2d	-0.005136034
96	0x3d755b3a	0.059901454
97	0xbd8f4d63	-0.06997182
98	0x3dca4aa9	0.098775215
99	0x3d2f0a83	0.042734634
100	0x3dab494c	0.0836359
101	0xbd4acd68	-0.049512297
102	0xbdb43c28	-0.088005364
103	0x3d2063c9	0.039157663
104	0x3d55a197	0.052156057
105	0xbc04c962	-0.008104654
106	0xbcab1c5a	-0.020887543
107	0x3ddd46fb	0.10804554
108	0xbda129e1	-0.07869316
109	0x3db8270f	0.08991825
110	0x3d079204	0.033098236
111	0xbd3c114e	-0.04591494
112	0x3c5c6f6c	0.013454299
113	0x3c3a2130	0.011360452
114	0x3c8ed8f4	0.017437436
115	0xbda3aa4b	-0.07991465
116	0xbd3415f8	-0.043966264
117	0xbd8f98a0	-0.07011533
118	0xbd6c11a5	-0.057634015
119	0x3ce6948a	0.028147
120	0xbd090341	-0.03345037
121	0x3d8d5257	0.06900471
122	0x3dab25fb	0.083568536
123	0xbc3cc89c	-0.011522438
124	0x3dc1ea52	0.09468521
125	0xbdde3c5d	-0.10851357
126	0x3c677198	0.014126204
127	0x3d552152	0.05203373
128	0x3d9342b6	0.071904585
129	0xbb88b7c0	-0.0041722953
130	0xbda82391	-0.08209909
131	0xbdb1165f	-0.08646845
132	0xbdbbd58a	-0.09171589
133	0x3d48c08d	0.049011756
134	0x3cbb77ed	0.022884334
135	0x3ca7e163	0.020493215
136	0xbd3b758a	-0.04576639
137	0xbd65cc2d	-0.05610292
138	0x3d932d2d	0.07186351
139	0xbcff7438	-0.031183347
140	0xbc9b4beb	-0.018957099
141	0xbce803db	-0.02832215
142	0x3d421d97	0.0473915
143	0x3dc6ad18	0.09700984
144	0x3d70dc32	0.058803745
145	0xbcc92021	-0.024551453
146	0xbdb8b4b0	-0.090188384
147	0xbdab6a33	-0.08369865
148	0x3d8611ed	0.06546388
149	0x3ddf27a8	0.10896236
150	0xbc06c6d0	-0.0082261115
151	0xbdb5dc43	-0.08879902
152	0xbd3932f6	-0.045214616
153	0xbdd6adc4	-0.10482362
154	0x3cae6990	0.02129057
155	0xbd1de388	-0.03854707
156	0xbcc0b375	-0.023523072
157	0xbd472b25	-0.04862513
158	0x3d460fbc	0.04835485
159	0x3cbfd91a	0.023418952
160	0x3ddde51d	0.108347155
161	0xbd853478	-0.06504148
162	0x3dd1816e	0.10229765
163	0xbd5bc30e	-0.053652816
164	0xbdc71b02	-0.09721948
165	0x3d0939ee	0.03350251
166	0x3dcbfccf	0.09960329
167	0xbdcfd490	-0.10147965
168	0x3c545fa0	0.012962252
169	0x3d30d0f4	0.043168023
170	0x3dcf0d6b	0.10109981
171	0x3dbff68e	0.093731984
172	0xbd06e5b1	-0.032933895
173	0xbdcb3d76	-0.09923832
174	0xbd13b929	-0.036065254
175	0x3d5f80e9	0.054566298
176	0x3dc01b5c	0.093802184
177	0xbc27f325	-0.010250841
178	0x3d931e4f	0.07183515
179	0xbd1a663b	-0.03769515
180	0xbd54060c	-0.05176358
181	0xbd38f1ef	-0.0451526
182	0xbcca1474	-0.024667956
183	0x3dbe0555	0.09278361
184	0xbdb5cb27	-0.08876639
185	0xbddce26c	-0.10785374
186	0x3d25455b	0.040349346
187	0xbd8068a0	-0.06269956
188	0x3d2ca1b8	0.042146415
189	0x3ddd8168	0.10815698
190	0x3db96316	0.09052102
191	0x3d9accde	0.075586066
192	0x3d99a785	0.07502655
193	0xbc964951	-0.018345507
194	0x3d8e348e	0.06943618
195	0x3cd83003	0.026390081
196	0x3ddc6f7f	0.10763454
197	0xbcfc30db	-0.030785015
198	0x3dd3f13c	0.10348746
199	0x3d862a93	0.06551089
200	0x3d5ffac9	0.054682527
201	0x3dbbe8c0	0.09175253
202	0xbdbe8417	-0.09302538
203	0xbc01e0b7	-0.007927111
204	0xbc95da45	-0.018292556
205	0xbd69e6db	-0.057104927
206	0xbd26c371	-0.04071373
207	0xbd143aef	-0.036189016
208	0xbd9b17ed	-0.07572923
209	0x3d26d1e2	0.040727504
210	0x3db6f5f1	0.08933628
211	0xbc6871bb	-0.014187272
212	0x3d5f5852	0.05452759
213	0xbd6707a3	-0.056403767
214	0x3d09620e	0.033540778
215	0xbd243c07	-0.04009631
216	0x3da47032	0.08029212
217	0xbdcf57ea	-0.1012419
218	0xbd7a856c	-0.061162397
219	0x3d3c35f0	0.045949876
220	0xbd88eacb	-0.06685408
221	0x3dbce996	0.092242405
222	0xbb17a487	-0.0023138837
223	0xbdb23dea	-0.087032154
224	0x3dd8f1ef	0.1059302
225	0xbd90d293	-0.07071414
226	0x3c54ff24	0.013000283
227	0xbdb90d84	-0.09035781
228	0xbd565035	-0.052322585
229	0xbd75cce7	-0.060009863
230	0x3d7a0e77	0.06104895
231	0x3cbb29d5	0.022847096
232	0xbdd8b49c	-0.105813235
233	0x3cf0c1d8	0.029389307
234	0xbd8670fc	-0.06564519
235	0x3d037e71	0.032103006
236	0x3caf34dc	0.02138751
237	0xbc68e8e0	-0.014215678
238	0x3d349617	0.04408845
239	0x3c178a2d	0.009249252
240	0x3d4a720a	0.049425162
241	0x3d923513	0.07139029
242	0xbd465e78	-0.048429936
243	0xbdc3dfe0	-0.09564185
244	0xbd9a7da1	-0.07543493
245	0x3d65dff7	0.056121793
246	0x3ddc7f76	0.10766499
247	0xbdcdea6a	-0.100544766
248	0xbbc86c97	-0.0061164605
249	0xbd2c0ba0	-0.042003274
250	0xbddc345a	-0.10752173
251	0xbdbc49f2	-0.091937914
252	0xbb40b36e	-0.0029403823
253	0x3d255ece	0.040373616
254	0x3d774e32	0.060377307
255	0x3c4dc446	0.012559002

fc3.bias f4 [10]
0	0x3d2e25ea	0.042516626
1	0x3a1015cf	0.0005496414
2	0xbd322b5c	-0.043498382
3	0xbd9f8170	-0.0778836
4	0xbc192f80	-0.009349704
5	0xbddd57ed	-0.10807786
6	0xbdb855fb	-0.090007745
7	0xbdbbd1b5	-0.09170858
8	0xbc2029ab	-0.009775559
9	0x3d457068	0.048202902
