src/global_mnist_cnn.pt (torch, 181781 bytes, 10 tensors)

conv1.weight f4 [6, 1, 5, 5]
0	0xbcb8b23a	-0.022545923
1	0xbe8230e5	-0.2542793
2	0xbe261a3e	-0.16220948
3	0x3cd1e622	0.025622431
4	0xbd9775aa	-0.073954895
5	0x3d286ca1	0.04111922
6	0x3e6b64a0	0.22987604
7	0x3ea7d49b	0.32779393
8	0x3eb87d12	0.3603292
9	0x3e683e73	0.22680072
10	0x3e2c05cc	0.16799086
11	0x3d86218a	0.06549366
12	0x3e63aa4f	0.22232936
13	0x3e25a798	0.16177213
14	0x3d3083cb	0.043094438
15	0xbd4a0e6a	-0.049330153
16	0xbcfa9a00	-0.030591011
17	0xbdef3924	-0.116808206
18	0xbdaad700	-0.08341789
19	0xbe0418f3	-0.12900142
20	0xbd8af2dd	-0.06784604
21	0xbdf352fd	-0.11881063
22	0xbebcde06	-0.3688814
23	0xbece57ca	-0.40301353
24	0xbe4bd4ba	-0.19905367
25	0xbd785c5c	-0.060634956
26	0xbe612481	-0.21986581
27	0xbe27e0ed	-0.16394396
28	0xbdaf8075	-0.08569423
29	0x3e809cf0	0.25119734
30	0x3d24949e	0.040180795
31	0xbd56ceec	-0.05244343
32	0xbe336150	-0.1751759
33	0xbca9aa26	-0.020711016
34	0x3eb1d316	0.34731358
35	0xbe376111	-0.17908122
36	0xbe6e0187	-0.2324277
37	0xbe671ff0	-0.22570777
38	0x3d844a84	0.06459525
39	0x3e50637e	0.20350453
40	0xbe227c76	-0.1586779
41	0xbd9f450d	-0.07776842
42	0x3c268cb4	0.010165382
43	0x3d98fac0	0.07469702
44	0x3eb3ee06	0.35142535
45	0xbd1bb0a1	-0.038010243
46	0xbc3c2fee	-0.011486037
47	0x3de0f374	0.10983935
48	0x3e03dce2	0.12877229
49	0x3d6fd8e3	0.05855645
50	0x3e4e0915	0.20120652
51	0x3c973223	0.018456524
52	0x3e52dab8	0.20591247
53	0x3e464dcf	0.19365619
54	0x3e16866d	0.14699717
55	0xbc22b643	-0.00993115
56	0x3edb24bc	0.42801464
57	0x3e85cfac	0.26135004
58	0xbd6bccf3	-0.0575685
59	0xbe8d06f8	-0.2754438
60	0x3da85423	0.08219173
61	0x3e60bb96	0.21946558
62	0x3c092577	0.008370749
63	0x3e0b5be1	0.13609268
64	0xbef20dde	-0.47276205
65	0xbe49be8c	-0.19701594
66	0x3ea2cdc0	0.317976
67	0x3e75b4d9	0.23994769
68	0xbd4a302e	-0.049362354
69	0xbeca65ff	-0.39530942
70	0xbe5c9a24	-0.21543175
71	0x3e1168a5	0.14200075
72	0x3dae1fe4	0.085021764
73	0xbe04f114	-0.12982589
74	0xbe469f25	-0.19396646
75	0xbec52878	-0.38507438
76	0xbe9131a6	-0.2835819
77	0xbe8f5066	-0.27991027
78	0xbe24f3c6	-0.16108617
79	0xbdf36132	-0.11883773
80	0xbea848d1	-0.32868055
81	0xbeb5927b	-0.35463318
82	0xbeb4d5b2	-0.35319287
83	0xbec20a80	-0.37898636
84	0xbee7695d	-0.45197573
85	0xbe5e2781	-0.21694757
86	0xbd986dfe	-0.07442854
87	0xbe58e733	-0.21181946
88	0xbe4b35bb	-0.19844715
89	0xbd47f324	-0.04881586
90	0xbdfeb6fc	-0.12437245
91	0xbe0b4c5c	-0.13603348
92	0x3d6bf93a	0.057610728
93	0x3e8acd1a	0.27109605
94	0x3d6aa2b2	0.057284065
95	0x3e9ffcef	0.3124766
96	0x3e897968	0.26850438
97	0x3eadd80f	0.33953902
98	0x3e1bc726	0.15212688
99	0x3ebdcc34	0.37069857
100	0xbcc501c4	-0.024048693
101	0x3e16c118	0.14722097
102	0xbe3ae467	-0.18251191
103	0xbe49756e	-0.19673702
104	0x3d4db780	0.050223827
105	0x3db8dbf1	0.090263255
106	0xbe2b661c	-0.1673817
107	0xbe0547ae	-0.13015625
108	0x3debfe1c	0.11523077
109	0x3e2b1e96	0.16710886
110	0xbdcabe01	-0.098995216
111	0x3c1e0645	0.009645049
112	0xbdb6ce5b	-0.08926078
113	0xbb36a37e	-0.0027868445
114	0xbcfda872	-0.03096411
115	0xbe8e2cf1	-0.27768663
116	0x3b972104	0.00461209
117	0x3e81fb1f	0.25386903
118	0x3e9ce510	0.3064351
119	0x3e17eb98	0.14835966
120	0x3e320651	0.17385222
121	0xbdd78145	-0.10522703
122	0x3e72a09e	0.23694083
123	0x3dfde16d	0.12396512
124	0xbd45e424	-0.048313275
125	0xbcf66a5a	-0.03008001
126	0x3e5dfda9	0.21678795
127	0x3eb081cf	0.34474036
128	0x3f0b9eeb	0.54539365
129	0x3e08f565	0.1337486
130	0xbdfa4834	-0.12220803
131	0x3dec72ff	0.11545371
132	0x3d29f782	0.041495807
133	0x3ebdbcca	0.37058097
134	0x3f08746f	0.53302664
135	0xbd2f2d21	-0.042767648
136	0xbe8ab6a4	-0.2709247
137	0xbec4cafa	-0.3843611
138	0xbe67db7a	-0.22642317
139	0x3e619544	0.22029597
140	0xbeb2f120	-0.3494959
141	0xbe8b38ab	-0.27191672
142	0xbec848dc	-0.39118087
143	0xbe870ca9	-0.26376846
144	0xbca07d83	-0.019591099
145	0x3ce10c38	0.027471647
146	0x3d7e3f9e	0.06207239
147	0xbd9729d2	-0.073810235
148	0xbc6b3fec	-0.014358502
149	0xbc22ca08	-0.009935863

conv1.bias f4 [6]
0	0x3c595db0	0.013266966
1	0xbcfab36e	-0.030603137
2	0x3e039882	0.12851146
3	0x3c4e4404	0.012589458
4	0xbcb41833	-0.021984195
5	0x3d906d1c	0.07052061

conv2.weight f4 [16, 6, 5, 5]
0	0xbb8c1916	-0.0042754514
1	0xbdc1ac81	-0.09456731
2	0x3c86970b	0.016429445
3	0xbc5652bc	-0.013081249
4	0x3d01e44d	0.031711865
5	0x3c499c50	0.012305334
6	0xbb82001e	-0.003967299
7	0x3daab51f	0.08335327
8	0x3de97f41	0.11401225
9	0x3c560408	0.013062485
10	0x3de6ba6e	0.112660274
11	0x3e4ffd6a	0.20311514
12	0x3e0f5c11	0.13999964
13	0x3e62b6ab	0.22139995
14	0x3dad1cc4	0.08452752
15	0xbd71c00c	-0.05902104
16	0x3c1d5b80	0.009604335
17	0xbba06d71	-0.004895859
18	0xbdc14764	-0.09437445
19	0x3d98c5be	0.07459591
20	0xbcf7a833	-0.03023157
21	0xbd1775f2	-0.036977716
22	0xbdeb5b46	-0.114920184
23	0xbd9607c9	-0.07325704
24	0xbbd1faba	-0.0064080628
25	0x3db826bc	0.08991763
26	0xbd8cfaed	-0.06883798
27	0x3ddc70e1	0.107637174
28	0x3cc6098b	0.024174472
29	0xbd2e85ee	-0.042608194
30	0x3d4262a3	0.04745735
31	0x3c4d5d56	0.01253446
32	0x3cb608ee	0.022221055
33	0xbd7954d7	-0.060871925
34	0xbdc6dc80	-0.09710026
35	0xbcc812e2	-0.024423067
36	0xbd60a9a5	-0.054849286
37	0xbd9d0618	-0.07667178
38	0x3cee921b	0.029122403
39	0xbd383fe9	-0.044982824
40	0xbc1bf05e	-0.009517757
41	0xbdb381a1	-0.08764959
42	0xbd37c883	-0.044868957
43	0xbd59747d	-0.053089608
44	0xbda953ce	-0.082679376
45	0xbd3af5ed	-0.04564469
46	0xbd433d61	-0.047665957
47	0x3d34693f	0.044045683
48	0xbc857f90	-0.016296178
49	0xbde80c16	-0.1133043
50	0x3d3cee22	0.04612554
51	0x3d0304bd	0.03198694
52	0x3cd64181	0.026154282
53	0x3d8b4568	0.068003476
54	0x3d8baae9	0.06819708
55	0x3c898f5e	0.016791996
56	0x3d8b7ac0	0.06810522
57	0x3cdf1a25	0.027234146
58	0x3e12a1a4	0.14319474
59	0x3cdf4d95	0.027258674
60	0xbdec34cf	-0.1153351
61	0x3ddb2cdd	0.10701916
62	0x3e2e8124	0.1704145
63	0x3dc1421c	0.094364375
64	0x3d88ebad	0.066855766
65	0xbe8fd3ba	-0.28091222
66	0xbe7116b4	-0.23543817
67	0xbe0cf09c	-0.1376366
68	0xbe5aa2ce	-0.21351168
69	0xbd4ea4c0	-0.050450087
70	0xbeaa7696	-0.332936
71	0xbea2327e	-0.31679147
72	0xbe831009	-0.2559817
73	0xbe1ac7eb	-0.15115325
74	0xbe1ec864	-0.1550613
75	0xbe0324c1	-0.12806989
76	0xbd8ee509	-0.06977279
77	0x3c5760da	0.01314565
78	0xbd009e91	-0.03140122
79	0x3d65ac4a	0.05607251
80	0xbe051ce9	-0.1299931
81	0xbded659f	-0.11591648
82	0x3d30ddbc	0.043180212
83	0x3be6058a	0.0070197033
84	0x3adfea4c	0.0017083376
85	0xbd7d6128	-0.061860234
86	0x3cf246fc	0.029574864
87	0xbdf1d507	-0.1180821
88	0xbd2a4187	-0.041566398
89	0xbe133175	-0.14374335
90	0x3e74dce1	0.23912384
91	0x3e275f03	0.16344838
92	0x3e202f20	0.15642977
93	0x3dda6926	0.10664587
94	0xbda35d37	-0.07976764
95	0x3ddb5ef2	0.10711469
96	0x3e403a17	0.1877216
97	0x3e550c5d	0.20805497
98	0x3e18eb4e	0.14933512
99	0x3c9f5434	0.01944933
100	0x3d7ca1f3	0.061677884
101	0xbd0d45f6	-0.034490548
102	0x3daf478d	0.08558569
103	0x3d75e318	0.060031027
104	0xbcc1db12	-0.023664031
105	0xbd01c00b	-0.031677287
106	0xbce5b16a	-0.0280387
107	0x3daf56e6	0.085614964
108	0x3dc33eef	0.09533488
109	0xbcc1db75	-0.023664216
110	0xbe1895e4	-0.14900929
111	0xbd21d959	-0.03951392
112	0xbde87048	-0.11349541
113	0xbd95bc11	-0.073112614
114	0xbcb5e0c0	-0.022201896
115	0xbddafe76	-0.10693066
116	0xbd31f177	-0.04344317
117	0xbe1648fa	-0.14676276
118	0xbd8dd093	-0.06924548
119	0xbdc2d148	-0.095125735
120	0xbc0b1b4a	-0.008490393
121	0x3d24c370	0.040225446
122	0x3d81c6c7	0.06336742
123	0x3d26ef77	0.040755715
124	0xbdfa86a8	-0.12232715
125	0xbdafc7d4	-0.08583036
126	0xbde927a1	-0.11384512
127	0xbe1309d9	-0.14359225
128	0xbd57dde9	-0.052701864
129	0xbdee4fed	-0.116363384
130	0x3bae0374	0.0053104702
131	0xbdde4fc5	-0.108550586
132	0xbce234dc	-0.027613096
133	0x3d117c08	0.035518676
134	0xbd35b7a8	-0.0443646
135	0x3e3daeed	0.1852376
136	0x3d43e4fe	0.047825806
137	0x3df19098	0.11795157
138	0x3e0e0ff6	0.13873276
139	0x3cbedf56	0.023299854
140	0x3d86a9a8	0.06575328
141	0x3dc7a872	0.09748925
142	0x3e1fb27f	0.15595435
143	0x3d4f0cda	0.050549366
144	0x3dc68282	0.09692861
145	0xbe4373c0	-0.19087124
146	0xbe69d8ea	-0.22836652
147	0xbe83c754	-0.25738013
148	0xbe153fcc	-0.14575118
149	0xbe59de6b	-0.21276252
150	0xbd859083	-0.06521704
151	0x3c766b80	0.015040278
152	0xbd0a162f	-0.033712562
153	0xbd6c6021	-0.057708863
154	0xbd748980	-0.059701443
155	0xbd87d40d	-0.06632242
156	0xbd32313e	-0.043503992
157	0xbcc2328a	-0.02370574
158	0x3bebbd63	0.0071942075
159	0xbb509700	-0.0031828284
160	0xbd30bd80	-0.04314947
161	0xbccdc5d2	-0.025118742
162	0xbbfc8eee	-0.0077074682
163	0xbd7484b6	-0.059696876
164	0x3d6ba442	0.057529695
165	0xbd2db42d	-0.042408157
166	0x3d5ef2aa	0.05443064
167	0x3bf18fad	0.007371864
168	0x3c8d9978	0.017285094
169	0x3ccb0ecc	0.02478733
170	0x3d766c1a	0.060161687
171	0xbc12efc5	-0.008968298
172	0xbda8c62a	-0.08240922
173	0xbcc6ee89	-0.024283664
174	0x3d3d36ca	0.04619483
175	0xbd476769	-0.048682604
176	0xbd916ca8	-0.07100803
177	0x3d3238ca	0.04351119
178	0xbd9e3fa5	-0.07726983
179	0x3b998d9c	0.0046860706
180	0x3d04dd54	0.032437637
181	0xbd93501d	-0.07193015
182	0x3d0e9cb1	0.0348174
183	0xbd0a52ad	-0.033770252
184	0x3d9845c9	0.074351855
185	0xbd8b933e	-0.068151936
186	0x3d9169c2	0.0710025
187	0xbd024450	-0.03180343
188	0xbcb02327	-0.021501137
189	0xbc710636	-0.014710953
190	0xbda37e86	-0.07983117
191	0x3b8eff1c	0.0043639075
192	0xbbd69091	-0.0065479954
193	0x3b90e006	0.004421237
194	0xbd85bb70	-0.065298915
195	0x3d587cf6	0.052853547
196	0xbb7fbe4e	-0.0039023343
197	0x3cdd2cfa	0.026998986
198	0xbccad92a	-0.024761755
199	0xbce585fc	-0.02801799
200	0xbd14cf6a	-0.036330618
201	0xbc9d0cc9	-0.019171136
202	0xbd99b829	-0.07505829
203	0xbaa5dcc1	-0.0012654291
204	0xbd136157	-0.035981502
205	0xbd0a651d	-0.033787835
206	0x3ca321af	0.019913523
207	0x3d1ea2ec	0.038729593
208	0x3b4cee4d	0.0031269968
209	0x3c9b51d4	0.018959917
210	0x3d6715a4	0.056417122
211	0x3cdb6a50	0.026784092
212	0xbb811410	-0.003939159
213	0xba7c1162	-0.00096156274
214	0xbda4c520	-0.08045411
215	0x3c5774fc	0.01315045
216	0x3da7168f	0.081585996
217	0xbd495c5b	-0.049160343
218	0xbd5f2cdc	-0.05448614
219	0xbd9e9d6a	-0.07744868
220	0x3c2346e4	0.009965632
221	0xbda55f16	-0.08074777
222	0x3bb48438	0.0055089258
223	0xbdb8f310	-0.090307355
224	0xbd228ce7	-0.039685156
225	0xbd5e1d7c	-0.054227337
226	0xbbb416f1	-0.005495899
227	0x3d796923	0.06089128
228	0x3d657bde	0.056026332
229	0x3cd574be	0.026056644
230	0x3d20b1f3	0.039232206
231	0x3d65785a	0.05602298
232	0x3da90f58	0.0825488
233	0x3daebe70	0.08532417
234	0x3c77fe03	0.015136245
235	0xbd7954fd	-0.060872067
236	0x3d918b83	0.07106688
237	0x3b807347	0.003919992
238	0xbd8953b8	-0.06705421
239	0xbc65ef96	-0.0140341725
240	0xbd6d9927	-0.058007386
241	0xbd82536c	-0.06363568
242	0xbcfec125	-0.031097958
243	0xbbe10947	-0.006867561
244	0xbd8f35a3	-0.06992652
245	0xbd6e9da4	-0.058255807
246	0x3d8a1310	0.06741917
247	0xbd91d4cf	-0.07120668
248	0x3dbd9eb3	0.09258785
249	0xbd382ae9	-0.044962797
250	0xbd88546e	-0.06656729
251	0x3d3a771b	0.045523744
252	0xbc1dfcb6	-0.0096427705
253	0xbd6a3a00	-0.05718422
254	0x3d445b71	0.047938768
255	0x3d532a80	0.051554203

conv2.bias f4 [16]
0	0x3b8f3680	0.0043705106
1	0xb98b80f7	-0.00026608232
2	0x3d501e32	0.050810046
3	0xbc9dc53a	-0.019259084
4	0xbdbc1e10	-0.091854215
5	0xbd9ae302	-0.075628296
6	0xbd91af07	-0.07113462
7	0xbd847cb1	-0.064690955
8	0x3c4c58e2	0.012472363
9	0xbd969f36	-0.07354586
10	0xbd9741be	-0.07385586
11	0xbd72c058	-0.059265465
12	0x3c92da5a	0.017926384
13	0x3ba898f8	0.0051451884
14	0xbd342c93	-0.04398782
15	0x3d5865af	0.052831348

fc1.weight f4 [120, 256]
0	0xbd11e5da	-0.035619594
1	0xbd9051cc	-0.070468515
2	0x3cd14d3c	0.025549524
3	0x3d69e142	0.05709959
4	0xbda4d2e2	-0.08048035
5	0xbdb408ba	-0.08790727
6	0xbd35292d	-0.04422872
7	0xbd9907f7	-0.07472222
8	0xbd8b4490	-0.06800187
9	0xbd004434	-0.031315044
10	0x3d54ed8e	0.051984362
11	0xbd2f8284	-0.04284908
12	0x3c99bca4	0.018766709
13	0x3d22b132	0.039719768
14	0x3dfcd10a	0.123445585
15	0x3deb996c	0.11503872
16	0xbc7e9aae	-0.015539808
17	0xbd0c2a49	-0.034220014
18	0xbd5a7bc0	-0.053340673
19	0x3d419b27	0.047267105
20	0xbd6a5ae8	-0.0572156
21	0xbd285a51	-0.041101757
22	0xbcd43d26	-0.025908064
23	0x3d253da0	0.040341973
24	0x3d62c9b0	0.055368125
25	0x3ce1f996	0.027584832
26	0x3ade59d3	0.0016964026
27	0x3c8b5eba	0.017012943
28	0x3d82a039	0.06378216
29	0xbcea0dcd	-0.028571034
30	0xbd0d1fe2	-0.034454234
31	0x3c81a745	0.01582683
32	0x3c2e6ba7	0.0106457835
33	0xbdc566d1	-0.09638751
34	0x3de610ec	0.11233696
35	0x3d704a9b	0.0586649
36	0xbd9e4765	-0.07728461
37	0xbd358ff2	-0.04432673
38	0x3d58288e	0.05277305
39	0x3d365c4c	0.044521615
40	0x3d15055f	0.036382075
41	0x3ce2ff3b	0.027709594
42	0xbcb6b414	-0.022302665
43	0x3d69c1ce	0.057069592
44	0x3d232400	0.039829254
45	0x3c88c6e2	0.016696397
46	0x3d498cca	0.049206533
47	0x3d410868	0.047127157
48	0x3ce7d86c	0.02830144
49	0xbdc72bdc	-0.097251624
50	0xbd128f9e	-0.035781495
51	0xbdcb900d	-0.09939585
52	0x3cbe5f34	0.023238756
53	0xbd87b9b4	-0.06627217
54	0xbad96d9c	-0.0016588452
55	0x3da6f786	0.0815268
56	0x3d15853a	0.036504008
57	0x3d65320c	0.05595593
58	0x3dc03fa9	0.09387142
59	0x3d7df8df	0.06200492
60	0xbd6749fa	-0.056467034
61	0x3d009ca7	0.031399395
62	0xbc8883ce	-0.016664412
63	0xbc4e2ecb	-0.0125843985
64	0xbd4b6212	-0.049654074
65	0xbd35764e	-0.044302277
66	0x3c2b7698	0.010465287
67	0xbcf9984e	-0.030468132
68	0x3c9ab52a	0.018885214
69	0xbd745343	-0.059649717
70	0x3c8a33ed	0.016870463
71	0x3d02157b	0.031758767
72	0xbc83fcd8	-0.016111776
73	0xbd8f1a9f	-0.069874994
74	0xbd1e9178	-0.03871295
75	0x3d78f172	0.060777135
76	0xbc0d2711	-0.008615271
77	0xbc98bff6	-0.018646222
78	0x3d0978fd	0.03356265
79	0x3d0751cc	0.033036992
80	0xbd63f36e	-0.055652075
81	0xbddaee64	-0.10690001
82	0xbd979284	-0.074009925
83	0xbd6a4d85	-0.057202835
84	0xbd75a5d5	-0.059972603
85	0xbd85d84f	-0.06535398
86	0x3cb36d4f	0.021902708
87	0x3ccff700	0.025386333
88	0xbd18876a	-0.037238516
89	0x3d3d6786	0.046241306
90	0x3d291ac2	0.041285284
91	0x3c01dabd	0.007925686
92	0x3d8ca4b7	0.06867354
93	0xbd13d2a7	-0.036089566
94	0x3d633cdc	0.055477962
95	0x3d916b86	0.071005866
96	0xbcc0a331	-0.023515316
97	0x3da2ebc3	0.07955124
98	0x3db04a9c	0.086079806
99	0xbd071c92	-0.03298623
100	0x3c768129	0.015045443
101	0x3d08d773	0.033408593
102	0x3d8ab606	0.067729995
103	0xbdc47a70	-0.095936656
104	0xbcf28692	-0.029605184
105	0x3ca2e7c1	0.0198859
106	0xbd85a2a3	-0.06525161
107	0x3b090f2d	0.0020913586
108	0x3e0c5d3d	0.13707443
109	0x3c252c0c	0.010081302
110	0xbd7a841d	-0.06116115
111	0x3cd3d141	0.025856616
112	0xbcd673cc	-0.026178263
113	0xbd1895b7	-0.037252154
114	0x3c511772	0.012761937
115	0xbdaf1e3c	-0.085506886
116	0xba3d6480	-0.00072247535
117	0xbd92064f	-0.071301095
118	0x3d046f7c	0.032332882
119	0xbd53cc61	-0.051708583
120	0x3d0dc05c	0.034607276
121	0x3d91ac32	0.07112922
122	0xbc16c08b	-0.009201179
123	0x3cb6c6ca	0.022311587
124	0x3d1dce9b	0.038527112
125	0x3cd3ee08	0.025870338
126	0xbc2b1689	-0.0104423845
127	0xbd7aaa8f	-0.061197814
128	0x3d3e02f7	0.046389546
129	0xbcc93a22	-0.024563853
130	0xbdc1a70c	-0.0945569
131	0xbab55fb8	-0.001383773
132	0xbd06b3f7	-0.03288647
133	0xbc7e084f	-0.015504911
134	0xbcc2b5b2	-0.02376828
135	0x3c8792eb	0.016549548
136	0xbd481a48	-0.04885319
137	0x3cb492a6	0.022042584
138	0xbd2aced6	-0.04170116
139	0xbc910129	-0.017700749
140	0x3d8af6de	0.067853674
141	0x3cb4b0a4	0.022056885
142	0x3d41f5b1	0.04735345
143	0xbc9845e2	-0.01858801
144	0xbd50c574	-0.050969556
145	0xbcbcce07	-0.02304746
146	0xbdbecc11	-0.09316266
147	0xbcd9db77	-0.026593907
148	0x3c88b156	0.016686123
149	0xbc7db950	-0.0154860765
150	0x3d9b6919	0.07588405
151	0xbba8bbcd	-0.0051493407
152	0x3d8392ec	0.064245075
153	0x3b1b7446	0.0023720427
154	0x3da14530	0.078745246
155	0x3d7febca	0.062480725
156	0x3d136426	0.03598418
157	0xbd3698c7	-0.044579294
158	0x3d3ecc44	0.04658152
159	0x3c99d0c4	0.018776305
160	0x3d2001e9	0.03906432
161	0x3d956ef7	0.072965555
162	0x3e066fdd	0.1312861
163	0xb797caf4	-1.809511e-05
164	0x3d8224b8	0.0635466
165	0xbc49387b	-0.012281532
166	0xbbdf2a50	-0.006810464
167	0xbd44f490	-0.048084795
168	0xbb8c577c	-0.00428289
169	0x3c198cdc	0.009371962
170	0xbd75f146	-0.06004455
171	0xbd7792cd	-0.060442735
172	0x3d238e98	0.03993091
173	0x3da97e70	0.08276069
174	0xbdc3b85f	-0.0955665
175	0xbbed759f	-0.0072466875
176	0x3d4cf9cc	0.050042912
177	0xbc674ba3	-0.014117154
178	0x3d9841fe	0.07434462
179	0xbcda3658	-0.026637241
180	0xbd8a5071	-0.06753624
181	0x3d7ed35f	0.062213298
182	0x3d3627fe	0.044471733
183	0x3d4bfb5e	0.04980027
184	0xbd032e54	-0.032026604
185	0xbbb75163	-0.005594419
186	0x3d01fbda	0.031734325
187	0xbd3243ec	-0.043521807
188	0xbc5a9c8e	-0.01334299
189	0xbc59eaa8	-0.013300575
190	0x3cf91558	0.030405685
191	0x3d262fb2	0.04057283
192	0xbcb364d8	-0.021898672
193	0x3d2183e2	0.039432414
194	0x3b5d1d61	0.0033739435
195	0xbd446dbb	-0.04795621
196	0xbd744160	-0.05963266
197	0xbdc3b57e	-0.09556101
198	0xbd079a07	-0.033105876
199	0xbd6e43da	-0.058170177
200	0x3a423e64	0.00074098096
201	0x3c30eae7	0.010798193
202	0xbd52d22f	-0.051469978
203	0xbcb2513c	-0.021767251
204	0xbacf27c0	-0.0015804693
205	0x3c24b345	0.010052507
206	0x3d3d8426	0.046268605
207	0x3d862604	0.0655022
208	0x3c1a1d04	0.009406332
209	0x3c99fb03	0.01879645
210	0x3b574d77	0.003285257
211	0xbd3b1acb	-0.04567985
212	0xbc52b78e	-0.012861146
213	0x3abf9434	0.0014616312
214	0x3d2dad07	0.04240134
215	0x3d077383	0.033069145
216	0xbba0aa3a	-0.004903105
217	0x3bd5f0fe	0.0065289726
218	0x3db16664	0.086621076
219	0x39562824	0.00020423584
220	0xbd0c8e33	-0.0343153
221	0x3c0b47d9	0.008501017
222	0x3cbad454	0.022806324
223	0xbbabe297	-0.0052455175
224	0x3c712fe5	0.014720892
225	0x3d13c23e	0.036073916
226	0xbc85578d	-0.016277099
227	0xbcc572f0	-0.024102658
228	0x3bca4e30	0.0061738715
229	0x3c80b8d6	0.015713137
230	0xbc52c63a	-0.012864644
231	0xbc904ef1	-0.017615767
232	0xbd609287	-0.05482724
233	0x3cdf5c16	0.02726559
234	0x3d2b8a54	0.041879967
235	0x3d29b4b3	0.041432094
236	0x3d2bfcb8	0.04198906
237	0xbd776ddf	-0.060407516
238	0xbcb95050	-0.022621304
239	0xbbd811e0	-0.0065939277
240	0xbd7ffeea	-0.062498964
241	0xbcd6f8bf	-0.026241658
242	0x3af55b0c	0.0018719151
243	0x3c639f81	0.013893009
244	0x3d3b9146	0.04579284
245	0x3d21351f	0.0393573
246	0x3d1389ce	0.036020093
247	0x3d53ecfa	0.05173967
248	0xbcc37fd2	-0.02386466
249	0x3d35bebe	0.04437136
250	0x3d2a4171	0.041566316
251	0xbba5130d	-0.0050376714
252	0xbb593388	-0.0033142287
253	0xba303f5b	-0.0006723308
254	0x3d27bcb8	0.04095146
255	0x3cff0600	0.03113079

fc1.bias f4 [120]
0	0xbc849da1	-0.016188445
1	0xbd490027	-0.04907241
2	0xbcd0993e	-0.025463697
3	0x3d18cfab	0.037307423
4	0x3cc3efbb	0.023918023
5	0xbd1a5f6c	-0.037688658
6	0x3d28d025	0.041214127
7	0xbd4f2a98	-0.05057773
8	0x3d6aaf8e	0.05729633
9	0x3cabe56a	0.020983417
10	0x3c8f0149	0.017456667
11	0x3d1b74c8	0.03795317
12	0xbd7c62db	-0.061617713
13	0x3c911ec5	0.017714867
14	0x3d4de592	0.050267763
15	0x3c9dde5f	0.019271074
16	0x3a2f998b	0.00066986
17	0x3d71c081	0.059021477
18	0xbd6dac9b	-0.058025938
19	0xbbfbc4aa	-0.0076833563
20	0xbce67a48	-0.02813448
21	0x3d8c8586	0.06861405
22	0x3d54ceb9	0.05195496
23	0x3cbcd0e4	0.023048826
24	0x3cd36d3a	0.02580892
25	0xbc8a10b2	-0.016853664
26	0x3ca5cc0c	0.020238899
27	0x3cc09afa	0.023511399
28	0xbd122a9e	-0.035685174
29	0x3cdd83ac	0.027040325
30	0xbc6038bf	-0.013685404
31	0x3c73ba60	0.014875978
32	0xbca60312	-0.020265136
33	0xbd86fe33	-0.065914534
34	0xbd8d8e39	-0.069118924
35	0xbc61e4c8	-0.013787456
36	0xbd5a8574	-0.053349927
37	0x3c5f693a	0.013635928
38	0xbc689c4c	-0.01419742
39	0x3ce1ed28	0.027578905
40	0xbd5b26c3	-0.053503763
41	0x3d4171b5	0.04722758
42	0x3d6182a1	0.055056218
43	0x3ce4dfbf	0.027938722
44	0x3ae3b4be	0.0017372591
45	0x3c513085	0.012767916
46	0xbd8e6848	-0.06953484
47	0x3d75b462	0.05998648
48	0x3d1deedc	0.038557872
49	0x3d3e66ea	0.046484865
50	0xbd47dbe7	-0.0487937
51	0xbd0c8218	-0.034303755
52	0x3d40ead7	0.04709896
53	0xbd7aa3f5	-0.061191518
54	0xbd6afa7e	-0.057367794
55	0xbd413f4d	-0.04717951
56	0xbc327c88	-0.010893948
57	0x3d1fdab4	0.03902693
58	0xbb85ce6f	-0.0040834467
59	0x3c1a84ca	0.009431073
60	0xbcb47470	-0.022028178
61	0xbd0535ac	-0.03252189
62	0x3d00173c	0.031272158
63	0x3d120368	0.03564778
64	0x3cdbc679	0.026828038
65	0x3cfc6dc0	0.030814052
66	0x3cc1dc58	0.023664638
67	0x3c194edd	0.009357181
68	0xbc85d2b5	-0.016335825
69	0x3d24d3ee	0.040241174
70	0xbc456a80	-0.012049317
71	0x3ceb2573	0.02870438
72	0xb9d914b2	-0.00041404885
73	0xbce9a5d2	-0.028521452
74	0x3d242693	0.04007585
75	0xbd7c40c0	-0.061585188
76	0x3d2df390	0.042468607
77	0x3d0519e9	0.032495413
78	0x3d06bc85	0.03289463
79	0x3d887041	0.06662036
80	0x3c0abaaf	0.00846736
81	0x3d037579	0.032094453
82	0xbd08efc6	-0.03343179
83	0xbd0f3862	-0.03496588
84	0x3bfdf2bd	0.007749884
85	0x3d54cf3d	0.05195545
86	0x3d2cde3e	0.042204134
87	0x3ce2302d	0.027610863
88	0x3d761e64	0.060087577
89	0xbd097d8a	-0.03356699
90	0x3b2575d6	0.0025247238
91	0xbcb5c47c	-0.022188418
92	0x3d556110	0.05209452
93	0x3c8c2725	0.01710851
94	0x3d1c6c18	0.038189024
95	0xb9ba7fae	-0.00035571813
96	0x3d6d8991	0.05799252
97	0xbd0d12ef	-0.034441885
98	0x3cc36e1c	0.023856215
99	0xbce48c8a	-0.027899045
100	0x3d81a487	0.06330209
101	0x3d030600	0.031988144
102	0x3d40ef33	0.04710312
103	0x3d2e19be	0.04250502
104	0x3d6363a0	0.05551493
105	0x3c026ffe	0.007961271
106	0x3bc75fb2	0.006084406
107	0x3cd82809	0.026386278
108	0x3cbf6cc7	0.023367299
109	0xbce17c83	-0.027525192
110	0xbd1864d1	-0.03720552
111	0x3d7ca7b7	0.061683383
112	0xbd5fb41f	-0.054615136
113	0x3cd0bb0c	0.025479816
114	0xbcae2efc	-0.021262638
115	0xbd127642	-0.03575731
116	0x3cd33955	0.025784174
117	0xbc9eac66	-0.019369315
118	0x3d1a1fc1	0.03762794
119	0xbce12923	-0.027485436

fc2.weight f4 [84, 120]
0	0xbc6b107e	-0.014347194
1	0xbd9081fc	-0.070560426
2	0xbe0432cf	-0.12910007
3	0xbd87f42c	-0.06638369
4	0x3ad9dfaf	0.0016622449
5	0xbd65bacc	-0.056086347
6	0xbdcc6460	-0.099800825
7	0x3daa1f14	0.08306709
8	0x3d1dac7c	0.038494572
9	0xbde9e110	-0.114198804
10	0xbc106102	-0.008812191
11	0x3d85a465	0.065254964
12	0xbcf43180	-0.02980876
13	0xbd856970	-0.06514251
14	0xbd9b8d74	-0.075953394
15	0xbc1116ff	-0.00885558
16	0x3dffeae6	0.12495975
17	0x3c287838	0.010282569
18	0x3d156efe	0.036482804
19	0xbd8b8cc2	-0.06813957
20	0xbc4c6577	-0.012475363
21	0xbde2f56f	-0.11081969
22	0x3dba9a86	0.09111504
23	0xbcbea7c6	-0.02327336
24	0x3c14ee6b	0.009090046
25	0x3da0d7ab	0.078536354
26	0xbda5118a	-0.08059986
27	0xbcb659b6	-0.022259574
28	0x3d1493e2	0.036273845
29	0xbd7e1dbc	-0.062040076
30	0x3dac086c	0.08400044
31	0xbd44a2d7	-0.04800686
32	0xbd7b17f3	-0.061302137
33	0x3c99f5b7	0.018793924
34	0xbdaffe4a	-0.08593424
35	0x3dd166b9	0.10224671
36	0x3d3b4472	0.04571957
37	0x3d0e4d64	0.034741774
38	0xbd4f1704	-0.05055906
39	0x3dfe84ec	0.124276966
40	0xbdd490b5	-0.10379163
41	0xbd46fe21	-0.0485822
42	0xbd457b27	-0.04821315
43	0x3d4b337e	0.049609654
44	0x3d7d297e	0.06180715
45	0x3d9509c2	0.07277252
46	0x3d4a698c	0.049417064
47	0x3d04df6e	0.03243964
48	0xbd0c6b37	-0.034281936
49	0xbc12a304	-0.008949999
50	0x3da64826	0.0811923
51	0xbde8b108	-0.11361891
52	0xbd9b252a	-0.07575448
53	0x3dbb2a9d	0.09138987
54	0xbd173b5a	-0.036921836
55	0x3d472ce3	0.04862679
56	0xbbe5aba4	-0.0070089865
57	0x3d1366ae	0.035986595
58	0xbc870a04	-0.016484268
59	0xbc549533	-0.012975025
60	0x3de30b3a	0.11086126
61	0x3c26e2eb	0.010185937
62	0xbce24b1d	-0.027623707
63	0xbd8cee60	-0.06881404
64	0x3db999d7	0.09062546
65	0x3cf85289	0.030312793
66	0x3dab5cc7	0.08367305
67	0xbde1755f	-0.11008715
68	0xbd4c299a	-0.04984436
69	0xbc8f621a	-0.017502833
70	0xbd95dee6	-0.07317905
71	0xbc01c09c	-0.007919457
72	0x3d317555	0.043324787
73	0x3d9b4bee	0.07582842
74	0x3c4884f0	0.012238726
75	0xbc94257c	-0.01808428
76	0x3d193896	0.03740748
77	0xbd1a6fcf	-0.037704285
78	0xbc96cb10	-0.018407375
79	0x3dd48dee	0.103786334
80	0xbaebeeac	-0.0018000207
81	0xbd925e9c	-0.071469516
82	0xbd255829	-0.04036728
83	0x3e0205fd	0.12697597
84	0xbd44a2b8	-0.048006743
85	0x3d5924df	0.05301368
86	0x3c3e79e4	0.011625741
87	0x3db2d78c	0.087325186
88	0xbd439588	-0.047750026
89	0xbd987b30	-0.07445371
90	0x3db23b2c	0.087026924
91	0x3cfbb44b	0.030725619
92	0x3d5546f3	0.052069616
93	0xbe1020b2	-0.14074972
94	0x3c34c588	0.011033423
95	0x3dc8d2c9	0.09805829
96	0x3e3bcdfe	0.18340299
97	0x3c8fc377	0.01754926
98	0xbd317fbe	-0.043334715
99	0xbdb0ad21	-0.08626772
100	0x3d278c81	0.04090548
101	0xbe1a22e0	-0.15052366
102	0x3dc1e338	0.09467167
103	0xbdb3256f	-0.08747374
104	0x3d62c14f	0.055360135
105	0x3d747c99	0.059689138
106	0x3d8da5be	0.069163784
107	0xbd8dd5ab	-0.069255196
108	0xbdaf05c0	-0.085460186
109	0x3bd4346a	0.006475975
110	0x3d44250e	0.0478869
111	0xbc9d8872	-0.019230101
112	0x3d1aa792	0.037757464
113	0xbc448736	-0.011995127
114	0x3d458bc2	0.048228987
115	0x3dde6e97	0.10860937
116	0x3db9bf22	0.09069659
117	0x3d815c0e	0.06316386
118	0x3d4669a8	0.048440605
119	0xbc9d1fd8	-0.019180223
120	0x3c1ceb45	0.009577577
121	0xbd07dfec	-0.033172533
122	0x3cd47a18	0.025937125
123	0x3da2dab4	0.079518706
124	0x3bee1d3f	0.00726667
125	0x3c93ec5d	0.018057043
126	0xbc802595	-0.01564292
127	0xbd84d754	-0.06486383
128	0xbd925bc9	-0.07146413
129	0xbd7e8ac7	-0.062144067
130	0xbbc6c0d3	-0.006065467
131	0xbd81b035	-0.06332437
132	0xbd7ab334	-0.061206058
133	0x3d8e6158	0.069521606
134	0xbdcc9dcb	-0.09991034
135	0x3d414476	0.04718443
136	0x3bd97251	0.006635942
137	0xbd818103	-0.06323435
138	0x3d0568f6	0.0325708
139	0x3c98e506	0.018663894
140	0xbd757043	-0.059921514
141	0xbdbf4a0e	-0.09340297
142	0x3c900bc1	0.01758373
143	0x3d09ab10	0.033610404
144	0xbd5b4e87	-0.053541686
145	0xbdc0092f	-0.09376752
146	0xbd975c0c	-0.073906034
147	0xbd7acbbc	-0.061229452
148	0xbd985348	-0.0743776
149	0xbda6117c	-0.08108804
150	0x3d1331f6	0.03593632
151	0xbd937f22	-0.07201983
152	0xbdbac9e7	-0.09120541
153	0xbda5f77e	-0.08103846
154	0xbc63f8b4	-0.013914276
155	0x3d81d376	0.06339161
156	0xbdb0dad4	-0.08635488
157	0x3bd645d9	0.006539088
158	0x3d9038db	0.07042094
159	0xbcc221d3	-0.02369777
160	0x3d9c3dc3	0.076289676
161	0x3c493d58	0.012282692
162	0x3caed973	0.021343922
163	0x3d397a07	0.04528239
164	0x3d22b31e	0.0397216
165	0xbd471d1b	-0.04861174
166	0x3db17a14	0.08665863
167	0x3d4361d3	0.047700714
168	0x3db2ffa0	0.08740163
169	0x3d22e0e1	0.039765242
170	0xbd695558	-0.056966156
171	0x3da1b9e4	0.07896784
172	0x3b2d4aa4	0.0026442194
173	0xbd75e03c	-0.0600283
174	0x3d39e9b9	0.04538891
175	0xbdc9275d	-0.09821961
176	0xbc13da06	-0.009024149
177	0x3c2a4721	0.010392935
178	0x3cd5d927	0.026104523
179	0xbd83ad49	-0.06429536
180	0x3bfd1922	0.0077239433
181	0x3d8744d7	0.06604927
182	0xbd08db86	-0.03341248
183	0xbc745f50	-0.014915302
184	0xbd862016	-0.06549089
185	0x3d601afe	0.05471324
186	0xbd6231e3	-0.055223357
187	0x3d1c965b	0.038229328
188	0xbd40a0fd	-0.04702853
189	0x3b2a2e84	0.0025967667
190	0xbd5e43a1	-0.054263715
191	0x3d7476c6	0.059683584
192	0xbcc01196	-0.023445886
193	0xbd87e0ae	-0.06634651
194	0xbd647382	-0.05577422
195	0x3a8a796e	0.0010564753
196	0xbd220af7	-0.03956124
197	0x3c9f47da	0.019443441
198	0x3d542a5e	0.051798217
199	0xbdb3c848	-0.08778435
200	0xbcbc71b3	-0.023003435
201	0xbc18076c	-0.009279113
202	0x3d5e2242	0.05423189
203	0x3d4ec8b7	0.050484385
204	0x3c1daf17	0.009624264
205	0xbd784529	-0.06061283
206	0x3da0592c	0.07829508
207	0xbd8e4677	-0.06947034
208	0x3c996d01	0.018728735
209	0xbd34c290	-0.04413086
210	0xbd849129	-0.064729996
211	0x3cdcc41f	0.026948987
212	0xbd33c5f1	-0.043889944
213	0x3cf76168	0.030197814
214	0x3d2a22e6	0.041537188
215	0x3d69a343	0.057040464
216	0xbd8c71b1	-0.068576224
217	0xbcaa763d	-0.020808334
218	0xbda3201f	-0.07965111
219	0x3c6eec4a	0.014582703
220	0x3d4b5820	0.04964459
221	0x3d20f75e	0.039298408
222	0x3d7a3dee	0.061094217
223	0xbd682d73	-0.05668397
224	0x3d438cdf	0.047741767
225	0xbdb1d294	-0.08682743
226	0xbd50c2e7	-0.050967123
227	0xbc175e6e	-0.009238822
228	0x3daf8575	0.08570377
229	0x3d4c776e	0.049918585
230	0x3d15ea57	0.036600437
231	0xbceba577	-0.028765423
232	0x3d8ba7a3	0.068190835
233	0x3d69dda9	0.057096157
234	0x3d0c5e8f	0.034269866
235	0xbcc44326	-0.0239578
236	0xbb8ac4a7	-0.0042348686
237	0x3cfde287	0.030991806
238	0x3d17a56a	0.037022986
239	0x3d4a0382	0.04931975
240	0x3d1cfb0d	0.03832536
241	0xbc8e390f	-0.017361192
242	0xbd618314	-0.055056646
243	0x3a5953fb	0.0008290407
244	0xbd953401	-0.072853096
245	0xbd293b80	-0.04131651
246	0xb9b794df	-0.00035015398
247	0xbdb89d92	-0.09014429
248	0xbcf87c5e	-0.03033274
249	0xba33ac04	-0.00068539404
250	0xbdba2497	-0.0908901
251	0x3c8e9145	0.017403254
252	0xbd58598e	-0.05281978
253	0xbda06593	-0.07831874
254	0xbd71df09	-0.059050594
255	0xbd84c188	-0.06482226

fc2.bias f4 [84]
0	0x3d64e3d7	0.055881348
1	0xbcba3d46	-0.022734296
2	0xbd5a24e6	-0.053257845
3	0x3dc6c591	0.097056516
4	0x3d9967c8	0.07490498
5	0xbceb378f	-0.028713016
6	0x3d3683c3	0.04455925
7	0xbd92d80d	-0.07170115
8	0xbc7251c1	-0.014789999
9	0xbca4324a	-0.020043511
10	0x3d5eb624	0.05437292
11	0x3d20eff4	0.039291337
12	0xbd95797c	-0.07298562
13	0xbc94d012	-0.018165622
14	0x3dafe369	0.08588297
15	0xbd08d5b1	-0.033406917
16	0xbbe0bf67	-0.0068587544
17	0xbd2290aa	-0.039688744
18	0xbd4e70a7	-0.050400402
19	0xbdaefbfd	-0.08544157
20	0xbd9c88b7	-0.07643264
21	0xbd018856	-0.03162416
22	0xbda5b332	-0.080908194
23	0x3ba9ce1d	0.0051820413
24	0x3c7f3007	0.015575415
25	0x3d227d73	0.03967042
26	0x3cf67014	0.03008274
27	0xbcef43cf	-0.029207138
28	0x3d8ddce1	0.06926895
29	0xbd786eb4	-0.06065245
30	0xbd5bb72b	-0.05364148
31	0x3dad5909	0.08464248
32	0x3d289cac	0.04116504
33	0xbd07b70b	-0.033133548
34	0xbd9a6648	-0.0753904
35	0xbb8793e0	-0.004137501
36	0xbd26cfdf	-0.040725585
37	0x3d358b64	0.044322386
38	0x3c6c8e12	0.014438169
39	0xbd97188c	-0.07377729
40	0xbd8c7372	-0.06857957
41	0xbca94e5a	-0.020667244
42	0x3d0ae745	0.033911962
43	0xbc9e7719	-0.0193439
44	0x3d8bc5fb	0.06824871
45	0xbcc4afc6	-0.024009597
46	0xbd92709c	-0.07150385
47	0x3d60269d	0.054724324
48	0x3cf4d1ee	0.029885259
49	0xbdb59221	-0.088657625
50	0x3db7f926	0.08983068
51	0x3d4388da	0.047737934
52	0xbdaebc35	-0.085319914
53	0xbd27cdbe	-0.040967695
54	0xbd4cca34	-0.049997523
55	0xbc7d0bd5	-0.0154447155
56	0xbc02ca4b	-0.007982801
57	0xbd0a7b01	-0.033808712
58	0xbd810724	-0.0630019
59	0x3db1b9d0	0.08678019
60	0x3b292c70	0.002581384
61	0xbd66cf0c	-0.0563498
62	0xbd8c6eca	-0.06857069
63	0xbdab656f	-0.08368956
64	0xbb9d80b3	-0.004806602
65	0xbd5128ac	-0.05106418
66	0x3bcffbd8	0.006347161
67	0xbd57f38f	-0.05272251
68	0x3d95c202	0.07312395
69	0xbd24754a	-0.040150918
70	0xbc970c0c	-0.018438362
71	0xbd8dd3dc	-0.069251746
72	0x3e0abc42	0.13548377
73	0xbcf46611	-0.029833825
74	0x3d20898f	0.039193686
75	0xbcc15be1	-0.023603382
76	0xbd29392f	-0.0413143
77	0x3d2292be	0.039690726
78	0xbd8217a2	-0.06352164
79	0xbdaa3124	-0.08310154
80	0xbcbaa3de	-0.022783216
81	0xbc0289c0	-0.0079674125
82	0x3dc55895	0.09636036
83	0x3da69f5a	0.08135863

fc3.weight f4 [10, 84]
0	0xbe4abd67	-0.19798814
1	0x3c6912a8	0.014225639
2	0x3b9b7522	0.004744188
3	0x3b3ef124	0.002913543
4	0x3e1ff8e5	0.1562229
5	0x3d5ebc96	0.05437907
6	0x3e403403	0.18769841
7	0x3d727257	0.059191074
8	0x3c8c1a02	0.017102245
9	0x3d98fc9f	0.07470059
10	0x3e972995	0.29523912
11	0x3d5b9d8c	0.053617045
12	0xbe1cddb2	-0.15318945
13	0x3d653f04	0.0559683
14	0xbe7cd5b8	-0.24690902
15	0x3b963e28	0.0045850463
16	0xbdff9f4f	-0.124815576
17	0xbd8491c7	-0.06473117
18	0x3e439ccc	0.19102782
19	0xbd51e83c	-0.051246867
20	0x3bc9ff39	0.006164458
21	0x3c34e3f1	0.011040674
22	0xbe824987	-0.25446722
23	0xbd5b715d	-0.05357491
24	0xbd875bcc	-0.06609306
25	0x3e0fd93c	0.14047712
26	0xbdf1c8ec	-0.11805901
27	0xbdd915c7	-0.10599857
28	0x3d0fc959	0.03510413
29	0x3dc7318a	0.09726246
30	0xbd4a8d4f	-0.04945117
31	0xbd8a06e2	-0.06739594
32	0x3d7dac8a	0.061932124
33	0x3bb29917	0.0054503786
34	0xbdc037df	-0.093856566
35	0xbca73ed1	-0.020415695
36	0xbc78dc24	-0.015189204
37	0x3d9e8b02	0.077413574
38	0xbe30ad07	-0.17253505
39	0x3e684dbe	0.22685906
40	0x3e1e7f9b	0.15478365
41	0x3d92c132	0.07165755
42	0x3dbbae6b	0.09164127
43	0xbe48ab4c	-0.19596595
44	0x3c3f78f9	0.011686557
45	0x3b2d60e2	0.0026455452
46	0xbd80c48f	-0.062874906
47	0xbcff961a	-0.031199504
48	0x3dd693f0	0.104774356
49	0x3d830dee	0.06399141
50	0x3e184529	0.14870133
51	0x3d1feaf6	0.039042436
52	0xbd999d39	-0.07500691
53	0x3cac7417	0.02105145
54	0xbe4847e9	-0.19558682
55	0xbca75eb4	-0.0204309
56	0xbe92e688	-0.28691506
57	0xbdb66c42	-0.08907367
58	0x3dd8603d	0.10565231
59	0xbe234b3d	-0.1594667
60	0xbd3d64e4	-0.046238795
61	0x3db129f7	0.08650582
62	0xbd768855	-0.06018861
63	0xbd610e10	-0.05494505
64	0x3e89a87c	0.26886356
65	0xbdb8fdbe	-0.090327725
66	0xbe00bc3d	-0.12571807
67	0x3d8795d6	0.06620376
68	0xbded5046	-0.115875766
69	0xbd7de662	-0.06198729
70	0x3eb2bb67	0.34908602
71	0xbdd09286	-0.10184197
72	0xbe44ca24	-0.19217736
73	0xbda3d748	-0.08000046
74	0xbcbc667c	-0.022998087
75	0x3cbd9845	0.023143897
76	0xbc30a673	-0.010781872
77	0xbe88b2fb	-0.2669905
78	0x3e2ecdbe	0.17070672
79	0xbe09b93a	-0.13449565
80	0x3b880d8d	0.004152006
81	0x3d87c374	0.066290766
82	0x3e1720d6	0.1475862
83	0x3c402390	0.011727229
84	0x3d2db0fd	0.042405117
85	0xbbbeb7c3	-0.005820246
86	0xbd619488	-0.05507329
87	0x3dd68e20	0.10476327
88	0x3e13f98c	0.14450663
89	0xbbcaa3d4	-0.0061840806
90	0x3e0827e1	0.13296463
91	0xbcf31cc2	-0.029676799
92	0x3ec7b938	0.39008498
93	0xbe8e5474	-0.27798808
94	0xbc41f718	-0.011838697
95	0xbe2c0b61	-0.16801216
96	0xbdc3f7d4	-0.09568754
97	0xbceb5645	-0.02872766
98	0x3d63a35b	0.05557571
99	0xbda70c51	-0.08156646
100	0x3dc5e3b5	0.09662572
101	0xbdea0c20	-0.11428094
102	0xbe8c7951	-0.27436307
103	0x3c9c4f8b	0.019080898
104	0xbcd64462	-0.026155654
105	0xbdb4b408	-0.08823401
106	0xbe104292	-0.14087895
107	0xbd5863de	-0.052829616
108	0xbda27397	-0.07932203
109	0xbe1c6ce1	-0.15275909
110	0x3ddd6a0a	0.10811241
111	0x3e135354	0.14387256
112	0xbd82dc62	-0.06389691
113	0xbd0dcdf9	-0.03462026
114	0xbc84c503	-0.016207224
115	0xbd8bf94a	-0.068346575
116	0x3e3e31e3	0.18573718
117	0x3da732f7	0.08164018
118	0xbdd76bcc	-0.105186075
119	0xbd0da298	-0.03457889
120	0x3e789e26	0.24279079
121	0xbdf7e02a	-0.12103303
122	0x3cb5b12e	0.022179212
123	0xbd65f38c	-0.056140468
124	0xbe5dcf21	-0.21661045
125	0xbd97ab28	-0.07405692
126	0xbe9e7c14	-0.3095404
127	0x3d48046f	0.048832353
128	0xbd17cdb4	-0.03706141
129	0xbe06f92f	-0.13180993
130	0x3d07d4e3	0.03316201
131	0x3e36cc8c	0.17851466
132	0x3e12f1a6	0.14349994
133	0x3d813b4e	0.063101396
134	0xbd8dced6	-0.069242164
135	0xbd4befae	-0.049789123
136	0xbdb34276	-0.08752911
137	0x3b3e8dbe	0.0029076184
138	0xbe76e4f8	-0.24110782
139	0x3d166cbf	0.036724802
140	0x3d525b5c	0.05135666
141	0xbdbd7f4e	-0.09252797
142	0x3de221c2	0.11041595
143	0xbd7e3878	-0.06206557
144	0x3d9272d6	0.071508095
145	0x3cf862f6	0.030320626
146	0x3db83dee	0.08996187
147	0x3ddacd3d	0.10683677
148	0xbe937d0c	-0.2880634
149	0x3d8d1c0c	0.06890115
150	0x3d0ebdb1	0.034848873
151	0xbdd06d92	-0.10177149
152	0xbdacd234	-0.084385306
153	0x3e3686a7	0.17824803
154	0xbe5113b5	-0.20417674
155	0x3da955ee	0.08268343
156	0x3eed5932	0.46357113
157	0xbdad57bb	-0.08463999
158	0x3e6ac0c9	0.22925104
159	0xbe375e8d	-0.17907162
160	0xbd7208d4	-0.05909045
161	0x3e1ae326	0.15125713
162	0x3ded0a24	0.115742
163	0x3e03c4b1	0.12868
164	0xbcef8cce	-0.029241946
165	0xbe1d209d	-0.15344472
166	0x3c71da8e	0.01476158
167	0x3e299896	0.16562113
168	0x3e0c045b	0.13673536
169	0x3d86a014	0.06573501
170	0x3d87be0a	0.06628044
171	0xbe3753b3	-0.17903022
172	0x3e4291eb	0.19000976
173	0xbdb92257	-0.09039753
174	0x3ddf83cc	0.1091381
175	0xbd0020f2	-0.03128142
176	0x3e400a2a	0.18753877
177	0x3e329fa1	0.17443706
178	0x3d6af5e3	0.057363402
179	0x3daf8512	0.08570303
180	0xbd93151e	-0.07181762
181	0x3d4f747a	0.05064819
182	0xbe61a950	-0.22037244
183	0x3cf42240	0.029801488
184	0xbde8e980	-0.113726616
185	0xbd8f81a2	-0.07007147
186	0x3da31285	0.07962517
187	0x3b53b9e4	0.0032306844
188	0xbcc95f4e	-0.024581578
189	0x3d6f2d74	0.058392957
190	0x3d4c7ff7	0.049926724
191	0xbe14bf3c	-0.14526075
192	0x3d715db3	0.05892725
193	0xbddf11fb	-0.108921014
194	0x3e215406	0.15754709
195	0x3e937c3b	0.28805718
196	0xbe03e896	-0.12881693
197	0x3c8e07ab	0.01733764
198	0x3d87b10e	0.066255674
199	0xbdbf398c	-0.09337148
200	0xbe0259d9	-0.12729587
201	0x3a3072d8	0.000673098
202	0x3db9f69e	0.090802416
203	0xbe71cd62	-0.23613504
204	0x3db6add2	0.08919872
205	0x3ceff68e	0.029292371
206	0x3dca6e1b	0.09884282
207	0xbe0cf3a6	-0.1376482
208	0x3e05f3df	0.1308131
209	0xbdb86bf8	-0.090049684
210	0xbe8ddff8	-0.27709937
211	0xbe4b65b3	-0.19863014
212	0xbbdd8284	-0.0067599434
213	0xbd8f90ed	-0.07010064
214	0xbb6a92c3	-0.0035793043
215	0xbd763feb	-0.06011955
216	0xbdca153b	-0.09867331
217	0xbcacae4c	-0.021079205
218	0xbe35fd0a	-0.17772308
219	0x3dc3e08a	0.09564312
220	0xbdbbd626	-0.09171705
221	0xbd1f2bc3	-0.038860094
222	0x3dedfee7	0.116208844
223	0x3d7196ab	0.05898158
224	0xbe1192a0	-0.14216089
225	0x3cf33687	0.029689087
226	0xbd7ba0d8	-0.06143269
227	0xbe4ae0b4	-0.1981228
228	0x3d927074	0.07150355
229	0x3dba951e	0.09110473
230	0xbd1ad625	-0.03780188
231	0xbcf8c0e4	-0.030365415
232	0x3e6c9be3	0.23106341
233	0x3df179ba	0.117907956
234	0xbdca59d9	-0.09880418
235	0x3ce64791	0.028110297
236	0x3e8216a1	0.2540789
237	0xbcc9d8dc	-0.02463954
238	0xbe081284	-0.13288313
239	0x3d9da833	0.07698097
240	0x3e0695bf	0.13143061
241	0x3daab0cd	0.08334503
242	0xbe2eae97	-0.17058788
243	0x3e0d6536	0.1380814
244	0x3e010668	0.126001
245	0xbdfeca14	-0.12440887
246	0x3d959453	0.07303681
247	0x3e6aa243	0.2291346
248	0xbd5af803	-0.05345918
249	0x3e8683d4	0.26272452
250	0xbe010f99	-0.12603606
251	0x3e3f8dac	0.18706387
252	0x3e0dce90	0.13848329
253	0xbc9cd261	-0.019143285
254	0xbd921798	-0.071334064
255	0xbd8f3cc9	-0.06994016

fc3.bias f4 [10]
0	0xbc52c948	-0.012865372
1	0x3df41506	0.119180724
2	0xbda90db4	-0.08254567
3	0xbda3fd9c	-0.080073565
4	0x3c8b3f38	0.016997918
5	0xbdc69a98	-0.09697455
6	0xbcccbd3e	-0.024992581
7	0xbd593c34	-0.05303593
8	0x3db966f7	0.09052842
9	0xbdba6e0e	-0.091030225
